AE_974_0802.tflite (tflite, 12364 bytes, 4 tensors)

dense_3/bias f4 [21]
0	0xbe37b914	-0.17941695
1	0xbe399956	-0.181249
2	0xbe0c1218	-0.13678777
3	0xbdc38d40	-0.09548426
4	0xbdb4aeb4	-0.088223845
5	0xbdcc270e	-0.099683866
6	0xbd9f4766	-0.0777729
7	0xbe17ba28	-0.14817107
8	0xbdb69357	-0.089148216
9	0xbe160891	-0.14651705
10	0xbbc908a6	-0.006135064
11	0xbdaff583	-0.085917495
12	0xbdf47128	-0.11935645
13	0xbda6aff5	-0.0813903
14	0xbcb89324	-0.0225311
15	0xbdebe4e8	-0.1151827
16	0xbdd31eb8	-0.103085935
17	0xbe30de46	-0.1727229
18	0x3f7c908b	0.98658055
19	0xbe560fe1	-0.20904495
20	0x3f7d6a83	0.9899065

dense_2/bias f4 [64]
0	0x3e8baef4	0.27281916
1	0x3e4e4919	0.20145072
2	0x3b081734	0.0020765783
3	0xbdd3dd64	-0.10344961
4	0xbdbc152e	-0.09183727
5	0xbd97a811	-0.07405103
6	0x3e000e3d	0.12505431
7	0xbd8cd1e3	-0.0687597
8	0xbd8e2f47	-0.06942611
9	0x3e29d762	0.16586068
10	0x3e44766c	0.191858
11	0x3d4268cb	0.04746322
12	0xbd6f530e	-0.058428816
13	0xbdcae685	-0.09907249
14	0xbe152e33	-0.14568405
15	0xbdea90db	-0.1145341
16	0x3df98220	0.121830225
17	0x3dc6e3e9	0.09711439
18	0xbdb860ff	-0.090028755
19	0x3ca26285	0.019822368
20	0x3ba0358b	0.0048891953
21	0xbdd762ce	-0.105168924
22	0x3bbd2d93	0.005773255
23	0x3d9dd827	0.077072434
24	0x3c8732b4	0.01650367
25	0xbd228525	-0.039677758
26	0xbe1a38e9	-0.15060772
27	0x3e47da54	0.1951688
28	0x3d08b0ac	0.033371612
29	0xbda8afca	-0.08236654
30	0xbd9cd780	-0.07658291
31	0x3e004af4	0.12528592
32	0xbd75022f	-0.059816536
33	0xbdcab6c1	-0.09898139
34	0x00000000	0.0
35	0xbde1a0b7	-0.11016982
36	0xbdab16bd	-0.08353946
37	0xbd083486	-0.033253215
38	0x3d576e65	0.052595515
39	0xbd5864ba	-0.052830435
40	0x3d23862f	0.03992289
41	0xbd8b84b5	-0.06812421
42	0xbcad3c97	-0.021147056
43	0xbd4ae728	-0.049536854
44	0xbdbf5700	-0.09342766
45	0x3ad77e9a	0.0016440928
46	0xbdec9358	-0.11551541
47	0x3e858e19	0.26084974
48	0x3c63cb76	0.013903489
49	0xbdaf97ca	-0.08573873
50	0x3e8a3669	0.26994637
51	0x3da4fd1e	0.08056091
52	0xbddb2248	-0.10699898
53	0xbc29b4db	-0.010358061
54	0xbd0d056a	-0.03442899
55	0xbd41e5b1	-0.04733819
56	0xbc3bda67	-0.011465645
57	0x3e01ecaf	0.12687944
58	0xbce35e2b	-0.027754864
59	0xbde441cd	-0.11145363
60	0xbcf0a173	-0.02937386
61	0xbe0a7ccf	-0.13524173
62	0x3cd881bf	0.026429055
63	0x3e3238d4	0.1740449

sequential_1/dense_2/MatMul f4 [64, 21]
0	0x3e64a3d8	0.22328126
1	0x3e55c0ba	0.208743
2	0x3e222da4	0.15837723
3	0x3e409c93	0.18809728
4	0xbe1f58cf	-0.15561222
5	0xbd81e66f	-0.0634278
6	0xbe108717	-0.14114033
7	0xbe2e4b1e	-0.17020842
8	0xbe83ba5a	-0.25728112
9	0xbd4a9754	-0.049460724
10	0x3cbf590e	0.023357894
11	0x3d64f9ff	0.055902477
12	0xbc58f8f1	-0.013242946
13	0xbd8807fd	-0.06642149
14	0x3e05e1e6	0.13074455
15	0x3a4d3b92	0.0007829006
16	0xbc41325e	-0.011791794
17	0x3b0d2eaf	0.0021542718
18	0xbc2b5262	-0.010456653
19	0x3ca1ae3b	0.0197364
20	0xbc8c70bc	-0.0171436
21	0x3e48d54d	0.19612618
22	0x3e587c58	0.21141183
23	0x3ec1b6ac	0.3783468
24	0x3e9683c4	0.29397404
25	0xbd7c04a0	-0.06152785
26	0xbd221df0	-0.039579332
27	0x3d9ca754	0.07649103
28	0xbddf807e	-0.1091318
29	0xbe380dc2	-0.17973998
30	0xbe2dd538	-0.16975868
31	0xbd212298	-0.03933963
32	0x3dac23f2	0.084052935
33	0x3dd4e55c	0.10395309
34	0x3e40a888	0.1881429
35	0xbc2fcf5e	-0.0107305925
36	0xbdaa45cc	-0.08314094
37	0xbe57ada8	-0.21062338
38	0xbe8076c8	-0.25090623
39	0x3e2ea526	0.17055187
40	0x3b74a4d5	0.0037329693
41	0x3cd4fdb3	0.02599988
42	0x3ce501a5	0.027954886
43	0x3e35dade	0.17759272
44	0x3bc784d0	0.0060888305
45	0x3e5e8b8a	0.21732917
46	0x3e1082d0	0.14112401
47	0xbc2c9613	-0.010533827
48	0x3ce266a8	0.027636841
49	0xbe6b1117	-0.22955738
50	0x3e0fe1db	0.14051001
51	0x3d7a4499	0.061100576
52	0xbe9f30bd	-0.31091872
53	0xbe1c5f62	-0.1527076
54	0x3e06e1f7	0.13172136
55	0x3e98c884	0.2984048
56	0xbb1e1b43	-0.0024125136
57	0xbd484aef	-0.048899587
58	0x3d97fcf5	0.074212946
59	0x3e42d0eb	0.19025008
60	0xbea582e9	-0.3232644
61	0x3d58ca47	0.05292728
62	0xbdd0e25e	-0.10199426
63	0xbe7af00f	-0.24505638
64	0x3d26d21d	0.040727723
65	0x3e03ac0f	0.12858604
66	0xbe85c320	-0.2612543
67	0x3d9d2d93	0.07674708
68	0x3c9d2b52	0.019185696
69	0xbcb386b0	-0.02191481
70	0x3e8a67c3	0.2703229
71	0xbd808c47	-0.06276756
72	0x3d55b24a	0.052171983
73	0x3e1e656f	0.15468381
74	0xbc95d9b3	-0.018292284
75	0xbd81f0ee	-0.06344782
76	0x3df9052d	0.1215919
77	0x3e8d6b12	0.2762075
78	0xbc03f46c	-0.00805388
79	0xbe4f7e24	-0.20262963
80	0xbe3bc972	-0.18338564
81	0xbd367e06	-0.04455378
82	0xbe0d017d	-0.13770099
83	0xbe1370cf	-0.14398502
84	0xbe2f66d3	-0.17129068
85	0x3e4f8b56	0.20267996
86	0xbe023549	-0.12715639
87	0x3d9348a9	0.07191593
88	0x3daee5e1	0.0853994
89	0xbe307d02	-0.17235187
90	0x3e2aec42	0.16691688
91	0xbe0f705c	-0.14007705
92	0x3d71ba59	0.059015606
93	0x3da781f4	0.081790835
94	0xbe15bf2a	-0.14623705
95	0x3d93e57a	0.072215036
96	0xbe326811	-0.1742251
97	0x3e1bf699	0.15230788
98	0x3e0581ce	0.13037798
99	0x3e28bd3b	0.16478436
100	0x3d64bfe9	0.055847082
101	0xbe093f79	-0.13403119
102	0x3e24940c	0.160721
103	0x3ddd545d	0.10807107
104	0xbe8d4844	-0.27594197
105	0xbe5c272a	-0.21499315
106	0xbd3e1a14	-0.04641159
107	0xbd009c02	-0.03139878
108	0xbe7a6375	-0.24452002
109	0xbeaf326d	-0.3421816
110	0x3ea04b01	0.31307223
111	0xba817be9	-0.0009878847
112	0x3e1cc21b	0.1530842
113	0x3cb06b03	0.021535402
114	0x3e0904c6	0.13380727
115	0xbd3ce990	-0.04612118
116	0x3db8bdd4	0.09020582
117	0xbde7d9a9	-0.11320812
118	0xbe36063e	-0.17775819
119	0x3d73c309	0.059512172
120	0x3d3824d1	0.044956986
121	0x3d954e00	0.07290268
122	0x3e046308	0.12928402
123	0xbe2a4797	-0.16628872
124	0x3d8f96cc	0.07011184
125	0x3e403d94	0.1877349
126	0xbbeffbc1	-0.0073237126
127	0x3be09d4c	0.0068546887
128	0x3d43cd6e	0.047803335
129	0xbd83cce9	-0.06435568
130	0x3e8c6df3	0.27427635
131	0xbdb2b3d9	-0.087257095
132	0x3d7dbb5c	0.061946258
133	0x3d8c1d06	0.06841473
134	0x3dbc7e42	0.09203769
135	0x3d2a74cb	0.04161529
136	0x3eebcc26	0.4605419
137	0xbd8cbe69	-0.06872255
138	0xbe230324	-0.15919167
139	0x3daa2138	0.08307117
140	0x3e1e65e8	0.15468562
141	0x3dfb552b	0.12272104
142	0xbe0e3a86	-0.13889512
143	0xbcca567d	-0.024699444
144	0xbd3a4f74	-0.04548593
145	0xbe461b3d	-0.19346328
146	0x3d1b2577	0.037877526
147	0xbe243ba0	-0.1603837
148	0x3e2fb127	0.17157422
149	0x3e3b0f24	0.18267494
150	0xbea92e3f	-0.33043095
151	0x3dcb87a5	0.099379815
152	0x3e4185cb	0.18898694
153	0x3c5ab06f	0.013347729
154	0x3e017258	0.12641275
155	0xbdc2ae76	-0.09505932
156	0xbe56b9cc	-0.20969313
157	0xbe2fff8c	-0.17187327
158	0x3e013298	0.12616956
159	0xbdc637c3	-0.096786045
160	0x3e47730a	0.19477478
161	0x3d7f2f9a	0.062301256
162	0x3e873533	0.26407775
163	0x3e7d1bb9	0.24717607
164	0x3d042d46	0.03226974
165	0xbdf85a9d	-0.12126658
166	0x3e2ac531	0.16676785
167	0xbd7a17b6	-0.06105777
168	0xbd1ec08a	-0.03875784
169	0xbe127f98	-0.14306486
170	0xbc12b3fb	-0.0089540435
171	0xbc03555f	-0.0080159595
172	0x3d3d88cb	0.046273034
173	0x3e4823be	0.19544885
174	0x3e2844d1	0.16432501
175	0x3d5d7707	0.05406859
176	0xbe5a4f3f	-0.21319292
177	0x3d8be7fa	0.068313554
178	0x3ecb4d8e	0.39707607
179	0x3d6e2782	0.058143146
180	0xbd596d13	-0.053082537
181	0xbe00db50	-0.12583661
182	0x3dc03d8f	0.09386741
183	0xbe0c0e10	-0.1367724
184	0xbc3e1ead	-0.011603993
185	0x3e824db7	0.25449917
186	0xbdacf9cb	-0.08446082
187	0xbe62e13e	-0.22156236
188	0x3e2200f7	0.1582068
189	0x3e26b27e	0.16279027
190	0xbd77ca30	-0.060495555
191	0x3ec29845	0.38006797
192	0xbe160cfd	-0.14653392
193	0xbe057eaf	-0.13036607
194	0xbe2d71e8	-0.16937983
195	0x3ba5afa7	0.00505634
196	0x3d028b89	0.031871352
197	0xbe2563cc	-0.1615135
198	0x3cfbb0a5	0.03072388
199	0x3bc7d5f0	0.0060985014
200	0xbd1f7060	-0.03892553
201	0x3d1f5063	0.038895022
202	0x3b8657be	0.004099815
203	0xbdb7bd74	-0.08971682
204	0xbdb79f96	-0.089659855
205	0x3e43e674	0.1913088
206	0xbd0438c4	-0.0322807
207	0xbd8c4747	-0.068495326
208	0x3db4f950	0.08836615
209	0xbd120c66	-0.035656355
210	0x3da930e0	0.08261275
211	0xbe5854af	-0.21126054
212	0x3eae1b34	0.3400513
213	0xbd90ec6a	-0.070763424
214	0xbd032cb7	-0.032025065
215	0xbe4ec105	-0.20190819
216	0xbda12e5f	-0.07870173
217	0xbe1a39a2	-0.15061048
218	0x3de6a9e8	0.11262876
219	0x3d9f6ee0	0.077848196
220	0xbd866ff4	-0.06564322
221	0xbbb7ec76	-0.005612905
222	0x3d40f1ee	0.047105722
223	0xbe175823	-0.14779715
224	0x3c8fb2d0	0.01754132
225	0x3cf720b3	0.03016696
226	0xbd1e9dbd	-0.03872465
227	0xbe3c99f0	-0.18418097
228	0xbe23b0ae	-0.15985367
229	0x3e074c19	0.13212623
230	0xbea49652	-0.32145935
231	0xbc83b021	-0.016075196
232	0x3d960579	0.073252626
233	0xbc16757c	-0.009183284
234	0xbe1c06f6	-0.1523703
235	0x3e7f98da	0.24960652
236	0xbe15c313	-0.14625196
237	0x3c082226	0.008308923
238	0x3c469224	0.012119804
239	0x3d5d09aa	0.053964294
240	0x3d8be58e	0.068308935
241	0xbe3e78fc	-0.1860084
242	0xbd84b38c	-0.06479558
243	0x3f444edf	0.7668285
244	0xbdfd7d27	-0.123773865
245	0x3ce5419c	0.027985387
246	0xbc8aee0e	-0.016959216
247	0x3b3b35f1	0.0028566087
248	0xbe4bfd08	-0.19920743
249	0x3d56ba97	0.05242404
250	0x3e463fb4	0.19360238
251	0xbe3682b5	-0.17823298
252	0xbd530850	-0.0515216
253	0x3e8fb8b0	0.28070593
254	0x3ce5405a	0.027984787
255	0xbe125056	-0.14288458

sequential_1/dense_3/MatMul f4 [21, 64]
0	0xbbb44618	-0.00550152
1	0xbc371326	-0.011173999
2	0xbdaf8d39	-0.08571858
3	0x3d17dc79	0.037075493
4	0xbe7272ad	-0.23676558
5	0xbe1759de	-0.14780375
6	0x3d1493f7	0.036273923
7	0x3d310985	0.04322197
8	0xbda66312	-0.08124365
9	0x3d0118a9	0.03151766
10	0xbd946d54	-0.07247415
11	0xbd189fd1	-0.037261788
12	0xbdf0006e	-0.11718832
13	0xbe4d6f3d	-0.20061965
14	0xbe59bdd5	-0.21263821
15	0x3e827823	0.25482282
16	0x3e2083f2	0.15675333
17	0xbb7c7fbc	-0.0038528284
18	0xbeb542a6	-0.3540241
19	0x3e5e2740	0.2169466
20	0xbe347024	-0.17620903
21	0xbd8f3ded	-0.06994233
22	0x3d55fe7b	0.052244645
23	0x3e1a1202	0.15045932
24	0x3db8fcff	0.0903263
25	0xbdda02d3	-0.1064507
26	0xbe2e4466	-0.1701828
27	0xbc2c09de	-0.010500399
28	0x3e8acd1d	0.27109614
29	0xbe7b560b	-0.24544542
30	0xbcb4ff7a	-0.022094477
31	0x3d811c63	0.063042425
32	0x3dffbc38	0.12487072
33	0xbd535bad	-0.0516011
34	0xbe186a78	-0.14884365
35	0xbd74edc3	-0.05979706
36	0xbcd8e83a	-0.026477922
37	0x3d655cd9	0.05599675
38	0xbe03132c	-0.12800282
39	0xbe3a52e3	-0.18195681
40	0x3e2580b9	0.16162385
41	0xbda1df66	-0.07903938
42	0xbe84fa91	-0.25972417
43	0x3e72cd80	0.23711205
44	0xbd3432b1	-0.043993656
45	0x3e322bb9	0.17399491
46	0xbe8effd9	-0.2792957
47	0x3d770740	0.06030965
48	0xbe89d508	-0.26920342
49	0x3e6052d9	0.21906604
50	0xbd11b2af	-0.035570797
51	0x3c5f2858	0.013620459
52	0xbe00e262	-0.12586358
53	0xba9dfa97	-0.0012052831
54	0x3de46ec8	0.11153942
55	0xbe002d0e	-0.12517187
56	0x3d926cc7	0.07149654
57	0x3dbc922b	0.09207567
58	0x3e6c66c4	0.23086077
59	0xbc954f1d	-0.0182262
60	0xbe8b457e	-0.27201456
61	0xbe558388	-0.20850956
62	0xbde2eaa4	-0.110799104
63	0xbd011a75	-0.031519372
64	0x3e2eaa5f	0.17057179
65	0xbe0f439d	-0.13990636
66	0x3ea07940	0.31342506
67	0xbd93389b	-0.07188531
68	0x3c05b844	0.008161608
69	0xbe00fc61	-0.12596275
70	0xbe973fb9	-0.29540804
71	0x3d25820a	0.040407218
72	0xbcf28cae	-0.029608097
73	0x3d81f6d4	0.06345907
74	0xbd6a782f	-0.057243522
75	0xbe186a99	-0.14884414
76	0xbdc7386c	-0.097275585
77	0x3dc56441	0.096382625
78	0xbe405a55	-0.18784459
79	0xbe005d8e	-0.12535688
80	0xbcd0c5d7	-0.025484962
81	0xbafd2ad5	-0.0019315133
82	0xbd78413a	-0.06060908
83	0x3d27b92d	0.04094808
84	0x3cbeeefa	0.023307312
85	0xbe543f1f	-0.20727204
86	0x3e15e1a3	0.14636855
87	0xbe61700a	-0.22015396
88	0xbebdb241	-0.3705006
89	0x3df4522a	0.11929734
90	0xbe2bac2b	-0.16764896
91	0x3e09521a	0.13410226
92	0xbc58fb52	-0.013243513
93	0x3e1fd2fe	0.15607831
94	0xbccf1645	-0.025279174
95	0xbd3bac08	-0.04581836
96	0xbe4593fe	-0.19294736
97	0x3e30762f	0.17232583
98	0x3d9b1630	0.07572591
99	0x3d0883f4	0.033328965
100	0xbdea000b	-0.114257894
101	0x3d1fdad4	0.03902705
102	0xbe3e86f7	-0.18606173
103	0x3e624209	0.22095503
104	0x3e27e23c	0.16394895
105	0xbe527f09	-0.20556273
106	0xbe1c8936	-0.15286717
107	0x3e2f6502	0.17128375
108	0xbd581ff7	-0.05276486
109	0x3ea1632a	0.3152097
110	0xbdaf58db	-0.0856187
111	0xbd4532df	-0.048144218
112	0x3e937cae	0.2880606
113	0xbdf574ec	-0.11985192
114	0xbd68f115	-0.05687054
115	0xbe5440ab	-0.20727794
116	0xbdc996dd	-0.09843228
117	0x3e4338d6	0.1906465
118	0xbe674dcf	-0.22588275
119	0x3e04fc9e	0.12986991
120	0x3e1fe1c3	0.15613465
121	0x3d6b1494	0.05739267
122	0xbe5c6485	-0.2152272
123	0x3e1d774a	0.15377536
124	0xbe1fd43b	-0.15608303
125	0x3e093713	0.13399915
126	0x39ff2eb5	0.0004867219
127	0xbcf5f7a8	-0.030025318
128	0x3c07548e	0.0082599055
129	0x3d08d866	0.0334095
130	0x3e0ab2d8	0.13544786
131	0xbe80e6d5	-0.2517611
132	0xbbcade36	-0.0061910404
133	0xbeae9921	-0.34101203
134	0x3d56a4d2	0.05240328
135	0xbda281e6	-0.079349324
136	0xbd6cd3c3	-0.05781914
137	0x3d88bb91	0.066764005
138	0x3d52dc47	0.051479604
139	0x3d4ecc81	0.050488
140	0x3d1e02c4	0.038576856
141	0xbd3b6153	-0.045747112
142	0x3ccacd03	0.02475596
143	0x3e242708	0.16030514
144	0x3d2f848b	0.042851012
145	0x3d045a74	0.032312825
146	0xbdc881b7	-0.09790366
147	0x3e274cfc	0.16337961
148	0x3d331dce	0.043729596
149	0x3e1e383b	0.15451138
150	0xbdab6f54	-0.083708435
151	0x3d32b9a0	0.043634057
152	0xbc2c458d	-0.010514629
153	0xbe34654a	-0.17616764
154	0xbe3549c3	-0.17703919
155	0x3aba80b9	0.0014229036
156	0x3db4b34e	0.08823262
157	0xbd0ec3b8	-0.03485462
158	0xbe37fb8a	-0.17967048
159	0x3dbf53c4	0.09342149
160	0x3dd98d05	0.106226005
161	0x3dc1a9ad	0.09456191
162	0x3c118e80	0.008884072
163	0xbc9e83f2	-0.019350026
164	0x3cfa6dbf	0.03056991
165	0x3e8c9d23	0.27463636
166	0xbd518c98	-0.05115947
167	0xbe1b8d00	-0.15190506
168	0x3d85dbda	0.06536074
169	0xbe8e0bd7	-0.27743408
170	0xbe28e167	-0.16492234
171	0x3e6dc730	0.23220515
172	0x3cb43486	0.021997701
173	0x3e423868	0.1896683
174	0x3e153802	0.14572147
175	0x3d733168	0.05937329
176	0xbc6184be	-0.013764558
177	0x3dd8bf81	0.105834015
178	0x3d25e9a2	0.040506013
179	0x3cbfa544	0.023394234
180	0x398bb681	0.00026648122
181	0x3ce7db89	0.028302925
182	0xbd8065a6	-0.06269388
183	0xbda9b65c	-0.082867354
184	0x3da7f117	0.08200281
185	0x3ea5d873	0.323917
186	0x3c94a170	0.018143386
187	0x3e2783fe	0.16358945
188	0x3df92d6b	0.12166866
189	0xbb88b14f	-0.0041715275
190	0x3dafd507	0.085855536
191	0x3d103955	0.035210926
192	0xbdb887b0	-0.09010255
193	0xbe8e8224	-0.27833664
194	0x3d44de6a	0.048063673
195	0xbd3a1a38	-0.04543516
196	0xbbac1ff5	-0.005252833
197	0x3c935250	0.017983586
198	0xbdf6438e	-0.12024604
199	0xbe49130d	-0.19636174
200	0xbe54786e	-0.20749065
201	0x3d22334b	0.039599698
202	0xbdfdb972	-0.123888865
203	0x3b7b1541	0.003831223
204	0x3d1d6f05	0.038435955
205	0x3d797a4b	0.060907643
206	0xbcade846	-0.02122892
207	0xbe250b45	-0.1611758
208	0x3de1edef	0.1103171
209	0xbdee2c3d	-0.116295315
210	0x3b938021	0.004501358
211	0x3dce550f	0.100748174
212	0xbe6d9cf8	-0.2320441
213	0x3e5cd52c	0.21565694
214	0x3e3cc1dd	0.18433328
215	0x3e3aaca5	0.18229921
216	0xbe5327ec	-0.20620698
217	0xbd323800	-0.043510437
218	0x3d517187	0.05113366
219	0xbc91d0a5	-0.017799685
220	0x3ce6a0f5	0.028152922
221	0xbd74de9e	-0.059782617
222	0xbe4d4db5	-0.20049174
223	0xbd4ded09	-0.050274882
224	0xbe1ac3c4	-0.15113741
225	0xbe912728	-0.28350186
226	0x3e66214e	0.22473642
227	0xbe893a37	-0.26802227
228	0x3d52cbc9	0.051463876
229	0x3e83be7f	0.25731274
230	0xbe443424	-0.19160515
231	0xbe86ff69	-0.26366737
232	0x3d5bccbc	0.053662047
233	0xbdeaf9fe	-0.114734635
234	0xbe39bfa3	-0.1813951
235	0xbde03fbc	-0.10949656
236	0x3d8dc36f	0.069220416
237	0x3da69db2	0.08135547
238	0x3cc1f5d0	0.023676783
239	0x3d946b8d	0.07247076
240	0xbd080dc4	-0.033216253
241	0xbe8bc297	-0.27296898
242	0xbcb47f43	-0.02203334
243	0x3db4a4a1	0.08820463
244	0xbd24c89b	-0.040230375
245	0x3ddddb0d	0.10832796
246	0xbda9ca50	-0.08290541
247	0xbd0f17a9	-0.034934673
248	0x3d97cfb3	0.07412662
249	0xbe2a1878	-0.16610897
250	0xbde210da	-0.110383704
251	0xbdeeebfe	-0.11666106
252	0x3dfb5a55	0.12273089
253	0xbe90d553	-0.28287753
254	0x3c55dcdf	0.013053148
255	0xbe8124e5	-0.2522346
