lstm994_ae_0801.tflite (tflite, 220408 bytes, 10 tensors)

time_distributed_16/bias f4 [3]
00000000: 9f77 c03b 5b68 473b fe82 833b
0.005873635 0.003042719 0.004013418

lstm_55/lstm_cell_14/bias f4 [256]
00000000: da56 3fbc 505e 92bb 9c74 88bb 240f 15bc
00000010: d08c 4cbb 514d 43bb f27d 44bc 0b24 09bc
00000020: c27a 8eba 6929 dbbb 4ad4 fbbb 7809 92bc
00000030: bd82 533b cdf3 e8bb 4860 8bbb c434 1ebc
00000040: 21ab e0bb 9bcd c03a 7f40 68bc 537d 9bbc
00000050: d8a1 8bbb 55a3 bbbb d773 05bb 5c84 f9bb
00000060: 73f0 bcbb fc3f fdbb 4b35 1abc 5012 b5bb
00000070: 8ff7 76bb ff12 24bc 66c0 8ebb 63a1 24bc
00000080: 30de 20bc 6459 a6bb ee39 2cbc c273 12bc
00000090: 76b6 bc3b e673 a1bb 2cbe 93bb d29a b1bb
000000a0: d5e3 7fbc 41e2 76bc 939c 02bb ea61 44bb
000000b0: f195 1fbb cc5d 2438 68c7 84bc 159a 9bbc
000000c0: e8a7 4ebc 507f 9abb dd86 d1bb e32a 0dbc
000000d0: fa17 65bb ab25 ebbb 4a72 abbb 645c 49bc
000000e0: 554e e8bb d90b d9bb 812c f0bb 231d 65bc
000000f0: 391f f7bb d2a6 4abb e069 5ebc c7d7 dcbb
00000100: 0000 803f 0000 803f 0000 803f 0000 803f
00000110: 0000 803f 0000 803f 0000 803f 0000 803f
00000120: 0000 803f 0000 803f 0000 803f 0000 803f
00000130: 0000 803f 0000 803f 0000 803f 0000 803f
00000140: 0000 803f 0000 803f 0000 803f 0000 803f
00000150: 0000 803f 0000 803f 0000 803f 0000 803f
00000160: 0000 803f 0000 803f 0000 803f 0000 803f
00000170: 0000 803f 0000 803f 0000 803f 0000 803f
00000180: 0000 803f 0000 803f 0000 803f 0000 803f
00000190: 0000 803f 0000 803f 0000 803f 0000 803f
000001a0: 0000 803f 0000 803f 0000 803f 0000 803f
000001b0: 0000 803f 0000 803f 0000 803f 0000 803f
000001c0: 0000 803f 0000 803f 0000 803f 0000 803f
000001d0: 0000 803f 0000 803f 0000 803f 0000 803f
000001e0: 0000 803f 0000 803f 0000 803f 0000 803f
000001f0: 0000 803f 0000 803f 0000 803f 0000 803f
00000200: 92e4 bbb9 c936 403b 0063 bf34 12a3 50ba
00000210: b7b9 bb3a d2ea 843a b1a2 6c39 03e4 c739
00000220: 3b44 ea39 2cdf 2e3b dd6b 643a 2b18 45ba
00000230: b4eb 00ba 5d30 ba38 8f25 e8b9 c089 edba
00000240: b21b 873a 2de1 ec39 1d28 02b8 d599 373a
00000250: 8dd0 c2b9 2758 813a a2f5 b4b8 c5ef 553a
00000260: dee4 65b9 b379 e6b9 4cb2 743a d5ee d5b7
00000270: 2c88 b739 6d05 03b8 04d7 c3b9 fdc0 8fba
00000280: 2d4d 2739 1c23 b1ba f2c0 8c3a 33c4 9339
00000290: 35f4 7d3a 8634 b13a 491f eb3a 310a 953a
000002a0: 255d 0939 04ba e9b8 48e8 9937 e834 55bb
000002b0: a90d 803a f840 3d3a 60a4 f43a 5604 393a
000002c0: 6d3b 343a c1ed ccba ac93 99b8 c1cb 2eba
000002d0: 08f9 2abb 944e d6b7 a0fb 2d3a 646c 873a
000002e0: 62d5 7a3b 6bf7 6b3a 23b3 43ba fa7d 5839
000002f0: 45b0 3639 57bd 2bba 6c57 9539 54b6 1eb8
00000300: 9a48 3fbc 862d 92bb ac69 88bb cf12 15bc
00000310: aa20 4cbb 2c79 43bb e781 44bc 9026 09bc
00000320: d226 8eba 21fb dabb 5fe0 fbbb dd0a 92bc
00000330: 3258 533b 3c01 e9bb b750 8bbb e82b 1ebc
00000340: 16a8 e0bb d5b2 c13a 4243 68bc 817d 9bbc
00000350: f18e 8bbb 2fb9 bbbb e8b5 05bb fe86 f9bb
00000360: 0df1 bcbb c540 fdbb f13b 1abc aa08 b5bb
00000370: 10f6 76bb b80a 24bc 0bc3 8ebb 14a5 24bc
00000380: 66dd 20bc d34e a6bb 3f3b 2cbc db73 12bc
00000390: ab9e bc3b cd5a a1bb 96bd 93bb b492 b1bb
000003a0: 55e5 7fbc 48e2 76bc 399e 02bb 3628 44bb
000003b0: 5cc6 1fbb b051 3b38 2ac3 84bc 3e99 9bbc
000003c0: 89b4 4ebc 6f5e 9abb 0477 d1bb 7023 0dbc
000003d0: e6a6 65bb 9001 ebbb d76e abbb 415a 49bc
000003e0: fe94 e8bb fafd d8bb d536 f0bb 8717 65bc
000003f0: ae1b f7bb 00aa 4abb c660 5ebc 29e8 dcbb
-0.011678422 -0.0044668093 -0.0041642915 -0.009097848 -0.003121186 -0.0029800723 -0.011992918 -0.00837041
-0.0010870325 -0.006688286 -0.007685219 -0.01782678 0.003227397 -0.0071091414 -0.004253421 -0.009656135
-0.0068563377 0.0014709713 -0.014175533 -0.018980658 -0.0042612366 -0.005726258 -0.0020363235 -0.0076146554
-0.0057659685 -0.007728575 -0.00941212 -0.0055258647 -0.0037684178 -0.010014295 -0.004356432 -0.010048243
-0.009818599 -0.005076574 -0.010511858 -0.008938732 0.0057590557 -0.0049271462 -0.0045087542 -0.0054200673
-0.015618284 -0.015068592 -0.0019929751 -0.0029965588 -0.0024350847 3.9188002e-05 -0.016208366 -0.01899437
-0.012613274 -0.004714884 -0.006394251 -0.008616182 -0.0034956918 -0.007176121 -0.00523213 -0.012290094
-0.007089416 -0.006623727 -0.007329524 -0.0139839975 -0.007541564 -0.0030922187 -0.013575047 -0.00673959
1.0 1.0 1.0 1.0 1.0 1.0 1.0 1.0
1.0 1.0 1.0 1.0 1.0 1.0 1.0 1.0
1.0 1.0 1.0 1.0 1.0 1.0 1.0 1.0
1.0 1.0 1.0 1.0 1.0 1.0 1.0 1.0
1.0 1.0 1.0 1.0 1.0 1.0 1.0 1.0
1.0 1.0 1.0 1.0 1.0 1.0 1.0 1.0
1.0 1.0 1.0 1.0 1.0 1.0 1.0 1.0
1.0 1.0 1.0 1.0 1.0 1.0 1.0 1.0
-0.00035837718 0.002932953 3.5648554e-07 -0.00079588697 0.0014322315 0.0010140783 0.00022567321 0.0003812612
0.00044682794 0.0026683314 0.00087135826 -0.0007518555 -0.0004917935 8.8781795e-05 -0.00044278472 -0.0018122718
0.0010307936 0.00045181197 -3.1031774e-05 0.0007003819 -0.00037157946 0.000986819 -8.6288215e-05 0.00081610336
-0.00021924402 -0.00043959692 0.00093344296 -2.5502794e-05 0.00035005936 -3.1237887e-05 -0.00037353497 -0.0010967549
0.00015955111 -0.0013514492 0.0010738655 0.00028184205 0.0009687574 0.0013519682 0.0017938401 0.0011370835
0.00013100037 -0.00011144954 1.8347186e-05 -0.0032532755 0.0009769696 0.0007219459 0.001866471 0.0007057836
0.000687531 -0.0015634821 -7.3231146e-05 -0.0006667935 -0.0026088376 -2.5547379e-05 0.00066369213 0.0010331986
0.0038274159 0.0009001407 -0.0007465353 0.00020646295 0.00017422538 -0.0006551346 0.0002848463 -3.783994e-05
-0.011675024 -0.004460993 -0.0041629877 -0.009098723 -0.00311474 -0.0029826863 -0.011993862 -0.00837101
-0.001084531 -0.006682769 -0.007686659 -0.017827446 0.0032248613 -0.007110743 -0.0042515653 -0.009654023
-0.006855975 0.0014778028 -0.014176192 -0.018980743 -0.0042589833 -0.0057288627 -0.0020402614 -0.0076149693
-0.00576604 -0.0077286684 -0.009413705 -0.0055247145 -0.0037683286 -0.010012321 -0.004356747 -0.010049123
-0.0098184105 -0.0050753145 -0.010512172 -0.008938755 0.0057562194 -0.0049241544 -0.0045086844 -0.0054190997
-0.015618642 -0.015068598 -0.0019930734 -0.0029931194 -0.0024379706 4.466035e-05 -0.016206343 -0.01899397
-0.012616285 -0.0047109644 -0.0063923616 -0.008614406 -0.0035042106 -0.007171817 -0.005231719 -0.012289585
-0.0070978394 -0.0066220732 -0.0073307552 -0.01398266 -0.0075411415 -0.0030924082 -0.013572877 -0.006741543

lstm_54/lstm_cell_13/bias f4 [256]
00000000: 2113 f23c b7c7 2c3d f092 473c 0ebd 993b
00000010: 05b8 cbba 74c9 1f3b 9ebb 01bc 1c00 4cbc
00000020: e3d6 f83c 6b47 42bc 60cc 08bc 3759 51ba
00000030: ea94 383d 0cbc e6bb 9237 6f3b 8576 273c
00000040: df8c 11bb d493 023c e4ac a9b9 9b6d 2ebc
00000050: 6e02 b03c 2f6d 993b b744 573c 4d3e 543c
00000060: a4a3 b63b eb22 033d fe76 213d c6f9 353d
00000070: 6fa7 a13a 52a5 18bc fa69 2ebc 4c15 823b
00000080: 73c4 8cba 36f9 f33c a40d 3ebc ab51 063c
00000090: c2cc 07bc 7924 cf3c 261d a939 17ef 54bc
000000a0: c2f9 11bb c768 ebbb a71b 78bb ab2a 80bb
000000b0: 19a3 833c 16f3 0ebc a2c9 90ba e2da 763d
000000c0: dfdf 513c c23f ec3c 8e4c 3f3d e824 953c
000000d0: 0b6e b33c 7bf9 1f3c 2274 773c e072 2f3d
000000e0: d4ba d83c 8b49 47bb 0ba0 293d 18fc acbb
000000f0: ad57 4f3b a97d 35bc 146c 47bc e47e 84ba
00000100: 0000 803f 0000 803f 0000 803f 0000 803f
00000110: 0000 803f 0000 803f 0000 803f 0000 803f
00000120: 0000 803f 0000 803f 0000 803f 0000 803f
00000130: 0000 803f 0000 803f 0000 803f 0000 803f
00000140: 0000 803f 0000 803f 0000 803f 0000 803f
00000150: 0000 803f 0000 803f 0000 803f 0000 803f
00000160: 0000 803f 0000 803f 0000 803f 0000 803f
00000170: 0000 803f 0000 803f 0000 803f 0000 803f
00000180: 0000 803f 0000 803f 0000 803f 0000 803f
00000190: 0000 803f 0000 803f 0000 803f 0000 803f
000001a0: 0000 803f 0000 803f 0000 803f 0000 803f
000001b0: 0000 803f 0000 803f 0000 803f 0000 803f
000001c0: 0000 803f 0000 803f 0000 803f 0000 803f
000001d0: 0000 803f 0000 803f 0000 803f 0000 803f
000001e0: 0000 803f 0000 803f 0000 803f 0000 803f
000001f0: 0000 803f 0000 803f 0000 803f 0000 803f
00000200: 7baf 8aba faba 55bb ca31 ce3a ff01 7f3a
00000210: 5d58 eab9 44db e339 65e1 5bba 659a 77b8
00000220: f57a 733a 1bc2 4339 ab25 03bb a86b 3bbb
00000230: 15e2 833a cebf b73a 630b 713b 070b e9ba
00000240: 0cc3 4e3b 98fd bf3a 920e d239 2106 eb39
00000250: d531 203b 906a 6b3a 2794 beba 2681 1c3a
00000260: 3efb 06bb f4e5 c4ba 5e5e bd3a b09a 88bb
00000270: d808 893b 6d06 3e39 d599 0eba 868a 403a
00000280: 67d1 813b 0702 1b3b 9f9c 1bba 592b d83a
00000290: d8bd f5b9 12e7 6d3a 108b 85ba 170a 983a
000002a0: d8b4 3fbb 07d9 c9b9 d33f f53a 8a23 403a
000002b0: 2c1b d7ba 177a c439 9962 a7ba 0b80 04bb
000002c0: c149 613b 1e10 913a 84fa 0c3b c9a3 5ebb
000002d0: 9bf5 cc3a 50fe 803b 738c 7aba 3938 b1ba
000002e0: 4239 4abb 67c7 16b9 2baf 15bb cfa1 273b
000002f0: e120 153a 2b79 323a 9d4f c4ba 3555 bdba
00000300: 09d0 f13c 79d4 2c3d 2d9c 473c a9ae 993b
00000310: 73ea caba 8888 203b 6da1 01bc da08 4cbc
00000320: c6e8 f83c bc4c 42bc 59ca 08bc 92a6 4aba
00000330: 6187 383d faa3 e6bb dd95 6e3b 81ae 273c
00000340: ef94 11bb 1ba1 023c 40e1 aab9 52a8 2ebc
00000350: 160d b03c d65f 993b 9b40 573c a035 543c
00000360: 6f7d b63b 4c23 033d 8f6a 213d 7c09 363d
00000370: 0ad7 a23a e2a7 18bc 1079 2ebc b970 823b
00000380: ff09 8cba 18fd f33c 0410 3ebc ae54 063c
00000390: 29d2 07bc d937 cf3c 08a5 a639 580f 55bc
000003a0: b3fd 11bb f96e ebbb be4f 78bb 4b06 80bb
000003b0: d9bf 833c acf2 0ebc bee7 91ba a8e3 763d
000003c0: a6c5 513c 7141 ec3c 2a4f 3f3d 3436 953c
000003d0: cc60 b33c 4790 1f3c ec90 773c 0f72 2f3d
000003e0: f7b9 d83c 8482 47bb 10a1 293d 8fda acbb
000003f0: ca65 4f3b 8095 35bc b367 47bc 8e21 83ba
0.029550137 0.04218265 0.012181029 0.0046917265 -0.0015542513 0.002438155 -0.007918267 -0.012451198
0.030375903 -0.011857848 -0.008349508 -0.00079860113 0.04506389 -0.00704146 0.0036501628 0.010221128
-0.002220921 0.007969815 -0.00032363005 -0.010646249 0.021485534 0.004682205 0.0131389415 0.012954307
0.0055737067 0.032015722 0.03942012 0.044427656 0.0012333224 -0.009316759 -0.010645384 0.003969824
-0.0010739699 0.029781919 -0.011599932 0.008198182 -0.008288564 0.025285946 0.0003225591 -0.012996457
-0.0022274111 -0.0071841213 -0.003785828 -0.0039113364 0.016068982 -0.008724948 -0.0011046419 0.060267337
0.012809723 0.028838996 0.046703868 0.018206075 0.021903059 0.009764071 0.015103372 0.042834163
0.026456274 -0.0030408825 0.041412394 -0.0052790754 0.0031637952 -0.011077323 -0.012171764 -0.0010108617
1.0 1.0 1.0 1.0 1.0 1.0 1.0 1.0
1.0 1.0 1.0 1.0 1.0 1.0 1.0 1.0
1.0 1.0 1.0 1.0 1.0 1.0 1.0 1.0
1.0 1.0 1.0 1.0 1.0 1.0 1.0 1.0
1.0 1.0 1.0 1.0 1.0 1.0 1.0 1.0
1.0 1.0 1.0 1.0 1.0 1.0 1.0 1.0
1.0 1.0 1.0 1.0 1.0 1.0 1.0 1.0
1.0 1.0 1.0 1.0 1.0 1.0 1.0 1.0
-0.0010580862 -0.0032612667 0.0015731391 0.00097277755 -0.00044697794 0.0004346018 -0.00083877734 -5.903318e-05
0.00092880364 0.00018668959 -0.0020011466 -0.0028598104 0.0010061885 0.0014018954 0.0036780469 -0.0017779776
0.0031549362 0.001464772 0.00040065177 0.0004482726 0.0024443765 0.00089804176 -0.0014540002 0.00059701724
-0.002059653 -0.0015022145 0.0014447679 -0.004168831 0.0041819625 0.00018122206 -0.0005439793 0.00073448604
0.0039617303 0.0023652331 -0.0005936119 0.0016492411 -0.00046871486 0.00090752647 -0.0010188539 0.0011599687
-0.0029252078 -0.00038499405 0.0018711038 0.00073295145 -0.0016411296 0.00037474997 -0.0012770473 -0.002021792
0.0034376236 0.0011067425 0.0021511624 -0.0033972135 0.0015637161 0.0039365664 -0.0009557672 -0.0013520784
-0.0030856882 -0.00014379398 -0.0022840004 0.0025578623 0.0005688798 0.00068082166 -0.001497734 -0.0014444949
0.029518144 0.042194817 0.012183231 0.0046900106 -0.0015481248 0.0024495441 -0.007912022 -0.012453282
0.030384433 -0.011859115 -0.008349025 -0.00077305094 0.045050982 -0.0070385905 0.0036405243 0.010234476
-0.0022214015 0.007972981 -0.0003259275 -0.010660248 0.021490615 0.004680614 0.013137962 0.012952238
0.005569152 0.032016084 0.039408263 0.04444264 0.0012423706 -0.00931737 -0.010648981 0.0039807227
-0.0010684131 0.02978377 -0.011600498 0.0081989 -0.008289852 0.025295185 0.00031784945 -0.0130041465
-0.002227646 -0.00718486 -0.0037889327 -0.003907 0.016082691 -0.00872485 -0.0011131687 0.060275704
0.012803471 0.028839799 0.046706356 0.018214323 0.021896742 0.009738988 0.015110236 0.042833384
0.026455862 -0.0030442784 0.041413367 -0.0052750777 0.0031646364 -0.011083007 -0.01217072 -0.0010004507

sequential_12/time_distributed_16/dense_16/MatMul f4 [3, 64]
00000000: 5f0e 43be 6a29 e43d 5794 a4bd 8483 c8bd
00000010: c4a3 6e3e cb49 7d3d 26f8 1bbe 9ab1 713e
00000020: efdd 013d 3cda f33d e011 f53c 9ec1 303e
00000030: 55c5 05bd 3557 a4bd 5144 103d bc03 ffbd
00000040: ace5 6e3e d605 d1bc 998e f33d 3fc8 283e
00000050: 3e3e 93be 168d f13d 0d52 d73c cc15 273e
00000060: 4e52 8bbe 4066 4cbe c09f 4fbe e5d4 513e
00000070: ab1e 81be 0f84 22be a793 9fbd 4335 19be
00000080: 390f 0d3d d5d2 11bc e844 873d ff8d 0cbe
00000090: 449b 973d 1528 693e 1eae 8d3e 46fd 1bbd
000000a0: 738a 8fbd 93d4 ea3d 8241 49be b647 68bd
000000b0: 260b 8c3e 24cc 6e3e ff65 083c bd73 88be
000000c0: c070 043d 3a3a 16be efb6 3e3d 513b 86be
000000d0: 2d35 3ebd 4bf3 223e 52e5 e2bd 1d75 383e
000000e0: 7a16 f73d d7e9 903e e5bd f23d b47b 8f3d
000000f0: a853 d93d aa26 20bd 8dbc 81be 824e 84be
00000100: f729 22be 5c75 b7bb 5eda e33c 11b6 833e
00000110: 398e 0b3e 65f6 7e3e c79f 813e 6cda 50be
00000120: 8bd3 643e a486 17ba f72b 303e db9e 8dbe
00000130: 52c8 1dbe 3197 65be 7661 41be 579f e83d
00000140: 6352 cb3d 3524 59be 9ac2 2f3e 173f 7cbe
00000150: 8ab5 64be 8858 2d3d 9be2 3f3e 4fc0 55be
00000160: acbc 26be 5602 643e 0169 003e 137c 203e
00000170: 2bc3 0abe 1b56 693c 3469 80be 9cfd 0d3e
00000180: eb25 68bd 7087 0cbe c0b7 49be 94be 623e
00000190: 1e72 613e d501 60bd 5916 b5bd 0e48 773e
000001a0: 5fed 1dbb 61f9 f83c be4c 2ebe af5a fdbb
000001b0: a75a be3d 7055 7c3e 25d4 1fbd 32a3 dd3d
000001c0: 3f9f 283e ae31 f4bd 312a 7b3e 9423 80be
000001d0: b2ce 69bd 7057 6a3e b345 883e 3ca7 8ebe
000001e0: 00e9 3e3d 26aa bcbd de53 94be e420 0cbe
000001f0: 8ffc 673d 5989 c93d 4578 4d3d 14f0 13ba
00000200: eb15 19be 9fe4 8fbd 09fc 90be a7d8 91be
00000210: df1d 923d 2a1d 7b3e 8c2c 1fbe 06f2 083e
00000220: 7d78 033e fcf9 603c 60b7 9b3d 0545 a43c
00000230: 0e46 293e 06dd 373e feb8 d1bd fb9a 1fbe
00000240: 1a48 cd3d ddef 733e dc77 f0bd c3e8 6e3d
00000250: ea5f 913e c342 8b3e d7ff 11be 7ee4 863d
00000260: 314e 09be 83bd 463e e847 86be 2a35 e3bd
00000270: ff00 6a3e dd62 8f3e 3e82 703e 83bb a8bd
00000280: 5a6d 4bbd 870d 7abe 99cd 1cbc ccd7 53be
00000290: 4282 82be 73ee 95bd 914c 023e c172 b7bc
000002a0: 3e4e 9b3d 1ab7 86be 61cf 963e 5b63 173d
000002b0: 03ce 81be 2406 4e3e b9bb 5d3d f3b1 483e
000002c0: f3c7 bb3d 8a82 103e 8680 7c3e facf 77be
000002d0: 904b 84bd ff95 14bd 777b 283e 619e 603e
000002e0: 26a4 dd3c a2eb 863e b2b0 81be daef 55bc
000002f0: 16c4 7c3e 61e9 68be 647f 653e fd86 1cbe
-0.19048451 0.111407116 -0.08036106 -0.097907096 0.23304659 0.061837953 -0.1523138 0.23602906
0.031705793 0.11906859 0.02991575 0.17261359 -0.032658894 -0.08024446 0.0352214 -0.12451884
0.233298 -0.025515478 0.11892433 0.16482638 -0.28758425 0.11794488 0.026284242 0.16316909
-0.2721123 -0.1996088 -0.20275784 0.20491369 -0.2521871 -0.15870689 -0.07791834 -0.14961724
0.034438346 -0.008900364 0.0660494 -0.13726042 0.074026614 0.22769196 0.27671903 -0.038083337
-0.07008829 0.114663266 -0.19653895 -0.056709014 0.27352256 0.23320061 0.008325099 -0.266508
0.03233409 -0.14670649 0.046561178 -0.2621713 -0.04643743 0.15913121 -0.11078896 0.18013425
0.12064834 0.28303406 0.11852626 0.070060164 0.10611659 -0.039099373 -0.25339165 -0.25841147
-0.15836321 -0.005598707 0.027814087 0.25724843 0.13628472 0.2489868 0.25317213 -0.20395821
0.22346322 -0.0005780256 0.17204271 -0.2766026 -0.15408447 -0.22420956 -0.18884835 0.11358517
0.099278234 -0.21205218 0.17164078 -0.24633442 -0.22334877 0.042320758 0.18738787 -0.20874141
-0.1628291 0.22266516 0.12540056 0.1567233 -0.13551013 0.014241721 -0.25080264 0.13866276
-0.056676786 -0.1372354 -0.19699001 0.22143012 0.22016189 -0.054689247 -0.08842153 0.2414858
-0.0024097783 0.03039235 -0.17021462 -0.0077317576 0.09294634 0.24641967 -0.039020676 0.10822143
0.16466998 -0.11923538 0.24527813 -0.25027144 -0.057081886 0.22884917 0.26615676 -0.27861965
0.046608925 -0.09212141 -0.28970236 -0.13684422 0.056637343 0.0984065 0.050163526 -0.00056433794
-0.14949767 -0.07026028 -0.28317288 -0.28485605 0.07134604 0.24522844 -0.15544337 0.13373575
0.12838931 0.013731476 0.076033354 0.020052442 0.1653063 0.17955408 -0.102403626 -0.15586464
0.10023518 0.2382197 -0.11741611 0.058327448 0.2839349 0.27199373 -0.14257751 0.0658655
-0.13408734 0.1940823 -0.26226735 -0.110941246 0.22851942 0.28005114 0.23487183 -0.0823889
-0.049664833 -0.24419223 -0.009570503 -0.20687789 -0.25490004 -0.07320871 0.1272452 -0.022393586
0.07583283 -0.2631157 0.29455093 0.036959987 -0.25352487 0.2011953 0.054134104 0.19599132
0.09168997 0.14112297 0.24658403 -0.2420043 -0.06459725 -0.03627586 0.16453348 0.21935417
0.027055811 0.2635165 -0.2533012 -0.013057673 0.24684176 -0.22745277 0.22411877 -0.15285869

lstm_54/lstm_cell_13/bias1 f4 [256]
00000000: 2113 f23c b7c7 2c3d f092 473c 0ebd 993b
00000010: 05b8 cbba 74c9 1f3b 9ebb 01bc 1c00 4cbc
00000020: e3d6 f83c 6b47 42bc 60cc 08bc 3759 51ba
00000030: ea94 383d 0cbc e6bb 9237 6f3b 8576 273c
00000040: df8c 11bb d493 023c e4ac a9b9 9b6d 2ebc
00000050: 6e02 b03c 2f6d 993b b744 573c 4d3e 543c
00000060: a4a3 b63b eb22 033d fe76 213d c6f9 353d
00000070: 6fa7 a13a 52a5 18bc fa69 2ebc 4c15 823b
00000080: 73c4 8cba 36f9 f33c a40d 3ebc ab51 063c
00000090: c2cc 07bc 7924 cf3c 261d a939 17ef 54bc
000000a0: c2f9 11bb c768 ebbb a71b 78bb ab2a 80bb
000000b0: 19a3 833c 16f3 0ebc a2c9 90ba e2da 763d
000000c0: dfdf 513c c23f ec3c 8e4c 3f3d e824 953c
000000d0: 0b6e b33c 7bf9 1f3c 2274 773c e072 2f3d
000000e0: d4ba d83c 8b49 47bb 0ba0 293d 18fc acbb
000000f0: ad57 4f3b a97d 35bc 146c 47bc e47e 84ba
00000100: 0000 803f 0000 803f 0000 803f 0000 803f
00000110: 0000 803f 0000 803f 0000 803f 0000 803f
00000120: 0000 803f 0000 803f 0000 803f 0000 803f
00000130: 0000 803f 0000 803f 0000 803f 0000 803f
00000140: 0000 803f 0000 803f 0000 803f 0000 803f
00000150: 0000 803f 0000 803f 0000 803f 0000 803f
00000160: 0000 803f 0000 803f 0000 803f 0000 803f
00000170: 0000 803f 0000 803f 0000 803f 0000 803f
00000180: 0000 803f 0000 803f 0000 803f 0000 803f
00000190: 0000 803f 0000 803f 0000 803f 0000 803f
000001a0: 0000 803f 0000 803f 0000 803f 0000 803f
000001b0: 0000 803f 0000 803f 0000 803f 0000 803f
000001c0: 0000 803f 0000 803f 0000 803f 0000 803f
000001d0: 0000 803f 0000 803f 0000 803f 0000 803f
000001e0: 0000 803f 0000 803f 0000 803f 0000 803f
000001f0: 0000 803f 0000 803f 0000 803f 0000 803f
00000200: 7baf 8aba faba 55bb ca31 ce3a ff01 7f3a
00000210: 5d58 eab9 44db e339 65e1 5bba 659a 77b8
00000220: f57a 733a 1bc2 4339 ab25 03bb a86b 3bbb
00000230: 15e2 833a cebf b73a 630b 713b 070b e9ba
00000240: 0cc3 4e3b 98fd bf3a 920e d239 2106 eb39
00000250: d531 203b 906a 6b3a 2794 beba 2681 1c3a
00000260: 3efb 06bb f4e5 c4ba 5e5e bd3a b09a 88bb
00000270: d808 893b 6d06 3e39 d599 0eba 868a 403a
00000280: 67d1 813b 0702 1b3b 9f9c 1bba 592b d83a
00000290: d8bd f5b9 12e7 6d3a 108b 85ba 170a 983a
000002a0: d8b4 3fbb 07d9 c9b9 d33f f53a 8a23 403a
000002b0: 2c1b d7ba 177a c439 9962 a7ba 0b80 04bb
000002c0: c149 613b 1e10 913a 84fa 0c3b c9a3 5ebb
000002d0: 9bf5 cc3a 50fe 803b 738c 7aba 3938 b1ba
000002e0: 4239 4abb 67c7 16b9 2baf 15bb cfa1 273b
000002f0: e120 153a 2b79 323a 9d4f c4ba 3555 bdba
00000300: 09d0 f13c 79d4 2c3d 2d9c 473c a9ae 993b
00000310: 73ea caba 8888 203b 6da1 01bc da08 4cbc
00000320: c6e8 f83c bc4c 42bc 59ca 08bc 92a6 4aba
00000330: 6187 383d faa3 e6bb dd95 6e3b 81ae 273c
00000340: ef94 11bb 1ba1 023c 40e1 aab9 52a8 2ebc
00000350: 160d b03c d65f 993b 9b40 573c a035 543c
00000360: 6f7d b63b 4c23 033d 8f6a 213d 7c09 363d
00000370: 0ad7 a23a e2a7 18bc 1079 2ebc b970 823b
00000380: ff09 8cba 18fd f33c 0410 3ebc ae54 063c
00000390: 29d2 07bc d937 cf3c 08a5 a639 580f 55bc
000003a0: b3fd 11bb f96e ebbb be4f 78bb 4b06 80bb
000003b0: d9bf 833c acf2 0ebc bee7 91ba a8e3 763d
000003c0: a6c5 513c 7141 ec3c 2a4f 3f3d 3436 953c
000003d0: cc60 b33c 4790 1f3c ec90 773c 0f72 2f3d
000003e0: f7b9 d83c 8482 47bb 10a1 293d 8fda acbb
000003f0: ca65 4f3b 8095 35bc b367 47bc 8e21 83ba
0.029550137 0.04218265 0.012181029 0.0046917265 -0.0015542513 0.002438155 -0.007918267 -0.012451198
0.030375903 -0.011857848 -0.008349508 -0.00079860113 0.04506389 -0.00704146 0.0036501628 0.010221128
-0.002220921 0.007969815 -0.00032363005 -0.010646249 0.021485534 0.004682205 0.0131389415 0.012954307
0.0055737067 0.032015722 0.03942012 0.044427656 0.0012333224 -0.009316759 -0.010645384 0.003969824
-0.0010739699 0.029781919 -0.011599932 0.008198182 -0.008288564 0.025285946 0.0003225591 -0.012996457
-0.0022274111 -0.0071841213 -0.003785828 -0.0039113364 0.016068982 -0.008724948 -0.0011046419 0.060267337
0.012809723 0.028838996 0.046703868 0.018206075 0.021903059 0.009764071 0.015103372 0.042834163
0.026456274 -0.0030408825 0.041412394 -0.0052790754 0.0031637952 -0.011077323 -0.012171764 -0.0010108617
1.0 1.0 1.0 1.0 1.0 1.0 1.0 1.0
1.0 1.0 1.0 1.0 1.0 1.0 1.0 1.0
1.0 1.0 1.0 1.0 1.0 1.0 1.0 1.0
1.0 1.0 1.0 1.0 1.0 1.0 1.0 1.0
1.0 1.0 1.0 1.0 1.0 1.0 1.0 1.0
1.0 1.0 1.0 1.0 1.0 1.0 1.0 1.0
1.0 1.0 1.0 1.0 1.0 1.0 1.0 1.0
1.0 1.0 1.0 1.0 1.0 1.0 1.0 1.0
-0.0010580862 -0.0032612667 0.0015731391 0.00097277755 -0.00044697794 0.0004346018 -0.00083877734 -5.903318e-05
0.00092880364 0.00018668959 -0.0020011466 -0.0028598104 0.0010061885 0.0014018954 0.0036780469 -0.0017779776
0.0031549362 0.001464772 0.00040065177 0.0004482726 0.0024443765 0.00089804176 -0.0014540002 0.00059701724
-0.002059653 -0.0015022145 0.0014447679 -0.004168831 0.0041819625 0.00018122206 -0.0005439793 0.00073448604
0.0039617303 0.0023652331 -0.0005936119 0.0016492411 -0.00046871486 0.00090752647 -0.0010188539 0.0011599687
-0.0029252078 -0.00038499405 0.0018711038 0.00073295145 -0.0016411296 0.00037474997 -0.0012770473 -0.002021792
0.0034376236 0.0011067425 0.0021511624 -0.0033972135 0.0015637161 0.0039365664 -0.0009557672 -0.0013520784
-0.0030856882 -0.00014379398 -0.0022840004 0.0025578623 0.0005688798 0.00068082166 -0.001497734 -0.0014444949
0.029518144 0.042194817 0.012183231 0.0046900106 -0.0015481248 0.0024495441 -0.007912022 -0.012453282
0.030384433 -0.011859115 -0.008349025 -0.00077305094 0.045050982 -0.0070385905 0.0036405243 0.010234476
-0.0022214015 0.007972981 -0.0003259275 -0.010660248 0.021490615 0.004680614 0.013137962 0.012952238
0.005569152 0.032016084 0.039408263 0.04444264 0.0012423706 -0.00931737 -0.010648981 0.0039807227
-0.0010684131 0.02978377 -0.011600498 0.0081989 -0.008289852 0.025295185 0.00031784945 -0.0130041465
-0.002227646 -0.00718486 -0.0037889327 -0.003907 0.016082691 -0.00872485 -0.0011131687 0.060275704
0.012803471 0.028839799 0.046706356 0.018214323 0.021896742 0.009738988 0.015110236 0.042833384
0.026455862 -0.0030442784 0.041413367 -0.0052750777 0.0031646364 -0.011083007 -0.01217072 -0.0010004507

while/MatMul_1 f4 [256, 64]
00000000: 806f d9bc 9ef6 a83d 80ff 7b3a 8053 acba
00000010: 3864 943d 0010 9eb7 0ee7 2abd 8fda 643e
00000020: 4094 bb3a bd9d 99bc 10d8 5a3d 9e9e c3bd
00000030: 6722 ccbc 8c91 ba3c dc06 883d 1a15 52bc
00000040: ece0 293d b6e5 803d 2571 0b3e 2a41 88bd
00000050: 4be8 6b3d 8ecb 483c 269e 61bd cdd9 b33d
00000060: c094 bcbb c131 313d d0ec df3c a0f3 103c
00000070: 5294 6d3d a3bc e03c 0063 7bbb b6a2 f13d
00000080: 9c94 13bd a405 bd3d 7430 213c efa8 ff3c
00000090: c282 053d 2d44 823d 06de 413d 58ca 1f3d
000000a0: 64ab 4fbd 4216 d03c 5a89 a5bd 9353 b83d
000000b0: 9bca d7bd 903f ea3d 3cd1 dabd 28a3 12bd
000000c0: 50a8 d33c 8bcc ecbd d624 633d af76 d43c
000000d0: ff96 9c3c 8e65 18bc bbf1 c3bc 4517 043d
000000e0: 7eca 99bd 1514 debc 22b2 383d f145 f83d
000000f0: a4cd c9bb 60b5 413d 77ed cbbd 72ef de3d
00000100: 3e63 f8bd f051 c1bd 81f4 553d b34f 9c3d
00000110: 75b4 2abd f78a 9ebc 1bb8 c1bd a025 8cbd
00000120: 57b2 debc 638e a53d 3456 f53d fc79 af3c
00000130: c719 6bbd fa94 89bd 1411 bc3c ad71 133e
00000140: 0f5b c73d 6ad6 efbd 0dcb b3bc d186 93bd
00000150: 7f27 2e3d 1ea8 8a3d c3cd 853d 5506 b8bd
00000160: 1d13 babc 320b c3bd 7d2d 903d 5d68 56bb
00000170: 2cd2 14bc 8e33 a0bd cbf2 29bc 02c2 b63c
00000180: 12ec 7dbd 41c2 e83d 6cfb 183d 17d3 36bc
00000190: 6c2e 4e3d bb83 653c 0f93 6fbd c07e 07bd
000001a0: 04c2 113d 39dd 3dbd bf59 15bd c738 04be
000001b0: aa01 a03d 61bf 84bd 0bcb 0e3d b88e fe3c
000001c0: 64a9 dabc c122 46bc 50b8 ebbc 153a 4b3d
000001d0: eefa f93c 99fd 7a3c f3fc 20bd 2d17 8e3c
000001e0: fe7c 82bc 6055 76bd 4a61 af3d fdf0 3abd
000001f0: 4f4b 943c d8d8 333d 821b e83c a9b4 003e
00000200: 8fb4 b1bc 6dea 0abe 80fe 003d e351 8cbd
00000210: e0e6 403d 54ff f7bc b02d d8bd 7eea ecbc
00000220: af22 d3bd 35d2 8b3c 618a cfbd a423 5c3d
00000230: 2c64 f93a 009f 2fbd 6405 84bd 94d7 1cbe
00000240: 9ef2 21bd 4ac8 d03d 15a7 6bbd 74e1 903c
00000250: 142a 0ebd 283f 8b3d b32e e33d 2a11 81bc
00000260: ee28 133d 9eec 3e3d fb99 36bd 4151 f2bc
00000270: 077e 62bc 5592 9ebd f3af 91bd 70aa dd3d
00000280: eda5 a33d 4864 e8ba 5ae8 d5bd eedc 0ebe
00000290: 6496 1b3d 3bbc 9e3b a51b 963d f1b3 e63c
000002a0: 11ad 07bd fc1f d5bd b52e cf3c c832 713d
000002b0: 4fa3 a5bd 0ae9 0dbd ced6 bdba 9b60 fa3d
000002c0: 7a67 8cbd 3227 44bc d539 0c3e 4d38 aabd
000002d0: 2c7b 67bd f029 c63d 0822 79bd de00 1abd
000002e0: ae10 b93c 507f 83bd dad4 5c3d cd94 e0bd
000002f0: ed05 033d 73ed 5bbd d6e7 343d af79 ea3d
00000300: 1448 a43d 467e 8d3d 0cb6 e33d e07e 6dbd
00000310: 1c2d 1dbc 0d90 8f3d a1de 7e3d d267 873c
00000320: da83 bbbc f3ad 153d 36c4 a7bd 35dc bd3d
00000330: 8d95 133e bbb0 a93d 6c02 ee3d d436 01bc
00000340: 6421 38bd f569 943c 5dc8 0e3d 480d 8ebd
00000350: 9630 8e3c fb58 833d ebd4 a43c d41c 20bb
00000360: d864 c33a 981b b93d 60fb a7bc e184 8a3d
00000370: 1a8a 2f3c 4362 2a3d 4947 483c 9697 f43c
00000380: 4a9f 6fbc fc92 f43d d4d3 8e3b 7e41 3b3d
00000390: 25f0 8c3d 6055 75bd 12e8 97bd 92b1 bfbb
000003a0: e3c6 3bbd 6768 9dbd c02c 8d3d 4671 67bd
000003b0: 976e af3d 3a58 713c b28d 15bd f39a d0bd
000003c0: c092 2aba b615 3d3c 1689 aebc 76be ebbc
000003d0: 826f 533d 8696 af3c 4217 e43c 0aa1 5bbc
000003e0: 166f 0d3c 1f06 903d 5e4d 423d e499 913c
000003f0: aeab 173c 7e41 223d dbc7 cb3d 7180 d13c
-0.026542425 0.082501635 0.00096129626 -0.0013147444 0.07245678 -1.8842518e-05 -0.041724257 0.22348998
0.001431115 -0.018751973 0.05342871 -0.09551738 -0.024918748 0.02277448 0.06641933 -0.012822414
0.041474268 0.06293814 0.1361738 -0.06653054 0.05759458 0.0122555625 -0.055082463 0.087817766
-0.005755037 0.04326034 0.0273346 0.008847147 0.058002777 0.027433699 -0.003835857 0.11798613
-0.036030397 0.092295915 0.009838212 0.031208484 0.032595403 0.0636066 0.04733088 0.03901133
-0.05070056 0.025401238 -0.08082838 0.090003155 -0.10536691 0.11437905 -0.106844395 -0.03580013
0.025837094 -0.11562451 0.05545505 0.025935499 0.01911497 -0.009301556 -0.023918977 0.032248754
-0.075093254 -0.027109185 0.045091756 0.12122715 -0.0061585475 0.047292113 -0.09957402 0.10885514
-0.12128304 -0.094394565 0.05223513 0.07632389 -0.041676003 -0.019353373 -0.094589435 -0.06843114
-0.027184648 0.08083799 0.119793326 0.021420471 -0.05739763 -0.06717868 0.022957362 0.14398833
0.09734165 -0.11710818 -0.021947408 -0.072034486 0.042518135 0.06770347 0.065333866 -0.08985583
-0.022714192 -0.0952362 0.07039926 -0.0032716014 -0.009083312 -0.07822333 -0.010372828 0.022309307
-0.061992712 0.11365176 0.03734915 -0.011158726 0.05033724 0.014008458 -0.058489855 -0.033079863
0.03558542 -0.046353552 -0.03646254 -0.12912284 0.078128174 -0.06481815 0.034861606 0.031073913
-0.0266921 -0.012093247 -0.02877441 0.04961594 0.03051516 0.015319251 -0.03930373 0.017345035
-0.015928742 -0.060140014 0.08563478 -0.04563998 0.018102316 0.04390797 0.02833343 0.12568916
-0.021692542 -0.13565989 0.03149271 -0.06851556 0.04709518 -0.030273117 -0.10555589 -0.028920408
-0.1030935 0.017068008 -0.101338156 0.053744927 0.0019027046 -0.042876244 -0.06446341 -0.15316612
-0.03953802 0.10194452 -0.05753239 0.01768563 -0.034708098 0.067991555 0.110928915 -0.015755255
0.035927705 0.046612374 -0.04458044 -0.02957976 -0.013823993 -0.07742754 -0.07113638 0.10823524
0.07990632 -0.0017730081 -0.10444708 -0.13951465 0.03798522 0.004844216 0.073294915 0.028161975
-0.033124033 -0.10406491 0.025290826 0.05888632 -0.08087789 -0.03464607 -0.0014483572 0.12225457
-0.06855674 -0.0119722355 0.13693936 -0.0831152 -0.05651395 0.09675968 -0.06082347 -0.037598483
0.022590961 -0.06420767 0.05391393 -0.109658815 0.031988073 -0.053693246 0.04416641 0.114489906
0.0802156 0.0690885 0.11118707 -0.057982326 -0.009593274 0.070098974 0.062224034 0.016528998
-0.02289002 0.036542844 -0.08191721 0.09270517 0.14412518 0.08285662 0.11621556 -0.007886607
-0.04495372 0.01811693 0.03485905 -0.06936127 0.017357152 0.06413456 0.020121058 -0.0024431245
0.0014907373 0.09038466 -0.020505607 0.06763626 0.010714078 0.041597616 0.012224027 0.029857438
-0.01462538 0.119420975 0.004358748 0.045716755 0.068817414 -0.059895873 -0.07417311 -0.0058500255
-0.04584397 -0.07685929 0.06893301 -0.05650451 0.08566015 0.0147305075 -0.036512084 -0.10185804
-0.0006506853 0.011540821 -0.021305602 -0.028777342 0.051620014 0.02143408 0.027843121 -0.013405094
0.008632442 0.070324175 0.047437064 0.017773576 0.00925724 0.03961324 0.09950229 0.025573941

while/MatMul f4 [256, 3]
00000000: 9562 a3bd a403 d8bd 3662 17be c932 d3bd
00000010: e50e 713d bd4a 093e 028d 99bd 3b58 11bd
00000020: 0fe5 073e a3b6 b23c d4f9 99bd 65b0 ed3d
00000030: df3e 5e3d 6348 15be 85c3 00be fecd d43d
00000040: 7cef a03c fb71 0f3d 08bc 0dbe 5c3e a3bd
00000050: 1d39 713d e3df fb3c 44ca b13d d2d2 d33d
00000060: 76ba c93d 752f 9dbb 92ea ee3d 23f9 62bd
00000070: 3ffa 653d c10d 133e 5058 d13c 08eb c23d
00000080: 5ce1 35bc be2e 1c3e 23f7 54bc c0ac b0bd
00000090: 5e08 f0bd 12ee 0ebe 1162 d43c 8f03 063e
000000a0: 20a2 05be 5e1c c0bd 914a 313d 276a 9fbd
000000b0: d36b 09bd 8431 5d3d 01fa 68bd aebe f0bd
000000c0: 8b7b 5dbd b9f2 adba 3025 bebb 421e 123e
000000d0: cccd e73d 248b 0bbd ecbd f03d d54e 1c3e
000000e0: 7366 e0bd 422e 00bd 44c5 40bc e602 313d
000000f0: a9c3 223b 3960 fb3d be7a 023e 0cc4 d53d
00000100: dbcb 34bd 9431 a1bd 723a 0c3e ea07 abbd
00000110: 737f 07be 85a4 8abd ae89 44bd 35b2 663d
00000120: 0190 bbbd 7105 e4bd c971 9c3d 0d40 03bd
00000130: fcfe 113e 5676 dbbd e588 973d fdc6 8abd
00000140: a0e8 d2bd 9c15 f83d 5d46 0f3e e0dd 523d
00000150: 8dd0 d2bb 370a 09be 111c d7bb 9dd7 933d
00000160: 97a6 f3bd 0da5 b1bc 65c6 97bd 2a1c 013e
00000170: 8414 e73c fa02 0b3d 7ba9 a93c 4318 29bd
00000180: bbad dcbc 81d2 0f3d 0997 0bbe bb0c 0b3c
00000190: 934d a8bd 3538 8d3d 406b b93c 1e30 d2bd
000001a0: 3ac0 803d 4836 6cbd 92c9 4cbd 1452 ca3d
000001b0: 8ea2 083e cc2e d53d 9fa2 e63c 3510 d93c
000001c0: 48a4 113e e608 dabd b2ac 193d 56d3 6d3d
000001d0: 9134 d7bd 2917 5bbd 4986 65bd 0622 853d
000001e0: e433 ef3d 6f02 c63b 05f8 bd3d 99a2 e13d
000001f0: 31ab 8ebc a416 7cbd 04a4 abbd 542e fa3d
00000200: a196 13bd cc89 16bd 85ef 9fbc 5d21 983d
00000210: 092f e73d f49e 60bd b16e f2bd 2b97 2c3d
00000220: d879 11bc 5bbc 803d d54a fa3c 3c8f b7bd
00000230: b67b cabd ce23 71bd a864 ebbd 128f 5f3d
00000240: 728b be3d 5f79 18be 0e76 3e3d 6bfc 13be
00000250: c97d 243d 9c5a 6abd 650c 093d d836 14be
00000260: 3d67 ce3d 91ea a73d 50f0 62bd 7366 9cbd
00000270: 1b5e 1b3c 085d 333c c046 893d 7182 143e
00000280: fcc1 acbb 86f0 50bd 7639 3c3c 8bee 543c
00000290: add4 18be ab5d 02bd 6d87 dcbc ae7b b53d
000002a0: f22d 0f3d 45cd f4bd 8f15 a4bd c50a 023e
000002b0: 2da2 97bc f327 cabc 71ba b1bd 1b8e d93d
000002c0: df38 c33c 388d e9bd 203e 803d b224 cfbd
000002d0: 5569 883b f578 02be 968c fd3c 1a77 a8bd
000002e0: 600c 333c dd96 db3d 137e 903c 5bd8 80bb
000002f0: 8cc4 aabb 5cce 8ebd a118 143d 7548 033e
00000300: 0088 37bc e74c adbd a0d3 be3d bc5d af3d
00000310: 9ad5 813d 1035 53bc a045 f33b 00a1 423a
00000320: 0607 e1bd 08c9 02be 906b 7ebc a884 0b3e
00000330: 2079 a43b 6852 343d 7863 0bbe 40aa 313d
00000340: c84f 2ebd 7045 e1bc 10e5 48bc f048 623c
00000350: 1c4e 01be d7dc e8bd 7af1 7dbd 8ab3 063e
00000360: 3071 443d 5641 0fbe 4aa6 78bd 00d7 5dbb
00000370: a015 633d 28e7 71bd 7882 d43c d211 d5bd
00000380: 20db 563c 84a4 dc3d a001 823d 0ed0 b9bd
00000390: f2b6 183e 2a82 4abd b6d1 96bd 9e71 1a3e
000003a0: 260e 96bd 56d9 c9bd e025 56bc b697 0fbd
000003b0: 0915 1abe 389a f63c f0d4 0c3e d655 88bd
000003c0: 23e4 b8bd 8607 8dbd 5c64 d13d 5093 9f3d
000003d0: 70f8 0cbe 7657 14be fb64 b1bd 68c5 e03d
000003e0: f8e9 45bd 1077 5f3c d0f9 ca3c 74b1 64bd
000003f0: c006 e9bb 1c42 883d 0ecf 74bd 03b2 17be
-0.079777874 -0.105475694 -0.14783558 -0.10312421 0.058852095 0.13407417 -0.07497598 -0.035484534
0.13270973 0.021815604 -0.07518354 0.1160591 0.054259177 -0.14578395 -0.12574585 0.103908524
0.019645445 0.03502081 -0.1384126 -0.079708785 0.058892358 0.030746406 0.08681157 0.10342945
0.09850018 -0.004796917 0.116658345 -0.055413377 0.056146856 0.14360715 0.025554806 0.09517485
-0.011101093 0.15252206 -0.012998375 -0.086266994 -0.11720346 -0.13958004 0.025925668 0.13087295
-0.13050127 -0.093804106 0.043284003 -0.07783919 -0.033550095 0.0540023 -0.056879047 -0.11755119
-0.054072898 -0.001327119 -0.005802773 0.14269355 0.113185495 -0.03406824 0.11754975 0.15264447
-0.10957041 -0.031294115 -0.011765782 0.043215655 0.002483586 0.122742124 0.12742135 0.104377836
-0.044139724 -0.078707844 0.1369417 -0.08351119 -0.13232212 -0.06769661 -0.047982864 0.056322295
-0.09158326 -0.1113385 0.0763889 -0.032043505 0.14257425 -0.1071593 0.073991574 -0.06776235
-0.10298276 0.12113497 0.13991685 0.051481128 -0.0064335526 -0.13382803 -0.006564625 0.07218859
-0.11897009 -0.021685148 -0.07410888 0.126084 0.028208025 0.033938386 0.020710697 -0.041282903
-0.02693831 0.03511286 -0.13631834 0.008486922 -0.08217921 0.06895486 0.022634149 -0.10263084
0.06286664 -0.057668954 -0.04999692 0.098789364 0.1334326 0.104093164 0.028153716 0.026496986
0.14222825 -0.106462285 0.03751821 0.058062874 -0.10508073 -0.053488884 -0.056036267 0.0650063
0.11679819 0.0060427706 0.092758216 0.11017341 -0.017415615 -0.06154503 -0.08380893 0.12215868
-0.036032323 -0.036752507 -0.019523392 0.074282385 0.11288268 -0.05483909 -0.11837519 0.042136353
-0.0088791475 0.06285926 0.03055326 -0.08962867 -0.09886877 -0.058872037 -0.11493808 0.0545798
0.09303941 -0.1489005 0.046499304 -0.14451759 0.04015902 -0.057215318 0.033459086 -0.14474046
0.10078285 0.08199037 -0.05540496 -0.07636728 0.009482886 0.010947473 0.067029476 0.14502884
-0.005272148 -0.05101063 0.011488309 0.012996326 -0.1492488 -0.03182761 -0.026920045 0.08861481
0.034955926 -0.119532146 -0.080119245 0.12699421 -0.018509949 -0.024677252 -0.08678139 0.106228076
0.02383083 -0.114038885 0.062618494 -0.10114421 0.004162947 -0.12741454 0.030950826 -0.08225842
0.010928243 0.10722134 0.017638242 -0.0039320416 -0.0052114185 -0.06972954 0.0361563 0.12820609
-0.0112018585 -0.084619336 0.09317708 0.085628 0.063395694 -0.012891069 0.0074240714 0.00074245036
-0.10987668 -0.12772 -0.015528575 0.13624823 0.005019322 0.0440239 -0.13612163 0.043375254
-0.042556554 -0.02749893 -0.012261644 0.013811335 -0.12627453 -0.11370247 -0.061997868 0.13154426
0.047959507 -0.13989767 -0.06070546 -0.0033850074 0.055440545 -0.05905834 0.025941119 -0.104037896
0.013113767 0.10773566 0.06347966 -0.090728864 0.14913538 -0.04944054 -0.07364218 0.15082404
-0.07326917 -0.09855907 -0.013070554 -0.035056792 -0.15047087 0.030102834 0.13753104 -0.06656997
-0.090278886 -0.068862006 0.1022422 0.077917695 -0.13766646 -0.14486489 -0.086618386 0.10975152
-0.048318833 0.013639227 0.024777323 -0.055833295 -0.0071114004 0.06653234 -0.059767775 -0.14814

lstm_55/lstm_cell_14/bias1 f4 [256]
00000000: da56 3fbc 505e 92bb 9c74 88bb 240f 15bc
00000010: d08c 4cbb 514d 43bb f27d 44bc 0b24 09bc
00000020: c27a 8eba 6929 dbbb 4ad4 fbbb 7809 92bc
00000030: bd82 533b cdf3 e8bb 4860 8bbb c434 1ebc
00000040: 21ab e0bb 9bcd c03a 7f40 68bc 537d 9bbc
00000050: d8a1 8bbb 55a3 bbbb d773 05bb 5c84 f9bb
00000060: 73f0 bcbb fc3f fdbb 4b35 1abc 5012 b5bb
00000070: 8ff7 76bb ff12 24bc 66c0 8ebb 63a1 24bc
00000080: 30de 20bc 6459 a6bb ee39 2cbc c273 12bc
00000090: 76b6 bc3b e673 a1bb 2cbe 93bb d29a b1bb
000000a0: d5e3 7fbc 41e2 76bc 939c 02bb ea61 44bb
000000b0: f195 1fbb cc5d 2438 68c7 84bc 159a 9bbc
000000c0: e8a7 4ebc 507f 9abb dd86 d1bb e32a 0dbc
000000d0: fa17 65bb ab25 ebbb 4a72 abbb 645c 49bc
000000e0: 554e e8bb d90b d9bb 812c f0bb 231d 65bc
000000f0: 391f f7bb d2a6 4abb e069 5ebc c7d7 dcbb
00000100: 0000 803f 0000 803f 0000 803f 0000 803f
00000110: 0000 803f 0000 803f 0000 803f 0000 803f
00000120: 0000 803f 0000 803f 0000 803f 0000 803f
00000130: 0000 803f 0000 803f 0000 803f 0000 803f
00000140: 0000 803f 0000 803f 0000 803f 0000 803f
00000150: 0000 803f 0000 803f 0000 803f 0000 803f
00000160: 0000 803f 0000 803f 0000 803f 0000 803f
00000170: 0000 803f 0000 803f 0000 803f 0000 803f
00000180: 0000 803f 0000 803f 0000 803f 0000 803f
00000190: 0000 803f 0000 803f 0000 803f 0000 803f
000001a0: 0000 803f 0000 803f 0000 803f 0000 803f
000001b0: 0000 803f 0000 803f 0000 803f 0000 803f
000001c0: 0000 803f 0000 803f 0000 803f 0000 803f
000001d0: 0000 803f 0000 803f 0000 803f 0000 803f
000001e0: 0000 803f 0000 803f 0000 803f 0000 803f
000001f0: 0000 803f 0000 803f 0000 803f 0000 803f
00000200: 92e4 bbb9 c936 403b 0063 bf34 12a3 50ba
00000210: b7b9 bb3a d2ea 843a b1a2 6c39 03e4 c739
00000220: 3b44 ea39 2cdf 2e3b dd6b 643a 2b18 45ba
00000230: b4eb 00ba 5d30 ba38 8f25 e8b9 c089 edba
00000240: b21b 873a 2de1 ec39 1d28 02b8 d599 373a
00000250: 8dd0 c2b9 2758 813a a2f5 b4b8 c5ef 553a
00000260: dee4 65b9 b379 e6b9 4cb2 743a d5ee d5b7
00000270: 2c88 b739 6d05 03b8 04d7 c3b9 fdc0 8fba
00000280: 2d4d 2739 1c23 b1ba f2c0 8c3a 33c4 9339
00000290: 35f4 7d3a 8634 b13a 491f eb3a 310a 953a
000002a0: 255d 0939 04ba e9b8 48e8 9937 e834 55bb
000002b0: a90d 803a f840 3d3a 60a4 f43a 5604 393a
000002c0: 6d3b 343a c1ed ccba ac93 99b8 c1cb 2eba
000002d0: 08f9 2abb 944e d6b7 a0fb 2d3a 646c 873a
000002e0: 62d5 7a3b 6bf7 6b3a 23b3 43ba fa7d 5839
000002f0: 45b0 3639 57bd 2bba 6c57 9539 54b6 1eb8
00000300: 9a48 3fbc 862d 92bb ac69 88bb cf12 15bc
00000310: aa20 4cbb 2c79 43bb e781 44bc 9026 09bc
00000320: d226 8eba 21fb dabb 5fe0 fbbb dd0a 92bc
00000330: 3258 533b 3c01 e9bb b750 8bbb e82b 1ebc
00000340: 16a8 e0bb d5b2 c13a 4243 68bc 817d 9bbc
00000350: f18e 8bbb 2fb9 bbbb e8b5 05bb fe86 f9bb
00000360: 0df1 bcbb c540 fdbb f13b 1abc aa08 b5bb
00000370: 10f6 76bb b80a 24bc 0bc3 8ebb 14a5 24bc
00000380: 66dd 20bc d34e a6bb 3f3b 2cbc db73 12bc
00000390: ab9e bc3b cd5a a1bb 96bd 93bb b492 b1bb
000003a0: 55e5 7fbc 48e2 76bc 399e 02bb 3628 44bb
000003b0: 5cc6 1fbb b051 3b38 2ac3 84bc 3e99 9bbc
000003c0: 89b4 4ebc 6f5e 9abb 0477 d1bb 7023 0dbc
000003d0: e6a6 65bb 9001 ebbb d76e abbb 415a 49bc
000003e0: fe94 e8bb fafd d8bb d536 f0bb 8717 65bc
000003f0: ae1b f7bb 00aa 4abb c660 5ebc 29e8 dcbb
-0.011678422 -0.0044668093 -0.0041642915 -0.009097848 -0.003121186 -0.0029800723 -0.011992918 -0.00837041
-0.0010870325 -0.006688286 -0.007685219 -0.01782678 0.003227397 -0.0071091414 -0.004253421 -0.009656135
-0.0068563377 0.0014709713 -0.014175533 -0.018980658 -0.0042612366 -0.005726258 -0.0020363235 -0.0076146554
-0.0057659685 -0.007728575 -0.00941212 -0.0055258647 -0.0037684178 -0.010014295 -0.004356432 -0.010048243
-0.009818599 -0.005076574 -0.010511858 -0.008938732 0.0057590557 -0.0049271462 -0.0045087542 -0.0054200673
-0.015618284 -0.015068592 -0.0019929751 -0.0029965588 -0.0024350847 3.9188002e-05 -0.016208366 -0.01899437
-0.012613274 -0.004714884 -0.006394251 -0.008616182 -0.0034956918 -0.007176121 -0.00523213 -0.012290094
-0.007089416 -0.006623727 -0.007329524 -0.0139839975 -0.007541564 -0.0030922187 -0.013575047 -0.00673959
1.0 1.0 1.0 1.0 1.0 1.0 1.0 1.0
1.0 1.0 1.0 1.0 1.0 1.0 1.0 1.0
1.0 1.0 1.0 1.0 1.0 1.0 1.0 1.0
1.0 1.0 1.0 1.0 1.0 1.0 1.0 1.0
1.0 1.0 1.0 1.0 1.0 1.0 1.0 1.0
1.0 1.0 1.0 1.0 1.0 1.0 1.0 1.0
1.0 1.0 1.0 1.0 1.0 1.0 1.0 1.0
1.0 1.0 1.0 1.0 1.0 1.0 1.0 1.0
-0.00035837718 0.002932953 3.5648554e-07 -0.00079588697 0.0014322315 0.0010140783 0.00022567321 0.0003812612
0.00044682794 0.0026683314 0.00087135826 -0.0007518555 -0.0004917935 8.8781795e-05 -0.00044278472 -0.0018122718
0.0010307936 0.00045181197 -3.1031774e-05 0.0007003819 -0.00037157946 0.000986819 -8.6288215e-05 0.00081610336
-0.00021924402 -0.00043959692 0.00093344296 -2.5502794e-05 0.00035005936 -3.1237887e-05 -0.00037353497 -0.0010967549
0.00015955111 -0.0013514492 0.0010738655 0.00028184205 0.0009687574 0.0013519682 0.0017938401 0.0011370835
0.00013100037 -0.00011144954 1.8347186e-05 -0.0032532755 0.0009769696 0.0007219459 0.001866471 0.0007057836
0.000687531 -0.0015634821 -7.3231146e-05 -0.0006667935 -0.0026088376 -2.5547379e-05 0.00066369213 0.0010331986
0.0038274159 0.0009001407 -0.0007465353 0.00020646295 0.00017422538 -0.0006551346 0.0002848463 -3.783994e-05
-0.011675024 -0.004460993 -0.0041629877 -0.009098723 -0.00311474 -0.0029826863 -0.011993862 -0.00837101
-0.001084531 -0.006682769 -0.007686659 -0.017827446 0.0032248613 -0.007110743 -0.0042515653 -0.009654023
-0.006855975 0.0014778028 -0.014176192 -0.018980743 -0.0042589833 -0.0057288627 -0.0020402614 -0.0076149693
-0.00576604 -0.0077286684 -0.009413705 -0.0055247145 -0.0037683286 -0.010012321 -0.004356747 -0.010049123
-0.0098184105 -0.0050753145 -0.010512172 -0.008938755 0.0057562194 -0.0049241544 -0.0045086844 -0.0054190997
-0.015618642 -0.015068598 -0.0019930734 -0.0029931194 -0.0024379706 4.466035e-05 -0.016206343 -0.01899397
-0.012616285 -0.0047109644 -0.0063923616 -0.008614406 -0.0035042106 -0.007171817 -0.005231719 -0.012289585
-0.0070978394 -0.0066220732 -0.0073307552 -0.01398266 -0.0075411415 -0.0030924082 -0.013572877 -0.006741543

while/MatMul_12 f4 [256, 64]
00000000: c004 813d 2e65 543d 68b5 593d f4f8 babd
00000010: 3902 7d3d 20e5 01bb 5ca1 e7bd 602d c13c
00000020: 388a cdbc 9a16 d03c 527e 2e3d 5437 63bd
00000030: f367 653d 7e94 02bd f9ba 043d 9dac c33d
00000040: 610e 34bd 1c19 29bc d300 8d3d d87c 293d
00000050: 7ad1 68bd 30c5 eabc 8426 a8bc 5d98 953d
00000060: a2b7 4e3d 4f36 15be fc13 90bd b272 5a3d
00000070: 5664 6bbd 7bdd 303d 5834 a8bc d6a3 d83d
00000080: bbfa 32bd 66dc 5e3d f060 d3ba 8054 c53c
00000090: 4011 c43d 11a9 c4bd 36b3 533d 6e5a f73c
000000a0: 965e 52bd bc09 32bd 0e29 3ebd 9990 34bd
000000b0: 60b4 733d c51a d13c 1c40 38bc 3dc1 a33d
000000c0: cf31 bfbc 4c04 23bb a0eb 083d f154 a2bd
000000d0: c77a b03c ac6f 173d 4282 cfbc d8e2 a93b
000000e0: 376b 59bd 5a1e 1d3c 09c2 de3d e2cb 0bbc
000000f0: 129a b13b f955 8abd 2824 0b3b 6369 2ebc
00000100: c05f 643d 80ec 70bc d75e 19bd 7f62 92bd
00000110: ac43 ea3c 5ec3 c73c c898 03bd f298 c0bc
00000120: b447 363c ba7f 98bc cf3f 623d 6a2f d83a
00000130: c253 21bd 1fe5 b23d 12c7 8c3d d481 e9bc
00000140: 68be 98bd fc09 863d 5636 a73c 062c f93c
00000150: 8333 f5bc f22f 903d 8dde 933d d776 923d
00000160: 9bb4 f23d 1b7d 113c 982f 6a3d a2b7 efba
00000170: 48fa c93c ae97 273e 48a8 aabc 0090 2d3d
00000180: 137d 8a3d e8ef 2a3d 86ff debc 741b 063e
00000190: 482c 803d cb1c 5b3d f773 d03c 37ba f93d
000001a0: 6b76 4dbd 3cdc f1bd 1a91 b0bc daa3 e23d
000001b0: f703 1abd 35cb 493d c650 32bd cb99 4cbd
000001c0: d96c 593d c9ff 013d 1eaa 85bc c399 d73d
000001d0: dad9 25ba 8bf2 243d 3f1b 893d 0a91 47bd
000001e0: 0754 48bd 453f b3bd 5e40 df3d acd0 873d
000001f0: fe93 d93d 97b3 50bd 2462 e5bd 86da e6bc
00000200: a7f0 10bd 1bf1 41bd 60fc 4f3d 3652 573d
00000210: 75ae 3ebd 28f7 573d 9b9a 783d 3611 b73d
00000220: b22b 443d 826d 0e3d 8a02 2a3d e275 2c3d
00000230: 7624 913b b8ab 503d 06cb 0bbd 8989 fabc
00000240: 6ab0 023d 5b0f 7dbc 6453 9b3c dba8 45bd
00000250: 32c5 eb3c bdea 52bd 31fa fd3b 917a 813c
00000260: 66bd c63c fa92 343c d9ef 08bd 6b36 61bd
00000270: 73a5 3cbd 727a a5bd 3caf a0bd a024 a83d
00000280: 3cd8 633d d3b0 3f3d 3239 fe3b 2147 1ebc
00000290: 0531 80bd c230 223d 836d a8bd d2df b1bb
000002a0: 214a ab3c d764 e53d 94ef 85bd 3996 263e
000002b0: b786 c63d fd7b 333b cf15 c2bb 9aa1 f6bd
000002c0: 0c01 223d b975 613d 2222 85bc 34ea 2dbd
000002d0: df78 773d e767 153d e4eb 043e 3000 67bd
000002e0: 6f17 0abe 4cd6 01bb c9e0 7dbd a18c 5ebd
000002f0: 63cf ccbc 08d2 6f3d b924 6cbd ed72 733c
00000300: bb7b febb 4481 c4bc 2aaa 173d 70b0 c43d
00000310: 91a7 133d 6f33 d6bb 80c8 1cbc 05d8 ffbd
00000320: ce1f 07bc 0cdb a1bb a939 553d 2aef c43d
00000330: 3059 7d3d 2724 d43c 9800 db3d 626a cb3d
00000340: 4e55 dbbb 59c2 f3bc bcd9 fb3c b4d2 ab3d
00000350: a744 0abd 138b 20bd ee90 8d3a eb9b 453d
00000360: f220 6dbc 68dd 793c 2ad9 28bc 249c fc3c
00000370: 53c4 713d 087e 993d 20ec b63c 3f16 41bd
00000380: ddf6 783d 084f 823c fd85 fdbc e8c3 6a3a
00000390: b61f 273c becc f5bd 0d94 ecbc dafd b83d
000003a0: 31e8 8c3d 0036 7eb9 e835 17bd 2b61 8a3d
000003b0: adff 8d3c fe98 56bc 858f 17bd 50b0 7dbc
000003c0: aa8c f6bd 0484 cf3c 51ac 383d 2649 a0bd
000003d0: 2cce 30ba 2a9b 04be 9c8f 8d3d d815 943c
000003e0: dfb9 b03c 4024 7fbd 1e6f cdbd 752b 333d
000003f0: a226 a6bd df69 303d aebf 883b 440e e7bc
0.06299734 0.051854305 0.053151518 -0.09129515 0.061769698 -0.0019820407 -0.11310074 0.023581207
-0.025090322 0.025401402 0.042600937 -0.055472687 0.056007337 -0.031879894 0.032404874 0.09554408
-0.043959025 -0.010320928 0.06884923 0.041378826 -0.056840397 -0.02865848 -0.020526178 0.073044516
0.050468095 -0.14571498 -0.07035062 0.05333204 -0.057468735 0.04317997 -0.020532772 0.10578124
-0.043696146 0.054409407 -0.0016126912 0.024088144 0.09573603 -0.09602559 0.05168458 0.030194487
-0.051359735 -0.043466315 -0.04642587 -0.04408321 0.05949819 0.02552546 -0.011245754 0.07995842
-0.02333918 -0.0024874387 0.033427835 -0.079263575 0.02154292 0.036971733 -0.025330666 0.0051845126
-0.053080764 0.009589756 0.10876853 -0.008532496 0.005419978 -0.06754679 0.0021231268 -0.010645243
0.055755377 -0.0147048235 -0.037443962 -0.07147693 0.028596722 0.02438515 -0.032128125 -0.02351043
0.011125494 -0.018615592 0.055236634 0.0016493623 -0.03938652 0.08735108 0.06873907 -0.02850429
-0.07458192 0.06544873 0.020411652 0.0304165 -0.02993179 0.07040395 0.072201826 0.07151573
0.11850854 0.008879925 0.057174295 -0.001828898 0.024655476 0.16366455 -0.020832196 0.042373657
0.06762137 0.0417327 -0.027221452 0.1309641 0.06258446 0.053494256 0.025445921 0.12193721
-0.05016176 -0.118095845 -0.021553565 0.110664085 -0.037601437 0.04926606 -0.043534063 -0.049951356
0.05308232 0.031738076 -0.01631647 0.105273746 -0.0006326713 0.04027037 0.0669465 -0.048722304
-0.04890826 -0.08752302 0.10900949 0.06631598 0.106239304 -0.05095252 -0.112003595 -0.028180372
-0.035385754 -0.047349077 0.050777793 0.052568637 -0.046553094 0.05272594 0.06069432 0.089388296
0.047893234 0.034772404 0.041506328 0.04210461 0.0044293953 0.050945014 -0.034129165 -0.03058316
0.031906523 -0.015445556 0.018960662 -0.048256736 0.028780553 -0.051493395 0.0077507724 0.015805515
0.024260234 0.01102137 -0.03343186 -0.054983538 -0.046056222 -0.08079995 -0.07845923 0.08210111
0.05562614 0.046799492 0.007758283 -0.009660513 -0.0625935 0.03959728 -0.08224013 -0.005428293
0.02090937 0.11200874 -0.065398365 0.16268243 0.096936636 0.0027387135 -0.00592301 -0.12042542
0.03955178 0.05504391 -0.016251627 -0.04245968 0.060418006 0.036476042 0.1298061 -0.056396663
-0.13485502 -0.0019811569 -0.06198195 -0.054333333 -0.025001233 0.05854991 -0.05765221 0.014858943
-0.0077662147 -0.02398742 0.037027515 0.09603965 0.036048476 -0.006536893 -0.009569287 -0.12492374
-0.008247329 -0.0049394425 0.052056942 0.096159294 0.061852634 0.025896145 0.106934726 0.099324
-0.0066935187 -0.029755758 0.030743472 0.08389798 -0.03375688 -0.03919513 0.0010800639 0.048244398
-0.014473187 0.015250541 -0.010305682 0.030836172 0.05902512 0.07494742 0.02232939 -0.047140356
0.060782302 0.015906826 -0.03094768 0.0008955584 0.010200432 -0.12001942 -0.02887919 0.09032793
0.068802245 -0.00024243444 -0.036916643 0.067568146 0.01733383 -0.013098 -0.037002105 -0.015483931
-0.12038548 0.025331505 0.04508621 -0.07826452 -0.0006744589 -0.12949815 0.06912157 0.018076822
0.021573005 -0.06229043 -0.100309595 0.043742616 -0.081128374 0.043069717 0.0041732406 -0.028205045
