lstm982_ae_0802.tflite (tflite, 110368 bytes, 18 tensors)

time_distributed/bias f4 [21]
000000 84 c2 96 be 42 d1 98 be e7 3d 78 be d0 63 a5 be
       -0.2944528 -0.2984715 -0.24242364 -0.32302713
000010 2b 92 f7 bd c9 98 bc be 41 99 72 be 9b 73 70 be
       -0.12088426 -0.36835316 -0.23691274 -0.234816
000020 c0 ad 8d be 5f 34 bb be 94 b5 8c be 73 73 c6 be
       -0.27671623 -0.36563393 -0.27482283 -0.38759956
000030 8c dc a0 be 97 50 c0 be 0b 20 c8 be 6c 9d c4 be
       -0.31418264 -0.37561485 -0.39086947 -0.38401353
000040 e9 1e c7 be ed cb a8 be e0 78 9e 3e 88 fa 97 be
       -0.3889077 -0.32968083 0.30951595 -0.29683328
000050 3b cb 98 3e
       0.29842553

lstm_3/lstm_cell_3/bias f4 [128]
000000 09 10 01 3d 3b 16 e0 3c 7a d0 2d 3d 7c d0 3e 3d
       0.031509433 0.02735435 0.042435147 0.046585545
000010 20 95 42 3c 83 8f 13 3d c9 93 95 3c f7 b4 87 3b
       0.0118763745 0.036025535 0.018258946 0.0041414457
000020 0e ed f7 38 ef 48 ff 3c 1f e5 78 3c 62 f8 2c 3c
       0.00011822033 0.031162707 0.0151913455 0.010557266
000030 99 e7 a2 3c 5e ee 43 3c 75 ee c9 3c cb 7b 7b 3c
       0.019885825 0.011958687 0.024649838 0.015349339
000040 98 cc e5 3c a9 6e 0d 3c ef b7 f6 ba e1 21 21 bc
       0.02805166 0.0086323405 -0.0018823127 -0.0098347375
000050 b6 73 3d 3d 74 20 83 3c 64 df 45 3d 0b ea ec 3c
       0.04625293 0.016006686 0.048308745 0.028920194
000060 3b f4 3c 3d d7 c9 b5 3c bb f0 77 3c cd 5c c1 3c
       0.046131354 0.022190971 0.015133078 0.023603821
000070 3f 88 a8 3c 6f fe c2 3c 77 8c 0e 3d 48 7f 83 3b
       0.02057278 0.023802964 0.034801926 0.004012976
000080 00 00 80 3f 00 00 80 3f 00 00 80 3f 00 00 80 3f
       1.0 1.0 1.0 1.0
000090 00 00 80 3f 00 00 80 3f 00 00 80 3f 00 00 80 3f
       1.0 1.0 1.0 1.0
0000a0 00 00 80 3f 00 00 80 3f 00 00 80 3f 00 00 80 3f
       1.0 1.0 1.0 1.0
0000b0 00 00 80 3f 00 00 80 3f 00 00 80 3f 00 00 80 3f
       1.0 1.0 1.0 1.0
0000c0 00 00 80 3f 00 00 80 3f 00 00 80 3f 00 00 80 3f
       1.0 1.0 1.0 1.0
0000d0 00 00 80 3f 00 00 80 3f 00 00 80 3f 00 00 80 3f
       1.0 1.0 1.0 1.0
0000e0 00 00 80 3f 00 00 80 3f 00 00 80 3f 00 00 80 3f
       1.0 1.0 1.0 1.0
0000f0 00 00 80 3f 00 00 80 3f 00 00 80 3f 00 00 80 3f
       1.0 1.0 1.0 1.0
000100 8e e4 2d bd c9 65 41 bd b7 fd 35 bd ca f6 b7 3d
       -0.042454295 -0.04721621 -0.044431414 0.08982618
000110 e7 c0 d3 bd aa f3 88 bd bf 9f 0f bd 8d 86 8c bc
       -0.103395276 -0.066871 -0.035064455 -0.017154003
000120 e8 1e 32 3e c7 a6 21 be 41 48 e9 bd 72 b1 18 3e
       0.17394602 -0.15786277 -0.113907345 0.1491144
000130 b0 d4 96 3d 83 cf 93 bd bf e3 48 bd a1 60 f4 3d
       0.07364786 -0.07217314 -0.04904532 0.11932493
000140 9f a4 00 3e 80 85 8e 3d 53 5c 8f bc 3a df 92 3d
       0.12562798 0.06959057 -0.017500078 0.07171483
000150 b3 a1 4a 3e 85 78 69 3d 5e 9c 3c 3e 7f 9e b1 3d
       0.19788246 0.056999702 0.18419024 0.08672809
000160 bb cb 85 3c dc a3 3a 3c c5 9c 2d be 7e 40 e2 bd
       0.016332498 0.011391606 -0.16954334 -0.11047457
000170 bc f9 79 3c 52 26 65 3d c3 93 44 3e 2f e4 39 3d
       0.015257295 0.05594475 0.19196992 0.04538363
000180 3d b6 e9 3b 4e a0 58 3c b1 15 5e 3c 99 9c d6 3c
       0.00713232 0.013221813 0.013554976 0.026197718
000190 e5 2a fe 3b 17 47 c1 3c c4 06 8b 3c 0c 90 f2 37
       0.0077565783 0.023593469 0.016971 2.8915725e-05
0001a0 f4 0f 0d ba 72 7f 12 3d 75 57 1d 3c 46 41 05 3c
       -0.00053811003 0.035766073 0.009603371 0.008133238
0001b0 3a 0c 4d ba 70 e9 10 3b ec b0 a5 3c fe 20 8e 3b
       -0.00078219513 0.0022111796 0.020225964 0.004337429
0001c0 bc bb 24 3c 9d 28 ff 3b 96 a2 d0 ba 1c 18 b0 ba
       0.010054525 0.007786824 -0.0015917595 -0.001343492
0001d0 be d2 6d 3d af 78 5c 3c 8e 0c 0a 3d 37 60 70 3c
       0.058062308 0.013456508 0.03370338 0.014671377
0001e0 58 13 ef 3c 16 1a 6c 3c 5f 69 86 bb 04 af a0 3c
       0.029184029 0.014410516 -0.0041019167 0.019614704
0001f0 97 d9 96 3c fc 71 ca 3c 8e 82 b9 3b 82 cf 0b bb
       0.018414302 0.024712555 0.0056613153 -0.00213334

lstm_2/lstm_cell_2/bias f4 [256]
000000 bb 90 9e 3d 07 fc 04 3c ca a6 9e 3d 24 b0 d7 3c
       0.07742449 0.008116729 0.07746656 0.026329108
000010 04 17 51 3d 89 0f c2 3d 78 26 79 3d 3c 21 27 3d
       0.05104734 0.09475619 0.060827702 0.04080318
000020 ce d5 4d 3d 88 20 41 3d 0e a9 8b 3d e6 54 8a bb
       0.05025273 0.047150165 0.06819354 -0.0042215465
000030 c3 25 7f 3d a3 3b 08 3d f8 d6 c5 3d af dc 81 3d
       0.06229187 0.03326 0.09660143 0.0634092
000040 3e de 50 3d 37 db 26 3d 9f 4b bb 3d 6a e9 c3 3d
       0.050993197 0.040736403 0.09145283 0.095660046
000050 43 f9 a7 3d d3 be 6e 3d 7b d8 a8 3d db d2 8b 3d
       0.0820184 0.058287453 0.082444154 0.06827327
000060 50 49 7c 3d cd 8a 6f 3d 1c 78 8b 3d 9a 4a 61 3d
       0.061593354 0.05848198 0.068100184 0.055002786
000070 99 04 de 3d f6 aa 2a 3d d8 bc 5d 3d 11 83 ff 3c
       0.10840721 0.041666947 0.054135174 0.031190427
000080 3a 04 81 3d d4 5e 91 3d e3 64 ad bc e0 ed 74 3d
       0.06299634 0.07098165 -0.02116627 0.059797168
000090 d1 e3 a1 3c f8 0c 3e 3c 57 1a db 3c 51 6e 19 3d
       0.019761952 0.011599772 0.026745958 0.03745872
0000a0 6b 68 c4 3d b3 c1 58 3d 2d a2 5d 3d d2 1b db 3c
       0.09590229 0.0529191 0.05410974 0.026746664
0000b0 66 a7 41 3d 06 03 a3 3d 23 d6 92 3d 39 00 ea 3d
       0.047278784 0.07959561 0.071697496 0.11425824
0000c0 28 6e ae 3a 1b 6e 61 bc 55 66 a0 3c 68 ea b5 3d
       0.0013307976 -0.013759161 0.019580046 0.088826
0000d0 07 e9 e7 3c 8f 15 21 3d e8 88 8c 3d 84 be 6e 3b
       0.028309358 0.0393272 0.0686205 0.0036429474
0000e0 1e 61 89 3d 5f 16 9d 3d df d2 ae 3d bb c4 18 3d
       0.06707977 0.076702826 0.08536314 0.03729699
0000f0 5e 8e f1 3a 01 6a 35 3d d5 d5 bf 3c 2e 6e 64 3d
       0.001842927 0.044290546 0.023417393 0.055769138
000100 00 00 80 3f 00 00 80 3f 00 00 80 3f 00 00 80 3f
       1.0 1.0 1.0 1.0
000110 00 00 80 3f 00 00 80 3f 00 00 80 3f 00 00 80 3f
       1.0 1.0 1.0 1.0
000120 00 00 80 3f 00 00 80 3f 00 00 80 3f 00 00 80 3f
       1.0 1.0 1.0 1.0
000130 00 00 80 3f 00 00 80 3f 00 00 80 3f 00 00 80 3f
       1.0 1.0 1.0 1.0
000140 00 00 80 3f 00 00 80 3f 00 00 80 3f 00 00 80 3f
       1.0 1.0 1.0 1.0
000150 00 00 80 3f 00 00 80 3f 00 00 80 3f 00 00 80 3f
       1.0 1.0 1.0 1.0
000160 00 00 80 3f 00 00 80 3f 00 00 80 3f 00 00 80 3f
       1.0 1.0 1.0 1.0
000170 00 00 80 3f 00 00 80 3f 00 00 80 3f 00 00 80 3f
       1.0 1.0 1.0 1.0
000180 00 00 80 3f 00 00 80 3f 00 00 80 3f 00 00 80 3f
       1.0 1.0 1.0 1.0
000190 00 00 80 3f 00 00 80 3f 00 00 80 3f 00 00 80 3f
       1.0 1.0 1.0 1.0
0001a0 00 00 80 3f 00 00 80 3f 00 00 80 3f 00 00 80 3f
       1.0 1.0 1.0 1.0
0001b0 00 00 80 3f 00 00 80 3f 00 00 80 3f 00 00 80 3f
       1.0 1.0 1.0 1.0
0001c0 00 00 80 3f 00 00 80 3f 00 00 80 3f 00 00 80 3f
       1.0 1.0 1.0 1.0
0001d0 00 00 80 3f 00 00 80 3f 00 00 80 3f 00 00 80 3f
       1.0 1.0 1.0 1.0
0001e0 00 00 80 3f 00 00 80 3f 00 00 80 3f 00 00 80 3f
       1.0 1.0 1.0 1.0
0001f0 00 00 80 3f 00 00 80 3f 00 00 80 3f 00 00 80 3f
       1.0 1.0 1.0 1.0
000200 cd 71 4a 3d 9b 19 94 3d 36 8f 04 3e 8c 5d 11 3c
       0.049424935 0.07231446 0.12945256 0.008872401
000210 44 80 77 bd 00 15 e0 bd 97 00 b0 bd 54 5e ad bc
       -0.060425058 -0.109415054 -0.085938625 -0.021163143
000220 0b dd ac 3d 37 5a a9 3d c0 3b 28 3c 40 e2 7d 3d
       0.08440598 0.0826916 0.010268152 0.061983347
000230 3c c5 a2 bd 35 ef 97 3d e2 0b 4a bd cf a4 51 3d
       -0.07947776 0.07418672 -0.04932774 0.051182564
000240 ee 9b aa bd aa 70 5a 3d d9 4e f3 3d bd a9 82 3d
       -0.083305225 0.0533301 0.11880273 0.06380031
000250 39 9f 84 bd 12 f0 98 3d 6f c0 5b 3d c3 45 da bd
       -0.06475682 0.07467665 0.053650316 -0.10657837
000260 24 82 c8 bd a6 4d 8a bd 8c 89 d4 3d ac b5 72 bd
       -0.09790447 -0.067530915 0.103777975 -0.059255287
000270 ef 10 a1 3d e4 eb dd bc 23 b6 87 3d 84 12 7a 3d
       0.07864558 -0.02709002 0.06626537 0.061052814
000280 27 a2 86 3d 1e a4 b7 bd 92 c0 75 3b 3f a2 80 3d
       0.06573897 -0.0896685 0.0037498814 0.06280946
000290 20 99 5f bd 26 9d a4 bd 1b 88 28 3d cf 81 0b ba
       -0.05458939 -0.08037786 0.041145425 -0.0005321772
0002a0 d2 f1 92 bd b0 b6 1e 3d 0c df 80 3d a0 f7 ea bd
       -0.0717503 0.038748443 0.06292543 -0.11473012
0002b0 22 52 c4 3c e3 3c e4 bd 7e 45 92 3d b0 e1 ea 3d
       0.023964945 -0.11144426 0.07142161 0.11468828
0002c0 35 92 41 3d b2 d3 89 bc ba a3 53 bd 9f b3 99 bd
       0.047258575 -0.016824577 -0.051669814 -0.07504963
0002d0 d2 a8 0f bd 75 1e c8 bd 68 a5 be 3d dd 33 8e 3d
       -0.03507311 -0.09771434 0.093088925 0.06943486
0002e0 09 8a bf 3d 99 d9 f3 3d d9 11 ba 3d 63 fb 16 bd
       0.093525 0.11906738 0.090854354 -0.036860835
0002f0 23 eb f5 3c 3c cf 5d 3d 75 49 73 3c 65 9e 1a 3d
       0.030019348 0.054152712 0.0148490565 0.037748713
000300 f0 d5 98 3d f8 9b 1a 3b 7f 5c 88 3d 2d 4f d5 3c
       0.0746268 0.00235915 0.06658267 0.02603873
000310 57 a0 3d 3d 16 6c c0 3d 14 7c 4a 3d a8 a8 2d 3d
       0.04629549 0.09395616 0.049434736 0.04239717
000320 49 1b 3b 3d 7f d3 2e 3d a0 b8 83 3d c4 64 13 bb
       0.045680318 0.042682167 0.06431699 -0.002249048
000330 0c e5 8b 3d 7a 88 00 3d b2 bc c4 3d a7 35 78 3d
       0.068307966 0.031380154 0.09606303 0.06059804
000340 68 43 29 3d fb 43 24 3d 4d 10 b5 3d 0f d9 be 3d
       0.04132405 0.040103894 0.08841 0.093187444
000350 41 ce a1 3d ad 57 3d 3d 95 f4 a6 3d 59 3b 8a 3d
       0.07900668 0.046226192 0.08152119 0.06749601
000360 c8 87 7e 3d 5e 6b 69 3d 2e a1 87 3d 0e be 5a 3d
       0.06214121 0.05698716 0.066225395 0.053403907
000370 f7 eb e1 3d f7 bb 16 3d ff f9 65 3d 4b 57 2e 3d
       0.11031335 0.03680035 0.056146618 0.042563718
000380 0d eb 81 3d 6a a2 93 3d 2f 0b ab bc d1 58 48 3d
       0.063436605 0.072087124 -0.020879356 0.048912827
000390 5a 25 ca 3c 16 39 b6 3b 10 df d3 3c a4 39 20 3d
       0.024676014 0.0055610044 0.0258632 0.03911747
0003a0 b0 99 c5 3d 46 a3 59 3d 74 7b 5c 3d 8e b3 f8 3c
       0.09648454 0.053134225 0.05382867 0.030359056
0003b0 d5 02 00 3d 06 a0 95 3d f7 99 8e 3d 80 75 df 3d
       0.0312527 0.07305913 0.0696296 0.10911083
0003c0 cb 61 27 b9 4b 51 6e bc 2a 7b 8e 3c 8b d6 a9 3d
       -0.00015962792 -0.014545749 0.017392714 0.08292874
0003d0 e1 ef c3 3c 55 c8 b8 3c 68 ff 65 3d a7 1e 34 3b
       0.023918094 0.022556463 0.056151778 0.002748409
0003e0 8e f8 72 3d 7b f2 9e 3d f6 03 a3 3d 04 ec 01 3d
       0.05931907 0.07761093 0.0795974 0.031719223
0003f0 d6 69 69 bb 10 2f 12 3d 44 43 99 3c 06 97 5b 3d
       -0.0035616062 0.035689414 0.018708833 0.053610824

lstm_1/lstm_cell_1/bias f4 [128]
000000 34 11 26 3d 6b 44 1e 3d db d7 52 3d 70 5b 5a 3d
       0.04054375 0.038639467 0.051475387 0.053309858
000010 39 4c f8 3c a3 1a 24 3d e3 2d 2d 3d 2d 8e 3c 3d
       0.030309783 0.040064465 0.04228009 0.046034027
000020 06 e7 c1 3c 54 ae 07 3d 32 02 1a 3d db db 5d 3d
       0.02366973 0.033125237 0.03759975 0.05416475
000030 4c 97 57 3d b5 fe 1c 3d 6d a0 68 3d 13 62 f9 3c
       0.052634522 0.038328845 0.05679362 0.030442273
000040 d5 e4 57 3d ed 86 d4 3c 45 26 37 3d bf 77 35 3d
       0.052708466 0.025943244 0.04471423 0.044303652
000050 4f 95 07 3d 65 37 43 3d 4c 74 3d 3d 28 05 1e 3d
       0.033101376 0.04766025 0.046253487 0.038579136
000060 da b9 10 3d ad 90 3e 3d b1 14 34 3d 7a 1e 51 3d
       0.03533349 0.046524692 0.043965045 0.051054455
000070 33 95 25 3d 46 7f 64 3d b5 f3 2f 3d fa 52 53 3d
       0.04042549 0.05578544 0.042957027 0.051592804
000080 00 00 80 3f 00 00 80 3f 00 00 80 3f 00 00 80 3f
       1.0 1.0 1.0 1.0
000090 00 00 80 3f 00 00 80 3f 00 00 80 3f 00 00 80 3f
       1.0 1.0 1.0 1.0
0000a0 00 00 80 3f 00 00 80 3f 00 00 80 3f 00 00 80 3f
       1.0 1.0 1.0 1.0
0000b0 00 00 80 3f 00 00 80 3f 00 00 80 3f 00 00 80 3f
       1.0 1.0 1.0 1.0
0000c0 00 00 80 3f 00 00 80 3f 00 00 80 3f 00 00 80 3f
       1.0 1.0 1.0 1.0
0000d0 00 00 80 3f 00 00 80 3f 00 00 80 3f 00 00 80 3f
       1.0 1.0 1.0 1.0
0000e0 00 00 80 3f 00 00 80 3f 00 00 80 3f 00 00 80 3f
       1.0 1.0 1.0 1.0
0000f0 00 00 80 3f 00 00 80 3f 00 00 80 3f 00 00 80 3f
       1.0 1.0 1.0 1.0
000100 b0 33 0c 3b 39 e5 34 3d f2 d0 b9 bc d0 5a 80 3c
       0.0021393113 0.044163916 -0.02268264 0.015668303
000110 ed 4a 16 3c b2 18 7c 3c 4a ca c7 3a 16 ae a8 bc
       0.009173137 0.015386747 0.0015242782 -0.020590823
000120 0a 01 55 bd 51 d4 a9 bc 35 ea 85 bc 37 d7 04 bc
       -0.052002944 -0.020731123 -0.01634703 -0.008107952
000130 5a 33 c1 bc 8e 7e a2 3b b9 aa 0f bc 75 92 10 3c
       -0.023584057 0.004958934 -0.008768731 0.008823981
000140 6f d3 43 3c 55 eb 9a 3c 6d 39 51 ba 0f 0d a0 3c
       0.011952265 0.018911043 -0.00079812744 0.019537477
000150 db 01 27 bc 3d 94 da 3b fc 7f 25 3c ce 3a 38 bc
       -0.0101933135 0.0066705034 0.010101315 -0.011244489
000160 da 99 c1 bc e0 8d a1 3c 20 ad b2 bc 4d 43 08 bc
       -0.023632932 0.019720972 -0.021811068 -0.008316827
000170 cb 6a 1c 3c e8 ad 27 bd c2 e4 fa 3c 60 11 08 3b
       0.009546946 -0.040937334 0.030626658 0.002076231
000180 b2 f7 3a 3d 18 c6 32 3d 4a a2 61 3d f5 47 46 3d
       0.045646377 0.04364595 0.05508641 0.048408467
000190 44 bd 1a 3d 4e a0 27 3d 88 ab 56 3d c7 c4 4b 3d
       0.037778154 0.040924363 0.05240968 0.04974821
0001a0 fe bf 77 3d 77 95 22 3d df ae 08 3d 1f 73 69 3d
       0.060485832 0.039693322 0.033369895 0.056994554
0001b0 dc 77 67 3d 96 74 2c 3d 9f 20 7a 3d ca be 0f 3d
       0.05651079 0.042103373 0.061066266 0.03509406
0001c0 90 74 67 3d c1 09 02 3d d7 54 34 3d 93 4d 29 3d
       0.056507647 0.031747583 0.044026222 0.041333746
0001d0 a7 4c 1d 3d dc 36 32 3d 94 89 4e 3d ac a1 2d 3d
       0.03840318 0.04350935 0.050424173 0.04239051
0001e0 52 06 e3 3c b9 76 5e 3d 27 43 28 3d 19 3c 5f 3d
       0.027712975 0.05431244 0.041079666 0.054500673
0001f0 fe 79 49 3d d2 1e 52 3d a1 29 2c 3d 62 3d 64 3d
       0.049188606 0.051298924 0.042031888 0.0557226

lstm/lstm_cell/bias f4 [256]
000000 c4 5b d9 3d 9f 07 f7 3b fa 55 c5 3b b1 7d 2b 3c
       0.10613206 0.0075387503 0.006022212 0.010466979
000010 15 24 2a 3d 7b c4 0a 3d 7c 77 2b 3c c5 f3 55 3d
       0.041538317 0.033878785 0.010465499 0.05223443
000020 3b f3 15 3d 0c 91 4b 3d e9 eb e2 3c b6 a9 42 3d
       0.036608916 0.049698874 0.027700381 0.04752513
000030 15 29 89 bb 8c 05 f8 3c 01 8b 39 3d 37 b9 2c 3d
       -0.0041858056 0.030276082 0.04529858 0.042168822
000040 63 d0 7f 3b c6 d9 20 3c f8 10 b6 3c 5b e9 d4 3c
       0.003903412 0.009817546 0.022224888 0.025990179
000050 26 16 34 3d 14 cc e9 3c 0d 0f 97 3c a8 53 16 3c
       0.043966435 0.028539695 0.018439794 0.009175219
000060 89 07 08 3d ad e4 64 bc b6 24 2f 3d fb 7c 1c 3d
       0.03321031 -0.013970536 0.04275962 0.03820513
000070 25 66 14 bd 7a 20 a7 3c cf 44 3f ba 54 a3 52 bc
       -0.036230225 0.020401228 -0.0007296325 -0.012856323
000080 6c f3 51 3c 6f 9f a5 3b a4 37 2f bb f4 f8 a9 3b
       0.012814384 0.0050544064 -0.0026736045 0.005187148
000090 a1 da 44 bc 96 a3 4d 3c b0 fb 52 3d c0 ba 0e bd
       -0.012015016 0.012551209 0.05150956 -0.034846067
0000a0 e1 89 35 3d 32 af a5 3c a5 d2 76 3d 58 86 78 bc
       0.044320945 0.020225141 0.06025948 -0.015168749
0000b0 25 8f 87 3d 82 df ae 3c 24 3b 04 3d a5 f3 1f 3c
       0.066190995 0.021346811 0.032282963 0.009762679
0000c0 f1 7b 56 3c 31 7b 1a 3d 70 a9 37 3c 64 a5 5f bc
       0.013091073 0.03771514 0.011209831 -0.013650272
0000d0 eb 41 fc 3c 28 30 6f 3b ff 66 04 3d c6 a4 eb bc
       0.03079315 0.003649721 0.032324787 -0.028765094
0000e0 0d 90 a0 3c 84 d8 9c bb cb 80 4f 3d 44 6f 56 3b
       0.019599939 -0.004786553 0.050659936 0.0032720128
0000f0 30 fe 61 3d df b1 35 3c 26 60 0a 3c 5d e4 aa bb
       0.055174053 0.011089771 0.008445775 -0.0052152113
000100 00 00 80 3f 00 00 80 3f 00 00 80 3f 00 00 80 3f
       1.0 1.0 1.0 1.0
000110 00 00 80 3f 00 00 80 3f 00 00 80 3f 00 00 80 3f
       1.0 1.0 1.0 1.0
000120 00 00 80 3f 00 00 80 3f 00 00 80 3f 00 00 80 3f
       1.0 1.0 1.0 1.0
000130 00 00 80 3f 00 00 80 3f 00 00 80 3f 00 00 80 3f
       1.0 1.0 1.0 1.0
000140 00 00 80 3f 00 00 80 3f 00 00 80 3f 00 00 80 3f
       1.0 1.0 1.0 1.0
000150 00 00 80 3f 00 00 80 3f 00 00 80 3f 00 00 80 3f
       1.0 1.0 1.0 1.0
000160 00 00 80 3f 00 00 80 3f 00 00 80 3f 00 00 80 3f
       1.0 1.0 1.0 1.0
000170 00 00 80 3f 00 00 80 3f 00 00 80 3f 00 00 80 3f
       1.0 1.0 1.0 1.0
000180 00 00 80 3f 00 00 80 3f 00 00 80 3f 00 00 80 3f
       1.0 1.0 1.0 1.0
000190 00 00 80 3f 00 00 80 3f 00 00 80 3f 00 00 80 3f
       1.0 1.0 1.0 1.0
0001a0 00 00 80 3f 00 00 80 3f 00 00 80 3f 00 00 80 3f
       1.0 1.0 1.0 1.0
0001b0 00 00 80 3f 00 00 80 3f 00 00 80 3f 00 00 80 3f
       1.0 1.0 1.0 1.0
0001c0 00 00 80 3f 00 00 80 3f 00 00 80 3f 00 00 80 3f
       1.0 1.0 1.0 1.0
0001d0 00 00 80 3f 00 00 80 3f 00 00 80 3f 00 00 80 3f
       1.0 1.0 1.0 1.0
0001e0 00 00 80 3f 00 00 80 3f 00 00 80 3f 00 00 80 3f
       1.0 1.0 1.0 1.0
0001f0 00 00 80 3f 00 00 80 3f 00 00 80 3f 00 00 80 3f
       1.0 1.0 1.0 1.0
000200 23 b0 64 3e 57 03 92 3d 3f 3e e6 3d 9c 90 d9 bd
       0.22332816 0.07129543 0.11242341 -0.10623285
000210 5e f6 a2 bd 8f 48 dc 3d c6 23 cb bd ea 00 a7 bd
       -0.07957147 0.10756027 -0.099189326 -0.08154471
000220 ef 3e 0d 3e d1 0f b2 3d ba 2e a7 bd 81 d7 ef bd
       0.13793539 0.08694423 -0.08163209 -0.11711026
000230 fd 11 b1 bd 55 19 03 3e b5 a4 fb bd a6 19 b6 3d
       -0.08646009 0.12802632 -0.12287275 0.08891611
000240 68 67 ae 3d fc f3 b1 bd 4f e0 af 3d bf a9 8d bd
       0.08515817 -0.086891145 0.08587705 -0.06917142
000250 b1 44 e8 3d aa cb ad bd a2 b1 8f bd 76 8e 9c 3d
       0.11341227 -0.084861115 -0.07016303 0.0764436
000260 0b 60 81 bd 9f e8 dd 3c 47 54 c8 bd cf c3 90 bd
       -0.06317147 0.027088461 -0.097817 -0.070685975
000270 7c b1 a8 3d 3c ca d4 bd ae 9c d0 bd 8f 5e 31 bd
       0.082369775 -0.10390136 -0.10186134 -0.04330307
000280 23 49 cc bd 9e e1 a3 3d d4 20 98 3d 49 98 eb bd
       -0.09974887 0.080020174 0.074281365 -0.115036555
000290 68 dc 87 bd 11 ad b9 3d 28 6b 18 3e f2 ec 70 bd
       -0.06633836 0.09066213 0.14884627 -0.05881972
0002a0 c9 69 0a 3e 04 86 8b bd 55 bf b7 3d 95 5d 92 bd
       0.13516916 -0.06812671 0.089720406 -0.071467556
0002b0 ae 34 45 3e a3 00 a2 bd 90 50 62 bd 04 01 a3 3d
       0.19258377 -0.07910278 -0.05525261 0.07959178
0002c0 26 4f 85 bd 9a af 93 bd c6 53 ab bd a1 60 91 bd
       -0.06509237 -0.07211228 -0.08365588 -0.070985086
0002d0 f6 60 f6 3d 79 3a 4d bd b3 f3 88 3d 6c 56 6b 3d
       0.120302126 -0.050104592 0.06687107 0.057455465
0002e0 d8 34 a2 bd e8 bd 95 bd 69 0b dc 3d e3 ea 68 3d
       -0.079202354 -0.07311612 0.10744364 0.05686463
0002f0 87 43 00 be 50 10 f9 3d 87 bf 5c 3d 28 31 87 3d
       -0.1252576 0.121613145 0.053893592 0.06601173
000300 73 90 18 3d f7 84 1f 3d d0 84 ab 3c 89 de c6 3c
       0.037247133 0.038945165 0.020937353 0.024276035
000310 e5 74 22 3d d3 8a 08 3d 44 f1 5b 3c dd 3b 1d 3d
       0.03966226 0.033335518 0.013424221 0.03838717
000320 38 f0 2f 3d de a0 b3 3d b6 4f 93 3c 5d 68 84 3d
       0.0429537 0.08770917 0.017982345 0.06465218
000330 40 7f 63 3d ed 69 ae 3c 00 c7 2a 3d 94 13 6c 3d
       0.055541277 0.021290744 0.041693687 0.05763586
000340 3e 9b 05 3d 0f 03 81 3b 23 7b f5 3c df bc 15 ba
       0.032618754 0.003937132 0.029965943 -0.0005712043
000350 af 6c 31 3d a2 d0 37 3d b8 61 2d 3d 0a bb d0 3c
       0.04331654 0.044876702 0.04232952 0.025479812
000360 9f 67 ae 3c 5b 06 28 3c 00 53 c5 3c 73 76 21 3d
       0.021289645 0.0102554215 0.024087429 0.039419603
000370 53 15 ce ba 8c 64 13 3d 27 83 cc 3c 70 94 d8 3b
       -0.0015722908 0.03598456 0.024964882 0.006609492
000380 1f 73 94 3b 00 a2 64 3c ca f6 65 3c 0f 0d 09 3d
       0.004530325 0.013954639 0.01403589 0.03345972
000390 d7 0a a9 bc 6d 26 1b 3d 6f 05 0a 3d 05 b6 be 3c
       -0.020635052 0.037878443 0.033696588 0.023280153
0003a0 df 54 51 3d 84 7b 19 3d b3 7e 90 3d 7f 53 b8 bb
       0.05110633 0.03747131 0.07055416 -0.005625188
0003b0 57 31 11 3c db 33 fa 3c 8d c7 b8 3c 9e ec d5 3c
       0.008861861 0.030542305 0.02255609 0.026113804
0003c0 52 b2 fd ba f8 7d 23 3d cd be da 3c a6 c3 83 3c
       -0.0019355512 0.039915055 0.026702309 0.016084503
0003d0 7f 93 61 3d b6 ef 10 bc 15 8b a7 3c 0d 3e 2f bb
       0.055072304 -0.008846214 0.020452062 -0.0026739866
0003e0 1c f2 b5 3c 6a 5a 02 3d 8c d5 50 3d 3b 84 b9 bb
       0.022210173 0.031824507 0.050984904 -0.005661515
0003f0 d6 79 26 3d dd 67 b5 3c e4 3b 5a 3c b2 ca d8 3c
       0.040643536 0.022144252 0.013319943 0.02646384

model/time_distributed/dense/MatMul f4 [21, 32]
000000 4d 55 36 3e 73 cb 40 3e 15 c6 1e 3e fb b5 df bd
       0.17805977 0.1882761 0.1550525 -0.10923382
000010 f3 e6 8a 3e e9 10 28 3e c1 8a 54 3e 2b 3f 61 3e
       0.27129325 0.164127 0.20756055 0.21996753
000020 b5 3e 03 bd fd 16 f2 3d bd ba b2 3e e2 34 ba bd
       -0.032042224 0.11820791 0.34908095 -0.09092118
000030 a5 11 b5 bd 2b ea 63 3e 4c da 95 3e ae 0a 67 be
       -0.08841256 0.22257297 0.2926811 -0.22562668
000040 a8 e0 37 be 9e 3d 47 be 60 06 30 be 6e 9d ad be
       -0.17956793 -0.19457099 -0.17189932 -0.33909172
000050 c0 85 1c be b1 fc 67 be 78 51 98 be d7 d2 80 be
       -0.15285397 -0.22654988 -0.29749656 -0.25160858
000060 3f ff 7c be dd 69 f2 bd 1d d0 8f 3e be 14 b1 3e
       -0.24706744 -0.11836598 0.28088465 0.34586138
000070 76 90 76 3e 11 30 62 be ed 74 15 be 56 bf 74 3e
       0.24078545 -0.22088648 -0.14595385 0.23901114
000080 9b 09 9e 3e 6d 3c 80 3e c3 d9 2c 3e 1b e4 ae bd
       0.30866703 0.250461 0.16879945 -0.085396014
000090 d7 d2 39 3e ac 2b 93 3e da 1a 5d 3e ec 50 4a 3d
       0.18146835 0.28744256 0.21592274 0.04939358
0000a0 7b d6 3b be e6 fb 5b 3e ab d3 99 3e 00 16 36 be
       -0.18343537 0.2148281 0.30044302 -0.1778183
0000b0 d5 15 68 be f0 64 96 3e 6d e7 64 3e 65 24 15 be
       -0.22664578 0.29373884 0.22353907 -0.14564665
0000c0 89 35 ff bb d8 cd 8d be 16 69 a2 bd f0 8b 8c be
       -0.0077883643 -0.2769611 -0.079302 -0.27450514
0000d0 17 22 38 be 2a 54 2f be 90 8d 9b be b6 c6 52 bd
       -0.17981754 -0.1712195 -0.3038144 -0.051459037
0000e0 f7 a1 2b be 45 76 11 be 05 c0 8c 3e ab b7 14 3e
       -0.16761003 -0.14205272 0.2749025 0.14523189
0000f0 07 f4 91 3e 01 94 79 be b6 34 a2 be 1e 31 77 3e
       0.2850649 -0.24372865 -0.3168084 0.2413983
000100 88 b3 68 3e aa f1 3c 3e d9 94 35 3e 06 a3 87 be
       0.22724736 0.18451563 0.17732562 -0.26491565
000110 88 3f 51 3d 74 a8 a6 3e dc 3f 9f 3e 9d e3 9a 3e
       0.05108598 0.32550395 0.31103408 0.3025178
000120 09 76 8e be a7 06 0d 3e 2c 7a 90 3d 68 76 3d be
       -0.2782443 0.13772069 0.070545524 -0.185022
000130 b6 d5 54 be a7 0f 77 3e 25 66 8c 3e b2 3e 64 bd
       -0.20784649 0.24127065 0.2742168 -0.055723853
000140 a8 c8 a7 be 96 eb 86 be 53 01 4b be b0 8c 80 be
       -0.32770276 -0.26351613 -0.19824724 -0.25107336
000150 ef 90 2b be 4c 5f 0c be 66 1f 0d be 3d 30 63 be
       -0.16754507 -0.13708228 -0.13781509 -0.2218637
000160 07 68 93 be d2 f6 89 be 26 4d b9 bc 5a 0b 4f 3e
       -0.28790304 -0.2694612 -0.022619795 0.20219174
000170 06 c4 76 3e 2f a7 ac be ed ea 91 be c7 e7 97 3e
       0.24098215 -0.337213 -0.28499547 0.2966902
000180 c0 5e 03 3e af 95 92 3e bd 29 32 3e e1 a3 b0 be
       0.12829113 0.28629825 0.17398734 -0.3450003
000190 c7 a4 21 3e da 18 61 3e 35 37 82 3e 61 00 5d 3e
       0.15785514 0.21982136 0.25432745 0.21582176
0001a0 f5 ac de bd a0 5a 32 3e c3 7e a3 3d ff bd 86 bd
       -0.10872833 0.17417383 0.07983162 -0.06579208
0001b0 c2 b5 ac bd cc 72 b6 3e a0 b0 83 3e a7 d2 1f be
       -0.08433105 0.35634458 0.25720692 -0.15607701
0001c0 7f b5 cf bd ad dd 96 be c3 2a 21 bd 46 1e 8d bd
       -0.101420395 -0.29466 -0.03934742 -0.0689054
0001d0 63 5f 4c be be 57 af be 42 ed 0f be e9 3b a5 be
       -0.19958262 -0.3424663 -0.1405535 -0.3227227
0001e0 b2 f1 68 be f5 d8 6e be c3 fa 81 3e 45 af 26 3e
       -0.2274845 -0.2332495 0.25386629 0.16277798
0001f0 41 64 41 3e 57 fa 3b be e7 50 70 bc 9c c9 89 3e
       0.188859 -0.18357216 -0.014667726 0.26911628
000200 76 09 d1 bd 30 39 ca 3c de a0 64 bd 22 e5 16 be
       -0.10206883 0.024685472 -0.055817477 -0.14735845
000210 38 de af bb 1f d9 88 3d 70 1e 3d bd 3a 8c f1 3b
       -0.0053670667 0.066820376 -0.046171606 0.0073714526
000220 3d 63 ff bd 62 7a a3 3d 42 88 dc 3d 61 9d 75 be
       -0.124701 0.07982327 0.107681766 -0.23985817
000230 61 da 58 be bd 81 17 3e 16 dc be 3c 9a 5c f7 3d
       -0.21177055 0.14795585 0.023298305 0.12078209
000240 d3 e8 e4 bc 85 39 b5 bd fd b8 9f 3c 7b 45 7e be
       -0.02794305 -0.088488616 0.019497389 -0.24831192
000250 07 5f 2a be db 1a 32 be d4 36 bb bb fb 27 67 bc
       -0.16637813 -0.17393057 -0.005713323 -0.014108653
000260 6e f2 26 bd 69 58 18 be 0a 28 2a 3e bc 5f 6f 3e
       -0.040758543 -0.14877476 0.16616836 0.23376364
000270 be d2 33 3e 31 f6 15 bd 0f 67 3c 3e 90 78 c9 3d
       0.1756086 -0.03661174 0.18398689 0.098374486
000280 a3 cf 41 3e fa 33 b4 3c 2a c7 ae 3d 93 6d 4d be
       0.18926863 0.02199744 0.08534081 -0.2006133
000290 be e9 2e 3e 21 a1 43 3e 0a f3 49 3e b2 60 d9 3d
       0.17081353 0.19104435 0.19721618 0.10614146
0002a0 6a 7e 84 be 4f eb d4 3d 05 6e 0d 3e d3 14 57 be
       -0.25877696 0.10396444 0.138115 -0.21004038
0002b0 52 9c 39 be 3a a4 e8 3d ee 7c 23 3e 61 e7 64 be
       -0.18126038 0.11359449 0.15965626 -0.22353889
0002c0 53 04 20 be c4 65 44 be d0 26 31 3c 54 54 61 be
       -0.1562665 -0.19179446 0.010812476 -0.22004825
0002d0 74 49 c8 bd ea dd 74 bd ac 28 15 be 7d 7b ec bd
       -0.09779635 -0.059781946 -0.14566296 -0.11546991
0002e0 1c a4 4d bd 2a 05 dc bc 2e a8 29 3e 35 6a ab 3d
       -0.050205335 -0.026857931 0.16568062 0.08369867
0002f0 93 2f 42 3c ff 0b ae bd 4b 7b 80 bd 5d a1 80 3d
       0.011852163 -0.08498382 -0.06273516 0.062807776
000300 54 b0 21 3e 95 0c 0c bd 61 18 16 3c 25 d7 1f be
       0.1578992 -0.034191687 0.009161086 -0.15609415
000310 ea c0 1c 3e a0 b3 0f 3e cb 38 1e 3e 52 58 86 3d
       0.15307966 0.14033365 0.15451352 0.065598145
000320 50 27 80 bd f1 33 97 3d ec 70 46 3e 85 32 7f bd
       -0.06257498 0.07382954 0.19379014 -0.06230404
000330 21 6b 1d bc 52 f1 46 3e 90 c2 c0 bc f2 9d 5e be
       -0.009608061 0.19427994 -0.023530275 -0.21739939
000340 85 e5 d1 bd cd f2 24 be eb b7 8d 3b 38 66 5c be
       -0.102488555 -0.16108246 0.0043249032 -0.21523368
000350 0c 53 5f be 81 99 7b bd 03 a9 44 be b5 5c 34 be
       -0.21809024 -0.06142569 -0.19205098 -0.1761349
000360 18 98 b1 3b f0 80 00 be 6b 90 de 3d 79 59 3a 3e
       0.0054197423 -0.12549186 0.10867389 0.18198194
000370 61 5b bb 3d e4 c0 3c bd 2c 22 78 be 22 69 94 3d
       0.091482885 -0.046082392 -0.24231786 0.07246615
000380 e9 c1 ae 3d 07 a7 43 3e 8d 5a de 3c 4d 2b cf bd
       0.08533079 0.19106685 0.027142787 -0.10115681
000390 1c 5d a1 bd 0e 82 e0 3d a4 74 6b bd 76 ea 1a 3e
       -0.07879087 0.10962306 -0.057484284 0.15128502
0003a0 12 20 2e be 70 4e 28 3e b2 73 47 3e 1f 95 8c be
       -0.17004421 0.16436172 0.19477728 -0.2745752
0003b0 26 cf be bc 3d b4 46 3e e1 64 6b 3c 41 a8 d9 bc
       -0.023292135 0.19404693 0.014367313 -0.026569488
0003c0 c4 63 85 3d c5 85 30 be a6 48 4c bd 43 9a 2f 3c
       0.065131694 -0.17238529 -0.04987397 0.010717931
0003d0 51 47 4f be ac df 30 3d 87 0d 85 bd 36 74 78 bd
       -0.20242049 0.04318206 -0.06496721 -0.060657702
0003e0 bc bf f6 bd 7b 20 43 bd 20 4e 2c 3d a5 66 0f 3e
       -0.12048289 -0.047638398 0.042066693 0.14004
0003f0 67 f2 6f 3c ee ee ae bd f2 db 71 be ff 3f 15 3e
       0.014645196 -0.08541666 -0.23619059 0.14575194

lstm/lstm_cell/bias1 f4 [256]
000000 c4 5b d9 3d 9f 07 f7 3b fa 55 c5 3b b1 7d 2b 3c
       0.10613206 0.0075387503 0.006022212 0.010466979
000010 15 24 2a 3d 7b c4 0a 3d 7c 77 2b 3c c5 f3 55 3d
       0.041538317 0.033878785 0.010465499 0.05223443
000020 3b f3 15 3d 0c 91 4b 3d e9 eb e2 3c b6 a9 42 3d
       0.036608916 0.049698874 0.027700381 0.04752513
000030 15 29 89 bb 8c 05 f8 3c 01 8b 39 3d 37 b9 2c 3d
       -0.0041858056 0.030276082 0.04529858 0.042168822
000040 63 d0 7f 3b c6 d9 20 3c f8 10 b6 3c 5b e9 d4 3c
       0.003903412 0.009817546 0.022224888 0.025990179
000050 26 16 34 3d 14 cc e9 3c 0d 0f 97 3c a8 53 16 3c
       0.043966435 0.028539695 0.018439794 0.009175219
000060 89 07 08 3d ad e4 64 bc b6 24 2f 3d fb 7c 1c 3d
       0.03321031 -0.013970536 0.04275962 0.03820513
000070 25 66 14 bd 7a 20 a7 3c cf 44 3f ba 54 a3 52 bc
       -0.036230225 0.020401228 -0.0007296325 -0.012856323
000080 6c f3 51 3c 6f 9f a5 3b a4 37 2f bb f4 f8 a9 3b
       0.012814384 0.0050544064 -0.0026736045 0.005187148
000090 a1 da 44 bc 96 a3 4d 3c b0 fb 52 3d c0 ba 0e bd
       -0.012015016 0.012551209 0.05150956 -0.034846067
0000a0 e1 89 35 3d 32 af a5 3c a5 d2 76 3d 58 86 78 bc
       0.044320945 0.020225141 0.06025948 -0.015168749
0000b0 25 8f 87 3d 82 df ae 3c 24 3b 04 3d a5 f3 1f 3c
       0.066190995 0.021346811 0.032282963 0.009762679
0000c0 f1 7b 56 3c 31 7b 1a 3d 70 a9 37 3c 64 a5 5f bc
       0.013091073 0.03771514 0.011209831 -0.013650272
0000d0 eb 41 fc 3c 28 30 6f 3b ff 66 04 3d c6 a4 eb bc
       0.03079315 0.003649721 0.032324787 -0.028765094
0000e0 0d 90 a0 3c 84 d8 9c bb cb 80 4f 3d 44 6f 56 3b
       0.019599939 -0.004786553 0.050659936 0.0032720128
0000f0 30 fe 61 3d df b1 35 3c 26 60 0a 3c 5d e4 aa bb
       0.055174053 0.011089771 0.008445775 -0.0052152113
000100 00 00 80 3f 00 00 80 3f 00 00 80 3f 00 00 80 3f
       1.0 1.0 1.0 1.0
000110 00 00 80 3f 00 00 80 3f 00 00 80 3f 00 00 80 3f
       1.0 1.0 1.0 1.0
000120 00 00 80 3f 00 00 80 3f 00 00 80 3f 00 00 80 3f
       1.0 1.0 1.0 1.0
000130 00 00 80 3f 00 00 80 3f 00 00 80 3f 00 00 80 3f
       1.0 1.0 1.0 1.0
000140 00 00 80 3f 00 00 80 3f 00 00 80 3f 00 00 80 3f
       1.0 1.0 1.0 1.0
000150 00 00 80 3f 00 00 80 3f 00 00 80 3f 00 00 80 3f
       1.0 1.0 1.0 1.0
000160 00 00 80 3f 00 00 80 3f 00 00 80 3f 00 00 80 3f
       1.0 1.0 1.0 1.0
000170 00 00 80 3f 00 00 80 3f 00 00 80 3f 00 00 80 3f
       1.0 1.0 1.0 1.0
000180 00 00 80 3f 00 00 80 3f 00 00 80 3f 00 00 80 3f
       1.0 1.0 1.0 1.0
000190 00 00 80 3f 00 00 80 3f 00 00 80 3f 00 00 80 3f
       1.0 1.0 1.0 1.0
0001a0 00 00 80 3f 00 00 80 3f 00 00 80 3f 00 00 80 3f
       1.0 1.0 1.0 1.0
0001b0 00 00 80 3f 00 00 80 3f 00 00 80 3f 00 00 80 3f
       1.0 1.0 1.0 1.0
0001c0 00 00 80 3f 00 00 80 3f 00 00 80 3f 00 00 80 3f
       1.0 1.0 1.0 1.0
0001d0 00 00 80 3f 00 00 80 3f 00 00 80 3f 00 00 80 3f
       1.0 1.0 1.0 1.0
0001e0 00 00 80 3f 00 00 80 3f 00 00 80 3f 00 00 80 3f
       1.0 1.0 1.0 1.0
0001f0 00 00 80 3f 00 00 80 3f 00 00 80 3f 00 00 80 3f
       1.0 1.0 1.0 1.0
000200 23 b0 64 3e 57 03 92 3d 3f 3e e6 3d 9c 90 d9 bd
       0.22332816 0.07129543 0.11242341 -0.10623285
000210 5e f6 a2 bd 8f 48 dc 3d c6 23 cb bd ea 00 a7 bd
       -0.07957147 0.10756027 -0.099189326 -0.08154471
000220 ef 3e 0d 3e d1 0f b2 3d ba 2e a7 bd 81 d7 ef bd
       0.13793539 0.08694423 -0.08163209 -0.11711026
000230 fd 11 b1 bd 55 19 03 3e b5 a4 fb bd a6 19 b6 3d
       -0.08646009 0.12802632 -0.12287275 0.08891611
000240 68 67 ae 3d fc f3 b1 bd 4f e0 af 3d bf a9 8d bd
       0.08515817 -0.086891145 0.08587705 -0.06917142
000250 b1 44 e8 3d aa cb ad bd a2 b1 8f bd 76 8e 9c 3d
       0.11341227 -0.084861115 -0.07016303 0.0764436
000260 0b 60 81 bd 9f e8 dd 3c 47 54 c8 bd cf c3 90 bd
       -0.06317147 0.027088461 -0.097817 -0.070685975
000270 7c b1 a8 3d 3c ca d4 bd ae 9c d0 bd 8f 5e 31 bd
       0.082369775 -0.10390136 -0.10186134 -0.04330307
000280 23 49 cc bd 9e e1 a3 3d d4 20 98 3d 49 98 eb bd
       -0.09974887 0.080020174 0.074281365 -0.115036555
000290 68 dc 87 bd 11 ad b9 3d 28 6b 18 3e f2 ec 70 bd
       -0.06633836 0.09066213 0.14884627 -0.05881972
0002a0 c9 69 0a 3e 04 86 8b bd 55 bf b7 3d 95 5d 92 bd
       0.13516916 -0.06812671 0.089720406 -0.071467556
0002b0 ae 34 45 3e a3 00 a2 bd 90 50 62 bd 04 01 a3 3d
       0.19258377 -0.07910278 -0.05525261 0.07959178
0002c0 26 4f 85 bd 9a af 93 bd c6 53 ab bd a1 60 91 bd
       -0.06509237 -0.07211228 -0.08365588 -0.070985086
0002d0 f6 60 f6 3d 79 3a 4d bd b3 f3 88 3d 6c 56 6b 3d
       0.120302126 -0.050104592 0.06687107 0.057455465
0002e0 d8 34 a2 bd e8 bd 95 bd 69 0b dc 3d e3 ea 68 3d
       -0.079202354 -0.07311612 0.10744364 0.05686463
0002f0 87 43 00 be 50 10 f9 3d 87 bf 5c 3d 28 31 87 3d
       -0.1252576 0.121613145 0.053893592 0.06601173
000300 73 90 18 3d f7 84 1f 3d d0 84 ab 3c 89 de c6 3c
       0.037247133 0.038945165 0.020937353 0.024276035
000310 e5 74 22 3d d3 8a 08 3d 44 f1 5b 3c dd 3b 1d 3d
       0.03966226 0.033335518 0.013424221 0.03838717
000320 38 f0 2f 3d de a0 b3 3d b6 4f 93 3c 5d 68 84 3d
       0.0429537 0.08770917 0.017982345 0.06465218
000330 40 7f 63 3d ed 69 ae 3c 00 c7 2a 3d 94 13 6c 3d
       0.055541277 0.021290744 0.041693687 0.05763586
000340 3e 9b 05 3d 0f 03 81 3b 23 7b f5 3c df bc 15 ba
       0.032618754 0.003937132 0.029965943 -0.0005712043
000350 af 6c 31 3d a2 d0 37 3d b8 61 2d 3d 0a bb d0 3c
       0.04331654 0.044876702 0.04232952 0.025479812
000360 9f 67 ae 3c 5b 06 28 3c 00 53 c5 3c 73 76 21 3d
       0.021289645 0.0102554215 0.024087429 0.039419603
000370 53 15 ce ba 8c 64 13 3d 27 83 cc 3c 70 94 d8 3b
       -0.0015722908 0.03598456 0.024964882 0.006609492
000380 1f 73 94 3b 00 a2 64 3c ca f6 65 3c 0f 0d 09 3d
       0.004530325 0.013954639 0.01403589 0.03345972
000390 d7 0a a9 bc 6d 26 1b 3d 6f 05 0a 3d 05 b6 be 3c
       -0.020635052 0.037878443 0.033696588 0.023280153
0003a0 df 54 51 3d 84 7b 19 3d b3 7e 90 3d 7f 53 b8 bb
       0.05110633 0.03747131 0.07055416 -0.005625188
0003b0 57 31 11 3c db 33 fa 3c 8d c7 b8 3c 9e ec d5 3c
       0.008861861 0.030542305 0.02255609 0.026113804
0003c0 52 b2 fd ba f8 7d 23 3d cd be da 3c a6 c3 83 3c
       -0.0019355512 0.039915055 0.026702309 0.016084503
0003d0 7f 93 61 3d b6 ef 10 bc 15 8b a7 3c 0d 3e 2f bb
       0.055072304 -0.008846214 0.020452062 -0.0026739866
0003e0 1c f2 b5 3c 6a 5a 02 3d 8c d5 50 3d 3b 84 b9 bb
       0.022210173 0.031824507 0.050984904 -0.005661515
0003f0 d6 79 26 3d dd 67 b5 3c e4 3b 5a 3c b2 ca d8 3c
       0.040643536 0.022144252 0.013319943 0.02646384

while/MatMul_1 i1 [256, 64] scale=0.002077813 zero_point=0
000000 f4 02 da 20 27 41 15 1e 2d e5 34 f8 3a fa da f6
       -0.024933755 0.004155626 -0.078956895 0.06649002 0.081034705 0.13505785 0.043634072 0.062334392 0.09350158 -0.056100953 0.10804628 -0.016622504 0.120513156 -0.012466878 -0.078956895 -0.02077813
000010 0f 00 16 ef cb 1d d0 e8 08 ef 0b ed 00 ea 12 ff
       0.031167196 0.0 0.045711886 -0.035322823 -0.11012409 0.060256578 -0.09973502 -0.04986751 0.016622504 -0.035322823 0.022855943 -0.039478447 0.0 -0.045711886 0.037400633 -0.002077813
000020 08 0f f3 ea ed e8 0e d1 d4 22 13 1a 1f e4 1d 13
       0.016622504 0.031167196 -0.02701157 -0.045711886 -0.039478447 -0.04986751 0.029089382 -0.09765721 -0.09142377 0.070645645 0.039478447 0.05402314 0.06441221 -0.058178764 0.060256578 0.039478447
000030 17 fe f1 de 0c 37 db 03 0b 2a 31 ef da 3b 21 f4
       0.0477897 -0.004155626 -0.031167196 -0.070645645 0.024933755 0.11427972 -0.076879084 0.006233439 0.022855943 0.087268144 0.10181284 -0.035322823 -0.078956895 0.12259097 0.06856783 -0.024933755
000040 fb 22 13 eb 1e 14 e6 17 f4 0a 27 eb 19 f9 b5 12
       -0.010389065 0.070645645 0.039478447 -0.043634072 0.062334392 0.04155626 -0.05402314 0.0477897 -0.024933755 0.02077813 0.081034705 -0.043634072 0.051945325 -0.014544691 -0.15583597 0.037400633
000050 19 0c 34 23 e3 2a e2 44 16 eb d4 c8 f8 fa 09 f3
       0.051945325 0.024933755 0.10804628 0.072723456 -0.060256578 0.087268144 -0.062334392 0.14129129 0.045711886 -0.043634072 -0.09142377 -0.11635753 -0.016622504 -0.012466878 0.018700317 -0.02701157
000060 2e 0d f3 f3 d2 fd 0d de f8 02 10 0d 2e 1f 36 ee
       0.0955794 0.02701157 -0.02701157 -0.02701157 -0.0955794 -0.006233439 0.02701157 -0.070645645 -0.016622504 0.004155626 0.03324501 0.02701157 0.0955794 0.06441221 0.11220191 -0.037400633
000070 ef e3 14 fb bf 27 c8 da d6 dd 1b e6 bc e0 0d fa
       -0.035322823 -0.060256578 0.04155626 -0.010389065 -0.13505785 0.081034705 -0.11635753 -0.078956895 -0.087268144 -0.072723456 0.056100953 -0.05402314 -0.14129129 -0.06649002 0.02701157 -0.012466878
000080 11 24 33 e1 1a 01 f9 f9 c5 2d d3 e7 df fe fe 06
       0.035322823 0.074801266 0.10596847 -0.06441221 0.05402314 0.002077813 -0.014544691 -0.014544691 -0.12259097 0.09350158 -0.09350158 -0.051945325 -0.06856783 -0.004155626 -0.004155626 0.012466878
000090 d0 10 16 fe d7 06 05 05 ed e9 28 da 21 f8 f9 de
       -0.09973502 0.03324501 0.045711886 -0.004155626 -0.08519033 0.012466878 0.010389065 0.010389065 -0.039478447 -0.0477897 0.08311252 -0.078956895 0.06856783 -0.016622504 -0.014544691 -0.070645645
0000a0 05 d4 21 fa f6 15 0b b7 e4 02 fa 13 15 1b 0d cf
       0.010389065 -0.09142377 0.06856783 -0.012466878 -0.02077813 0.043634072 0.022855943 -0.15168035 -0.058178764 0.004155626 -0.012466878 0.039478447 0.043634072 0.056100953 0.02701157 -0.10181284
0000b0 52 f9 1c f7 f8 1b ef f4 cc 01 d7 f3 23 43 0f 0b
       0.17038067 -0.014544691 0.058178764 -0.018700317 -0.016622504 0.056100953 -0.035322823 -0.024933755 -0.10804628 0.002077813 -0.08519033 -0.02701157 0.072723456 0.13921347 0.031167196 0.022855943
0000c0 25 d6 0e 19 e8 0a 11 2f da 4f f6 2b ed fe d5 41
       0.076879084 -0.087268144 0.029089382 0.051945325 -0.04986751 0.02077813 0.035322823 0.09765721 -0.078956895 0.16414723 -0.02077813 0.08934596 -0.039478447 -0.004155626 -0.08934596 0.13505785
0000d0 f7 e2 08 24 14 f0 ba 06 03 07 15 1d 06 f7 2f 0f
       -0.018700317 -0.062334392 0.016622504 0.074801266 0.04155626 -0.03324501 -0.14544691 0.012466878 0.006233439 0.014544691 0.043634072 0.060256578 0.012466878 -0.018700317 0.09765721 0.031167196
0000e0 ea aa 08 f1 28 1a fa f4 0a 2c 39 f9 d4 19 0b 25
       -0.045711886 -0.17869192 0.016622504 -0.031167196 0.08311252 0.05402314 -0.012466878 -0.024933755 0.02077813 0.09142377 0.118435346 -0.014544691 -0.09142377 0.051945325 0.022855943 0.076879084
0000f0 15 fd 0b 12 02 19 ef ec 00 2c 17 51 01 09 1c 06
       0.043634072 -0.006233439 0.022855943 0.037400633 0.004155626 0.051945325 -0.035322823 -0.04155626 0.0 0.09142377 0.0477897 0.16830285 0.002077813 0.018700317 0.058178764 0.012466878

while/MatMul i1 [256, 21] scale=0.002606126 zero_point=0
000000 fd e9 45 fa e8 ec cb 17 e3 09 ec bf 1e 08 e9 1f
       -0.0078183785 -0.059940897 0.1798227 -0.015636757 -0.06254703 -0.05212252 -0.13812467 0.059940897 -0.075577654 0.023455134 -0.05212252 -0.16939819 0.07818378 0.020849008 -0.059940897 0.08078991
000010 f5 f0 f8 54 d2 1d be d5 bd f3 29 ea d8 18 dd e5
       -0.028667387 -0.041698016 -0.020849008 0.21891458 -0.119881794 0.075577654 -0.17200431 -0.112063415 -0.17461044 -0.033879638 0.10685117 -0.057334773 -0.10424504 0.06254703 -0.09121441 -0.0703654
000020 ec cf c2 da c3 21 d2 20 d4 1a b7 ef c0 c6 30 02
       -0.05212252 -0.12770018 -0.16157982 -0.09903279 -0.1589737 0.086002156 -0.119881794 0.08339603 -0.11466955 0.067759275 -0.1902472 -0.044304144 -0.16679206 -0.15115531 0.12509406 0.005212252
000030 1f 0e 16 e9 aa f1 f5 d3 26 f7 d7 c3 2e ee e9 da
       0.08078991 0.036485765 0.057334773 -0.059940897 -0.22412683 -0.03909189 -0.028667387 -0.11727567 0.09903279 -0.023455134 -0.10685117 -0.1589737 0.119881794 -0.046910267 -0.059940897 -0.09903279
000040 21 d7 0a 07 f3 0d 00 04 f0 fe e8 b9 0b c2 07 ce
       0.086002156 -0.10685117 0.02606126 0.018242883 -0.033879638 0.033879638 0.0 0.010424504 -0.041698016 -0.005212252 -0.06254703 -0.18503495 0.028667387 -0.16157982 0.018242883 -0.1303063
000050 c9 00 ef 4a b8 c0 af eb fa d9 f8 e1 14 f5 eb 15
       -0.14333694 0.0 -0.044304144 0.19285333 -0.18764107 -0.16679206 -0.21109621 -0.054728646 -0.015636757 -0.10163891 -0.020849008 -0.08078991 0.05212252 -0.028667387 -0.054728646 0.054728646
000060 af 0d 07 06 c7 0f 23 05 fb 07 bf 05 e4 0e fc da
       -0.21109621 0.033879638 0.018242883 0.015636757 -0.14854918 0.03909189 0.09121441 0.01303063 -0.01303063 0.018242883 -0.16939819 0.01303063 -0.07297153 0.036485765 -0.010424504 -0.09903279
000070 f1 e4 ee df 08 b6 ce 0a bf 1a c4 3b ed 45 b8 e7
       -0.03909189 -0.07297153 -0.046910267 -0.086002156 0.020849008 -0.19285333 -0.1303063 0.02606126 -0.16939819 0.067759275 -0.15636756 0.15376143 -0.049516395 0.1798227 -0.18764107 -0.06515315
000080 d6 0c 27 09 ce c4 26 ea e1 1d 05 e7 12 c8 f7 d7
       -0.10945729 0.031273514 0.10163891 0.023455134 -0.1303063 -0.15636756 0.09903279 -0.057334773 -0.08078991 0.075577654 0.01303063 -0.06515315 0.046910267 -0.14594306 -0.023455134 -0.10685117
000090 44 e9 37 f3 aa cd ef 0a d2 d1 0b d4 fb f7 07 ff
       0.17721657 -0.059940897 0.14333694 -0.033879638 -0.22412683 -0.13291243 -0.044304144 0.02606126 -0.119881794 -0.122487925 0.028667387 -0.11466955 -0.01303063 -0.023455134 0.018242883 -0.002606126
0000a0 f5 1e d9 dd de 17 cb 11 db c2 e5 f4 0a 13 d3 1d
       -0.028667387 0.07818378 -0.10163891 -0.09121441 -0.08860829 0.059940897 -0.13812467 0.044304144 -0.096426666 -0.16157982 -0.0703654 -0.031273514 0.02606126 0.049516395 -0.11727567 0.075577654
0000b0 0a fd f5 b5 c9 d1 c8 f2 d1 f6 14 c7 48 3a 37 29
       0.02606126 -0.0078183785 -0.028667387 -0.19545946 -0.14333694 -0.122487925 -0.14594306 -0.036485765 -0.122487925 -0.02606126 0.05212252 -0.14854918 0.18764107 0.15115531 0.14333694 0.10685117
0000c0 48 cd 10 06 ec fe e4 89 ef b0 2a 3d 1b 0f f9 d2
       0.18764107 -0.13291243 0.041698016 0.015636757 -0.05212252 -0.005212252 -0.07297153 -0.310129 -0.044304144 -0.20849007 0.10945729 0.1589737 0.0703654 0.03909189 -0.018242883 -0.119881794
0000d0 25 14 ca 19 e9 0f 18 23 08 da c0 fc db 1c 16 00
       0.096426666 0.05212252 -0.1407308 0.06515315 -0.059940897 0.03909189 0.06254703 0.09121441 0.020849008 -0.09903279 -0.16679206 -0.010424504 -0.096426666 0.07297153 0.057334773 0.0
0000e0 e0 c6 f7 ff f7 03 49 0c 0c d8 e2 13 d6 ed 0f e4
       -0.08339603 -0.15115531 -0.023455134 -0.002606126 -0.023455134 0.0078183785 0.1902472 0.031273514 0.031273514 -0.10424504 -0.07818378 0.049516395 -0.10945729 -0.049516395 0.03909189 -0.07297153
0000f0 04 e9 c9 cc 0b ed ee b6 c5 1f b0 4f e1 bf cb bf
       0.010424504 -0.059940897 -0.14333694 -0.13551855 0.028667387 -0.049516395 -0.046910267 -0.19285333 -0.15376143 0.08078991 -0.20849007 0.20588395 -0.08078991 -0.16939819 -0.13812467 -0.16939819

lstm_1/lstm_cell_1/bias1 f4 [128]
000000 34 11 26 3d 6b 44 1e 3d db d7 52 3d 70 5b 5a 3d
       0.04054375 0.038639467 0.051475387 0.053309858
000010 39 4c f8 3c a3 1a 24 3d e3 2d 2d 3d 2d 8e 3c 3d
       0.030309783 0.040064465 0.04228009 0.046034027
000020 06 e7 c1 3c 54 ae 07 3d 32 02 1a 3d db db 5d 3d
       0.02366973 0.033125237 0.03759975 0.05416475
000030 4c 97 57 3d b5 fe 1c 3d 6d a0 68 3d 13 62 f9 3c
       0.052634522 0.038328845 0.05679362 0.030442273
000040 d5 e4 57 3d ed 86 d4 3c 45 26 37 3d bf 77 35 3d
       0.052708466 0.025943244 0.04471423 0.044303652
000050 4f 95 07 3d 65 37 43 3d 4c 74 3d 3d 28 05 1e 3d
       0.033101376 0.04766025 0.046253487 0.038579136
000060 da b9 10 3d ad 90 3e 3d b1 14 34 3d 7a 1e 51 3d
       0.03533349 0.046524692 0.043965045 0.051054455
000070 33 95 25 3d 46 7f 64 3d b5 f3 2f 3d fa 52 53 3d
       0.04042549 0.05578544 0.042957027 0.051592804
000080 00 00 80 3f 00 00 80 3f 00 00 80 3f 00 00 80 3f
       1.0 1.0 1.0 1.0
000090 00 00 80 3f 00 00 80 3f 00 00 80 3f 00 00 80 3f
       1.0 1.0 1.0 1.0
0000a0 00 00 80 3f 00 00 80 3f 00 00 80 3f 00 00 80 3f
       1.0 1.0 1.0 1.0
0000b0 00 00 80 3f 00 00 80 3f 00 00 80 3f 00 00 80 3f
       1.0 1.0 1.0 1.0
0000c0 00 00 80 3f 00 00 80 3f 00 00 80 3f 00 00 80 3f
       1.0 1.0 1.0 1.0
0000d0 00 00 80 3f 00 00 80 3f 00 00 80 3f 00 00 80 3f
       1.0 1.0 1.0 1.0
0000e0 00 00 80 3f 00 00 80 3f 00 00 80 3f 00 00 80 3f
       1.0 1.0 1.0 1.0
0000f0 00 00 80 3f 00 00 80 3f 00 00 80 3f 00 00 80 3f
       1.0 1.0 1.0 1.0
000100 b0 33 0c 3b 39 e5 34 3d f2 d0 b9 bc d0 5a 80 3c
       0.0021393113 0.044163916 -0.02268264 0.015668303
000110 ed 4a 16 3c b2 18 7c 3c 4a ca c7 3a 16 ae a8 bc
       0.009173137 0.015386747 0.0015242782 -0.020590823
000120 0a 01 55 bd 51 d4 a9 bc 35 ea 85 bc 37 d7 04 bc
       -0.052002944 -0.020731123 -0.01634703 -0.008107952
000130 5a 33 c1 bc 8e 7e a2 3b b9 aa 0f bc 75 92 10 3c
       -0.023584057 0.004958934 -0.008768731 0.008823981
000140 6f d3 43 3c 55 eb 9a 3c 6d 39 51 ba 0f 0d a0 3c
       0.011952265 0.018911043 -0.00079812744 0.019537477
000150 db 01 27 bc 3d 94 da 3b fc 7f 25 3c ce 3a 38 bc
       -0.0101933135 0.0066705034 0.010101315 -0.011244489
000160 da 99 c1 bc e0 8d a1 3c 20 ad b2 bc 4d 43 08 bc
       -0.023632932 0.019720972 -0.021811068 -0.008316827
000170 cb 6a 1c 3c e8 ad 27 bd c2 e4 fa 3c 60 11 08 3b
       0.009546946 -0.040937334 0.030626658 0.002076231
000180 b2 f7 3a 3d 18 c6 32 3d 4a a2 61 3d f5 47 46 3d
       0.045646377 0.04364595 0.05508641 0.048408467
000190 44 bd 1a 3d 4e a0 27 3d 88 ab 56 3d c7 c4 4b 3d
       0.037778154 0.040924363 0.05240968 0.04974821
0001a0 fe bf 77 3d 77 95 22 3d df ae 08 3d 1f 73 69 3d
       0.060485832 0.039693322 0.033369895 0.056994554
0001b0 dc 77 67 3d 96 74 2c 3d 9f 20 7a 3d ca be 0f 3d
       0.05651079 0.042103373 0.061066266 0.03509406
0001c0 90 74 67 3d c1 09 02 3d d7 54 34 3d 93 4d 29 3d
       0.056507647 0.031747583 0.044026222 0.041333746
0001d0 a7 4c 1d 3d dc 36 32 3d 94 89 4e 3d ac a1 2d 3d
       0.03840318 0.04350935 0.050424173 0.04239051
0001e0 52 06 e3 3c b9 76 5e 3d 27 43 28 3d 19 3c 5f 3d
       0.027712975 0.05431244 0.041079666 0.054500673
0001f0 fe 79 49 3d d2 1e 52 3d a1 29 2c 3d 62 3d 64 3d
       0.049188606 0.051298924 0.042031888 0.0557226

while/MatMul_12 i1 [128, 32] scale=0.0024004541 zero_point=0
000000 0c d6 5d 15 e8 08 11 e9 f8 0f 2c e5 25 3d f5 fd
       0.02880545 -0.10081907 0.22324224 0.050409537 -0.0576109 0.019203633 0.04080772 -0.055210445 -0.019203633 0.036006812 0.10561998 -0.06481226 0.08881681 0.1464277 -0.026404995 -0.0072013624
000010 09 fa 15 e3 df ff f4 de 26 0d d7 13 f6 0d fc ef
       0.021604087 -0.014402725 0.050409537 -0.06961317 -0.07921499 -0.0024004541 -0.02880545 -0.08161544 0.09121726 0.031205904 -0.09841862 0.04560863 -0.024004541 0.031205904 -0.009601817 -0.04080772
000020 0c 3d 26 ed ed 0b 11 f8 fb f4 15 16 0d de c5 dd
       0.02880545 0.1464277 0.09121726 -0.04560863 -0.04560863 0.026404995 0.04080772 -0.019203633 -0.012002271 -0.02880545 0.050409537 0.05280999 0.031205904 -0.08161544 -0.14162679 -0.08401589
000030 11 be 29 18 fe dd f8 01 e6 db e0 f1 32 e0 00 f9
       0.04080772 -0.15842998 0.09841862 0.0576109 -0.0048009083 -0.08401589 -0.019203633 0.0024004541 -0.062411807 -0.08881681 -0.07681453 -0.036006812 0.12002271 -0.07681453 0.0 -0.016803179
000040 f9 c9 d0 d8 ce 16 0b fe ff 19 d7 c9 eb 1b 35 41
       -0.016803179 -0.13202497 -0.1152218 -0.096018165 -0.12002271 0.05280999 0.026404995 -0.0048009083 -0.0024004541 0.060011353 -0.09841862 -0.13202497 -0.050409537 0.06481226 0.12722407 0.15602952
000050 12 ef 1a 4f 11 ff ae 1a 3a 20 d0 0f 09 0e d8 2f
       0.043208174 -0.04080772 0.062411807 0.18963587 0.04080772 -0.0024004541 -0.19683725 0.062411807 0.13922635 0.07681453 -0.1152218 0.036006812 0.021604087 0.033606358 -0.096018165 0.11282134
000060 2d 1f f5 43 07 0d 50 ef ff 1d f5 b1 bd 08 e7 e9
       0.10802044 0.074414074 -0.026404995 0.16083042 0.016803179 0.031205904 0.19203633 -0.04080772 -0.0024004541 0.06961317 -0.026404995 -0.18963587 -0.16083042 0.019203633 -0.060011353 -0.055210445
000070 e9 33 13 30 eb 31 d0 e9 0e a4 d4 05 01 20 f8 e8
       -0.055210445 0.12242316 0.04560863 0.1152218 -0.050409537 0.11762226 -0.1152218 -0.055210445 0.033606358 -0.22084178 -0.10561998 0.012002271 0.0024004541 0.07681453 -0.019203633 -0.0576109
000080 dd 36 0d b3 e0 fd 09 f1 e4 bc dc e0 0a ed ed 3a
       -0.08401589 0.12962452 0.031205904 -0.18483497 -0.07681453 -0.0072013624 0.021604087 -0.036006812 -0.067212716 -0.16323088 -0.08641635 -0.07681453 0.024004541 -0.04560863 -0.04560863 0.13922635
000090 14 48 dd 06 17 06 1b bb e4 ed f3 31 f7 a5 10 0f
       0.048009083 0.1728327 -0.08401589 0.014402725 0.055210445 0.014402725 0.06481226 -0.16563134 -0.067212716 -0.04560863 -0.031205904 0.11762226 -0.021604087 -0.21844132 0.038407266 0.036006812
0000a0 4c 15 d5 25 3a df 00 01 d3 08 fd 2d 47 f0 06 d2
       0.18243451 0.050409537 -0.103219524 0.08881681 0.13922635 -0.07921499 0.0 0.0024004541 -0.10802044 0.019203633 -0.0072013624 0.10802044 0.17043224 -0.038407266 0.014402725 -0.11042089
0000b0 df ce f0 0e dd 4f 13 f8 21 0e ff 15 4e 08 3d d7
       -0.07921499 -0.12002271 -0.038407266 0.033606358 -0.08401589 0.18963587 0.04560863 -0.019203633 0.07921499 0.033606358 -0.0024004541 0.050409537 0.18723541 0.019203633 0.1464277 -0.09841862
0000c0 ff 1b 2b 1c 2d 12 e7 eb 0b 10 de 07 ef e5 be fc
       -0.0024004541 0.06481226 0.103219524 0.067212716 0.10802044 0.043208174 -0.060011353 -0.050409537 0.026404995 0.038407266 -0.08161544 0.016803179 -0.04080772 -0.06481226 -0.15842998 -0.009601817
0000d0 f8 f9 e3 1a 16 db ee 0e 17 36 e6 12 0e d9 1a 19
       -0.019203633 -0.016803179 -0.06961317 0.062411807 0.05280999 -0.08881681 -0.043208174 0.033606358 0.055210445 0.12962452 -0.062411807 0.043208174 0.033606358 -0.09361771 0.062411807 0.060011353
0000e0 f6 c0 03 fa ef b7 35 dc 2c d6 4c 13 db a1 eb 14
       -0.024004541 -0.15362906 0.0072013624 -0.014402725 -0.04080772 -0.17523316 0.12722407 -0.08641635 0.10561998 -0.10081907 0.18243451 0.04560863 -0.08881681 -0.22804314 -0.050409537 0.048009083
0000f0 fd 0d 04 46 f8 0c e2 0d 00 f2 30 f9 4b 3b 58 e2
       -0.0072013624 0.031205904 0.009601817 0.16803178 -0.019203633 0.02880545 -0.072013624 0.031205904 0.0 -0.033606358 0.1152218 -0.016803179 0.18003406 0.14162679 0.21123996 -0.072013624
