lstm980_ae_0802.tflite (tflite, 110528 bytes, 18 tensors)

time_distributed_2/bias f4 [21]
0	0xbe9e2728	-0.3088925
1	0xbea1efbc	-0.31628215
2	0xbe933984	-0.28754818
3	0xbe9df5d3	-0.30851611
4	0xbe114877	-0.141878
5	0xbeb96e92	-0.3621717
6	0xbe5dca8a	-0.21659294
7	0xbe831fa3	-0.25610074
8	0xbe8a51b9	-0.27015474
9	0xbebce5d5	-0.36894098
10	0xbe976602	-0.29570013
11	0xbebc2147	-0.3674414
12	0xbeb045c6	-0.34428233
13	0xbebf8d70	-0.37412596
14	0xbec1f204	-0.37879956
15	0xbec94c63	-0.3931609
16	0xbece1e32	-0.40257412
17	0xbea9003a	-0.33007985
18	0x3ea037ee	0.3129267
19	0xbe9833ae	-0.29726928
20	0x3e940805	0.28912368

lstm_9/lstm_cell_10/bias f4 [128]
0	0xbc4bb716	-0.012433788
1	0x3c822074	0.015884615
2	0x3c8e7428	0.017389372
3	0xbcb929c5	-0.022602925
4	0x3cd59d09	0.026075857
5	0x3d032681	0.032019142
6	0x3d31c5c4	0.043401495
7	0x3cc49903	0.023998743
8	0x3d03702f	0.03208941
9	0x3ca968c0	0.020679832
10	0x3a4d1ef4	0.0007824742
11	0x3d39f591	0.045400206
12	0x3d4d5562	0.050130256
13	0x3cb23d6c	0.021757804
14	0x3cd4837d	0.025941605
15	0x3ce27174	0.02764199
16	0x3d2889e5	0.04114713
17	0x3cc763e0	0.024339616
18	0x3c9f7ad6	0.019467752
19	0x39a05da8	0.00030587357
20	0x3cc26732	0.023730848
21	0xbc383a69	-0.011244395
22	0x3cbea164	0.023270316
23	0x3cd6bb1e	0.026212271
24	0x3c94fb49	0.018186228
25	0x3bfa2e8a	0.0076349424
26	0x3cd61f7a	0.026138056
27	0x3abded9e	0.0014490371
28	0x3d35f59f	0.044423696
29	0x3d1514d7	0.036396828
30	0x3d05bac6	0.032648824
31	0xbc0c9504	-0.00858045
32	0x3f800000	1.0
33	0x3f800000	1.0
34	0x3f800000	1.0
35	0x3f800000	1.0
36	0x3f800000	1.0
37	0x3f800000	1.0
38	0x3f800000	1.0
39	0x3f800000	1.0
40	0x3f800000	1.0
41	0x3f800000	1.0
42	0x3f800000	1.0
43	0x3f800000	1.0
44	0x3f800000	1.0
45	0x3f800000	1.0
46	0x3f800000	1.0
47	0x3f800000	1.0
48	0x3f800000	1.0
49	0x3f800000	1.0
50	0x3f800000	1.0
51	0x3f800000	1.0
52	0x3f800000	1.0
53	0x3f800000	1.0
54	0x3f800000	1.0
55	0x3f800000	1.0
56	0x3f800000	1.0
57	0x3f800000	1.0
58	0x3f800000	1.0
59	0x3f800000	1.0
60	0x3f800000	1.0
61	0x3f800000	1.0
62	0x3f800000	1.0
63	0x3f800000	1.0
64	0xbd37e34d	-0.044894505
65	0xbda455f8	-0.0802421
66	0xbc2b725b	-0.010464276
67	0xbd9a979c	-0.075484484
68	0x3d5fa055	0.054596264
69	0xbce4a4df	-0.027910648
70	0x3dab312e	0.0835899
71	0xbb97631c	-0.004619969
72	0x3d8abec0	0.06774664
73	0xbdb691aa	-0.08914502
74	0x3d0b2fc4	0.0339811
75	0xbe051756	-0.12997183
76	0xbe9a852c	-0.30179727
77	0x3ddcf347	0.10788589
78	0xbdf2f951	-0.118639596
79	0x3eb84a6f	0.35994288
80	0xbd9404b9	-0.07227463
81	0x3db895d9	0.09012956
82	0xbd915ca0	-0.07097745
83	0x3e19efac	0.15032834
84	0x3ba4df27	0.0050314846
85	0xbc837bfc	-0.016050331
86	0x3cc6bc31	0.024259659
87	0x3e810a69	0.25203255
88	0x3da7337d	0.081641175
89	0xbc0ae8a0	-0.008478314
90	0xbe0a8eb8	-0.13531005
91	0x3c0208c6	0.007936662
92	0x3dab00a3	0.08349731
93	0x3d85457f	0.06507396
94	0x3cb35d36	0.021895032
95	0x3d159ecc	0.036528394
96	0xbb8ddd15	-0.0043293335
97	0xbc505652	-0.012715893
98	0x3c944c0f	0.018102674
99	0xbcd56e66	-0.026053619
100	0x3d1d190c	0.038353965
101	0x3ca9a2e6	0.020707559
102	0x3cf7f435	0.030267814
103	0x3c20fa8c	0.00982536
104	0x3c642932	0.013925837
105	0x3c4292e8	0.0118758455
106	0xbc5e2936	-0.01355963
107	0x3d154ba0	0.036449075
108	0x3d2d4658	0.042303413
109	0x3ccdbfd6	0.025115889
110	0x3c5dfb3d	0.013548669
111	0x3ca7faca	0.020505328
112	0x3c8b5fbc	0.017013423
113	0xbc2a504b	-0.01039512
114	0x3c9b87e3	0.018985694
115	0xbad0e0fe	-0.0015936194
116	0x3caaade7	0.020834876
117	0xbc7b2887	-0.015329487
118	0x3c1b20ac	0.009468239
119	0x3c8c6c79	0.017141568
120	0x3c689adc	0.014197078
121	0x3c3acf77	0.011402003
122	0x3c5032f5	0.012707462
123	0xbc3cc7d8	-0.011522256
124	0xbbad1817	-0.0052824127
125	0x3c745ed8	0.014915191
126	0x3c261d7e	0.010138867
127	0xbc03161c	-0.008000877

lstm_8/lstm_cell_9/bias f4 [256]
0	0x3d09c1d3	0.03363211
1	0x3d78e7e1	0.060768012
2	0x3d52b1e0	0.051439166
3	0x3d49ad0d	0.0492373
4	0x3d95757c	0.07297799
5	0x3d7cda3f	0.061731573
6	0x3d83d87d	0.06437776
7	0x3cf9e84d	0.030506277
8	0x3d693beb	0.056941908
9	0x3d2304fa	0.039799668
10	0x3cefaace	0.02925625
11	0x3d8c3320	0.06845689
12	0x3d966180	0.073428154
13	0x3da720ca	0.08160551
14	0x3caba0cc	0.020950697
15	0x3d38df30	0.045134723
16	0x3d6a70af	0.05723637
17	0x3d710ad0	0.058848202
18	0x3d92a1d3	0.07159772
19	0x3c874a7c	0.01651501
20	0x3d45ee9f	0.04832327
21	0x3d6fafa3	0.05851711
22	0x3d3aa086	0.045563243
23	0x3d8484da	0.06470652
24	0x3d545b5a	0.051844932
25	0x3da01a09	0.07817466
26	0x3cd6c71b	0.026217988
27	0x3d81805c	0.06323311
28	0x3d898fb9	0.06716866
29	0x3dbe4dde	0.09292196
30	0xbb335f1a	-0.0027369917
31	0x386451ba	5.443555e-05
32	0x3d1f016a	0.038819708
33	0x3d5ec841	0.054390196
34	0x3d097a69	0.033564005
35	0x3d842247	0.064518504
36	0x3d13c3b5	0.036075313
37	0x3c1b5ac5	0.00948209
38	0x3c4889b6	0.012239864
39	0x3d9269b9	0.07149071
40	0xbb99aeee	-0.0046900427
41	0x3dcd289d	0.10017512
42	0x3d8205bf	0.06348752
43	0x3d92bd7d	0.07165048
44	0x3d50b102	0.050950058
45	0x3d83cd18	0.06435603
46	0x3dae5c5b	0.08513709
47	0x3d9000e1	0.07031418
48	0x3d959a81	0.0730486
49	0x3d69635c	0.056979522
50	0x3cd2e2bd	0.025742883
51	0x3d20da7c	0.039270863
52	0x3da1b77a	0.078963235
53	0x3d299569	0.041402254
54	0x3d8610d3	0.06546178
55	0x3d4b552b	0.04964177
56	0x3ce046c6	0.027377497
57	0x3d660877	0.056160416
58	0xbb909d8d	-0.0044133128
59	0x3d8dc453	0.069222115
60	0x3d22c88a	0.03974203
61	0x3d34e194	0.04416044
62	0x3d3b1140	0.045670748
63	0x3d95bcd8	0.0731141
64	0x3f800000	1.0
65	0x3f800000	1.0
66	0x3f800000	1.0
67	0x3f800000	1.0
68	0x3f800000	1.0
69	0x3f800000	1.0
70	0x3f800000	1.0
71	0x3f800000	1.0
72	0x3f800000	1.0
73	0x3f800000	1.0
74	0x3f800000	1.0
75	0x3f800000	1.0
76	0x3f800000	1.0
77	0x3f800000	1.0
78	0x3f800000	1.0
79	0x3f800000	1.0
80	0x3f800000	1.0
81	0x3f800000	1.0
82	0x3f800000	1.0
83	0x3f800000	1.0
84	0x3f800000	1.0
85	0x3f800000	1.0
86	0x3f800000	1.0
87	0x3f800000	1.0
88	0x3f800000	1.0
89	0x3f800000	1.0
90	0x3f800000	1.0
91	0x3f800000	1.0
92	0x3f800000	1.0
93	0x3f800000	1.0
94	0x3f800000	1.0
95	0x3f800000	1.0
96	0x3f800000	1.0
97	0x3f800000	1.0
98	0x3f800000	1.0
99	0x3f800000	1.0
100	0x3f800000	1.0
101	0x3f800000	1.0
102	0x3f800000	1.0
103	0x3f800000	1.0
104	0x3f800000	1.0
105	0x3f800000	1.0
106	0x3f800000	1.0
107	0x3f800000	1.0
108	0x3f800000	1.0
109	0x3f800000	1.0
110	0x3f800000	1.0
111	0x3f800000	1.0
112	0x3f800000	1.0
113	0x3f800000	1.0
114	0x3f800000	1.0
115	0x3f800000	1.0
116	0x3f800000	1.0
117	0x3f800000	1.0
118	0x3f800000	1.0
119	0x3f800000	1.0
120	0x3f800000	1.0
121	0x3f800000	1.0
122	0x3f800000	1.0
123	0x3f800000	1.0
124	0x3f800000	1.0
125	0x3f800000	1.0
126	0x3f800000	1.0
127	0x3f800000	1.0
128	0xbd45c9d8	-0.048288196
129	0x3dd7f99a	0.105456546
130	0xbcd91a28	-0.02650173
131	0xbd8b2fad	-0.06796203
132	0xbdf5ec88	-0.120080054
133	0xbaa656ff	-0.0012690722
134	0x3da4c7ba	0.08045907
135	0x3cede015	0.029037515
136	0xbd60607a	-0.054779507
137	0x3d60ddf1	0.05489916
138	0x3d6e8aa6	0.058237694
139	0x3d9bded9	0.07610864
140	0xbd9dbb1f	-0.07701706
141	0xbd90ccab	-0.07070287
142	0x3c4433e5	0.011975263
143	0xbd5b0f22	-0.05348123
144	0xbdcc33bd	-0.09970806
145	0xbd8cd5f6	-0.06876747
146	0x3d38ad6b	0.04508726
147	0xbd37a8ec	-0.04483883
148	0xbc0820d4	-0.008308608
149	0xbda622db	-0.08112117
150	0xbd30a890	-0.043129504
151	0x3d34da68	0.0441536
152	0x3dab652f	0.083689086
153	0x3a8a2e88	0.0010542432
154	0x3d979ba2	0.074027315
155	0x3d5884ca	0.052861013
156	0x3db775d7	0.08958023
157	0xbdc9759e	-0.09836887
158	0xbd534a81	-0.051584724
159	0x3d551e1a	0.05203066
160	0xbd9dec84	-0.077111274
161	0xbd8f4b78	-0.069968164
162	0xbd3a8083	-0.045532715
163	0x3d84c763	0.064833425
164	0x3d2dc7d1	0.042426888
165	0xbd1cf5dc	-0.038320407
166	0xbd13a119	-0.036042307
167	0xbd724c18	-0.0591546
168	0x3cfea96a	0.031086642
169	0xbd8c1461	-0.068398245
170	0x3e009e97	0.12560497
171	0xbd725e14	-0.05917175
172	0x3b5df194	0.0033865916
173	0xbd94fb38	-0.07274479
174	0x3d64df26	0.055876873
175	0xbd66811c	-0.056275472
176	0x3d5b03ec	0.053470537
177	0xbcf98caf	-0.030462591
178	0x3dfbabe6	0.122886464
179	0x3da285c8	0.07935673
180	0xbdb57a57	-0.08861225
181	0xbe0d9935	-0.13827975
182	0xbd8a0067	-0.06738358
183	0x3dc41307	0.09573942
184	0x3c912e7a	0.017722357
185	0x3d3360d6	0.04379352
186	0xbda7ca43	-0.08192875
187	0x3d934e6a	0.07192691
188	0x3d8efd3d	0.06981895
189	0xbd0b85d7	-0.034063186
190	0xbdf5050d	-0.11963854
191	0xbd95bc20	-0.073112726
192	0x3d16e4bc	0.03683923
193	0x3d77aa67	0.060465243
194	0x3d4d7213	0.050157618
195	0x3d3fbce7	0.04681101
196	0x3d87a0d7	0.06622475
197	0x3d83caed	0.064351894
198	0x3d5a32d4	0.05327113
199	0x3cd13617	0.025538487
200	0x3d51e572	0.051244207
201	0x3d1cdd9c	0.03829728
202	0x3ccb97e0	0.024852693
203	0x3d78d5e1	0.060750846
204	0x3d9f6351	0.07782615
205	0x3da87171	0.08224762
206	0x3cad260a	0.021136303
207	0x3d2584f8	0.040410012
208	0x3d776dff	0.060407635
209	0x3d5beff8	0.05369565
210	0x3d82e623	0.06391551
211	0x3cb2a4cf	0.021807102
212	0x3d423aec	0.047419474
213	0x3d4da074	0.05020185
214	0x3d24e84a	0.04026059
215	0x3d7ee854	0.062233284
216	0x3d5d8fd0	0.05409223
217	0x3da83329	0.08212883
218	0x3c94b7a8	0.01815398
219	0x3d7fb258	0.06242594
220	0x3d763fd1	0.060119454
221	0x3dc1516c	0.09439358
222	0xbb0e654a	-0.0021727853
223	0x3be2b4b8	0.006918516
224	0x3d1f053f	0.038823362
225	0x3d541cc0	0.05178523
226	0x3ca7031a	0.020387221
227	0x3d7e2990	0.062051356
228	0x3d07d0b9	0.033158038
229	0x3b735c56	0.0037133894
230	0x3c52c034	0.012863208
231	0x3d8aef04	0.0678387
232	0xbb143920	-0.0022617057
233	0x3dd1c9d3	0.10243573
234	0x3d80cff4	0.06289664
235	0x3d84c311	0.064825185
236	0x3d3c9d51	0.046048466
237	0x3d7f72bd	0.062365282
238	0x3db60d33	0.08889236
239	0x3d882ce8	0.0664919
240	0x3d933fa2	0.07189871
241	0x3d6b249c	0.05740796
242	0x3cbe595a	0.023235966
243	0x3cfe47b5	0.031040052
244	0x3d9b8169	0.075930424
245	0x3d2ab212	0.041673727
246	0x3d6eb003	0.058273327
247	0x3d315113	0.04329021
248	0x3cc9d200	0.024636269
249	0x3d61c8db	0.05512319
250	0xbbe952de	-0.0071204742
251	0x3d8f6d5d	0.07003281
252	0x3d01d036	0.031692706
253	0x3d203b65	0.039119143
254	0x3d4f42ef	0.050600942
255	0x3d937775	0.07200519

lstm_7/lstm_cell_8/bias f4 [128]
0	0x3d2f0dec	0.042737886
1	0x3d42c00d	0.047546435
2	0x3d359a6c	0.04433672
3	0x3d1ba317	0.03799733
4	0x3d3d453a	0.046208598
5	0x3d35824a	0.044313706
6	0x3d1cb4c1	0.038258318
7	0x3d11a802	0.035560615
8	0x3d4598ed	0.048241545
9	0x3d22f99e	0.039788835
10	0x3cd8627d	0.02641415
11	0x3d19c5f8	0.037542313
12	0x3d58dee0	0.052946925
13	0x3d46c03c	0.048523173
14	0x3d0258e1	0.031823043
15	0x3d306cde	0.043072574
16	0x3d367b61	0.044551257
17	0x3d2652ea	0.040606417
18	0x3d119b8f	0.035548743
19	0x3d0cdc18	0.034389585
20	0x3d4252c4	0.047442213
21	0x3d2a865c	0.04163204
22	0x3d249d61	0.04018915
23	0x3d323ae4	0.043513194
24	0x3d4852e4	0.048907176
25	0x3d47a3a0	0.04874003
26	0x3d2871f6	0.041124307
27	0x3d1ae663	0.03781737
28	0x3d24b245	0.040209074
29	0x3cedf7e2	0.029048864
30	0x3d27831c	0.04089652
31	0x3d42f0ec	0.047593042
32	0x3f800000	1.0
33	0x3f800000	1.0
34	0x3f800000	1.0
35	0x3f800000	1.0
36	0x3f800000	1.0
37	0x3f800000	1.0
38	0x3f800000	1.0
39	0x3f800000	1.0
40	0x3f800000	1.0
41	0x3f800000	1.0
42	0x3f800000	1.0
43	0x3f800000	1.0
44	0x3f800000	1.0
45	0x3f800000	1.0
46	0x3f800000	1.0
47	0x3f800000	1.0
48	0x3f800000	1.0
49	0x3f800000	1.0
50	0x3f800000	1.0
51	0x3f800000	1.0
52	0x3f800000	1.0
53	0x3f800000	1.0
54	0x3f800000	1.0
55	0x3f800000	1.0
56	0x3f800000	1.0
57	0x3f800000	1.0
58	0x3f800000	1.0
59	0x3f800000	1.0
60	0x3f800000	1.0
61	0x3f800000	1.0
62	0x3f800000	1.0
63	0x3f800000	1.0
64	0xbc956480	-0.018236399
65	0xbbc393fd	-0.0059685693
66	0x3b455f06	0.0030116453
67	0xbb896e5d	-0.0041940645
68	0xbc1ca613	-0.00956108
69	0x3b38d4d5	0.002820303
70	0xbc0516d8	-0.008123122
71	0x3c0ef4de	0.008725373
72	0x3b88952b	0.004168173
73	0xbc1e53df	-0.009663551
74	0xbc9cee59	-0.019156622
75	0xbc1da41a	-0.009621644
76	0xbd339f12	-0.043852873
77	0xbb785bbf	-0.0037896482
78	0x3cf0b281	0.029381992
79	0xbc65b1c0	-0.01401943
80	0xbbfcb0fd	-0.0077115283
81	0xbca9cf36	-0.020728689
82	0xbca11a9c	-0.019666009
83	0x3d071119	0.03297529
84	0xbc5fbec6	-0.013656324
85	0xbc8887bc	-0.016666286
86	0x3c024e64	0.00795326
87	0x3b846393	0.0040401905
88	0x39a19da6	0.0003082577
89	0x3b7372de	0.0037147324
90	0xbcb7b3a6	-0.02242453
91	0xbca80ed0	-0.020514876
92	0x3b5c00d5	0.0033569832
93	0x3ccc7e2c	0.024962507
94	0x3c53417a	0.012894029
95	0x3d1a58fc	0.03768252
96	0x3d500ca0	0.05079329
97	0x3d4141db	0.047181945
98	0x3d53415f	0.051576015
99	0x3d09c32b	0.033633392
100	0x3d5d4a62	0.054026015
101	0x3d548679	0.051886056
102	0x3d2e5314	0.0425597
103	0x3d24c6c7	0.04022863
104	0x3d43e48a	0.047825374
105	0x3d1455e2	0.036214717
106	0x3d20257f	0.03909826
107	0x3d2096d3	0.039206337
108	0x3d4680c0	0.04846263
109	0x3d4b920b	0.049699824
110	0x3d17e362	0.037082084
111	0x3d308bd5	0.043102104
112	0x3d21ec11	0.03953177
113	0x3d070181	0.03296042
114	0x3d3f0dcd	0.04664402
115	0x3d5162f8	0.051119775
116	0x3d4b05dc	0.049566135
117	0x3d181e8a	0.0371385
118	0x3d34f9a3	0.044183385
119	0x3d31c1c5	0.043397684
120	0x3d729596	0.059224688
121	0x3d52ddb4	0.051480964
122	0x3d4825b0	0.048864067
123	0x3d3bf83b	0.045891028
124	0x3d2e645c	0.04257618
125	0x3d1e7e67	0.038694765
126	0x3d2c9f1f	0.042143937
127	0x3d3ec0d6	0.04657062

lstm_6/lstm_cell_7/bias f4 [256]
0	0x3d104921	0.03522599
1	0x3d4a98f3	0.04946227
2	0x3ca50b77	0.020147068
3	0x3be319e0	0.006930575
4	0x3c9059de	0.017620977
5	0xbc4547e1	-0.012041063
6	0xbc02ab94	-0.007975478
7	0x3c3adf0a	0.011405716
8	0x3d0bd3e7	0.034137633
9	0x3baac7e8	0.005211819
10	0x3c33190c	0.010931265
11	0x3d298b44	0.04139258
12	0x3cab920d	0.020943666
13	0x3c3edb21	0.011648924
14	0x3d7ef988	0.06224969
15	0x3cc835d6	0.024439733
16	0x3d1d447a	0.038395382
17	0x3cf3a2f8	0.029740795
18	0x3d3b015f	0.045655604
19	0x3b8b9049	0.0042591435
20	0x3c2abca7	0.010420955
21	0x3cc97d2b	0.024595818
22	0xba31ffe8	-0.0006790147
23	0x3c27b10a	0.0102350805
24	0x3c2500da	0.010071004
25	0x3d19e400	0.037570953
26	0x3d4c25c1	0.049840692
27	0xbbd27f49	-0.006423865
28	0x3d10bac9	0.035334382
29	0x3c13e62a	0.009027043
30	0xbcea22e9	-0.0285811
31	0x3cf0cdca	0.029395003
32	0x3c275335	0.010212709
33	0x3c648085	0.013946657
34	0x3c08b99c	0.008345034
35	0xb78d3345	-1.6832384e-05
36	0x3c92be7f	0.017913101
37	0x3c6e3118	0.014538072
38	0x3d1103c8	0.035403997
39	0x3cbc8e40	0.023017049
40	0xbb23e4cd	-0.0025008202
41	0x3d083ad3	0.033259224
42	0x3c65cbbd	0.014025626
43	0x3cbce511	0.023058446
44	0x3c4f75ca	0.01266236
45	0xbc8d81c7	-0.017273797
46	0x3d6cc66d	0.05780642
47	0x3b4d2e6d	0.003130819
48	0x3d00ec95	0.031475622
49	0x3d005e2e	0.031339817
50	0x3c834a79	0.016026722
51	0x3c707d9d	0.014678386
52	0x3cb3f414	0.021966971
53	0x3c8d7b59	0.01727073
54	0x3d8330b0	0.06405771
55	0x3bde6beb	0.006787767
56	0x3d646cb5	0.055767734
57	0x3d1e94a1	0.038715962
58	0x3d0c9407	0.034320857
59	0x3d16fded	0.036863256
60	0x3badd259	0.0053046164
61	0x3d0f5908	0.034997016
62	0x3ce8ea93	0.028432166
63	0xb95c91e5	-0.00021035185
64	0x3f800000	1.0
65	0x3f800000	1.0
66	0x3f800000	1.0
67	0x3f800000	1.0
68	0x3f800000	1.0
69	0x3f800000	1.0
70	0x3f800000	1.0
71	0x3f800000	1.0
72	0x3f800000	1.0
73	0x3f800000	1.0
74	0x3f800000	1.0
75	0x3f800000	1.0
76	0x3f800000	1.0
77	0x3f800000	1.0
78	0x3f800000	1.0
79	0x3f800000	1.0
80	0x3f800000	1.0
81	0x3f800000	1.0
82	0x3f800000	1.0
83	0x3f800000	1.0
84	0x3f800000	1.0
85	0x3f800000	1.0
86	0x3f800000	1.0
87	0x3f800000	1.0
88	0x3f800000	1.0
89	0x3f800000	1.0
90	0x3f800000	1.0
91	0x3f800000	1.0
92	0x3f800000	1.0
93	0x3f800000	1.0
94	0x3f800000	1.0
95	0x3f800000	1.0
96	0x3f800000	1.0
97	0x3f800000	1.0
98	0x3f800000	1.0
99	0x3f800000	1.0
100	0x3f800000	1.0
101	0x3f800000	1.0
102	0x3f800000	1.0
103	0x3f800000	1.0
104	0x3f800000	1.0
105	0x3f800000	1.0
106	0x3f800000	1.0
107	0x3f800000	1.0
108	0x3f800000	1.0
109	0x3f800000	1.0
110	0x3f800000	1.0
111	0x3f800000	1.0
112	0x3f800000	1.0
113	0x3f800000	1.0
114	0x3f800000	1.0
115	0x3f800000	1.0
116	0x3f800000	1.0
117	0x3f800000	1.0
118	0x3f800000	1.0
119	0x3f800000	1.0
120	0x3f800000	1.0
121	0x3f800000	1.0
122	0x3f800000	1.0
123	0x3f800000	1.0
124	0x3f800000	1.0
125	0x3f800000	1.0
126	0x3f800000	1.0
127	0x3f800000	1.0
128	0xbde56685	-0.11201195
129	0x3d88a0f7	0.066713266
130	0xbdd54b09	-0.104147024
131	0xbd87586e	-0.066086635
132	0x3dcac16d	0.09900174
133	0x3d5c8c03	0.053844463
134	0xbd43bb2c	-0.047785923
135	0x3d49a229	0.049226914
136	0xbda8afc6	-0.08236651
137	0xbdbc35a0	-0.09189916
138	0xbe0182dd	-0.12647577
139	0xbda4c9d9	-0.08046312
140	0x3d456578	0.04819247
141	0xbdc8da62	-0.09807278
142	0xbdb28695	-0.08717076
143	0xbd96eda3	-0.07369544
144	0xbd935c41	-0.071953304
145	0x3db8c2d6	0.09021537
146	0xbd9e7166	-0.07736473
147	0xbdca2c7d	-0.09871767
148	0xbd415df0	-0.047208726
149	0xbda4f59e	-0.0805466
150	0x3da0d07d	0.07852266
151	0xbdeb6559	-0.1149394
152	0xbda46b69	-0.08028299
153	0xbe187724	-0.14889199
154	0xbe00a6fe	-0.12563702
155	0xbd3e3052	-0.0464328
156	0xbda94b6f	-0.08266341
157	0x3d8489a3	0.064715646
158	0x3d8d61c2	0.069034114
159	0x3de13433	0.10996284
160	0x3d48d50e	0.04903131
161	0xbd3e35e3	-0.04643811
162	0x3d36062c	0.04443948
163	0xbd598c99	-0.0531126
164	0xbd4bf4ce	-0.04979401
165	0x3d207f0f	0.039183673
166	0x3de4a8d9	0.11165018
167	0x3d12b81a	0.035820104
168	0xbd814c3e	-0.0631337
169	0x3e1fb7fb	0.15597527
170	0x3df5bd25	0.11998967
171	0x3da5b596	0.080912754
172	0xbd32bb34	-0.043635562
173	0x3b0ee491	0.0021803717
174	0xbddbc25a	-0.10730429
175	0xbd9a5e9c	-0.075375766
176	0x3de263c3	0.11054184
177	0x3ddc23cf	0.107490174
178	0x3d998616	0.07496278
179	0xbda3534a	-0.079748705
180	0xbdc8ddfa	-0.09807964
181	0xbd62bf37	-0.055358138
182	0x3da2930c	0.07938203
183	0x3d9692ae	0.07352196
184	0xbde4eeeb	-0.111783825
185	0x3db14d15	0.0865728
186	0x3de975d8	0.1139943
187	0x3dae570c	0.085126966
188	0x3d82bf36	0.06384127
189	0xbdf12792	-0.117751256
190	0xbe06b409	-0.13154615
191	0x3bf00cea	0.007325758
192	0x3d09e46c	0.033665106
193	0x3d72344a	0.059131898
194	0xbc81f09e	-0.015861806
195	0xbbbb834a	-0.005722438
196	0x3d4b42f0	0.049624383
197	0xbb3a0c35	-0.0028388624
198	0x3c314158	0.010818802
199	0x3ceb4406	0.02871896
200	0x3c901f18	0.017592952
201	0xb9c1f0e8	-0.00036991318
202	0x3cea0a67	0.028569413
203	0x3d104d81	0.035230163
204	0x3c024d1a	0.007952953
205	0x3c5796b3	0.013158488
206	0x3d73e826	0.059547566
207	0x3d3207f7	0.043464627
208	0x3d0e5990	0.034753382
209	0x3d32f6ed	0.043692518
210	0x3d35af6c	0.04435675
211	0x3cd687a1	0.02618772
212	0x3cb380eb	0.021912059
213	0x3d108090	0.035278857
214	0x3cbb7554	0.022883095
215	0x3d58e196	0.05294951
216	0x3c3d5484	0.011555795
217	0x3d67793e	0.05651211
218	0x3d514d43	0.051099073
219	0x3c2d8a2d	0.010592026
220	0x3d2cc4d0	0.042179883
221	0x3cdd9c2a	0.027052004
222	0x3c47e570	0.012200698
223	0x3d354093	0.044251036
224	0x3ce6943c	0.028146856
225	0x3c9468d2	0.018116388
226	0x3ca7dc8d	0.020490909
227	0x3c9288f0	0.017887563
228	0x3cc6be54	0.024260677
229	0x3af496e4	0.0018660692
230	0x3d3d1488	0.04616216
231	0x3c2b9483	0.01047242
232	0xbbecd44c	-0.007227456
233	0x3d227383	0.03966094
234	0x3d053752	0.03252346
235	0x3ca51d4f	0.020155577
236	0x3c88d0d3	0.016701138
237	0xbb873f8f	-0.00412745
238	0x3d6682ec	0.0562772
239	0x3bdcd612	0.0067393864
240	0x3cf3f938	0.029781923
241	0x3d334032	0.043762393
242	0x3cc01091	0.0234454
243	0x3d2e39e1	0.042535666
244	0x3ce37241	0.027764441
245	0x3c936212	0.0179911
246	0x3d732c36	0.059368335
247	0x3d259351	0.040423695
248	0x3d530ae5	0.05152406
249	0x3ccadf92	0.02476481
250	0x3d22b7bf	0.039726015
251	0x3c839455	0.016061941
252	0x3ceaf8f3	0.028683161
253	0x3cb3da90	0.021954805
254	0x3d27c9b1	0.040963832
255	0xba97119b	-0.0011525633

model_1/time_distributed_2/dense_2/MatMul f4 [21, 32]
0	0x3ea3cc2a	0.31991702
1	0x3ea9c44d	0.33157578
2	0xbe7e3db0	-0.2482822
3	0xbce02f61	-0.027366342
4	0xbe2b47fc	-0.16726679
5	0xbe221bfc	-0.15830988
6	0xbe2ce6ce	-0.1688492
7	0x3e8ce069	0.2751496
8	0xbe28ab8a	-0.16471687
9	0x3dbe9655	0.09306017
10	0xbeb09970	-0.34492064
11	0x3e27587d	0.1634235
12	0x3e59ce03	0.21269993
13	0xbe77eb8d	-0.24210949
14	0x3e485794	0.19564658
15	0xbc1e143a	-0.009648377
16	0x3e38e57b	0.1805629
17	0xbdf77e1e	-0.12084602
18	0x3e824fda	0.25451547
19	0xbe6b3841	-0.22970678
20	0x3e970b52	0.29500824
21	0x3db53300	0.08847618
22	0x3e87cd4e	0.26523823
23	0xbd037496	-0.032093607
24	0xbe36713d	-0.17816634
25	0x3e86a5b7	0.26298305
26	0x3e8c6ff4	0.27429163
27	0x3e5e0cb8	0.2168454
28	0xbe26d824	-0.16293389
29	0xbe5c860e	-0.21535513
30	0xbe93b9d8	-0.28852725
31	0xbe2c3b9f	-0.16819619
32	0x3e4043fd	0.18775935
33	0x3d6e087f	0.05811357
34	0xbe541d5c	-0.20714325
35	0x3e839617	0.25700447
36	0xbe6ee2ea	-0.23328748
37	0xbe43de35	-0.19127734
38	0xbe92dc4b	-0.28683695
39	0x3e82849e	0.25491804
40	0xbe9c58e5	-0.3053657
41	0x3ea281ff	0.31739804
42	0xbce5e899	-0.028065013
43	0x3e36062d	0.17775793
44	0x3e33507d	0.17511173
45	0xbe6ec075	-0.23315604
46	0x3e7774b9	0.2416562
47	0xbe17ec41	-0.14836217
48	0x3e19606f	0.14978193
49	0xbe2cf1a4	-0.16889054
50	0x3e57e9d5	0.21085294
51	0xbe612818	-0.21987951
52	0x3e569d7c	0.20958513
53	0x3ead3bf0	0.3383479
54	0x3e828250	0.25490046
55	0xbda46f0a	-0.080289915
56	0xbe361339	-0.1778077
57	0x3deebea5	0.11657456
58	0x3ea123a6	0.3147251
59	0x3c9dbaf2	0.019254182
60	0xbdf599bb	-0.119922124
61	0xbe35be10	-0.17748284
62	0xbe4b85f5	-0.1987532
63	0xbe8d23e2	-0.2756644
64	0x3d6ee87f	0.058327194
65	0x3eb24b2a	0.3482297
66	0xbeb97d49	-0.36228397
67	0x3ec803c7	0.39065382
68	0xbe6112b9	-0.21979798
69	0xbe8daa28	-0.2766888
70	0xbea6cbd5	-0.32577386
71	0x3e0a2f66	0.13494644
72	0xbe1d92bb	-0.15388004
73	0x3e81ac35	0.25326696
74	0xbea0a5cd	-0.31376496
75	0x3e2c74bd	0.16841407
76	0x3e1042ab	0.14087932
77	0xbe0c2df3	-0.13689403
78	0x3e622388	0.22083867
79	0xbb825f43	-0.0039786412
80	0x3e65e862	0.22451928
81	0xbe994676	-0.2993657
82	0x3e916e16	0.284043
83	0xbcbc16f3	-0.022960162
84	0x3ea86824	0.32891953
85	0x3d98498a	0.074359015
86	0x3e228ec1	0.15874769
87	0xbc209a5e	-0.009802429
88	0xbdff9453	-0.124794625
89	0x3db5361f	0.088482134
90	0x3e42d12a	0.19025102
91	0x3ea7b1d5	0.32752863
92	0xbe27d4cb	-0.16389768
93	0xbe34a8a8	-0.17642462
94	0xbeaae29b	-0.3337601
95	0xbe3e06d5	-0.18557294
96	0x3e3e460d	0.1858141
97	0x3d33b62b	0.0438749
98	0xbe83a2e6	-0.2571022
99	0x3eba275a	0.36358148
100	0xbdef9e42	-0.11700107
101	0xbe541c8e	-0.20714018
102	0xbe5514f0	-0.20808768
103	0x3e8b878f	0.2725186
104	0xbe1dd237	-0.15412222
105	0x3e916db7	0.28404018
106	0xbe5b3abb	-0.21409123
107	0x3e82c71b	0.2554253
108	0x3e7be860	0.24600363
109	0xbe5d6340	-0.21619892
110	0x3e463d65	0.19359358
111	0xbce07db3	-0.027403688
112	0x3e6e23be	0.23255822
113	0xbd9f4faf	-0.0777887
114	0x3e6cbd24	0.23119026
115	0xbccc8526	-0.024965834
116	0x3e39e248	0.18152726
117	0x3e3a0b03	0.18168263
118	0x3e54febe	0.20800301
119	0xbd8f0818	-0.06983966
120	0xbea5cde2	-0.3238364
121	0x3e8a7ee0	0.27049923
122	0x3e63efb2	0.22259405
123	0x3e9999d7	0.30000183
124	0xbe42e732	-0.19033507
125	0xbe6c4033	-0.23071365
126	0xbe4e0892	-0.20120457
127	0xbe4d6774	-0.20058995
128	0x3e6948fb	0.22781746
129	0x3dc70a95	0.09718815
130	0x3d4df5d1	0.050283257
131	0x3e85265d	0.2600583
132	0xbcdcc033	-0.026947116
133	0xbdb4fdee	-0.08837496
134	0xbe225065	-0.1585098
135	0xbc448a9b	-0.011995937
136	0xbce8f2cb	-0.028436085
137	0xbc4bc91e	-0.012438087
138	0x3dacc4de	0.08435987
139	0x3df89126	0.1213706
140	0x3df20027	0.11816435
141	0xbdba4a48	-0.09096199
142	0xbd79b788	-0.060966045
143	0xbe574bfe	-0.21025082
144	0xbd5cb46a	-0.053882994
145	0xbe5dac33	-0.2164772
146	0x3cd72c75	0.026266316
147	0xbc9c0916	-0.019047301
148	0xbd5f3aca	-0.054499425
149	0x3ce0dc9b	0.027448943
150	0xbc1b37e0	-0.009473771
151	0xbe07f6bd	-0.13277717
152	0xbe5ffd72	-0.21874025
153	0xbd6de424	-0.0580789
154	0x3e720d0a	0.23637787
155	0x3dca161e	0.098675
156	0xbdd74fef	-0.10513293
157	0xbe26ed25	-0.16301401
158	0x3d5cba8b	0.05388884
159	0x3d7b97c9	0.06142405
160	0x3e81138a	0.2521022
161	0x3dc642a6	0.09680681
162	0xbc776886	-0.015100604
163	0xbd861905	-0.06547741
164	0xbe004d65	-0.12529524
165	0xbcdf5f1b	-0.02726703
166	0xbdf92a32	-0.12166251
167	0x3dcc2756	0.0996844
168	0xbcb85e78	-0.022505984
169	0x3da061b1	0.07831133
170	0xbe407009	-0.18792738
171	0x3e617de5	0.22020681
172	0x3e6fc1fe	0.23413846
173	0xbe48fdad	-0.1962802
174	0x3e1dba95	0.15403207
175	0xbe9c7798	-0.30559993
176	0x3e3abd0a	0.18236175
177	0xbe062f3e	-0.13103959
178	0x3dfc888e	0.12330733
179	0xbe92c0f3	-0.28662834
180	0x3deae76b	0.11469921
181	0x3e5e86d8	0.21731126
182	0x3d137594	0.036000803
183	0xbe97b676	-0.29631394
184	0xbd212e39	-0.039350722
185	0x3ce202dd	0.027589256
186	0x3e6986ea	0.22805372
187	0x3d80bfad	0.06286559
188	0xbe287679	-0.16451444
189	0xbd96c0f2	-0.0736102
190	0xbdd8f234	-0.105930716
191	0xbe03624f	-0.1283047
192	0x3dc23005	0.09481815
193	0x3e1d1aab	0.15342204
194	0xbe4e87d8	-0.20169008
195	0x3d42958a	0.047505893
196	0xbd02b012	-0.031906195
197	0xbd9215b9	-0.071330495
198	0xbe6ea1aa	-0.23303857
199	0x3e4b7dc9	0.19872202
200	0xbe709e94	-0.23497993
201	0xbe0b6764	-0.13613659
202	0x3e0066da	0.12539235
203	0x3e71b312	0.23603466
204	0x3bac589e	0.0052595874
205	0xbe1e28be	-0.1544523
206	0x3e11a08e	0.14221403
207	0xbe84573d	-0.25847808
208	0x3d9e3915	0.07725731
209	0xbe7cb404	-0.24678046
210	0x3e3a07e7	0.18167077
211	0xbe89bab8	-0.26900268
212	0x3dcd655f	0.100291006
213	0xbd9bd964	-0.07609823
214	0xbd015852	-0.03157837
215	0xbd8892cc	-0.06668624
216	0xbe7b80a2	-0.24560788
217	0x3d14f491	0.03636605
218	0x3d90f674	0.07078257
219	0xbe1c9f3e	-0.15295121
220	0xbe06d2de	-0.13166377
221	0x3c7e52e8	0.015522696
222	0xbe707fcb	-0.23486249
223	0xbe8e5024	-0.27795517
224	0x3d8ca891	0.06868089
225	0x3d240534	0.040044025
226	0xba02d40c	-0.0004990704
227	0x3dc373e4	0.09543589
228	0xbcde862d	-0.02716359
229	0x396f2173	0.00022805277
230	0xbdc9e17e	-0.09857462
231	0x3ce374f3	0.027765727
232	0xbc910ca9	-0.017706232
233	0x3dced5dc	0.10099384
234	0xbe2c5c1e	-0.16832015
235	0x3e1a6975	0.15079291
236	0x3de76d72	0.11300172
237	0xbe0a3745	-0.13497646
238	0x3d8c6e05	0.06856922
239	0xbe87d567	-0.2653
240	0x3d08c1ef	0.033388074
241	0xbe121da9	-0.14269127
242	0x3da13544	0.07871488
243	0xbdaeab5d	-0.08528779
244	0x3d54909c	0.051895723
245	0x3cf0111f	0.029305039
246	0x3d124398	0.035708994
247	0xbe78a5a9	-0.24281944
248	0xbdc60328	-0.09668571
249	0x3da1933c	0.07889411
250	0x3e41863c	0.18898863
251	0xbd695626	-0.056966923
252	0xbdb2a98b	-0.08723744
253	0xbd607a8f	-0.05480438
254	0xbdd3b22f	-0.1033672
255	0xbe4a246c	-0.19740456

lstm_6/lstm_cell_7/bias1 f4 [256]
0	0x3d104921	0.03522599
1	0x3d4a98f3	0.04946227
2	0x3ca50b77	0.020147068
3	0x3be319e0	0.006930575
4	0x3c9059de	0.017620977
5	0xbc4547e1	-0.012041063
6	0xbc02ab94	-0.007975478
7	0x3c3adf0a	0.011405716
8	0x3d0bd3e7	0.034137633
9	0x3baac7e8	0.005211819
10	0x3c33190c	0.010931265
11	0x3d298b44	0.04139258
12	0x3cab920d	0.020943666
13	0x3c3edb21	0.011648924
14	0x3d7ef988	0.06224969
15	0x3cc835d6	0.024439733
16	0x3d1d447a	0.038395382
17	0x3cf3a2f8	0.029740795
18	0x3d3b015f	0.045655604
19	0x3b8b9049	0.0042591435
20	0x3c2abca7	0.010420955
21	0x3cc97d2b	0.024595818
22	0xba31ffe8	-0.0006790147
23	0x3c27b10a	0.0102350805
24	0x3c2500da	0.010071004
25	0x3d19e400	0.037570953
26	0x3d4c25c1	0.049840692
27	0xbbd27f49	-0.006423865
28	0x3d10bac9	0.035334382
29	0x3c13e62a	0.009027043
30	0xbcea22e9	-0.0285811
31	0x3cf0cdca	0.029395003
32	0x3c275335	0.010212709
33	0x3c648085	0.013946657
34	0x3c08b99c	0.008345034
35	0xb78d3345	-1.6832384e-05
36	0x3c92be7f	0.017913101
37	0x3c6e3118	0.014538072
38	0x3d1103c8	0.035403997
39	0x3cbc8e40	0.023017049
40	0xbb23e4cd	-0.0025008202
41	0x3d083ad3	0.033259224
42	0x3c65cbbd	0.014025626
43	0x3cbce511	0.023058446
44	0x3c4f75ca	0.01266236
45	0xbc8d81c7	-0.017273797
46	0x3d6cc66d	0.05780642
47	0x3b4d2e6d	0.003130819
48	0x3d00ec95	0.031475622
49	0x3d005e2e	0.031339817
50	0x3c834a79	0.016026722
51	0x3c707d9d	0.014678386
52	0x3cb3f414	0.021966971
53	0x3c8d7b59	0.01727073
54	0x3d8330b0	0.06405771
55	0x3bde6beb	0.006787767
56	0x3d646cb5	0.055767734
57	0x3d1e94a1	0.038715962
58	0x3d0c9407	0.034320857
59	0x3d16fded	0.036863256
60	0x3badd259	0.0053046164
61	0x3d0f5908	0.034997016
62	0x3ce8ea93	0.028432166
63	0xb95c91e5	-0.00021035185
64	0x3f800000	1.0
65	0x3f800000	1.0
66	0x3f800000	1.0
67	0x3f800000	1.0
68	0x3f800000	1.0
69	0x3f800000	1.0
70	0x3f800000	1.0
71	0x3f800000	1.0
72	0x3f800000	1.0
73	0x3f800000	1.0
74	0x3f800000	1.0
75	0x3f800000	1.0
76	0x3f800000	1.0
77	0x3f800000	1.0
78	0x3f800000	1.0
79	0x3f800000	1.0
80	0x3f800000	1.0
81	0x3f800000	1.0
82	0x3f800000	1.0
83	0x3f800000	1.0
84	0x3f800000	1.0
85	0x3f800000	1.0
86	0x3f800000	1.0
87	0x3f800000	1.0
88	0x3f800000	1.0
89	0x3f800000	1.0
90	0x3f800000	1.0
91	0x3f800000	1.0
92	0x3f800000	1.0
93	0x3f800000	1.0
94	0x3f800000	1.0
95	0x3f800000	1.0
96	0x3f800000	1.0
97	0x3f800000	1.0
98	0x3f800000	1.0
99	0x3f800000	1.0
100	0x3f800000	1.0
101	0x3f800000	1.0
102	0x3f800000	1.0
103	0x3f800000	1.0
104	0x3f800000	1.0
105	0x3f800000	1.0
106	0x3f800000	1.0
107	0x3f800000	1.0
108	0x3f800000	1.0
109	0x3f800000	1.0
110	0x3f800000	1.0
111	0x3f800000	1.0
112	0x3f800000	1.0
113	0x3f800000	1.0
114	0x3f800000	1.0
115	0x3f800000	1.0
116	0x3f800000	1.0
117	0x3f800000	1.0
118	0x3f800000	1.0
119	0x3f800000	1.0
120	0x3f800000	1.0
121	0x3f800000	1.0
122	0x3f800000	1.0
123	0x3f800000	1.0
124	0x3f800000	1.0
125	0x3f800000	1.0
126	0x3f800000	1.0
127	0x3f800000	1.0
128	0xbde56685	-0.11201195
129	0x3d88a0f7	0.066713266
130	0xbdd54b09	-0.104147024
131	0xbd87586e	-0.066086635
132	0x3dcac16d	0.09900174
133	0x3d5c8c03	0.053844463
134	0xbd43bb2c	-0.047785923
135	0x3d49a229	0.049226914
136	0xbda8afc6	-0.08236651
137	0xbdbc35a0	-0.09189916
138	0xbe0182dd	-0.12647577
139	0xbda4c9d9	-0.08046312
140	0x3d456578	0.04819247
141	0xbdc8da62	-0.09807278
142	0xbdb28695	-0.08717076
143	0xbd96eda3	-0.07369544
144	0xbd935c41	-0.071953304
145	0x3db8c2d6	0.09021537
146	0xbd9e7166	-0.07736473
147	0xbdca2c7d	-0.09871767
148	0xbd415df0	-0.047208726
149	0xbda4f59e	-0.0805466
150	0x3da0d07d	0.07852266
151	0xbdeb6559	-0.1149394
152	0xbda46b69	-0.08028299
153	0xbe187724	-0.14889199
154	0xbe00a6fe	-0.12563702
155	0xbd3e3052	-0.0464328
156	0xbda94b6f	-0.08266341
157	0x3d8489a3	0.064715646
158	0x3d8d61c2	0.069034114
159	0x3de13433	0.10996284
160	0x3d48d50e	0.04903131
161	0xbd3e35e3	-0.04643811
162	0x3d36062c	0.04443948
163	0xbd598c99	-0.0531126
164	0xbd4bf4ce	-0.04979401
165	0x3d207f0f	0.039183673
166	0x3de4a8d9	0.11165018
167	0x3d12b81a	0.035820104
168	0xbd814c3e	-0.0631337
169	0x3e1fb7fb	0.15597527
170	0x3df5bd25	0.11998967
171	0x3da5b596	0.080912754
172	0xbd32bb34	-0.043635562
173	0x3b0ee491	0.0021803717
174	0xbddbc25a	-0.10730429
175	0xbd9a5e9c	-0.075375766
176	0x3de263c3	0.11054184
177	0x3ddc23cf	0.107490174
178	0x3d998616	0.07496278
179	0xbda3534a	-0.079748705
180	0xbdc8ddfa	-0.09807964
181	0xbd62bf37	-0.055358138
182	0x3da2930c	0.07938203
183	0x3d9692ae	0.07352196
184	0xbde4eeeb	-0.111783825
185	0x3db14d15	0.0865728
186	0x3de975d8	0.1139943
187	0x3dae570c	0.085126966
188	0x3d82bf36	0.06384127
189	0xbdf12792	-0.117751256
190	0xbe06b409	-0.13154615
191	0x3bf00cea	0.007325758
192	0x3d09e46c	0.033665106
193	0x3d72344a	0.059131898
194	0xbc81f09e	-0.015861806
195	0xbbbb834a	-0.005722438
196	0x3d4b42f0	0.049624383
197	0xbb3a0c35	-0.0028388624
198	0x3c314158	0.010818802
199	0x3ceb4406	0.02871896
200	0x3c901f18	0.017592952
201	0xb9c1f0e8	-0.00036991318
202	0x3cea0a67	0.028569413
203	0x3d104d81	0.035230163
204	0x3c024d1a	0.007952953
205	0x3c5796b3	0.013158488
206	0x3d73e826	0.059547566
207	0x3d3207f7	0.043464627
208	0x3d0e5990	0.034753382
209	0x3d32f6ed	0.043692518
210	0x3d35af6c	0.04435675
211	0x3cd687a1	0.02618772
212	0x3cb380eb	0.021912059
213	0x3d108090	0.035278857
214	0x3cbb7554	0.022883095
215	0x3d58e196	0.05294951
216	0x3c3d5484	0.011555795
217	0x3d67793e	0.05651211
218	0x3d514d43	0.051099073
219	0x3c2d8a2d	0.010592026
220	0x3d2cc4d0	0.042179883
221	0x3cdd9c2a	0.027052004
222	0x3c47e570	0.012200698
223	0x3d354093	0.044251036
224	0x3ce6943c	0.028146856
225	0x3c9468d2	0.018116388
226	0x3ca7dc8d	0.020490909
227	0x3c9288f0	0.017887563
228	0x3cc6be54	0.024260677
229	0x3af496e4	0.0018660692
230	0x3d3d1488	0.04616216
231	0x3c2b9483	0.01047242
232	0xbbecd44c	-0.007227456
233	0x3d227383	0.03966094
234	0x3d053752	0.03252346
235	0x3ca51d4f	0.020155577
236	0x3c88d0d3	0.016701138
237	0xbb873f8f	-0.00412745
238	0x3d6682ec	0.0562772
239	0x3bdcd612	0.0067393864
240	0x3cf3f938	0.029781923
241	0x3d334032	0.043762393
242	0x3cc01091	0.0234454
243	0x3d2e39e1	0.042535666
244	0x3ce37241	0.027764441
245	0x3c936212	0.0179911
246	0x3d732c36	0.059368335
247	0x3d259351	0.040423695
248	0x3d530ae5	0.05152406
249	0x3ccadf92	0.02476481
250	0x3d22b7bf	0.039726015
251	0x3c839455	0.016061941
252	0x3ceaf8f3	0.028683161
253	0x3cb3da90	0.021954805
254	0x3d27c9b1	0.040963832
255	0xba97119b	-0.0011525633

while/MatMul_1 i1 [256, 64] scale=0.001915709 zero_point=0
0	0x41	0.124521084
1	0x0d	0.024904218
2	0x0a	0.01915709
3	0x1e	0.05747127
4	0x21	0.0632184
5	0xe8	-0.045977015
6	0x07	0.013409963
7	0xf2	-0.026819926
8	0x1a	0.049808435
9	0xf4	-0.022988508
10	0xc9	-0.105363995
11	0x05	0.009578545
12	0x17	0.044061307
13	0x19	0.047892723
14	0xfe	-0.003831418
15	0xd3	-0.086206906
16	0x20	0.061302688
17	0x27	0.07471265
18	0x14	0.03831418
19	0xe6	-0.049808435
20	0xf8	-0.015325672
21	0xde	-0.06513411
22	0x05	0.009578545
23	0xcc	-0.09961687
24	0xf8	-0.015325672
25	0xfa	-0.011494254
26	0x02	0.003831418
27	0x04	0.007662836
28	0xf2	-0.026819926
29	0xff	-0.001915709
30	0x02	0.003831418
31	0x04	0.007662836
32	0xc0	-0.122605376
33	0x31	0.09386974
34	0x0e	0.026819926
35	0xd7	-0.078544065
36	0xe6	-0.049808435
37	0xf1	-0.028735636
38	0xe5	-0.051724143
39	0xe2	-0.05747127
40	0xd0	-0.09195403
41	0xb9	-0.13601534
42	0xff	-0.001915709
43	0x14	0.03831418
44	0x19	0.047892723
45	0xd8	-0.07662836
46	0xc4	-0.11494254
47	0x17	0.044061307
48	0xf7	-0.017241381
49	0x01	0.001915709
50	0xf9	-0.013409963
51	0xec	-0.03831418
52	0x21	0.0632184
53	0xc2	-0.11877396
54	0x10	0.030651344
55	0x14	0.03831418
56	0xea	-0.0421456
57	0x01	0.001915709
58	0x05	0.009578545
59	0xec	-0.03831418
60	0x19	0.047892723
61	0x13	0.03639847
62	0xf9	-0.013409963
63	0x3c	0.11494254
64	0x0b	0.0210728
65	0xc9	-0.105363995
66	0xef	-0.032567054
67	0x13	0.03639847
68	0x1b	0.051724143
69	0x2a	0.08045978
70	0xf5	-0.0210728
71	0xec	-0.03831418
72	0x0a	0.01915709
73	0xf2	-0.026819926
74	0xe7	-0.047892723
75	0xe1	-0.05938698
76	0xeb	-0.04022989
77	0xf6	-0.01915709
78	0x17	0.044061307
79	0xdb	-0.07088123
80	0xdc	-0.068965524
81	0x05	0.009578545
82	0x03	0.005747127
83	0xec	-0.03831418
84	0x43	0.12835251
85	0x08	0.015325672
86	0x04	0.007662836
87	0xdd	-0.067049816
88	0x0c	0.022988508
89	0x19	0.047892723
90	0x01	0.001915709
91	0xf1	-0.028735636
92	0xde	-0.06513411
93	0xea	-0.0421456
94	0xb6	-0.14176247
95	0x0a	0.01915709
96	0x19	0.047892723
97	0x16	0.0421456
98	0xf9	-0.013409963
99	0x01	0.001915709
100	0x25	0.07088123
101	0x30	0.09195403
102	0x13	0.03639847
103	0xe2	-0.05747127
104	0x03	0.005747127
105	0x2e	0.088122614
106	0x04	0.007662836
107	0xeb	-0.04022989
108	0x59	0.1704981
109	0x14	0.03831418
110	0xe0	-0.061302688
111	0xca	-0.10344829
112	0xe5	-0.051724143
113	0x00	0.0
114	0x00	0.0
115	0x08	0.015325672
116	0xc6	-0.11111112
117	0xeb	-0.04022989
118	0xea	-0.0421456
119	0x12	0.034482762
120	0xde	-0.06513411
121	0xd7	-0.078544065
122	0x1b	0.051724143
123	0xe6	-0.049808435
124	0xff	-0.001915709
125	0x38	0.1072797
126	0xce	-0.09578545
127	0x04	0.007662836
128	0x1b	0.051724143
129	0xe8	-0.045977015
130	0xec	-0.03831418
131	0x08	0.015325672
132	0xc7	-0.10919541
133	0x07	0.013409963
134	0xd5	-0.08237549
135	0x10	0.030651344
136	0xd5	-0.08237549
137	0xef	-0.032567054
138	0x22	0.06513411
139	0x0c	0.022988508
140	0xf1	-0.028735636
141	0xff	-0.001915709
142	0xe8	-0.045977015
143	0xb8	-0.13793105
144	0xf4	-0.022988508
145	0xc7	-0.10919541
146	0x13	0.03639847
147	0xd7	-0.078544065
148	0x16	0.0421456
149	0xf5	-0.0210728
150	0xf4	-0.022988508
151	0x29	0.078544065
152	0x21	0.0632184
153	0xea	-0.0421456
154	0xc0	-0.122605376
155	0xff	-0.001915709
156	0xff	-0.001915709
157	0x22	0.06513411
158	0x16	0.0421456
159	0xd9	-0.07471265
160	0xf6	-0.01915709
161	0xff	-0.001915709
162	0x07	0.013409963
163	0x17	0.044061307
164	0xe4	-0.05363985
165	0xe7	-0.047892723
166	0xd0	-0.09195403
167	0x1e	0.05747127
168	0x4d	0.14750959
169	0x1b	0.051724143
170	0x12	0.034482762
171	0x10	0.030651344
172	0x0b	0.0210728
173	0x22	0.06513411
174	0xd8	-0.07662836
175	0x13	0.03639847
176	0xf9	-0.013409963
177	0x23	0.067049816
178	0xe7	-0.047892723
179	0xf5	-0.0210728
180	0xea	-0.0421456
181	0x29	0.078544065
182	0x02	0.003831418
183	0x12	0.034482762
184	0x0b	0.0210728
185	0xe4	-0.05363985
186	0x2d	0.086206906
187	0xe6	-0.049808435
188	0x27	0.07471265
189	0xf8	-0.015325672
190	0xde	-0.06513411
191	0xec	-0.03831418
192	0x47	0.13601534
193	0x0c	0.022988508
194	0xcd	-0.09770116
195	0x07	0.013409963
196	0x27	0.07471265
197	0xec	-0.03831418
198	0x03	0.005747127
199	0xe8	-0.045977015
200	0x11	0.032567054
201	0xcb	-0.10153258
202	0xf7	-0.017241381
203	0xd7	-0.078544065
204	0xee	-0.034482762
205	0xf8	-0.015325672
206	0xe1	-0.05938698
207	0xe8	-0.045977015
208	0xde	-0.06513411
209	0x0e	0.026819926
210	0x15	0.04022989
211	0xc5	-0.11302683
212	0xcb	-0.10153258
213	0xfa	-0.011494254
214	0x06	0.011494254
215	0x0c	0.022988508
216	0xdf	-0.0632184
217	0x29	0.078544065
218	0x24	0.068965524
219	0xfc	-0.007662836
220	0x20	0.061302688
221	0x02	0.003831418
222	0xe8	-0.045977015
223	0x33	0.09770116
224	0xfd	-0.005747127
225	0xfc	-0.007662836
226	0xe0	-0.061302688
227	0x46	0.13409963
228	0xca	-0.10344829
229	0x1e	0.05747127
230	0x0d	0.024904218
231	0x22	0.06513411
232	0xf0	-0.030651344
233	0x02	0.003831418
234	0xfd	-0.005747127
235	0xbf	-0.124521084
236	0xf0	-0.030651344
237	0x0b	0.0210728
238	0xfb	-0.009578545
239	0xb7	-0.13984676
240	0xf5	-0.0210728
241	0xff	-0.001915709
242	0xf3	-0.024904218
243	0xfb	-0.009578545
244	0xb9	-0.13601534
245	0xf7	-0.017241381
246	0x15	0.04022989
247	0x38	0.1072797
248	0xf4	-0.022988508
249	0x22	0.06513411
250	0x07	0.013409963
251	0x15	0.04022989
252	0x1b	0.051724143
253	0x1b	0.051724143
254	0x10	0.030651344
255	0xf2	-0.026819926

while/MatMul i1 [256, 21] scale=0.0026727577 zero_point=0
0	0xb6	-0.19778407
1	0xde	-0.09087376
2	0x13	0.050782397
3	0xda	-0.101564795
4	0xe4	-0.074837215
5	0xdc	-0.09621928
6	0xd4	-0.11760134
7	0xd5	-0.11492858
8	0xc6	-0.15501995
9	0x18	0.06414618
10	0xbb	-0.18442029
11	0x12	0.04810964
12	0x0b	0.029400336
13	0xee	-0.04810964
14	0xfa	-0.016036546
15	0xe9	-0.06147343
16	0x00	0.0
17	0xd4	-0.11760134
18	0x3a	0.15501995
19	0x0f	0.040091366
20	0x26	0.101564795
21	0xd3	-0.1202741
22	0xbb	-0.18442029
23	0xe2	-0.08018273
24	0xfb	-0.013363789
25	0xdb	-0.09889203
26	0xe8	-0.06414618
27	0xba	-0.18709303
28	0x29	0.109583065
29	0xec	-0.053455155
30	0xb4	-0.20312959
31	0xfb	-0.013363789
32	0xc9	-0.14700167
33	0xe2	-0.08018273
34	0xc7	-0.15234719
35	0x01	0.0026727577
36	0xd3	-0.1202741
37	0x03	0.008018273
38	0xf0	-0.042764124
39	0x4b	0.20045683
40	0xb7	-0.19511132
41	0xf8	-0.021382062
42	0xae	-0.21916613
43	0xca	-0.14432892
44	0xed	-0.050782397
45	0xc8	-0.14967443
46	0xcc	-0.1389834
47	0x2e	0.12294686
48	0x10	0.042764124
49	0xcb	-0.14165616
50	0xea	-0.05880067
51	0xf8	-0.021382062
52	0xfb	-0.013363789
53	0xfe	-0.0053455154
54	0xbe	-0.176402
55	0x00	0.0
56	0xdc	-0.09621928
57	0x22	0.09087376
58	0xf7	-0.02405482
59	0x12	0.04810964
60	0xfc	-0.010691031
61	0xea	-0.05880067
62	0x21	0.088201
63	0xea	-0.05880067
64	0xe9	-0.06147343
65	0x18	0.06414618
66	0xc3	-0.16303822
67	0xda	-0.101564795
68	0xe9	-0.06147343
69	0x2a	0.11225583
70	0xe0	-0.08552825
71	0x09	0.02405482
72	0xde	-0.09087376
73	0x02	0.0053455154
74	0xc5	-0.1576927
75	0xf8	-0.021382062
76	0xe5	-0.07216446
77	0x00	0.0
78	0x19	0.066818945
79	0xe7	-0.066818945
80	0xe8	-0.06414618
81	0x37	0.14700167
82	0xbc	-0.18174753
83	0xf4	-0.03207309
84	0xd5	-0.11492858
85	0xda	-0.101564795
86	0xde	-0.09087376
87	0xe6	-0.0694917
88	0xfc	-0.010691031
89	0xe7	-0.066818945
90	0xbb	-0.18442029
91	0xe5	-0.07216446
92	0xdf	-0.088201
93	0xb8	-0.19243856
94	0xb7	-0.19511132
95	0xf7	-0.02405482
96	0xb6	-0.19778407
97	0xff	-0.0026727577
98	0xf2	-0.037418608
99	0x03	0.008018273
100	0xc9	-0.14700167
101	0xce	-0.13363789
102	0xf2	-0.037418608
103	0xd8	-0.10691031
104	0x3b	0.1576927
105	0x02	0.0053455154
106	0x16	0.05880067
107	0xeb	-0.056127913
108	0xe2	-0.08018273
109	0x04	0.010691031
110	0x19	0.066818945
111	0x28	0.10691031
112	0x28	0.10691031
113	0xc4	-0.16036546
114	0xf4	-0.03207309
115	0xc1	-0.16838373
116	0xd5	-0.11492858
117	0x05	0.013363789
118	0xda	-0.101564795
119	0xea	-0.05880067
120	0x15	0.056127913
121	0xf5	-0.029400336
122	0xe8	-0.06414618
123	0xe7	-0.066818945
124	0xc5	-0.1576927
125	0x0a	0.026727578
126	0xc2	-0.16571099
127	0xc0	-0.1710565
128	0xee	-0.04810964
129	0x0d	0.03474585
130	0xd1	-0.12561962
131	0x35	0.14165616
132	0xf6	-0.026727578
133	0x0d	0.03474585
134	0x36	0.14432892
135	0x07	0.018709304
136	0xc3	-0.16303822
137	0xc3	-0.16303822
138	0x20	0.08552825
139	0xce	-0.13363789
140	0x06	0.016036546
141	0x01	0.0026727577
142	0xc4	-0.16036546
143	0x26	0.101564795
144	0xfc	-0.010691031
145	0xcc	-0.1389834
146	0x25	0.09889203
147	0x07	0.018709304
148	0xd4	-0.11760134
149	0xc8	-0.14967443
150	0xf8	-0.021382062
151	0xe3	-0.07750998
152	0xd9	-0.10423755
153	0xf6	-0.026727578
154	0xe8	-0.06414618
155	0xf9	-0.018709304
156	0xf1	-0.040091366
157	0xed	-0.050782397
158	0x11	0.04543688
159	0xf7	-0.02405482
160	0x22	0.09087376
161	0xd5	-0.11492858
162	0xd4	-0.11760134
163	0x14	0.053455155
164	0xcd	-0.13631064
165	0xf4	-0.03207309
166	0xb4	-0.20312959
167	0x37	0.14700167
168	0x0d	0.03474585
169	0x0e	0.037418608
170	0x13	0.050782397
171	0xdd	-0.09354652
172	0xe6	-0.0694917
173	0xfb	-0.013363789
174	0x1e	0.08018273
175	0x19	0.066818945
176	0xc7	-0.15234719
177	0x09	0.02405482
178	0xe2	-0.08018273
179	0x0a	0.026727578
180	0x19	0.066818945
181	0x08	0.021382062
182	0xfb	-0.013363789
183	0x05	0.013363789
184	0x1f	0.08285549
185	0x04	0.010691031
186	0xf6	-0.026727578
187	0xde	-0.09087376
188	0x42	0.176402
189	0xe9	-0.06147343
190	0xc4	-0.16036546
191	0xe1	-0.08285549
192	0x13	0.050782397
193	0x10	0.042764124
194	0xdb	-0.09889203
195	0x18	0.06414618
196	0xd5	-0.11492858
197	0x1d	0.07750998
198	0x0c	0.03207309
199	0x0b	0.029400336
200	0xe6	-0.0694917
201	0x10	0.042764124
202	0x06	0.016036546
203	0x00	0.0
204	0x1a	0.0694917
205	0xc9	-0.14700167
206	0x23	0.09354652
207	0x30	0.12829237
208	0xdd	-0.09354652
209	0x3b	0.1576927
210	0xec	-0.053455155
211	0xdb	-0.09889203
212	0xd0	-0.12829237
213	0xc3	-0.16303822
214	0xfc	-0.010691031
215	0xd1	-0.12561962
216	0x06	0.016036546
217	0x17	0.06147343
218	0xda	-0.101564795
219	0xbb	-0.18442029
220	0xa3	-0.24856646
221	0xcf	-0.13096513
222	0x17	0.06147343
223	0xf0	-0.042764124
224	0xd1	-0.12561962
225	0x1a	0.0694917
226	0x26	0.101564795
227	0xcf	-0.13096513
228	0x29	0.109583065
229	0x02	0.0053455154
230	0x06	0.016036546
231	0xcf	-0.13096513
232	0xde	-0.09087376
233	0x01	0.0026727577
234	0xf0	-0.042764124
235	0xc2	-0.16571099
236	0xcc	-0.1389834
237	0xe6	-0.0694917
238	0xd1	-0.12561962
239	0x16	0.05880067
240	0xee	-0.04810964
241	0xc4	-0.16036546
242	0x03	0.008018273
243	0xf6	-0.026727578
244	0xc9	-0.14700167
245	0xf8	-0.021382062
246	0x08	0.021382062
247	0xd5	-0.11492858
248	0xe3	-0.07750998
249	0xed	-0.050782397
250	0xec	-0.053455155
251	0x19	0.066818945
252	0xb5	-0.20045683
253	0xe9	-0.06147343
254	0xb1	-0.21114786
255	0xfe	-0.0053455154

lstm_7/lstm_cell_8/bias1 f4 [128]
0	0x3d2f0dec	0.042737886
1	0x3d42c00d	0.047546435
2	0x3d359a6c	0.04433672
3	0x3d1ba317	0.03799733
4	0x3d3d453a	0.046208598
5	0x3d35824a	0.044313706
6	0x3d1cb4c1	0.038258318
7	0x3d11a802	0.035560615
8	0x3d4598ed	0.048241545
9	0x3d22f99e	0.039788835
10	0x3cd8627d	0.02641415
11	0x3d19c5f8	0.037542313
12	0x3d58dee0	0.052946925
13	0x3d46c03c	0.048523173
14	0x3d0258e1	0.031823043
15	0x3d306cde	0.043072574
16	0x3d367b61	0.044551257
17	0x3d2652ea	0.040606417
18	0x3d119b8f	0.035548743
19	0x3d0cdc18	0.034389585
20	0x3d4252c4	0.047442213
21	0x3d2a865c	0.04163204
22	0x3d249d61	0.04018915
23	0x3d323ae4	0.043513194
24	0x3d4852e4	0.048907176
25	0x3d47a3a0	0.04874003
26	0x3d2871f6	0.041124307
27	0x3d1ae663	0.03781737
28	0x3d24b245	0.040209074
29	0x3cedf7e2	0.029048864
30	0x3d27831c	0.04089652
31	0x3d42f0ec	0.047593042
32	0x3f800000	1.0
33	0x3f800000	1.0
34	0x3f800000	1.0
35	0x3f800000	1.0
36	0x3f800000	1.0
37	0x3f800000	1.0
38	0x3f800000	1.0
39	0x3f800000	1.0
40	0x3f800000	1.0
41	0x3f800000	1.0
42	0x3f800000	1.0
43	0x3f800000	1.0
44	0x3f800000	1.0
45	0x3f800000	1.0
46	0x3f800000	1.0
47	0x3f800000	1.0
48	0x3f800000	1.0
49	0x3f800000	1.0
50	0x3f800000	1.0
51	0x3f800000	1.0
52	0x3f800000	1.0
53	0x3f800000	1.0
54	0x3f800000	1.0
55	0x3f800000	1.0
56	0x3f800000	1.0
57	0x3f800000	1.0
58	0x3f800000	1.0
59	0x3f800000	1.0
60	0x3f800000	1.0
61	0x3f800000	1.0
62	0x3f800000	1.0
63	0x3f800000	1.0
64	0xbc956480	-0.018236399
65	0xbbc393fd	-0.0059685693
66	0x3b455f06	0.0030116453
67	0xbb896e5d	-0.0041940645
68	0xbc1ca613	-0.00956108
69	0x3b38d4d5	0.002820303
70	0xbc0516d8	-0.008123122
71	0x3c0ef4de	0.008725373
72	0x3b88952b	0.004168173
73	0xbc1e53df	-0.009663551
74	0xbc9cee59	-0.019156622
75	0xbc1da41a	-0.009621644
76	0xbd339f12	-0.043852873
77	0xbb785bbf	-0.0037896482
78	0x3cf0b281	0.029381992
79	0xbc65b1c0	-0.01401943
80	0xbbfcb0fd	-0.0077115283
81	0xbca9cf36	-0.020728689
82	0xbca11a9c	-0.019666009
83	0x3d071119	0.03297529
84	0xbc5fbec6	-0.013656324
85	0xbc8887bc	-0.016666286
86	0x3c024e64	0.00795326
87	0x3b846393	0.0040401905
88	0x39a19da6	0.0003082577
89	0x3b7372de	0.0037147324
90	0xbcb7b3a6	-0.02242453
91	0xbca80ed0	-0.020514876
92	0x3b5c00d5	0.0033569832
93	0x3ccc7e2c	0.024962507
94	0x3c53417a	0.012894029
95	0x3d1a58fc	0.03768252
96	0x3d500ca0	0.05079329
97	0x3d4141db	0.047181945
98	0x3d53415f	0.051576015
99	0x3d09c32b	0.033633392
100	0x3d5d4a62	0.054026015
101	0x3d548679	0.051886056
102	0x3d2e5314	0.0425597
103	0x3d24c6c7	0.04022863
104	0x3d43e48a	0.047825374
105	0x3d1455e2	0.036214717
106	0x3d20257f	0.03909826
107	0x3d2096d3	0.039206337
108	0x3d4680c0	0.04846263
109	0x3d4b920b	0.049699824
110	0x3d17e362	0.037082084
111	0x3d308bd5	0.043102104
112	0x3d21ec11	0.03953177
113	0x3d070181	0.03296042
114	0x3d3f0dcd	0.04664402
115	0x3d5162f8	0.051119775
116	0x3d4b05dc	0.049566135
117	0x3d181e8a	0.0371385
118	0x3d34f9a3	0.044183385
119	0x3d31c1c5	0.043397684
120	0x3d729596	0.059224688
121	0x3d52ddb4	0.051480964
122	0x3d4825b0	0.048864067
123	0x3d3bf83b	0.045891028
124	0x3d2e645c	0.04257618
125	0x3d1e7e67	0.038694765
126	0x3d2c9f1f	0.042143937
127	0x3d3ec0d6	0.04657062
