lstm997_ae_0801.tflite (tflite, 304860 bytes, 18 tensors)

time_distributed_4/bias f4 [3]
0	0x3bddbe02	0.0067670355
1	0x3b6b4a01	0.0035902264
2	0x3b9abccd	0.004722214

lstm_23/lstm_cell_3/bias f4 [128]
0	0xbc056864	-0.008142564
1	0xb5c7bb08	-1.4881089e-06
2	0xb7aac07c	-2.0355212e-05
3	0xbc15451b	-0.009110714
4	0xbc0c10c4	-0.008548919
5	0xb6a9c6cb	-5.059735e-06
6	0xb83fd69c	-4.573782e-05
7	0xbbffee0d	-0.0078103603
8	0xb78f5600	-1.7086975e-05
9	0xbbe50237	-0.0069887894
10	0xb7f8c7b9	-2.9656907e-05
11	0xbc0b871b	-0.008516098
12	0xb647bd53	-2.9763512e-06
13	0xbc3a25c2	-0.011361541
14	0xb760962c	-1.3386405e-05
15	0xbc381161	-0.011234612
16	0xbc1e1275	-0.009647955
17	0xb779637e	-1.4864721e-05
18	0xb6dee388	-6.6426037e-06
19	0xbc1f8f71	-0.009738789
20	0xb5396e0c	-6.907801e-07
21	0xbc020e73	-0.007938015
22	0xb82b1044	-4.0784726e-05
23	0xb80a44a1	-3.296568e-05
24	0xbc147e9d	-0.00906339
25	0xbc1ff8c0	-0.009763896
26	0xb8057eb1	-3.182766e-05
27	0xb6f84af8	-7.3997035e-06
28	0xb4a1ad90	-3.011487e-07
29	0xb72a7e2c	-1.0162166e-05
30	0xb5fc7bf7	-1.8811542e-06
31	0xb91a6a10	-0.00014726096
32	0x3f800000	1.0
33	0x3f800000	1.0
34	0x3f800000	1.0
35	0x3f800000	1.0
36	0x3f800000	1.0
37	0x3f800000	1.0
38	0x3f800000	1.0
39	0x3f800000	1.0
40	0x3f800000	1.0
41	0x3f800000	1.0
42	0x3f800000	1.0
43	0x3f800000	1.0
44	0x3f800000	1.0
45	0x3f800000	1.0
46	0x3f800000	1.0
47	0x3f800000	1.0
48	0x3f800000	1.0
49	0x3f800000	1.0
50	0x3f800000	1.0
51	0x3f800000	1.0
52	0x3f800000	1.0
53	0x3f800000	1.0
54	0x3f800000	1.0
55	0x3f800000	1.0
56	0x3f800000	1.0
57	0x3f800000	1.0
58	0x3f800000	1.0
59	0x3f800000	1.0
60	0x3f800000	1.0
61	0x3f800000	1.0
62	0x3f800000	1.0
63	0x3f800000	1.0
64	0x3a6f7cb8	0.0009135711
65	0xbbc4255f	-0.0059859003
66	0xbbc4bd21	-0.0060039912
67	0xbbfb4ede	-0.007669314
68	0xbbab724c	-0.005232131
69	0xbbc4a104	-0.00600064
70	0xbb0eb460	-0.0021774992
71	0xbb884b50	-0.0041593686
72	0xbbc4b5f6	-0.0060031367
73	0xbbec241e	-0.007206454
74	0xbbc4be8f	-0.0060041617
75	0xbbe1d95f	-0.0068923677
76	0xbbc48dae	-0.005998335
77	0xbacd434d	-0.0015660316
78	0xbbc4b1a0	-0.00600262
79	0x3a6a95b3	0.00089486985
80	0x3a806664	0.000979614
81	0xbbc4b5fb	-0.006003139
82	0xbbc4a76f	-0.006001405
83	0xba8b7676	-0.0010640163
84	0xbbc1b98c	-0.0059120115
85	0xbb8ed454	-0.0043588076
86	0xbbc4c216	-0.006004582
87	0xbbc4c00d	-0.0060043395
88	0xba7b38e6	-0.00095833687
89	0xba0e1d92	-0.00054212764
90	0xbbc4c1dd	-0.0060045556
91	0xbbc4b49d	-0.006002976
92	0xbbc34e07	-0.0059602293
93	0xbbc496d7	-0.005999427
94	0xbbc46f58	-0.0059947185
95	0xbbb5eb5f	-0.00555174
96	0xbc056b32	-0.008143233
97	0xb5c7baeb	-1.4881056e-06
98	0xb7aac09f	-2.0355275e-05
99	0xbc15453e	-0.009110747
100	0xbc0c0f0a	-0.0085485075
101	0xb6a9c6cd	-5.059736e-06
102	0xb83fccae	-4.572857e-05
103	0xbbffed13	-0.007810244
104	0xb78f55f8	-1.708696e-05
105	0xbbe5014a	-0.006988679
106	0xb7f8c7a9	-2.9656878e-05
107	0xbc0b87b7	-0.008516244
108	0xb647bd6d	-2.976357e-06
109	0xbc3a2758	-0.011361919
110	0xb7609659	-1.3386446e-05
111	0xbc3811f7	-0.011234752
112	0xbc1e1492	-0.009648459
113	0xb7796392	-1.486474e-05
114	0xb6dee3a1	-6.642615e-06
115	0xbc1f9108	-0.009739168
116	0xb5396e0e	-6.907802e-07
117	0xbc020fd4	-0.007938344
118	0xb82b103a	-4.078469e-05
119	0xb80a449e	-3.296567e-05
120	0xbc148702	-0.0090653915
121	0xbc1ffc04	-0.009764675
122	0xb8057ea4	-3.1827614e-05
123	0xb6f84aef	-7.3996994e-06
124	0xb4a1ad7c	-3.0114813e-07
125	0xb72a7e30	-1.016217e-05
126	0xb5fc7bdb	-1.881151e-06
127	0xb91a6b72	-0.00014726611

lstm_22/lstm_cell_2/bias f4 [256]
0	0xb2948025	-1.7287741e-08
1	0xb796b998	-1.7967817e-05
2	0xbc28029f	-0.010254531
3	0xb7acc42f	-2.0595353e-05
4	0xb695c1d4	-4.4631106e-06
5	0xbc030257	-0.007996163
6	0xb62911bc	-2.5193285e-06
7	0xb619f4bf	-2.2941238e-06
8	0xbb9861f4	-0.004650349
9	0xbbb8550c	-0.0056253728
10	0xb04d8cc0	-7.4778583e-10
11	0xb4fda8bf	-4.72477e-07
12	0xbb93599a	-0.0044967653
13	0xbbe8b47c	-0.0071015935
14	0xbab1e9ff	-0.0013573765
15	0xbc13ecb1	-0.0090286
16	0xbc1dba8d	-0.009626997
17	0xb88993ae	-6.5601766e-05
18	0xbb2328ad	-0.002489607
19	0xb5eadc5e	-1.7498494e-06
20	0xbbedf2b7	-0.0072616
21	0xb6975821	-4.5104102e-06
22	0xb5da067f	-1.6244156e-06
23	0x00000000	0.0
24	0xb401e0e9	-1.2095883e-07
25	0xbbee634d	-0.007275021
26	0xb5449a91	-7.3240614e-07
27	0xba421c96	-0.00074047723
28	0xb51e5581	-5.898401e-07
29	0xb4b0f39f	-3.2959812e-07
30	0xb5d8053d	-1.6094779e-06
31	0xb81cf363	-3.741997e-05
32	0xb7b2ac68	-2.1299536e-05
33	0xb5cdac69	-1.5323868e-06
34	0xb7918506	-1.734729e-05
35	0xbc07f615	-0.008298417
36	0xbafee34a	-0.00194464
37	0xbbe8aa4e	-0.00710038
38	0xb6e0174b	-6.678432e-06
39	0x3b0ab4e8	0.0021164957
40	0x34792266	2.3202446e-07
41	0xb4248e37	-1.5325428e-07
42	0xbbb83a4d	-0.0056221844
43	0xbc0079a2	-0.0078414995
44	0xbbefde4e	-0.007320202
45	0xb5e7070a	-1.721289e-06
46	0xbb7fd96b	-0.0039039503
47	0xb327d5cc	-3.9077165e-08
48	0xb6117bd3	-2.167876e-06
49	0xbbec97ba	-0.0072202357
50	0xbafe7e0b	-0.0019416226
51	0xb6c26c1d	-5.7942366e-06
52	0xbb9b2017	-0.00473405
53	0xbbe4d173	-0.006982976
54	0xb7a38589	-1.9493296e-05
55	0xbb8a552f	-0.0042215805
56	0xb60eb7b7	-2.1266585e-06
57	0xbab7f5f0	-0.0014035087
58	0xb572ceb2	-9.0452806e-07
59	0xb6c5b554	-5.892167e-06
60	0xb6cf3f11	-6.1764226e-06
61	0xbc2cefe7	-0.010555244
62	0xbaee325c	-0.0018172967
63	0xb4cdd145	-3.833649e-07
64	0x3f800000	1.0
65	0x3f800000	1.0
66	0x3f800000	1.0
67	0x3f800000	1.0
68	0x3f800000	1.0
69	0x3f800000	1.0
70	0x3f800000	1.0
71	0x3f800000	1.0
72	0x3f800000	1.0
73	0x3f800000	1.0
74	0x3f800000	1.0
75	0x3f800000	1.0
76	0x3f800000	1.0
77	0x3f800000	1.0
78	0x3f800000	1.0
79	0x3f800000	1.0
80	0x3f800000	1.0
81	0x3f800000	1.0
82	0x3f800000	1.0
83	0x3f800000	1.0
84	0x3f800000	1.0
85	0x3f800000	1.0
86	0x3f800000	1.0
87	0x3f800000	1.0
88	0x3f800000	1.0
89	0x3f800000	1.0
90	0x3f800000	1.0
91	0x3f800000	1.0
92	0x3f800000	1.0
93	0x3f800000	1.0
94	0x3f800000	1.0
95	0x3f800000	1.0
96	0x3f800000	1.0
97	0x3f800000	1.0
98	0x3f800000	1.0
99	0x3f800000	1.0
100	0x3f800000	1.0
101	0x3f800000	1.0
102	0x3f800000	1.0
103	0x3f800000	1.0
104	0x3f800000	1.0
105	0x3f800000	1.0
106	0x3f800000	1.0
107	0x3f800000	1.0
108	0x3f800000	1.0
109	0x3f800000	1.0
110	0x3f800000	1.0
111	0x3f800000	1.0
112	0x3f800000	1.0
113	0x3f800000	1.0
114	0x3f800000	1.0
115	0x3f800000	1.0
116	0x3f800000	1.0
117	0x3f800000	1.0
118	0x3f800000	1.0
119	0x3f800000	1.0
120	0x3f800000	1.0
121	0x3f800000	1.0
122	0x3f800000	1.0
123	0x3f800000	1.0
124	0x3f800000	1.0
125	0x3f800000	1.0
126	0x3f800000	1.0
127	0x3f800000	1.0
128	0xbab1c390	-0.001356231
129	0xbbc46efc	-0.0059946757
130	0xba565472	-0.00081760355
131	0xbbc40f54	-0.0059832726
132	0xbbc426b9	-0.0059860614
133	0xbbb3a849	-0.0054827076
134	0xbbc3453d	-0.0059591816
135	0xbbc35a93	-0.005961725
136	0xbbb678f4	-0.005568618
137	0x3af9024a	0.0018997875
138	0xb96ab24a	-0.00022382397
139	0xbbb9b104	-0.005666854
140	0x3bae7d07	0.005324963
141	0xbb13da93	-0.00225607
142	0x3c0a3afc	0.0084369145
143	0xbba7c519	-0.0051199314
144	0xbadf9212	-0.0017057082
145	0xbbc4afcc	-0.006002402
146	0x3bf55f3b	0.007488159
147	0xbbbfaa85	-0.005849185
148	0xbbca6513	-0.0061765998
149	0xbbbc4df2	-0.0057465965
150	0xbbc3e02b	-0.0059776506
151	0x00000000	0.0
152	0xbbb97a83	-0.0056603565
153	0x3ad842d6	0.0016499411
154	0xbbc128dd	-0.005894764
155	0xbb99f67f	-0.004698574
156	0xbbbea900	-0.005818486
157	0xbbbe0833	-0.0057993173
158	0xbbc2c6a4	-0.00594409
159	0xbbc48f20	-0.005998507
160	0xbbc45857	-0.0059919762
161	0xbbc358f4	-0.005961532
162	0xbbc45b81	-0.0059923534
163	0xbb97e81f	-0.0046358253
164	0x3bc8ebbf	0.0061316187
165	0xb9dd9d2f	-0.00042269516
166	0xbbc44844	-0.00599006
167	0x3c4c70bc	0.01247805
168	0xbbbfced3	-0.005853513
169	0xbb9f1a8e	-0.0048554605
170	0xbba4e22b	-0.005031844
171	0xba0c8fb3	-0.0005361989
172	0xba25ed5b	-0.0006329619
173	0xbbc2577b	-0.0059308386
174	0x3b565314	0.0032703327
175	0xbb1d8cc5	-0.0024040204
176	0xbbc3ce3f	-0.005975514
177	0xb9f9ba00	-0.00047631562
178	0xbbe38bbd	-0.0069441483
179	0xbbc35e31	-0.005962156
180	0xbbebe1f3	-0.007198566
181	0x3a74cb3e	0.0009338147
182	0xbbc3b9e0	-0.0059730858
183	0xbbd20dc0	-0.0064103305
184	0xbbc38753	-0.0059670596
185	0xbb902d79	-0.004399952
186	0xbbbff30d	-0.0058578313
187	0xbbc3dc3a	-0.005977181
188	0xbbc4282c	-0.005986234
189	0xb9d87667	-0.00041286947
190	0xbb822c79	-0.0039725867
191	0xbba61d4d	-0.005069411
192	0xb294818f	-1.7288384e-08
193	0xb796ba2f	-1.7968092e-05
194	0xbc280067	-0.010254002
195	0xb7acc47c	-2.0595493e-05
196	0xb695c1c3	-4.463103e-06
197	0xbc030428	-0.007996596
198	0xb62912ac	-2.519383e-06
199	0xb619f499	-2.2941151e-06
200	0xbb985f98	-0.0046500675
201	0xbbb8519d	-0.0056249634
202	0xb04d8ca7	-7.4778445e-10
203	0xb4fda867	-4.724745e-07
204	0xbb935955	-0.004496733
205	0xbbe8b966	-0.0071021793
206	0xbab1e34c	-0.0013571768
207	0xbc13eb78	-0.009028308
208	0xbc1db7f6	-0.009626379
209	0xb8899405	-6.56024e-05
210	0xbb232d3f	-0.0024898795
211	0xb5eadc33	-1.7498445e-06
212	0xbbedf261	-0.00726156
213	0xb69756b1	-4.510243e-06
214	0xb5da05f9	-1.6244004e-06
215	0x00000000	0.0
216	0xb401e0dd	-1.2095866e-07
217	0xbbee6638	-0.007275369
218	0xb5449b1c	-7.3241404e-07
219	0xba421a28	-0.000740441
220	0xb51e558b	-5.898407e-07
221	0xb4b0f34e	-3.2959582e-07
222	0xb5d80628	-1.6095046e-06
223	0xb81cf375	-3.7420035e-05
224	0xb7b2abeb	-2.1299309e-05
225	0xb5cdac16	-1.5323774e-06
226	0xb79184a7	-1.7347118e-05
227	0xbc07f31a	-0.008297706
228	0xbafec5bd	-0.0019437593
229	0xbbe8aba6	-0.00710054
230	0xb6e017b9	-6.678482e-06
231	0x3b0aba11	0.0021168033
232	0x3479209b	2.3201794e-07
233	0xb4248dda	-1.5325296e-07
234	0xbbb833e0	-0.0056214184
235	0xbc007a11	-0.007841603
236	0xbbefe01b	-0.0073204166
237	0xb5e70734	-1.7212938e-06
238	0xbb7fe350	-0.00390454
239	0xb327cc90	-3.9068766e-08
240	0xb6117c11	-2.16789e-06
241	0xbbec9b3e	-0.0072206547
242	0xbafe7c4f	-0.0019415709
243	0xb6c26c92	-5.79429e-06
244	0xbb9b1d5d	-0.004733725
245	0xbbe4d68d	-0.0069835843
246	0xb7a38534	-1.9493142e-05
247	0xbb8a563a	-0.004221705
248	0xb60eb824	-2.1266833e-06
249	0xbab7f862	-0.0014035816
250	0xb572cfb1	-9.0454256e-07
251	0xb6c5b553	-5.8921664e-06
252	0xb6cf3fb8	-6.1764986e-06
253	0xbc2ce7c8	-0.010553308
254	0xbaee3551	-0.0018173849
255	0xb4cdd64c	-3.8340147e-07

lstm_21/lstm_cell_1/bias f4 [128]
0	0xb5b1c4cd	-1.3244804e-06
1	0xb3bf7cf8	-8.916862e-08
2	0xb5898edb	-1.0248872e-06
3	0xb96b65c0	-0.00022449251
4	0xbb1fbbd9	-0.002437344
5	0xb5341905	-6.7091634e-07
6	0xbaee038f	-0.001815902
7	0xba7f395d	-0.0009736026
8	0xb5db48c5	-1.633795e-06
9	0xba7b55ed	-0.0009587694
10	0xbb33c30c	-0.002742949
11	0xb48b45a7	-2.5941446e-07
12	0xb414333d	-1.3802214e-07
13	0xbb0ee631	-0.0021804685
14	0xb7999d26	-1.83122e-05
15	0xb867e865	-5.5291126e-05
16	0xb9e9a58c	-0.00044564565
17	0xb9e0fe56	-0.00042914104
18	0xb68c8320	-4.18759e-06
19	0xb87a0e26	-5.961782e-05
20	0xbb8f17d3	-0.0043668537
21	0xb58d825a	-1.0543256e-06
22	0xb6556e1d	-3.1803568e-06
23	0xbb1a17fb	-0.0023512829
24	0xb6fd2f94	-7.5455264e-06
25	0xbb222b55	-0.0024745066
26	0xb67a8b10	-3.7333848e-06
27	0xb77a1d02	-1.4907915e-05
28	0xb996829b	-0.00028707538
29	0xbb8a334a	-0.00421754
30	0xbaff2fb8	-0.0019469177
31	0xb8d2e893	-0.00010056901
32	0x3f800000	1.0
33	0x3f800000	1.0
34	0x3f800000	1.0
35	0x3f800000	1.0
36	0x3f800000	1.0
37	0x3f800000	1.0
38	0x3f800000	1.0
39	0x3f800000	1.0
40	0x3f800000	1.0
41	0x3f800000	1.0
42	0x3f800000	1.0
43	0x3f800000	1.0
44	0x3f800000	1.0
45	0x3f800000	1.0
46	0x3f800000	1.0
47	0x3f800000	1.0
48	0x3f800000	1.0
49	0x3f800000	1.0
50	0x3f800000	1.0
51	0x3f800000	1.0
52	0x3f800000	1.0
53	0x3f800000	1.0
54	0x3f800000	1.0
55	0x3f800000	1.0
56	0x3f800000	1.0
57	0x3f800000	1.0
58	0x3f800000	1.0
59	0x3f800000	1.0
60	0x3f800000	1.0
61	0x3f800000	1.0
62	0x3f800000	1.0
63	0x3f800000	1.0
64	0xbbb4547b	-0.005503235
65	0xbb73fce8	-0.0037229601
66	0xbba69e74	-0.005084807
67	0x3c406e82	0.011745097
68	0xba4ef754	-0.0007895131
69	0xbb9a2a5a	-0.0047047557
70	0xbbdafa73	-0.006682688
71	0xbbefb74b	-0.0073155514
72	0xbbbe83a9	-0.005814035
73	0xbbf6ac83	-0.007527889
74	0x3b93a51e	0.0045057675
75	0xbb891440	-0.004183322
76	0xbb5e0e8e	-0.0033883187
77	0xbbcc1352	-0.006227889
78	0xbbc1c561	-0.005913422
79	0xbba8b107	-0.0051480564
80	0xbba93390	-0.0051636174
81	0x3ba7aefa	0.0051172944
82	0xbbb13c9d	-0.005408837
83	0xbbc32af4	-0.005956048
84	0xbbe8c644	-0.007103713
85	0xbbb4ea1f	-0.0055210735
86	0xbbbd59f8	-0.0057785474
87	0xbc02ac6b	-0.007975678
88	0xbbbd9e83	-0.0057867183
89	0xbbd45b2f	-0.0064805965
90	0xbb97c3b2	-0.004631483
91	0xbbc19e8c	-0.005908793
92	0xbb973301	-0.0046142344
93	0xbad125a4	-0.0015956652
94	0xbbe38b9e	-0.006944134
95	0xbbd81edc	-0.0065954756
96	0xb5b1c146	-1.3243778e-06
97	0xb3bf8138	-8.917635e-08
98	0xb5898638	-1.0246358e-06
99	0xb96b2333	-0.00022424459
100	0xbb1fbbce	-0.0024373415
101	0xb5341ac8	-6.70942e-07
102	0xbaee207b	-0.0018167639
103	0xba7f292d	-0.00097336137
104	0xb5db219a	-1.6326551e-06
105	0xba7b565b	-0.0009587758
106	0xbb33bd11	-0.0027425925
107	0xb48b4bc0	-2.5945883e-07
108	0xb414326d	-1.3801919e-07
109	0xbb0ef1e2	-0.0021811654
110	0xb799a247	-1.8314588e-05
111	0xb867e585	-5.528845e-05
112	0xb9e99e0d	-0.0004455898
113	0xb9e0fbbd	-0.0004291217
114	0xb68c7f94	-4.187177e-06
115	0xb879fd9b	-5.9602415e-05
116	0xbb8f1402	-0.004366399
117	0xb58d82c2	-1.0543374e-06
118	0xb6556fe4	-3.1804602e-06
119	0xbb1a1a77	-0.002351431
120	0xb6fd3708	-7.546394e-06
121	0xbb222c91	-0.0024745802
122	0xb67a6891	-3.7313769e-06
123	0xb77a0c04	-1.4903959e-05
124	0xb9967880	-0.0002870001
125	0xbb8a33e8	-0.0042176135
126	0xbaff3bb3	-0.0019472748
127	0xb8d2f16d	-0.000100585494

lstm_20/lstm_cell/bias f4 [256]
0	0xba2e579f	-0.000665063
1	0xb71b3f98	-9.2535265e-06
2	0xb6d964fd	-6.4788605e-06
3	0xb9318bca	-0.00016932111
4	0x00000000	0.0
5	0xb929026f	-0.00016118003
6	0xb8724883	-5.7764828e-05
7	0xb750755e	-1.2425093e-05
8	0x388f4191	6.830984e-05
9	0x00000000	0.0
10	0x38581fc1	5.1527986e-05
11	0xb98d55a2	-0.00026957417
12	0x00000000	0.0
13	0x00000000	0.0
14	0xb82819d9	-4.0078394e-05
15	0xb8eb4215	-0.00011217982
16	0xb6546122	-3.1647e-06
17	0xb80f3228	-3.414057e-05
18	0xb745d16b	-1.1790874e-05
19	0xb96ca0cc	-0.00022566615
20	0xb99895f6	-0.0002910343
21	0xb9a1c0bc	-0.0003085191
22	0xb8be9e04	-9.089339e-05
23	0xb6ea8731	-6.989482e-06
24	0xb86f529b	-5.7058973e-05
25	0xb76ef863	-1.42437375e-05
26	0x00000000	0.0
27	0xb75ae424	-1.3046931e-05
28	0xb84f06f8	-4.9359136e-05
29	0xb716c83c	-8.987317e-06
30	0xb4c973f0	-3.7523523e-07
31	0xb9275218	-0.00015956943
32	0xb6d57797	-6.3618168e-06
33	0x00000000	0.0
34	0xb642d7ed	-2.9033938e-06
35	0xb69a1160	-4.5915804e-06
36	0x00000000	0.0
37	0xb992a046	-0.00027966703
38	0x00000000	0.0
39	0xb64b7a16	-3.032042e-06
40	0x3889ef0e	6.5771965e-05
41	0xb62d0f40	-2.5787886e-06
42	0xb81e7415	-3.7778245e-05
43	0xb8719932	-5.760155e-05
44	0xb8bdc163	-9.0482434e-05
45	0x00000000	0.0
46	0xb5f09241	-1.7923959e-06
47	0x00000000	0.0
48	0xb77481cb	-1.4573753e-05
49	0x00000000	0.0
50	0xb9063061	-0.00012797258
51	0xb81856e3	-3.6320544e-05
52	0xb9e3e567	-0.00043467732
53	0xb7823390	-1.5521218e-05
54	0xb757d2fd	-1.2864123e-05
55	0xb9cd7d10	-0.00039193826
56	0xb93af7d0	-0.0001783066
57	0x00000000	0.0
58	0xb99f2261	-0.00030352458
59	0xb70c2f18	-8.355615e-06
60	0xb8d07016	-9.9390905e-05
61	0xb6a5c26e	-4.940018e-06
62	0xb85d44d7	-5.2754618e-05
63	0xb75f1a82	-1.3298008e-05
64	0x3f800000	1.0
65	0x3f800000	1.0
66	0x3f800000	1.0
67	0x3f800000	1.0
68	0x3f800000	1.0
69	0x3f800000	1.0
70	0x3f800000	1.0
71	0x3f800000	1.0
72	0x3f800000	1.0
73	0x3f800000	1.0
74	0x3f800000	1.0
75	0x3f800000	1.0
76	0x3f800000	1.0
77	0x3f800000	1.0
78	0x3f800000	1.0
79	0x3f800000	1.0
80	0x3f800000	1.0
81	0x3f800000	1.0
82	0x3f800000	1.0
83	0x3f800000	1.0
84	0x3f800000	1.0
85	0x3f800000	1.0
86	0x3f800000	1.0
87	0x3f800000	1.0
88	0x3f800000	1.0
89	0x3f800000	1.0
90	0x3f800000	1.0
91	0x3f800000	1.0
92	0x3f800000	1.0
93	0x3f800000	1.0
94	0x3f800000	1.0
95	0x3f800000	1.0
96	0x3f800000	1.0
97	0x3f800000	1.0
98	0x3f800000	1.0
99	0x3f800000	1.0
100	0x3f800000	1.0
101	0x3f800000	1.0
102	0x3f800000	1.0
103	0x3f800000	1.0
104	0x3f800000	1.0
105	0x3f800000	1.0
106	0x3f800000	1.0
107	0x3f800000	1.0
108	0x3f800000	1.0
109	0x3f800000	1.0
110	0x3f800000	1.0
111	0x3f800000	1.0
112	0x3f800000	1.0
113	0x3f800000	1.0
114	0x3f800000	1.0
115	0x3f800000	1.0
116	0x3f800000	1.0
117	0x3f800000	1.0
118	0x3f800000	1.0
119	0x3f800000	1.0
120	0x3f800000	1.0
121	0x3f800000	1.0
122	0x3f800000	1.0
123	0x3f800000	1.0
124	0x3f800000	1.0
125	0x3f800000	1.0
126	0x3f800000	1.0
127	0x3f800000	1.0
128	0xbbce847b	-0.006302414
129	0xbb75b0d9	-0.0037489443
130	0xbbb3d95d	-0.005488558
131	0x389c73e4	7.460246e-05
132	0x00000000	0.0
133	0xbb97b38d	-0.0046295584
134	0xbbb20ae0	-0.0054334253
135	0xbbb4e7c9	-0.005520795
136	0x3c053c2d	0.008132023
137	0x00000000	0.0
138	0x3c0a2818	0.008432411
139	0xbb7e7635	-0.003882778
140	0x00000000	0.0
141	0x00000000	0.0
142	0xbbff41be	-0.0077898195
143	0x3ad5c484	0.0016309177
144	0xbb9f6ed6	-0.0048655076
145	0xbbe37ac6	-0.006942126
146	0xbbb5db1b	-0.005549801
147	0xbbbf6752	-0.005841174
148	0xbbe26e59	-0.006910127
149	0xbb3905c3	-0.0028232194
150	0x3b4f031b	0.0031587544
151	0xbb726240	-0.003698483
152	0x3b97723c	0.004621772
153	0xbbb8133d	-0.0056175278
154	0x00000000	0.0
155	0xbbd51a2b	-0.0065033636
156	0xbbd090a0	-0.006364897
157	0xbbcbfd8e	-0.0062252944
158	0xbb196792	-0.002340768
159	0xbbe15f33	-0.0068778037
160	0xbb7acaea	-0.003826792
161	0x00000000	0.0
162	0xbb9df5a8	-0.0048205443
163	0xbb8e370b	-0.0043400577
164	0x00000000	0.0
165	0xbbc3ed51	-0.005979218
166	0x00000000	0.0
167	0xbba4bde1	-0.005027518
168	0x3b45d4cd	0.0030186654
169	0xbb1100d7	-0.0022125745
170	0xbbd88e71	-0.006608777
171	0xbbc490cb	-0.005998706
172	0x3b2437c7	0.002505766
173	0x00000000	0.0
174	0xbb8f5109	-0.004373674
175	0x00000000	0.0
176	0x3aa03317	0.0012222257
177	0x00000000	0.0
178	0x3b3ee5fb	0.0029128778
179	0xbbc07eef	-0.0058745067
180	0xbb04ae19	-0.0020245372
181	0xbbe59cc3	-0.007007213
182	0xbbdcbbe5	-0.006736266
183	0xbb405d0c	-0.0029352335
184	0xbc001bda	-0.00781914
185	0x00000000	0.0
186	0xbbc7c1c5	-0.006096097
187	0xbbae6c9a	-0.005323005
188	0x3aceeffa	0.0015788071
189	0xbbabd96b	-0.005244424
190	0xbbeeb0f6	-0.007284279
191	0xbbc85c38	-0.006114509
192	0xba2e29aa	-0.00066437817
193	0xb71b4281	-9.254204e-06
194	0xb6d92816	-6.4717706e-06
195	0xb93184b7	-0.00016929476
196	0x00000000	0.0
197	0xb9290597	-0.00016119178
198	0xb8724eea	-5.777079e-05
199	0xb7505e45	-1.2419715e-05
200	0x388e2d7c	6.77956e-05
201	0x00000000	0.0
202	0x3858f2d1	5.1724553e-05
203	0xb98d535d	-0.00026955726
204	0x00000000	0.0
205	0x00000000	0.0
206	0xb827f3fb	-4.0043127e-05
207	0xb8eaf53e	-0.000112036694
208	0xb654b1b6	-3.1693903e-06
209	0xb80f30a9	-3.4139175e-05
210	0xb745c0cc	-1.1787004e-05
211	0xb96cf722	-0.00022598778
212	0xb9989e01	-0.0002910942
213	0xb9a1e764	-0.00030880712
214	0xb8be9a98	-9.088701e-05
215	0xb6ea03a6	-6.974168e-06
216	0xb86d1427	-5.652397e-05
217	0xb76f2006	-1.4252966e-05
218	0x00000000	0.0
219	0xb75a9ade	-1.302987e-05
220	0xb84ef9b0	-4.9346767e-05
221	0xb716af5a	-8.981524e-06
222	0xb4c98a71	-3.7539897e-07
223	0xb927519f	-0.00015956767
224	0xb6d5a794	-6.3674033e-06
225	0x00000000	0.0
226	0xb642d1b1	-2.903031e-06
227	0xb69a3355	-4.5955335e-06
228	0x00000000	0.0
229	0xb992bd00	-0.00027988106
230	0x00000000	0.0
231	0xb64b3298	-3.0278807e-06
232	0x3889bd1b	6.567893e-05
233	0xb62d5a40	-2.5831541e-06
234	0xb81e8821	-3.7796915e-05
235	0xb8715cba	-5.7545236e-05
236	0xb8bdcb31	-9.05007e-05
237	0x00000000	0.0
238	0xb5f072d7	-1.7914816e-06
239	0x00000000	0.0
240	0xb7752fc3	-1.4614258e-05
241	0x00000000	0.0
242	0xb9064282	-0.00012804012
243	0xb81864c6	-3.6333477e-05
244	0xb9e3dc3c	-0.000434609
245	0xb782437d	-1.5528634e-05
246	0xb7580e4b	-1.2877931e-05
247	0xb9cd6ad9	-0.00039180255
248	0xb93b0266	-0.00017834603
249	0x00000000	0.0
250	0xb99f240e	-0.00030353706
251	0xb70c437b	-8.360362e-06
252	0xb8d1c51d	-0.00010002612
253	0xb6a5e50c	-4.9440478e-06
254	0xb85d20f7	-5.2721207e-05
255	0xb75f4799	-1.3308506e-05

sequential_4/time_distributed_4/dense_4/MatMul f4 [3, 32]
0	0x3ecbfe78	0.39842582
1	0x3d984bd0	0.07436335
2	0x3e377066	0.1791397
3	0xbeb9a453	-0.36258182
4	0x3e147813	0.1449893
5	0xbe017d93	-0.12645559
6	0xbe9d7564	-0.30753624
7	0x3c54e1d8	0.0129932985
8	0xbe6d2e66	-0.23162231
9	0xbe8d0889	-0.27545574
10	0x3dbc05d3	0.091807984
11	0xbea1d9f6	-0.31611603
12	0x3ea2589e	0.31708235
13	0xbdcc9294	-0.09988895
14	0xbe35e5b0	-0.177634
15	0x3e6d11c6	0.23151311
16	0x3e7e81de	0.24854228
17	0xbebac543	-0.36478624
18	0xbe9b9f0f	-0.3039479
19	0x3e0f7840	0.14010715
20	0x3dc1b60f	0.09458553
21	0xbdcc076b	-0.09962352
22	0xbe7ac903	-0.24490742
23	0xbcae57bc	-0.02128207
24	0x3e085d9c	0.13316959
25	0xbd3cad07	-0.04606345
26	0xbe9c5c19	-0.30539015
27	0xbe16ea1e	-0.14737746
28	0x3d9563ea	0.07294448
29	0xbdf9a7e4	-0.12190226
30	0xbd310e8e	-0.04322677
31	0x3eacf3cd	0.33779755
32	0xbcc12b21	-0.023580136
33	0x3e4d790b	0.20065705
34	0xbdb2612f	-0.087099425
35	0x3e9a5114	0.30139983
36	0x3e2d0361	0.1689582
37	0xbe53b177	-0.20673166
38	0xbe9d8dff	-0.30772397
39	0x3e9dc9b6	0.30817956
40	0xbe859061	-0.26086715
41	0x3e87bfcf	0.26513526
42	0xbece251a	-0.4026268
43	0x3b47374b	0.0030397947
44	0xbea2a4df	-0.31766412
45	0x3e7f10e9	0.24908794
46	0xbe993872	-0.29925877
47	0x3e030d91	0.12798144
48	0x3e61bf8c	0.22045726
49	0xbdbc0626	-0.0918086
50	0xbe002415	-0.12513764
51	0x3db4c4ce	0.088266
52	0x3d5e18f1	0.054223005
53	0x3d0a1b51	0.033717457
54	0xbe845164	-0.25843346
55	0xbe414555	-0.18874104
56	0xbe0d0f12	-0.1377528
57	0x3e897821	0.26849464
58	0xbdf64b7d	-0.12026117
59	0xbe43dfd0	-0.19128346
60	0x3e273532	0.16328886
61	0xbcf924e6	-0.030413102
62	0x3ec85755	0.3912913
63	0x3d20ce14	0.03925903
64	0xbe1aa014	-0.15100127
65	0xbe942579	-0.2893484
66	0xbea76f87	-0.32702276
67	0x3e637400	0.22212219
68	0x3eb05d5a	0.34446222
69	0x3d505a66	0.05086746
70	0xbeaeae6b	-0.34117445
71	0x3c8dff4d	0.017333651
72	0x3eac6c20	0.33676243
73	0x3d165e7f	0.036711212
74	0x3caa62ae	0.020799007
75	0x3eb4d59e	0.35319227
76	0xbd6bb6a0	-0.05754721
77	0x3e57c722	0.21072057
78	0x3ebc648b	0.36795458
79	0xbe2b3473	-0.16719227
80	0x3e0d2220	0.13782549
81	0x3ea9544d	0.3307213
82	0x3e64a507	0.22328578
83	0x3ec91217	0.39271614
84	0xbeaf2c43	-0.34213457
85	0x3e16f650	0.14742398
86	0xbd88992c	-0.0666984
87	0xbe45f061	-0.19329979
88	0x3ece4879	0.40289667
89	0x3e3b195e	0.18271396
90	0xbe233551	-0.15938307
91	0xbcc8d2cf	-0.024514584
92	0xbe804622	-0.25053507
93	0x3dee9828	0.11650115
94	0xbec830fb	-0.3909987
95	0xbecef085	-0.40417877

lstm_20/lstm_cell/bias1 f4 [256]
0	0xba2e579f	-0.000665063
1	0xb71b3f98	-9.2535265e-06
2	0xb6d964fd	-6.4788605e-06
3	0xb9318bca	-0.00016932111
4	0x00000000	0.0
5	0xb929026f	-0.00016118003
6	0xb8724883	-5.7764828e-05
7	0xb750755e	-1.2425093e-05
8	0x388f4191	6.830984e-05
9	0x00000000	0.0
10	0x38581fc1	5.1527986e-05
11	0xb98d55a2	-0.00026957417
12	0x00000000	0.0
13	0x00000000	0.0
14	0xb82819d9	-4.0078394e-05
15	0xb8eb4215	-0.00011217982
16	0xb6546122	-3.1647e-06
17	0xb80f3228	-3.414057e-05
18	0xb745d16b	-1.1790874e-05
19	0xb96ca0cc	-0.00022566615
20	0xb99895f6	-0.0002910343
21	0xb9a1c0bc	-0.0003085191
22	0xb8be9e04	-9.089339e-05
23	0xb6ea8731	-6.989482e-06
24	0xb86f529b	-5.7058973e-05
25	0xb76ef863	-1.42437375e-05
26	0x00000000	0.0
27	0xb75ae424	-1.3046931e-05
28	0xb84f06f8	-4.9359136e-05
29	0xb716c83c	-8.987317e-06
30	0xb4c973f0	-3.7523523e-07
31	0xb9275218	-0.00015956943
32	0xb6d57797	-6.3618168e-06
33	0x00000000	0.0
34	0xb642d7ed	-2.9033938e-06
35	0xb69a1160	-4.5915804e-06
36	0x00000000	0.0
37	0xb992a046	-0.00027966703
38	0x00000000	0.0
39	0xb64b7a16	-3.032042e-06
40	0x3889ef0e	6.5771965e-05
41	0xb62d0f40	-2.5787886e-06
42	0xb81e7415	-3.7778245e-05
43	0xb8719932	-5.760155e-05
44	0xb8bdc163	-9.0482434e-05
45	0x00000000	0.0
46	0xb5f09241	-1.7923959e-06
47	0x00000000	0.0
48	0xb77481cb	-1.4573753e-05
49	0x00000000	0.0
50	0xb9063061	-0.00012797258
51	0xb81856e3	-3.6320544e-05
52	0xb9e3e567	-0.00043467732
53	0xb7823390	-1.5521218e-05
54	0xb757d2fd	-1.2864123e-05
55	0xb9cd7d10	-0.00039193826
56	0xb93af7d0	-0.0001783066
57	0x00000000	0.0
58	0xb99f2261	-0.00030352458
59	0xb70c2f18	-8.355615e-06
60	0xb8d07016	-9.9390905e-05
61	0xb6a5c26e	-4.940018e-06
62	0xb85d44d7	-5.2754618e-05
63	0xb75f1a82	-1.3298008e-05
64	0x3f800000	1.0
65	0x3f800000	1.0
66	0x3f800000	1.0
67	0x3f800000	1.0
68	0x3f800000	1.0
69	0x3f800000	1.0
70	0x3f800000	1.0
71	0x3f800000	1.0
72	0x3f800000	1.0
73	0x3f800000	1.0
74	0x3f800000	1.0
75	0x3f800000	1.0
76	0x3f800000	1.0
77	0x3f800000	1.0
78	0x3f800000	1.0
79	0x3f800000	1.0
80	0x3f800000	1.0
81	0x3f800000	1.0
82	0x3f800000	1.0
83	0x3f800000	1.0
84	0x3f800000	1.0
85	0x3f800000	1.0
86	0x3f800000	1.0
87	0x3f800000	1.0
88	0x3f800000	1.0
89	0x3f800000	1.0
90	0x3f800000	1.0
91	0x3f800000	1.0
92	0x3f800000	1.0
93	0x3f800000	1.0
94	0x3f800000	1.0
95	0x3f800000	1.0
96	0x3f800000	1.0
97	0x3f800000	1.0
98	0x3f800000	1.0
99	0x3f800000	1.0
100	0x3f800000	1.0
101	0x3f800000	1.0
102	0x3f800000	1.0
103	0x3f800000	1.0
104	0x3f800000	1.0
105	0x3f800000	1.0
106	0x3f800000	1.0
107	0x3f800000	1.0
108	0x3f800000	1.0
109	0x3f800000	1.0
110	0x3f800000	1.0
111	0x3f800000	1.0
112	0x3f800000	1.0
113	0x3f800000	1.0
114	0x3f800000	1.0
115	0x3f800000	1.0
116	0x3f800000	1.0
117	0x3f800000	1.0
118	0x3f800000	1.0
119	0x3f800000	1.0
120	0x3f800000	1.0
121	0x3f800000	1.0
122	0x3f800000	1.0
123	0x3f800000	1.0
124	0x3f800000	1.0
125	0x3f800000	1.0
126	0x3f800000	1.0
127	0x3f800000	1.0
128	0xbbce847b	-0.006302414
129	0xbb75b0d9	-0.0037489443
130	0xbbb3d95d	-0.005488558
131	0x389c73e4	7.460246e-05
132	0x00000000	0.0
133	0xbb97b38d	-0.0046295584
134	0xbbb20ae0	-0.0054334253
135	0xbbb4e7c9	-0.005520795
136	0x3c053c2d	0.008132023
137	0x00000000	0.0
138	0x3c0a2818	0.008432411
139	0xbb7e7635	-0.003882778
140	0x00000000	0.0
141	0x00000000	0.0
142	0xbbff41be	-0.0077898195
143	0x3ad5c484	0.0016309177
144	0xbb9f6ed6	-0.0048655076
145	0xbbe37ac6	-0.006942126
146	0xbbb5db1b	-0.005549801
147	0xbbbf6752	-0.005841174
148	0xbbe26e59	-0.006910127
149	0xbb3905c3	-0.0028232194
150	0x3b4f031b	0.0031587544
151	0xbb726240	-0.003698483
152	0x3b97723c	0.004621772
153	0xbbb8133d	-0.0056175278
154	0x00000000	0.0
155	0xbbd51a2b	-0.0065033636
156	0xbbd090a0	-0.006364897
157	0xbbcbfd8e	-0.0062252944
158	0xbb196792	-0.002340768
159	0xbbe15f33	-0.0068778037
160	0xbb7acaea	-0.003826792
161	0x00000000	0.0
162	0xbb9df5a8	-0.0048205443
163	0xbb8e370b	-0.0043400577
164	0x00000000	0.0
165	0xbbc3ed51	-0.005979218
166	0x00000000	0.0
167	0xbba4bde1	-0.005027518
168	0x3b45d4cd	0.0030186654
169	0xbb1100d7	-0.0022125745
170	0xbbd88e71	-0.006608777
171	0xbbc490cb	-0.005998706
172	0x3b2437c7	0.002505766
173	0x00000000	0.0
174	0xbb8f5109	-0.004373674
175	0x00000000	0.0
176	0x3aa03317	0.0012222257
177	0x00000000	0.0
178	0x3b3ee5fb	0.0029128778
179	0xbbc07eef	-0.0058745067
180	0xbb04ae19	-0.0020245372
181	0xbbe59cc3	-0.007007213
182	0xbbdcbbe5	-0.006736266
183	0xbb405d0c	-0.0029352335
184	0xbc001bda	-0.00781914
185	0x00000000	0.0
186	0xbbc7c1c5	-0.006096097
187	0xbbae6c9a	-0.005323005
188	0x3aceeffa	0.0015788071
189	0xbbabd96b	-0.005244424
190	0xbbeeb0f6	-0.007284279
191	0xbbc85c38	-0.006114509
192	0xba2e29aa	-0.00066437817
193	0xb71b4281	-9.254204e-06
194	0xb6d92816	-6.4717706e-06
195	0xb93184b7	-0.00016929476
196	0x00000000	0.0
197	0xb9290597	-0.00016119178
198	0xb8724eea	-5.777079e-05
199	0xb7505e45	-1.2419715e-05
200	0x388e2d7c	6.77956e-05
201	0x00000000	0.0
202	0x3858f2d1	5.1724553e-05
203	0xb98d535d	-0.00026955726
204	0x00000000	0.0
205	0x00000000	0.0
206	0xb827f3fb	-4.0043127e-05
207	0xb8eaf53e	-0.000112036694
208	0xb654b1b6	-3.1693903e-06
209	0xb80f30a9	-3.4139175e-05
210	0xb745c0cc	-1.1787004e-05
211	0xb96cf722	-0.00022598778
212	0xb9989e01	-0.0002910942
213	0xb9a1e764	-0.00030880712
214	0xb8be9a98	-9.088701e-05
215	0xb6ea03a6	-6.974168e-06
216	0xb86d1427	-5.652397e-05
217	0xb76f2006	-1.4252966e-05
218	0x00000000	0.0
219	0xb75a9ade	-1.302987e-05
220	0xb84ef9b0	-4.9346767e-05
221	0xb716af5a	-8.981524e-06
222	0xb4c98a71	-3.7539897e-07
223	0xb927519f	-0.00015956767
224	0xb6d5a794	-6.3674033e-06
225	0x00000000	0.0
226	0xb642d1b1	-2.903031e-06
227	0xb69a3355	-4.5955335e-06
228	0x00000000	0.0
229	0xb992bd00	-0.00027988106
230	0x00000000	0.0
231	0xb64b3298	-3.0278807e-06
232	0x3889bd1b	6.567893e-05
233	0xb62d5a40	-2.5831541e-06
234	0xb81e8821	-3.7796915e-05
235	0xb8715cba	-5.7545236e-05
236	0xb8bdcb31	-9.05007e-05
237	0x00000000	0.0
238	0xb5f072d7	-1.7914816e-06
239	0x00000000	0.0
240	0xb7752fc3	-1.4614258e-05
241	0x00000000	0.0
242	0xb9064282	-0.00012804012
243	0xb81864c6	-3.6333477e-05
244	0xb9e3dc3c	-0.000434609
245	0xb782437d	-1.5528634e-05
246	0xb7580e4b	-1.2877931e-05
247	0xb9cd6ad9	-0.00039180255
248	0xb93b0266	-0.00017834603
249	0x00000000	0.0
250	0xb99f240e	-0.00030353706
251	0xb70c437b	-8.360362e-06
252	0xb8d1c51d	-0.00010002612
253	0xb6a5e50c	-4.9440478e-06
254	0xb85d20f7	-5.2721207e-05
255	0xb75f4799	-1.3308506e-05

sequential_4/lstm_20/while/lstm_cell/MatMul_1 f4 [256, 64]
0	0xbc8e3b00	-0.017362118
1	0x3b6053a0	0.0034229532
2	0xbd61d066	-0.055130385
3	0x3d06e6a2	0.032934792
4	0x3be35b91	0.006938406
5	0xbcad811b	-0.021179726
6	0xbd3f693a	-0.04673121
7	0x3d772990	0.06034237
8	0xbe177505	-0.14790733
9	0xbc7cd960	-0.015432686
10	0x3d5d4ecc	0.054030225
11	0x3cac4930	0.021030992
12	0xbb52c500	-0.0032160878
13	0xbd6c7f14	-0.05773838
14	0x3cb54c8c	0.022131227
15	0xbbff0f30	-0.007783793
16	0x3d88dd4d	0.06682835
17	0xbcc725ef	-0.02431008
18	0x3deafec0	0.11474371
19	0x3d48586d	0.048912454
20	0x3ccac074	0.024749972
21	0x3dcfcc1b	0.10146352
22	0x3d9e1b24	0.077200204
23	0x3d8b2be6	0.06795482
24	0xbc7a0e30	-0.015262172
25	0xbcf0d874	-0.029400088
26	0x3e06bd54	0.1315816
27	0x3c8c6434	0.017137624
28	0xbd1f7395	-0.038928587
29	0xbe12ae06	-0.14324197
30	0xbd2eb3eb	-0.042652052
31	0xbd6f5bcc	-0.058437154
32	0xbd2e2162	-0.042512305
33	0x3e272bb3	0.16325264
34	0xbc208a1c	-0.009798553
35	0xbd217872	-0.039421506
36	0xbd994ee4	-0.0748575
37	0x3b2f5446	0.0026753112
38	0x3d1ee04d	0.03878813
39	0xbd2ac5d4	-0.04169257
40	0x3c0c8d00	0.008578539
41	0xbb830890	-0.0039988235
42	0x3d68d73a	0.05684588
43	0x3d29ebd6	0.041484676
44	0x3d515278	0.05110404
45	0x3d5df0c2	0.054184683
46	0x3d7b6ab7	0.061381068
47	0x3cb49fdd	0.022048885
48	0x3d062979	0.032754395
49	0x3dcb5132	0.09927596
50	0x3c3c4d0b	0.011492978
51	0xbd308e4f	-0.043104466
52	0xbdf29a0e	-0.1184579
53	0xbd8f84d4	-0.07007757
54	0xbe3729e8	-0.1788708
55	0xbd270852	-0.04077942
56	0x3ce5dbfe	0.028059002
57	0x3da22b68	0.07918435
58	0x3b3e27e2	0.0029015471
59	0x3d42929c	0.0475031
60	0x3d38dd99	0.045133207
61	0x3c540c72	0.01294242
62	0xbba8a126	-0.0051461635
63	0x3b109e28	0.0022066925
64	0xbde1cee1	-0.11025787
65	0xbd0a15a0	-0.03371203
66	0xbbbdea61	-0.0057957624
67	0xbdab5b7a	-0.08367057
68	0xbc8d1f76	-0.017226916
69	0xbdaf1499	-0.085488506
70	0xbd1bb440	-0.038013697
71	0xbdd3d5ef	-0.10343539
72	0x3d1779c6	0.036981367
73	0x3cc605b8	0.024172649
74	0x3ddbe858	0.107376754
75	0x3d2da8a0	0.04239714
76	0x3d70660a	0.058691062
77	0x3dca571b	0.09879895
78	0x3c4c9e6a	0.012488941
79	0xbc2e7789	-0.010648617
80	0xbd8088ce	-0.062760934
81	0x3ca85ba7	0.020551516
82	0xbd9382e5	-0.072027005
83	0xbd95c050	-0.07312071
84	0x3cc26b7a	0.02373289
85	0xbd9d2f98	-0.076750934
86	0xbdfd2f1d	-0.12362502
87	0x3d22017f	0.039552208
88	0x3c98484b	0.01858916
89	0xbd93d8b9	-0.07219071
90	0xbd57cd17	-0.052685823
91	0xbd43daf8	-0.047816247
92	0x3be5b71a	0.007010353
93	0x3cebe505	0.028795728
94	0xbe007cb2	-0.12547567
95	0xbd4f53bd	-0.05061697
96	0xbaa909fc	-0.0012896652
97	0x3d050e0a	0.03248409
98	0x3d7a4fdc	0.061111316
99	0xbbc27ff3	-0.005935663
100	0xbd1039dd	-0.035211433
101	0x3a08654e	0.0005203084
102	0x3d1202a1	0.03564704
103	0x3c78db70	0.015189037
104	0x39b5ac96	0.00034651597
105	0x3de8cbc2	0.11366989
106	0x3d6a378e	0.057181887
107	0xbc139386	-0.00900734
108	0x3ce26e56	0.027640503
109	0xbbfdda40	-0.0077469647
110	0x3ce52b85	0.027974853
111	0xbdc5bc1e	-0.09655021
112	0x3d2e25ad	0.0425164
113	0xbd05fc52	-0.032711335
114	0xbdf6e319	-0.12055034
115	0xbdb65598	-0.089030445
116	0x3dfa6e76	0.122281
117	0xbd0c2a3e	-0.034219973
118	0x3d266950	0.040627778
119	0xbbe529a2	-0.0069934884
120	0xbd6a9b37	-0.05727693
121	0xbc630356	-0.013855776
122	0x3e3430c1	0.17596723
123	0x3b304d2c	0.0026901467
124	0x3bcdb946	0.00627819
125	0xbcdf401c	-0.02725225
126	0xbcaf150b	-0.021372339
127	0xbaf84a33	-0.0018943012
128	0x3d714f88	0.058913738
129	0x3c6b7f05	0.014373546
130	0x3cf21240	0.029549718
131	0x3d264e1d	0.04060184
132	0x3d1d1762	0.038352378
133	0x3bb49941	0.0055114334
134	0xbc7cb09a	-0.0154229645
135	0xbdcfa94a	-0.10139711
136	0x3c149b77	0.009070269
137	0x3c55388d	0.013013971
138	0x3d96db27	0.07366019
139	0xbd8f2fc5	-0.06991533
140	0xbd3df870	-0.046379507
141	0x3a70202e	0.00091600686
142	0xbce772a5	-0.028252909
143	0x3d039162	0.03212107
144	0x3d6adb2a	0.057337917
145	0x3c18a15a	0.009315813
146	0xbcd30bfe	-0.025762554
147	0x3d8ca48f	0.068673246
148	0x3b037556	0.0020058951
149	0xbc92d85b	-0.017925432
150	0xbc9d6588	-0.019213453
151	0xbcd3bfea	-0.025848348
152	0xbce6dc63	-0.02818126
153	0x3d6a9e42	0.057279833
154	0x3dbb1f93	0.09136882
155	0x3d9fd2bf	0.078038685
156	0x3d4c51b1	0.049882594
157	0x3da0515a	0.078280166
158	0xbbc923f9	-0.0061383215
159	0xbcdc09e0	-0.026860178
160	0x3d73517d	0.059403885
161	0x3d4bafd0	0.049728215
162	0xbd2a1f1d	-0.04153358
163	0xbd555cde	-0.05209052
164	0x3d67ddf2	0.056608148
165	0x3db5b24f	0.088719
166	0x3d2aca3b	0.04169677
167	0x3d19a6be	0.037512533
168	0x3d4169a2	0.04721988
169	0xbd66b7c1	-0.056327585
170	0xbd4d5628	-0.050130993
171	0xbd78a6b2	-0.060705848
172	0xbc1a267b	-0.0094085885
173	0xbe098b1a	-0.1343197
174	0x3c622270	0.013802156
175	0xbbd6e984	-0.006558599
176	0x39b361a8	0.000342143
177	0x3d0b29c8	0.033975393
178	0xbcda238f	-0.026628284
179	0xbc7b8232	-0.015350865
180	0x3dacdc2b	0.08440431
181	0xbca97a34	-0.020688154
182	0xbdad7f81	-0.08471585
183	0x3cf70360	0.030152977
184	0xbab1ca26	-0.0013564273
185	0x3d6a9a44	0.057276025
186	0x3d2e7d3f	0.042599913
187	0x3ddf4c0a	0.10903175
188	0x3d9c384b	0.076279245
189	0xbb464e1d	-0.0030258961
190	0xbcc90f7e	-0.02454352
191	0x3cae8ee4	0.02130837
192	0x3d521e91	0.05129868
193	0x3d1073b7	0.035266604
194	0xbb26b5e4	-0.0025438005
195	0xbd96fa80	-0.07371998
196	0xbc4904bb	-0.012269194
197	0x3bb6ff32	0.005584621
198	0x3d0a728c	0.033800647
199	0xbe1b3a53	-0.15158968
200	0xbbe1bb46	-0.00688878
201	0x3ca5c78b	0.020236751
202	0xbe060047	-0.13086043
203	0xbca3822e	-0.019959535
204	0xbda4ed8c	-0.08053121
205	0xbd0c0481	-0.034183983
206	0x3df19514	0.117960125
207	0x3e1bb09a	0.15204087
208	0x3cb86253	0.022507822
209	0x3db3571e	0.08756851
210	0x3c64718f	0.01394309
211	0x3e2b3928	0.16721022
212	0x3d3f0cd2	0.046643086
213	0xbdd59f92	-0.10430826
214	0x3dfc9815	0.12333695
215	0x3d6da7e0	0.058021426
216	0xbcad5d4d	-0.021162653
217	0xbde629ea	-0.11238463
218	0xbdc0e7a0	-0.09419179
219	0x3d7b83a9	0.061404858
220	0x3dadc774	0.08485308
221	0x3d83259e	0.06403659
222	0xbd303fd3	-0.043029618
223	0x3d0338b4	0.0320365
224	0x3d57c30c	0.052676246
225	0xbd1c340c	-0.038135573
226	0xbe189f15	-0.14904435
227	0xbcced4d3	-0.025247967
228	0xbd8b2e17	-0.067959
229	0x3ddd00c0	0.10791159
230	0xbcf4221c	-0.02980142
231	0x3b61bd44	0.0034445086
232	0xbd933353	-0.07187524
233	0xbd84a940	-0.064775944
234	0x3d18931e	0.037249677
235	0xbd447694	-0.047964647
236	0x3d5d0340	0.053958178
237	0x3c32644d	0.010888171
238	0x3d6ddf66	0.058074377
239	0x3c1a722b	0.009426634
240	0x3d232e12	0.039838858
241	0x3da45105	0.08023266
242	0x3d0933a7	0.033496525
243	0x3cf88260	0.030335605
244	0xbc6db0a0	-0.014507443
245	0xbdb3e21f	-0.087833636
246	0x3c01115a	0.007877672
247	0x3db0640c	0.086128324
248	0xbdaf12c3	-0.085485004
249	0xbb8fb3f8	-0.0043854676
250	0x3a9bc1e0	0.0011883341
251	0xbdb08086	-0.08618264
252	0xbda9efa0	-0.08297658
253	0xbc61c0d9	-0.013778889
254	0xbcc161c5	-0.02360619
255	0xbcd309d4	-0.025761522

sequential_4/lstm_20/while/lstm_cell/MatMul f4 [256, 3]
0	0xbe093c15	-0.13401826
1	0xbddf16d8	-0.10893029
2	0xbdded22d	-0.108799316
3	0xbdb47390	-0.08811104
4	0x3dd51231	0.1040386
5	0x3dd9bfe3	0.106323026
6	0x3d844bc1	0.064597614
7	0xbe065639	-0.13118829
8	0xbcbee936	-0.023304563
9	0x3db515d1	0.08842052
10	0xbd8ecd7a	-0.06972785
11	0xbe0e3be3	-0.13890032
12	0x3e085f22	0.1331754
13	0xbdc806d4	-0.09766927
14	0xbd9b38cd	-0.07579193
15	0x3dd585f4	0.1042594
16	0xbd8ef3b2	-0.06980075
17	0xba5772ba	-0.0008218695
18	0x3db11059	0.08645696
19	0x3e1414e2	0.14461091
20	0xbdb8019f	-0.08984684
21	0xbd35f818	-0.044426054
22	0x3ded10ac	0.115754455
23	0xbe18250e	-0.14857885
24	0x3d4479db	0.047967773
25	0xbda68f99	-0.08132858
26	0xbd717f72	-0.058959432
27	0xbe01fa96	-0.12693247
28	0xbd876a6f	-0.066120975
29	0x3d3a4964	0.045480147
30	0x3dd6186d	0.104538776
31	0x3e1281d4	0.14307338
32	0x3dbcaabd	0.09212253
33	0xbdfc2ae3	-0.123128675
34	0x3d0d3add	0.034479965
35	0xbca9c2dc	-0.020722799
36	0x3d00514c	0.03132753
37	0xbcfe1acc	-0.031018637
38	0xbd1a0302	-0.037600525
39	0x3d06a878	0.032875508
40	0x3d519fe4	0.051177874
41	0xbdbf8128	-0.093508065
42	0xbde2b66e	-0.11069952
43	0x3d653eaa	0.055967964
44	0xbe0e2b70	-0.13883758
45	0xbcaa278b	-0.020770809
46	0xbdb68f12	-0.08914007
47	0xbd976686	-0.07392602
48	0x3db1455c	0.086558074
49	0xbd2cc453	-0.042179417
50	0x3e0f90d9	0.14020099
51	0xbb04e520	-0.002027817
52	0x3d5d893c	0.054085955
53	0x3e0ddde4	0.13854176
54	0x3ce9a44b	0.028520724
55	0xbdd3ef50	-0.103483796
56	0x3dce57af	0.10075318
57	0x3e144ff0	0.14483619
58	0x3d230557	0.039800014
59	0x3e10be57	0.14135109
60	0x3d06dfe8	0.032928377
61	0x3dd9b0d1	0.10629428
62	0xbbaeea80	-0.005338013
63	0x3e0454f8	0.12923038
64	0x3de3d0fb	0.11123844
65	0xbda8981d	-0.08232138
66	0xbce05750	-0.027385384
67	0x3cd2f079	0.025749432
68	0x3d6439f6	0.05571934
69	0xbe193161	-0.14960243
70	0xbd4e3e46	-0.050352357
71	0xbe0569b0	-0.13028598
72	0x3e125b3f	0.1429262
73	0x3da5d3b3	0.08097019
74	0x3d71c361	0.05902422
75	0x3dc794b1	0.097451575
76	0x3e0e6413	0.13905363
77	0xbd693fdd	-0.05694567
78	0x3dfe8288	0.124272406
79	0x3d3a0b24	0.04542078
80	0x3de40be8	0.111350834
81	0xbd908f16	-0.070585415
82	0x3bdd2431	0.006748699
83	0xbd0cd4ff	-0.034382816
84	0xbe0f9a6a	-0.14023748
85	0x3df04ece	0.11733781
86	0xbcbd8611	-0.023135217
87	0xbd7251c9	-0.059160028
88	0xbdf592b5	-0.11990873
89	0x3e1b13ea	0.15144315
90	0xbd77436e	-0.06036704
91	0xbde26ea0	-0.11056256
92	0x3e11a496	0.14222941
93	0x3dfb9989	0.12285144
94	0x3d32bfbd	0.043639887
95	0xbd81ed49	-0.06344087
96	0xbbbb7826	-0.00572111
97	0x3e1a85a4	0.15090042
98	0x3c163525	0.009167944
99	0x3df8850c	0.12134752
100	0x3e0dff0a	0.13866821
101	0x3dea570c	0.11442384
102	0xba8a1b49	-0.0010536696
103	0xbd46144a	-0.048359193
104	0x3e05e0e4	0.1307407
105	0xbb827893	-0.0039816587
106	0x3bf82233	0.0075724362
107	0xbd2f8528	-0.042851597
108	0x39df8800	0.00042635202
109	0x3d86513c	0.06558463
110	0xbcb23208	-0.021752372
111	0x3e058226	0.13037929
112	0xbd46ebde	-0.048564784
113	0x3d4ff004	0.050766006
114	0x3e0b6fe0	0.13616896
115	0xbd748ea2	-0.059706338
116	0xbcfef4d4	-0.031122603
117	0xbd48598b	-0.04891352
118	0x3c0e3eff	0.008682012
119	0xbd9f044d	-0.07764492
120	0xbcb0a934	-0.021565057
121	0xbd709696	-0.05873736
122	0xbe05f973	-0.13083439
123	0x3e060976	0.13089547
124	0x3c3eb116	0.0116389
125	0x3c9fe17f	0.019516705
126	0x3e0840a1	0.13305904
127	0xbdeacc44	-0.11464742
128	0xbda912c0	-0.082555294
129	0xbe02af66	-0.12762222
130	0xbe1a0dad	-0.1504428
131	0xbb6529ca	-0.0034967535
132	0xbda9f63f	-0.08298921
133	0x3d665cc2	0.056240804
134	0x3c9ccabc	0.01913964
135	0x3e017d24	0.12645394
136	0xbb731580	-0.0037091672
137	0x3d9a1d52	0.07525124
138	0x3e074d5a	0.13213101
139	0x3dd91fec	0.10601792
140	0x3df873a0	0.12131429
141	0x3d8b5a32	0.06804313
142	0x3df86204	0.1212807
143	0x3c244700	0.010026693
144	0x3d74d329	0.05977169
145	0xbdd8d851	-0.10588134
146	0x3ce68ff5	0.028144816
147	0x3dd21e18	0.10259646
148	0x3deeffbc	0.11669871
149	0x3d5b9608	0.053609878
150	0xbdde8d21	-0.10866762
151	0x3dd7b6b5	0.105328955
152	0xbc98a04b	-0.018631121
153	0x3d9529b7	0.07283347
154	0xbb8c1e76	-0.004276092
155	0x3d6c7f29	0.057738457
156	0xbd968f09	-0.073515005
157	0x3cfcafc9	0.03084554
158	0xbdf00b84	-0.117209464
159	0x3d36ae48	0.0445998
160	0x3dfcfbae	0.123526916
161	0x3d0aaabc	0.03385423
162	0x3de07c9d	0.10961268
163	0xbd6ba857	-0.05753359
164	0xbda6f8b7	-0.08152907
165	0xbd8e8cb4	-0.06960431
166	0x3d9baa0b	0.076007925
167	0xbcb098dd	-0.021557266
168	0x3c57aa36	0.01316314
169	0x3e0c877f	0.13723563
170	0x3d81b174	0.063326746
171	0xbdd7a560	-0.1052959
172	0x3e00fdc4	0.12596804
173	0x3d979808	0.074020445
174	0x3d016c16	0.03159722
175	0xbb1011f6	-0.0021983362
176	0xbdb2903d	-0.087189175
177	0xbd586b68	-0.052836806
178	0x3e062d00	0.13103104
179	0x3df32278	0.11871809
180	0x3e09ee50	0.13469815
181	0x3d895ee2	0.067075506
182	0xbdfd6074	-0.123719126
183	0x3e179871	0.14804246
184	0xbca39bd0	-0.019971758
185	0x3e16032c	0.14649647
186	0xbe17eae9	-0.14835705
187	0x3d463022	0.048385747
188	0x3d94fa2f	0.07274281
189	0x3dcf8e2d	0.1013454
190	0x3d7303d4	0.059329823
191	0xbe151c9a	-0.14561692
192	0x3d5358b8	0.05159828
193	0x3deb8928	0.1150077
194	0x3dfbfef8	0.12304491
195	0xbd8cd3fc	-0.0687637
196	0x3def4014	0.11682144
197	0x3ddb411c	0.10705778
198	0x3d9c2bf8	0.07625574
199	0x3c8a5250	0.016884953
200	0xbbdbca60	-0.0067074746
201	0xbd0a3356	-0.033740364
202	0xbda2ac7d	-0.07943056
203	0xbc011af0	-0.007879958
204	0x3dbe4870	0.0929116
205	0x3b67b3c0	0.0035354942
206	0x3d82df54	0.06390253
207	0x3e1b24c0	0.15150738
208	0xbe0d990a	-0.13827911
209	0xbe075a98	-0.13218153
210	0x3d52ec00	0.0514946
211	0x3aad8700	0.0013239086
212	0xbe022b8c	-0.12711924
213	0xbc04e2a0	-0.008110672
214	0x3d7a7eb0	0.061155975
215	0xbd4d7b6a	-0.050166525
216	0x3dcee580	0.101023674
217	0x3e167b00	0.14695358
218	0xbe0470a2	-0.12933591
219	0xbde19e10	-0.11016476
220	0x3e187472	0.1488817
221	0xbc49f7b0	-0.01232712
222	0x3d5b1e84	0.0534959
223	0x3d778904	0.060433403
224	0x3d962c4e	0.07332669
225	0xbcdc3bd0	-0.02688399
226	0x3c9212c0	0.017831206
227	0x3d916260	0.07098842
228	0xbab30180	-0.0013657063
229	0x3de7d2bc	0.11319491
230	0x3d96d3c0	0.07364607
231	0x3d90a934	0.07063523
232	0x3df6363c	0.12022063
233	0xbd8f6240	-0.070011616
234	0xbdab7f67	-0.083739094
235	0x3d78d2d0	0.06074792
236	0xbd8aa7b2	-0.067702666
237	0x3c9e97f0	0.019359559
238	0x3c096710	0.008386388
239	0x3e002ed8	0.1251787
240	0xbce8b584	-0.028406866
241	0x3da2228e	0.07916747
242	0x3cc18350	0.023622185
243	0x3e1b9028	0.1519171
244	0x3dda665c	0.10664055
245	0xbde3d780	-0.11125088
246	0x3d3c7cd0	0.046017468
247	0x3c7f5050	0.015583113
248	0x3d9c06fa	0.07618518
249	0xbc0bddf0	-0.008536801
250	0x3d881cb8	0.06646103
251	0x3ce2f000	0.027702332
252	0xbda76593	-0.081736706
253	0xbd15032a	-0.03637997
254	0x3d99e34c	0.075140566
255	0xbb29cc40	-0.0025909096

lstm_21/lstm_cell_1/bias1 f4 [128]
0	0xb5b1c4cd	-1.3244804e-06
1	0xb3bf7cf8	-8.916862e-08
2	0xb5898edb	-1.0248872e-06
3	0xb96b65c0	-0.00022449251
4	0xbb1fbbd9	-0.002437344
5	0xb5341905	-6.7091634e-07
6	0xbaee038f	-0.001815902
7	0xba7f395d	-0.0009736026
8	0xb5db48c5	-1.633795e-06
9	0xba7b55ed	-0.0009587694
10	0xbb33c30c	-0.002742949
11	0xb48b45a7	-2.5941446e-07
12	0xb414333d	-1.3802214e-07
13	0xbb0ee631	-0.0021804685
14	0xb7999d26	-1.83122e-05
15	0xb867e865	-5.5291126e-05
16	0xb9e9a58c	-0.00044564565
17	0xb9e0fe56	-0.00042914104
18	0xb68c8320	-4.18759e-06
19	0xb87a0e26	-5.961782e-05
20	0xbb8f17d3	-0.0043668537
21	0xb58d825a	-1.0543256e-06
22	0xb6556e1d	-3.1803568e-06
23	0xbb1a17fb	-0.0023512829
24	0xb6fd2f94	-7.5455264e-06
25	0xbb222b55	-0.0024745066
26	0xb67a8b10	-3.7333848e-06
27	0xb77a1d02	-1.4907915e-05
28	0xb996829b	-0.00028707538
29	0xbb8a334a	-0.00421754
30	0xbaff2fb8	-0.0019469177
31	0xb8d2e893	-0.00010056901
32	0x3f800000	1.0
33	0x3f800000	1.0
34	0x3f800000	1.0
35	0x3f800000	1.0
36	0x3f800000	1.0
37	0x3f800000	1.0
38	0x3f800000	1.0
39	0x3f800000	1.0
40	0x3f800000	1.0
41	0x3f800000	1.0
42	0x3f800000	1.0
43	0x3f800000	1.0
44	0x3f800000	1.0
45	0x3f800000	1.0
46	0x3f800000	1.0
47	0x3f800000	1.0
48	0x3f800000	1.0
49	0x3f800000	1.0
50	0x3f800000	1.0
51	0x3f800000	1.0
52	0x3f800000	1.0
53	0x3f800000	1.0
54	0x3f800000	1.0
55	0x3f800000	1.0
56	0x3f800000	1.0
57	0x3f800000	1.0
58	0x3f800000	1.0
59	0x3f800000	1.0
60	0x3f800000	1.0
61	0x3f800000	1.0
62	0x3f800000	1.0
63	0x3f800000	1.0
64	0xbbb4547b	-0.005503235
65	0xbb73fce8	-0.0037229601
66	0xbba69e74	-0.005084807
67	0x3c406e82	0.011745097
68	0xba4ef754	-0.0007895131
69	0xbb9a2a5a	-0.0047047557
70	0xbbdafa73	-0.006682688
71	0xbbefb74b	-0.0073155514
72	0xbbbe83a9	-0.005814035
73	0xbbf6ac83	-0.007527889
74	0x3b93a51e	0.0045057675
75	0xbb891440	-0.004183322
76	0xbb5e0e8e	-0.0033883187
77	0xbbcc1352	-0.006227889
78	0xbbc1c561	-0.005913422
79	0xbba8b107	-0.0051480564
80	0xbba93390	-0.0051636174
81	0x3ba7aefa	0.0051172944
82	0xbbb13c9d	-0.005408837
83	0xbbc32af4	-0.005956048
84	0xbbe8c644	-0.007103713
85	0xbbb4ea1f	-0.0055210735
86	0xbbbd59f8	-0.0057785474
87	0xbc02ac6b	-0.007975678
88	0xbbbd9e83	-0.0057867183
89	0xbbd45b2f	-0.0064805965
90	0xbb97c3b2	-0.004631483
91	0xbbc19e8c	-0.005908793
92	0xbb973301	-0.0046142344
93	0xbad125a4	-0.0015956652
94	0xbbe38b9e	-0.006944134
95	0xbbd81edc	-0.0065954756
96	0xb5b1c146	-1.3243778e-06
97	0xb3bf8138	-8.917635e-08
98	0xb5898638	-1.0246358e-06
99	0xb96b2333	-0.00022424459
100	0xbb1fbbce	-0.0024373415
101	0xb5341ac8	-6.70942e-07
102	0xbaee207b	-0.0018167639
103	0xba7f292d	-0.00097336137
104	0xb5db219a	-1.6326551e-06
105	0xba7b565b	-0.0009587758
106	0xbb33bd11	-0.0027425925
107	0xb48b4bc0	-2.5945883e-07
108	0xb414326d	-1.3801919e-07
109	0xbb0ef1e2	-0.0021811654
110	0xb799a247	-1.8314588e-05
111	0xb867e585	-5.528845e-05
112	0xb9e99e0d	-0.0004455898
113	0xb9e0fbbd	-0.0004291217
114	0xb68c7f94	-4.187177e-06
115	0xb879fd9b	-5.9602415e-05
116	0xbb8f1402	-0.004366399
117	0xb58d82c2	-1.0543374e-06
118	0xb6556fe4	-3.1804602e-06
119	0xbb1a1a77	-0.002351431
120	0xb6fd3708	-7.546394e-06
121	0xbb222c91	-0.0024745802
122	0xb67a6891	-3.7313769e-06
123	0xb77a0c04	-1.4903959e-05
124	0xb9967880	-0.0002870001
125	0xbb8a33e8	-0.0042176135
126	0xbaff3bb3	-0.0019472748
127	0xb8d2f16d	-0.000100585494
