lstm987_ae_0802.tflite (tflite, 221676 bytes, 10 tensors)

time_distributed_9/bias f4 [4]
0.06812905 0.063489385 0.031770926 0.04989578
00000000: 3e87 8b3d b906 823d 3b22 023d 845f 4c3d

lstm_44/lstm_cell_56/bias f4 [256]
0.047978636 0.09493868 0.046531796 0.06033675 0.05928209 0.0546889 0.06392442 0.046629295
0.059063833 0.054189984 0.049794234 0.056371704 0.059952334 0.0735836 0.06468956 0.1782631
0.048398934 0.063934155 0.08485179 0.064310774 0.09166585 0.054568127 0.06136403 0.04334128
0.061610222 0.04268691 0.052035198 0.052280296 0.059908085 0.05568577 0.07802801 0.05886007
0.047704138 0.062103502 0.05898843 0.04517097 0.05616489 0.024890324 0.05075869 0.049289882
0.10139415 0.02894443 0.063706264 0.060463175 0.051776502 0.048944578 0.046614118 0.06556984
0.0457605 0.063637845 0.056977358 0.031472795 0.06329943 0.0498643 0.054635916 0.063544124
0.056035142 0.054615367 0.086043105 0.039886564 0.0637539 0.03777921 0.058033567 0.067316376
1.0 1.0 1.0 1.0 1.0 1.0 1.0 1.0
1.0 1.0 1.0 1.0 1.0 1.0 1.0 1.0
1.0 1.0 1.0 1.0 1.0 1.0 1.0 1.0
1.0 1.0 1.0 1.0 1.0 1.0 1.0 1.0
1.0 1.0 1.0 1.0 1.0 1.0 1.0 1.0
1.0 1.0 1.0 1.0 1.0 1.0 1.0 1.0
1.0 1.0 1.0 1.0 1.0 1.0 1.0 1.0
1.0 1.0 1.0 1.0 1.0 1.0 1.0 1.0
-0.04238744 -0.014097273 0.02619279 0.038734645 0.024280807 -0.03467751 0.05144315 0.032116048
0.00931523 0.0331826 0.036790397 -0.04698118 -0.046452377 0.026400845 -0.012561248 0.02938832
0.030310389 -0.051895313 -1.4627323e-05 -0.04847664 0.042530812 0.03478251 0.032496277 0.0364053
-0.033001974 -0.0020039496 -0.033242807 -0.024578433 0.046538662 -0.013867785 0.042396057 -0.02966633
0.033887602 0.0058030006 -0.044555582 0.03648609 -0.030103147 0.03555512 0.041662972 -0.035423085
0.017238086 -0.019105723 -0.046316504 -0.059477475 0.02594676 0.024934836 -0.035393402 0.022616351
0.012346893 -0.03789801 0.023077909 0.035026662 0.021759957 0.008462978 0.07149831 -0.0055921506
0.015502208 -0.033597074 -0.011938647 -0.051314387 0.050444197 0.035315786 -0.032765344 0.043700825
0.047565866 0.09504986 0.04719537 0.058811937 0.05961791 0.05411932 0.06334792 0.046420433
0.05971845 0.055286527 0.0503731 0.056032404 0.05871283 0.074073054 0.06378274 0.17781687
0.048357297 0.06411098 0.08541872 0.06586951 0.0923801 0.055477448 0.062196992 0.043828215
0.06159422 0.04416954 0.0516478 0.051650386 0.059742246 0.054492235 0.07932844 0.05952579
0.047266982 0.061572403 0.0592295 0.04556751 0.055311 0.025044974 0.0505463 0.049349997
0.10049156 0.0277601 0.065085575 0.0624696 0.05303239 0.050483257 0.046015117 0.06658442
0.04672993 0.06405581 0.056843746 0.03119267 0.06353688 0.051971182 0.05574473 0.06369964
0.05665621 0.05376405 0.086283304 0.042901345 0.06345486 0.037969533 0.058647335 0.067748
00000000: 3f85 443d 366f c23d 2098 3e3d ab23 773d
00000010: c7d1 723d 7801 603d ceea 823d 5cfe 3e3d
00000020: ebec 713d 51f6 5d3d 0af5 4b3d 04e6 663d
00000030: 9490 753d 00b3 963d f67b 843d 9a8a 363e
00000040: f63d 463d e9ef 823d c6c6 ad3d 5eb5 833d
00000050: 4ebb bb3d d482 5f3d d958 7b3d a086 313d
00000060: 005b 7c3d 78d8 2e3d dc22 553d dd23 563d
00000070: 2e62 753d c316 643d 26cd 9f3d 4217 713d
00000080: 6a65 433d 3e60 7e3d da9d 713d 3205 393d
00000090: 280d 663d cbe6 cb3c 58e8 4f3d 30e4 493d
000000a0: bca7 cf3d df1c ed3c 6e78 823d 3ca8 773d
000000b0: 9913 543d 1c7a 483d 72ee 3e3d 7b49 863d
000000c0: 5d6f 3b3d 8f54 823d 1761 693d 9ee9 003d
000000d0: 22a3 813d 823e 4c3d e9c9 5f3d 6c23 823d
000000e0: 1b85 653d 5db4 5f3d 5e37 b03d 1860 233d
000000f0: 6891 823d 5fbe 1a3d 9bb4 6d3d 2bdd 893d
00000100: 0000 803f 0000 803f 0000 803f 0000 803f
00000110: 0000 803f 0000 803f 0000 803f 0000 803f
00000120: 0000 803f 0000 803f 0000 803f 0000 803f
00000130: 0000 803f 0000 803f 0000 803f 0000 803f
00000140: 0000 803f 0000 803f 0000 803f 0000 803f
00000150: 0000 803f 0000 803f 0000 803f 0000 803f
00000160: 0000 803f 0000 803f 0000 803f 0000 803f
00000170: 0000 803f 0000 803f 0000 803f 0000 803f
00000180: 0000 803f 0000 803f 0000 803f 0000 803f
00000190: 0000 803f 0000 803f 0000 803f 0000 803f
000001a0: 0000 803f 0000 803f 0000 803f 0000 803f
000001b0: 0000 803f 0000 803f 0000 803f 0000 803f
000001c0: 0000 803f 0000 803f 0000 803f 0000 803f
000001d0: 0000 803f 0000 803f 0000 803f 0000 803f
000001e0: 0000 803f 0000 803f 0000 803f 0000 803f
000001f0: 0000 803f 0000 803f 0000 803f 0000 803f
00000200: 749e 2dbd 40f8 66bc 4392 d63c 38a8 1e3d
00000210: 8be8 c63c 010a 0ebd 0db6 523d 1e8c 033d
00000220: e89e 183c 7aea 073d 87b1 163d 566f 40bd
00000230: d944 3ebd 9646 d83c b1cd 4dbc c6bf f03c
00000240: 7e4d f83c 2e90 54bd e067 75b7 718f 46bd
00000250: ca34 2e3d 1b78 0e3d d11a 053d b91d 153d
00000260: 142d 07bd b254 03bb 9c29 08bd b658 c9bc
00000270: 539f 3e3d b535 63bc 7da7 2d3d ce06 f3bc
00000280: bacd 0a3d 1927 be3b ea7f 36bd 7072 153d
00000290: e09a f6bc 3fa2 113d cba6 2a3d cc17 11bd
000002a0: e336 8d3c 9b83 9cbc 60b6 3dbd a79e 73bd
000002b0: 4d8e d43c 2444 cc3c acf8 10bd ed45 b93c
000002c0: 9f4a 4a3c f23a 1bbd e20d bd3c 1e78 0f3d
000002d0: f041 b23c 4da8 0a3c b56d 923d 5c3e b7bb
000002e0: f9fc 7d3c 169d 09bd 519a 43bc 092f 52bd
000002f0: 939e 4e3d 49a7 103d f434 06bd a3ff 323d
00000300: 6dd4 423d 80a9 c23d ef4f 413d c9e4 703d
00000310: e931 743d 38ac 5d3d 8ebc 813d 5a23 3e3d
00000320: 559b 743d 2074 623d 0654 4e3d 3c82 653d
00000330: dd7c 703d 9db3 973d 86a0 823d a015 363e
00000340: 4d12 463d 9e4c 833d 03f0 ae3d 98e6 863d
00000350: c731 bd3d 523c 633d 46c2 7e3d 3785 333d
00000360: 394a 7c3d 1feb 343d a58c 533d 5b8f 533d
00000370: 49b4 743d 4033 5f3d f376 a23d 51d1 733d
00000380: 069b 413d 5833 7c3d a29a 723d ffa4 3a3d
00000390: ca8d 623d 1e2b cd3c a309 4f3d 3923 4a3d
000003a0: 85ce cd3d 2669 e33c 964b 853d 20e0 7f3d
000003b0: 7e38 593d 88c7 4e3d 597a 3c3d 6a5d 883d
000003c0: e267 3f3d b12f 833d fdd4 683d c587 ff3c
000003d0: a01f 823d bcdf 543d 9654 643d f574 823d
000003e0: 5810 683d b137 5c3d 4db5 b03d 52b9 2f3d
000003f0: 9ff4 813d f185 1b3d 3038 703d 77bf 8a3d

lstm_43/lstm_cell_55/bias f4 [256]
0.05571565 0.07602763 0.2979087 0.13550231 0.095782936 0.06330458 0.25468037 0.050248113
0.073460564 0.05490693 0.045425646 0.06978492 0.055254605 0.03682909 0.3392925 0.056866184
0.05192766 0.4850941 0.03767743 0.038733862 0.03253503 0.059443757 0.03863843 0.057348084
0.48629916 0.041914396 0.05961608 0.06487193 0.08344749 0.05549122 0.08308083 0.028040128
0.085625574 0.06959455 0.035580087 0.044962104 0.11957918 0.035274018 0.06743813 0.0714597
0.024219971 0.035366327 0.031651985 0.18808405 0.052202452 0.09143175 0.044726603 0.36669663
0.0037849073 0.04598837 0.01658485 0.031292047 0.06482455 0.055272367 0.18479086 0.04689145
0.042729452 0.06787625 0.0719992 0.042473916 0.031526368 0.060817003 0.057808552 0.21157552
1.0 1.0 1.0 1.0 1.0 1.0 1.0 1.0
1.0 1.0 1.0 1.0 1.0 1.0 1.0 1.0
1.0 1.0 1.0 1.0 1.0 1.0 1.0 1.0
1.0 1.0 1.0 1.0 1.0 1.0 1.0 1.0
1.0 1.0 1.0 1.0 1.0 1.0 1.0 1.0
1.0 1.0 1.0 1.0 1.0 1.0 1.0 1.0
1.0 1.0 1.0 1.0 1.0 1.0 1.0 1.0
1.0 1.0 1.0 1.0 1.0 1.0 1.0 1.0
0.008063221 0.02287426 0.03290643 0.0052035963 0.018892232 0.008746479 0.05276806 -0.0067877085
0.004958943 0.012983762 0.002001468 -0.011926267 0.005959019 -0.035390396 0.03741151 -0.0007398055
0.003976409 0.00030460517 -0.011373048 0.0016481042 0.014781163 -0.0030917036 -0.012128225 0.0017351108
0.03293564 -0.005501876 0.008488359 -0.012522834 -0.037423085 0.0017721392 0.013438496 -0.017213127
-0.009464752 -0.0029143167 0.03076096 0.019510193 -0.0068517122 -0.019632943 0.0016490687 0.013454697
0.0409756 -0.0064352425 -0.029507386 -0.017855791 -0.0004037975 -0.0045809 0.008692978 0.06657713
0.04448173 0.010353065 -0.0066564865 -0.0129349865 0.00034202734 0.005068016 -0.041410804 -0.008177391
-0.006657661 -0.018257247 0.005809588 -0.0009086854 0.023331145 -0.001278061 -0.0049269143 -0.05342054
0.057945583 0.07741388 0.30053663 0.1349888 0.09486745 0.05928383 0.25444558 0.049875468
0.07319931 0.055892196 0.047781765 0.07335676 0.054654267 0.033158496 0.3388456 0.059693664
0.053621393 0.48577163 0.038272027 0.03801663 0.032277543 0.06158319 0.04090106 0.056066494
0.48717788 0.041784618 0.05912985 0.062572375 0.08316434 0.057575297 0.08211367 0.032468606
0.08913535 0.06443232 0.032225825 0.041643366 0.11497385 0.03894338 0.058652226 0.07440474
0.021421496 0.039524533 0.03668169 0.18772641 0.051696043 0.08914326 0.04839666 0.3682047
0.0021352551 0.046376057 0.018476838 0.03038928 0.057985168 0.054848354 0.18290006 0.045968886
0.043725904 0.0717844 0.06779484 0.044579096 0.03346368 0.0637037 0.05329266 0.21247417
00000000: 1836 643d 60b4 9b3d 7d87 983e 1ec1 0a3e
00000010: d829 c43d d5a5 813d 7765 823e f7d0 4d3d
00000020: 7e72 963d 17e6 603d 3e10 3a3d 65eb 8e3d
00000030: a752 623d 1ada 163d bfb7 ad3e 84ec 683d
00000040: 19b2 543d 415e f83e a653 1a3d 66a7 1e3d
00000050: 7443 053d 4c7b 733d 5543 1e3d d3e5 6a3d
00000060: 34fc f83e 6eae 2b3d fe2f 743d 93db 843d
00000070: 85e6 aa3d c34a 633d 4826 aa3d 69b4 e53c
00000080: 765c af3d 9687 8e3d 6dbc 113d 2f2a 383d
00000090: eee5 f43d 7d7b 103d 011d 8a3d 7759 923d
000000a0: f668 c63c 48dc 103d 83a5 013d 1b99 403e
000000b0: 3dd2 553d 9240 bb3d 3e33 373d a9bf bb3e
000000c0: 350c 783b 4d5e 3c3d f4dc 873c 172c 003d
000000d0: bcc2 843d 4765 623d d139 3d3e 4011 403d
000000e0: 1405 2f3d b402 8b3d 5174 933d 21f9 2d3d
000000f0: cb21 013d 401b 793d a9c8 6c3d 41a7 583e
00000100: 0000 803f 0000 803f 0000 803f 0000 803f
00000110: 0000 803f 0000 803f 0000 803f 0000 803f
00000120: 0000 803f 0000 803f 0000 803f 0000 803f
00000130: 0000 803f 0000 803f 0000 803f 0000 803f
00000140: 0000 803f 0000 803f 0000 803f 0000 803f
00000150: 0000 803f 0000 803f 0000 803f 0000 803f
00000160: 0000 803f 0000 803f 0000 803f 0000 803f
00000170: 0000 803f 0000 803f 0000 803f 0000 803f
00000180: 0000 803f 0000 803f 0000 803f 0000 803f
00000190: 0000 803f 0000 803f 0000 803f 0000 803f
000001a0: 0000 803f 0000 803f 0000 803f 0000 803f
000001b0: 0000 803f 0000 803f 0000 803f 0000 803f
000001c0: 0000 803f 0000 803f 0000 803f 0000 803f
000001d0: 0000 803f 0000 803f 0000 803f 0000 803f
000001e0: 0000 803f 0000 803f 0000 803f 0000 803f
000001f0: 0000 803f 0000 803f 0000 803f 0000 803f
00000200: 9a1b 043c cd62 bb3c e5c8 063d ee82 aa3b
00000210: e2c3 9a3c 644d 0f3c 5223 583d 6d6b debb
00000220: a17e a23b d8b9 543c 102b 033b 6466 43bc
00000230: e043 c33b 85f5 10bd d03c 193d 82ef 41ba
00000240: 894c 823b 6ab3 9f39 0556 3abc 3305 d83a
00000250: b12c 723c 2e9e 4abb 76b5 46bc a86c e33a
00000260: 86e7 063d 1549 b4bb c212 0b3c 932c 4dbc
00000270: f348 19bd 2047 e83a 232d 5c3c 8b02 8dbc
00000280: 0c12 1bbc 1ffe 3ebb 69fe fb3c d7d3 9f3c
00000290: 5484 e0bb 44d5 a0bc 9025 d83a 1771 5c3c
000002a0: 08d6 273d bade d2bb 79b9 f1bc 4f46 92bc
000002b0: c8b4 d3b9 601b 96bb fe6c 0e3c 9759 883d
000002c0: 7932 363d e79f 293c a81e dabb 44ed 53bc
000002d0: 2252 b339 9911 a63b 609e 29bd 77fa 05bc
000002e0: 8228 dabb 3990 95bc 5b5e be3b d834 6eba
000002f0: f520 bf3c 9c84 a7ba f471 a1bb 7fcf 5abd
00000300: 5958 6d3d 2b8b 9e3d f0df 993e 813a 0a3e
00000310: de49 c23d 9ad3 723d b146 823e 384a 4c3d
00000320: 85e9 953d 37ef 643d d0b6 433d 123c 963d
00000330: 27dd 5f3d 34d1 073d 2c7d ad3e 5881 743d
00000340: 1ba2 5b3d 0fb7 f83e 21c3 1c3d 53b7 1b3d
00000350: 7535 043d a83e 7c3d df87 273d fba5 653d
00000360: 616f f93e 5926 2b3d 2432 723d f225 803d
00000370: 1152 aa3d 13d4 6b3d 362b a83d cdfd 043d
00000380: 988c b63d 18f5 833d 3aff 033d 3c92 2a3d
00000390: 6977 eb3d 1883 1f3d 513d 703d 8361 983d
000003a0: 227c af3c 7ae4 213d 8a3f 163d 5a3b 403e
000003b0: 3bbf 533d be90 b63d 933b 463d 5485 bc3e
000003c0: a3ef 0b3b d2f4 3d3d bd5c 973c f0f2 f83c
000003d0: db81 6d3d aba8 603d 274a 3b3e df49 3c3d
000003e0: ef19 333d b303 933d 05d8 8a3d 9298 363d
000003f0: 3611 093d 1677 823d 6749 5a3d d492 593e

sequential_18/time_distributed_9/dense_9/MatMul f4 [4, 64]
-0.3344747 0.20217453 -0.0032712382 0.24744539 0.039367583 -0.25301254 0.20497014 0.25497246
0.2532819 0.27774942 0.113371916 -0.20236409 -0.3448727 0.23926428 0.2759435 0.2754913
0.05240083 -0.2858643 0.01620705 -0.33142313 0.17609733 0.17032488 0.042093165 0.3474262
-0.11823574 0.09727047 0.022557821 0.07620444 0.27297363 0.0548512 -0.03266816 -0.20286898
0.24992298 0.18113385 -0.3312936 0.3114251 -0.13895486 0.052943643 0.02288789 -0.32250753
-0.08575733 -0.21636577 -0.13769141 -0.35968137 0.27836442 0.14288895 -0.23311932 -0.15599385
0.051920686 -0.061803766 -0.15399909 0.3299818 0.06909194 -0.017278615 0.20146583 0.19486055
-0.21805398 -0.29612863 -0.12655972 -0.2601499 0.30382115 0.17814152 -0.20178707 0.2520117
-0.30923244 -0.14196882 0.31652412 0.1857552 0.30766326 -0.022363914 0.13068233 0.3216234
-0.12383479 0.0064332276 0.19692089 -0.3298177 -0.22759505 -0.2772308 -0.33197546 -0.028256966
0.27969375 -0.1909582 0.18390828 0.054741245 -0.048196394 0.18832015 0.22630283 0.25944653
-0.007004301 0.09273978 -0.1365135 -0.29242027 0.21071854 -0.18443626 0.15926006 -0.23802859
-0.014066022 -0.1390135 -0.18444943 0.25984251 -0.044234857 0.321415 0.29579902 -0.16155702
0.31886247 0.12093135 -0.32436326 -0.0045467135 0.22674261 0.033910844 -0.18677655 0.34592965
0.046440747 -0.3259337 0.28147587 0.23937762 0.29990366 -0.0010097404 0.18660617 -0.28434405
0.27205107 0.032741033 0.0017276512 -0.20741318 0.24863607 0.20404553 0.062851906 0.26723328
0.01827782 -0.21539894 0.23232888 -0.18176496 0.31343818 -0.22107272 -0.06885656 0.2811797
0.32583296 0.28206828 0.18705645 0.054460026 -0.011561534 0.110265076 -0.11713976 -0.112910405
0.22853535 -0.1025969 0.36346468 0.21836329 -0.0657517 0.277577 0.26282027 0.027020697
-0.10284543 -0.32574636 0.037757665 -0.056732208 0.031564835 0.38001424 -0.23978436 -0.32811016
0.29019934 0.19140409 -0.16086815 0.21423498 -0.17098701 0.25564846 0.077870436 -0.23272417
0.3634897 -0.23073414 0.13170847 -0.036640417 0.297575 0.1834195 -0.3206198 0.18429562
0.2958042 0.12600794 0.08136871 0.23697016 0.2645759 0.3412702 -0.061575063 -0.2370699
0.30066207 0.03515513 0.20129682 0.24067283 -0.14429519 0.014858256 -0.14528848 0.102508955
-0.28646973 -0.2791311 0.12031068 0.3438514 -0.16835909 -0.15404925 0.32288966 0.13772108
-0.0240666 0.202933 0.12558854 0.19888477 -0.15185209 0.20975696 -0.2780075 -0.4084134
0.09132771 0.09450767 -0.23056978 -0.18715052 0.22150335 0.04508442 0.10179485 0.22282158
-0.121243834 -0.32073668 -0.20945533 -0.077832446 0.28819793 0.051244404 0.38896528 0.16718777
-0.04176853 0.30057636 -0.018254897 0.18628986 -0.14438768 0.29206458 -0.053131424 -0.19888969
-0.3077326 -0.069293074 0.024486316 0.14388071 -0.21461082 0.30522794 -0.24135055 0.19730654
-0.046576016 -0.32119513 0.06746838 0.32963496 -0.2628857 0.14235066 -0.11963441 -0.16261835
0.27145177 -0.21930839 0.23694032 -0.20220493 0.23598723 0.22313678 -0.22111145 -0.21097994
00000000: 4540 abbe d706 4f3e 4562 56bb 5362 7d3e
00000010: e73f 213d dc8a 81be b1e3 513e c08b 823e
00000020: 2aae 813e 2c35 8e3e 892f e83d 8838 4fbe
00000030: 2893 b0be b201 753e 7748 8d3e 320d 8d3e
00000040: 41a2 563d ce5c 92be a6c4 843c 4bb0 a9be
00000050: dc52 343e a569 2e3e e269 2c3d d9e1 b13e
00000060: 9425 f2bd bd35 c73d 2ecb b83c 1311 9c3d
00000070: 33c3 8b3e a7ab 603d 0ccf 05bd e3bc 4fbe
00000080: cfeb 7f3e 277b 393e 519f a9be 1c73 9f3e
00000090: 2f4a 0ebe 6fdb 583d 627f bb3c b51f a5be
000000a0: 8aa1 afbd fd8e 5dbe fafe 0cbe 2828 b8be
000000b0: c885 8e3e 7b51 123e d5b6 6ebe dabc 1fbe
000000c0: c9aa 543d f225 7dbd f0b1 1dbe 60f3 a83e
000000d0: 1380 8d3d e28b 8dbc 0f4d 4e3e 8689 473e
000000e0: 8b49 5fbe 2c9e 97be df98 01be 5e32 85be
000000f0: 728e 9b3e bb6a 363e 45a1 4ebe ad07 813e
00000100: b753 9ebe 4660 11be 730f a23e 9c36 3e3e
00000110: 0a86 9d3e 8734 b7bc 97d1 053e d3ab a43e
00000120: 189d fdbd d3cd d23b a1a5 493e dedd a8be
00000130: ad0e 69be 32f1 8dbe b0f8 a9be 277b e7bc
00000140: 0534 8f3e 8c8a 43be 7452 3c3e 5b38 603d
00000150: 9569 45bd ffd6 403e eebb 673e 2dd6 843e
00000160: 5684 e5bb 5bee bd3d 32ca 0bbe 1cb8 95be
00000170: 9ac6 573e dcdc 3cbe 1215 233e c4bd 73be
00000180: 2c75 66bc 8e59 0ebe 50e0 3cbe 140a 853e
00000190: 9c2f 35bd 8290 a43e f872 973e 346f 25be
000001a0: f141 a33e dbaa f73d f112 a6be 99fc 94bb
000001b0: 372f 683e 19e6 0a3d 5a42 3fbe b11d b13e
000001c0: a738 3e3d c8e0 a6be 9b1d 903e 681f 753e
000001d0: f98c 993e 4459 84ba b015 3f3e 8b95 91be
000001e0: 474a 8b3e 761b 063d 5b72 e23a 1f64 54be
000001f0: 749a 7e3e 50f1 503e 80b8 803d cdd2 883e
00000200: 5ebb 953c 8a91 5cbe 9fe7 6d3e 9820 3abe
00000210: f87a a03e e360 62be ab04 8dbd c9f6 8f3e
00000220: 94d3 a63e 416b 903e ba8b 3f3e 7a11 5f3d
00000230: 976c 3dbc a8d2 e13d f8e6 efbd 923d e7bd
00000240: 2c05 6a3e 531e d2bd 0b18 ba3e a09a 5f3e
00000250: d4a8 86bd 931e 8e3e 6190 863e 825a dd3c
00000260: a0a0 d2bd 3ac8 a6be c8a7 1a3d 0860 68bd
00000270: 214a 013d 3a91 c23e 088a 75be 0efe a7be
00000280: 0295 943e 6fff 433e 9fba 24be 6a60 5b3e
00000290: 3817 2fbe 5be4 823e 897a 9f3d 3f4f 6ebe
000002a0: 521b ba3e 9245 6cbe 96de 063e 4314 16bd
000002b0: c05b 983e 52d2 3b3e 4728 a4be feb7 3c3e
000002c0: a673 973e 3a08 013e a3a4 a63d 4ea8 723e
000002d0: 7e76 873e f8ba ae3e 2236 7cbd 74c2 72be
000002e0: 61f0 993e d3fe 0f3d c120 4e3e f072 763e
000002f0: 1ec2 13be 0b70 733c 81c6 14be 37f0 d13d
00000300: 29ac 92be 46ea 8ebe 7265 f63d 4a0d b03e
00000310: 5366 2cbe 16bf 1dbe cb51 a53e c106 0d3e
00000320: 5127 c5bc abcd 4f3e 489a 003e 73a8 4b3e
00000330: 1d7f 1bbe 87ca 563e 0057 8ebe 901b d1be
00000340: 060a bb3d 3d8d c13d 7c1a 6cbe 63a4 3fbe
00000350: c6d1 623e 71aa 383d d179 d03d 572b 643e
00000360: b04e f8bd 9937 a4be 757b 56be 9e66 9fbd
00000370: ae8e 933e a7e5 513d 7526 c73e 4533 2b3e
00000380: 7a15 2bbd 25e5 993e 4b8b 95bc c5c2 3e3e
00000390: 5dda 13be 7d89 953e 56a0 59bd bda9 4bbe
000003a0: 218f 9dbe 87e9 8dbd 8797 c83c 7755 133e
000003b0: f0c2 5bbe d646 9c3e 9924 77be ba0a 4a3e
000003c0: 7ec6 3ebd b073 a4be dd2c 8a3d eac5 a83e
000003d0: f498 86be 5fc4 113e e302 f5bd 6d85 26be
000003e0: bafb 8a3e 6192 60be 7ca0 723e cf0e 4fbe
000003f0: a3a6 713e f87d 643e 0a6b 62be 200b 58be

lstm_43/lstm_cell_55/bias1 f4 [256]
0.05571565 0.07602763 0.2979087 0.13550231 0.095782936 0.06330458 0.25468037 0.050248113
0.073460564 0.05490693 0.045425646 0.06978492 0.055254605 0.03682909 0.3392925 0.056866184
0.05192766 0.4850941 0.03767743 0.038733862 0.03253503 0.059443757 0.03863843 0.057348084
0.48629916 0.041914396 0.05961608 0.06487193 0.08344749 0.05549122 0.08308083 0.028040128
0.085625574 0.06959455 0.035580087 0.044962104 0.11957918 0.035274018 0.06743813 0.0714597
0.024219971 0.035366327 0.031651985 0.18808405 0.052202452 0.09143175 0.044726603 0.36669663
0.0037849073 0.04598837 0.01658485 0.031292047 0.06482455 0.055272367 0.18479086 0.04689145
0.042729452 0.06787625 0.0719992 0.042473916 0.031526368 0.060817003 0.057808552 0.21157552
1.0 1.0 1.0 1.0 1.0 1.0 1.0 1.0
1.0 1.0 1.0 1.0 1.0 1.0 1.0 1.0
1.0 1.0 1.0 1.0 1.0 1.0 1.0 1.0
1.0 1.0 1.0 1.0 1.0 1.0 1.0 1.0
1.0 1.0 1.0 1.0 1.0 1.0 1.0 1.0
1.0 1.0 1.0 1.0 1.0 1.0 1.0 1.0
1.0 1.0 1.0 1.0 1.0 1.0 1.0 1.0
1.0 1.0 1.0 1.0 1.0 1.0 1.0 1.0
0.008063221 0.02287426 0.03290643 0.0052035963 0.018892232 0.008746479 0.05276806 -0.0067877085
0.004958943 0.012983762 0.002001468 -0.011926267 0.005959019 -0.035390396 0.03741151 -0.0007398055
0.003976409 0.00030460517 -0.011373048 0.0016481042 0.014781163 -0.0030917036 -0.012128225 0.0017351108
0.03293564 -0.005501876 0.008488359 -0.012522834 -0.037423085 0.0017721392 0.013438496 -0.017213127
-0.009464752 -0.0029143167 0.03076096 0.019510193 -0.0068517122 -0.019632943 0.0016490687 0.013454697
0.0409756 -0.0064352425 -0.029507386 -0.017855791 -0.0004037975 -0.0045809 0.008692978 0.06657713
0.04448173 0.010353065 -0.0066564865 -0.0129349865 0.00034202734 0.005068016 -0.041410804 -0.008177391
-0.006657661 -0.018257247 0.005809588 -0.0009086854 0.023331145 -0.001278061 -0.0049269143 -0.05342054
0.057945583 0.07741388 0.30053663 0.1349888 0.09486745 0.05928383 0.25444558 0.049875468
0.07319931 0.055892196 0.047781765 0.07335676 0.054654267 0.033158496 0.3388456 0.059693664
0.053621393 0.48577163 0.038272027 0.03801663 0.032277543 0.06158319 0.04090106 0.056066494
0.48717788 0.041784618 0.05912985 0.062572375 0.08316434 0.057575297 0.08211367 0.032468606
0.08913535 0.06443232 0.032225825 0.041643366 0.11497385 0.03894338 0.058652226 0.07440474
0.021421496 0.039524533 0.03668169 0.18772641 0.051696043 0.08914326 0.04839666 0.3682047
0.0021352551 0.046376057 0.018476838 0.03038928 0.057985168 0.054848354 0.18290006 0.045968886
0.043725904 0.0717844 0.06779484 0.044579096 0.03346368 0.0637037 0.05329266 0.21247417
00000000: 1836 643d 60b4 9b3d 7d87 983e 1ec1 0a3e
00000010: d829 c43d d5a5 813d 7765 823e f7d0 4d3d
00000020: 7e72 963d 17e6 603d 3e10 3a3d 65eb 8e3d
00000030: a752 623d 1ada 163d bfb7 ad3e 84ec 683d
00000040: 19b2 543d 415e f83e a653 1a3d 66a7 1e3d
00000050: 7443 053d 4c7b 733d 5543 1e3d d3e5 6a3d
00000060: 34fc f83e 6eae 2b3d fe2f 743d 93db 843d
00000070: 85e6 aa3d c34a 633d 4826 aa3d 69b4 e53c
00000080: 765c af3d 9687 8e3d 6dbc 113d 2f2a 383d
00000090: eee5 f43d 7d7b 103d 011d 8a3d 7759 923d
000000a0: f668 c63c 48dc 103d 83a5 013d 1b99 403e
000000b0: 3dd2 553d 9240 bb3d 3e33 373d a9bf bb3e
000000c0: 350c 783b 4d5e 3c3d f4dc 873c 172c 003d
000000d0: bcc2 843d 4765 623d d139 3d3e 4011 403d
000000e0: 1405 2f3d b402 8b3d 5174 933d 21f9 2d3d
000000f0: cb21 013d 401b 793d a9c8 6c3d 41a7 583e
00000100: 0000 803f 0000 803f 0000 803f 0000 803f
00000110: 0000 803f 0000 803f 0000 803f 0000 803f
00000120: 0000 803f 0000 803f 0000 803f 0000 803f
00000130: 0000 803f 0000 803f 0000 803f 0000 803f
00000140: 0000 803f 0000 803f 0000 803f 0000 803f
00000150: 0000 803f 0000 803f 0000 803f 0000 803f
00000160: 0000 803f 0000 803f 0000 803f 0000 803f
00000170: 0000 803f 0000 803f 0000 803f 0000 803f
00000180: 0000 803f 0000 803f 0000 803f 0000 803f
00000190: 0000 803f 0000 803f 0000 803f 0000 803f
000001a0: 0000 803f 0000 803f 0000 803f 0000 803f
000001b0: 0000 803f 0000 803f 0000 803f 0000 803f
000001c0: 0000 803f 0000 803f 0000 803f 0000 803f
000001d0: 0000 803f 0000 803f 0000 803f 0000 803f
000001e0: 0000 803f 0000 803f 0000 803f 0000 803f
000001f0: 0000 803f 0000 803f 0000 803f 0000 803f
00000200: 9a1b 043c cd62 bb3c e5c8 063d ee82 aa3b
00000210: e2c3 9a3c 644d 0f3c 5223 583d 6d6b debb
00000220: a17e a23b d8b9 543c 102b 033b 6466 43bc
00000230: e043 c33b 85f5 10bd d03c 193d 82ef 41ba
00000240: 894c 823b 6ab3 9f39 0556 3abc 3305 d83a
00000250: b12c 723c 2e9e 4abb 76b5 46bc a86c e33a
00000260: 86e7 063d 1549 b4bb c212 0b3c 932c 4dbc
00000270: f348 19bd 2047 e83a 232d 5c3c 8b02 8dbc
00000280: 0c12 1bbc 1ffe 3ebb 69fe fb3c d7d3 9f3c
00000290: 5484 e0bb 44d5 a0bc 9025 d83a 1771 5c3c
000002a0: 08d6 273d bade d2bb 79b9 f1bc 4f46 92bc
000002b0: c8b4 d3b9 601b 96bb fe6c 0e3c 9759 883d
000002c0: 7932 363d e79f 293c a81e dabb 44ed 53bc
000002d0: 2252 b339 9911 a63b 609e 29bd 77fa 05bc
000002e0: 8228 dabb 3990 95bc 5b5e be3b d834 6eba
000002f0: f520 bf3c 9c84 a7ba f471 a1bb 7fcf 5abd
00000300: 5958 6d3d 2b8b 9e3d f0df 993e 813a 0a3e
00000310: de49 c23d 9ad3 723d b146 823e 384a 4c3d
00000320: 85e9 953d 37ef 643d d0b6 433d 123c 963d
00000330: 27dd 5f3d 34d1 073d 2c7d ad3e 5881 743d
00000340: 1ba2 5b3d 0fb7 f83e 21c3 1c3d 53b7 1b3d
00000350: 7535 043d a83e 7c3d df87 273d fba5 653d
00000360: 616f f93e 5926 2b3d 2432 723d f225 803d
00000370: 1152 aa3d 13d4 6b3d 362b a83d cdfd 043d
00000380: 988c b63d 18f5 833d 3aff 033d 3c92 2a3d
00000390: 6977 eb3d 1883 1f3d 513d 703d 8361 983d
000003a0: 227c af3c 7ae4 213d 8a3f 163d 5a3b 403e
000003b0: 3bbf 533d be90 b63d 933b 463d 5485 bc3e
000003c0: a3ef 0b3b d2f4 3d3d bd5c 973c f0f2 f83c
000003d0: db81 6d3d aba8 603d 274a 3b3e df49 3c3d
000003e0: ef19 333d b303 933d 05d8 8a3d 9298 363d
000003f0: 3611 093d 1677 823d 6749 5a3d d492 593e

while/MatMul_1 f4 [256, 64]
-0.031249166 -0.02982355 0.09671025 -0.028757356 -0.018417567 -0.022539994 0.12373248 0.05884126
-0.04270847 0.039000973 0.003309765 -0.023186363 0.11026478 -0.072306104 -0.03238853 -0.041293815
0.046696454 -0.030846566 -0.009616293 -0.12566343 0.059240345 0.084517 -0.030863397 0.06815552
-0.164431 0.022842005 0.023524284 0.01897287 -0.0459006 0.019990431 -0.0129494835 -0.08488723
0.057377677 -0.06643208 0.12537184 -0.028603904 0.0063788397 0.04526268 -0.07130412 -0.0072022965
-0.06476163 0.0064112805 -0.09114835 0.030290488 0.014964866 0.00072223134 -0.039779726 0.04768601
-0.06780146 -0.001687251 -0.0075828657 0.08236021 0.06132258 -0.012467116 -0.108886875 0.035074428
-0.004120377 0.027559336 0.07591252 -0.12831791 0.04536655 -0.07472454 0.06312138 -0.033209953
0.0085161915 -0.040771365 0.002797346 0.08654533 -0.074186504 0.04841336 -0.09983863 -0.027741868
-0.0138648115 0.0627006 0.006371122 0.019809183 -0.055191565 -0.014051558 0.09418263 0.1112965
0.0011967102 0.031748466 0.08002668 0.10816506 0.1080638 -0.1530475 0.093084335 0.11909519
-0.10231949 -0.05321041 -0.012751853 0.06351183 -0.057142396 -0.07219013 -0.052807048 0.022095945
0.08955295 -0.11661841 -0.06311889 -0.09052953 -0.07237705 -0.009402753 -0.010495952 0.00094284164
-0.08308596 0.09804741 -0.0011428216 0.06703117 -0.08053799 0.042554397 0.06192631 -0.09560179
-0.026266877 -0.10482338 0.06490744 -0.05799643 0.12613861 -0.0513757 0.04158024 0.029533325
-0.057782244 -0.10468714 0.036691055 -0.08513637 -0.064234056 0.009992916 0.03565472 0.09014179
0.014337489 0.0046479744 -0.12057793 -0.05652692 -0.00751564 -0.14479095 0.037665408 0.10081973
-0.034282017 0.06513136 -0.049861282 0.046395887 0.02242649 0.070402585 0.037214726 0.083153725
0.044043057 0.08382987 -0.03645211 0.08242132 0.07242114 0.0172619 0.0020777895 0.074647516
-0.05944001 -0.036586467 0.09317259 0.1092556 0.09914572 0.062409434 0.03976408 -0.001848992
0.054424014 -0.009745787 -0.07638566 0.057143185 0.021151375 0.020727392 0.012404436 -0.045000017
-0.012100317 -0.053301446 0.03979415 0.051205285 0.046855282 -0.026657315 0.0776285 -0.1121516
-0.07229925 -0.018417217 0.07866936 0.07092893 -0.1028444 0.058197714 -0.0038378402 0.061799917
-0.0070645246 -0.17154585 -0.03137102 -0.051829677 -0.112348944 -0.084791414 0.016144715 0.114070505
0.0077245077 0.048234098 -0.13899443 0.024337769 0.041754004 0.057779767 -0.06415938 -0.09267149
-0.05362847 0.017101001 -0.004533804 -0.03481058 -0.013415987 0.106993526 0.07422477 -0.04652403
0.0027481243 -0.026014734 -0.1288493 -0.096325114 0.09872942 0.05112887 0.056269847 -0.10532766
-0.020365385 -0.027798913 0.0025251275 -0.06050749 -0.074013405 0.0456817 0.024544764 0.08679466
0.043178227 -0.12804615 0.15722452 0.014843871 -0.083838545 -0.07088751 0.021095157 -0.011383506
0.023320332 -0.0006825961 0.011721308 -0.052187394 -0.09533644 -0.017374039 0.12776527 0.05738237
-0.08614843 0.085152246 -0.012006021 0.096743725 -0.13153554 0.04311092 -0.00042223837 0.015036281
0.014896048 -0.046881754 -0.01960914 -0.021437325 0.0557853 -0.036025155 -0.074570194 0.07950125
00000000: 40fe ffbc 8450 f4bc 0610 c63d 8c94 ebbc
00000010: 70e0 96bc cba5 b8bc 7467 fd3d 8803 713d
00000020: 14ef 2ebd 7cbf 1f3d a4e8 583b 54f1 bdbc
00000030: 80d2 e13d 3915 94bd d6a9 04bd b423 29bd
00000040: c844 3f3d f0b1 fcbc a88d 1dbc eaad 00be
00000050: 01a6 723d 4017 ad3d 3cd5 fcbc 1f95 8b3d
00000060: 9a60 28be 281f bb3c 00b6 c03c fe6c 9b3c
00000070: 4402 3cbd f9c2 a33c 122a 54bc 5bd9 adbd
00000080: db04 6b3d 8b0d 88bd 7a61 003e bc52 eabc
00000090: 9605 d13b 5c65 393d e507 92bd 3e01 ecbb
000000a0: bfa1 84bd b815 d23b fcab babd c223 f83c
000000b0: 332f 753c 2054 3d3a 11f0 22bd 6852 433d
000000c0: 7edb 8abd c026 ddba b079 f8bb 78ac a83d
000000d0: 632d 7b3d e042 4cbc 1500 dfbd 34aa 0f3d
000000e0: 3a04 87bb 1ec4 e13c 0678 9b3d c565 03be
000000f0: 47d2 393d 2e09 99bd c845 813d 2907 08bd
00000100: 7f87 0b3c e0ff 26bd ae53 373b ae3e b13d
00000110: 18ef 97bd 164d 463d 3278 ccbd ea42 e3bc
00000120: 3c29 63bc 2c69 803d d8c4 d03b de46 a23c
00000130: 8d10 62bd 8238 66bc d3e2 c03d 6bef e33d
00000140: eeda 9c3a ae0a 023d 07e5 a33d a585 dd3d
00000150: 8e50 dd3d 7cb8 1cbe 00a3 be3d 2ee8 f33d
00000160: e18c d1bd 29f3 59bd 26ed 50bc 7e12 823d
00000170: 250e 6abd 6bd8 93bd 344c 58bd 8e02 b53c
00000180: 8967 b73d a2d5 eebd 7a44 81bd 8c67 b9bd
00000190: 6b3a 94bd 010e 1abc 37f7 2bbc 0829 773a
000001a0: f928 aabd 15cd c83d bbca 95ba a347 893d
000001b0: 1af1 a4bd 854d 2e3d 71a6 7d3d dfca c3bd
000001c0: a22d d7bc a4ad d6bd 31ee 843d aa8d 6dbd
000001d0: 7b2a 013e 536f 52bd 0b50 2a3d dfef f13c
000001e0: 13ad 6cbd 3666 d6bd 5c49 163d fa5b aebd
000001f0: 258d 83bd 54b9 233c af0a 123d 429c b83d
00000200: cae7 6a3c 094e 983b 90f1 f6bd c688 67bd
00000210: c245 f6bb 1444 14be 0b47 1a3d 937a ce3d
00000220: 4d6b 0cbd 9763 853d 583b 4cbd 9d09 3e3d
00000230: c2b7 b73c 3b2f 903d 786e 183d 804c aa3d
00000240: 7e66 343d ffae ab3d cf4e 15bd 82cc a83d
00000250: 8951 943d d468 8d3c 862b 083b cce0 983d
00000260: 5e77 73bd b1db 15bd 45d1 be3d 66c1 df3d
00000270: e90c cb3d 09a1 7f3d a9df 223d e059 f2ba
00000280: b7eb 5e3d cbac 1fbc 1670 9cbd f90e 6a3d
00000290: a645 ad3c 7ecc a93c fa3b 4b3c f051 38bd
000002a0: 6840 46bc 9e52 5abd 31ff 223d a2bc 513d
000002b0: 53eb 3f3d 7160 dabc b1fb 9e3d bdaf e5bd
000002c0: a111 94bd b4df 96bc 671d a13d 3043 913d
000002d0: 16a0 d2bd ba60 6e3d 4684 7bbb e921 7d3d
000002e0: 877d e7bb b7a9 2fbe e67e 00bd 5b4b 54bd
000002f0: 3417 e6bd 1fa7 adbd ec41 843c cc9d e93d
00000300: de1d fd3b 1e91 453d 8e54 0ebe 0060 c73c
00000310: 3f06 2b3d 7aaa 6c3d fe65 83bd 8dca bdbd
00000320: 87a9 5bbd 6617 8c3c 4e90 94bb 8a95 0ebd
00000330: bace 5bbc 6c1f db3d 2803 983d fb8f 3ebd
00000340: e019 343b da1c d5bc 12f1 03be 1a46 c5bd
00000350: a632 ca3d 826c 513d 367b 663d 07b6 d7bd
00000360: 4fd5 a6bc 8cba e3bc 9c7c 253b b4d6 77bd
00000370: 5794 97bd bc1c 3b3d 1a12 c93c 66c1 b13d
00000380: a7db 303d 881e 03be 77ff 203e b533 733c
00000390: 8bb3 abbd 792d 91bd c0cf ac3c e281 3abc
000003a0: 480a bf3c 40f0 32ba bb0a 403c 73c2 55bd
000003b0: c03f c3bd 0054 8ebc e6d4 023e c709 6b3d
000003c0: 976e b0bd 4d64 ae3d e7b4 44bc 9321 c63d
000003d0: 41b1 06be 1395 303d e05f ddb9 bc5a 763c
000003e0: 8e0e 743c 1507 40bd 59a3 a0bc 549d afbc
000003f0: 207f 643d 1d8f 13bd 42b8 98bd 8dd1 a23d

while/MatMul f4 [256, 4]
-0.023214865 0.039228544 0.19879872 0.21394327 0.12844019 0.14598495 -0.032158468 0.08609769
0.28312978 0.16396499 0.23657411 0.37652856 0.04154613 0.1478933 0.21516722 0.26655236
0.049528353 -0.0454866 0.18020326 0.1626455 -0.013069777 -0.03930348 -0.021664117 0.019416656
0.1031689 0.34322914 0.12072074 0.12740703 0.11070658 0.0011408413 0.21417788 -0.008480462
-0.010726771 0.21777238 0.07530674 -0.029052326 0.08084946 0.08311321 0.051840577 0.06463586
0.1873608 -0.006555432 0.10676884 0.11937581 0.22081898 0.22970583 0.18458924 0.04753517
0.09439695 0.20709014 0.03261414 0.0069090435 0.055468068 0.17278738 -0.025173193 0.095230386
0.3443412 0.18788318 0.37494406 0.36197916 0.20902218 0.15818882 0.029844332 0.13338451
0.07944484 0.070428796 0.17009039 0.10163173 0.556419 0.53709406 0.5185999 0.2991567
0.0032569284 0.0625522 0.22018589 0.07242919 -0.0053687305 0.15948205 0.13884062 0.1979353
0.09351614 0.014204838 0.16340943 -0.016527269 0.22822511 0.042266913 0.13814324 -0.073684305
-0.047380824 0.07095025 0.0054909913 0.16923691 0.0134907 0.18113278 0.10726241 0.0655861
0.4178931 0.54313356 0.38392738 0.47951013 -0.07233788 -0.032250434 0.15692002 0.0905128
0.18711469 0.20178463 0.07426326 -0.07052972 -0.014709757 0.016770478 0.19494225 -0.059746172
0.16118644 0.020099565 0.16857824 0.20589156 0.07403693 0.119919345 -0.057279374 0.13193339
0.073697165 0.23641798 0.018192267 0.19519126 0.11275268 0.15417945 0.21298891 -0.08503957
-0.057418067 0.20965154 0.03306808 0.18298641 0.13526502 0.03692322 0.2241326 -0.04082445
0.11812737 -0.073891014 -0.024635773 0.024448127 0.034841355 -0.07656209 0.12309951 0.13194098
0.16391887 0.26831302 0.19206472 0.021672247 0.07021749 0.00697823 0.25315064 0.019841729
0.015812682 0.06051261 0.023838006 0.026995115 0.033599112 0.2572923 0.1642869 0.06554639
0.12612961 0.019574393 -0.036379524 -0.041827947 0.17176084 0.05703889 0.1228572 0.19771355
0.19907157 0.17872576 0.10486591 0.1872564 0.19023728 0.17826012 0.017783536 0.20700066
0.018676076 0.06233632 0.034473017 0.028164808 0.14953482 0.04640343 0.07394532 0.014801877
0.13722402 0.15327372 0.021233821 0.21696806 0.23913065 0.31517014 0.25286973 0.4799191
-0.087740615 0.09710575 0.12983626 -0.026362387 0.035125922 0.17147683 -0.0187268 0.039048184
-0.028801162 0.14304936 0.13211977 -0.0040129106 0.061217606 0.13267207 -0.020354202 -0.030707894
-0.04425569 -0.06600231 -0.05716086 0.0327093 -0.011516692 -0.01478604 0.19309804 -0.051854264
0.118489325 0.10346449 0.104796216 0.3060481 0.17390636 -0.04810626 0.021269562 0.123035215
0.1048878 -0.030754013 0.11776725 -0.07605211 0.20119803 0.12248419 0.29791543 0.2729784
0.14158584 0.10536042 0.14284006 0.034037344 0.15427099 -0.0010895982 0.20376226 0.040778965
0.13752572 0.17216854 0.07756202 0.035523087 -0.058110982 0.18307006 0.05582185 0.22657013
0.015036983 -0.04196762 0.14210942 -0.02487097 0.24761942 0.20496146 0.17312919 0.12141889
00000000: 1a2d bebc 1cae 203d e491 4b3e f213 5b3e
00000010: d385 033e 147d 153e 99b8 03bd fc53 b03d
00000020: 63f6 903e 70e6 273e 7c40 723e 5ac8 c03e
00000030: 462c 2a3d 5771 173e cc54 5c3e 8d79 883e
00000040: 3ede 4a3d 2850 3abd 3487 383e 8b8c 263e
00000050: 9e22 56bc b0fc 20bd f278 b1bc ae0f 9f3c
00000060: 374a d33d bbbb af3e 6f3c f73d fd76 023e
00000070: 22ba e23d 4888 953a 7251 5b3e a3f1 0abc
00000080: 57bf 2fbc b9ff 5e3e 6c3a 9a3d 25ff edbc
00000090: 6794 a53d 4237 aa3d c956 543d ce5f 843d
000000a0: 82db 3f3e f3ce d6bb 9fa9 da3d 4e7b f43d
000000b0: 5f1e 623e 0138 6b3e f604 3d3e 3db4 423d
000000c0: 3053 c13d 700f 543e 6896 053d 4265 e23b
000000d0: 7c32 633d 2def 303e 0338 cebc 2608 c33d
000000e0: 7d4d b03e 7364 403e abf8 bf3e 5555 b93e
000000f0: e909 563e 40fc 213e 1a7c f43c f395 083e
00000100: fab3 a23d f93c 903d 2d2c 2e3e 4c24 d03d
00000110: 7a71 0e3f ff7e 093f f7c2 043f 112b 993e
00000120: 3172 553b 5e1b 803d 6978 613e c155 943d
00000130: 2dec afbb 434f 233e 3c2c 0e3e 8daf 4a3e
00000140: 6485 bf3d 69bb 683c cd54 273e 3264 87bc
00000150: d8b3 693e 1220 2d3d 6c75 0d3e cce7 96bd
00000160: 6512 42bd 5d4e 913d c6ed b33b 714c 2d3e
00000170: 1908 5d3c df7a 393e 65ac db3d 0152 863d
00000180: 16f6 d53e cd0a 0b3f 2192 c43e 5a82 f53e
00000190: e225 94bd 0819 04bd a4af 203e c65e b93d
000001a0: fe9a 3f3e a1a0 4e3e 5617 983d e371 90bd
000001b0: 3101 71bc 3e62 893c f19e 473e 67b8 74bd
000001c0: 0f0e 253e d8a7 a43c c69f 2c3e 3dd5 523e
000001d0: ada0 973d 4698 f53d c79d 6abd 8c19 073e
000001e0: 8aee 963d 8e17 723e f307 953c 38e0 473e
000001f0: e1ea e63d 38e1 1d3e c419 5a3e 3a29 aebd
00000200: 352f 6bbd e5ae 563e 6572 073d ca60 3b3e
00000210: ea82 0a3e cd3c 173d 0483 653e 8a37 27bd
00000220: c3ec f13d 2c54 97bd f6d0 c9bc 7047 c83c
00000230: cfb5 0e3d 96cc 9cbd 991b fc3d 891b 073e
00000240: 59da 273e 5360 893e 9dac 443e ff89 b13c
00000250: 30ce 8f3d a3a9 e43b f69c 813e 1f8b a23c
00000260: 9989 813c 12dc 773d ec47 c33c dc24 dd3c
00000270: 399f 093d d1bb 833e d33a 283e 303d 863d
00000280: 1f28 013e 7a5a a03c b202 15bd c853 2bbd
00000290: 13e2 2f3e 9ca1 693d 8e9c fb3d 6c75 4a3e
000002a0: 6bd9 4b3e e303 373e f0c3 d63d 24c0 3f3e
000002b0: 90cd 423e d289 363e c7ae 913c fbf7 533e
000002c0: 92fe 983c 5e54 7f3d 9433 0d3d e2b9 e63c
000002d0: a81f 193e 8611 3e3d a570 973d 9283 723c
000002e0: 7484 0c3e c9f3 1c3e 8df2 ad3c e02c 5e3e
000002f0: aade 743e fb5d a13e 2478 813e f5b7 f53e
00000300: 5ab1 b3bd 61df c63d ccf3 043e eff5 d7bc
00000310: 33e0 0f3d 9f97 2f3e f268 99bc fdf0 1f3d
00000320: 6af0 ebbc 887b 123e 684a 073e bc7e 83bb
00000330: 50bf 7a3d 30db 073e dbbd a6bc 1f8f fbbc
00000340: 7445 35bd 382c 87bd 8221 6abd 30fa 053d
00000350: 82b0 3cbc 2641 72bc 7ebb 453e 2365 54bd
00000360: 88aa f23d 31e5 d33d 669f d63d 56b2 9c3e
00000370: 8214 323e 120b 45bd 813d ae3c e3f9 fb3d
00000380: 6acf d63d d7ef fbbc f52f f13d 35c1 9bbd
00000390: db06 4e3e fed8 fa3d 5f88 983e d3c3 8b3e
000003a0: e1fb 103e 34c7 d73d aa44 123e be6a 0b3d
000003b0: 37f9 1d3e d9d0 8eba 0ea7 503e d807 273d
000003c0: 8bd3 0c3e f34c 303e d6d8 9e3d a880 113d
000003d0: c805 6ebd b876 3b3e 74a5 643d 0002 683e
000003e0: ae5d 763c 3de6 2bbd 2285 113e 34be cbbc
000003f0: f28f 7d3e 6be1 513e c748 313e 78aa f83d

lstm_44/lstm_cell_56/bias1 f4 [256]
0.047978636 0.09493868 0.046531796 0.06033675 0.05928209 0.0546889 0.06392442 0.046629295
0.059063833 0.054189984 0.049794234 0.056371704 0.059952334 0.0735836 0.06468956 0.1782631
0.048398934 0.063934155 0.08485179 0.064310774 0.09166585 0.054568127 0.06136403 0.04334128
0.061610222 0.04268691 0.052035198 0.052280296 0.059908085 0.05568577 0.07802801 0.05886007
0.047704138 0.062103502 0.05898843 0.04517097 0.05616489 0.024890324 0.05075869 0.049289882
0.10139415 0.02894443 0.063706264 0.060463175 0.051776502 0.048944578 0.046614118 0.06556984
0.0457605 0.063637845 0.056977358 0.031472795 0.06329943 0.0498643 0.054635916 0.063544124
0.056035142 0.054615367 0.086043105 0.039886564 0.0637539 0.03777921 0.058033567 0.067316376
1.0 1.0 1.0 1.0 1.0 1.0 1.0 1.0
1.0 1.0 1.0 1.0 1.0 1.0 1.0 1.0
1.0 1.0 1.0 1.0 1.0 1.0 1.0 1.0
1.0 1.0 1.0 1.0 1.0 1.0 1.0 1.0
1.0 1.0 1.0 1.0 1.0 1.0 1.0 1.0
1.0 1.0 1.0 1.0 1.0 1.0 1.0 1.0
1.0 1.0 1.0 1.0 1.0 1.0 1.0 1.0
1.0 1.0 1.0 1.0 1.0 1.0 1.0 1.0
-0.04238744 -0.014097273 0.02619279 0.038734645 0.024280807 -0.03467751 0.05144315 0.032116048
0.00931523 0.0331826 0.036790397 -0.04698118 -0.046452377 0.026400845 -0.012561248 0.02938832
0.030310389 -0.051895313 -1.4627323e-05 -0.04847664 0.042530812 0.03478251 0.032496277 0.0364053
-0.033001974 -0.0020039496 -0.033242807 -0.024578433 0.046538662 -0.013867785 0.042396057 -0.02966633
0.033887602 0.0058030006 -0.044555582 0.03648609 -0.030103147 0.03555512 0.041662972 -0.035423085
0.017238086 -0.019105723 -0.046316504 -0.059477475 0.02594676 0.024934836 -0.035393402 0.022616351
0.012346893 -0.03789801 0.023077909 0.035026662 0.021759957 0.008462978 0.07149831 -0.0055921506
0.015502208 -0.033597074 -0.011938647 -0.051314387 0.050444197 0.035315786 -0.032765344 0.043700825
0.047565866 0.09504986 0.04719537 0.058811937 0.05961791 0.05411932 0.06334792 0.046420433
0.05971845 0.055286527 0.0503731 0.056032404 0.05871283 0.074073054 0.06378274 0.17781687
0.048357297 0.06411098 0.08541872 0.06586951 0.0923801 0.055477448 0.062196992 0.043828215
0.06159422 0.04416954 0.0516478 0.051650386 0.059742246 0.054492235 0.07932844 0.05952579
0.047266982 0.061572403 0.0592295 0.04556751 0.055311 0.025044974 0.0505463 0.049349997
0.10049156 0.0277601 0.065085575 0.0624696 0.05303239 0.050483257 0.046015117 0.06658442
0.04672993 0.06405581 0.056843746 0.03119267 0.06353688 0.051971182 0.05574473 0.06369964
0.05665621 0.05376405 0.086283304 0.042901345 0.06345486 0.037969533 0.058647335 0.067748
00000000: 3f85 443d 366f c23d 2098 3e3d ab23 773d
00000010: c7d1 723d 7801 603d ceea 823d 5cfe 3e3d
00000020: ebec 713d 51f6 5d3d 0af5 4b3d 04e6 663d
00000030: 9490 753d 00b3 963d f67b 843d 9a8a 363e
00000040: f63d 463d e9ef 823d c6c6 ad3d 5eb5 833d
00000050: 4ebb bb3d d482 5f3d d958 7b3d a086 313d
00000060: 005b 7c3d 78d8 2e3d dc22 553d dd23 563d
00000070: 2e62 753d c316 643d 26cd 9f3d 4217 713d
00000080: 6a65 433d 3e60 7e3d da9d 713d 3205 393d
00000090: 280d 663d cbe6 cb3c 58e8 4f3d 30e4 493d
000000a0: bca7 cf3d df1c ed3c 6e78 823d 3ca8 773d
000000b0: 9913 543d 1c7a 483d 72ee 3e3d 7b49 863d
000000c0: 5d6f 3b3d 8f54 823d 1761 693d 9ee9 003d
000000d0: 22a3 813d 823e 4c3d e9c9 5f3d 6c23 823d
000000e0: 1b85 653d 5db4 5f3d 5e37 b03d 1860 233d
000000f0: 6891 823d 5fbe 1a3d 9bb4 6d3d 2bdd 893d
00000100: 0000 803f 0000 803f 0000 803f 0000 803f
00000110: 0000 803f 0000 803f 0000 803f 0000 803f
00000120: 0000 803f 0000 803f 0000 803f 0000 803f
00000130: 0000 803f 0000 803f 0000 803f 0000 803f
00000140: 0000 803f 0000 803f 0000 803f 0000 803f
00000150: 0000 803f 0000 803f 0000 803f 0000 803f
00000160: 0000 803f 0000 803f 0000 803f 0000 803f
00000170: 0000 803f 0000 803f 0000 803f 0000 803f
00000180: 0000 803f 0000 803f 0000 803f 0000 803f
00000190: 0000 803f 0000 803f 0000 803f 0000 803f
000001a0: 0000 803f 0000 803f 0000 803f 0000 803f
000001b0: 0000 803f 0000 803f 0000 803f 0000 803f
000001c0: 0000 803f 0000 803f 0000 803f 0000 803f
000001d0: 0000 803f 0000 803f 0000 803f 0000 803f
000001e0: 0000 803f 0000 803f 0000 803f 0000 803f
000001f0: 0000 803f 0000 803f 0000 803f 0000 803f
00000200: 749e 2dbd 40f8 66bc 4392 d63c 38a8 1e3d
00000210: 8be8 c63c 010a 0ebd 0db6 523d 1e8c 033d
00000220: e89e 183c 7aea 073d 87b1 163d 566f 40bd
00000230: d944 3ebd 9646 d83c b1cd 4dbc c6bf f03c
00000240: 7e4d f83c 2e90 54bd e067 75b7 718f 46bd
00000250: ca34 2e3d 1b78 0e3d d11a 053d b91d 153d
00000260: 142d 07bd b254 03bb 9c29 08bd b658 c9bc
00000270: 539f 3e3d b535 63bc 7da7 2d3d ce06 f3bc
00000280: bacd 0a3d 1927 be3b ea7f 36bd 7072 153d
00000290: e09a f6bc 3fa2 113d cba6 2a3d cc17 11bd
000002a0: e336 8d3c 9b83 9cbc 60b6 3dbd a79e 73bd
000002b0: 4d8e d43c 2444 cc3c acf8 10bd ed45 b93c
000002c0: 9f4a 4a3c f23a 1bbd e20d bd3c 1e78 0f3d
000002d0: f041 b23c 4da8 0a3c b56d 923d 5c3e b7bb
000002e0: f9fc 7d3c 169d 09bd 519a 43bc 092f 52bd
000002f0: 939e 4e3d 49a7 103d f434 06bd a3ff 323d
00000300: 6dd4 423d 80a9 c23d ef4f 413d c9e4 703d
00000310: e931 743d 38ac 5d3d 8ebc 813d 5a23 3e3d
00000320: 559b 743d 2074 623d 0654 4e3d 3c82 653d
00000330: dd7c 703d 9db3 973d 86a0 823d a015 363e
00000340: 4d12 463d 9e4c 833d 03f0 ae3d 98e6 863d
00000350: c731 bd3d 523c 633d 46c2 7e3d 3785 333d
00000360: 394a 7c3d 1feb 343d a58c 533d 5b8f 533d
00000370: 49b4 743d 4033 5f3d f376 a23d 51d1 733d
00000380: 069b 413d 5833 7c3d a29a 723d ffa4 3a3d
00000390: ca8d 623d 1e2b cd3c a309 4f3d 3923 4a3d
000003a0: 85ce cd3d 2669 e33c 964b 853d 20e0 7f3d
000003b0: 7e38 593d 88c7 4e3d 597a 3c3d 6a5d 883d
000003c0: e267 3f3d b12f 833d fdd4 683d c587 ff3c
000003d0: a01f 823d bcdf 543d 9654 643d f574 823d
000003e0: 5810 683d b137 5c3d 4db5 b03d 52b9 2f3d
000003f0: 9ff4 813d f185 1b3d 3038 703d 77bf 8a3d

while/MatMul_12 f4 [256, 64]
-0.023470283 -0.10321446 -0.015307661 -0.06407265 -0.021732248 0.10127122 -0.04933743 0.05002705
0.005419273 0.07414095 -0.056181483 0.020752888 0.072413385 -0.08732785 0.045736015 0.049328104
0.021162534 0.015154175 0.0110304 0.012654472 0.03483972 -0.003949456 -0.054596514 -0.038878776
-0.13817209 -0.0010764918 0.030716259 -0.06702089 -0.093581416 0.044631023 -0.03755393 -0.007819699
0.05312053 -0.062262803 -0.15581223 -0.03556416 -0.100431345 0.008363902 0.06981014 0.03299713
-0.016966447 -0.049678575 -0.10797809 2.590008e-05 0.05359032 -0.012566239 0.0016508363 0.021875132
0.01794513 0.010785269 -0.042779602 0.026538065 0.040785972 0.059325337 -0.0072077545 0.07605315
-0.038470976 0.033012237 -0.026706273 -0.03993685 0.07804461 0.01762495 -0.005506609 -0.03737515
0.06285986 -0.06427014 0.038171038 0.097220644 0.11113826 0.0001779017 -0.028262286 -0.02428459
0.028617196 0.013058618 -0.027210427 -0.03485088 -0.031290606 -0.03369093 0.07152436 0.028964795
0.031543568 -0.033355683 0.047374394 -0.050418068 -0.026187979 0.040231034 -0.0030454197 -0.029251654
0.098224476 0.0011128878 -0.056038268 -0.0013076426 0.03298329 -0.15931067 0.008988103 -0.013597931
0.033728525 -0.096043706 0.049818218 -0.042195283 -0.023890315 0.08757725 0.09239238 0.033268105
0.029618507 0.10620381 0.14917038 -0.03813999 0.05627384 0.008924039 -0.022352582 0.10117765
-0.04763544 -0.007917517 0.010291307 0.027454838 0.011417703 -0.06432296 -0.09892429 -0.054263048
0.012398799 -0.05785372 0.10640683 0.0061909454 -0.09746783 0.007015392 0.08146953 0.07351062
0.047265206 0.0018983234 -0.040700793 0.069450766 0.059187725 -0.08137417 0.054976013 0.06750006
-0.018942576 -0.005456821 -0.036085173 0.075169854 -0.10923108 -0.064940944 0.10448536 0.14980668
-0.00069662544 0.034146246 0.037254177 0.08719448 -0.020221379 0.06831754 -0.04741347 -0.08192154
-0.048085485 -0.056144062 -0.03464243 0.10342446 -0.08649797 0.05022856 -0.041489128 -0.12177478
-0.08149405 0.00079045957 0.039013576 0.033317074 0.048429497 -0.039868057 0.060570773 -0.07632986
-0.04523859 0.023090262 0.018269148 -0.029091574 -0.050730206 -0.10959591 -0.06586832 -0.031185875
-0.06181089 -0.07619525 -0.064281054 -0.00937263 0.055498336 -0.010812686 -0.0019319069 0.007008791
0.022118691 -0.0042099953 0.0112473965 0.033015575 0.06288539 0.011094524 -0.07538983 -0.11520042
-0.016167806 0.10359005 0.03911784 0.01002872 0.013666397 0.031828232 -0.05574423 -0.1546156
0.07463533 -0.07262601 0.028325373 0.0858439 0.0073691914 -0.03608741 0.018136516 -0.10332149
0.029079352 0.02413213 -0.024599163 -0.1255471 -0.018072005 -0.09093325 0.05000475 0.012718475
-0.114912614 -0.1072191 -0.026494764 -0.006555589 -0.13035472 0.032673515 -0.0021426708 0.018828524
0.045922548 -0.0084199365 -0.031025734 -0.0008025735 -0.0360621 -0.04657908 0.056680165 -0.0662227
-0.10713896 0.0059275413 0.06275115 -0.15240347 0.08284381 -0.0698366 -0.05561738 -0.037312962
-0.0394081 -0.03579458 0.06154683 -0.06767529 0.015802389 -0.011931168 0.086628616 -0.083466984
-0.100080445 -0.011720138 -0.019832967 -0.05497078 0.0499602 0.13752373 -0.117242806 -0.07741949
00000000: c044 c0bc 1a62 d3bd fccc 7abc 8638 83bd
00000010: d407 b2bc 4967 cf3d 0c16 4abd 2ae9 4c3d
00000020: 2894 b13b 36d7 973d 8e1e 66bd f601 aa3c
00000030: 784d 943d f2d8 b2bd b055 3b3d 440c 4a3d
00000040: 0d5d ad3c 3849 783c dab8 343c b454 4f3c
00000050: 18b4 0e3d 706a 81bb 98a0 5fbd 5a3f 1fbd
00000060: fc7c 0dbe 1219 8dba aaa0 fb3c 4042 89bd
00000070: 9da7 bfbd 05cf 363d 26d2 19bd 321e 00bc
00000080: ea94 593d 4807 7fbd 3e8d 1fbe baab 11bd
00000090: f3ae cdbd bf08 093c 9ef8 8e3d 0028 073d
000000a0: 38fd 8abc c37b 4bbd 9e23 ddbd 0044 d937
000000b0: 8681 5b3d a0e2 4dbc e060 d83a 7a33 b33c
000000c0: aa01 933c b2b4 303c aa39 2fbd 5b66 d93c
000000d0: 310f 273d 20ff 723d 072f ecbb c1c1 9b3d
000000e0: be93 1dbd d737 073d 1dc7 dabc d394 23bd
000000f0: dad5 9f3d 3362 903c c970 b4bb af16 19bd
00000100: acbc 803d 10a0 83bd 3c59 1c3d 9e1b c73d
00000110: 759c e33d 208b 3a39 4f86 e7bc 7af0 c6bc
00000120: 9c6e ea3c d0f3 553c 67e8 debc ccbf 0ebd
00000130: 942a 00bd 80ff 09bd 5d7b 923d 9447 ed3c
00000140: d433 013d f89f 08bd a70b 423d 2d83 4ebd
00000150: 2c88 d6bc 4cc9 243d aa95 47bb 2aa1 efbc
00000160: ea29 c93d 51de 913a 6288 65bd 3465 abba
00000170: 7c19 073d 5622 23be d642 133c dbc9 5ebc
00000180: ec26 0a3d 90b2 c4bd 300e 4c3d f6d4 2cbd
00000190: 9fb5 c3bc b45b b33d 3738 bd3d 2344 083d
000001a0: 83a2 f23c 6281 d93d 1fc0 183e ae38 1cbd
000001b0: 667f 663d 2236 123c c31c b7bc 3a36 cf3d
000001c0: 611d 43bd 79b8 01bc df9c 283c f8e8 e03c
000001d0: 5111 3b3c c2bb 83bd d198 cabd ee42 5ebd
000001e0: 5524 4b3c 06f8 6cbd d3eb d93d 6add ca3b
000001f0: 379d c7bd 60e1 e53b 7fd9 a63d bc8c 963d
00000200: 2999 413d 2ad1 f83a e0b5 26bd 343c 8e3d
00000210: d46e 723d 80a7 a6bd 872e 613d 793d 8a3d
00000220: 762d 9bbc 22cf b2bb 0cce 13bd a7f2 993d
00000230: 8bb4 dfbd c2ff 84bd 6cfc d53d ec66 193e
00000240: be9d 36ba efdc 0b3d d697 183d 0593 b23d
00000250: 4ea7 a5bc 11ea 8b3d a034 42bd 7bc6 a7bd
00000260: 49f5 44bd 51f7 65bd 38e5 0dbd 34d0 d33d
00000270: d925 b1bd 76bc 4d3d 81f0 29bd 0e65 f9bd
00000280: 5ae6 a6bd d836 4f3a b3cc 1f3d 7c77 083d
00000290: 025e 463d b04c 23bd 0f19 783d d452 9cbd
000002a0: 1a4c 39bd ca27 bd3c 2ea9 953c 7451 eebc
000002b0: 7aca 4fbd d273 e0bd f8e5 86bd 8579 ffbc
000002c0: 6a2d 7dbd 410c 9cbd c9a5 83bd a98f 19bc
000002d0: 3952 633d b127 31bc 0a38 fdba 00aa e53b
000002e0: 4232 b53c 00f4 89bb 0047 383c 573b 073d
000002f0: 0eca 803d cec5 353c fc65 9abd 33ee ebbd
00000300: 5972 84bc 0527 d43d 073a 203d 804f 243c
00000310: 06e9 5f3c 525e 023d 1054 64bd 8d53 1ebe
00000320: 68da 983d f2bc 94bd 9d0a e83c edce af3d
00000330: 4279 f13b 64d0 13bd 0893 943c 389a d3bd
00000340: d237 ee3c bfb0 c53c 2f84 c9bc 6b8f 00be
00000350: be0b 94bc 363b babd c8d1 4c3d 2761 503c
00000360: 4e57 ebbd b095 dbbd 8c0b d9bc 44d0 d6bb
00000370: b57b 05be aad4 053d 0d6c 0cbb 473e 9a3c
00000380: 4819 3c3d c6f3 09bc ae29 febc cc63 52ba
00000390: dab5 13bd b5c9 3ebd 7629 683d c49f 87bd
000003a0: ac6b dbbd d23b c23b ad83 803d a80f 1cbe
000003b0: 04aa a93d 7e06 8fbd 0dcf 63bd 7ad5 18bd
000003c0: 636a 21bd 569d 12bd 8718 7c3d 5899 8abd
000003d0: 0374 813c f27a 43bc 586a b13d bdf0 aabd
000003e0: faf6 ccbd d205 40bc bf78 a2bc 0a29 61bd
000003f0: 11a3 4c3d 05d3 0c3e ff1c f0bd 1c8e 9ebd
