lstm976_ae_0802.tflite (tflite, 242940 bytes, 10 tensors)

time_distributed_3/bias f4 [21]
0	0xbe69fbf1	-0.22850014
1	0xbe82fb2e	-0.2558226
2	0xbe59b6f0	-0.21261191
3	0xbe75ac9e	-0.2399163
4	0xbdc42752	-0.09577812
5	0xbe943238	-0.28944564
6	0xbe1eb1fb	-0.15497582
7	0xbe2b1596	-0.16707453
8	0xbe427749	-0.18990816
9	0xbe889a99	-0.2668045
10	0xbe4ded38	-0.20110023
11	0xbe9357cf	-0.2877793
12	0xbe7c686a	-0.24649206
13	0xbe920235	-0.2851731
14	0xbe934d2c	-0.28769815
15	0xbe9b3f6d	-0.30321828
16	0xbe9a9a8e	-0.3019604
17	0xbe7d2a4e	-0.24723169
18	0x3e837c8e	0.25680965
19	0xbe78d76f	-0.24300931
20	0x3e70ddc5	0.23522098

lstm_11/lstm_cell_12/bias f4 [256]
0	0xbcc51d82	-0.024061922
1	0xbbc09f3a	-0.0058783563
2	0xb9834f00	-0.00025045127
3	0x3cc28549	0.023745196
4	0xbc05cbca	-0.008166263
5	0x3bf55137	0.007486488
6	0x3bd6b829	0.0065527153
7	0x3d3e5690	0.04646927
8	0xbc238b95	-0.009982009
9	0x3bafe67f	0.0053680534
10	0x39affd20	0.00033567194
11	0x3aed8dd6	0.0018123935
12	0xbbde5cc0	-0.006785959
13	0xbb3cb4c8	-0.0028794277
14	0x3c9a2c12	0.018819842
15	0x3c1482a9	0.009064355
16	0x3c6e462a	0.014543096
17	0x3ca27654	0.019831814
18	0x3b84db02	0.004054428
19	0x3bb75a14	0.005595455
20	0x3ccca527	0.024981095
21	0x3c999139	0.018746005
22	0x3984716c	0.00025261508
23	0x3cbcbf8e	0.02304056
24	0x3bba8d1d	0.0056930915
25	0xbb817a97	-0.0039513814
26	0xbc86ea97	-0.016469283
27	0xbcc67b7c	-0.024228804
28	0x3c4ec285	0.012619619
29	0x3c00c9c5	0.007860606
30	0xbbe59010	-0.007005699
31	0x3ca8e727	0.020618035
32	0xbb0a3962	-0.0021091332
33	0x3c63a41e	0.013894109
34	0xbb805ff0	-0.0039176866
35	0x3d046cb4	0.03233023
36	0x3a29791f	0.0006464887
37	0x3c0bd05f	0.008533566
38	0xbbadd587	-0.0053049955
39	0x3c801bea	0.01563831
40	0x3b6e57d5	0.003636827
41	0xbc12e2fd	-0.008965251
42	0xbaf73de0	-0.0018863045
43	0x3ab0b8d7	0.0013482821
44	0x3c3d8fcf	0.011569931
45	0x3ce57b77	0.028012974
46	0x3c10a562	0.008828493
47	0x3cd6315b	0.026146581
48	0x3c385cf5	0.011252631
49	0x3d06440c	0.03277974
50	0x3c86eae3	0.016469425
51	0x3bde1aa9	0.0067780805
52	0x3b9d0ee9	0.004793037
53	0xbaf85aab	-0.001894792
54	0xbbe0ba23	-0.0068581267
55	0x3c5e685c	0.013574686
56	0xbc01be6e	-0.007918937
57	0x3bea2ee5	0.0071467035
58	0x3b8e0049	0.00433353
59	0xbc33f680	-0.010984063
60	0x3c170df0	0.009219632
61	0xbc7972a8	-0.01522509
62	0x3b3a883a	0.0028462545
63	0x3c3c2a4d	0.011484695
64	0x3f800000	1.0
65	0x3f800000	1.0
66	0x3f800000	1.0
67	0x3f800000	1.0
68	0x3f800000	1.0
69	0x3f800000	1.0
70	0x3f800000	1.0
71	0x3f800000	1.0
72	0x3f800000	1.0
73	0x3f800000	1.0
74	0x3f800000	1.0
75	0x3f800000	1.0
76	0x3f800000	1.0
77	0x3f800000	1.0
78	0x3f800000	1.0
79	0x3f800000	1.0
80	0x3f800000	1.0
81	0x3f800000	1.0
82	0x3f800000	1.0
83	0x3f800000	1.0
84	0x3f800000	1.0
85	0x3f800000	1.0
86	0x3f800000	1.0
87	0x3f800000	1.0
88	0x3f800000	1.0
89	0x3f800000	1.0
90	0x3f800000	1.0
91	0x3f800000	1.0
92	0x3f800000	1.0
93	0x3f800000	1.0
94	0x3f800000	1.0
95	0x3f800000	1.0
96	0x3f800000	1.0
97	0x3f800000	1.0
98	0x3f800000	1.0
99	0x3f800000	1.0
100	0x3f800000	1.0
101	0x3f800000	1.0
102	0x3f800000	1.0
103	0x3f800000	1.0
104	0x3f800000	1.0
105	0x3f800000	1.0
106	0x3f800000	1.0
107	0x3f800000	1.0
108	0x3f800000	1.0
109	0x3f800000	1.0
110	0x3f800000	1.0
111	0x3f800000	1.0
112	0x3f800000	1.0
113	0x3f800000	1.0
114	0x3f800000	1.0
115	0x3f800000	1.0
116	0x3f800000	1.0
117	0x3f800000	1.0
118	0x3f800000	1.0
119	0x3f800000	1.0
120	0x3f800000	1.0
121	0x3f800000	1.0
122	0x3f800000	1.0
123	0x3f800000	1.0
124	0x3f800000	1.0
125	0x3f800000	1.0
126	0x3f800000	1.0
127	0x3f800000	1.0
128	0xbdf6cc7e	-0.120507225
129	0xbda54d41	-0.08071376
130	0x3d315403	0.04329301
131	0xbdea41a7	-0.114383034
132	0x3c1eb1aa	0.009685913
133	0xbda2b1bd	-0.07944057
134	0xbdf216a4	-0.118207246
135	0xbe6cf97a	-0.23142043
136	0xbe0e3c79	-0.13890256
137	0xbd880dfa	-0.06643291
138	0xbde4bf20	-0.11169267
139	0x3e0c2ba4	0.13688523
140	0x3d9408ca	0.07228239
141	0x3d30d833	0.043174934
142	0xbddd7939	-0.10814137
143	0x3d6af716	0.057364546
144	0x3daf0c59	0.08547277
145	0x3db86857	0.09004276
146	0x3daa1333	0.08304443
147	0xbdc88440	-0.0979085
148	0xbdd4cc17	-0.103904895
149	0xbe0e10e4	-0.13873631
150	0x3d0a221e	0.033723943
151	0xbcdc86c1	-0.026919724
152	0x3c8f0d27	0.017462326
153	0xbd25e827	-0.0405046
154	0x3cf9363b	0.030421367
155	0xbd04add6	-0.032392345
156	0x3db3c8e1	0.08778549
157	0xbd476c43	-0.04868723
158	0xbce6447c	-0.028108828
159	0x3c729b04	0.014807466
160	0xbb2b4283	-0.0026132173
161	0xbd32dfb9	-0.04367039
162	0xbc214947	-0.009844131
163	0x3cb1befa	0.02169751
164	0xbd046b93	-0.032329153
165	0x3d519abb	0.051172953
166	0xbdc98da0	-0.09841466
167	0xbd7eaca1	-0.06217635
168	0x3d612726	0.054968975
169	0xbdb5250b	-0.08844956
170	0x3da2b69f	0.079449885
171	0xbdc10a8c	-0.0942584
172	0xbd75d8b8	-0.060021132
173	0xbda24f7f	-0.07925319
174	0x3cceb705	0.025233755
175	0x3c342faa	0.010997692
176	0xbd9302d1	-0.071782716
177	0xbe0a5112	-0.13507488
178	0x3dea819b	0.114505015
179	0xbd5f386e	-0.054497175
180	0xba9b97d7	-0.0011870813
181	0x3d8284dc	0.06372997
182	0xbcad7e5e	-0.02117842
183	0xbdcfc1a1	-0.10144354
184	0xbdd4c677	-0.10389417
185	0xbcdc1edb	-0.026870182
186	0xbc82ac41	-0.015951278
187	0xbca845c7	-0.020541085
188	0x3d3cbb7e	0.046077244
189	0xbd601bbb	-0.054713946
190	0x3d4d9b64	0.05019702
191	0xbd0bd772	-0.03414101
192	0xbcca3dc5	-0.024687657
193	0xbcbe8f29	-0.023261623
194	0xbc485edb	-0.012229647
195	0x3c6b16de	0.014348714
196	0xbc60ce74	-0.013721097
197	0x3c978225	0.018494675
198	0x3c75e618	0.015008472
199	0x3d372ec7	0.044722345
200	0xbb373fc6	-0.0027961596
201	0xbb8d9882	-0.004321159
202	0xbc10fd2a	-0.0088494215
203	0xba8d98b5	-0.0010802957
204	0x3bd59262	0.0065176943
205	0xbb94d2fc	-0.004541753
206	0x3b0afd67	0.0021208168
207	0x3b13a0d2	0.0022526276
208	0x3be16ce0	0.006879434
209	0xba97c75f	-0.0011579803
210	0x3a90066b	0.0010988241
211	0x3c7ce2ab	0.015434901
212	0x3cac25d5	0.021014133
213	0x3cdfd4ec	0.027323209
214	0xbc1baee7	-0.009502149
215	0x391a4860	0.00014713546
216	0x3c874f2c	0.016517244
217	0xbc81639c	-0.015794568
218	0xbc9cd3bc	-0.019143932
219	0xbcc03c97	-0.023466391
220	0x3b22a5ec	0.0024818135
221	0x3a9d99c0	0.001202397
222	0xbc1230fa	-0.00892281
223	0x3ca65880	0.020305872
224	0xbb92e219	-0.0044825193
225	0x3b363503	0.0027802594
226	0xbc1da915	-0.009622832
227	0x3c07dce1	0.008292408
228	0xbba67638	-0.0050800107
229	0xbba360e2	-0.0049859146
230	0xbb4240a6	-0.0029640584
231	0x3bc28cd9	0.0059372005
232	0xbc3bda30	-0.011465594
233	0xbc0e74f2	-0.008694874
234	0xbbff8f63	-0.0077990755
235	0xbc0c6b30	-0.008570477
236	0x3c2543c2	0.0100869555
237	0x3c5c0ab9	0.013430291
238	0x3bc645af	0.0060507874
239	0x3c126594	0.008935351
240	0x3c18b3a0	0.00932017
241	0x3d06ce32	0.032911487
242	0x3c9c5772	0.019084666
243	0x3b88e7a5	0.004178005
244	0xbbbbf595	-0.005736063
245	0xbba7db8e	-0.0051226085
246	0xbbc8dbde	-0.006129726
247	0x3c26854f	0.010163619
248	0xbb98cbf3	-0.0046629845
249	0x3bda7056	0.0066662235
250	0xba5f66d0	-0.0008522095
251	0xbc42f492	-0.01189913
252	0x3c2b4706	0.010453945
253	0xbc696a55	-0.014246543
254	0x3babd630	0.005244039
255	0xbbf2e610	-0.0074126795

lstm_10/lstm_cell_11/bias f4 [256]
0	0x3c42cb9a	0.011889363
1	0x3d2b044f	0.041752156
2	0x3bbb59d1	0.005717494
3	0x3d409720	0.047019124
4	0x3bfc1f59	0.0076941666
5	0x3c64b0b4	0.013958145
6	0x3ccae7fa	0.024768818
7	0x3cee34ce	0.029077914
8	0x3cd8444d	0.026399756
9	0x3c61e466	0.013787365
10	0x3d26bfae	0.040710144
11	0x3d1af3be	0.037830107
12	0xbcbdb468	-0.023157313
13	0x3cd0f029	0.025505142
14	0x3ca9dcc8	0.02073516
15	0x3d755fcb	0.05990581
16	0x3da49d84	0.08037856
17	0x3dd5acf4	0.10433379
18	0x3cb5778b	0.02215173
19	0x3c6b728d	0.014370573
20	0x3c93577d	0.017986054
21	0x3d3fe773	0.046851587
22	0x3d10e259	0.035372112
23	0x3d8b872a	0.0681289
24	0x3ce1d3c9	0.027566807
25	0xba88d56b	-0.001043958
26	0x3e95dbac	0.2926916
27	0x3c1ffb8f	0.009764566
28	0x3c00809a	0.007843161
29	0x3ca239b7	0.019802911
30	0x3d0c6d09	0.03428367
31	0x3c955254	0.018227734
32	0x3cd819c7	0.02637948
33	0x3c766172	0.015037881
34	0x3d372f89	0.044723067
35	0x3c9247c6	0.01785649
36	0x3d95e37e	0.07318781
37	0x3c9b3d57	0.018950148
38	0x3bf73974	0.0075446907
39	0x3d280d03	0.041028034
40	0x3cc256dd	0.02372306
41	0x3d835daa	0.064143494
42	0xbc8d4481	-0.01724458
43	0xbc2273b7	-0.009915284
44	0x3d44247f	0.047886368
45	0x3c8649ea	0.016392667
46	0x3d08d1c5	0.033403177
47	0x3cce584e	0.025188591
48	0x3c543e37	0.012954286
49	0x3bf60377	0.0075077373
50	0x3d56733d	0.052355994
51	0x3c066dd1	0.008204893
52	0x3d8faf81	0.070158966
53	0x3d79d80b	0.06099705
54	0x3d2e87d5	0.04261001
55	0xba8c83c2	-0.0010720419
56	0xbc7dca74	-0.015490163
57	0x3c16655d	0.00917944
58	0x3cf32242	0.029679421
59	0xbac6acdc	-0.0015157717
60	0x3ccef8c8	0.025265113
61	0x3d213a2b	0.039362114
62	0x3cd3ce6c	0.025855266
63	0x3ca31601	0.019907953
64	0x3f800000	1.0
65	0x3f800000	1.0
66	0x3f800000	1.0
67	0x3f800000	1.0
68	0x3f800000	1.0
69	0x3f800000	1.0
70	0x3f800000	1.0
71	0x3f800000	1.0
72	0x3f800000	1.0
73	0x3f800000	1.0
74	0x3f800000	1.0
75	0x3f800000	1.0
76	0x3f800000	1.0
77	0x3f800000	1.0
78	0x3f800000	1.0
79	0x3f800000	1.0
80	0x3f800000	1.0
81	0x3f800000	1.0
82	0x3f800000	1.0
83	0x3f800000	1.0
84	0x3f800000	1.0
85	0x3f800000	1.0
86	0x3f800000	1.0
87	0x3f800000	1.0
88	0x3f800000	1.0
89	0x3f800000	1.0
90	0x3f800000	1.0
91	0x3f800000	1.0
92	0x3f800000	1.0
93	0x3f800000	1.0
94	0x3f800000	1.0
95	0x3f800000	1.0
96	0x3f800000	1.0
97	0x3f800000	1.0
98	0x3f800000	1.0
99	0x3f800000	1.0
100	0x3f800000	1.0
101	0x3f800000	1.0
102	0x3f800000	1.0
103	0x3f800000	1.0
104	0x3f800000	1.0
105	0x3f800000	1.0
106	0x3f800000	1.0
107	0x3f800000	1.0
108	0x3f800000	1.0
109	0x3f800000	1.0
110	0x3f800000	1.0
111	0x3f800000	1.0
112	0x3f800000	1.0
113	0x3f800000	1.0
114	0x3f800000	1.0
115	0x3f800000	1.0
116	0x3f800000	1.0
117	0x3f800000	1.0
118	0x3f800000	1.0
119	0x3f800000	1.0
120	0x3f800000	1.0
121	0x3f800000	1.0
122	0x3f800000	1.0
123	0x3f800000	1.0
124	0x3f800000	1.0
125	0x3f800000	1.0
126	0x3f800000	1.0
127	0x3f800000	1.0
128	0xbd5922cc	-0.0530117
129	0xbd6bc611	-0.057561938
130	0x3deacdde	0.11465047
131	0xbd38f623	-0.04515661
132	0x3c6eb279	0.014568918
133	0xbc753722	-0.014966758
134	0x3c8e6a95	0.017384807
135	0xbc65c7c7	-0.014024681
136	0xbd45f4e4	-0.04832925
137	0x3d30c3ac	0.043155357
138	0x3d9d91a8	0.07693797
139	0xbc8785d9	-0.016543316
140	0x3d9830f8	0.07431215
141	0xbdaf5937	-0.08561938
142	0xbd71e6e3	-0.05905808
143	0x3d8a091f	0.06740021
144	0xbdd39548	-0.103312075
145	0xbd9e429e	-0.0772755
146	0xbcc5cf7b	-0.024146786
147	0xbda6433d	-0.081182934
148	0x3d88f274	0.06686869
149	0xbd9aeccb	-0.07564696
150	0xbd3dd184	-0.046342388
151	0x3db8e2af	0.090276115
152	0xbd6e8d30	-0.058240116
153	0x3d9be904	0.076128036
154	0xbdb6db15	-0.08928505
155	0x3d8a4b3b	0.0675263
156	0x3d94ca6c	0.072651714
157	0x3d8b20d7	0.06793373
158	0xbd00b891	-0.031426016
159	0x3d59e7e6	0.05319967
160	0xbdbc7e86	-0.0920382
161	0x3c1287fc	0.008943554
162	0xbdeb742a	-0.11496766
163	0x3b81a710	0.003956683
164	0x3db9eae8	0.09078008
165	0xbd37997a	-0.0448241
166	0x3d848caa	0.06472142
167	0xbdc24d3e	-0.09487389
168	0x3c8b4c84	0.017004259
169	0xbd981ab0	-0.07426965
170	0xbd3927b6	-0.045203887
171	0xbdc074c4	-0.09397271
172	0xbdca3b0d	-0.09874544
173	0x3b9719c8	0.0046112277
174	0x3d97309d	0.07382319
175	0x3d9337a3	0.07188346
176	0xbb01c38c	-0.0019800393
177	0xbbc799d7	-0.006091337
178	0xbe2153d3	-0.15754633
179	0x3cc1af07	0.02364303
180	0x3d8563f3	0.065132044
181	0x3d9a869d	0.07545207
182	0xbd8d533b	-0.069006406
183	0xbd432d1f	-0.047650453
184	0x3d4a8ff3	0.049453687
185	0x3d544b64	0.05182971
186	0x3dfbda73	0.12297525
187	0x3d3e32fc	0.04643534
188	0x3c61f3cf	0.013791039
189	0xbd9c1d5c	-0.07622787
190	0xbca7eedc	-0.02049964
191	0x3c6efaad	0.014586133
192	0x3c849ae9	0.016187148
193	0x3d067335	0.032824714
194	0x3c0953ed	0.008381826
195	0x3d860a04	0.06544879
196	0x3c6b8eaf	0.01437728
197	0x3c97bc91	0.018522533
198	0x3c57aa17	0.013163111
199	0x3d0abb0e	0.033869796
200	0x3cf1c919	0.029514836
201	0x3c692f51	0.0142324725
202	0x3d3246f7	0.04352471
203	0x3d06f65a	0.032949783
204	0xbb273740	-0.002551511
205	0x3d0de5a9	0.03464285
206	0x3d0b5051	0.034012143
207	0x3d5228a9	0.051308308
208	0x3d98c513	0.07459464
209	0x3ddc3187	0.10751634
210	0x3d298c34	0.041393474
211	0x3c7354c4	0.014851753
212	0x3bfda005	0.007740023
213	0x3d0977c5	0.033561487
214	0x3cd27757	0.025691671
215	0x3d7d18dd	0.06179129
216	0x3d248eb0	0.04017514
217	0x3d1ada8e	0.037806086
218	0x3e8abc27	0.27096674
219	0x3c75ea97	0.015009544
220	0xbb8eebd9	-0.0043616113
221	0x3cd61814	0.026134528
222	0x3cd85c72	0.026411269
223	0x3c359b39	0.011084371
224	0x3cb4b41b	0.022058537
225	0x3c871f65	0.016494462
226	0x3d2b6f27	0.04185405
227	0x3c910967	0.017704679
228	0x3daf66e3	0.08564546
229	0x3c81a431	0.015825363
230	0x3cd51e7f	0.026015518
231	0x3cf5af98	0.029990956
232	0x3cac0857	0.02100007
233	0x3d6b2b1c	0.05741416
234	0x3aea8c26	0.0017894551
235	0x3cba0c52	0.022710953
236	0x3d47c645	0.04877307
237	0x3ccff5b2	0.025385711
238	0x3d1dc4f9	0.038517926
239	0x3ce382b2	0.027772281
240	0x3c939150	0.018013626
241	0x3c92c7dd	0.017917568
242	0x3d9affde	0.07568334
243	0x3c5c7931	0.013456629
244	0x3d8b00f1	0.06787289
245	0x3d802443	0.062569164
246	0x3cf331ec	0.02968689
247	0x3969601c	0.00022256415
248	0xbd4b221d	-0.04959308
249	0x3c0dc08f	0.008651867
250	0x3d109897	0.03530177
251	0xbc529601	-0.0128531465
252	0x3ca228a9	0.019794779
253	0x3d452a4e	0.048136048
254	0x3d14a6a9	0.036291752
255	0x3c8b367a	0.01699375

sequential_2/time_distributed_3/dense_3/MatMul f4 [21, 64]
0	0x3e28a9f8	0.16471088
1	0x3e1aff2d	0.15136404
2	0xbe752d82	-0.23943141
3	0x3e0f18ba	0.13974276
4	0xbe75a298	-0.23987806
5	0x3de0493e	0.1095147
6	0x3d94bdf1	0.07262791
7	0x3dc5558f	0.0963546
8	0x3e47dd5e	0.19518039
9	0x3da60628	0.08106643
10	0x3d3d017e	0.046144
11	0xbe96ee6a	-0.2947877
12	0xbe40dc0f	-0.18833946
13	0xbe3f9412	-0.18708828
14	0x3d866a95	0.06563298
15	0xbd918811	-0.07106031
16	0xbdf03ebc	-0.11730716
17	0xbdb81900	-0.08989143
18	0xbd97caae	-0.07411705
19	0x3dc10390	0.094245076
20	0x3d8ede81	0.06976033
21	0x3dbb7ad3	0.09154286
22	0xbde20d6c	-0.11037716
23	0x3e3fe6d1	0.18740393
24	0xbe68fa60	-0.2275176
25	0x3e1e0254	0.15430576
26	0x3e85ba34	0.26118624
27	0x3d1ce92f	0.03830832
28	0xbe8b5212	-0.27211052
29	0x3e8717a7	0.26385233
30	0xbe7b6baa	-0.2455279
31	0xbe175fa9	-0.14782585
32	0x3d84765b	0.06467887
33	0x3df2af71	0.11849869
34	0x3e71f4d9	0.23628558
35	0xbe80821f	-0.25099275
36	0x3def0bc9	0.1167217
37	0xbe82083c	-0.25396907
38	0x3d25e1cc	0.04049854
39	0x3e66c92a	0.22537675
40	0xbe867a7e	-0.2626533
41	0x3db75594	0.089518696
42	0xbe66d725	-0.22543009
43	0x3dbca307	0.092107825
44	0x3e76045e	0.24025103
45	0x3deb8723	0.11500385
46	0xbe1d537b	-0.15363877
47	0x3e3f4598	0.18678892
48	0x3e076aec	0.13224381
49	0x3d080eb7	0.03321716
50	0xbe275d12	-0.16344097
51	0x3e126918	0.14297903
52	0xbdcdd010	-0.100494504
53	0xbdb185d8	-0.08668107
54	0x3da8c602	0.08240892
55	0x3e2ace08	0.16680157
56	0x3df8605c	0.12127754
57	0x3e2cc648	0.16872513
58	0xbe878fc1	-0.26476863
59	0x3e1d1c4d	0.15342827
60	0xbe0aaf0b	-0.13543336
61	0x3e811b50	0.2521615
62	0xbe1dccd2	-0.15410164
63	0x3e43fe15	0.19139893
64	0x3e4e2072	0.20129564
65	0x3cc3ee93	0.023917472
66	0xbdc51bce	-0.09624444
67	0x3e37fb3c	0.17966932
68	0xbe88cbd1	-0.26718
69	0x3e69a203	0.22815709
70	0x3bc65d30	0.0060535893
71	0x3e2c68cb	0.1683685
72	0x3dde6ac7	0.1086021
73	0x3e3bc181	0.18335535
74	0x3e87bb33	0.2651001
75	0xbe51590c	-0.20444125
76	0xbe359990	-0.1773436
77	0xbe4f305b	-0.2023329
78	0x3d0902e4	0.033450022
79	0xbe475a08	-0.19467938
80	0xbde1bd5e	-0.11022447
81	0xbe2f7491	-0.1713431
82	0xbde8955e	-0.113566145
83	0x3dc6f921	0.09715486
84	0x3dba92a6	0.09110002
85	0x3e81fc03	0.25387582
86	0xbe3f9973	-0.1871088
87	0x3e65042f	0.22364877
88	0xbcc86b51	-0.024465235
89	0x3e342987	0.17593966
90	0x3ddc0251	0.10742629
91	0x3e7486f5	0.23879607
92	0xbadb601a	-0.0016737015
93	0x3de93947	0.11387878
94	0xbe5d22e2	-0.21595338
95	0xbe37b537	-0.17940222
96	0x3e43ec9d	0.1913323
97	0x3ea2b9c0	0.3178234
98	0x3e1e16db	0.15438406
99	0xbe11cb92	-0.14237812
100	0x3dfe26c8	0.12409741
101	0xbe0abc86	-0.13548478
102	0x3df2d907	0.11857801
103	0x3e0bd0e3	0.13653903
104	0xbda0886a	-0.07838519
105	0x3e1f7ac2	0.15574172
106	0xbe58c20b	-0.21167772
107	0x3e881e4e	0.2658562
108	0x3d6296e0	0.055319667
109	0x3dcab7f9	0.09898371
110	0xbdd62c4c	-0.10457668
111	0x3e0d840d	0.13819905
112	0x3e3b56ed	0.18294878
113	0xbc12535f	-0.00893101
114	0xbddcb4fb	-0.10776707
115	0x3dbadd2e	0.09124218
116	0xbe532f58	-0.20623529
117	0xbe347597	-0.17622982
118	0x3dbffc61	0.09374309
119	0x3e2e024c	0.16993064
120	0x3e79b80f	0.24386619
121	0x3d36e6ac	0.04465358
122	0xbe534465	-0.20631559
123	0x3e46f621	0.19429828
124	0xbe7373bc	-0.23774618
125	0x3deb2e0b	0.114833914
126	0xbe11dab8	-0.14243591
127	0x3e24024c	0.16016501
128	0x3dc26b39	0.09493107
129	0xbc34943a	-0.011021668
130	0xbe0cdc59	-0.13755931
131	0x3d846ac3	0.06465676
132	0xbdc6a348	-0.09699112
133	0x3e473eda	0.1945757
134	0x3d2706aa	0.04077784
135	0xbc80e01a	-0.01573186
136	0x3e162135	0.14661105
137	0x3e8b4f28	0.2720883
138	0x3e1ad300	0.15119553
139	0x3cfea0db	0.031082561
140	0xbe3bf1d3	-0.18353967
141	0xbe4d25d5	-0.20033963
142	0x3de8352e	0.11338268
143	0xbe198901	-0.14993669
144	0xbe201074	-0.15631276
145	0xbdb7c160	-0.0897243
146	0xbe1c1735	-0.15243228
147	0x3d419af1	0.047266904
148	0x3de061ee	0.109561786
149	0x3d906f17	0.07052439
150	0xbe167051	-0.14691283
151	0x3e800972	0.25007206
152	0xbe705c38	-0.23472679
153	0x3dd1c6e5	0.10243014
154	0x3eae46ed	0.34038487
155	0x3dd00e01	0.10158921
156	0xbe445054	-0.19171268
157	0x3d3f260b	0.04666714
158	0xbe826d01	-0.25473788
159	0xbe996c60	-0.29965496
160	0x3d65da55	0.05611642
161	0x3e2b002f	0.16699289
162	0x3e5ef238	0.21772087
163	0xbe919384	-0.28432858
164	0x3e415a63	0.18882136
165	0xbe0c2fe7	-0.13690148
166	0x3df5dd3d	0.120050885
167	0x3e3b6217	0.18299137
168	0xbe776b8f	-0.24162124
169	0x3d8bb124	0.06820896
170	0xbe42c88f	-0.1902182
171	0xbc8b73f7	-0.01702307
172	0x3e162143	0.14661126
173	0x3e211dbd	0.15734
174	0xbe47301b	-0.19451945
175	0x3e639ebb	0.2222852
176	0x3ddfdd29	0.10930855
177	0x3e21c031	0.15795971
178	0xbd06f508	-0.032948524
179	0x3e493745	0.1964999
180	0xbe726d1a	-0.23674431
181	0xbe5c835f	-0.21534489
182	0x3e846c77	0.25864002
183	0x3e23adfb	0.15984337
184	0x3d8b6600	0.06806564
185	0x3e1b4ca0	0.15165949
186	0xbe3f88fc	-0.18704599
187	0x3d126358	0.035739273
188	0xbe6d9808	-0.23202527
189	0x3e51f65a	0.20504132
190	0xbe5992bb	-0.2124738
191	0x3e8184e7	0.2529671
192	0x3e7eee42	0.24895576
193	0x3dbff618	0.093731105
194	0xbe6926f5	-0.22768767
195	0x3d8da0ef	0.06915461
196	0xbe0491b5	-0.12946208
197	0x3e0d20b4	0.13782007
198	0xbb5e4903	-0.003391803
199	0xbb554b2f	-0.0032546034
200	0x3e705808	0.23471081
201	0x3e2fffb8	0.17187393
202	0x3e4a2f14	0.19744521
203	0x3d1e0b2d	0.038584877
204	0xbe28516f	-0.16437314
205	0xbd1a8913	-0.03772838
206	0x3e756467	0.23964082
207	0xbdff1194	-0.12454525
208	0xbe44615a	-0.19177762
209	0xbe4020e5	-0.18762548
210	0xbd481fca	-0.04885844
211	0x3e52e496	0.20595011
212	0x3e5ca1be	0.21546075
213	0x3dc298e4	0.09501818
214	0xbe3333c6	-0.17500219
215	0x3d37128c	0.044695422
216	0xbe56a18b	-0.20960061
217	0x3e1278a2	0.1430383
218	0x3de8af95	0.113616146
219	0x3e8958f6	0.26825684
220	0xbdf373fe	-0.11887358
221	0x3e3d6b55	0.18497975
222	0xbe67589f	-0.225924
223	0xbe226f0a	-0.1586267
224	0x3e25086e	0.16116497
225	0x3dae3de4	0.085078984
226	0x3e5dff95	0.21679528
227	0xbe4a87ed	-0.19778414
228	0x3e159011	0.14605738
229	0xbdaa9fb2	-0.08331241
230	0x3e330fba	0.17486468
231	0x3ddb6346	0.10712294
232	0xbd5e4dff	-0.0542736
233	0x3d9bd44c	0.07608852
234	0xbe0731ea	-0.13202634
235	0x3db54d55	0.088526405
236	0x3e4a4eb2	0.19756582
237	0x3decfdc0	0.115718365
238	0xbe1bd642	-0.15218452
239	0x3e5b76f8	0.21432102
240	0x3e19ab98	0.15006864
241	0x3e7d0039	0.24707116
242	0xbdcc8834	-0.09986916
243	0x3e0b314a	0.13593021
244	0xbe7ace4f	-0.24492763
245	0xbdc6249a	-0.0967495
246	0x3e32e924	0.17471749
247	0x3e1b6924	0.15176827
248	0x3e0d79b1	0.13815953
249	0x3e498da5	0.1968294
250	0xbe969912	-0.29413658
251	0x3dd3e362	0.10346104
252	0xbe749c87	-0.23887835
253	0x3e810edc	0.2520665
254	0xbe2728a3	-0.16324095
255	0x3dfe3620	0.12412667

lstm_10/lstm_cell_11/bias1 f4 [256]
0	0x3c42cb9a	0.011889363
1	0x3d2b044f	0.041752156
2	0x3bbb59d1	0.005717494
3	0x3d409720	0.047019124
4	0x3bfc1f59	0.0076941666
5	0x3c64b0b4	0.013958145
6	0x3ccae7fa	0.024768818
7	0x3cee34ce	0.029077914
8	0x3cd8444d	0.026399756
9	0x3c61e466	0.013787365
10	0x3d26bfae	0.040710144
11	0x3d1af3be	0.037830107
12	0xbcbdb468	-0.023157313
13	0x3cd0f029	0.025505142
14	0x3ca9dcc8	0.02073516
15	0x3d755fcb	0.05990581
16	0x3da49d84	0.08037856
17	0x3dd5acf4	0.10433379
18	0x3cb5778b	0.02215173
19	0x3c6b728d	0.014370573
20	0x3c93577d	0.017986054
21	0x3d3fe773	0.046851587
22	0x3d10e259	0.035372112
23	0x3d8b872a	0.0681289
24	0x3ce1d3c9	0.027566807
25	0xba88d56b	-0.001043958
26	0x3e95dbac	0.2926916
27	0x3c1ffb8f	0.009764566
28	0x3c00809a	0.007843161
29	0x3ca239b7	0.019802911
30	0x3d0c6d09	0.03428367
31	0x3c955254	0.018227734
32	0x3cd819c7	0.02637948
33	0x3c766172	0.015037881
34	0x3d372f89	0.044723067
35	0x3c9247c6	0.01785649
36	0x3d95e37e	0.07318781
37	0x3c9b3d57	0.018950148
38	0x3bf73974	0.0075446907
39	0x3d280d03	0.041028034
40	0x3cc256dd	0.02372306
41	0x3d835daa	0.064143494
42	0xbc8d4481	-0.01724458
43	0xbc2273b7	-0.009915284
44	0x3d44247f	0.047886368
45	0x3c8649ea	0.016392667
46	0x3d08d1c5	0.033403177
47	0x3cce584e	0.025188591
48	0x3c543e37	0.012954286
49	0x3bf60377	0.0075077373
50	0x3d56733d	0.052355994
51	0x3c066dd1	0.008204893
52	0x3d8faf81	0.070158966
53	0x3d79d80b	0.06099705
54	0x3d2e87d5	0.04261001
55	0xba8c83c2	-0.0010720419
56	0xbc7dca74	-0.015490163
57	0x3c16655d	0.00917944
58	0x3cf32242	0.029679421
59	0xbac6acdc	-0.0015157717
60	0x3ccef8c8	0.025265113
61	0x3d213a2b	0.039362114
62	0x3cd3ce6c	0.025855266
63	0x3ca31601	0.019907953
64	0x3f800000	1.0
65	0x3f800000	1.0
66	0x3f800000	1.0
67	0x3f800000	1.0
68	0x3f800000	1.0
69	0x3f800000	1.0
70	0x3f800000	1.0
71	0x3f800000	1.0
72	0x3f800000	1.0
73	0x3f800000	1.0
74	0x3f800000	1.0
75	0x3f800000	1.0
76	0x3f800000	1.0
77	0x3f800000	1.0
78	0x3f800000	1.0
79	0x3f800000	1.0
80	0x3f800000	1.0
81	0x3f800000	1.0
82	0x3f800000	1.0
83	0x3f800000	1.0
84	0x3f800000	1.0
85	0x3f800000	1.0
86	0x3f800000	1.0
87	0x3f800000	1.0
88	0x3f800000	1.0
89	0x3f800000	1.0
90	0x3f800000	1.0
91	0x3f800000	1.0
92	0x3f800000	1.0
93	0x3f800000	1.0
94	0x3f800000	1.0
95	0x3f800000	1.0
96	0x3f800000	1.0
97	0x3f800000	1.0
98	0x3f800000	1.0
99	0x3f800000	1.0
100	0x3f800000	1.0
101	0x3f800000	1.0
102	0x3f800000	1.0
103	0x3f800000	1.0
104	0x3f800000	1.0
105	0x3f800000	1.0
106	0x3f800000	1.0
107	0x3f800000	1.0
108	0x3f800000	1.0
109	0x3f800000	1.0
110	0x3f800000	1.0
111	0x3f800000	1.0
112	0x3f800000	1.0
113	0x3f800000	1.0
114	0x3f800000	1.0
115	0x3f800000	1.0
116	0x3f800000	1.0
117	0x3f800000	1.0
118	0x3f800000	1.0
119	0x3f800000	1.0
120	0x3f800000	1.0
121	0x3f800000	1.0
122	0x3f800000	1.0
123	0x3f800000	1.0
124	0x3f800000	1.0
125	0x3f800000	1.0
126	0x3f800000	1.0
127	0x3f800000	1.0
128	0xbd5922cc	-0.0530117
129	0xbd6bc611	-0.057561938
130	0x3deacdde	0.11465047
131	0xbd38f623	-0.04515661
132	0x3c6eb279	0.014568918
133	0xbc753722	-0.014966758
134	0x3c8e6a95	0.017384807
135	0xbc65c7c7	-0.014024681
136	0xbd45f4e4	-0.04832925
137	0x3d30c3ac	0.043155357
138	0x3d9d91a8	0.07693797
139	0xbc8785d9	-0.016543316
140	0x3d9830f8	0.07431215
141	0xbdaf5937	-0.08561938
142	0xbd71e6e3	-0.05905808
143	0x3d8a091f	0.06740021
144	0xbdd39548	-0.103312075
145	0xbd9e429e	-0.0772755
146	0xbcc5cf7b	-0.024146786
147	0xbda6433d	-0.081182934
148	0x3d88f274	0.06686869
149	0xbd9aeccb	-0.07564696
150	0xbd3dd184	-0.046342388
151	0x3db8e2af	0.090276115
152	0xbd6e8d30	-0.058240116
153	0x3d9be904	0.076128036
154	0xbdb6db15	-0.08928505
155	0x3d8a4b3b	0.0675263
156	0x3d94ca6c	0.072651714
157	0x3d8b20d7	0.06793373
158	0xbd00b891	-0.031426016
159	0x3d59e7e6	0.05319967
160	0xbdbc7e86	-0.0920382
161	0x3c1287fc	0.008943554
162	0xbdeb742a	-0.11496766
163	0x3b81a710	0.003956683
164	0x3db9eae8	0.09078008
165	0xbd37997a	-0.0448241
166	0x3d848caa	0.06472142
167	0xbdc24d3e	-0.09487389
168	0x3c8b4c84	0.017004259
169	0xbd981ab0	-0.07426965
170	0xbd3927b6	-0.045203887
171	0xbdc074c4	-0.09397271
172	0xbdca3b0d	-0.09874544
173	0x3b9719c8	0.0046112277
174	0x3d97309d	0.07382319
175	0x3d9337a3	0.07188346
176	0xbb01c38c	-0.0019800393
177	0xbbc799d7	-0.006091337
178	0xbe2153d3	-0.15754633
179	0x3cc1af07	0.02364303
180	0x3d8563f3	0.065132044
181	0x3d9a869d	0.07545207
182	0xbd8d533b	-0.069006406
183	0xbd432d1f	-0.047650453
184	0x3d4a8ff3	0.049453687
185	0x3d544b64	0.05182971
186	0x3dfbda73	0.12297525
187	0x3d3e32fc	0.04643534
188	0x3c61f3cf	0.013791039
189	0xbd9c1d5c	-0.07622787
190	0xbca7eedc	-0.02049964
191	0x3c6efaad	0.014586133
192	0x3c849ae9	0.016187148
193	0x3d067335	0.032824714
194	0x3c0953ed	0.008381826
195	0x3d860a04	0.06544879
196	0x3c6b8eaf	0.01437728
197	0x3c97bc91	0.018522533
198	0x3c57aa17	0.013163111
199	0x3d0abb0e	0.033869796
200	0x3cf1c919	0.029514836
201	0x3c692f51	0.0142324725
202	0x3d3246f7	0.04352471
203	0x3d06f65a	0.032949783
204	0xbb273740	-0.002551511
205	0x3d0de5a9	0.03464285
206	0x3d0b5051	0.034012143
207	0x3d5228a9	0.051308308
208	0x3d98c513	0.07459464
209	0x3ddc3187	0.10751634
210	0x3d298c34	0.041393474
211	0x3c7354c4	0.014851753
212	0x3bfda005	0.007740023
213	0x3d0977c5	0.033561487
214	0x3cd27757	0.025691671
215	0x3d7d18dd	0.06179129
216	0x3d248eb0	0.04017514
217	0x3d1ada8e	0.037806086
218	0x3e8abc27	0.27096674
219	0x3c75ea97	0.015009544
220	0xbb8eebd9	-0.0043616113
221	0x3cd61814	0.026134528
222	0x3cd85c72	0.026411269
223	0x3c359b39	0.011084371
224	0x3cb4b41b	0.022058537
225	0x3c871f65	0.016494462
226	0x3d2b6f27	0.04185405
227	0x3c910967	0.017704679
228	0x3daf66e3	0.08564546
229	0x3c81a431	0.015825363
230	0x3cd51e7f	0.026015518
231	0x3cf5af98	0.029990956
232	0x3cac0857	0.02100007
233	0x3d6b2b1c	0.05741416
234	0x3aea8c26	0.0017894551
235	0x3cba0c52	0.022710953
236	0x3d47c645	0.04877307
237	0x3ccff5b2	0.025385711
238	0x3d1dc4f9	0.038517926
239	0x3ce382b2	0.027772281
240	0x3c939150	0.018013626
241	0x3c92c7dd	0.017917568
242	0x3d9affde	0.07568334
243	0x3c5c7931	0.013456629
244	0x3d8b00f1	0.06787289
245	0x3d802443	0.062569164
246	0x3cf331ec	0.02968689
247	0x3969601c	0.00022256415
248	0xbd4b221d	-0.04959308
249	0x3c0dc08f	0.008651867
250	0x3d109897	0.03530177
251	0xbc529601	-0.0128531465
252	0x3ca228a9	0.019794779
253	0x3d452a4e	0.048136048
254	0x3d14a6a9	0.036291752
255	0x3c8b367a	0.01699375

while/MatMul_1 f4 [256, 64]
0	0x3bbbde00	0.0057332516
1	0xbda2badb	-0.07945796
2	0xbc0b83a0	-0.008515269
3	0x3c833977	0.016018612
4	0xbda9a173	-0.08282747
5	0xbdc39df2	-0.0955161
6	0x3d75da7e	0.060022824
7	0xbd4ae012	-0.049530096
8	0x3ceb62a6	0.028733563
9	0x3d91308f	0.0708934
10	0xbdf713d8	-0.12064332
11	0xbdec6ec4	-0.11544564
12	0x3d89a39c	0.06720659
13	0xbcba61a8	-0.022751644
14	0x3d289d82	0.041165836
15	0xbd9a07b8	-0.075210035
16	0xbcd008eb	-0.025394877
17	0x3cdbd2af	0.02683386
18	0x3db9ff16	0.09081857
19	0x3dbd84ce	0.09253846
20	0xbd0389f0	-0.03211397
21	0x3de2050b	0.11036118
22	0xbd49984d	-0.04921751
23	0x3d3860a0	0.045014024
24	0x3d8d3f6b	0.06896862
25	0xbc887400	-0.016656876
26	0x3d0b710c	0.034043357
27	0x3a6b1680	0.00089678913
28	0x3d91d317	0.0712034
29	0xbd02241c	-0.031772718
30	0x3d548f9e	0.051894777
31	0x3d6832b2	0.05668897
32	0xbc242372	-0.010018216
33	0x3c97c90d	0.018528486
34	0xbcc8ed0e	-0.024527099
35	0x3d78f23c	0.060777888
36	0x3c778e5d	0.015109626
37	0x3c6cef38	0.014461331
38	0xbc966e5a	-0.018363167
39	0x3d6e6904	0.05820562
40	0xbb83dd33	-0.0040241717
41	0xbe2ca4b9	-0.16859712
42	0x3c865d83	0.016402012
43	0xbbc30cd8	-0.005952459
44	0xbd0c57d4	-0.034263447
45	0x3d7fa670	0.062414587
46	0xbcf6f768	-0.03014727
47	0x3d7cb3ab	0.061694782
48	0xbd013e94	-0.03155382
49	0xbc376e62	-0.011195751
50	0xbdf249b3	-0.11830463
51	0x3d2dc043	0.042419683
52	0xbd309596	-0.043111406
53	0xbdcfbb0b	-0.101430975
54	0x396eb8c0	0.00022766273
55	0xbc17335a	-0.009228552
56	0x3d71e1e0	0.0590533
57	0xbdec78f9	-0.11546511
58	0x3e1844f1	0.14870049
59	0x3cc38c33	0.023870563
60	0xbcae7a92	-0.02129868
61	0x3d819fb8	0.06329292
62	0x3cccef90	0.025016576
63	0xbd347b01	-0.04406262
64	0x3d5d1d79	0.053983185
65	0xbd15ef80	-0.036605358
66	0x3dfd21bd	0.12359951
67	0x3ca04e7b	0.019568672
68	0xbd81c48c	-0.063363165
69	0xbaa528fc	-0.0012600715
70	0xbdb46252	-0.088078156
71	0x3cd675e2	0.026179258
72	0xbc55c5e2	-0.013047667
73	0x3c496d9e	0.012294201
74	0xbbdcd150	-0.006738819
75	0x3dde4695	0.10853306
76	0xbc8883f8	-0.01666449
77	0x3cceb2ab	0.02523168
78	0xbb692c27	-0.0035579295
79	0x3d9bb738	0.076033056
80	0xbd74686f	-0.059669908
81	0xbd8b2a2f	-0.06795155
82	0xbd36c30e	-0.044619612
83	0xbc892677	-0.016741974
84	0xbdce43a5	-0.10071496
85	0xbcef833b	-0.02923738
86	0xbdca19ae	-0.09868179
87	0xbbc609d2	-0.006043651
88	0x3c0d0c24	0.008608852
89	0xbca8fdf2	-0.020628903
90	0x3cdb3134	0.02675686
91	0xbdf101d8	-0.1176793
92	0xbcc2ec59	-0.02379434
93	0xbd4332f6	-0.047656022
94	0x3d917e12	0.07104124
95	0xbd203e22	-0.039121754
96	0x3e02aa64	0.12760311
97	0x3d9c8a42	0.07643558
98	0x3c4ab84a	0.0123730395
99	0xbd84085d	-0.06446908
100	0xbd11c9ad	-0.035592724
101	0x3c079030	0.008274123
102	0x3d2f9e25	0.042875428
103	0x3db11ae2	0.086477056
104	0xbd22ab29	-0.039714012
105	0xbb888164	-0.004165815
106	0x3c03b03d	0.008037624
107	0x3b0b2d42	0.0021236693
108	0xbcaf7694	-0.021418847
109	0xbbeaa7c4	-0.0071611125
110	0xbca1f0ec	-0.0197682
111	0xbd0db943	-0.034600507
112	0xbd9cd038	-0.07656902
113	0x3af38496	0.0018578942
114	0xbd63348e	-0.055470042
115	0x3cfe7c10	0.031065017
116	0xbdaa304c	-0.08309993
117	0x3d9c90c0	0.07644796
118	0x3be1988a	0.006884639
119	0xbb9ce08f	-0.0047875117
120	0xbd23ee06	-0.04002192
121	0x3d4302da	0.04761014
122	0xbcfbf326	-0.03075559
123	0x3d111ac7	0.035425927
124	0xbc8a2584	-0.016863592
125	0xbdb62d03	-0.08895304
126	0x3cbd7db2	0.023131225
127	0x3cb0bd4c	0.021574639
128	0xbdc378f3	-0.095445536
129	0x3d4b5b13	0.049647402
130	0x3d899040	0.06716967
131	0xbc84bfc0	-0.016204715
132	0x3d256ce0	0.040387034
133	0x3a534ab0	0.00080601405
134	0xbb3a7315	-0.0028449942
135	0x3c3fe6dc	0.011712756
136	0x3de94660	0.11390376
137	0x3dadc9aa	0.0848573
138	0xbdf950f4	-0.12173644
139	0x3d2539fa	0.040338494
140	0xbdcfe9a7	-0.101519875
141	0xbdee9cee	-0.11651026
142	0xbd9bc4d7	-0.076059036
143	0xbc137a14	-0.009001274
144	0x3ba19f9f	0.0049323584
145	0xbad48bf0	-0.0016216021
146	0x3b6a6370	0.0035764836
147	0x3be98aba	0.007127133
148	0xbd3ebbb8	-0.04656574
149	0xbdb6c168	-0.08923608
150	0xbd8d3b84	-0.06896117
151	0xbd307dd3	-0.043088745
152	0xbdfc2ed0	-0.12313616
153	0xbc8024df	-0.015642582
154	0xbcfb9a3f	-0.030713199
155	0xbacef4cc	-0.0015789508
156	0xbcff9db5	-0.03120313
157	0xbcbaa7ed	-0.022785151
158	0xbd969934	-0.0735344
159	0x3d50d24a	0.050981797
160	0x3e0279c9	0.1274177
161	0x3c385bf4	0.011252392
162	0x3d84e9ee	0.06489931
163	0xbc8b2d83	-0.016989475
164	0x3ca9b368	0.02071543
165	0xbcaf078d	-0.021365905
166	0x3ce4a1f0	0.027909249
167	0x3c9156ad	0.017741526
168	0x3d5a2cd6	0.053265415
169	0xbc3e7816	-0.01162531
170	0xbd8b9552	-0.0681559
171	0xbd0af9c9	-0.03392962
172	0x3c9c8d24	0.01911027
173	0x3d794360	0.06085527
174	0x3cec0439	0.028810607
175	0xbd207974	-0.039178327
176	0xbca759d8	-0.020428583
177	0xbdbced4e	-0.0922495
178	0xbad177c8	-0.0015981132
179	0x3cdbe2a3	0.026841467
180	0x3c9a2157	0.018814726
181	0xbd403b08	-0.046931297
182	0xbe1c31e4	-0.15253407
183	0xbd87de16	-0.066341564
184	0x3db64f4a	0.08901842
185	0x3d7af202	0.061265953
186	0x3d98fe3e	0.07470368
187	0xbd346719	-0.044043634
188	0x3d37755d	0.04478966
189	0xbd4263b3	-0.04745836
190	0xbcae333c	-0.021264665
191	0x3cbc5a27	0.022992207
192	0xbaf7ecf9	-0.0018915228
193	0xbd6d982f	-0.05800646
194	0x3cd11382	0.025521997
195	0xbd1ea140	-0.038728
196	0xbd6361c1	-0.055513147
197	0x3d9f8e30	0.07790792
198	0xbdd54483	-0.10413458
199	0x3be76984	0.007062139
200	0x3dcaec33	0.09908333
201	0xbe0700b3	-0.1318386
202	0xbd38bcf8	-0.04510209
203	0xbbbcdc9e	-0.0057636043
204	0xbc2aa2c8	-0.010414787
205	0xbe25ae02	-0.1617966
206	0x3c749cfe	0.014930008
207	0x3cac2c0d	0.021017099
208	0xbd16b8b6	-0.036797248
209	0x3c589daa	0.013221184
210	0x3e2a7386	0.16645631
211	0xbdaae394	-0.08344188
212	0x3d1c1748	0.03810814
213	0xbd660245	-0.05615451
214	0xbcf1ed94	-0.029532231
215	0x3d92c3bf	0.07166242
216	0x3d244fd3	0.04011519
217	0x3be5414e	0.0069963103
218	0x3d240677	0.040045228
219	0xbce131a8	-0.027489498
220	0x3d8de664	0.06928709
221	0xbca5172c	-0.02015265
222	0x3ceb661a	0.02873521
223	0xbd1cab7f	-0.03824949
224	0x3d77fa2a	0.06054131
225	0xbd1294a3	-0.035786282
226	0xbc32c7e1	-0.010911913
227	0xbdadadfe	-0.08480452
228	0x3d4d8bab	0.050182026
229	0x3d152cf9	0.036419842
230	0x3c1c9e1e	0.009559182
231	0x3d076872	0.03305859
232	0x39b6a7c8	0.00034838752
233	0xbcb387b2	-0.02191529
234	0xbcfc4b05	-0.03079749
235	0x3c9289de	0.017888006
236	0xbd3e1302	-0.046404846
237	0xbab2116d	-0.0013585516
238	0x3cc3b4ac	0.023889862
239	0xbd958eaa	-0.07302602
240	0xbd8e4461	-0.06946636
241	0x3a9e388a	0.0012071293
242	0xbd60c01b	-0.054870706
243	0x3dff50e4	0.124666005
244	0x3d3e6c78	0.046490163
245	0x3d5ba5c1	0.053624872
246	0xbd281625	-0.041036744
247	0x3dd3dc0b	0.10344704
248	0x3b4860a4	0.003057518
249	0xbc6fb75f	-0.014631121
250	0x3c7d364d	0.015454841
251	0xbd61a606	-0.055089973
252	0xbd6f9af0	-0.05849737
253	0x3d3641f8	0.044496506
254	0xbcb92cec	-0.022604428
255	0x3ccd9313	0.025094545

while/MatMul f4 [256, 21]
0	0xbcf901d8	-0.030396387
1	0xbe0b5a3f	-0.13608645
2	0x3da1a95f	0.07893633
3	0xbdfd12e0	-0.12357116
4	0x3c0de3c8	0.008660264
5	0xbd9bec38	-0.076134145
6	0xbd1ebfc1	-0.03875709
7	0xbd97a5aa	-0.07404645
8	0x3d97c390	0.074103475
9	0x3de517b4	0.11186162
10	0x3c5934b8	0.013257198
11	0xbd8a0708	-0.06739622
12	0xbe21a88b	-0.1578695
13	0x3def2424	0.11676815
14	0x3df89bfe	0.12139128
15	0xbe262d56	-0.16228232
16	0xbe08b00e	-0.1334841
17	0xbe2f37ef	-0.1711118
18	0xbd311c3e	-0.043239824
19	0xbdc6d12c	-0.09707865
20	0xbdbc7efb	-0.09203907
21	0xbdadade1	-0.084804304
22	0xbc451818	-0.01202967
23	0xbe09310f	-0.1339762
24	0xbe0e34d5	-0.13887341
25	0x3dae1c49	0.08501489
26	0xbe11e81e	-0.14248702
27	0xbd0fa5d2	-0.035070248
28	0xbdcaf545	-0.09910063
29	0xbe0e2266	-0.1388031
30	0xbe2bc624	-0.16774803
31	0x3ba9f096	0.005186151
32	0xbe127b5e	-0.14304873
33	0xbe46f238	-0.19428337
34	0xbdb5662c	-0.08857378
35	0xbe4807fa	-0.19534293
36	0xbc795889	-0.015218862
37	0x3dc3206c	0.09527668
38	0x3b259d5c	0.0025270795
39	0x3d10ad50	0.035321534
40	0xbe057a6b	-0.1303498
41	0xbd007d3f	-0.031369444
42	0xbe07fc32	-0.13279799
43	0x3d8e192d	0.06938396
44	0xbd30189f	-0.04299223
45	0xbe266d85	-0.16252716
46	0x3c5e5277	0.013569466
47	0x3cb36a80	0.02190137
48	0x3d187391	0.037219588
49	0x3dd5ce5e	0.10439752
50	0x3db5e043	0.08880665
51	0xbce2200a	-0.027603168
52	0x3da5fd8e	0.08105002
53	0x3dd0ce59	0.10195608
54	0x3d4c1680	0.049826145
55	0xbe1065c6	-0.14101323
56	0xbe048fdd	-0.12945504
57	0xbe0a96bc	-0.13534063
58	0xbdbc07ef	-0.09181201
59	0x3cb6d4b2	0.022318218
60	0xbccf0b8d	-0.025274063
61	0x3d77ba64	0.06048049
62	0x3d99330e	0.07480441
63	0xbda799f4	-0.08183661
64	0xbd665231	-0.056230728
65	0xbbd94465	-0.0066304677
66	0xbe0e7ce0	-0.13914824
67	0xbdb65e33	-0.08904686
68	0xbe24624f	-0.16053127
69	0x3e064d87	0.13115512
70	0xbcf288f0	-0.029606313
71	0x3d0c4eeb	0.03425495
72	0x3d0f6fc3	0.035018694
73	0xbd4c5c7c	-0.049892887
74	0xbda8c98e	-0.082415685
75	0xbe645dad	-0.2230136
76	0xbd2f6c10	-0.042827666
77	0xbd2d780d	-0.042350817
78	0xbe4c2ddf	-0.19939373
79	0xbe0496e5	-0.12948187
80	0xbe5f59b6	-0.21811566
81	0x3e2305d1	0.15920188
82	0xbc3c0e3e	-0.011478005
83	0x3d05ebbc	0.032695517
84	0xbe292a48	-0.16520035
85	0xbd476b95	-0.048686583
86	0x3d8a375a	0.06748839
87	0x3dda41c3	0.10657074
88	0x3d6233f6	0.055225335
89	0xbba89e89	-0.005145852
90	0xbd13d428	-0.036091
91	0x3d8eb2da	0.06967707
92	0xbe1eeb77	-0.1551951
93	0xbe2dce60	-0.16973257
94	0xbe110093	-0.14160375
95	0xbd1e9033	-0.038711738
96	0x3dbac315	0.0911924
97	0x3ded5be4	0.11589792
98	0xbd7d3f32	-0.061827846
99	0xbdc86529	-0.0978492
100	0xbe28ef5a	-0.16497555
101	0x3d1e39c2	0.0386293
102	0x3e2148e0	0.15750456
103	0xbce851be	-0.02835929
104	0x3e066106	0.13122949
105	0x3d3ccbec	0.046092913
106	0x3c8a2b05	0.016866216
107	0xbe29b42e	-0.1657264
108	0x3da36ae4	0.07979372
109	0x3ddf2b81	0.108969696
110	0x3d8d105a	0.068878844
111	0xbe24368c	-0.16036433
112	0x3dfc2836	0.12312357
113	0xbe543b73	-0.20725803
114	0xbd3509c3	-0.044198763
115	0x3d45297c	0.048135266
116	0x3cd684bd	0.026186341
117	0xbdb3b534	-0.08774796
118	0x3dc75c1b	0.097343646
119	0xbd8a78b2	-0.06761302
120	0xbcd9f8c7	-0.026607884
121	0xbde96555	-0.11396281
122	0xbe29cd5e	-0.16582248
123	0xbdbe96c1	-0.09306098
124	0xbcd6539f	-0.02616292
125	0x3c63b34f	0.013897731
126	0xbd0ea717	-0.034827318
127	0x3d13ccec	0.0360841
128	0xbe02c1f7	-0.12769304
129	0xbc903539	-0.017603504
130	0xbca2cb08	-0.019872203
131	0xbc885b4f	-0.016645102
132	0xbd87cd2e	-0.06630932
133	0xbe03266b	-0.12807624
134	0x3be79f85	0.0070685768
135	0x3d69ba6f	0.057062563
136	0xbe0fbd9e	-0.14037177
137	0xbde4c997	-0.11171263
138	0x3d770a5c	0.060312614
139	0x3d6bf500	0.057606697
140	0xbe17e09c	-0.14831775
141	0x3d231329	0.039813194
142	0xbd6510ed	-0.055924345
143	0xbda9ceb9	-0.08291382
144	0xbdba69ad	-0.09102187
145	0x3bdef661	0.006804273
146	0x3d041832	0.032249637
147	0xbe1ee0cd	-0.15515442
148	0xbbe6dd22	-0.007045404
149	0xbdaef4e1	-0.08542801
150	0xbaa57096	-0.0012622054
151	0xbe251d81	-0.16124536
152	0xbab77cd1	-0.001399899
153	0x3a2991c6	0.00064685603
154	0x3d6b4ef0	0.057448328
155	0x3dabd433	0.08390083
156	0xbdc8c0c3	-0.098023914
157	0x3c995062	0.018715087
158	0x3c8434d4	0.016138472
159	0xbd04ffdc	-0.03247057
160	0xbdb3fb83	-0.087882064
161	0xbd95a379	-0.073065706
162	0x3d17fd72	0.03710694
163	0xbdfdc72d	-0.123915054
164	0xbe0edaef	-0.13950704
165	0x3d5d1d61	0.053983096
166	0x3d68c412	0.056827612
167	0xbdb31d2c	-0.087457985
168	0x3c0a6f26	0.008449351
169	0xbc2dc98b	-0.010607134
170	0x3d3ee9af	0.046609577
171	0x3d9254c4	0.07145074
172	0xbe0afcba	-0.1357297
173	0x3d98b6e6	0.0745676
174	0xbe56a8f9	-0.20962895
175	0x3d1c6e24	0.038190976
176	0x3ce09ba9	0.027417975
177	0x3d85e84e	0.06538449
178	0x3d9e3506	0.07724957
179	0xbd9c1905	-0.076219596
180	0x3bbbe086	0.0057335524
181	0x3d98f4b1	0.07468546
182	0xbdbd668e	-0.092480764
183	0xbc34eda6	-0.011042988
184	0x3d7265b1	0.05917901
185	0x3d461ed4	0.048369244
186	0x3de24608	0.11048514
187	0xbe0c232b	-0.1368529
188	0x3e318265	0.17334898
189	0x3dca52c7	0.0987907
190	0x3dbf323d	0.09335754
191	0xbe1e3f16	-0.15453753
192	0xbe261c01	-0.1622162
193	0x3e0511c6	0.12995061
194	0xbda758d2	-0.08171238
195	0xbe1ea1aa	-0.15491357
196	0x3d6468aa	0.055763878
197	0x3cf9b4c8	0.030481711
198	0xbe1c01ea	-0.15235105
199	0xbd8fe1ce	-0.07025491
200	0xbe30e36e	-0.17274258
201	0xbdc693cf	-0.09696161
202	0x3d6c257a	0.057652928
203	0xbdcd87e2	-0.10035683
204	0x3c9700dc	0.018433027
205	0x3d242b14	0.040080145
206	0xbd78c98e	-0.060739093
207	0x3d526154	0.05136235
208	0xbe199c3a	-0.15001002
209	0x3dacc4ad	0.084359504
210	0xbc8e2cc2	-0.017355327
211	0x3cd6285d	0.026142294
212	0xbd72b93a	-0.059258677
213	0x3d6d11a4	0.05787815
214	0xbd5f4c14	-0.054515913
215	0xbdf9947a	-0.12186523
216	0x3d650454	0.05591233
217	0x3cb7c521	0.022432866
218	0xbdf593a4	-0.11991051
219	0x3d2f86a1	0.042853
220	0xbe751402	-0.23933414
221	0xbc3d2cc8	-0.011546321
222	0xbe185646	-0.1487666
223	0xbdfcae11	-0.12337888
224	0x3c86bd92	0.016447816
225	0xbdc6a57a	-0.09699531
226	0xbd67a07c	-0.056549534
227	0xbe4451f7	-0.19171892
228	0x3dee7f29	0.116453476
229	0x3d5739cd	0.052545357
230	0x3e1fcf73	0.1560648
231	0xbbc4a641	-0.0060012643
232	0x3dae66d4	0.08515707
233	0x3cfd32d5	0.030908028
234	0x3ce03dfb	0.027373305
235	0xbc0f8cb0	-0.00876157
236	0xbe3bb5b4	-0.18331033
237	0xbd8324a6	-0.064034745
238	0xbe2eb848	-0.17062485
239	0x3d495b9d	0.049159635
240	0xbe34f68e	-0.17672178
241	0xbc86a488	-0.016435876
242	0xbce0e269	-0.02745171
243	0xbe3083c4	-0.17237765
244	0xbe056389	-0.13026251
245	0x3d284f77	0.04109141
246	0x3d9eaef7	0.07748216
247	0xbe2462be	-0.16053292
248	0xbba9523f	-0.005167275
249	0xbd372e62	-0.04472197
250	0xbd8f4296	-0.06995122
251	0xbc38a867	-0.011270619
252	0xbd983994	-0.07432857
253	0xbdcaea34	-0.09907952
254	0xbdeb1085	-0.1147776
255	0xbd85e00a	-0.06536873

lstm_11/lstm_cell_12/bias1 f4 [256]
0	0xbcc51d82	-0.024061922
1	0xbbc09f3a	-0.0058783563
2	0xb9834f00	-0.00025045127
3	0x3cc28549	0.023745196
4	0xbc05cbca	-0.008166263
5	0x3bf55137	0.007486488
6	0x3bd6b829	0.0065527153
7	0x3d3e5690	0.04646927
8	0xbc238b95	-0.009982009
9	0x3bafe67f	0.0053680534
10	0x39affd20	0.00033567194
11	0x3aed8dd6	0.0018123935
12	0xbbde5cc0	-0.006785959
13	0xbb3cb4c8	-0.0028794277
14	0x3c9a2c12	0.018819842
15	0x3c1482a9	0.009064355
16	0x3c6e462a	0.014543096
17	0x3ca27654	0.019831814
18	0x3b84db02	0.004054428
19	0x3bb75a14	0.005595455
20	0x3ccca527	0.024981095
21	0x3c999139	0.018746005
22	0x3984716c	0.00025261508
23	0x3cbcbf8e	0.02304056
24	0x3bba8d1d	0.0056930915
25	0xbb817a97	-0.0039513814
26	0xbc86ea97	-0.016469283
27	0xbcc67b7c	-0.024228804
28	0x3c4ec285	0.012619619
29	0x3c00c9c5	0.007860606
30	0xbbe59010	-0.007005699
31	0x3ca8e727	0.020618035
32	0xbb0a3962	-0.0021091332
33	0x3c63a41e	0.013894109
34	0xbb805ff0	-0.0039176866
35	0x3d046cb4	0.03233023
36	0x3a29791f	0.0006464887
37	0x3c0bd05f	0.008533566
38	0xbbadd587	-0.0053049955
39	0x3c801bea	0.01563831
40	0x3b6e57d5	0.003636827
41	0xbc12e2fd	-0.008965251
42	0xbaf73de0	-0.0018863045
43	0x3ab0b8d7	0.0013482821
44	0x3c3d8fcf	0.011569931
45	0x3ce57b77	0.028012974
46	0x3c10a562	0.008828493
47	0x3cd6315b	0.026146581
48	0x3c385cf5	0.011252631
49	0x3d06440c	0.03277974
50	0x3c86eae3	0.016469425
51	0x3bde1aa9	0.0067780805
52	0x3b9d0ee9	0.004793037
53	0xbaf85aab	-0.001894792
54	0xbbe0ba23	-0.0068581267
55	0x3c5e685c	0.013574686
56	0xbc01be6e	-0.007918937
57	0x3bea2ee5	0.0071467035
58	0x3b8e0049	0.00433353
59	0xbc33f680	-0.010984063
60	0x3c170df0	0.009219632
61	0xbc7972a8	-0.01522509
62	0x3b3a883a	0.0028462545
63	0x3c3c2a4d	0.011484695
64	0x3f800000	1.0
65	0x3f800000	1.0
66	0x3f800000	1.0
67	0x3f800000	1.0
68	0x3f800000	1.0
69	0x3f800000	1.0
70	0x3f800000	1.0
71	0x3f800000	1.0
72	0x3f800000	1.0
73	0x3f800000	1.0
74	0x3f800000	1.0
75	0x3f800000	1.0
76	0x3f800000	1.0
77	0x3f800000	1.0
78	0x3f800000	1.0
79	0x3f800000	1.0
80	0x3f800000	1.0
81	0x3f800000	1.0
82	0x3f800000	1.0
83	0x3f800000	1.0
84	0x3f800000	1.0
85	0x3f800000	1.0
86	0x3f800000	1.0
87	0x3f800000	1.0
88	0x3f800000	1.0
89	0x3f800000	1.0
90	0x3f800000	1.0
91	0x3f800000	1.0
92	0x3f800000	1.0
93	0x3f800000	1.0
94	0x3f800000	1.0
95	0x3f800000	1.0
96	0x3f800000	1.0
97	0x3f800000	1.0
98	0x3f800000	1.0
99	0x3f800000	1.0
100	0x3f800000	1.0
101	0x3f800000	1.0
102	0x3f800000	1.0
103	0x3f800000	1.0
104	0x3f800000	1.0
105	0x3f800000	1.0
106	0x3f800000	1.0
107	0x3f800000	1.0
108	0x3f800000	1.0
109	0x3f800000	1.0
110	0x3f800000	1.0
111	0x3f800000	1.0
112	0x3f800000	1.0
113	0x3f800000	1.0
114	0x3f800000	1.0
115	0x3f800000	1.0
116	0x3f800000	1.0
117	0x3f800000	1.0
118	0x3f800000	1.0
119	0x3f800000	1.0
120	0x3f800000	1.0
121	0x3f800000	1.0
122	0x3f800000	1.0
123	0x3f800000	1.0
124	0x3f800000	1.0
125	0x3f800000	1.0
126	0x3f800000	1.0
127	0x3f800000	1.0
128	0xbdf6cc7e	-0.120507225
129	0xbda54d41	-0.08071376
130	0x3d315403	0.04329301
131	0xbdea41a7	-0.114383034
132	0x3c1eb1aa	0.009685913
133	0xbda2b1bd	-0.07944057
134	0xbdf216a4	-0.118207246
135	0xbe6cf97a	-0.23142043
136	0xbe0e3c79	-0.13890256
137	0xbd880dfa	-0.06643291
138	0xbde4bf20	-0.11169267
139	0x3e0c2ba4	0.13688523
140	0x3d9408ca	0.07228239
141	0x3d30d833	0.043174934
142	0xbddd7939	-0.10814137
143	0x3d6af716	0.057364546
144	0x3daf0c59	0.08547277
145	0x3db86857	0.09004276
146	0x3daa1333	0.08304443
147	0xbdc88440	-0.0979085
148	0xbdd4cc17	-0.103904895
149	0xbe0e10e4	-0.13873631
150	0x3d0a221e	0.033723943
151	0xbcdc86c1	-0.026919724
152	0x3c8f0d27	0.017462326
153	0xbd25e827	-0.0405046
154	0x3cf9363b	0.030421367
155	0xbd04add6	-0.032392345
156	0x3db3c8e1	0.08778549
157	0xbd476c43	-0.04868723
158	0xbce6447c	-0.028108828
159	0x3c729b04	0.014807466
160	0xbb2b4283	-0.0026132173
161	0xbd32dfb9	-0.04367039
162	0xbc214947	-0.009844131
163	0x3cb1befa	0.02169751
164	0xbd046b93	-0.032329153
165	0x3d519abb	0.051172953
166	0xbdc98da0	-0.09841466
167	0xbd7eaca1	-0.06217635
168	0x3d612726	0.054968975
169	0xbdb5250b	-0.08844956
170	0x3da2b69f	0.079449885
171	0xbdc10a8c	-0.0942584
172	0xbd75d8b8	-0.060021132
173	0xbda24f7f	-0.07925319
174	0x3cceb705	0.025233755
175	0x3c342faa	0.010997692
176	0xbd9302d1	-0.071782716
177	0xbe0a5112	-0.13507488
178	0x3dea819b	0.114505015
179	0xbd5f386e	-0.054497175
180	0xba9b97d7	-0.0011870813
181	0x3d8284dc	0.06372997
182	0xbcad7e5e	-0.02117842
183	0xbdcfc1a1	-0.10144354
184	0xbdd4c677	-0.10389417
185	0xbcdc1edb	-0.026870182
186	0xbc82ac41	-0.015951278
187	0xbca845c7	-0.020541085
188	0x3d3cbb7e	0.046077244
189	0xbd601bbb	-0.054713946
190	0x3d4d9b64	0.05019702
191	0xbd0bd772	-0.03414101
192	0xbcca3dc5	-0.024687657
193	0xbcbe8f29	-0.023261623
194	0xbc485edb	-0.012229647
195	0x3c6b16de	0.014348714
196	0xbc60ce74	-0.013721097
197	0x3c978225	0.018494675
198	0x3c75e618	0.015008472
199	0x3d372ec7	0.044722345
200	0xbb373fc6	-0.0027961596
201	0xbb8d9882	-0.004321159
202	0xbc10fd2a	-0.0088494215
203	0xba8d98b5	-0.0010802957
204	0x3bd59262	0.0065176943
205	0xbb94d2fc	-0.004541753
206	0x3b0afd67	0.0021208168
207	0x3b13a0d2	0.0022526276
208	0x3be16ce0	0.006879434
209	0xba97c75f	-0.0011579803
210	0x3a90066b	0.0010988241
211	0x3c7ce2ab	0.015434901
212	0x3cac25d5	0.021014133
213	0x3cdfd4ec	0.027323209
214	0xbc1baee7	-0.009502149
215	0x391a4860	0.00014713546
216	0x3c874f2c	0.016517244
217	0xbc81639c	-0.015794568
218	0xbc9cd3bc	-0.019143932
219	0xbcc03c97	-0.023466391
220	0x3b22a5ec	0.0024818135
221	0x3a9d99c0	0.001202397
222	0xbc1230fa	-0.00892281
223	0x3ca65880	0.020305872
224	0xbb92e219	-0.0044825193
225	0x3b363503	0.0027802594
226	0xbc1da915	-0.009622832
227	0x3c07dce1	0.008292408
228	0xbba67638	-0.0050800107
229	0xbba360e2	-0.0049859146
230	0xbb4240a6	-0.0029640584
231	0x3bc28cd9	0.0059372005
232	0xbc3bda30	-0.011465594
233	0xbc0e74f2	-0.008694874
234	0xbbff8f63	-0.0077990755
235	0xbc0c6b30	-0.008570477
236	0x3c2543c2	0.0100869555
237	0x3c5c0ab9	0.013430291
238	0x3bc645af	0.0060507874
239	0x3c126594	0.008935351
240	0x3c18b3a0	0.00932017
241	0x3d06ce32	0.032911487
242	0x3c9c5772	0.019084666
243	0x3b88e7a5	0.004178005
244	0xbbbbf595	-0.005736063
245	0xbba7db8e	-0.0051226085
246	0xbbc8dbde	-0.006129726
247	0x3c26854f	0.010163619
248	0xbb98cbf3	-0.0046629845
249	0x3bda7056	0.0066662235
250	0xba5f66d0	-0.0008522095
251	0xbc42f492	-0.01189913
252	0x3c2b4706	0.010453945
253	0xbc696a55	-0.014246543
254	0x3babd630	0.005244039
255	0xbbf2e610	-0.0074126795
