lstm990_ae_0802.tflite (tflite, 32076 bytes, 8 tensors)

lstm_31/lstm_cell_37/bias f4 [64]
00000000: 0000 0000 0000 0000 0000 0000 0000 0000
00000010: 0000 0000 0000 0000 0000 0000 0000 0000
00000020: 0000 0000 0000 0000 0000 0000 0000 0000
00000030: 0000 0000 0000 0000 0000 0000 0000 0000
00000040: 0000 803f 0000 803f 0000 803f 0000 803f
00000050: 0000 803f 0000 803f 0000 803f 0000 803f
00000060: 0000 803f 0000 803f 0000 803f 0000 803f
00000070: 0000 803f 0000 803f 0000 803f 0000 803f
00000080: 0000 0000 0000 0000 0000 0000 0000 0000
00000090: 0000 0000 0000 0000 0000 0000 0000 0000
000000a0: 0000 0000 0000 0000 0000 0000 0000 0000
000000b0: 0000 0000 0000 0000 0000 0000 0000 0000
000000c0: 0000 0000 0000 0000 0000 0000 0000 0000
000000d0: 0000 0000 0000 0000 0000 0000 0000 0000
000000e0: 0000 0000 0000 0000 0000 0000 0000 0000
000000f0: 0000 0000 0000 0000 0000 0000 0000 0000
0.0 0.0 0.0 0.0 0.0 0.0 0.0 0.0
0.0 0.0 0.0 0.0 0.0 0.0 0.0 0.0
1.0 1.0 1.0 1.0 1.0 1.0 1.0 1.0
1.0 1.0 1.0 1.0 1.0 1.0 1.0 1.0
0.0 0.0 0.0 0.0 0.0 0.0 0.0 0.0
0.0 0.0 0.0 0.0 0.0 0.0 0.0 0.0
0.0 0.0 0.0 0.0 0.0 0.0 0.0 0.0
0.0 0.0 0.0 0.0 0.0 0.0 0.0 0.0

sequential_12/time_distributed_4/dense_4/MatMul f4 [1, 16]
00000000: ce4b 88be d0e2 ddbd ab22 fbbe 5c37 d53e
00000010: f8b3 9f3e 4ed0 a83e 65c1 01bf 98e1 2f3e
00000020: f054 c3be 04be e13e 9018 95bd cca7 cb3e
00000030: 26d4 023f ce2d 883e 02bf 35be 2880 813d
-0.26620334 -0.10834277 -0.49049887 0.41643798 0.31191993 0.32971424 -0.5068572 0.17175901
-0.3815074 0.44090283 -0.072800756 0.39776456 0.5110496 0.26597446 -0.17748645 0.06323272

lstm_31/lstm_cell_37/bias1 f4 [64]
00000000: 0000 0000 0000 0000 0000 0000 0000 0000
00000010: 0000 0000 0000 0000 0000 0000 0000 0000
00000020: 0000 0000 0000 0000 0000 0000 0000 0000
00000030: 0000 0000 0000 0000 0000 0000 0000 0000
00000040: 0000 803f 0000 803f 0000 803f 0000 803f
00000050: 0000 803f 0000 803f 0000 803f 0000 803f
00000060: 0000 803f 0000 803f 0000 803f 0000 803f
00000070: 0000 803f 0000 803f 0000 803f 0000 803f
00000080: 0000 0000 0000 0000 0000 0000 0000 0000
00000090: 0000 0000 0000 0000 0000 0000 0000 0000
000000a0: 0000 0000 0000 0000 0000 0000 0000 0000
000000b0: 0000 0000 0000 0000 0000 0000 0000 0000
000000c0: 0000 0000 0000 0000 0000 0000 0000 0000
000000d0: 0000 0000 0000 0000 0000 0000 0000 0000
000000e0: 0000 0000 0000 0000 0000 0000 0000 0000
000000f0: 0000 0000 0000 0000 0000 0000 0000 0000
0.0 0.0 0.0 0.0 0.0 0.0 0.0 0.0
0.0 0.0 0.0 0.0 0.0 0.0 0.0 0.0
1.0 1.0 1.0 1.0 1.0 1.0 1.0 1.0
1.0 1.0 1.0 1.0 1.0 1.0 1.0 1.0
0.0 0.0 0.0 0.0 0.0 0.0 0.0 0.0
0.0 0.0 0.0 0.0 0.0 0.0 0.0 0.0
0.0 0.0 0.0 0.0 0.0 0.0 0.0 0.0
0.0 0.0 0.0 0.0 0.0 0.0 0.0 0.0

sequential_12/lstm_31/while/lstm_cell_37/MatMul_1 f4 [64, 16]
00000000: 3086 20be 063d ab3d dbe9 3f3e 6713 c1bd
00000010: 2f78 b4be 8764 d13d a7cc a9ba f97b 97bd
00000020: 5e4c a2bd e4c1 91bc 8153 e5bd 5e5d 06be
00000030: c50a 47bd 1af2 3dbd 2cc0 14be 9783 4dbe
00000040: c450 dbbc af91 7a3e e1aa 923d 64ec 693e
00000050: e0e2 c73e 5aa2 3dbd a02c ec3d 6555 a43d
00000060: 9b11 713e 2898 353e acb1 8fbe 8383 de3d
00000070: f19d 8c3d 1886 583d dae5 cbbd 1f61 943d
00000080: 3e2a be3d b990 dc3d 87aa 493e 0686 73bb
00000090: ec44 cd3c e17d 173e 94da 7e3e 39c9 e63d
000000a0: ba41 073d 1b74 02bc 3208 9c3c 2eaf e53c
000000b0: b420 66be 14fa 6a3d e35a 553d 1455 223c
000000c0: af27 c5bd 8ea0 b0bd ce3d d6bd b198 abbd
000000d0: 1938 67be e78c 67be 227b 3f3d a319 093e
000000e0: 28e0 843d 14bd 9f3e dda8 1cbe 902a b0ba
000000f0: e35b 54bd 983f 5fbd decf 0bbd 92d8 f63d
00000100: a9ae 12bd 89b7 08be 10c7 c03d a428 373e
00000110: cfa6 4b3e 36f0 ddbd cd90 8c3d 6eb1 53be
00000120: 5fce 3dbd eda2 6f3b 227e 1d3e a891 f9bd
00000130: c5e3 9d3d d2aa 09be d3c6 77be 5dd1 d23c
00000140: f61b 893e 7e63 0cbd c551 25bd 7b52 a3bc
00000150: fa4d ca3d 41eb 69bd e005 6c3e b210 0bbe
00000160: 9156 1c3e e020 6c3d 122b c7bd 8b1c 363d
00000170: a3e4 8e3d 5135 14be ce89 883d 6791 15be
00000180: 4aeb 943d 0282 c5bb b568 4a3e 9733 c83b
00000190: 0025 893d 93e6 9ebd ecfe bcbd 3d90 06be
000001a0: 0625 d83c 6e75 9e3d 8ee0 f23d 0cf7 4ebd
000001b0: 66ef ad3d 7278 343e 4186 21be 84c7 a23d
000001c0: 0d54 0ebe 86da c0bc ba78 a13d 6109 69bd
000001d0: a208 3d3e 5e05 143e adbc 83bd 6747 edbd
000001e0: 605b 6a3d a21c 153e c308 cf3d f9bf a13d
000001f0: a9bf f53c 73e4 09be 625e c3bc 9017 67bd
00000200: eb43 d2bd db1a d43d 4013 e43c 63a3 fabd
00000210: 7a71 b13c baad d7bc c0e0 ecbd ccfe 633b
00000220: f45b 2f3c 6229 dabc 92a1 373c 2520 c7bb
00000230: d300 873e b023 f43a e2ca 313e 6cc9 a53d
00000240: 824b f13d f2f8 64be 94cb 8bbc ad2f 083e
00000250: 60f0 15bb 3ab2 6f3e 0c66 94bd 42fd 41bd
00000260: 917f a63d 2185 f93d a4ec 16bd 1764 a3bd
00000270: 1910 b23d ae5b 583e 48d4 2abe 55d0 dabd
00000280: 7d88 133d 8352 53be 0fab 4bbe dbd6 7fbe
00000290: f6cb f13c b633 ecbd 8ec9 6c3e 048e 3fbe
000002a0: 8703 703c 8f3e d53c cfbe 94bd 3f30 85be
000002b0: a0ef 393d 5b01 3a3d b4b8 cbbd c24c b73d
000002c0: f91a 843d 4b5b 863b 268d 193d 245b 0cbe
000002d0: 9a2c a1bd 9208 ce3c 28f6 9f3e 1f13 873d
000002e0: 98a1 62bc be26 43bd 5ddc 073e 9718 77bd
000002f0: 57e8 32bd 08ef 69bd d7ab 3a3e 42b2 413d
00000300: 3501 413b eb3e d5bd ac7e 9dbc 61f6 91be
00000310: 86d1 813d 96df 89bc 7271 b23d b982 56bc
00000320: 2a84 08be 8d9b 0c3e dde5 67bd 58dc 6f3e
00000330: 647f 743d f201 65be 26d8 45be 40bc 423b
00000340: 1a8c 58be 6f4e bbbd 621b 953d 032b 53be
00000350: d9f5 b0bd 8e3a f6bd 1e5e 65be ce7e a63e
00000360: 5aa1 bb3d 48f0 18be e07e 21be 5f2e dcbd
00000370: 4b65 783c a3de b4bb a844 13bd b449 b63d
00000380: 3660 f1bd 689d 90bd ba3f e7bc 46d4 65bc
00000390: 107c 793e f04b e8bd 2dd6 bdbd edbd 0d3e
000003a0: 1fdd d8bd 5dec c93c c343 20be e841 e53d
000003b0: ef31 5abe ecea 323e 2dff 65bc 8acc 19bc
000003c0: 55a6 933d 9b73 9a3d 587f 8b3d f1c9 543d
000003d0: 2ecd 45be 1b87 36be 4ea9 e13c b694 4fbe
000003e0: b9d1 643e 40d6 84be 4698 98bd ba98 0dbd
000003f0: 2e8e 87be 85d0 263d 9b0b 17be 5879 2a3e
-0.15676188 0.08361249 0.18741553 -0.09427529 -0.35247943 0.10224252 -0.0012954668 -0.07396693
-0.07924722 -0.01779265 -0.11197568 -0.13121554 -0.048594255 -0.046373464 -0.14526433 -0.20069729
-0.02677191 0.24469636 0.07161499 0.22844082 0.3904028 -0.04629741 0.11531949 0.080241
0.23541872 0.17733824 -0.2806524 0.108649276 0.068660624 0.052862257 -0.0995595 0.07245087
0.09285401 0.10769791 0.19693957 -0.0037158742 0.025057279 0.14794113 0.24888068 0.11268849
0.033021666 -0.007962252 0.019046877 0.028037634 -0.22473413 0.0573674 0.05208863 0.0099079795
-0.0962671 -0.086243734 -0.10461007 -0.08378733 -0.22579993 -0.22612344 0.046748288 0.13388686
0.06488067 0.31198943 -0.15298791 -0.0013440419 -0.051845443 -0.054504007 -0.034133784 0.12053026
-0.0358111 -0.13351263 0.09412968 0.17886597 0.19887851 -0.10836832 0.06863556 -0.20673153
-0.04633939 0.0036565617 0.15380147 -0.12185985 0.07709459 -0.13444069 -0.24196939 0.025734598
0.26779145 -0.03427457 -0.040361185 -0.01993679 0.09878154 -0.05710912 0.23049116 -0.13580588
0.15267397 0.05764854 -0.09725012 0.044460814 0.06977203 -0.14473464 0.06666909 -0.14606248
0.0727144 -0.006027461 0.19766505 0.0061096656 0.0669651 -0.07758822 -0.0922831 -0.1314096
0.026384842 0.07737242 0.11859237 -0.05052857 0.08492927 0.17624071 -0.1577387 0.07948211
-0.1389925 -0.0235417 0.07884355 -0.05689371 0.18460324 0.14455172 -0.064324714 -0.115858845
0.05721605 0.14561704 0.10109093 0.07897944 0.029998617 -0.13466053 -0.023848716 -0.056418955
-0.102668606 0.10356685 0.02784121 -0.12238195 0.021660555 -0.026327956 -0.11566305 0.0034789322
0.010703076 -0.026631061 0.011207955 -0.00607683 0.26367816 0.0018626358 0.1736255 0.08095059
0.1178198 -0.2236059 -0.017064847 0.13299437 -0.002287887 0.23407832 -0.072460264 -0.047360666
0.081298 0.121835954 -0.03684677 -0.07978075 0.08694477 0.21128723 -0.16682541 -0.106842674
0.036018837 -0.20636944 -0.19889472 -0.24984305 0.029516201 -0.115333006 0.23123762 -0.18706518
0.0146492785 0.026030807 -0.07262956 -0.2601337 0.04539454 0.04541145 -0.09947339 0.08950187
0.06450457 0.0041002384 0.037488125 -0.13706642 -0.07869835 0.025150571 0.3124249 0.06595444
-0.013832472 -0.04764437 0.13267656 -0.060326185 -0.043678608 -0.057112724 0.18229614 0.04728914
0.0029450182 -0.10412391 -0.01922544 -0.28508285 0.063387915 -0.016830247 0.08713044 -0.01309269
-0.13331667 0.13731213 -0.0566157 0.23423898 0.0596918 -0.22364023 -0.19320735 0.0029714257
-0.21147195 -0.091458194 0.072806135 -0.20621876 -0.08640642 -0.12022887 -0.22399184 0.3251862
0.09161635 -0.1493541 -0.15771055 -0.10751032 0.015160869 -0.0055197044 -0.035954148 0.089007765
-0.11785929 -0.07061273 -0.02822863 -0.014027661 0.24363732 -0.11342609 -0.092693664 0.13841982
-0.105890505 0.02464884 -0.15650849 0.11194211 -0.2130811 0.17472428 -0.014037889 -0.009387145
0.0720946 0.07541581 0.06811398 0.0519504 -0.19316551 -0.17824976 0.027546551 -0.20271572
0.22345628 -0.2594471 -0.07450919 -0.03456948 -0.26475662 0.040726203 -0.14750521 0.16647851

sequential_12/lstm_31/while/lstm_cell_37/MatMul2 f4 [64, 4]
00000000: 3468 79be 88f0 edbd b424 cebd 444d bb3d
00000010: b89e 783d a88d 70bd e429 923d f2d2 8e3e
00000020: b4d6 53be f437 ca3d 50fc 373d ef7b 16be
00000030: 0d26 86be ece7 463e e0e4 24bd 54a7 143e
00000040: 7fba 3bbe 9c70 4fbe 284a 2c3e 986e 613d
00000050: 3c79 c33d 49ca 8fbe f8b0 2e3d 04e3 953e
00000060: 7455 8ebd e886 6fbe c0c1 633e b2ae b9bd
00000070: 86b0 8d3e b816 00be 0283 1b3e ec98 7cbe
00000080: ca95 95be 0283 893e b236 edbd 304c 6a3e
00000090: 0086 f53c 80fc 93bb 54a2 7f3e 0019 e7bb
000000a0: e05f 72bd d42e 643e 88cb 533e 9050 5e3e
000000b0: 9eb0 163e b467 4ebe baf2 083e e0d1 923c
000000c0: 9c79 41bd 0070 19b9 14fe 1b3e 9840 76bd
000000d0: eecf 48be 1425 d13d ec54 57be 0fe1 4abe
000000e0: f08a ca3d 5b12 54be bae6 053e 44d6 ecbd
000000f0: db1c 66be f15e 24be a46e 68bd c6c2 323e
00000100: 243a 59be ae1d 8f3e 2ca2 3dbe f861 7bbd
00000110: 2022 073c 202c 88be 1ca9 89bd d06a 803e
00000120: 004c 95bb 1d97 4abe 68c0 5ebd 36f1 f5bd
00000130: b4cc 1dbe 2807 5d3d a2ee febd 281b 673e
00000140: 709a 3d3d ee91 c1bd 8cf5 563e 245d 193e
00000150: 0e55 87be a09f 88bd b0a9 e83d 6038 c9bc
00000160: 608c 283e a001 1e3d 5580 7abe 8cab 18be
00000170: 20e4 113d 8c6f a33d 7b90 97be aec8 f4bd
00000180: 18e5 b4bd 06d3 7abe 064c 1f3e 90f9 203e
00000190: 622d 413e 0c4f 393e 8cf8 6c3e 1ce6 833e
000001a0: f8a4 8d3e e669 13be 90a1 e03c a063 1fbd
000001b0: 100d 713e a066 4a3e 806e 7a3b 8424 3e3e
000001c0: b4d7 f5bd c0e6 023d 60eb 563e 60f0 a5bd
000001d0: 17a9 4ebe a88b 513e 78b3 9a3d 44c0 76be
000001e0: dc57 f0bd 9358 94be b873 8e3d 40d2 0ebc
000001f0: 0001 bebb 0c8a d23d e3c0 20be 8e32 043e
00000200: 24e4 f53d 18f4 393d 4051 f53c e908 09be
00000210: 0888 26bd 44b6 853d 8277 8abe 4661 003e
00000220: b037 993c 4235 88be 3cf0 2d3e 860e 97bd
00000230: 2ec4 243e 008c 35bd 4099 4b3d 32c2 38be
00000240: 7c3f 36be bc15 683e b4f2 e93d 6868 2fbd
00000250: 70a4 a03d a447 babd ac04 663e 0040 333c
00000260: 797c 25be 90d1 54bd 8a62 4f3e d8d1 953d
00000270: d069 683d e630 8cbe ef67 92be 00e7 9f3a
00000280: 3e75 473e 7c37 ffbd 4022 e2bd 0ef1 233e
00000290: 50bc 923e a037 70bc 347d 6e3e 60cf 04bc
000002a0: ec25 7d3e 5016 6d3e d84f 3abe ee35 d8bd
000002b0: 6813 b63d e4d5 0ebe 2632 ecbd c83a c1bd
000002c0: e21c 69be 103b 76be c480 febd 32d9 89be
000002d0: 7957 74be ee1d 9ebd 0cb3 753e e0fe 03bd
000002e0: 05b0 23be 727c 093e 263b 133e 8066 23be
000002f0: b687 8fbd 6cf7 833e bcfe 3dbe a8f6 12bd
00000300: 7644 453e 44be b53d b660 033e 965f 6fbe
00000310: a031 a6bc 3d10 64be 1646 0dbe 34c8 fc3d
00000320: 8030 85bb 74be 743e d856 4ebe 22d5 8dbd
00000330: 5092 8c3e 26e7 343e 28a3 31be 46ee 9cbd
00000340: dcb7 81be 16f5 46be 7867 1d3e 2a8f 70be
00000350: 0911 80be 4119 41be 1ce0 0c3e f88e bdbd
00000360: bc1a 423e 0e38 8fbe b841 33be d8f2 463d
00000370: 06d9 a5bd 14c6 cc3d ba39 063e 5020 7abe
00000380: 347e 74bd f850 6bbe 143b da3d e0ad 913e
00000390: 02de 083e 7852 603e c994 5cbe 1cb0 d2bd
000003a0: 6186 1dbe 40a7 8ebb 3bcf 2cbe 60c1 8c3c
000003b0: 8ce5 f03d ba78 5ebe 5627 e4bd 60a7 bebc
000003c0: f3dc 47be 1a0f 173e ded2 71be a033 1fbe
000003d0: 0d3f 22be e88a 08bd a00c 1b3d e091 9dbc
000003e0: 6e00 ccbd d260 023e 18f6 fe3d a4e1 e8bd
000003f0: d055 8abe a0b9 e33c 1508 66be f087 6e3e
-0.24356157 -0.11618143 -0.10065594 0.091455966 0.06069824 -0.058728844 0.07136896 0.27895314
-0.20687371 0.098739535 0.04491836 -0.14695714 -0.26200905 0.19424409 -0.040257335 0.14516956
-0.18332861 -0.20257801 0.16825163 0.05503711 0.09544608 -0.2808402 0.04264924 0.29274762
-0.06949893 -0.23391306 0.22241879 -0.090665236 0.2767374 -0.12508667 0.15186694 -0.2466771
-0.29215842 0.26857764 -0.11582698 0.22880626 0.029971123 -0.0045161843 0.24964267 -0.007052541
-0.059173465 0.22283489 0.2068311 0.2171042 0.14715812 -0.20156747 0.13373843 0.017922342
-0.047235116 -0.0001463294 0.15233642 -0.060120195 -0.19610569 0.1021215 -0.21028489 -0.19812416
0.098897815 -0.20710127 0.13076296 -0.115643054 -0.22471945 -0.16051842 -0.05674614 0.17457113
-0.21213585 0.2795233 -0.18518895 -0.061372727 0.008247882 -0.26596165 -0.06721708 0.2508149
-0.004556179 -0.19784208 -0.05438271 -0.12008898 -0.1541012 0.053961903 -0.12447859 0.22568953
0.04628986 -0.09451662 0.20992106 0.14976937 -0.2643208 -0.06671071 0.1136049 -0.024563015
0.16459799 0.03857577 -0.24463017 -0.1490919 0.035617948 0.0798026 -0.29602417 -0.11952339
-0.08832759 -0.24494562 0.15556344 0.157202 0.18864968 0.1809656 0.23141688 0.25761497
0.27664924 -0.14395866 0.027420789 -0.03891337 0.23540139 0.19765711 0.0038212836 0.18568617
-0.12004033 0.03195834 0.20988226 -0.081024885 -0.2018169 0.20463431 0.07553762 -0.24096781
-0.11735508 -0.28973827 0.06955665 -0.00871712 -0.005798459 0.102802366 -0.1569858 0.1290991
0.12006405 0.0453988 0.02994597 -0.13382305 -0.040657073 0.06528905 -0.27044302 0.12537107
0.018703312 -0.26603132 0.16986173 -0.07375817 0.16090462 -0.044322968 0.049706697 -0.1804283
-0.17797655 0.22664541 0.11423245 -0.04282418 0.07843864 -0.090956956 0.2246272 0.010940552
-0.16160764 -0.051957667 0.20252433 0.07315415 0.056741536 -0.27381057 -0.2859492 0.0012199581
0.19478318 -0.12461755 -0.11041689 0.16009924 0.28659296 -0.0146616995 0.23289949 -0.008106083
0.24721497 0.23153043 -0.1819452 -0.10557161 0.0889042 -0.1394878 -0.115330026 -0.0943504
-0.22764924 -0.24045968 -0.12426904 -0.2692352 -0.23861493 -0.077205524 0.23994082 -0.03222549
-0.15985115 0.13426378 0.14378032 -0.1595707 -0.07008307 0.25774705 -0.18554205 -0.03587976
0.19264397 0.08874181 0.12829861 -0.23376307 -0.020287335 -0.2227182 -0.13796267 0.12342873
-0.0040646195 0.23900777 -0.20150316 -0.069254175 0.27455378 0.17666301 -0.17347395 -0.076626346
-0.25335586 -0.1942943 0.15371501 -0.23492113 -0.25012997 -0.1885729 0.13757366 -0.09255785
0.18955511 -0.27972454 -0.17505538 0.048571438 -0.080980346 0.09998718 0.13107958 -0.24426389
-0.05969067 -0.22980106 0.106557995 0.2845297 0.1336594 0.2190646 -0.21541132 -0.102874964
-0.15383293 -0.004353434 -0.16875927 0.017182052 0.117625326 -0.21725741 -0.11140315 -0.02327317
-0.19517879 0.14751855 -0.23615596 -0.15547037 -0.15844364 -0.033335596 0.037853837 -0.019234598
-0.099610195 0.12732247 0.124492824 -0.113711625 -0.27018595 0.027798474 -0.2246402 0.23294044

lstm_31/lstm_cell_37/bias2 f4 [64]
00000000: 0000 0000 0000 0000 0000 0000 0000 0000
00000010: 0000 0000 0000 0000 0000 0000 0000 0000
00000020: 0000 0000 0000 0000 0000 0000 0000 0000
00000030: 0000 0000 0000 0000 0000 0000 0000 0000
00000040: 0000 803f 0000 803f 0000 803f 0000 803f
00000050: 0000 803f 0000 803f 0000 803f 0000 803f
00000060: 0000 803f 0000 803f 0000 803f 0000 803f
00000070: 0000 803f 0000 803f 0000 803f 0000 803f
00000080: 0000 0000 0000 0000 0000 0000 0000 0000
00000090: 0000 0000 0000 0000 0000 0000 0000 0000
000000a0: 0000 0000 0000 0000 0000 0000 0000 0000
000000b0: 0000 0000 0000 0000 0000 0000 0000 0000
000000c0: 0000 0000 0000 0000 0000 0000 0000 0000
000000d0: 0000 0000 0000 0000 0000 0000 0000 0000
000000e0: 0000 0000 0000 0000 0000 0000 0000 0000
000000f0: 0000 0000 0000 0000 0000 0000 0000 0000
0.0 0.0 0.0 0.0 0.0 0.0 0.0 0.0
0.0 0.0 0.0 0.0 0.0 0.0 0.0 0.0
1.0 1.0 1.0 1.0 1.0 1.0 1.0 1.0
1.0 1.0 1.0 1.0 1.0 1.0 1.0 1.0
0.0 0.0 0.0 0.0 0.0 0.0 0.0 0.0
0.0 0.0 0.0 0.0 0.0 0.0 0.0 0.0
0.0 0.0 0.0 0.0 0.0 0.0 0.0 0.0
0.0 0.0 0.0 0.0 0.0 0.0 0.0 0.0

sequential_12/lstm_32/while/lstm_cell_38/MatMul_1 f4 [64, 16]
00000000: 48b4 2dbe d89e 4b3d e9b3 46be 8435 c73c
00000010: 8745 0cbe b8ef ebbd b3b3 49be 7271 f8bd
00000020: 5bae 273e e132 b2bb e5ae eb3c 6ac4 1fbe
00000030: 5ac5 90bd 3227 8b3d 7c99 9c3d 3cb9 99bd
00000040: 9e95 85bd 1e97 943e bebb e9bc 3406 93bd
00000050: 2c1e ab3c 93fa 49be c6a4 3a3e ba57 2b3d
00000060: 512e 82be 8f77 d5bd 0f25 b2bd be62 8dbc
00000070: b6c6 71bd 9cd5 92bd ee92 383e fa0b b6bd
00000080: d0f8 18bc 11b0 7bbd 2dfd 8f3d 140d aa3d
00000090: a3a2 123e 4fb0 f13d 0d50 e3bd 59dd cabd
000000a0: fdc8 6bbe 974a 843c 184d 5b3d 966c 693d
000000b0: dcb7 903d 67a9 9cbd 2235 433e d24e 0b3d
000000c0: 3047 303d 0495 03be 56bb 4b3d 6340 c73c
000000d0: c19c 9dbd c4db 26bd 192f 263d d2cf 48be
000000e0: 0dd3 b63c 9fff 5a3d 51af 41bd 4ed4 4a3d
000000f0: 4a55 2b3e 345f 273d 907b 45ba e1be 003c
00000100: 5d84 bdbc a889 03be 321b 3b3e 4739 943c
00000110: b1a4 9b3d 6ef8 26be a24e d03d 3ef7 21bd
00000120: 5ceb 1c3d 197e 883c 00ca 2abd c464 683b
00000130: 75e9 88bd 2e95 98bc e452 cabd 2ea6 043d
00000140: 3b4f c7bd 3d8a 33bc 4655 33be 09e2 00be
00000150: 7a1e 043c 862f d6bd 45e0 84bd 9c02 37be
00000160: 68da e7bd 235a 383e c4f3 debd 541c 79be
00000170: a895 283e e535 82bd b83e 07bd 5c6a dbbd
00000180: f4ea a33c c768 0d3e cd4d 1abd 92f4 47bd
00000190: c1e6 f53c 3016 d0bb dd93 35bd 4036 b2bd
000001a0: 3336 e3bd afa0 993d 39f2 0f3e f7d3 28be
000001b0: 0587 e63c 7a04 8a3e b351 a1bd 235b 0c3e
000001c0: 3eb6 ffbd 702d 88bd a144 983d b623 1b3e
000001d0: ea62 183d 664f b33c c2d8 0bbe 4841 74bc
000001e0: 468e b2bc 9237 50bd b86a a83d 1337 9d3c
000001f0: f597 a8bd 9229 863e 0584 603c 0d12 ccbd
00000200: f98d fcbd 2b4a 2dbe dcee 153e 200c 833d
00000210: 52ea f1bc e8d5 313c 0461 27be 0ab3 8c3d
00000220: 9621 273e 23aa 9dbc 0091 bbbd 1099 f2bd
00000230: 2cba fabd ad9b 113e fee1 843e f41c 723d
00000240: a985 00bd ee17 81bd 1337 d5bd 8a91 99bd
00000250: 1837 6b3e 0d9b efbb 9a7b ecbd 6a1f 91bc
00000260: 70a8 5b3d fce5 0d3e c272 a43d 60c8 1f3e
00000270: ae9c f83c 95f6 2d3e fd1d d4bd 7905 743e
00000280: e243 8f3c a6a2 96bd 6ab2 e73d f9bf 04be
00000290: 36cc e53b 34d4 cc3d d31b 9a3d 741f e9bd
000002a0: f6d8 a4be 70fc 1f3e 66e7 17be bee6 133d
000002b0: a77b 8cbd 40c1 db3d d346 993e 7fb9 543d
000002c0: aba0 aa3e dc28 68be ceb3 8cbd f8b0 7b3e
000002d0: e4e2 60be 7a7a ca3c 606c f33a c2fc 00be
000002e0: 0b41 803d 2123 d63d 8a75 4a3e e45c e4bd
000002f0: db1f f5bc ae05 763d 465a b13d 9ea5 77bd
00000300: cd4a 553d 4215 dfbc beff 5dbe ee26 d6bc
00000310: f55a b1bd 9d0e 8f3d 20fe ab3c c4ce 563e
00000320: 0be2 70bd 7a8b cf3c 8398 f83b 516e 06be
00000330: f88c 8d3c f627 f23c b8db 903d 42f8 863d
00000340: 9210 c93d 4172 27bd 391d fcbc 64d1 033d
00000350: 0f2e 01be 138d af3c ea31 9b3c 3499 7d3c
00000360: 7308 f5bd ac77 533d 43c1 dc3d 1f17 933c
00000370: 7fab e0bd a44d 0b3c ebc3 0b3c c51c c2bd
00000380: c81f 0dbd 29ff 28bd 5841 9ebe 6a6f 8f3d
00000390: 96bf 273d 3732 45be 1d86 32bc b4fe 63bd
000003a0: ac8e 0cbc 2387 76be f35f 9ebd d502 91bc
000003b0: ef72 8d3d 9b1c 36be cb27 2ebd 127d b2bd
000003c0: 7a60 9abe e7df 883d 3892 8ebd 4ce2 12bc
000003d0: 06bb f8bd 4bad dfbc 082f 0bbd fe20 3dbc
000003e0: f1ec 60bd 6910 a8bd 4e29 9f3e b6ee 4cbe
000003f0: 973e 9cbd 6ee2 23bc 8fd0 ef3d 25c0 a13c
-0.16963303 0.049712032 -0.19404568 0.02431751 -0.13698398 -0.11520332 -0.19697456 -0.12131013
0.16375105 -0.005438194 0.02876992 -0.1560227 -0.07068892 0.06794585 0.07646462 -0.07506034
-0.06522678 0.29021543 -0.028531905 -0.071789175 0.02088841 -0.19724493 0.18226919 0.04183171
-0.25425962 -0.104231946 -0.086984746 -0.017258998 -0.059027396 -0.07169649 0.18024799 -0.08889003
-0.009336665 -0.061447207 0.07030711 0.08303276 0.14319853 0.11801206 -0.11099253 -0.099055
-0.2302589 0.016148848 0.05354032 0.05698832 0.070663184 -0.076494984 0.19063237 0.034010716
0.04303664 -0.12849814 0.049739204 0.024322694 -0.07695914 -0.04073693 0.04057226 -0.19610527
0.022317434 0.053466436 -0.047286335 0.049518876 0.16731754 0.040862277 -0.0007533366 0.007858009
-0.023134405 -0.1284548 0.18272093 0.018093718 0.07599772 -0.16305706 0.10171248 -0.03954243
0.038310394 0.01666169 -0.04169655 0.0035460452 -0.066851534 -0.018625822 -0.098790914 0.032385044
-0.09731909 -0.010958252 -0.17512998 -0.12586226 0.008063907 -0.10458283 -0.064880885 -0.17872089
-0.113209546 0.18003134 -0.10886338 -0.24327213 0.1646334 -0.06357936 -0.033018798 -0.10713646
0.020009495 0.138095 -0.037671853 -0.048817225 0.030017259 -0.006350301 -0.044330467 -0.087017536
-0.11094322 0.07501351 0.14057244 -0.16487108 0.028140554 0.2695654 -0.07876911 0.13706641
-0.12485932 -0.066492915 0.07434965 0.15150341 0.037203707 0.021888446 -0.13656905 -0.014908142
-0.021796357 -0.050834246 0.0822348 0.0191913 -0.082321085 0.2620359 0.013703351 -0.099643804
-0.12331767 -0.16922824 0.14641899 0.06398797 -0.029530678 0.010854222 -0.16345602 0.068700865
0.16321406 -0.019246167 -0.09158516 -0.118456006 -0.12242541 0.14219542 0.25953668 0.059109643
-0.03137747 -0.06303392 -0.10410895 -0.074984625 0.22970235 -0.0073121847 -0.115470126 -0.017715175
0.05362743 0.13857263 0.08029701 0.15603781 0.030348148 0.16988595 -0.10357282 0.23830213
0.017488424 -0.073552415 0.11313327 -0.12963857 0.007012869 0.10001412 0.07524838 -0.11382952
-0.32196778 0.15623641 -0.14834365 0.036108725 -0.06859522 0.10730219 0.29936847 0.051934715
0.33325705 -0.22671837 -0.068702325 0.24579227 -0.21961552 0.024716605 0.0018571727 -0.1259642
0.06262406 0.10455919 0.197714 -0.1115053 -0.029922416 0.06006401 0.086597964 -0.06046068
0.05207329 -0.027231816 -0.21679589 -0.02614161 -0.08659927 0.06985209 0.0209952 0.20977312
-0.05880932 0.025335062 0.00758654 -0.1312802 0.017279133 0.02956007 0.07073158 0.0659032
0.09817614 -0.040880445 -0.030775653 0.032182112 -0.12615226 0.021429574 0.0189447 0.015478421
-0.11964502 0.0516278 0.10779049 0.017955361 -0.1097021 0.008502398 0.008530597 -0.094781436
-0.034454137 -0.041258965 -0.30909228 0.070036724 0.040954195 -0.19257437 -0.010896233 -0.055662826
-0.0085789375 -0.24074988 -0.077331446 -0.017701546 0.069066875 -0.1778435 -0.04251842 -0.087152615
-0.3015173 0.06683331 -0.06961483 -0.008965086 -0.12145047 -0.027304312 -0.0339804 -0.0115435105
-0.054913465 -0.08206255 0.310862 -0.20012936 -0.076291256 -0.0100027155 0.11709701 0.019744942

sequential_12/lstm_32/while/lstm_cell_38/MatMul f4 [64, 16]
00000000: 3080 c1bc b61e 493e 22f9 143e f8b6 3b3e
00000010: 892d 12be d83f 45bd 4e78 72be a81d 7b3d
00000020: d268 28be 04a4 b73d 483e 803d c978 7abe
00000030: ab1e 4abe e096 753c bcf7 1e3e 634d 87be
00000040: b88a c8bc c2a4 0dbe 006d e9bb d63e 0e3e
00000050: d2e2 e3bd 4022 e83b e01b 803d 08fa 353e
00000060: d6d5 643e dc85 86be f04e e7bd 5cac b93d
00000070: 8238 53be ce4e 8abd 72e3 5abe 50b3 e43c
00000080: a83a 6f3e 50eb 8bbe 0095 c4ba baec 213e
00000090: 0e20 853e 30fc a5bc b741 23be 0844 d3bc
000000a0: dadd dbbd 209a 4bbc c63c 2f3e 02f8 2bbe
000000b0: 5c0b 4c3e 7640 d6bd c091 94bb 8a0c afbd
000000c0: 50da 293e 0083 743b bf75 04be 63c0 81be
000000d0: 0cda e53d 5079 3a3e ca1a 49be a8f0 753d
000000e0: b6d4 343e 6087 b7bc 9445 7f3e ccb8 183e
000000f0: 901d 89be 8019 a8bd e2ea 1cbe 22c4 4c3e
00000100: f094 7f3e 989f 7c3d 9864 5e3e 253a 02be
00000110: da7e 453e 5f39 39be d0f3 b33d d012 b6bd
00000120: 15ae 85be 0f5a 05be 48e7 303d c080 283c
00000130: 3c81 e6bd a0ec 8fbc e4ae 87bd 7638 8dbd
00000140: 58e1 253d a252 843e e429 a93d 72a8 88be
00000150: 7ec6 f2bd 008a 5dba 60aa 573c e8e8 6f3e
00000160: a7b0 33be 7bb7 31be ac39 993d 60f5 4e3e
00000170: 3030 533e 15f4 89be 2e27 2ebe 501d 48bd
00000180: 2884 c73d f0ad fcbd 374a 69be 3461 af3d
00000190: 729c 193e 00a9 2fbe f254 873e c425 0abd
000001a0: d4f2 893d 7692 883e f4f1 b1bd b915 75be
000001b0: 2450 b83d 9857 4f3d f807 d33d 288c 293e
000001c0: bc39 583e b65f 073e 8e32 b9bd c610 82be
000001d0: c077 763c ff87 0ebe ac7a 5abe e09b 45bc
000001e0: dc12 efbd 651a 58be ccac ca3d c876 b1bd
000001f0: 1090 613e 00d5 553c 70d6 073d c8b7 0abe
00000200: e904 3dbe 02a3 073e c855 e73d e0cd 10bc
00000210: 842f 0a3e 7806 4dbd bc58 dabd 40a9 1f3d
00000220: 0433 83be 00ee c3ba 7e29 173e 806f 4abb
00000230: 4212 0dbe e068 03bc d435 c33d e407 903d
00000240: c859 c7bc 0cfe 3abe 766b 3abe b213 0b3e
00000250: 9282 2d3e 68c8 483e d0c6 6cbd d256 12be
00000260: 6678 e2bd 80a3 d53d 5c00 fa3d 7c80 c03d
00000270: e0e8 8c3c 2c0f 1bbd f6c7 85bd 7003 80bd
00000280: 802a 2b3d f88e 58bd 1309 0cbe 6026 8abd
00000290: c878 85be 1583 8abe 6c9c 783e 67c2 87be
000002a0: f4e2 ae3d 4659 163e 40e2 fe3b 958e 4bbe
000002b0: 0845 0e3d 40d9 d9bc 0004 36ba 303a 823e
000002c0: 86fe 453e 8601 263e 5e49 cdbd ce54 2d3e
000002d0: 5936 87be f6a7 d8bd 9ede 8abe e846 963d
000002e0: ac0b 973d 200f 6c3e 9e4d 893e 60c7 033c
000002f0: dae0 96bd 2876 5c3d a847 9fbd a0c3 473e
00000300: ea1f 1cbe 0266 50be e0f7 c93d 00b6 033a
00000310: 08bb 003e 80ab eebb 38ed 5bbd 947a 8c3d
00000320: 8132 31be a02c ec3c 2716 49be 4048 5d3c
00000330: 8310 05be 6220 82bd b0dc 7dbe e0f9 293d
00000340: 58b1 253d 9ec2 623e ceee d2bd 84b7 0bbe
00000350: 0027 bcbc f40b fb3d 8cbd 58be 6c0f 1b3e
00000360: fe4d 46be baee 23be ce63 02be 60fb 9abc
00000370: 83f1 02be b49d 67bd d0c4 65bd 3ac3 3fbe
00000380: cf1d 70be 6c09 f2bd 39b5 20be 2057 a3bd
00000390: d013 b23d 2066 433c 6601 5dbe ca19 373e
000003a0: 4053 cc3c 8a33 82be 869e 80be 80c5 083b
000003b0: 680d a53d 08ac 093e 9547 2ebe befa 553e
000003c0: 84e9 833e 786d fc3d 603d 803e 105e f0bd
000003d0: a789 4bbe 4896 0ebd 180d cebc 64f2 f43d
000003e0: 0837 febc 0610 8a3e 8866 863d 647b b63d
000003f0: 802e bcbc c492 76bd b892 2cbe 6821 1cbe
-0.023620695 0.19640622 0.14548162 0.18331516 -0.14275183 -0.04815659 -0.23678705 0.06130758
-0.16446236 0.089668304 0.06261879 -0.24460138 -0.19738261 0.014989585 0.1552419 -0.2642623
-0.024480209 -0.13832381 -0.0071235895 0.13891158 -0.11127247 0.007084161 0.06255317 0.1777116
0.22347197 -0.26274002 -0.11294353 0.09066078 -0.20627025 -0.06753312 -0.21375826 0.027917534
0.2336222 -0.27327967 -0.0014998019 0.1581296 0.26001018 -0.020261854 -0.15943037 -0.025789276
-0.10735674 -0.012426883 0.17113027 -0.16793826 0.19926208 -0.10461514 -0.0045339763 -0.085473135
0.16587186 0.0037309527 -0.12935542 -0.25342092 0.1122323 0.1821034 -0.19639125 0.06004396
0.17659268 -0.022403419 0.24928886 0.14914244 -0.26780367 -0.08207989 -0.15323976 0.19996694
0.24959159 0.061675638 0.21718061 -0.12717493 0.19286671 -0.18088292 0.08786738 -0.08890307
-0.26109377 -0.13022636 0.043189317 0.010284603 -0.11255118 -0.017568886 -0.066251546 -0.06895535
0.040498108 0.25844294 0.08259943 -0.26691014 -0.11854266 -0.00084510446 0.013163179 0.2342869
-0.17547856 -0.17355148 0.07481703 0.2021079 0.20623851 -0.26944032 -0.17007133 -0.04885608
0.09742004 -0.123378634 -0.22782217 0.08563462 0.15001085 -0.17154312 0.26431996 -0.033727422
0.06735769 0.2667424 -0.08688727 -0.23934068 0.089996606 0.050620645 0.10304254 0.16557372
0.21115774 0.13220105 -0.09042846 -0.25403422 0.015043199 -0.13919066 -0.21335858 -0.012061089
-0.11673519 -0.21103819 0.0989624 -0.08665234 0.22027612 0.013051271 0.033163488 -0.1354667
-0.18458904 0.13245776 0.11295658 -0.008838147 0.13494688 -0.050054997 -0.10661456 0.03897977
-0.2562486 -0.0014948249 0.14761922 -0.0030889213 -0.13776496 -0.00802061 0.09531751 0.07032755
-0.024334803 -0.18260974 -0.18205056 0.13581732 0.1694434 0.19607699 -0.05780679 -0.14290932
-0.110581204 0.10431576 0.122071 0.093995064 0.017200887 -0.037856266 -0.0653228 -0.06250656
0.041788578 -0.05287072 -0.13675337 -0.06745601 -0.2606871 -0.27053133 0.2427842 -0.26515505
0.085393816 0.14682493 0.007778436 -0.1987861 0.034733802 -0.02659285 -0.0006943345 0.2543502
0.19335374 0.16211519 -0.10023759 0.16926882 -0.2640865 -0.10578911 -0.27122968 0.07337743
0.07375273 0.23052645 0.2681703 0.00804314 -0.07367106 0.05382362 -0.07777339 0.19508219
-0.15246549 -0.20351413 0.098617315 0.00050243735 0.12571347 -0.007283628 -0.053693026 0.068593174
-0.17304422 0.028829873 -0.19637357 0.013505995 -0.1299458 -0.06353833 -0.24791217 0.041498065
0.04045233 0.22144553 -0.10299455 -0.13644224 -0.022967815 0.12258139 -0.21166056 0.15142602
-0.19365689 -0.16009036 -0.12733385 -0.018918693 -0.12787442 -0.05654688 -0.0560959 -0.18726817
-0.23448871 -0.11818203 -0.15694131 -0.07975602 0.08695185 0.011926204 -0.21582565 0.17880931
0.02494204 -0.25429946 -0.25120944 0.0020869672 0.08059198 0.13444531 -0.17019494 0.20896432
0.25764096 0.12325567 0.25046825 -0.11736691 -0.19876729 -0.034811288 -0.025152728 0.11960295
-0.0310321 0.2696535 0.06562525 0.08910254 -0.022971392 -0.06019856 -0.16852844 -0.15247118
