lstm985_ae_0802.tflite (tflite, 321180 bytes, 18 tensors)

time_distributed/bias f4 [21]
-0.99229693 -0.9930223 -0.9910797 -0.9948979 -0.32842395 -0.79274 -0.57118946 -0.5336555
-0.66753507 -0.92620695 -0.9815804 -0.97985774 -0.9883282 -0.92405003 -0.9826985 -0.9787226
-0.98359203 -0.99455446 0.98684436 -0.9967225 0.9900908
00000000: 2c07 7ebf b636 7ebf 66b7 7dbf a1b1 7ebf
00000010: 2f27 a8be 02f1 4abf 7939 12bf a69d 08bf
00000020: 94e3 2abf e61b 6dbf da48 7bbf f5d7 7abf
00000030: 1403 7dbf 8b8e 6cbf 2192 7bbf 908d 7abf
00000040: b0cc 7bbf 1f9b 7ebf d5a1 7c3f 3529 7fbf
00000050: 9776 7d3f

lstm_3/lstm_cell_7/bias f4 [128]
-0.05754584 -0.08116156 -0.059057623 0.0714614 -0.08655238 -0.03990219 -0.017225971 0.011530123
-0.033425193 -0.02095718 -0.088620506 -0.08239035 -0.08371192 -0.031948935 -0.10385239 -0.021598581
0.12572624 0.2567508 -0.074701816 -0.25714698 -0.13865863 -0.25448793 -0.031391293 -0.10393598
-0.04689197 -0.043471776 -0.0012500993 -0.031748675 -0.056239597 -0.058491394 -0.053501453 -0.04798395
1.0 1.0 1.0 1.0 1.0 1.0 1.0 1.0
1.0 1.0 1.0 1.0 1.0 1.0 1.0 1.0
1.0 1.0 1.0 1.0 1.0 1.0 1.0 1.0
1.0 1.0 1.0 1.0 1.0 1.0 1.0 1.0
0.2030571 0.11999191 0.21990076 0.045724053 -0.2245554 0.14765568 -0.15313692 -0.10922479
0.18639255 0.281546 -0.035327155 0.1606395 0.18934672 0.22445069 -0.19741939 0.21557064
0.048036434 0.35375288 0.21943344 -0.085519694 -0.18746528 0.16014862 0.15500689 -0.13050202
-0.19795601 0.17269324 0.12716274 0.23410775 -0.13261393 0.19383036 0.06329805 0.24960007
-0.065678574 -0.09724966 -0.059702296 0.04544464 -0.0903982 -0.047475845 -0.018430438 -0.017328592
-0.05479581 -0.029983317 -0.09299317 -0.099719 -0.09273483 -0.04003919 -0.10104753 -0.034226213
0.042741854 0.06838768 -0.07837122 -0.19610168 -0.13526168 -0.22928987 -0.044988904 -0.096687384
-0.05035214 -0.06581449 -0.017548164 -0.038845666 -0.06933286 -0.060657874 -0.057666816 -0.045193072
00000000: 30b5 6bbd 0838 a6bd 68e6 71bd 5b5a 923d
00000010: 6042 b1bd 7b70 23bd 7b1d 8dbc d7e8 3c3c
00000020: dbe8 08bd 64ae abbc ab7e b5bd 46bc a8bd
00000030: 2871 abbd e3dc 02bd 90b0 d4bd 82ef b0bc
00000040: 61be 003e d774 833e 44fd 98bd c5a8 83be
00000050: 87fc 0dbe 3e4c 82be 2894 00bd 63dc d4bd
00000060: cb11 40bd 760f 32bd 5fda a3ba e60a 02bd
00000070: 7e5b 66bd ac94 6fbd 5724 5bbd d18a 44bd
00000080: 0000 803f 0000 803f 0000 803f 0000 803f
00000090: 0000 803f 0000 803f 0000 803f 0000 803f
000000a0: 0000 803f 0000 803f 0000 803f 0000 803f
000000b0: 0000 803f 0000 803f 0000 803f 0000 803f
000000c0: 0000 803f 0000 803f 0000 803f 0000 803f
000000d0: 0000 803f 0000 803f 0000 803f 0000 803f
000000e0: 0000 803f 0000 803f 0000 803f 0000 803f
000000f0: 0000 803f 0000 803f 0000 803f 0000 803f
00000100: 33ee 4f3e 52be f53d aa2d 613e 2549 3b3d
00000110: daf1 65be 0d33 173e edcf 1cbe 3fb1 dfbd
00000120: b0dd 3e3e cc26 903e 35b3 10bd ae7e 243e
00000130: 1be4 413e 67d6 653e 4f28 4abe 8dbe 5c3e
00000140: dac1 443d 191f b53e 29b3 603e f324 afbd
00000150: e6f6 3fbe 00fe 233e 20ba 1e3e 52a2 05be
00000160: fbb4 4abe 7fd6 303e f336 023e f1b9 6f3e
00000170: f2cb 07be 777b 463e 68a2 813d 2997 7f3e
00000180: 7d82 86bd d42a c7bd 658a 74bd 2924 3a3d
00000190: b122 b9bd 0876 42bd 6efb 96bc b1f4 8dbc
000001a0: 9271 60bd 939f f5bc 3473 bebd 7a39 ccbd
000001b0: c2eb bdbd 2200 24bd 02f2 cebd c930 0cbd
000001c0: 1512 2f3d d70e 8c3d 1781 a0bd e1ce 48be
000001d0: 0a82 0abe f7ca 6abe 4946 38bd 0904 c6bd
000001e0: 0c3e 4ebd bfc9 86bd 2bc1 8fbc a21c 1fbd
000001f0: 63fe 8dbd 6474 78bd 0a34 6cbd 5f1c 39bd

lstm_2/lstm_cell_6/bias f4 [256]
0.14263296 0.2799533 0.14023486 0.09459009 0.20927599 0.1330342 0.12169307 0.21178298
0.17075437 0.21772438 0.29472125 0.24572542 -0.018186562 0.27051985 0.095607564 0.14630297
0.25734496 0.13443722 0.09708009 0.1544696 0.10527615 0.031143926 0.20279738 0.20591328
0.17832857 0.18949118 0.15214434 0.24618137 0.103098735 0.17255282 0.29502627 0.15833873
0.2105108 0.14161915 0.3016075 0.19039074 0.081783526 0.20648855 0.14671573 0.27025282
0.14004114 0.061653342 0.1881718 0.1812933 0.18436186 0.10214744 0.20066237 0.11287632
0.13421775 0.14593606 0.1586914 -0.16977042 0.20357096 0.22948913 0.23453946 0.2432591
0.04072805 0.14801492 0.13171098 0.24754024 0.12482107 0.14174886 0.15838306 0.24265142
1.0 1.0 1.0 1.0 1.0 1.0 1.0 1.0
1.0 1.0 1.0 1.0 1.0 1.0 1.0 1.0
1.0 1.0 1.0 1.0 1.0 1.0 1.0 1.0
1.0 1.0 1.0 1.0 1.0 1.0 1.0 1.0
1.0 1.0 1.0 1.0 1.0 1.0 1.0 1.0
1.0 1.0 1.0 1.0 1.0 1.0 1.0 1.0
1.0 1.0 1.0 1.0 1.0 1.0 1.0 1.0
1.0 1.0 1.0 1.0 1.0 1.0 1.0 1.0
0.05357045 0.10076041 -0.023610543 -0.16119309 0.008838165 0.08743604 0.057736948 0.045442414
0.030294148 0.038008288 -0.122321285 0.06875992 0.08680926 -0.10072305 0.004587331 0.17721315
0.004680477 0.012140771 -0.04563136 -0.017496841 0.14475363 0.09273999 -0.006477096 0.114306
0.006264154 -0.15456508 0.06939904 -0.09665504 -0.071780585 -0.13442224 -0.0088585215 0.062254168
-0.07260839 0.021966789 -0.10834658 -0.010952732 -0.14828727 -0.027590288 -0.04851767 -0.049139496
-0.041251224 -0.0023872526 0.040010765 -0.055387802 0.14356709 -0.016814118 -0.033847615 0.033827905
-0.071112454 -0.052067935 -0.009653631 0.02452316 -0.10978088 -0.06415021 -0.0789475 0.0116416495
-0.026051076 0.00025350222 0.13157171 0.067441486 0.03484528 -0.21993299 -0.014212401 0.048430793
0.13002627 0.2781024 0.1358348 0.10359918 0.19000456 0.13772613 0.10146335 0.19167402
0.18262444 0.2101908 0.2652062 0.24110171 0.011496892 0.2685859 0.09422495 0.13241057
0.25996685 0.15268676 0.10279073 0.1397236 0.09935525 0.07260141 0.20918211 0.19840154
0.16531241 0.19311588 0.14034341 0.23483774 0.0978402 0.12738499 0.3272559 0.11457917
0.20099601 0.11906822 0.26945564 0.19428958 0.06301581 0.2493011 0.13324675 0.27514824
0.12931016 0.06731433 0.15302736 0.19022436 0.18133777 0.09849372 0.23112877 0.11382188
0.12297539 0.15944256 0.16073608 -0.14297195 0.20821996 0.22463506 0.22144616 0.2543638
0.044317897 0.121450394 0.12254887 0.23603034 0.123261034 0.1475508 0.12335632 0.24633077
00000000: 600e 123e 0a56 8f3e ba99 0f3e 73b8 c13d
00000010: 724c 563e 1e3a 083e 373a f93d a3dd 583e
00000020: 3cda 2e3e 24f3 5e3e b4e5 963e 729f 7b3e
00000030: fcfb 94bc 9481 8a3e e6cd c33d 72d0 153e
00000040: b8c2 833e e9a9 093e edd1 c63d 472d 1e3e
00000050: 069b d73d 8c21 ff3c 1eaa 4f3e eeda 523e
00000060: c49b 363e fa09 423e bacb 1b3e f816 7c3e
00000070: 6e25 d33d b0b1 303e af0d 973e 8c23 223e
00000080: 2590 573e 9c04 113e 4c6c 9a3e caf5 423e
00000090: 1f7e a73d bc71 533e a63c 163e 945e 8a3e
000000a0: f266 0f3e 3788 7c3d 1cb0 403e f3a4 393e
000000b0: 5bc9 3c3e ad32 d13d 707a 4d3e b32b e73d
000000c0: 6170 093e 4370 153e 0080 223e 4cd8 2dbe
000000d0: e874 503e 33ff 6a3e 1d2b 703e ea18 793e
000000e0: 75d2 263d 3991 173e 3edf 063e 307b 7d3e
000000f0: 30a2 ff3d 9d26 113e 2b2f 223e 9d79 783e
00000100: 0000 803f 0000 803f 0000 803f 0000 803f
00000110: 0000 803f 0000 803f 0000 803f 0000 803f
00000120: 0000 803f 0000 803f 0000 803f 0000 803f
00000130: 0000 803f 0000 803f 0000 803f 0000 803f
00000140: 0000 803f 0000 803f 0000 803f 0000 803f
00000150: 0000 803f 0000 803f 0000 803f 0000 803f
00000160: 0000 803f 0000 803f 0000 803f 0000 803f
00000170: 0000 803f 0000 803f 0000 803f 0000 803f
00000180: 0000 803f 0000 803f 0000 803f 0000 803f
00000190: 0000 803f 0000 803f 0000 803f 0000 803f
000001a0: 0000 803f 0000 803f 0000 803f 0000 803f
000001b0: 0000 803f 0000 803f 0000 803f 0000 803f
000001c0: 0000 803f 0000 803f 0000 803f 0000 803f
000001d0: 0000 803f 0000 803f 0000 803f 0000 803f
000001e0: 0000 803f 0000 803f 0000 803f 0000 803f
000001f0: 0000 803f 0000 803f 0000 803f 0000 803f
00000200: b06c 5b3d 795b ce3d e66a c1bc cd0f 25be
00000210: f3cd 103c ab11 b33d 947d 6c3d d321 3a3d
00000220: 6f2b f83c 94ae 1b3d 9583 fabd 00d2 8c3d
00000230: 0ec9 b13d e347 cebd 5251 963b 5d77 353e
00000240: b05e 993b 16ea 463c f3e7 3abd 8955 8fbc
00000250: 4c3a 143e 77ee bd3d d23d d4bb 4419 ea3d
00000260: 8843 cd3b 4f46 1ebe 1521 8e3d 14f3 c5bd
00000270: b301 93bd fca5 09be 5523 11bc 3afe 7e3d
00000280: b5b3 94bd b2f3 b33c d0e4 ddbd 1673 33bc
00000290: 9ed8 17be 0705 e2bc 77ba 46bd 7f46 49bd
000002a0: 0bf7 28bd 7473 1cbb 54e2 233d 52de 62bd
000002b0: 4003 133e c3bd 89bc cca3 0abd 218f 0a3d
000002c0: 68a3 91bd 3045 55bd 432a 1ebc cbe4 c83c
000002d0: ccd4 e0bd 2f61 83bd 3aaf a1bd 9ebc 3e3c
000002e0: 1169 d5bc 7ee8 8439 bcba 063e c31e 8a3d
000002f0: edb9 0e3d 1d36 61be 21db 68bc 5e5f 463d
00000300: 9b25 053e 7063 8e3e 4718 0b3e cf2b d43d
00000310: 8e90 423e 1408 0d3e 04cc cf3d 3246 443e
00000320: e701 3b3e 423c 573e 1bc9 873e 5ee3 763e
00000330: 765d 3c3c 1784 893e 03f9 c03d a396 073e
00000340: 601a 853e eb59 1c3e f283 d23d b413 0f3e
00000350: c47a cb3d 0cb0 943d d633 563e c629 4b3e
00000360: a847 293e 2bc0 453e 2fb6 0f3e 4e79 703e
00000370: 7160 c83d 3671 023e 168e a73e 7ca8 ea3d
00000380: e6d1 4d3e 0ada f33d 17f6 893e d9f3 463e
00000390: 6f0e 813d ca48 7f3e d671 083e 3be0 8c3e
000003a0: e269 043e 18dc 893d 34b3 1c3e 2dca 423e
000003b0: 9cb0 393e 13b7 c93d 05ad 6c3e 721b e93d
000003c0: 85da fb3d e944 233e 0098 243e 3d67 12be
000003d0: 9d37 553e bc06 663e c8c2 623e f93b 823e
000003e0: af86 353d fcba f83d e7fa fa3d f0b1 713e
000003f0: 4870 fc3d 8f17 173e 3da2 fc3d 223e 7c3e

lstm_1/lstm_cell_5/bias f4 [128]
0.02819477 0.19465233 0.2835607 0.16507316 0.19852862 0.13516891 0.14025001 0.15143791
0.026142566 0.2960379 0.1624208 0.11662983 0.23074178 0.23356767 0.11313741 0.2883403
0.3038976 0.25361437 0.118037336 0.2790155 0.057210047 0.20889987 0.15826781 0.14063042
0.3536585 0.19832617 0.1694505 0.34126934 0.22902186 0.21563402 0.1535631 0.2127345
1.0 1.0 1.0 1.0 1.0 1.0 1.0 1.0
1.0 1.0 1.0 1.0 1.0 1.0 1.0 1.0
1.0 1.0 1.0 1.0 1.0 1.0 1.0 1.0
1.0 1.0 1.0 1.0 1.0 1.0 1.0 1.0
0.063275054 -0.008170443 0.12370298 -0.034068733 -0.07323757 -0.07711445 0.089147635 -0.07693653
-0.10366269 -0.08498988 -0.03983544 0.005105777 0.042110134 0.06586908 0.02036013 0.13297063
-0.124959886 0.2516137 -0.018895697 -0.07613678 0.0380383 0.05229907 0.009293307 0.022826092
-0.15466659 0.048049636 0.03591596 -0.1894555 0.17900923 -0.08114323 -0.19677308 0.032856625
0.07082156 0.21646415 0.29967833 0.1714648 0.23740178 0.1514857 0.24366093 0.1809146
0.061530832 0.33939067 0.19093217 0.1614948 0.24215025 0.24626303 0.12461649 0.30038705
0.32453933 0.33046448 0.15549135 0.3227346 0.07385369 0.253531 0.18210785 0.19328028
0.3834741 0.24547556 0.20558965 0.3747893 0.27778998 0.27423558 0.16306904 0.24263366
00000000: b8f8 e63c f152 473e de2e 913e f008 293e
00000010: 164b 4b3e b869 0a3e b39d 0f3e 8a12 1b3e
00000020: ef28 d63c 4892 973e a351 263e 9fdb ee3d
00000030: 9347 6c3e 5d2c 6f3e 96b4 e73d 57a1 933e
00000040: 7798 9b3e bed9 813e 8fbd f13d 1fdb 8e3e
00000050: 1555 6a3d d9e9 553e f510 223e 6c01 103e
00000060: ba12 b53e 0416 4b3e 6f84 2d3e dbba ae3e
00000070: b584 6a3e 2acf 5c3e a53f 1d3e 13d7 593e
00000080: 0000 803f 0000 803f 0000 803f 0000 803f
00000090: 0000 803f 0000 803f 0000 803f 0000 803f
000000a0: 0000 803f 0000 803f 0000 803f 0000 803f
000000b0: 0000 803f 0000 803f 0000 803f 0000 803f
000000c0: 0000 803f 0000 803f 0000 803f 0000 803f
000000d0: 0000 803f 0000 803f 0000 803f 0000 803f
000000e0: 0000 803f 0000 803f 0000 803f 0000 803f
000000f0: 0000 803f 0000 803f 0000 803f 0000 803f
00000100: 5a96 813d 52dd 05bc fd57 fd3d a88b 0bbd
00000110: 94fd 95bd 2eee 9dbd 0993 b63d e690 9dbd
00000120: 1b4d d4bd 2d0f aebd 7d2a 23bd 5d4e a73b
00000130: ad7b 2c3d 5ee6 863d 4aca a63c 7429 083e
00000140: f8ea ffbd 83d3 803e 26cb 9abc 9aed 9bbd
00000150: 0cce 1b3d 8d37 563d f442 183c c9fd ba3c
00000160: eb60 1ebe b2cf 443d 9d1c 133d 9f00 42be
00000170: 324e 373e 6c2e a6bd e27e 49be ab94 063d
00000180: e50a 913d c7a8 5d3e 706f 993e 7894 2f3e
00000190: 7419 733e 111f 1b3e 4082 793e ad41 393e
000001a0: c107 7c3d 9dc4 ad3e b983 433e e55e 253e
000001b0: 3cf6 773e 602c 7c3e ee36 ff3d 55cc 993e
000001c0: 052a a63e a432 a93e 2039 1f3e 783d a53e
000001d0: 9a40 973d d1ce 813e 7b7a 3a3e 44eb 453e
000001e0: b856 c43e f25d 7b3e 1886 523e 62e4 bf3e
000001f0: 7d3a 8e3e 9b68 8c3e 92fb 263e f574 783e

lstm/lstm_cell_4/bias f4 [256]
0.14289582 -0.03372057 0.010410616 -0.03346849 0.009952246 0.26215354 0.0960779 -0.12251994
0.15235469 0.21045111 0.07248657 0.103617266 0.008693443 0.16581105 0.0659324 0.14524932
0.1876896 0.113590956 -0.16637143 0.029247051 -0.31825587 -0.012294766 -0.063358486 -0.03441243
0.11435857 0.15903555 -0.16500166 -0.030013347 0.2286241 -0.20081265 0.13906953 0.105199516
-0.12547201 -0.054422595 0.09224339 -0.12033959 -0.10125721 0.11494245 0.14676917 0.046956077
-0.28069583 0.11690785 -0.055216376 -0.08304599 -0.22779313 -0.06181727 0.092199944 0.09262047
-0.15112744 -0.29072052 0.10309334 -0.16262412 0.0024718319 0.12871931 0.021280132 0.05774756
0.13700518 0.14526865 0.093114056 0.18877277 -0.32919458 0.06374174 -0.02920016 0.06927171
1.0 1.0 1.0 1.0 1.0 1.0 1.0 1.0
1.0 1.0 1.0 1.0 1.0 1.0 1.0 1.0
1.0 1.0 1.0 1.0 1.0 1.0 1.0 1.0
1.0 1.0 1.0 1.0 1.0 1.0 1.0 1.0
1.0 1.0 1.0 1.0 1.0 1.0 1.0 1.0
1.0 1.0 1.0 1.0 1.0 1.0 1.0 1.0
1.0 1.0 1.0 1.0 1.0 1.0 1.0 1.0
1.0 1.0 1.0 1.0 1.0 1.0 1.0 1.0
-0.2549026 -0.1988366 0.25826487 -0.1065925 0.2262896 -0.1271113 -0.114591695 -0.13640377
0.3050663 0.54627 -0.14785749 -0.2413729 0.22814427 0.1967631 -0.27894658 0.21995209
-0.2694779 0.20880158 0.13232212 -0.18669772 0.12046747 -0.19836573 -0.1309981 -0.26937398
0.23056433 0.2835833 -0.110892765 -0.0064198305 0.27340263 -0.13525362 0.26133624 -0.22251125
-0.09510531 -0.17265847 -0.25083175 0.17413352 -0.117358364 -0.31953022 0.25298512 0.2366353
0.10725178 0.2491512 -0.27502292 0.23867142 0.14264506 -0.18218851 0.24167852 0.19095379
-0.1391913 0.20105867 0.2686184 -0.23986684 0.3005629 -0.32069495 -0.22598277 -0.24542098
0.31507766 -0.08199953 0.26041013 -0.2293352 0.12744187 0.26637143 0.23462325 -0.21916215
0.11949198 0.023389345 0.029936591 -0.06394376 0.023429982 0.24053685 0.16673869 -0.10498389
0.22060025 0.28371137 0.08732203 0.1209117 0.037919395 0.19508912 0.01590875 0.17878322
0.26286757 0.21041259 -0.21422818 0.016372936 -0.2655822 0.043060012 0.04721673 0.006256077
0.122571915 0.18519187 -0.19099134 0.15632823 0.19357044 -0.15469252 0.19977067 0.109045036
-0.20779279 -0.09870067 0.13928558 -0.2070671 -0.15176463 0.14765076 0.105329245 0.07234183
-0.34699053 0.14273489 -0.0121354945 -0.036016367 -0.20727362 -0.07628954 0.12827054 0.07809196
-0.20235847 -0.24515906 0.17181355 -0.11929681 0.12599084 0.15003723 0.02592509 0.08517796
0.12163788 0.17639881 0.12368577 0.08854139 -0.30266878 0.07103095 -0.03553974 0.106444806
00000000: 4853 123e 951e 0abd 4a91 2a3c 4116 09bd
00000010: bf0e 233c fd38 863e 7dc4 c43d bceb fabd
00000020: de02 1c3e 7f80 573e d773 943d 4a35 d43d
00000030: f16e 0e3c 5fca 293e 9107 873d 3dbc 143e
00000040: b431 403e 60a2 e83d 465d 2abe 8397 ef3c
00000050: 6ff2 a2be fc6f 49bc 18c2 81bd 0cf4 0cbd
00000060: d334 ea3d 37da 223e 32f6 28be 8dde f5bc
00000070: 701c 6a3e d5a1 4dbe 3e68 0e3e d872 d73d
00000080: bc7b 00be 3aea 5ebd 1aea bc3d 9a74 f6bd
00000090: f15f cfbd f266 eb3d a84a 163e 0455 403d
000000a0: 5db7 8fbe 626d ef3d 912a 62bd 0414 aabd
000000b0: 9a42 69be 1b34 7dbd 53d3 bc3d cdaf bd3d
000000c0: 27c1 1abe 52d9 94be 9a22 d33d f086 26be
000000d0: 75fe 213b ffce 033e ac53 ae3c b588 6c3d
000000e0: 164b 0c3e 4ec1 143e 95b2 be3d a64d 413e
000000f0: 318c a8be 088b 823d 2d35 efbc 54de 8d3d
00000100: 0000 803f 0000 803f 0000 803f 0000 803f
00000110: 0000 803f 0000 803f 0000 803f 0000 803f
00000120: 0000 803f 0000 803f 0000 803f 0000 803f
00000130: 0000 803f 0000 803f 0000 803f 0000 803f
00000140: 0000 803f 0000 803f 0000 803f 0000 803f
00000150: 0000 803f 0000 803f 0000 803f 0000 803f
00000160: 0000 803f 0000 803f 0000 803f 0000 803f
00000170: 0000 803f 0000 803f 0000 803f 0000 803f
00000180: 0000 803f 0000 803f 0000 803f 0000 803f
00000190: 0000 803f 0000 803f 0000 803f 0000 803f
000001a0: 0000 803f 0000 803f 0000 803f 0000 803f
000001b0: 0000 803f 0000 803f 0000 803f 0000 803f
000001c0: 0000 803f 0000 803f 0000 803f 0000 803f
000001d0: 0000 803f 0000 803f 0000 803f 0000 803f
000001e0: 0000 803f 0000 803f 0000 803f 0000 803f
000001f0: 0000 803f 0000 803f 0000 803f 0000 803f
00000200: 9882 82be d29b 4bbe 4b3b 843e 2b4d dabd
00000210: 76b8 673e 7729 02be 0daf eabd 6ead 0bbe
00000220: a631 9c3e 5ad8 0b3f f467 17be 752a 77be
00000230: a79e 693e 447c 493e 16d2 8ebe 1f3b 613e
00000240: 02f9 89be 15d0 553e 737f 073e b02d 3fbe
00000250: a6b7 f63d 6320 4bbe 5e24 06be 63eb 89be
00000260: 0e19 6c3e d531 913e bf1b e3bd 715d d2bb
00000270: 6efb 8b3e ed7f 0abe ddcd 853e fdd9 63be
00000280: 93c6 c2bd 62cd 30be 056d 80be 0f50 323e
00000290: 9559 f0bd 7799 a3be 4487 813e 8650 723e
000002a0: d2a6 db3d 7e21 7f3e cecf 8cbe 4866 743e
000002b0: 8c11 123e a08f 3abe 937a 773e 6489 433e
000002c0: 2a88 0ebe 53e2 4d3e 5a88 893e a79f 75be
000002d0: 61e3 993e 2132 a4be 0768 67be a34f 7bbe
000002e0: dc51 a13e 5fef a7bd 7a54 853e d9d6 6abe
000002f0: 1f80 023e d661 883e 1441 703e 0b6c 60be
00000300: 36b8 f43d 039b bf3c 953d f53c f2f4 82bd
00000310: 3cf0 bf3c 4b4f 763e 8cbd 2a3e cb01 d7bd
00000320: 08e5 613e 9e42 913e e4d5 b23d 8ea0 f73d
00000330: 5e51 1b3d 71c5 473e 1153 823c f312 373e
00000340: 9496 863e 6676 573e a25e 5bbe 8920 863c
00000350: 64fa 87be b25f 303d 5466 413d c7ff cc3b
00000360: fc06 fb3d f0a2 3d3e 3c93 43be 8214 203e
00000370: 5437 463e b767 1ebe af90 4c3e 0153 df3d
00000380: a2c7 54be 9423 cabd e1a0 0e3e 6609 54be
00000390: 3068 1bbe c331 173e dcb6 d73d f427 943d
000003a0: bea8 b1be 1829 123e f4d3 46bc e685 13bd
000003b0: 893f 54be b13d 9cbd 5a59 033e adee 9f3d
000003c0: 0f37 4fbe fa0a 7bbe e4ef 2f3e e351 f4bd
000003d0: be03 013e 5ca3 193e db60 d43c c871 ae3d
000003e0: 481d f93d e4a1 343e f74e fd3d 3055 b53d
000003f0: 67f7 9abe ad78 913d 1e92 11bd bcff d93d

model/time_distributed/dense/MatMul f4 [21, 32]
0.14374648 -0.00015610963 0.19837208 0.018678457 -0.19322522 0.1907025 -0.100434214 -0.005523765
0.16618034 0.15352723 -0.008950373 0.23279382 0.20764741 0.2104519 -0.16606945 0.1979843
0.070040755 0.080382966 0.1218263 0.00979724 -0.21800545 -0.0071139038 0.19254437 0.0008905085
-0.17119007 0.19807059 0.13837686 0.1605318 -0.25090873 0.18020657 0.0046019345 -0.0009359037
0.1370539 0.0049041775 0.150565 0.09627156 -0.20338096 0.13391753 -0.088557236 0.0027914932
0.1543065 0.18087032 -0.00039152993 0.16665031 0.200792 0.25492477 -0.19343416 0.16016884
0.1011513 0.09134169 0.15443598 0.0012991383 -0.1708317 0.0017106899 0.16120443 0.001568424
-0.1387968 0.14202186 0.059674714 0.21635328 -0.16205487 0.17227815 -0.0024534431 0.0042696414
0.20028828 -0.0055825165 0.23505086 0.046014678 -0.25205627 0.24281223 -0.16325212 -0.003640667
0.21902554 0.22599156 -0.009624637 0.29583108 0.27633336 0.30365458 -0.19500145 0.262264
0.10711684 0.103647225 0.16576713 0.007516293 -0.26389268 -0.004641753 0.2526461 -0.0009874369
-0.21827842 0.24566711 0.17055371 0.22800712 -0.31908092 0.24709608 0.0071323453 -0.0062472764
0.13721593 0.005210624 0.16051598 0.08337758 -0.21563359 0.16006097 -0.09475411 0.005349077
0.16156854 0.1942465 0.0010635552 0.18998142 0.20812337 0.25008577 -0.20238467 0.19093312
0.10748855 0.09659598 0.15915829 0.0024343934 -0.17908573 0.00067373173 0.18596183 0.0037102965
-0.1596107 0.15745927 0.082222566 0.23819861 -0.19448435 0.18759875 -0.00017010802 0.004016359
0.02999806 -0.27859932 0.036326576 -0.2523121 -0.033089686 0.09950606 -0.07942564 0.61063874
0.050815158 -0.00944512 0.044983063 -0.03552739 -0.08833969 -0.10422788 -0.04088828 0.05016183
-0.28892693 0.022362579 0.052318856 0.103288956 -0.03896905 -0.26019695 -0.04713503 0.7290318
-0.029714921 0.09385066 0.20739533 -0.031149361 -0.03312365 -0.043170407 -0.23393048 -0.43060687
-0.00698933 -0.07614122 0.029466134 -0.07374241 0.044147108 0.03643294 -0.03848972 -0.020221654
0.015697675 -0.028192567 -0.13320863 0.053205 -0.0040860474 -0.06430946 0.0064065964 0.02428414
-0.035496466 -0.010964642 -0.05827802 0.10583844 -0.05140497 -0.08343732 0.0072254343 0.0035426007
-0.012437629 0.041202035 0.060083248 -0.046962894 -0.06795995 0.00778757 0.061053455 -0.06132264
-0.014389325 -0.5167371 -0.020341799 0.011441875 0.07106329 0.062220406 -0.22658756 -0.37336585
0.01872669 0.019132782 -0.595473 0.07112096 0.038024656 0.12653454 0.090578794 0.045195352
0.10508836 0.08970053 -0.13408491 0.45198202 0.15087178 -0.37018818 0.063550524 -0.112992376
-0.02226395 0.0014169259 0.05147555 0.028010473 -0.0657832 0.13422254 0.5171763 -0.40707132
-0.008129391 -0.12591259 0.047703568 -0.10677397 0.038971394 0.066586256 -0.042463925 0.0037485946
0.03156411 -0.024457023 -0.05889978 0.038643397 0.01133093 -0.08328922 0.0072004087 0.036886763
-0.050574202 -0.0211292 -0.061413124 0.042657036 -0.06855798 -0.086615734 0.028388206 0.08558651
-0.03861432 0.056866035 0.08835064 -0.0674689 -0.097186856 0.015004617 0.09375863 -0.12294378
00000000: 4732 133e 5cb1 23b9 0d22 4b3e 9003 993c
00000010: d5dc 45be 8447 433e 74b0 cdbd b300 b5bb
00000020: 2e2b 2a3e 3e36 1d3e 96a4 12bc 8161 6e3e
00000030: 86a1 543e b480 573e 1c0e 2abe 65bc 4a3e
00000040: 8771 8f3d d39f a43d 1180 f93d 9a84 203c
00000050: d23c 5fbe c01b e9bb 5a2a 453e 0471 693a
00000060: 734c 2fbe 04d3 4a3e aab2 0d3e 7362 243e
00000070: 1c77 80be 1288 383e d3cb 963b 6f57 75ba
00000080: dc57 0c3e 39b3 a03b b62d 1a3e 062a c53d
00000090: 1943 50be ad21 093e 7f5d b5bd 7cf1 363b
000000a0: 8602 1e3e 1236 393e 4246 cdb9 61a6 2a3e
000000b0: 6b9c 4d3e 8085 823e 9b13 46be 4d03 243e
000000c0: 6a28 cf3d 5a11 bb3d 7724 1e3e d947 aa3a
000000d0: 81ee 2ebe 3a39 e03a c612 253e 9493 cd3a
000000e0: c020 0ebe 2e6e 113e 796d 743d b78b 5d3e
000000f0: b6f1 25be af69 303e f2c9 20bb 59e8 8b3b
00000100: 5f18 4d3e 8bed b6bb 2cb1 703e e379 3c3d
00000110: 850d 81be c5a3 783e 902b 27be 4298 6ebb
00000120: 3b48 603e 556a 673e a7b0 1dbc 2c77 973e
00000130: 917b 8d3e 9d78 9b3e 76ae 47be 7847 863e
00000140: 1360 db3d ff44 d43d dcbe 293e 3c4b f63b
00000150: f11c 87be d919 98bb d45a 813e e26c 81ba
00000160: 6184 5fbe 2990 7b3e a2a5 2e3e b37a 693e
00000170: 935e a3be c106 7d3e 73b6 e93b f4b5 ccbb
00000180: 5582 0c3e e2bd aa3b 4d5e 243e ddc1 aa3d
00000190: 0dcf 5cbe 06e7 233e 710e c2bd 4f47 af3b
000001a0: 3972 253e 8ee8 463e fe66 8b3a 7d8a 423e
000001b0: 4b1e 553e 3e0b 803e ed3d 4fbe f983 433e
000001c0: f522 dc3d 1dd4 c53d 64fa 223e 588a 1f3b
000001d0: 4062 37be 5f9d 303a c76c 3e3e 7228 733b
000001e0: fd70 23be 013d 213e 4e64 a83d 56ea 733e
000001f0: e826 47be e319 403e 065f 32b9 a99b 833b
00000200: 7ebe f53c 92a4 8ebe 2dcb 143d 0d2f 81be
00000210: 0d89 07bd d5c9 cb3d e9a9 a2bd d252 1c3f
00000220: 8e23 503d b4bf 1abc 2940 383d 2b85 11bd
00000230: 70eb b4bd 6d75 d5bd 787a 27bd 7e76 4d3d
00000240: 3bee 93be ba31 b73c 4c4c 563d 2989 d33d
00000250: 039e 1fbd 8938 85be a910 41bd d4a1 3a3f
00000260: b56c f3bc c634 c03d 715f 543e f22c ffbc
00000270: aaac 07bd 74d3 30bd 798b 6fbe 8178 dcbe
00000280: c006 e5bb eeef 9bbd f662 f13c 4306 97bd
00000290: 99d3 343d b53a 153d 66a7 1dbd e2a7 a5bc
000002a0: 6998 803c 19f4 e6bc d867 08be 7ced 593d
000002b0: 40e4 85bb aeb4 83bd 6dee d13b 88ef c63c
000002c0: be64 11bd 0ba5 33bc efb4 6ebd d3c1 d83d
000002d0: 058e 52bd 30e1 aabd 56c3 ec3b fa2a 683b
000002e0: 32c7 4bbc 77c3 283d da19 763d 2a5c 40bd
000002f0: 962e 8bbd df2e ff3b 3013 7a3d 732d 7bbd
00000300: 34c1 6bbc e248 04bf d8a3 a6bc b476 3b3c
00000310: a189 913d d3da 7e3d 9206 68be cf29 bfbe
00000320: b768 993c 5abc 9c3c eb70 18bf dea7 913d
00000330: bebf 1b3d 4592 013e 6081 b93d c31e 393d
00000340: 9138 d73d e9b4 b73d 8e4d 09be 306a e73e
00000350: 227e 1a3e 4e89 bdbe c726 823d 8c68 e7bd
00000360: e362 b6bc 25b8 b93a 07d8 523d 3876 e53c
00000370: 58b9 86bd a271 093e aa65 043f a76b d0be
00000380: 2331 05bc 3bef 00be d164 433d 50ac dabd
00000390: 78a0 1f3d 605e 883d a7ee 2dbd fbaa 753b
000003a0: 5e49 013d 185a c8bc e540 71bd 8a48 1e3d
000003b0: 5da5 393c 8a93 aabd 68f1 eb3b 9316 173d
000003c0: e526 4fbd 2517 adbc 548c 7bbd 25b9 2e3d
000003d0: 2068 8cbd 9763 b1bd 628e e83c fb47 af3d
000003e0: 0d2a 1ebd 5cec 683d 2ef1 b43d 222d 8abd
000003f0: e709 c7bd edd5 753c 8604 c03d f3c9 fbbd

lstm/lstm_cell_4/bias1 f4 [256]
0.14289582 -0.03372057 0.010410616 -0.03346849 0.009952246 0.26215354 0.0960779 -0.12251994
0.15235469 0.21045111 0.07248657 0.103617266 0.008693443 0.16581105 0.0659324 0.14524932
0.1876896 0.113590956 -0.16637143 0.029247051 -0.31825587 -0.012294766 -0.063358486 -0.03441243
0.11435857 0.15903555 -0.16500166 -0.030013347 0.2286241 -0.20081265 0.13906953 0.105199516
-0.12547201 -0.054422595 0.09224339 -0.12033959 -0.10125721 0.11494245 0.14676917 0.046956077
-0.28069583 0.11690785 -0.055216376 -0.08304599 -0.22779313 -0.06181727 0.092199944 0.09262047
-0.15112744 -0.29072052 0.10309334 -0.16262412 0.0024718319 0.12871931 0.021280132 0.05774756
0.13700518 0.14526865 0.093114056 0.18877277 -0.32919458 0.06374174 -0.02920016 0.06927171
1.0 1.0 1.0 1.0 1.0 1.0 1.0 1.0
1.0 1.0 1.0 1.0 1.0 1.0 1.0 1.0
1.0 1.0 1.0 1.0 1.0 1.0 1.0 1.0
1.0 1.0 1.0 1.0 1.0 1.0 1.0 1.0
1.0 1.0 1.0 1.0 1.0 1.0 1.0 1.0
1.0 1.0 1.0 1.0 1.0 1.0 1.0 1.0
1.0 1.0 1.0 1.0 1.0 1.0 1.0 1.0
1.0 1.0 1.0 1.0 1.0 1.0 1.0 1.0
-0.2549026 -0.1988366 0.25826487 -0.1065925 0.2262896 -0.1271113 -0.114591695 -0.13640377
0.3050663 0.54627 -0.14785749 -0.2413729 0.22814427 0.1967631 -0.27894658 0.21995209
-0.2694779 0.20880158 0.13232212 -0.18669772 0.12046747 -0.19836573 -0.1309981 -0.26937398
0.23056433 0.2835833 -0.110892765 -0.0064198305 0.27340263 -0.13525362 0.26133624 -0.22251125
-0.09510531 -0.17265847 -0.25083175 0.17413352 -0.117358364 -0.31953022 0.25298512 0.2366353
0.10725178 0.2491512 -0.27502292 0.23867142 0.14264506 -0.18218851 0.24167852 0.19095379
-0.1391913 0.20105867 0.2686184 -0.23986684 0.3005629 -0.32069495 -0.22598277 -0.24542098
0.31507766 -0.08199953 0.26041013 -0.2293352 0.12744187 0.26637143 0.23462325 -0.21916215
0.11949198 0.023389345 0.029936591 -0.06394376 0.023429982 0.24053685 0.16673869 -0.10498389
0.22060025 0.28371137 0.08732203 0.1209117 0.037919395 0.19508912 0.01590875 0.17878322
0.26286757 0.21041259 -0.21422818 0.016372936 -0.2655822 0.043060012 0.04721673 0.006256077
0.122571915 0.18519187 -0.19099134 0.15632823 0.19357044 -0.15469252 0.19977067 0.109045036
-0.20779279 -0.09870067 0.13928558 -0.2070671 -0.15176463 0.14765076 0.105329245 0.07234183
-0.34699053 0.14273489 -0.0121354945 -0.036016367 -0.20727362 -0.07628954 0.12827054 0.07809196
-0.20235847 -0.24515906 0.17181355 -0.11929681 0.12599084 0.15003723 0.02592509 0.08517796
0.12163788 0.17639881 0.12368577 0.08854139 -0.30266878 0.07103095 -0.03553974 0.106444806
00000000: 4853 123e 951e 0abd 4a91 2a3c 4116 09bd
00000010: bf0e 233c fd38 863e 7dc4 c43d bceb fabd
00000020: de02 1c3e 7f80 573e d773 943d 4a35 d43d
00000030: f16e 0e3c 5fca 293e 9107 873d 3dbc 143e
00000040: b431 403e 60a2 e83d 465d 2abe 8397 ef3c
00000050: 6ff2 a2be fc6f 49bc 18c2 81bd 0cf4 0cbd
00000060: d334 ea3d 37da 223e 32f6 28be 8dde f5bc
00000070: 701c 6a3e d5a1 4dbe 3e68 0e3e d872 d73d
00000080: bc7b 00be 3aea 5ebd 1aea bc3d 9a74 f6bd
00000090: f15f cfbd f266 eb3d a84a 163e 0455 403d
000000a0: 5db7 8fbe 626d ef3d 912a 62bd 0414 aabd
000000b0: 9a42 69be 1b34 7dbd 53d3 bc3d cdaf bd3d
000000c0: 27c1 1abe 52d9 94be 9a22 d33d f086 26be
000000d0: 75fe 213b ffce 033e ac53 ae3c b588 6c3d
000000e0: 164b 0c3e 4ec1 143e 95b2 be3d a64d 413e
000000f0: 318c a8be 088b 823d 2d35 efbc 54de 8d3d
00000100: 0000 803f 0000 803f 0000 803f 0000 803f
00000110: 0000 803f 0000 803f 0000 803f 0000 803f
00000120: 0000 803f 0000 803f 0000 803f 0000 803f
00000130: 0000 803f 0000 803f 0000 803f 0000 803f
00000140: 0000 803f 0000 803f 0000 803f 0000 803f
00000150: 0000 803f 0000 803f 0000 803f 0000 803f
00000160: 0000 803f 0000 803f 0000 803f 0000 803f
00000170: 0000 803f 0000 803f 0000 803f 0000 803f
00000180: 0000 803f 0000 803f 0000 803f 0000 803f
00000190: 0000 803f 0000 803f 0000 803f 0000 803f
000001a0: 0000 803f 0000 803f 0000 803f 0000 803f
000001b0: 0000 803f 0000 803f 0000 803f 0000 803f
000001c0: 0000 803f 0000 803f 0000 803f 0000 803f
000001d0: 0000 803f 0000 803f 0000 803f 0000 803f
000001e0: 0000 803f 0000 803f 0000 803f 0000 803f
000001f0: 0000 803f 0000 803f 0000 803f 0000 803f
00000200: 9882 82be d29b 4bbe 4b3b 843e 2b4d dabd
00000210: 76b8 673e 7729 02be 0daf eabd 6ead 0bbe
00000220: a631 9c3e 5ad8 0b3f f467 17be 752a 77be
00000230: a79e 693e 447c 493e 16d2 8ebe 1f3b 613e
00000240: 02f9 89be 15d0 553e 737f 073e b02d 3fbe
00000250: a6b7 f63d 6320 4bbe 5e24 06be 63eb 89be
00000260: 0e19 6c3e d531 913e bf1b e3bd 715d d2bb
00000270: 6efb 8b3e ed7f 0abe ddcd 853e fdd9 63be
00000280: 93c6 c2bd 62cd 30be 056d 80be 0f50 323e
00000290: 9559 f0bd 7799 a3be 4487 813e 8650 723e
000002a0: d2a6 db3d 7e21 7f3e cecf 8cbe 4866 743e
000002b0: 8c11 123e a08f 3abe 937a 773e 6489 433e
000002c0: 2a88 0ebe 53e2 4d3e 5a88 893e a79f 75be
000002d0: 61e3 993e 2132 a4be 0768 67be a34f 7bbe
000002e0: dc51 a13e 5fef a7bd 7a54 853e d9d6 6abe
000002f0: 1f80 023e d661 883e 1441 703e 0b6c 60be
00000300: 36b8 f43d 039b bf3c 953d f53c f2f4 82bd
00000310: 3cf0 bf3c 4b4f 763e 8cbd 2a3e cb01 d7bd
00000320: 08e5 613e 9e42 913e e4d5 b23d 8ea0 f73d
00000330: 5e51 1b3d 71c5 473e 1153 823c f312 373e
00000340: 9496 863e 6676 573e a25e 5bbe 8920 863c
00000350: 64fa 87be b25f 303d 5466 413d c7ff cc3b
00000360: fc06 fb3d f0a2 3d3e 3c93 43be 8214 203e
00000370: 5437 463e b767 1ebe af90 4c3e 0153 df3d
00000380: a2c7 54be 9423 cabd e1a0 0e3e 6609 54be
00000390: 3068 1bbe c331 173e dcb6 d73d f427 943d
000003a0: bea8 b1be 1829 123e f4d3 46bc e685 13bd
000003b0: 893f 54be b13d 9cbd 5a59 033e adee 9f3d
000003c0: 0f37 4fbe fa0a 7bbe e4ef 2f3e e351 f4bd
000003d0: be03 013e 5ca3 193e db60 d43c c871 ae3d
000003e0: 481d f93d e4a1 343e f74e fd3d 3055 b53d
000003f0: 67f7 9abe ad78 913d 1e92 11bd bcff d93d

while/MatMul_1 f4 [256, 64]
-0.077150345 -0.03798101 0.052427426 0.033870794 -0.020579997 -0.016027361 0.056094907 0.011938918
-0.029153913 0.051969588 0.010902975 0.050450515 -0.100500144 0.021450777 -0.04251293 -0.03398165
0.10309138 0.10022108 -0.021183692 -0.11335009 -0.017271798 0.060568396 0.05640848 0.081286676
0.0016866922 0.07421523 0.03129289 -0.08201736 -0.09590195 -0.038401153 -0.07527685 0.035899945
0.110335976 0.015717622 -0.08176482 -0.043922365 0.04421517 0.08446045 -0.027086139 0.061003957
0.08328858 -0.07575239 0.061857726 0.045972463 -0.0836145 -0.04115355 0.0486456 0.0012310391
-0.06862894 -0.02260634 0.14343755 0.044145398 -0.02793854 0.05063255 0.06647327 0.062667325
-0.002294262 -0.011996222 -0.07809897 -0.0013225414 -0.08723814 0.019700907 0.18180805 -0.017322365
0.027319405 0.027328253 0.045893542 0.07916268 -0.042158954 -0.02426782 -0.024564726 0.063871
0.09334534 -0.035283208 -0.0007424059 -0.0126450565 0.06218952 0.0072733965 0.0112867365 3.8490456e-05
0.008511362 0.076570764 -0.03336121 -0.0024768766 0.04823326 0.00091857044 -0.10985235 -0.014360819
0.054637082 -0.061894197 0.039851107 -0.102184586 -0.14360453 -0.059992418 0.014949541 0.02409129
0.059484426 -0.043788772 0.06810785 -0.02857415 -0.07266216 -0.030754942 -0.014615416 -0.012584325
-0.053325493 -0.03917693 0.0181815 0.07080717 0.06980237 0.1074013 -0.049695853 -0.05692133
0.11164009 -0.08010893 0.066085525 0.031035868 -0.009460732 -0.100510344 0.06083779 0.031925038
-0.008415348 -0.017664392 -0.06498073 0.042224765 0.10433621 0.005824739 0.06352466 0.010076433
-0.03858744 -0.12245325 -0.011783838 -0.06765974 -0.06556644 0.07856353 -0.020335715 -0.01648463
-0.026241388 -0.11652909 0.02147308 0.03959695 0.0028937645 -0.036041807 -0.07422777 -0.06185053
0.009063281 0.011162052 0.024792042 -0.0008660252 -0.041192666 -0.046119712 -0.031980976 0.068074346
0.008543354 0.08346846 -0.04802251 -0.05834347 0.001625496 -0.00032663345 -0.040887482 -0.13161856
-0.037697673 -0.023226708 0.05980724 -0.047231942 0.079046346 0.057756588 -0.0003692152 0.09307923
-0.006188427 -0.006251389 -0.020491589 -0.046214595 -0.12863377 -0.034611348 0.010564501 -0.0705021
-0.052388437 -0.08851412 -0.054682273 0.0040239883 -0.07609861 -0.09498562 -0.048687663 -0.121434264
0.11942262 -0.19296484 0.013343718 -0.083338395 0.05003725 0.025835793 0.09955416 -0.035324726
-0.09879137 0.01758312 0.062404253 0.030985117 -0.028985986 -0.027122617 -0.11990821 -0.033596978
-0.017414544 0.019224364 0.016561268 0.059971668 -0.004562624 0.095908925 -0.05750699 0.020509128
-0.003315582 -0.043109316 -0.058202542 -0.056861393 -0.043743957 -0.004465743 0.02292474 -0.09271869
-0.09865204 0.04142734 0.103389956 -0.014198838 -0.08974469 -0.082695276 0.031995695 -0.0036109528
-0.009293625 -0.120402664 -0.039055355 0.044964053 -0.032305192 -0.04615844 0.122900195 0.121950984
-0.053427216 -0.043068886 0.12642463 0.113881096 -0.05740373 0.07006629 -0.11927852 -0.032243934
0.033725586 -0.09850329 -0.053049564 -0.020702088 -0.0929338 -0.022175599 -0.0062685767 0.068402015
-0.10164003 -0.011672039 0.029953182 -0.03926065 -0.0027539749 -0.025771469 -0.07403167 -0.057893366
00000000: 0001 9ebd fa91 1bbd 24be 563d 1abc 0a3d
00000010: 6297 a8bc d04b 83bc c6c3 653d 749b 433c
00000020: 30d4 eebc 10de 543d 64a2 323c 33a5 4e3d
00000030: 05d3 cdbd 8ab9 af3c 0a22 2ebd 5830 0bbd
00000040: 9321 d33d b640 cd3d 6c89 adbc 1824 e8bd
00000050: 967d 8dbc 9116 783d 940c 673d a179 a63d
00000060: 0014 dd3a 28fe 973d f92c 003d b8f8 a7bd
00000070: 3e68 c4bd 874a 1dbd c02a 9abd d20b 133d
00000080: d4f7 e13d 3ec2 803c 5074 a7bd f0e7 33bd
00000090: f71a 353d 9af9 ac3d c0e3 ddbc 49df 793d
000000a0: 3493 aa3d 1224 9bbd 875e 7d3d 9f4d 3c3d
000000b0: 143e abbd a090 28bd 9c40 473d d15a a13a
000000c0: 548d 8cbd ee30 b9bc 4be1 123e ced1 343d
000000d0: 5ddf e4bc 1464 4f3d 2323 883d ba57 803d
000000e0: 545b 16bb cd8b 44bc 5af2 9fbd 2059 adba
000000f0: e9a9 b2bd cc63 a13c e42b 3a3e a2e7 8dbc
00000100: f2cc df3c 80df df3c defa 3b3d 0b20 a23d
00000110: deae 2cbd 4fcd c6bc f73b c9bc cdce 823d
00000120: d72b bf3d 2085 10bd 049e 42ba 362d 4fbc
00000130: 70ba 7e3d ac55 ee3b 01ec 383c d070 2138
00000140: 3d73 0b3c 22d1 9c3d c4a5 08bd 1853 22bb
00000150: 3d90 453d 38cc 703a 45fa e0bd a449 6bbc
00000160: 22cb 5f3d c584 7dbd ea3a 233d 2746 d1bd
00000170: 110d 13be 9cba 75bd ebee 743c 195b c53c
00000180: f1a5 733d db5b 33bd 217c 8b3d 5614 eabc
00000190: e6cf 94bd caf1 fbbc 7f75 6fbc 7c2e 4ebc
000001a0: d56b 5abd fd77 20bd 5ef1 943c 5903 913d
000001b0: 8cf4 8e3d 36f5 db3d e18d 4bbd 5726 69bd
000001c0: 8fa3 e43d 2710 a4bd d957 873d ef3e fe3c
000001d0: 3001 1bbc 5ed8 cdbd 0c31 793d d4c3 023d
000001e0: 87e0 09bc eab4 90bc 9e14 85bd e0f3 2c3d
000001f0: 39ae d53d 74dd be3b 3819 823d a017 253c
00000200: dd0d 1ebd c5c8 fabd 0011 41bc 3191 8abd
00000210: b347 86bd ebe5 a03d 1697 a6bc c60a 87bc
00000220: 2ef8 d6bc cea6 eebd 50e8 af3c 6930 223d
00000230: 50a5 3d3b 93a0 13bd bb04 98bd fb56 7dbd
00000240: 287e 143c 0ae1 363c ae18 cb3c f805 63ba
00000250: a4b9 28bd 06e8 3cbd 7cfe 02bd 906a 8b3d
00000260: 6df9 0b3c 83f1 aa3d 40b3 44bd 90f9 6ebd
00000270: 980e d53a 0040 abb9 a279 27bd 04c7 06be
00000280: e068 1abd f045 bebc 70f8 743d 4876 41bd
00000290: 0de3 a13d 2c92 6c3d 3a93 c1b9 53a0 be3d
000002a0: 4ac8 cabb 74d8 ccbb fadd a7bc 844b 3dbd
000002b0: 92b8 03be a1c4 0dbd bb16 2d3c 6863 90bd
000002c0: 4295 56bd e446 b5bd 85fa 5fbd a9db 833b
000002d0: 97d9 9bbd d287 c2bd b76c 47bd 87b2 f8bd
000002e0: d993 f43d 9398 45be 9c9f 5a3c 52ad aabd
000002f0: dcf3 4c3d 96a5 d33c 0de3 cb3d a9b0 10bd
00000300: 2153 cabd 7a0a 903c 9a9b 7f3d 80d4 fd3c
00000310: 0574 edbc 4030 debc 7092 f5bd fc9c 09bd
00000320: f2a8 8ebc 6a7c 9d3c 7fab 873c daa4 753d
00000330: 1082 95bb e66b c43d 738c 6bbd c202 a83c
00000340: 3c4a 59bb 6593 30bd ca65 6ebd 7ee7 68bd
00000350: dd2c 33bd 5e55 92bb aacc bb3c 4ce3 bdbd
00000360: 150a cabd b7af 293d 1dbe d33d 3ea2 68bc
00000370: 10cc b7bd 245c a9bd eb0d 033d bca5 6cbb
00000380: 4a44 18bc ac95 f6bd 82f8 1fbd 3a2c 383d
00000390: 7352 04bd a210 3dbd 19b3 fb3d 70c1 f93d
000003a0: 7fd6 5abd 0069 30bd 7575 013e 7e3a e93d
000003b0: 2c20 6bbd ea7e 8f3d 4c48 f4bd 3712 04bd
000003c0: d723 0a3d 18bc c9bd 804a 59bd 6d97 a9bc
000003d0: 1354 bebd 9aa9 b5bc a268 cdbb 5b16 8c3d
000003e0: a628 d0bd 143c 3fbc 6060 f53c c6cf 20bd
000003f0: 087c 34bb b01e d3bc eb9d 97bd 9821 6dbd

while/MatMul f4 [256, 21]
0.11170017 0.032911222 -0.082081795 0.048115697 0.466104 -0.08087522 -0.1194739 0.010216008
-0.12009287 -0.17497568 0.1814235 -0.030154893 0.1733534 -0.06186827 -0.10976574 -0.073834136
0.013788945 -0.15892063 0.1493794 -0.010178374 0.041694626 -0.0033830055 -0.13349465 -0.23441616
-0.09882466 0.232049 0.25955248 0.5650694 0.14646263 0.47071272 -0.0520294 -0.36612737
-0.038380746 -0.0221574 -0.030664498 0.00464319 0.076159194 0.03573345 -0.0050087213 0.11315612
0.041724153 0.13227795 -0.08130679 -0.09051265 0.0154570965 -0.08044998 0.54542136 0.15012296
-0.22452563 0.036750924 -0.188312 -0.0043196953 -0.04495664 -0.16097823 0.07017613 -0.067069925
-0.044815008 -0.083871536 -0.038853973 0.073598795 -0.021393511 -0.075524114 -0.049071316 -0.24411839
-0.21342129 -0.16117193 -0.20720464 -0.4604588 -0.057976376 0.21320066 -0.042887352 0.21333075
-0.13303548 -0.66643107 -0.07624411 -0.15739207 -0.11068252 0.050277986 -0.081412435 -0.08816771
-0.20454657 0.102158256 -0.08450609 0.0132433865 -0.005467463 -0.17799194 -0.023954488 -0.1843285
0.5773017 0.056202058 0.14506271 0.12177283 0.3470775 -0.12238741 -0.32341063 0.14767815
-0.09485295 0.030670151 -0.013968052 -0.054883704 0.103344314 -0.16932832 0.18582393 -0.032982413
0.001740311 -0.1263569 -0.22156219 -0.06799508 -0.11413802 -0.21558046 -0.1360575 -0.24637489
-0.35082075 -0.15202713 -0.27547246 -0.16151461 -0.21803832 -0.13007028 -0.082019836 -0.27812845
-0.17240089 -0.16372406 -0.1146226 0.09500041 -0.31382293 0.17560916 -0.09388523 0.09102279
-0.14915358 0.057580683 -0.41663274 -0.17536436 -0.12019952 -0.34570158 -0.11344122 -0.19624776
-0.101263486 -0.3032366 -0.18930008 0.05882055 -0.15521847 -0.21735854 -0.28822544 0.040900797
0.10871767 0.0037955374 -0.12291204 -0.122849636 0.072977945 -0.21393082 0.13562606 -0.32602814
0.1262528 0.22339484 -0.12467849 -0.031059569 -0.08573412 -0.7293001 -0.12909597 -0.30315778
-0.026055243 -0.027358586 -0.15425426 -0.011763546 0.082252264 0.027182572 -0.18363954 -0.0036752042
-0.08838275 0.028535957 0.021356126 0.095388666 0.4461094 -0.20213336 -0.16203864 -0.23884092
-0.103831485 0.0039636847 0.4891299 -0.27088097 0.13297611 -0.11669981 -0.11403976 0.08191046
-0.17294697 -0.052010816 -0.08990355 0.18935612 -0.05502405 0.59349483 0.32842052 0.9100531
0.43371886 0.19653778 0.0009616854 -0.031523168 0.15649973 -0.090626806 0.23842052 0.24977577
0.048197724 0.0093855625 0.1384868 0.15788607 0.06784852 0.10948624 0.3390947 -0.2728686
0.63681024 -0.56070685 -0.19972989 0.12262877 -0.16475803 0.14224626 -0.33371454 -0.20522045
-0.19288725 -0.115151696 -0.10767301 -0.21113852 -0.23856887 -0.12924828 -0.1715547 -0.19768599
0.034546595 -0.19196893 -0.26414523 0.1498292 -0.041412238 -0.044433158 0.07359595 -0.012882324
-0.08306942 0.03656335 0.16382371 0.4411425 -0.06883999 -0.41348955 -0.1529254 -0.11723183
-0.034958534 0.32734424 -0.18382525 -0.03664157 -0.16082333 0.12876135 0.0059107756 -0.18614507
-0.078107126 -0.0750508 0.13104601 0.10313019 -0.18108737 -0.441914 -0.5120904 -0.39865714
00000000: 0fc3 e43d ebcd 063d 801a a8bd f714 453d
00000010: 2fa5 ee3e e8a1 a5bd bbae f4bd 0b61 273c
00000020: 40f3 f5bd d32c 33be 15c7 393e 6507 f7bc
00000030: 8e83 313e 9569 7dbd dccc e0bd 5a36 97bd
00000040: 07eb 613c 17bc 22be eaf6 183e 32c3 26bc
00000050: fcc7 2a3d 6ab5 5dbb d2b2 08be ca0a 70be
00000060: 9564 cabd 419e 6d3e 10e4 843e 63a8 103f
00000070: 4dfa 153e 4201 f13e c81c 55bd 0c75 bbbe
00000080: 2135 1dbd 7083 b5bc 1d34 fbbc e725 983b
00000090: 5af9 9b3d 3d5d 123d 3320 a4bb 65be e73d
000000a0: f2e6 2a3d df73 073e 2d84 a6bd b25e b9bd
000000b0: c33f 7d3c f6c2 a4bd bca0 0b3f d5b9 193e
000000c0: 0cea 65be 2388 163d dcd4 40be 3b8c 8dbb
000000d0: 7424 38bd 7ad7 24be 81b8 8f3d f55b 89bd
000000e0: f18f 37bd d7c4 abbd 5825 1fbd f7ba 963d
000000f0: 7241 afbc 63ac 9abd 01ff 48bd 2cfa 79be
00000100: 1c8b 5abe 410a 25be 742d 54be 41c1 ebbe
00000110: a378 6dbd 4651 5a3e a6aa 2fbd 6073 5a3e
00000120: 743a 08be 3a9b 2abf df25 9cbd 632b 21be
00000130: 84ad e2bd 4af0 4d3d 90bb a6bd 4691 b4bd
00000140: a874 51be 5938 d13d 8711 adbd cafa 583c
00000150: 6728 b3bb 8543 36be 343c c4bc 9cc0 3cbe
00000160: 0bca 133f 2134 663d 528b 143e 0964 f93d
00000170: 24b4 b13e 40a6 fabd 1496 a5be f138 173e
00000180: 4342 c2bd f83f fb3c 42da 64bc bccd 60bd
00000190: 2fa6 d33d 6764 2dbe a148 3e3e 9118 07bd
000001a0: 261b e43a b463 01be 33e1 62be 0141 8bbd
000001b0: 32c1 e9bd 20c1 5cbe a852 0bbe b349 7cbe
000001c0: c79e b3be 00ad 1bbe ba0a 8dbe 1664 25be
000001d0: 7045 5fbe 2531 05be 04fa a7bd da66 8ebe
000001e0: dc89 30be 48a7 27be 41bf eabd 938f c23d
000001f0: 66ad a0be e3d2 333e e646 c0bd 286a ba3d
00000200: b7bb 18be b9d9 6b3d e350 d5be b792 33be
00000210: 2a2b f6bd ccff b0be df53 e8bd 2cf5 48be
00000220: 3b63 cfbd d441 9bbe e1d7 41be d1ed 703d
00000230: 97f1 1ebe 3d93 5ebe 4992 93be 9887 273d
00000240: 5fa7 de3d 8dbe 783b 4fb9 fbbd 9798 fbbd
00000250: 7675 953d ae10 5bbe 8fe1 0a3e 29ed a6be
00000260: 6a48 013e 9ec1 643e 7057 ffbd a370 febc
00000270: 5f95 afbd 69b3 3abf bc31 04be 7f37 9bbe
00000280: ce71 d5bc 1d1f e0bc d4f4 1dbe e3bb 40bc
00000290: e073 a83d fcad de3c 010c 3cbe b2db 70bb
000002a0: 0402 b5bd 3dc4 e93c 0bf3 ae3c 225b c33d
000002b0: 7468 e43e 0cfc 4ebe 75ed 25be b792 74be
000002c0: 9aa5 d4bd cce1 813b 3c6f fa3e e9b0 8abe
000002d0: e42a 083e 4f00 efbd ad8d e9bd acc0 a73d
000002e0: 0319 31be 4b09 55bd 5a1f b8bd 92e6 413e
000002f0: e660 61bd 47ef 173f bc26 a83e 3df9 683f
00000300: 6610 de3e 3341 493e 9d19 7c3a 701e 01bd
00000310: 7741 203e 8c9a b9bd 8224 743e 38c5 7f3e
00000320: fa6a 453d e7c5 193c 7ccf 0d3e e3ac 213e
00000330: 2af4 8a3d 523a e03d d29d ad3e 6fb5 8bbe
00000340: ff05 233f 7c8a 0fbf fe85 4cbe cb24 fb3d
00000350: 54b6 28be 01a9 113e a2dc aabe 4f25 52be
00000360: 3c84 45be a7d4 ebbd ab83 dcbd b234 58be
00000370: 664b 74be a959 04be 09ac 2fbe 326e 4abe
00000380: bb80 0d3d 8193 44be 0b3e 87be d36c 193e
00000390: e19f 29bd 8bff 35bd 79b9 963d 6210 53bc
000003a0: 4d20 aabd 74c3 153d 67c1 273e 6edd e13e
000003b0: fbfb 8cbd e7b4 d3be 7a98 1cbe 3e17 f0bd
000003c0: ae30 0fbd aa99 a73e b03c 3cbe 7915 16bd
000003d0: dfae 24be 04da 033e 2eaf c13b d09c 3ebe
000003e0: a1f6 9fbd 3cb4 99bd ed30 063e ec35 d33d
000003f0: f86e 39be 8d42 e2be 5b18 03bf ca1c ccbe

lstm_1/lstm_cell_5/bias1 f4 [128]
0.02819477 0.19465233 0.2835607 0.16507316 0.19852862 0.13516891 0.14025001 0.15143791
0.026142566 0.2960379 0.1624208 0.11662983 0.23074178 0.23356767 0.11313741 0.2883403
0.3038976 0.25361437 0.118037336 0.2790155 0.057210047 0.20889987 0.15826781 0.14063042
0.3536585 0.19832617 0.1694505 0.34126934 0.22902186 0.21563402 0.1535631 0.2127345
1.0 1.0 1.0 1.0 1.0 1.0 1.0 1.0
1.0 1.0 1.0 1.0 1.0 1.0 1.0 1.0
1.0 1.0 1.0 1.0 1.0 1.0 1.0 1.0
1.0 1.0 1.0 1.0 1.0 1.0 1.0 1.0
0.063275054 -0.008170443 0.12370298 -0.034068733 -0.07323757 -0.07711445 0.089147635 -0.07693653
-0.10366269 -0.08498988 -0.03983544 0.005105777 0.042110134 0.06586908 0.02036013 0.13297063
-0.124959886 0.2516137 -0.018895697 -0.07613678 0.0380383 0.05229907 0.009293307 0.022826092
-0.15466659 0.048049636 0.03591596 -0.1894555 0.17900923 -0.08114323 -0.19677308 0.032856625
0.07082156 0.21646415 0.29967833 0.1714648 0.23740178 0.1514857 0.24366093 0.1809146
0.061530832 0.33939067 0.19093217 0.1614948 0.24215025 0.24626303 0.12461649 0.30038705
0.32453933 0.33046448 0.15549135 0.3227346 0.07385369 0.253531 0.18210785 0.19328028
0.3834741 0.24547556 0.20558965 0.3747893 0.27778998 0.27423558 0.16306904 0.24263366
00000000: b8f8 e63c f152 473e de2e 913e f008 293e
00000010: 164b 4b3e b869 0a3e b39d 0f3e 8a12 1b3e
00000020: ef28 d63c 4892 973e a351 263e 9fdb ee3d
00000030: 9347 6c3e 5d2c 6f3e 96b4 e73d 57a1 933e
00000040: 7798 9b3e bed9 813e 8fbd f13d 1fdb 8e3e
00000050: 1555 6a3d d9e9 553e f510 223e 6c01 103e
00000060: ba12 b53e 0416 4b3e 6f84 2d3e dbba ae3e
00000070: b584 6a3e 2acf 5c3e a53f 1d3e 13d7 593e
00000080: 0000 803f 0000 803f 0000 803f 0000 803f
00000090: 0000 803f 0000 803f 0000 803f 0000 803f
000000a0: 0000 803f 0000 803f 0000 803f 0000 803f
000000b0: 0000 803f 0000 803f 0000 803f 0000 803f
000000c0: 0000 803f 0000 803f 0000 803f 0000 803f
000000d0: 0000 803f 0000 803f 0000 803f 0000 803f
000000e0: 0000 803f 0000 803f 0000 803f 0000 803f
000000f0: 0000 803f 0000 803f 0000 803f 0000 803f
00000100: 5a96 813d 52dd 05bc fd57 fd3d a88b 0bbd
00000110: 94fd 95bd 2eee 9dbd 0993 b63d e690 9dbd
00000120: 1b4d d4bd 2d0f aebd 7d2a 23bd 5d4e a73b
00000130: ad7b 2c3d 5ee6 863d 4aca a63c 7429 083e
00000140: f8ea ffbd 83d3 803e 26cb 9abc 9aed 9bbd
00000150: 0cce 1b3d 8d37 563d f442 183c c9fd ba3c
00000160: eb60 1ebe b2cf 443d 9d1c 133d 9f00 42be
00000170: 324e 373e 6c2e a6bd e27e 49be ab94 063d
00000180: e50a 913d c7a8 5d3e 706f 993e 7894 2f3e
00000190: 7419 733e 111f 1b3e 4082 793e ad41 393e
000001a0: c107 7c3d 9dc4 ad3e b983 433e e55e 253e
000001b0: 3cf6 773e 602c 7c3e ee36 ff3d 55cc 993e
000001c0: 052a a63e a432 a93e 2039 1f3e 783d a53e
000001d0: 9a40 973d d1ce 813e 7b7a 3a3e 44eb 453e
000001e0: b856 c43e f25d 7b3e 1886 523e 62e4 bf3e
000001f0: 7d3a 8e3e 9b68 8c3e 92fb 263e f574 783e
