lstm_0801.tflite (tflite, 311212 bytes, 18 tensors)

time_distributed_5/bias f4 [21]
0	0xbf7ddd3e	-0.99165714
1	0xbf7e66dd	-0.99375707
2	0xbf7d8570	-0.99031734
3	0xbf7edc32	-0.9955474
4	0xbeae9b56	-0.34102887
5	0xbf4975ee	-0.7869557
6	0xbf036088	-0.5131917
7	0xbf08ba24	-0.5340903
8	0xbf22b6f0	-0.6356039
9	0xbf6bd309	-0.9211889
10	0xbf7c14ad	-0.9846905
11	0xbf7ada24	-0.97989106
12	0xbf7d878e	-0.99034965
13	0xbf6c29cd	-0.9225128
14	0xbf7b630d	-0.98198014
15	0xbf7ab316	-0.97929513
16	0xbf7c4a6a	-0.98551047
17	0xbf7f0402	-0.9961549
18	0x3f7c7fb9	0.9863239
19	0xbf7f9c6e	-0.9984807
20	0x3f7d7c41	0.9901772

lstm_23/lstm_cell_3/bias f4 [256]
0	0xbdade976	-0.08491795
1	0xbd86abaa	-0.06575711
2	0xbde56aa8	-0.11201984
3	0x3d916dcc	0.0710102
4	0xbe179a11	-0.14804865
5	0xbd56162c	-0.05226724
6	0xbd5527b0	-0.052039802
7	0xbe31d9e3	-0.17368273
8	0xbdb92838	-0.09040874
9	0xbe1611a4	-0.14655167
10	0xbd8ec875	-0.06971828
11	0xbe1ffd02	-0.15623859
12	0xbdd6e6a3	-0.10493209
13	0xbe0df1df	-0.13861798
14	0x3edd81ad	0.43262997
15	0x3f68b16b	0.9089572
16	0xbe6c9f77	-0.23107706
17	0xbe2daa53	-0.16959505
18	0xbdafc218	-0.08581942
19	0xbe0c1f81	-0.13683893
20	0xbe18fcaa	-0.14940134
21	0xbd7a767a	-0.061148144
22	0xbe575514	-0.21028548
23	0x3de322b3	0.11090603
24	0xbda375b9	-0.07981438
25	0x3e4e5d32	0.20152739
26	0x3eb53043	0.35388383
27	0x3e847eef	0.25878093
28	0xbdcf8483	-0.101326965
29	0xbd3bc815	-0.04584511
30	0x3eba3e81	0.36375812
31	0xbe1a260e	-0.15053579
32	0xbe6922d4	-0.22767192
33	0xbdda94d4	-0.10672918
34	0xbe78ef62	-0.24310067
35	0x3e874b85	0.26424804
36	0x3d78011d	0.060547937
37	0xbd784f42	-0.06062246
38	0xbdb0be40	-0.08630037
39	0xbc2b13d7	-0.010441742
40	0xbd871677	-0.06596082
41	0xbdcffa1a	-0.10155125
42	0xbdcfa6ee	-0.10139261
43	0xbdc0368c	-0.09385404
44	0xbda3edba	-0.08004327
45	0x3d3b2200	0.04568672
46	0xbe805321	-0.25063422
47	0xbd0415ca	-0.032247342
48	0xbde1835a	-0.110113814
49	0xbe40d691	-0.1883185
50	0xbe1e5935	-0.15463717
51	0xbe8b57ce	-0.27215427
52	0xbd9ed6aa	-0.07755788
53	0xbe111920	-0.1416974
54	0x3ebf18b2	0.3732353
55	0x3eef85bf	0.46781728
56	0xbe07c9b0	-0.13260531
57	0xbe1fa8bf	-0.15591715
58	0xbcedac4a	-0.029012818
59	0xbdbbf5ad	-0.09177718
60	0xbd9589f4	-0.07301703
61	0xbd9ed784	-0.0775595
62	0xbdc81922	-0.09770419
63	0xbe0e9052	-0.13922241
64	0x3f800000	1.0
65	0x3f800000	1.0
66	0x3f800000	1.0
67	0x3f800000	1.0
68	0x3f800000	1.0
69	0x3f800000	1.0
70	0x3f800000	1.0
71	0x3f800000	1.0
72	0x3f800000	1.0
73	0x3f800000	1.0
74	0x3f800000	1.0
75	0x3f800000	1.0
76	0x3f800000	1.0
77	0x3f800000	1.0
78	0x3f800000	1.0
79	0x3f800000	1.0
80	0x3f800000	1.0
81	0x3f800000	1.0
82	0x3f800000	1.0
83	0x3f800000	1.0
84	0x3f800000	1.0
85	0x3f800000	1.0
86	0x3f800000	1.0
87	0x3f800000	1.0
88	0x3f800000	1.0
89	0x3f800000	1.0
90	0x3f800000	1.0
91	0x3f800000	1.0
92	0x3f800000	1.0
93	0x3f800000	1.0
94	0x3f800000	1.0
95	0x3f800000	1.0
96	0x3f800000	1.0
97	0x3f800000	1.0
98	0x3f800000	1.0
99	0x3f800000	1.0
100	0x3f800000	1.0
101	0x3f800000	1.0
102	0x3f800000	1.0
103	0x3f800000	1.0
104	0x3f800000	1.0
105	0x3f800000	1.0
106	0x3f800000	1.0
107	0x3f800000	1.0
108	0x3f800000	1.0
109	0x3f800000	1.0
110	0x3f800000	1.0
111	0x3f800000	1.0
112	0x3f800000	1.0
113	0x3f800000	1.0
114	0x3f800000	1.0
115	0x3f800000	1.0
116	0x3f800000	1.0
117	0x3f800000	1.0
118	0x3f800000	1.0
119	0x3f800000	1.0
120	0x3f800000	1.0
121	0x3f800000	1.0
122	0x3f800000	1.0
123	0x3f800000	1.0
124	0x3f800000	1.0
125	0x3f800000	1.0
126	0x3f800000	1.0
127	0x3f800000	1.0
128	0xbdc2e927	-0.095171265
129	0xbe162fea	-0.14666715
130	0xbce2bfcf	-0.027679352
131	0xbe33769d	-0.17525716
132	0xbcb5dbdc	-0.022199564
133	0xbc891286	-0.016732465
134	0xbd4784e1	-0.048710708
135	0xbe341ac8	-0.17588341
136	0xbe4834a5	-0.19551332
137	0xbce0ee0a	-0.027457256
138	0xbdb94696	-0.09046666
139	0x3d83703f	0.064178936
140	0xbc01545d	-0.007893649
141	0xbe29f991	-0.16599108
142	0x3f14b503	0.580887
143	0x3f252627	0.6451134
144	0x3c0a9103	0.008457425
145	0x3c269f9c	0.01016989
146	0xbda4906d	-0.080353595
147	0xbbf19506	-0.0073725013
148	0x3c053146	0.0081294235
149	0x3c632ed1	0.013866142
150	0x3d0c5daf	0.03426903
151	0xbda77d41	-0.08178187
152	0xbc26fb72	-0.010191785
153	0xbdce4973	-0.10072603
154	0x3ca7dd6c	0.020491324
155	0x3d77dd45	0.060513753
156	0xbdd4ee2a	-0.10396989
157	0xbdf4e020	-0.11956811
158	0x3f0e1e73	0.5551521
159	0x3c6579fb	0.014006133
160	0xbd2dbb08	-0.042414695
161	0x3de4fa08	0.11180502
162	0xbb1e875f	-0.0024189574
163	0x3dbc78a2	0.092026964
164	0xbd31cc00	-0.04340744
165	0xbde16246	-0.11005072
166	0xbe08cc63	-0.13359217
167	0x3df8d4d5	0.121499695
168	0x3d9ab881	0.075547226
169	0x3d091b0a	0.033473052
170	0xbc43ad82	-0.011943223
171	0xbda23f75	-0.0792226
172	0xbbdfcfd8	-0.006830197
173	0x3d92a247	0.07159858
174	0xbc69cb3c	-0.014269646
175	0x3dfbf074	0.12301722
176	0xbb3abd87	-0.0028494315
177	0x3b71c8b8	0.003689332
178	0xbcebe3ee	-0.028795209
179	0xbb431086	-0.0029764487
180	0x3e083093	0.1329978
181	0xbbff365e	-0.0077884635
182	0x3e2b516d	0.1673028
183	0x3f1aaa5d	0.60416204
184	0x3c704950	0.014665917
185	0x3c5b7895	0.013395448
186	0xbd78b8fb	-0.060723286
187	0x3cb19566	0.021677684
188	0xbce671d1	-0.028130444
189	0x3c8a0acc	0.016850851
190	0xbe2ba2cd	-0.16761322
191	0x3ca02d81	0.019552948
192	0xbdaf2617	-0.08552187
193	0xbd86fef6	-0.06591599
194	0xbdf1a441	-0.11798907
195	0x3d96cd41	0.07363368
196	0xbe2449e8	-0.16043818
197	0xbd5f8ecc	-0.05457954
198	0xbd0a3b30	-0.03374785
199	0xbe35ae57	-0.17742287
200	0xbdb4dcbd	-0.08831165
201	0xbe14f987	-0.14548312
202	0xbd901e5b	-0.0703704
203	0xbe037737	-0.12838446
204	0xbddeecce	-0.10885011
205	0x3c08cc4b	0.0083494885
206	0x3ee83069	0.45349434
207	0x3f70ab9c	0.94011855
208	0xbe63f7c4	-0.22262484
209	0xbe3020d1	-0.17200018
210	0xbdbd4788	-0.09242159
211	0xbe14bf7e	-0.14526173
212	0xbe3e5c94	-0.18590003
213	0xbd97d288	-0.074132025
214	0xbe4ce252	-0.2000821
215	0x3e3c2ff3	0.18377666
216	0xbdd744aa	-0.105111435
217	0x3e87788e	0.26459163
218	0x3ea36340	0.3191166
219	0x3e72ed34	0.23723298
220	0xbdd9756b	-0.10618099
221	0xbd3524fd	-0.044224728
222	0x3ec3eafa	0.3826521
223	0xbe3003c4	-0.17188936
224	0xbe6fdea3	-0.23424773
225	0xbde27e68	-0.11059266
226	0xbe7635b1	-0.24043919
227	0x3e29e989	0.16592993
228	0x3d6df57c	0.05809544
229	0xbd772046	-0.060333513
230	0xbdb108c9	-0.08644254
231	0xbbb0dcf8	-0.0053974353
232	0xbdabd518	-0.08390254
233	0xbdb364e1	-0.087594755
234	0xbe06154f	-0.13094066
235	0xbdbdd9b6	-0.09270041
236	0xbdcb5b12	-0.0992948
237	0x3cb78b0f	0.022405175
238	0xbe6ab0f6	-0.22919068
239	0x3c6e1d9a	0.014533425
240	0xbdfc1b98	-0.123099506
241	0xbe477d67	-0.19481431
242	0xbe270cea	-0.1631352
243	0xbe36a50d	-0.178364
244	0xbda5d3bc	-0.08097026
245	0xbe210c20	-0.15727282
246	0x3eae9253	0.34096012
247	0x3ee9dee9	0.4567788
248	0xbe2b5d87	-0.16734897
249	0xbe24048b	-0.16017358
250	0xbe6726b9	-0.22573365
251	0xbd9dd5e2	-0.077068105
252	0xbd8a9193	-0.06766047
253	0xbd1304b0	-0.035893142
254	0xbdcd7b64	-0.100333005
255	0xbe7dd9d3	-0.24790125

lstm_22/lstm_cell_2/bias f4 [128]
0	0x3e9a6073	0.3015171
1	0x3deea603	0.11652758
2	0x3dd83c5b	0.10558387
3	0x3e5751e1	0.21027328
4	0x3e21b2b5	0.15790828
5	0x3e66483e	0.22488496
6	0x3e46133b	0.19343273
7	0x3e6d18fe	0.23154065
8	0x3ea1ee3c	0.3162707
9	0x3eb13e1e	0.34617704
10	0x3e40b9b7	0.18820845
11	0x3ec55711	0.3854299
12	0x3e485df5	0.19567092
13	0x3e82fe55	0.25584665
14	0x3e2a38d3	0.16623239
15	0x3ec621f9	0.38697794
16	0x3ef17274	0.47157633
17	0x3ed0fdd4	0.40818655
18	0x3f9d0340	1.2266617
19	0x3e7576e2	0.23971131
20	0x3ec1968c	0.3781017
21	0x3ecd4366	0.40090483
22	0x3e01afde	0.12664744
23	0x3e282812	0.16421536
24	0x3e96c6d5	0.29448572
25	0xbc885a7e	-0.016644713
26	0x3d33078b	0.043708365
27	0x3e3833c4	0.17988497
28	0x3def5165	0.11685447
29	0x3f260448	0.6485028
30	0x3e31c343	0.17359643
31	0x3edd08ba	0.4317072
32	0x3f800000	1.0
33	0x3f800000	1.0
34	0x3f800000	1.0
35	0x3f800000	1.0
36	0x3f800000	1.0
37	0x3f800000	1.0
38	0x3f800000	1.0
39	0x3f800000	1.0
40	0x3f800000	1.0
41	0x3f800000	1.0
42	0x3f800000	1.0
43	0x3f800000	1.0
44	0x3f800000	1.0
45	0x3f800000	1.0
46	0x3f800000	1.0
47	0x3f800000	1.0
48	0x3f800000	1.0
49	0x3f800000	1.0
50	0x3f800000	1.0
51	0x3f800000	1.0
52	0x3f800000	1.0
53	0x3f800000	1.0
54	0x3f800000	1.0
55	0x3f800000	1.0
56	0x3f800000	1.0
57	0x3f800000	1.0
58	0x3f800000	1.0
59	0x3f800000	1.0
60	0x3f800000	1.0
61	0x3f800000	1.0
62	0x3f800000	1.0
63	0x3f800000	1.0
64	0xbd65d3af	-0.05611008
65	0xbd07e2a8	-0.03317514
66	0xbc987c38	-0.01861392
67	0xbc49940e	-0.012303365
68	0xbd261abe	-0.040552847
69	0xbea7b887	-0.3275797
70	0xbbe809a2	-0.0070812264
71	0x3e2037e5	0.15646322
72	0xbcac83ef	-0.021059005
73	0x3e671e03	0.22570042
74	0xbca2c2a5	-0.019868204
75	0x3c8c1c4d	0.017103339
76	0xbdbf429e	-0.09338878
77	0xbd107266	-0.03526535
78	0xbda4ceca	-0.080472544
79	0x3dc4caeb	0.09609016
80	0xbd3a2206	-0.045442604
81	0x3e55a980	0.2086544
82	0xbbb82bab	-0.00562044
83	0x3dec0053	0.11523499
84	0xbcc69ffd	-0.02424621
85	0xbdbfd999	-0.09367675
86	0xbd901d21	-0.07036806
87	0xbdaa77e0	-0.083236456
88	0xbcfdcea7	-0.030982329
89	0xbc92896f	-0.0178878
90	0xbd81bdb3	-0.063350104
91	0x3e77c7fe	0.24197385
92	0xbd1fe44e	-0.039036088
93	0xbceb534a	-0.028726239
94	0x3e8d7c46	0.27633876
95	0xbc36c156	-0.011154493
96	0x3e98be93	0.29832897
97	0x3dc01024	0.093780786
98	0x3de2cff1	0.11074818
99	0x3e6e7375	0.23286231
100	0x3e2ff429	0.17182983
101	0x3e83b3c6	0.25723094
102	0x3ea9893b	0.3311251
103	0x3e642926	0.22281322
104	0x3edd7298	0.4325149
105	0x3ed617b3	0.41814956
106	0x3e301057	0.17193733
107	0x3e28ecbe	0.1649656
108	0x3e62e242	0.22156623
109	0x3e3fb454	0.18721133
110	0x3e285e4c	0.16442221
111	0x3eaf7c04	0.34274304
112	0x3ee08f55	0.43859354
113	0x3e7cc281	0.24683572
114	0x3e9cf206	0.306534
115	0x3ee3f435	0.44522253
116	0x3f264596	0.6494993
117	0x3defa5ee	0.117015705
118	0x3e373ed6	0.17895064
119	0x3e4816cd	0.19539948
120	0x3ebcaea7	0.36852
121	0x3d7bbda5	0.061460156
122	0x3dc7a230	0.09747732
123	0x3e902744	0.28154957
124	0x3e2c8b0c	0.16849917
125	0x3f27810a	0.65431273
126	0x3e6507a1	0.22366191
127	0x3ed786e9	0.42095116

lstm_21/lstm_cell_1/bias f4 [128]
0	0x3e98f157	0.29871628
1	0x3ea2b9b9	0.3178232
2	0x3ea01cd2	0.31271988
3	0x3eac0739	0.3359926
4	0x3e0fd9de	0.14047953
5	0x3eaf279a	0.342099
6	0x3e91cef5	0.28478208
7	0x3e87a727	0.26494715
8	0x3ecb3c46	0.39694422
9	0x3e9b141e	0.30288786
10	0x3f016c3c	0.5055578
11	0x3e5e911a	0.2173504
12	0x3e919bd0	0.28439188
13	0x3ef5f93b	0.4804171
14	0x3ea28206	0.31739825
15	0x3dda54b9	0.10660691
16	0x3ef578e1	0.47943786
17	0x3dfb8ea9	0.1228307
18	0x3f088ab3	0.5333664
19	0x3efe5b22	0.49678904
20	0x3e4b5b5d	0.19859071
21	0x3edb3e01	0.42820743
22	0x3ede59a6	0.4342777
23	0x3d3f79cf	0.046747025
24	0x3e501212	0.20319393
25	0x3e98f1c2	0.29871947
26	0x3f33df39	0.70262486
27	0x3ebfe5a1	0.3747988
28	0x3ee01650	0.43767023
29	0x3e8592dd	0.2608861
30	0x3edbe3ea	0.42947322
31	0x3e9c7291	0.30556157
32	0x3f800000	1.0
33	0x3f800000	1.0
34	0x3f800000	1.0
35	0x3f800000	1.0
36	0x3f800000	1.0
37	0x3f800000	1.0
38	0x3f800000	1.0
39	0x3f800000	1.0
40	0x3f800000	1.0
41	0x3f800000	1.0
42	0x3f800000	1.0
43	0x3f800000	1.0
44	0x3f800000	1.0
45	0x3f800000	1.0
46	0x3f800000	1.0
47	0x3f800000	1.0
48	0x3f800000	1.0
49	0x3f800000	1.0
50	0x3f800000	1.0
51	0x3f800000	1.0
52	0x3f800000	1.0
53	0x3f800000	1.0
54	0x3f800000	1.0
55	0x3f800000	1.0
56	0x3f800000	1.0
57	0x3f800000	1.0
58	0x3f800000	1.0
59	0x3f800000	1.0
60	0x3f800000	1.0
61	0x3f800000	1.0
62	0x3f800000	1.0
63	0x3f800000	1.0
64	0x3ec760dd	0.38941088
65	0x3e3b25a8	0.18276083
66	0x3ec27d19	0.37986067
67	0x3e130344	0.14356714
68	0x3e066e6c	0.1312806
69	0x3dc3dcb0	0.09563577
70	0xbce49500	-0.02790308
71	0x3e301429	0.1719519
72	0x3e04df77	0.1297587
73	0x3e828c51	0.25497678
74	0x3df63b21	0.12022997
75	0x3ec08fb0	0.37609625
76	0x3e9f885b	0.31158718
77	0x3dc7a353	0.097479485
78	0x3e1d5d5e	0.15367648
79	0x3e1777f1	0.14791848
80	0x3d47402c	0.048645183
81	0x3ca67064	0.020317264
82	0x3e61055a	0.21974698
83	0x3d0059e2	0.03133572
84	0x3da02e9b	0.07821389
85	0x3ebad087	0.3648722
86	0x3e59a1f1	0.21253182
87	0x3ddc7722	0.1076491
88	0x3d9422d0	0.072332025
89	0x3ee21ae4	0.4416114
90	0x3dd23f81	0.10266019
91	0x3e1c6168	0.15271533
92	0x3d48c67a	0.049017407
93	0x3e7f0edf	0.24908017
94	0x3dd8a536	0.105783865
95	0x3eb83924	0.35981095
96	0x3e844931	0.2583709
97	0x3ea56615	0.32304445
98	0x3e8c17b6	0.2736184
99	0x3eba6c49	0.3641074
100	0x3e3a6940	0.18204212
101	0x3e9d554e	0.30729145
102	0x3e1c998b	0.15292947
103	0x3e7895d1	0.242759
104	0x3ec20a57	0.37898514
105	0x3ea1b069	0.31579903
106	0x3ee2c8e3	0.4429389
107	0x3eee03f1	0.46487382
108	0x3e8772fe	0.2645492
109	0x3f052b3d	0.520191
110	0x3e987133	0.29773864
111	0x3e124875	0.14285453
112	0x3ea5f76f	0.3241534
113	0x3e29bc08	0.16575634
114	0x3ef8b102	0.48572546
115	0x3ed92582	0.4241143
116	0x3e4d7c4b	0.20066945
117	0x3ec72be7	0.38900682
118	0x3ec82c47	0.3909628
119	0x3dca55b5	0.098796286
120	0x3e344e18	0.17607915
121	0x3e9bce03	0.30430612
122	0x3f4373ae	0.7634839
123	0x3ef15d24	0.47141373
124	0x3ed6bf5f	0.4194288
125	0x3e993e69	0.29930428
126	0x3ec6cf83	0.38830194
127	0x3e5615fb	0.20906822

lstm_20/lstm_cell/bias f4 [256]
0	0x3e2c1369	0.1680428
1	0xbafbef5c	-0.0019221115
2	0xbc3d7fc0	-0.0115661025
3	0x3d2eb91e	0.04265701
4	0x3fb3ac92	1.4037039
5	0x3dd5ddd2	0.104426995
6	0x3ecf754f	0.40519187
7	0x3d2731a0	0.04081881
8	0xbdb3520f	-0.08755886
9	0x3fa10196	1.2578609
10	0x3dae29d8	0.08504075
11	0xbb08f2fc	-0.0020896783
12	0xbe28011f	-0.16406678
13	0x3f6dc23d	0.9287451
14	0x3fa4097d	1.2815396
15	0x3ea2306f	0.31677577
16	0xbbf45a20	-0.007457033
17	0xbe73a852	-0.23794678
18	0xbd9b544d	-0.075844385
19	0x3ebc4400	0.3677063
20	0x3dbe1365	0.09281043
21	0x3c36b308	0.011151083
22	0x3fac0128	1.3437853
23	0x3d9f3cf6	0.07775299
24	0xbbc425bb	-0.005985943
25	0x3d6a8263	0.057253253
26	0xbd17dd81	-0.037076477
27	0xbdafcb9d	-0.08583758
28	0x3c0fd370	0.008778438
29	0xbce0236c	-0.02736064
30	0xbd1084aa	-0.03528277
31	0x3dab2d6b	0.08358272
32	0xbd812f51	-0.06307853
33	0xbe2f24c4	-0.17103869
34	0xbcc883a9	-0.024476843
35	0x3d9afb40	0.075674534
36	0x3d2ffbaa	0.042964615
37	0x3fb4f266	1.4136474
38	0xbc9e2bed	-0.019308055
39	0x3e36708d	0.17816372
40	0x3dec52b0	0.11539209
41	0x3cdc1c71	0.02686903
42	0x3b957d89	0.004562084
43	0xbd0363ca	-0.03207759
44	0x00000000	0.0
45	0x3d8f955b	0.07010909
46	0x3e353851	0.17697264
47	0xbba14bde	-0.004922374
48	0x3e556f96	0.20843348
49	0xbe2ee5ec	-0.17079896
50	0xbcdf7a9d	-0.027280146
51	0xbc6afd2a	-0.014342586
52	0x3f86481e	1.0490758
53	0x3fa8580e	1.3151872
54	0x3faa8ccb	1.3324217
55	0xbb78f044	-0.0037985006
56	0xba8f4a15	-0.0010932112
57	0xbd1d40e0	-0.038391948
58	0xbe311416	-0.17292818
59	0x3f9e6c0f	1.2376727
60	0xbe0f3d18	-0.13988149
61	0x3d8c9fc8	0.06866413
62	0xbc25b34b	-0.010113548
63	0xbe002bf7	-0.12516771
64	0x3f800000	1.0
65	0x3f800000	1.0
66	0x3f800000	1.0
67	0x3f800000	1.0
68	0x3f800000	1.0
69	0x3f800000	1.0
70	0x3f800000	1.0
71	0x3f800000	1.0
72	0x3f800000	1.0
73	0x3f800000	1.0
74	0x3f800000	1.0
75	0x3f800000	1.0
76	0x3f800000	1.0
77	0x3f800000	1.0
78	0x3f800000	1.0
79	0x3f800000	1.0
80	0x3f800000	1.0
81	0x3f800000	1.0
82	0x3f800000	1.0
83	0x3f800000	1.0
84	0x3f800000	1.0
85	0x3f800000	1.0
86	0x3f800000	1.0
87	0x3f800000	1.0
88	0x3f800000	1.0
89	0x3f800000	1.0
90	0x3f800000	1.0
91	0x3f800000	1.0
92	0x3f800000	1.0
93	0x3f800000	1.0
94	0x3f800000	1.0
95	0x3f800000	1.0
96	0x3f800000	1.0
97	0x3f800000	1.0
98	0x3f800000	1.0
99	0x3f800000	1.0
100	0x3f800000	1.0
101	0x3f800000	1.0
102	0x3f800000	1.0
103	0x3f800000	1.0
104	0x3f800000	1.0
105	0x3f800000	1.0
106	0x3f800000	1.0
107	0x3f800000	1.0
108	0x3f800000	1.0
109	0x3f800000	1.0
110	0x3f800000	1.0
111	0x3f800000	1.0
112	0x3f800000	1.0
113	0x3f800000	1.0
114	0x3f800000	1.0
115	0x3f800000	1.0
116	0x3f800000	1.0
117	0x3f800000	1.0
118	0x3f800000	1.0
119	0x3f800000	1.0
120	0x3f800000	1.0
121	0x3f800000	1.0
122	0x3f800000	1.0
123	0x3f800000	1.0
124	0x3f800000	1.0
125	0x3f800000	1.0
126	0x3f800000	1.0
127	0x3f800000	1.0
128	0xbe556f01	-0.20843126
129	0xbc8d1fb9	-0.01722704
130	0xbe718f60	-0.2358985
131	0xbe758883	-0.23977856
132	0x3e981303	0.29702005
133	0xbdca915b	-0.098910056
134	0x3e888657	0.26664993
135	0xbe39d282	-0.18146709
136	0xbe7bf995	-0.24606927
137	0x3ec81d80	0.39085007
138	0xbdbc37e5	-0.091903485
139	0xbd611b4d	-0.054957677
140	0xbe9da3f6	-0.30789155
141	0x3ea87960	0.32905102
142	0x3e95b83b	0.2924212
143	0x3e10b290	0.14130616
144	0xbd91bab3	-0.07115688
145	0xbe621142	-0.22076896
146	0xbe8dff72	-0.27733952
147	0x3ea8004e	0.32812732
148	0xbddfba85	-0.10924248
149	0xbe9040b4	-0.28174365
150	0x3ed36708	0.41289544
151	0x3dd1eea7	0.102505974
152	0xbcc1108a	-0.023567457
153	0x3d872bd2	0.06600155
154	0xbda5b1f8	-0.080905855
155	0x3dcc4b35	0.09975282
156	0xbe5f4df2	-0.21807078
157	0x3d8ea81a	0.069656566
158	0xbe5d9d6e	-0.21642086
159	0x3dc9a68a	0.09846218
160	0xbe82adc4	-0.25523198
161	0xbbc8ecac	-0.006131729
162	0xbe6a9ed6	-0.22912154
163	0xbd9eb436	-0.07749216
164	0xbe18a043	-0.14904885
165	0x3ebea734	0.3723694
166	0xbce5c447	-0.028047694
167	0x3e12c37d	0.14332385
168	0xbe0fc46a	-0.1403977
169	0x3e108d3a	0.14116374
170	0xbd0097a7	-0.031394627
171	0xbda8c3d9	-0.0824048
172	0x00000000	0.0
173	0x3df52534	0.119699866
174	0x3e48db97	0.19615017
175	0xbc87929c	-0.016549401
176	0x3e3868ae	0.18008682
177	0xbe8d7d26	-0.27634543
178	0xbd2e7920	-0.042595983
179	0xbd8d13ca	-0.0688854
180	0x3e47db87	0.19517337
181	0x3ec6b6a3	0.38811216
182	0x3ec46250	0.38356256
183	0xbd7127bc	-0.058875784
184	0xbc429fa8	-0.011878885
185	0xbd9dcc04	-0.077049285
186	0xbde2a3c4	-0.11066392
187	0x3eca2b5a	0.394862
188	0x3a5eb3ee	0.00084954395
189	0xbe7387c4	-0.23782259
190	0xbe64c8c7	-0.22342215
191	0xbe8725bc	-0.26395977
192	0x3e006cc7	0.12541495
193	0xbb0580a7	-0.0020370872
194	0x3d4853d1	0.04890806
195	0xbc953237	-0.01821242
196	0x3fb3cada	1.404628
197	0x3d8101e9	0.062991925
198	0x3eb3ec67	0.35141298
199	0x3d853416	0.06504075
200	0xbc6bbe18	-0.014388584
201	0x3fa85880	1.3152008
202	0x3d6a9f40	0.05728078
203	0xbab740c4	-0.0013981094
204	0xbe13e06c	-0.14441079
205	0x3f83d8cf	1.030054
206	0x3fa958a8	1.3230181
207	0x3e9714a6	0.2950794
208	0xbbe411e1	-0.006960139
209	0xbe441bf1	-0.19151284
210	0xbd7bb796	-0.061454378
211	0x3eb3ba5e	0.35103124
212	0x3db9472b	0.09046777
213	0x3c55a977	0.013040892
214	0x3fb298dd	1.39529
215	0x3dc800f9	0.097658105
216	0xbc365ce8	-0.011130549
217	0x3d8f033b	0.06983038
218	0xbd107bcb	-0.03527431
219	0xbdad85de	-0.08472799
220	0x3d49e378	0.049289197
221	0xbde3938a	-0.11112125
222	0xbd2f39e3	-0.042779814
223	0x3d29114e	0.04127627
224	0xbccf57cf	-0.025310425
225	0xbe0e9ca8	-0.13926947
226	0x3d02461e	0.03180515
227	0x3dddfc6d	0.10839162
228	0x3c9f1605	0.01941968
229	0x3fb4d637	1.4127873
230	0xbc98cacf	-0.018651394
231	0x3e45f722	0.19332555
232	0x3e24b353	0.16084032
233	0x3e06c668	0.13161623
234	0x3bb1f2e9	0.0054305685
235	0xbcfa6b8b	-0.030568859
236	0x00000000	0.0
237	0x3dcb3961	0.099230535
238	0x3e31bc2f	0.17356943
239	0xbbaee431	-0.005337261
240	0x3e455a9e	0.19272849
241	0xbe2f9914	-0.17148238
242	0xbce3972b	-0.027782043
243	0xbc661aaa	-0.014044443
244	0x3f70d0d0	0.9406862
245	0x3fa72300	1.3057556
246	0x3fa290fd	1.2700497
247	0xbb77a703	-0.0037788756
248	0xba431dbb	-0.000744309
249	0xbd71ef1e	-0.05906593
250	0xbe3464b3	-0.17616539
251	0x3f9d4478	1.228652
252	0xbe06b1da	-0.13153782
253	0x3d03d5bf	0.032186266
254	0xbd0f81e1	-0.03503597
255	0xbde5f4b3	-0.11228313

model_5/time_distributed_5/dense_5/MatMul f4 [21, 64]
0	0x3d16649b	0.03671704
1	0x3e1346aa	0.14382425
2	0xbb08ab59	-0.0020854084
3	0xbc1ff6fd	-0.009763476
4	0xbb734b89	-0.003712388
5	0xbb87f7e4	-0.004149424
6	0xbb0ecc18	-0.002178913
7	0xbe9912dd	-0.29897204
8	0x3cbff177	0.02343057
9	0x3bda5f13	0.0066641658
10	0x3db66807	0.089065604
11	0xbb504739	-0.0031780733
12	0xbc4dc2b9	-0.0125586325
13	0x39ec9a12	0.0004512822
14	0x3ebea473	0.3723484
15	0x3ef26710	0.47344255
16	0xbb86886b	-0.0041056178
17	0x3ab341d8	0.0013676239
18	0xba800967	-0.0009768427
19	0x3b61cfd0	0.0034456141
20	0x3b4cd500	0.0031254888
21	0xbadce37b	-0.0016852462
22	0x3ba536cf	0.005041934
23	0x3c0583e8	0.008149125
24	0xbc448f8a	-0.011997113
25	0x3c835be2	0.016035024
26	0x3ed5a4b9	0.41727236
27	0x3ec15436	0.3775956
28	0xbbaa0fb7	-0.0051898616
29	0x3d93bb2d	0.07213435
30	0x3ef8d15f	0.48597237
31	0xbc0b98cd	-0.008520317
32	0x3b904436	0.0044026626
33	0xb9f15878	-0.00046033016
34	0x3ade7cd0	0.0016974453
35	0x3eadd0a2	0.33948237
36	0xbbbfb311	-0.005850204
37	0x3ca5a441	0.020219924
38	0xbe77cf36	-0.24200138
39	0x3c28b67d	0.010297415
40	0x3b82d609	0.0039928
41	0xbc2de9f1	-0.010614858
42	0xbc3dee5c	-0.011592474
43	0xbd2fca42	-0.042917497
44	0xbc3d5be4	-0.011557553
45	0x3c64b9d1	0.013960318
46	0x3afae966	0.0019143044
47	0x3c0d73ec	0.008633595
48	0xbc830932	-0.015995596
49	0x3ba67b59	0.005080622
50	0xbafedf0c	-0.0019445135
51	0x3c0fdcec	0.008780699
52	0x3ba5c361	0.0050586914
53	0x3c6aa8b3	0.014322448
54	0x3f1ae62c	0.60507464
55	0x3ed24d0a	0.410744
56	0x3c3e83c8	0.011628099
57	0xbbbf612f	-0.0058404426
58	0x3bc824e3	0.006107913
59	0xb98d8b3a	-0.00026997348
60	0x394de18e	0.00019634349
61	0xbbc90193	-0.006134221
62	0x3cade163	0.021225637
63	0x3ad809bd	0.0016482394
64	0x3ca35868	0.019939616
65	0xbd789925	-0.060692925
66	0x3ac16cca	0.0014757153
67	0xbc093c1b	-0.008376147
68	0xbab56e27	-0.0013842032
69	0x3af34c9e	0.0018562262
70	0x3adcd75b	0.0016848849
71	0xbe637c37	-0.22215353
72	0xbe4175a3	-0.18892531
73	0x3b48ef40	0.0030660182
74	0xbc4c92f0	-0.0124862045
75	0x3bb44ca6	0.0055023013
76	0xbad23137	-0.0016036396
77	0x3913b6c1	0.00014087094
78	0x3ec8db7c	0.39229953
79	0x3eaba252	0.33522278
80	0xba8f4d52	-0.0010933077
81	0xbb19b372	-0.0023452905
82	0x3aec5332	0.0018030165
83	0x3ac75cb6	0.0015210125
84	0x3b34cf75	0.0027589474
85	0x3aac6919	0.001315388
86	0x3b72663d	0.0036987208
87	0x3bc7b730	0.0060948357
88	0xba52133b	-0.000801373
89	0x3c57bc3d	0.013167438
90	0x3ee73e60	0.45164776
91	0x3ed2cd57	0.41172287
92	0x3e05855e	0.13039157
93	0x3e58197f	0.21103476
94	0x3eededeb	0.4647058
95	0xbba22a80	-0.004948914
96	0xb9ed9d72	-0.00045321468
97	0x3c0c01f4	0.008545388
98	0x3a24bd94	0.0006284353
99	0x3eb0bbc0	0.34518242
100	0xbbd3fa08	-0.006469015
101	0xbe2e5278	-0.17023647
102	0xbe881355	-0.2657725
103	0x3b945a03	0.004527332
104	0x3a5fd2b1	0.00085381704
105	0xbbbc08d6	-0.005738358
106	0xbbbad77d	-0.0057019577
107	0x3d5c0241	0.053713087
108	0xbbb93e54	-0.005653182
109	0x3c0ad105	0.008472686
110	0x39b3fff8	0.00034332252
111	0x3bdd0f69	0.006746222
112	0xbbdc03f6	-0.0067143394
113	0xba2e1fe5	-0.0006642326
114	0xba787a00	-0.00094786286
115	0x3a93b7c9	0.0011269982
116	0x3c81e155	0.015854517
117	0x3c276b27	0.010218418
118	0x3ecd253f	0.4006748
119	0x3ec57e5c	0.38572967
120	0x3afa77a9	0.0019109148
121	0xba8394b9	-0.001003883
122	0xbad9a9d7	-0.0016606402
123	0xbb352ff5	-0.0027646993
124	0x3c3c6d00	0.011500597
125	0xba20c029	-0.000613215
126	0xbd4c9229	-0.049944077
127	0xbbacbbc2	-0.005271406
128	0x3da7e753	0.081984185
129	0x3da33ff9	0.07971186
130	0xbbd7eb56	-0.0065893335
131	0xbc0d8d2b	-0.008639614
132	0xbbd2587f	-0.006419241
133	0xbc141951	-0.009039239
134	0x3af4bc4e	0.0018671842
135	0xbcae4b6c	-0.021276198
136	0xbe053d33	-0.13011627
137	0x3bf61fa4	0.007511096
138	0xbdd8af7f	-0.10580348
139	0xbba64b5c	-0.0050749015
140	0xbc53a7ae	-0.012918396
141	0x3ab72c05	0.0013974911
142	0x3f07a4d5	0.5298589
143	0x3f1d1f99	0.6137634
144	0xbbf20d30	-0.007386826
145	0x3b9253eb	0.00446557
146	0xb99f10e5	-0.0003033943
147	0x3ac8c90e	0.0015318708
148	0x3bee3be4	0.007270323
149	0xbae09f08	-0.0017137239
150	0x3bf39a32	0.007434153
151	0x3c21a8c3	0.009866896
152	0xbc3d176b	-0.011541228
153	0x3c9d775d	0.019221956
154	0x3edd62af	0.43239352
155	0x3f0788ef	0.5294332
156	0xbe212db9	-0.15740098
157	0xbe6759ff	-0.22592925
158	0x3f205321	0.62626845
159	0xbc527a42	-0.012846531
160	0x3ba3fc1b	0.0050044185
161	0x3b06c46f	0.002056386
162	0xba211d3e	-0.000614602
163	0x3ee6dc3f	0.4508991
164	0xbb94f835	-0.00454619
165	0x3e2fc7c0	0.17166042
166	0xbd6c442c	-0.0576822
167	0xb873e6e7	-5.815076e-05
168	0x3b7610d7	0.0037546658
169	0xbc5d7846	-0.013517445
170	0xbc69647b	-0.014245148
171	0x3d26b9ed	0.040704656
172	0xbc84e994	-0.01622466
173	0x3c022811	0.007944123
174	0xbc2b028d	-0.01043762
175	0x3ba38add	0.004990919
176	0xbcbbfe52	-0.022948418
177	0x3bb56c10	0.0055365637
178	0xbae93922	-0.0017793516
179	0x3bad1a3e	0.0052826693
180	0x3c2ad285	0.010426168
181	0x3c7f0442	0.01556498
182	0x3f1b5619	0.6067825
183	0x3f122fb5	0.57104045
184	0x3be5e0ec	0.007015338
185	0xbc1c9322	-0.009556564
186	0x3b3979d1	0.0028301368
187	0x3be21c37	0.006900336
188	0x3c3647ff	0.011125564
189	0xbbc2e92d	-0.005948207
190	0xbd3f7457	-0.04674181
191	0xb9901bda	-0.0002748657
192	0x3dbf164d	0.093304254
193	0xb9b581fe	-0.00034619862
194	0xb9244acc	-0.00015668123
195	0xbbe594fc	-0.0070062857
196	0xba5dbfa2	-0.00084590365
197	0xb7d684ec	-2.5572685e-05
198	0x3b238f62	0.002495729
199	0x3e30da11	0.17270686
200	0xbd24fc29	-0.04027954
201	0x3aa6379a	0.0012681365
202	0xbe10e594	-0.14150077
203	0x3b23a87c	0.002497225
204	0xbb1050d6	-0.0022020838
205	0x3af84b56	0.001894335
206	0x3ed56d03	0.41684732
207	0x3ec9610a	0.39331847
208	0x3b38bc2d	0.0028188333
209	0xbb11c4f1	-0.002224263
210	0x3b435f85	0.0029811573
211	0x3b2361fe	0.0024930234
212	0x3b427de3	0.0029677085
213	0xba1ec50c	-0.0006056584
214	0x3b2fa740	0.002680257
215	0x3bfbd2ce	0.007685042
216	0xbb227ee0	-0.0024794862
217	0x3c8a5ade	0.016889032
218	0x3f07a660	0.52988243
219	0x3ede4f97	0.43420097
220	0x3d66827c	0.056276783
221	0xbd5b8127	-0.053589966
222	0x3efb0535	0.4902741
223	0xbbca0463	-0.0061650737
224	0xba90feca	-0.0011062261
225	0x3c1af0ed	0.009456855
226	0x3ae0f606	0.0017163164
227	0x3ec0f633	0.37687835
228	0xbb9673fe	-0.004591464
229	0xbe0b806c	-0.13623208
230	0xbd85932b	-0.06522211
231	0x3b494c6d	0.003071572
232	0x3b0de7e8	0.002165312
233	0xbb39bb3f	-0.0028340367
234	0xbb9efb52	-0.004851737
235	0x3e4d4a95	0.20047982
236	0xbbc06258	-0.0058710985
237	0x3be7b695	0.007071326
238	0x39163809	0.0001432599
239	0x3bc8088d	0.006104535
240	0xbbeff00d	-0.0073223175
241	0xba92e522	-0.0011207203
242	0x3b2c7e1c	0.0026320284
243	0xb9e5e7b5	-0.0004385092
244	0x3c6f64a6	0.014611399
245	0x3c10713a	0.008816058
246	0x3ec6a596	0.38798207
247	0x3edc8abe	0.43074602
248	0x3a57249f	0.0008207056
249	0x3a037528	0.0005014711
250	0xba9b2d21	-0.0011839011
251	0xba13cd88	-0.00056382315
252	0x3c4a0591	0.012330429
253	0xbb17836b	-0.0023119103
254	0xbe31f3a4	-0.17378098
255	0xbb5a6db0	-0.003332954

lstm_20/lstm_cell/bias1 f4 [256]
0	0x3e2c1369	0.1680428
1	0xbafbef5c	-0.0019221115
2	0xbc3d7fc0	-0.0115661025
3	0x3d2eb91e	0.04265701
4	0x3fb3ac92	1.4037039
5	0x3dd5ddd2	0.104426995
6	0x3ecf754f	0.40519187
7	0x3d2731a0	0.04081881
8	0xbdb3520f	-0.08755886
9	0x3fa10196	1.2578609
10	0x3dae29d8	0.08504075
11	0xbb08f2fc	-0.0020896783
12	0xbe28011f	-0.16406678
13	0x3f6dc23d	0.9287451
14	0x3fa4097d	1.2815396
15	0x3ea2306f	0.31677577
16	0xbbf45a20	-0.007457033
17	0xbe73a852	-0.23794678
18	0xbd9b544d	-0.075844385
19	0x3ebc4400	0.3677063
20	0x3dbe1365	0.09281043
21	0x3c36b308	0.011151083
22	0x3fac0128	1.3437853
23	0x3d9f3cf6	0.07775299
24	0xbbc425bb	-0.005985943
25	0x3d6a8263	0.057253253
26	0xbd17dd81	-0.037076477
27	0xbdafcb9d	-0.08583758
28	0x3c0fd370	0.008778438
29	0xbce0236c	-0.02736064
30	0xbd1084aa	-0.03528277
31	0x3dab2d6b	0.08358272
32	0xbd812f51	-0.06307853
33	0xbe2f24c4	-0.17103869
34	0xbcc883a9	-0.024476843
35	0x3d9afb40	0.075674534
36	0x3d2ffbaa	0.042964615
37	0x3fb4f266	1.4136474
38	0xbc9e2bed	-0.019308055
39	0x3e36708d	0.17816372
40	0x3dec52b0	0.11539209
41	0x3cdc1c71	0.02686903
42	0x3b957d89	0.004562084
43	0xbd0363ca	-0.03207759
44	0x00000000	0.0
45	0x3d8f955b	0.07010909
46	0x3e353851	0.17697264
47	0xbba14bde	-0.004922374
48	0x3e556f96	0.20843348
49	0xbe2ee5ec	-0.17079896
50	0xbcdf7a9d	-0.027280146
51	0xbc6afd2a	-0.014342586
52	0x3f86481e	1.0490758
53	0x3fa8580e	1.3151872
54	0x3faa8ccb	1.3324217
55	0xbb78f044	-0.0037985006
56	0xba8f4a15	-0.0010932112
57	0xbd1d40e0	-0.038391948
58	0xbe311416	-0.17292818
59	0x3f9e6c0f	1.2376727
60	0xbe0f3d18	-0.13988149
61	0x3d8c9fc8	0.06866413
62	0xbc25b34b	-0.010113548
63	0xbe002bf7	-0.12516771
64	0x3f800000	1.0
65	0x3f800000	1.0
66	0x3f800000	1.0
67	0x3f800000	1.0
68	0x3f800000	1.0
69	0x3f800000	1.0
70	0x3f800000	1.0
71	0x3f800000	1.0
72	0x3f800000	1.0
73	0x3f800000	1.0
74	0x3f800000	1.0
75	0x3f800000	1.0
76	0x3f800000	1.0
77	0x3f800000	1.0
78	0x3f800000	1.0
79	0x3f800000	1.0
80	0x3f800000	1.0
81	0x3f800000	1.0
82	0x3f800000	1.0
83	0x3f800000	1.0
84	0x3f800000	1.0
85	0x3f800000	1.0
86	0x3f800000	1.0
87	0x3f800000	1.0
88	0x3f800000	1.0
89	0x3f800000	1.0
90	0x3f800000	1.0
91	0x3f800000	1.0
92	0x3f800000	1.0
93	0x3f800000	1.0
94	0x3f800000	1.0
95	0x3f800000	1.0
96	0x3f800000	1.0
97	0x3f800000	1.0
98	0x3f800000	1.0
99	0x3f800000	1.0
100	0x3f800000	1.0
101	0x3f800000	1.0
102	0x3f800000	1.0
103	0x3f800000	1.0
104	0x3f800000	1.0
105	0x3f800000	1.0
106	0x3f800000	1.0
107	0x3f800000	1.0
108	0x3f800000	1.0
109	0x3f800000	1.0
110	0x3f800000	1.0
111	0x3f800000	1.0
112	0x3f800000	1.0
113	0x3f800000	1.0
114	0x3f800000	1.0
115	0x3f800000	1.0
116	0x3f800000	1.0
117	0x3f800000	1.0
118	0x3f800000	1.0
119	0x3f800000	1.0
120	0x3f800000	1.0
121	0x3f800000	1.0
122	0x3f800000	1.0
123	0x3f800000	1.0
124	0x3f800000	1.0
125	0x3f800000	1.0
126	0x3f800000	1.0
127	0x3f800000	1.0
128	0xbe556f01	-0.20843126
129	0xbc8d1fb9	-0.01722704
130	0xbe718f60	-0.2358985
131	0xbe758883	-0.23977856
132	0x3e981303	0.29702005
133	0xbdca915b	-0.098910056
134	0x3e888657	0.26664993
135	0xbe39d282	-0.18146709
136	0xbe7bf995	-0.24606927
137	0x3ec81d80	0.39085007
138	0xbdbc37e5	-0.091903485
139	0xbd611b4d	-0.054957677
140	0xbe9da3f6	-0.30789155
141	0x3ea87960	0.32905102
142	0x3e95b83b	0.2924212
143	0x3e10b290	0.14130616
144	0xbd91bab3	-0.07115688
145	0xbe621142	-0.22076896
146	0xbe8dff72	-0.27733952
147	0x3ea8004e	0.32812732
148	0xbddfba85	-0.10924248
149	0xbe9040b4	-0.28174365
150	0x3ed36708	0.41289544
151	0x3dd1eea7	0.102505974
152	0xbcc1108a	-0.023567457
153	0x3d872bd2	0.06600155
154	0xbda5b1f8	-0.080905855
155	0x3dcc4b35	0.09975282
156	0xbe5f4df2	-0.21807078
157	0x3d8ea81a	0.069656566
158	0xbe5d9d6e	-0.21642086
159	0x3dc9a68a	0.09846218
160	0xbe82adc4	-0.25523198
161	0xbbc8ecac	-0.006131729
162	0xbe6a9ed6	-0.22912154
163	0xbd9eb436	-0.07749216
164	0xbe18a043	-0.14904885
165	0x3ebea734	0.3723694
166	0xbce5c447	-0.028047694
167	0x3e12c37d	0.14332385
168	0xbe0fc46a	-0.1403977
169	0x3e108d3a	0.14116374
170	0xbd0097a7	-0.031394627
171	0xbda8c3d9	-0.0824048
172	0x00000000	0.0
173	0x3df52534	0.119699866
174	0x3e48db97	0.19615017
175	0xbc87929c	-0.016549401
176	0x3e3868ae	0.18008682
177	0xbe8d7d26	-0.27634543
178	0xbd2e7920	-0.042595983
179	0xbd8d13ca	-0.0688854
180	0x3e47db87	0.19517337
181	0x3ec6b6a3	0.38811216
182	0x3ec46250	0.38356256
183	0xbd7127bc	-0.058875784
184	0xbc429fa8	-0.011878885
185	0xbd9dcc04	-0.077049285
186	0xbde2a3c4	-0.11066392
187	0x3eca2b5a	0.394862
188	0x3a5eb3ee	0.00084954395
189	0xbe7387c4	-0.23782259
190	0xbe64c8c7	-0.22342215
191	0xbe8725bc	-0.26395977
192	0x3e006cc7	0.12541495
193	0xbb0580a7	-0.0020370872
194	0x3d4853d1	0.04890806
195	0xbc953237	-0.01821242
196	0x3fb3cada	1.404628
197	0x3d8101e9	0.062991925
198	0x3eb3ec67	0.35141298
199	0x3d853416	0.06504075
200	0xbc6bbe18	-0.014388584
201	0x3fa85880	1.3152008
202	0x3d6a9f40	0.05728078
203	0xbab740c4	-0.0013981094
204	0xbe13e06c	-0.14441079
205	0x3f83d8cf	1.030054
206	0x3fa958a8	1.3230181
207	0x3e9714a6	0.2950794
208	0xbbe411e1	-0.006960139
209	0xbe441bf1	-0.19151284
210	0xbd7bb796	-0.061454378
211	0x3eb3ba5e	0.35103124
212	0x3db9472b	0.09046777
213	0x3c55a977	0.013040892
214	0x3fb298dd	1.39529
215	0x3dc800f9	0.097658105
216	0xbc365ce8	-0.011130549
217	0x3d8f033b	0.06983038
218	0xbd107bcb	-0.03527431
219	0xbdad85de	-0.08472799
220	0x3d49e378	0.049289197
221	0xbde3938a	-0.11112125
222	0xbd2f39e3	-0.042779814
223	0x3d29114e	0.04127627
224	0xbccf57cf	-0.025310425
225	0xbe0e9ca8	-0.13926947
226	0x3d02461e	0.03180515
227	0x3dddfc6d	0.10839162
228	0x3c9f1605	0.01941968
229	0x3fb4d637	1.4127873
230	0xbc98cacf	-0.018651394
231	0x3e45f722	0.19332555
232	0x3e24b353	0.16084032
233	0x3e06c668	0.13161623
234	0x3bb1f2e9	0.0054305685
235	0xbcfa6b8b	-0.030568859
236	0x00000000	0.0
237	0x3dcb3961	0.099230535
238	0x3e31bc2f	0.17356943
239	0xbbaee431	-0.005337261
240	0x3e455a9e	0.19272849
241	0xbe2f9914	-0.17148238
242	0xbce3972b	-0.027782043
243	0xbc661aaa	-0.014044443
244	0x3f70d0d0	0.9406862
245	0x3fa72300	1.3057556
246	0x3fa290fd	1.2700497
247	0xbb77a703	-0.0037788756
248	0xba431dbb	-0.000744309
249	0xbd71ef1e	-0.05906593
250	0xbe3464b3	-0.17616539
251	0x3f9d4478	1.228652
252	0xbe06b1da	-0.13153782
253	0x3d03d5bf	0.032186266
254	0xbd0f81e1	-0.03503597
255	0xbde5f4b3	-0.11228313

model_5/lstm_20/while/lstm_cell/MatMul_1 f4 [256, 64]
0	0x3c06c580	0.008225799
1	0xbd9b08a2	-0.07570006
2	0xbcd0d7c6	-0.025493514
3	0x3e2d6071	0.1693132
4	0xbdaaba44	-0.083363086
5	0xbd01918e	-0.031632952
6	0x3ce3df48	0.02781643
7	0xbd11724a	-0.035509385
8	0xbcd09f5c	-0.025466613
9	0xbdc8d8e2	-0.09806992
10	0x3c8c6212	0.017136607
11	0xbd2a5736	-0.041587077
12	0x3dab210b	0.08355912
13	0x3c9a7190	0.018852979
14	0x3c9fc872	0.01950476
15	0xbd83762d	-0.064190246
16	0x3cfe6a24	0.031056471
17	0x3c605844	0.013692919
18	0x3de59070	0.1120919
19	0x3cb8eeda	0.02257483
20	0x3d7c769e	0.06163656
21	0xbbf41fd8	-0.007450085
22	0x3de37eb6	0.111081526
23	0x3e247aeb	0.16062514
24	0xbd525d7e	-0.051358692
25	0xbbf7b3b0	-0.007559262
26	0xbc1df4e0	-0.009640902
27	0xbce5147e	-0.027963873
28	0xbbfb2cd6	-0.007665257
29	0x3a801840	0.0009772852
30	0x3c4d6d2c	0.012538236
31	0x3d5955f6	0.053060494
32	0x3d0aed2f	0.033917602
33	0x3cc31a80	0.023816347
34	0x3c2c7054	0.010524828
35	0x3db94c05	0.09047703
36	0x3c6e00d4	0.014526565
37	0xbb5ee490	-0.0034010746
38	0x3d8d783e	0.069077
39	0xbd55e70f	-0.052222308
40	0xbcda7f34	-0.026671983
41	0x3d3cdc23	0.046108376
42	0xbd5a593a	-0.05330775
43	0xba25db50	-0.00063269306
44	0xbd1ddd96	-0.0385414
45	0x3d59f53a	0.053212382
46	0x3da7824c	0.08179149
47	0xbd5d936a	-0.054095663
48	0x3c8dcc0e	0.017309215
49	0x3ca0a204	0.019608505
50	0x3d01cffd	0.031692494
51	0x3ce03e54	0.02737347
52	0xbc83369e	-0.016017254
53	0x3d290804	0.04126741
54	0xbd436ccc	-0.04771118
55	0x3d89b1e4	0.06723383
56	0x3d30d129	0.04316822
57	0xbd6c66d7	-0.057715263
58	0xbcc40619	-0.023928689
59	0xbd849a8f	-0.06474792
60	0x3d9cbc9d	0.07653163
61	0xbc9aef82	-0.018913034
62	0x3d97dc04	0.074150115
63	0xbd23980b	-0.03993992
64	0xbd5c4a27	-0.053781655
65	0xba8f1800	-0.0010917187
66	0x3dbfceaa	0.0936559
67	0xbd2105fe	-0.039312355
68	0x3c816145	0.015793452
69	0xba539344	-0.00080709555
70	0x3d6807db	0.056648117
71	0xbd393464	-0.04521598
72	0xbbac15e5	-0.0052516335
73	0x3d68a24a	0.056795396
74	0x3d49a927	0.049233582
75	0xbd9288d4	-0.07155004
76	0x3b9fa0da	0.00487147
77	0xbb1f4650	-0.0024303384
78	0x3d4308c9	0.0476158
79	0xbca1f20d	-0.01976874
80	0x3cb8ca56	0.022557419
81	0x3dcd2c6c	0.100182384
82	0x3ce3b45e	0.027795967
83	0x3d0d44e4	0.034489527
84	0x3b5102fe	0.0031892653
85	0xbc0c6d39	-0.008570963
86	0x3d4461c3	0.047944795
87	0xbc174c25	-0.009234463
88	0xbd844de7	-0.06460171
89	0x3bc95d40	0.0061451495
90	0x3bca280a	0.006169324
91	0x3c7442d8	0.014908515
92	0xbd3e4cf7	-0.04646012
93	0xbc6b593c	-0.014364537
94	0x3dcdbaa0	0.100453615
95	0xbd92b696	-0.07163732
96	0x3d863e04	0.06554797
97	0xbd119cdb	-0.03554998
98	0x3bbc2733	0.0057419776
99	0xbd71e661	-0.059057597
100	0xbcadf67c	-0.021235697
101	0x3dd99302	0.10623743
102	0x3ccf2d7b	0.025290241
103	0xbd85b4c0	-0.06528616
104	0x3d11472f	0.035468277
105	0x3d46a51c	0.048497304
106	0x3cd30dc8	0.025763407
107	0x3e1394d9	0.1441225
108	0xbd31517b	-0.043290596
109	0xbc976257	-0.01847951
110	0x3cc4cf86	0.024024736
111	0xbd83ecb9	-0.06441636
112	0xbd03645c	-0.032078132
113	0xbcaa9dc2	-0.020827178
114	0xbd96b1ee	-0.07358156
115	0xbccb9594	-0.024851598
116	0x3d74c1d6	0.05975517
117	0xbd91ab24	-0.071127206
118	0x3c3b6abe	0.011439024
119	0x3d2762ba	0.040865637
120	0xbd764545	-0.060124654
121	0x3dd49988	0.10380846
122	0xbd381b70	-0.04494804
123	0x3d23a464	0.039951697
124	0x3da24a7d	0.07924364
125	0xbd835881	-0.06413365
126	0xbaf4e384	-0.0018683528
127	0x3bc5478c	0.006020492
128	0x3c8e5557	0.017374678
129	0x3d3f6e49	0.046736035
130	0x3d358e60	0.044325233
131	0xbbcd3a31	-0.0062630405
132	0x3cc11d0b	0.02357342
133	0x3caaf519	0.020868825
134	0xbe047593	-0.12935476
135	0x3d9d06ef	0.07667338
136	0xbcc0eee9	-0.023551421
137	0xbd9b4471	-0.075814135
138	0xbd554209	-0.05206493
139	0xbd1b141f	-0.037860986
140	0x3db18076	0.0866708
141	0xbd37689d	-0.0447775
142	0x3d83234f	0.06403219
143	0x3cc547e8	0.02408214
144	0xbd6c26d1	-0.057654206
145	0xbce78fbe	-0.028266784
146	0xbe1b1a42	-0.15146735
147	0xbd31de50	-0.043424904
148	0x3aadfd58	0.0013274355
149	0x3ac3f0fc	0.0014949138
150	0xbc5209a9	-0.012819686
151	0x3e1a6fdb	0.15081732
152	0xbda9baa7	-0.08287554
153	0xbc3ba2dd	-0.011452404
154	0x3d873325	0.06601552
155	0xbdb26764	-0.087111264
156	0x3d624431	0.055240814
157	0xbd57d16f	-0.052689966
158	0xbd76511d	-0.06013595
159	0xbd4ee121	-0.05050767
160	0x3d48d2c2	0.04902912
161	0xbd4568f6	-0.0481958
162	0x3b90604b	0.0044060103
163	0x3db73fa3	0.089476846
164	0xbcadb6ad	-0.02120527
165	0x3d32741e	0.04356777
166	0xb9bad17c	-0.00035632763
167	0xbda73212	-0.08163847
168	0x3c4027fe	0.011728285
169	0xbca199a7	-0.019726587
170	0xbc807e8f	-0.015685348
171	0xba8b4030	-0.0010623988
172	0x3dc0b744	0.09409955
173	0x3dcff6a7	0.10154467
174	0x3d8eb239	0.06967587
175	0x3cb5ad4c	0.022177361
176	0xbd5d74ab	-0.05406634
177	0xbd82cf0e	-0.06387149
178	0xbb0d12a8	-0.0021526013
179	0x3d6f0f75	0.05836435
180	0x3c978e66	0.018500518
181	0xbb6b43a6	-0.0035898476
182	0x3de0381c	0.10948202
183	0x3d566632	0.052343555
184	0x3bccbc22	0.006248013
185	0x3d92a6ae	0.07160698
186	0xbd1eadbe	-0.038739912
187	0xbc7738a0	-0.015089184
188	0x3d4036d3	0.046927284
189	0x3d5ab373	0.053393792
190	0x3c21c721	0.009874136
191	0x3d47f77e	0.04882001
192	0x3d26cbac	0.04072158
193	0x3cdf72c8	0.027276412
194	0xbd0f9997	-0.035058584
195	0x3c3d5e00	0.011558056
196	0x3e06b427	0.1315466
197	0x3d0bae59	0.034101818
198	0xbd8828d3	-0.066484116
199	0xbcf6801c	-0.030090384
200	0xbd91cf97	-0.07119673
201	0x3d6fb681	0.05852366
202	0x3d2da890	0.04239708
203	0xbd88c807	-0.06678777
204	0xbcbfe3f2	-0.023424122
205	0x3ce8c53b	0.02841436
206	0x3b7bb112	0.0038405103
207	0x3bba3094	0.0056820605
208	0x3dccb729	0.099958725
209	0xbd92dba5	-0.071708
210	0x3d1636e5	0.036673445
211	0xbd31d164	-0.04341258
212	0x3cbf6578	0.023363814
213	0xba838ea0	-0.0010037012
214	0x3cbecdce	0.023291495
215	0x3d8d9dd8	0.06914872
216	0x3ceb83a8	0.028749302
217	0xbcca25c5	-0.024676213
218	0xbd757419	-0.059925172
219	0x3d96f220	0.073704004
220	0xbd4e1311	-0.050311152
221	0xbc45602e	-0.012046857
222	0x3dfed5ce	0.12443124
223	0x3d26fc0e	0.04076772
224	0xbda204dd	-0.07911084
225	0xbc94d85d	-0.018169576
226	0x3da8b783	0.08238127
227	0x3da72625	0.08161572
228	0x3d0289c3	0.03186966
229	0x3d975032	0.07388343
230	0x3c31c76a	0.010850767
231	0xbd778e37	-0.06043836
232	0x3dcee46b	0.10102161
233	0x3da44dde	0.080226645
234	0x3cee75a8	0.029108837
235	0xbdfd716d	-0.1237515
236	0xbd7b1fed	-0.061309744
237	0x3d2d562f	0.04231852
238	0x3d557b92	0.0521198
239	0x3d7c3a6c	0.061579153
240	0xbd02a4de	-0.03189551
241	0xbce10e93	-0.02747277
242	0x3da13b28	0.07872611
243	0xbdbf0054	-0.093262345
244	0x3da7d77c	0.08195397
245	0x3cdeff6e	0.027221408
246	0xbe2e2501	-0.17006303
247	0xbd1b99a1	-0.03798831
248	0xbe012ab5	-0.12613948
249	0x3d058347	0.0325959
250	0xbde4c6c4	-0.11170724
251	0x3d07e839	0.03318045
252	0x3ccc10c5	0.02491034
253	0x3d05a756	0.032630287
254	0x3d605457	0.054767933
255	0x3c019d4c	0.007911038

model_5/lstm_20/while/lstm_cell/MatMul f4 [256, 21]
0	0xbe9fcaae	-0.3120932
1	0xbefb5d1d	-0.49094477
2	0xbece7307	-0.40322134
3	0xbebd3e6b	-0.36961684
4	0xbefbb867	-0.49164125
5	0xbe0681ff	-0.13135527
6	0xbe051026	-0.12994441
7	0x3ee9ea5b	0.45686612
8	0xbe0c03ad	-0.13673277
9	0xbedab8bc	-0.42719066
10	0xbe9c7d32	-0.30564266
11	0xbec38004	-0.38183606
12	0xbed4c429	-0.41555908
13	0xbecb6964	-0.39728844
14	0xbeb62119	-0.35572127
15	0xbe83cba1	-0.25741294
16	0xbe740535	-0.23830111
17	0xbe93909b	-0.28821263
18	0x3e8dd604	0.27702343
19	0xbeab3f5a	-0.3344677
20	0x3f007b24	0.501879
21	0x3a969971	0.0011489821
22	0x3d00a6e7	0.03140917
23	0xbd1ba4de	-0.037999026
24	0xbdd41bbc	-0.103568524
25	0xbdb31403	-0.08744051
26	0x3e111c79	0.14171018
27	0xbdb812c8	-0.08987957
28	0x3ced96e9	0.029002624
29	0xbcac2197	-0.02101211
30	0xbdd18e59	-0.10232229
31	0x3adefbe2	0.0017012323
32	0xbc7dccda	-0.015490735
33	0x3d0ba65a	0.034094192
34	0x3db0bdfd	0.086299874
35	0xbd85eb9e	-0.06539081
36	0xbd56f09a	-0.05247555
37	0xbddb9d8b	-0.10723408
38	0x3e0b87a5	0.13625963
39	0x3ded05a5	0.11573342
40	0x3dfe6bb9	0.1242289
41	0x3c0c2150	0.008552864
42	0xbedf12ab	-0.4356893
43	0xbea8ce48	-0.3296988
44	0xbf08d984	-0.534569
45	0xbe8ca415	-0.27468935
46	0xbe90a797	-0.2825286
47	0x3c611ada	0.013739312
48	0xbeb4953b	-0.35270104
49	0xbe30ce8a	-0.17266288
50	0xbe8a9416	-0.27066106
51	0xbe46c38f	-0.19410537
52	0xbef5b31d	-0.47988215
53	0xbe848b1e	-0.25887388
54	0xbd9bf715	-0.076154865
55	0xbe4542b4	-0.19263726
56	0xbe9747db	-0.2954701
57	0xbe5fdd73	-0.2186182
58	0xbe76c589	-0.24098791
59	0xbe23b31a	-0.1598629
60	0x3e8308fe	0.25592798
61	0xbe5ef98d	-0.21774884
62	0x3e2c048a	0.16798607
63	0xbe2cc82d	-0.16873236
64	0xbe10e419	-0.14149512
65	0xbf0199a1	-0.50625044
66	0xbe763abe	-0.24045846
67	0xbf15ef87	-0.58568615
68	0xbe351a0c	-0.17685717
69	0xbea3ead3	-0.32015094
70	0xbe86adc5	-0.2630445
71	0xbe46720c	-0.19379443
72	0xbe245cec	-0.16051072
73	0xbe01c613	-0.12673216
74	0xbd86966b	-0.06571659
75	0xbdfaf045	-0.12252859
76	0xbe0b02a2	-0.13575223
77	0xbea37b77	-0.31930134
78	0xbdd9e639	-0.106396146
79	0xbe18cdb4	-0.1492222
80	0xbe289238	-0.16462028
81	0x3e660b60	0.22465277
82	0xbeac5e5b	-0.33665738
83	0x3e91ab1e	0.28450865
84	0xbe6198b9	-0.22030915
85	0xbf4667b1	-0.7750197
86	0x3d928902	0.071550384
87	0xbea2dbc4	-0.31808293
88	0xbde47fca	-0.11157186
89	0xbfac86a2	-1.3478587
90	0xbf830d42	-1.0238421
91	0xbf3d020a	-0.73831236
92	0xbf91423f	-1.1348342
93	0xbf5739c4	-0.8407252
94	0x3f2dc6b9	0.6788135
95	0xbf924a80	-1.1428986
96	0xbecc62de	-0.3991918
97	0xbf742c69	-0.95380265
98	0xbf6d2996	-0.9264158
99	0xbf2a2d9a	-0.6647583
100	0xbf89aff3	-1.075682
101	0xbee8e495	-0.45486894
102	0x3f43fdb0	0.7655897
103	0xbe4e0128	-0.20117629
104	0x3f048587	0.51766247
105	0xbde41823	-0.11137416
106	0xbe341804	-0.17587286
107	0xbec12e3a	-0.3773058
108	0xbe9805a6	-0.2969181
109	0xbe9a4f79	-0.30138758
110	0x3c003886	0.007825976
111	0xbd524e8a	-0.051344432
112	0x3e8652eb	0.26235136
113	0x3ea1cfb1	0.31603768
114	0xbdda208a	-0.106507376
115	0xbec94aab	-0.3931478
116	0xbe703761	-0.23458625
117	0xbe967ca2	-0.29391962
118	0xbe6bf4df	-0.2304263
119	0xbe5b4a8f	-0.2141516
120	0xbe9ce71a	-0.30645066
121	0xbdf28903	-0.11842539
122	0xbea3b56d	-0.31974354
123	0x3dc5b254	0.09653154
124	0xbe75a426	-0.23988399
125	0x3dd8348d	0.10556898
126	0x3dd86def	0.10567843
127	0x3cad4234	0.021149732
128	0x3d6036fb	0.054739933
129	0xbd871f1c	-0.065977305
130	0xbe6c312a	-0.2306563
131	0xbebd6abf	-0.36995503
132	0xbdc40b40	-0.09572458
133	0xbe6472db	-0.22309439
134	0xbe700498	-0.23439252
135	0xbe4d44b9	-0.20045747
136	0xbe53e233	-0.20691757
137	0xbec7cb4e	-0.39022297
138	0xbe9f44ad	-0.31107083
139	0xbeab9531	-0.33512262
140	0xbe517d7a	-0.20458022
141	0xbe344bfb	-0.17607109
142	0xbed31d86	-0.41233462
143	0xbe33858b	-0.17531411
144	0x3e1d4bd0	0.15360951
145	0x3d9aa202	0.07550432
146	0xbdd0b837	-0.10191386
147	0xbe9e9f32	-0.3098083
148	0xbdf47085	-0.11935524
149	0xbe9f8e1b	-0.31163105
150	0xbde45ed4	-0.111508995
151	0xbf58b18c	-0.84645915
152	0xbd8317a5	-0.06400994
153	0x3d904667	0.07044678
154	0xbe8f0983	-0.27936944
155	0xbab812ca	-0.0014043686
156	0xbdf2bf75	-0.11852924
157	0xbec0111d	-0.37513056
158	0xbea10577	-0.31449482
159	0xbea795bb	-0.32731423
160	0xbe0381bd	-0.1284246
161	0xbe29674c	-0.16543311
162	0xbe3b9996	-0.18320307
163	0xbe85fa7e	-0.26167673
164	0xbe82f5ec	-0.25578249
165	0x3e10c0fc	0.14136118
166	0xbe419afa	-0.18906775
167	0x3eb65538	0.35611892
168	0xbe2d6de6	-0.16936454
169	0xbe6d5687	-0.23177539
170	0xbec8f369	-0.39248207
171	0xbd338e4e	-0.043836884
172	0xbf29c4aa	-0.6631571
173	0xbdbc7d27	-0.092035584
174	0xbe8060e6	-0.25073928
175	0x3cbbae5a	0.022910286
176	0x3da3cbc3	0.07997849
177	0xbdc13784	-0.09434417
178	0x3c630685	0.013856535
179	0xbcf59a64	-0.029980846
180	0xbe149b6d	-0.14512415
181	0xbe8fdc27	-0.2809765
182	0xbe40a082	-0.18811229
183	0xbdfd1cf0	-0.12359035
184	0xbc4157cc	-0.011800718
185	0xbe25159d	-0.16121526
186	0x3ddc17eb	0.107467495
187	0xbe84893a	-0.25885946
188	0x3e43a435	0.19105609
189	0xbd5e9b95	-0.054347593
190	0xbf5977f8	-0.8494868
191	0x3e535a5b	0.20639937
192	0xbef2dc4c	-0.47433698
193	0x3d8f4b56	0.06996791
194	0xbf949222	-1.1607096
195	0xbf83fab8	-1.0310888
196	0xbf40e0b3	-0.75342864
197	0xbf841928	-1.0320177
198	0xbf4f2968	-0.80922556
199	0x3f66b3fe	0.90118396
200	0xbfa57a01	-1.2927858
201	0xbec026e8	-0.37529683
202	0xbf520a35	-0.82046825
203	0xbf34b7fd	-0.70593244
204	0xbf1a7cf5	-0.6034692
205	0xbf5be3b7	-0.8589434
206	0xbf1d41eb	-0.6142871
207	0x3f817c56	1.0116069
208	0xbd645f82	-0.055755146
209	0x3f311068	0.6916566
210	0xbe566b53	-0.20939378
211	0xbdf66494	-0.120309025
212	0xbe6338d4	-0.22189647
213	0xbe8ce30f	-0.27516982
214	0xbd6a0a53	-0.057138752
215	0xbc70091e	-0.014650611
216	0x3e3f70ec	0.1869542
217	0x3ec10074	0.37695658
218	0x3ecc3e65	0.39891353
219	0xbe8280f2	-0.25489002
220	0xbea3c637	-0.31987163
221	0xbe922390	-0.28542757
222	0xbe7a8ca8	-0.24467719
223	0xbe2a1b24	-0.16611916
224	0xbe92a337	-0.28640148
225	0xbe2e7da6	-0.17040119
226	0xbc94c576	-0.018160563
227	0xbe942379	-0.28933313
228	0x3ea9e3c3	0.3318158
229	0xbe65d10c	-0.22443026
230	0x3e20ce64	0.15703732
231	0x3da2ec5a	0.07955237
232	0x3d84e142	0.06488277
233	0xbce13b71	-0.027494164
234	0xbdf8b91f	-0.12144684
235	0xbb3f8968	-0.0029226188
236	0x3d114b0b	0.035471957
237	0x3e29494b	0.16531865
238	0x3d1c466b	0.038153093
239	0x3dfa64bb	0.12226244
240	0xbd5cead8	-0.053934902
241	0x3dcefefb	0.101072274
242	0x3b0975ed	0.002097483
243	0x3ddd1700	0.107954025
244	0xbdcbeb76	-0.0995702
245	0x3d9dff3f	0.077147
246	0xbe048f3e	-0.12945268
247	0xbd46957e	-0.04848241
248	0xbd8183a4	-0.063239366
249	0xbd885fc9	-0.066588946
250	0x3d60d3ef	0.054889616
251	0x3d7dee80	0.06199503
252	0xbdb6a214	-0.08917633
253	0x3de3c2c8	0.11121136
254	0xbe65779b	-0.22408907
255	0xbe3377f8	-0.17526233

lstm_21/lstm_cell_1/bias1 f4 [128]
0	0x3e98f157	0.29871628
1	0x3ea2b9b9	0.3178232
2	0x3ea01cd2	0.31271988
3	0x3eac0739	0.3359926
4	0x3e0fd9de	0.14047953
5	0x3eaf279a	0.342099
6	0x3e91cef5	0.28478208
7	0x3e87a727	0.26494715
8	0x3ecb3c46	0.39694422
9	0x3e9b141e	0.30288786
10	0x3f016c3c	0.5055578
11	0x3e5e911a	0.2173504
12	0x3e919bd0	0.28439188
13	0x3ef5f93b	0.4804171
14	0x3ea28206	0.31739825
15	0x3dda54b9	0.10660691
16	0x3ef578e1	0.47943786
17	0x3dfb8ea9	0.1228307
18	0x3f088ab3	0.5333664
19	0x3efe5b22	0.49678904
20	0x3e4b5b5d	0.19859071
21	0x3edb3e01	0.42820743
22	0x3ede59a6	0.4342777
23	0x3d3f79cf	0.046747025
24	0x3e501212	0.20319393
25	0x3e98f1c2	0.29871947
26	0x3f33df39	0.70262486
27	0x3ebfe5a1	0.3747988
28	0x3ee01650	0.43767023
29	0x3e8592dd	0.2608861
30	0x3edbe3ea	0.42947322
31	0x3e9c7291	0.30556157
32	0x3f800000	1.0
33	0x3f800000	1.0
34	0x3f800000	1.0
35	0x3f800000	1.0
36	0x3f800000	1.0
37	0x3f800000	1.0
38	0x3f800000	1.0
39	0x3f800000	1.0
40	0x3f800000	1.0
41	0x3f800000	1.0
42	0x3f800000	1.0
43	0x3f800000	1.0
44	0x3f800000	1.0
45	0x3f800000	1.0
46	0x3f800000	1.0
47	0x3f800000	1.0
48	0x3f800000	1.0
49	0x3f800000	1.0
50	0x3f800000	1.0
51	0x3f800000	1.0
52	0x3f800000	1.0
53	0x3f800000	1.0
54	0x3f800000	1.0
55	0x3f800000	1.0
56	0x3f800000	1.0
57	0x3f800000	1.0
58	0x3f800000	1.0
59	0x3f800000	1.0
60	0x3f800000	1.0
61	0x3f800000	1.0
62	0x3f800000	1.0
63	0x3f800000	1.0
64	0x3ec760dd	0.38941088
65	0x3e3b25a8	0.18276083
66	0x3ec27d19	0.37986067
67	0x3e130344	0.14356714
68	0x3e066e6c	0.1312806
69	0x3dc3dcb0	0.09563577
70	0xbce49500	-0.02790308
71	0x3e301429	0.1719519
72	0x3e04df77	0.1297587
73	0x3e828c51	0.25497678
74	0x3df63b21	0.12022997
75	0x3ec08fb0	0.37609625
76	0x3e9f885b	0.31158718
77	0x3dc7a353	0.097479485
78	0x3e1d5d5e	0.15367648
79	0x3e1777f1	0.14791848
80	0x3d47402c	0.048645183
81	0x3ca67064	0.020317264
82	0x3e61055a	0.21974698
83	0x3d0059e2	0.03133572
84	0x3da02e9b	0.07821389
85	0x3ebad087	0.3648722
86	0x3e59a1f1	0.21253182
87	0x3ddc7722	0.1076491
88	0x3d9422d0	0.072332025
89	0x3ee21ae4	0.4416114
90	0x3dd23f81	0.10266019
91	0x3e1c6168	0.15271533
92	0x3d48c67a	0.049017407
93	0x3e7f0edf	0.24908017
94	0x3dd8a536	0.105783865
95	0x3eb83924	0.35981095
96	0x3e844931	0.2583709
97	0x3ea56615	0.32304445
98	0x3e8c17b6	0.2736184
99	0x3eba6c49	0.3641074
100	0x3e3a6940	0.18204212
101	0x3e9d554e	0.30729145
102	0x3e1c998b	0.15292947
103	0x3e7895d1	0.242759
104	0x3ec20a57	0.37898514
105	0x3ea1b069	0.31579903
106	0x3ee2c8e3	0.4429389
107	0x3eee03f1	0.46487382
108	0x3e8772fe	0.2645492
109	0x3f052b3d	0.520191
110	0x3e987133	0.29773864
111	0x3e124875	0.14285453
112	0x3ea5f76f	0.3241534
113	0x3e29bc08	0.16575634
114	0x3ef8b102	0.48572546
115	0x3ed92582	0.4241143
116	0x3e4d7c4b	0.20066945
117	0x3ec72be7	0.38900682
118	0x3ec82c47	0.3909628
119	0x3dca55b5	0.098796286
120	0x3e344e18	0.17607915
121	0x3e9bce03	0.30430612
122	0x3f4373ae	0.7634839
123	0x3ef15d24	0.47141373
124	0x3ed6bf5f	0.4194288
125	0x3e993e69	0.29930428
126	0x3ec6cf83	0.38830194
127	0x3e5615fb	0.20906822
