lstm993_ae_0801.tflite (tflite, 45120 bytes, 18 tensors)

time_distributed/bias f4 [4]
00000000: d582 653e a2cb 083d c3b6 91bc 2441 183e
0.2241319 0.033397324 -0.017787343 0.14868599

lstm_3/lstm_cell_3/bias f4 [64]
00000000: 684c e03e 9cf1 82bb c1dc 41bd d457 2e3e
00000010: 7e42 eebc a6c2 063e acf0 513e 7e9a 4cbb
00000020: a628 593e bd04 913c 0000 0000 10f2 283f
00000030: 0579 92bc 0fae 4e3e ec40 813e 2ba2 b3b9
00000040: 0000 803f 0000 803f 0000 803f 0000 803f
00000050: 0000 803f 0000 803f 0000 803f 0000 803f
00000060: 0000 803f 0000 803f 0000 803f 0000 803f
00000070: 0000 803f 0000 803f 0000 803f 0000 803f
00000080: 11de 12be acc8 c4bb a0c6 0dbd e7df dc3d
00000090: b0c8 b23d f3f1 e73d 84b9 843d 2bc8 c4bb
000000a0: 3d2a 6b3d 995d 38bd 0000 0000 135a 66be
000000b0: cd2c cbbc 2f1b b43d 2efe 883d d06f 6dbc
000000c0: d624 d33e d0f1 82bb bbad 3fbd 56c1 3a3e
000000d0: bb63 dfbc fae9 103e 4762 4d3e 0e9c 4cbb
000000e0: dddc 613e c74d 9e3c 0000 0000 0811 2d3f
000000f0: 202d 8cbc 8d36 3d3e cd7a 6d3e d68a b9b9
0.43808293 -0.0039960872 -0.047329668 0.17025691 -0.02908444 0.1316019 0.20501965 -0.0031220014
0.21206912 0.017702455 0.0 0.6599436 -0.017879972 0.20183586 0.25244844 -0.00034262365
1.0 1.0 1.0 1.0 1.0 1.0 1.0 1.0
1.0 1.0 1.0 1.0 1.0 1.0 1.0 1.0
-0.14342524 -0.0060053673 -0.03461325 0.107848935 0.08729684 0.11325445 0.06480697 -0.006005307
0.05741333 -0.045011137 0.0 -0.22495298 -0.024801636 0.08794247 0.06689106 -0.01449199
0.4123904 -0.0039961115 -0.04679654 0.18237814 -0.027269235 0.14151755 0.20057021 -0.0031220946
0.22056909 0.019324197 0.0 0.6760411 -0.017111361 0.1847784 0.23191376 -0.0003538939

lstm_2/lstm_cell_2/bias f4 [16]
00000000: 832d a93e 1b05 5bba 4a81 9a3e 6b1b 9c3e
00000010: 0000 803f 0000 803f 0000 803f 0000 803f
00000020: f469 093e 3b7f 5b3b 813c a03d 909e 1c3e
00000030: c676 943e 252e 5bba 7a74 883e 2339 9b3e
0.33042535 -0.0008354948 0.30176765 0.30489668 1.0 1.0 1.0 1.0
0.13419324 0.0033492583 0.0782404 0.15294862 0.28996867 -0.0008361063 0.26651365 0.3031703

lstm_1/lstm_cell_1/bias f4 [16]
00000000: b949 a4bc 0000 0000 06fd ecb9 8f74 cf3e
00000010: 0000 803f 0000 803f 0000 803f 0000 803f
00000020: 27e8 20bd 0000 0000 a1b5 abbc 295f 883e
00000030: e29d a5bc 0000 0000 90d9 efb9 96b2 e23e
-0.020054685 0.0 -0.00045201945 0.40518615 1.0 1.0 1.0 1.0
-0.039283898 0.0 -0.02096063 0.266351 -0.020216886 0.0 -0.0004574773 0.44276875

lstm/lstm_cell/bias f4 [64]
00000000: 2931 df3e ac95 fa3e cbbc 713f e671 c73e
00000010: ea62 293f 8815 d63e 0000 0000 26d2 163f
00000020: 51e9 72bb 396a dd3e 44c7 98bc b781 e7ba
00000030: e104 d73e e428 d03e 0000 0000 dad5 cc3e
00000040: 0000 803f 0000 803f 0000 803f 0000 803f
00000050: 0000 803f 0000 803f 0000 803f 0000 803f
00000060: 0000 803f 0000 803f 0000 803f 0000 803f
00000070: 0000 803f 0000 803f 0000 803f 0000 803f
00000080: c2b9 c43e 676b d43d 5415 8e3e fe48 9d3e
00000090: 698c 8d3e 8495 883e 0000 0000 16b1 473e
000000a0: 378e 24bd b158 bb3e d836 6dbd a73c 8cbc
000000b0: 9ab1 843e ea3e b53e 0000 0000 7eda be3e
000000c0: cb75 e53e 5772 033f ff13 653f 4be7 d63e
000000d0: 714b 173f 4eec bc3e 0000 0000 3eb4 2c3f
000000e0: 5682 68bb b2f0 db3e 83f4 93bc cd5e deba
000000f0: 7808 f63e 122b ec3e 0000 0000 f9e4 d93e
0.43592194 0.48942316 0.944287 0.38954085 0.66166556 0.41813302 0.0 0.5891441
-0.0037065337 0.43245104 -0.018649705 -0.0017662559 0.4199591 0.40656197 0.0 0.40006906
1.0 1.0 1.0 1.0 1.0 1.0 1.0 1.0
1.0 1.0 1.0 1.0 1.0 1.0 1.0 1.0
0.38422972 0.10372048 0.27750647 0.3071975 0.27646187 0.2667657 0.0 0.19501147
-0.04017469 0.36591104 -0.05791363 -0.017118765 0.2591675 0.35399562 0.0 0.3727607
0.4481643 0.51346344 0.89483637 0.41973338 0.5909949 0.36899036 0.0 0.6746253
-0.0035478077 0.42957073 -0.018060928 -0.0016965509 0.48053336 0.4612661 0.0 0.42557505

model/time_distributed/dense/MatMul f4 [4, 16]
00000000: f15c ee3d 4315 f9be 2a5e cc3e 3bb5 dc3e
00000010: d473 103e edd2 713d eb87 123b b725 2cbe
00000020: 5515 c13e 7fb8 babd 6406 00bf 4275 65bf
00000030: 48bd 25be ae3b 1e3f d32c 6f3e 9c27 f5bd
00000040: b77f 7bbf 671a 7ebe 0b3f 93be 82e0 ec3d
00000050: 4555 06bf b0ef c93e 7f02 023f a9d6 1cbe
00000060: c8f1 fc3e 4384 5bbe 47ad 06bf f2ed 34bf
00000070: f725 b63e 2dc3 0f3f 0cc1 1f3f 3786 c2be
00000080: 32a0 16bf 3e2b fbbe 1293 e0be 86b2 0e3f
00000090: d139 fe3d 3782 1bbe ffc1 663e 8505 e2be
000000a0: 8dde 1c3f 9386 1c3e 4893 a03e 2b82 043e
000000b0: de86 27be 9cfe 053f fb0f a43e 1b23 6ebe
000000c0: 68f8 9abd 23e2 c6be 22db 9fbe 7e5c 183f
000000d0: 83c9 20be 1272 b03e fcb5 0a3f 3fab eebe
000000e0: b01b 783e 8ac3 e6be 10c5 14bd b4b1 f2be
000000f0: e24e 21be e369 c03e 68d1 58be 54f9 c9bd
0.11638821 -0.48649034 0.3991559 0.43107018 0.14106685 0.059039045 0.0022358845 -0.16811262
0.37711588 -0.09117221 -0.5000975 -0.89632046 -0.16185486 0.61809814 0.23356943 -0.119704455
-0.9824175 -0.24814759 -0.28759035 0.11566259 -0.5247386 0.3944068 0.5078506 -0.15316261
0.49403214 -0.21437173 -0.5260815 -0.70675576 0.3557584 0.5615719 0.6240394 -0.37993023
-0.5883819 -0.4905643 -0.43862206 0.55741155 0.12413371 -0.15186392 0.22534941 -0.44144836
0.61277086 0.15285711 0.31362367 0.1294028 -0.16360041 0.5234163 0.32043442 -0.23255579
-0.07566911 -0.38844404 -0.31221873 0.5951613 -0.1570187 0.3446203 0.54183936 -0.46615025
0.24229312 -0.4507106 -0.036320746 -0.47401202 -0.15752748 0.37580785 -0.21173632 -0.09862009

lstm/lstm_cell/bias1 f4 [64]
00000000: 2931 df3e ac95 fa3e cbbc 713f e671 c73e
00000010: ea62 293f 8815 d63e 0000 0000 26d2 163f
00000020: 51e9 72bb 396a dd3e 44c7 98bc b781 e7ba
00000030: e104 d73e e428 d03e 0000 0000 dad5 cc3e
00000040: 0000 803f 0000 803f 0000 803f 0000 803f
00000050: 0000 803f 0000 803f 0000 803f 0000 803f
00000060: 0000 803f 0000 803f 0000 803f 0000 803f
00000070: 0000 803f 0000 803f 0000 803f 0000 803f
00000080: c2b9 c43e 676b d43d 5415 8e3e fe48 9d3e
00000090: 698c 8d3e 8495 883e 0000 0000 16b1 473e
000000a0: 378e 24bd b158 bb3e d836 6dbd a73c 8cbc
000000b0: 9ab1 843e ea3e b53e 0000 0000 7eda be3e
000000c0: cb75 e53e 5772 033f ff13 653f 4be7 d63e
000000d0: 714b 173f 4eec bc3e 0000 0000 3eb4 2c3f
000000e0: 5682 68bb b2f0 db3e 83f4 93bc cd5e deba
000000f0: 7808 f63e 122b ec3e 0000 0000 f9e4 d93e
0.43592194 0.48942316 0.944287 0.38954085 0.66166556 0.41813302 0.0 0.5891441
-0.0037065337 0.43245104 -0.018649705 -0.0017662559 0.4199591 0.40656197 0.0 0.40006906
1.0 1.0 1.0 1.0 1.0 1.0 1.0 1.0
1.0 1.0 1.0 1.0 1.0 1.0 1.0 1.0
0.38422972 0.10372048 0.27750647 0.3071975 0.27646187 0.2667657 0.0 0.19501147
-0.04017469 0.36591104 -0.05791363 -0.017118765 0.2591675 0.35399562 0.0 0.3727607
0.4481643 0.51346344 0.89483637 0.41973338 0.5909949 0.36899036 0.0 0.6746253
-0.0035478077 0.42957073 -0.018060928 -0.0016965509 0.48053336 0.4612661 0.0 0.42557505

model/lstm/while/lstm_cell/MatMul_1 f4 [64, 16]
00000000: 507a 803d f8e4 10be 5f1b 7dbe ffa8 a2bd
00000010: 04e7 34be 73be 8cbd 704a 15be aea9 31be
00000020: c20c e6bd 9110 2c3e c6c4 f63d f755 823d
00000030: a6bc 06be a9d4 8b3d f67f b93c e3e9 2b3e
00000040: d8c7 263e 4be8 c5bd 6856 8e3c bec9 ab3d
00000050: 7892 babd 9104 4f3d 5a96 473e 8c0e 2e3c
00000060: 242b 2abe bda7 2bbe 2ef8 31be ce4d 183e
00000070: d220 8ebd 62fd be3c 4aec 15be 8023 24b9
00000080: ccba abbd 9152 7bbe fff8 743e 836a 47be
00000090: 10d8 1cbd 2d29 013e a314 b2bc 6e43 d23c
000000a0: 622b 393d 905e 2e3e ef6b 12be c41d 77bc
000000b0: 00da 2a39 61fc eb3c 7adc afbd 06db 04be
000000c0: 0f7f 743e 30cf 553c ecb5 b03d 919f 2fbe
000000d0: 740e 053e 665d fbbd 60fa 0bbb fa74 31be
000000e0: c8a1 18be 6671 d73d 252c bebd 3931 823e
000000f0: 2056 ca3d 8db9 f83d 171f c73d cc37 36bd
00000100: c336 7ebe 296f 483d 3f80 4dbd 7c31 7abd
00000110: 7817 8f3d a692 0d3e 2581 853e 1049 f93c
00000120: 90bc 3cbe 6c05 7d3d eda4 063e eec1 d13d
00000130: bd87 103e 54c9 253c 398a f3bd 0874 383e
00000140: 6637 c8bd 9d37 02be 78af 80bb 1b00 0f3e
00000150: 5080 253d 8bad 16be b94c 8fbc eee5 af3e
00000160: 0a51 84be 12d7 4a3e 1e0a b7bd a933 0b3d
00000170: 3439 e13b d624 fa3c 09e1 86bd 1f40 86bd
00000180: 3a1a 403d 92b5 293e 0c73 dabc d002 8dbd
00000190: 8808 5dbc c639 f43c 2e2f b23d 6ce4 313d
000001a0: 80b2 723c aceb 0ebc 7a5e 643e 5b7a 8e3d
000001b0: eb4b 97bd 0183 a3bd d2e9 bebd 4be7 72be
000001c0: 5f61 9a3d ccf7 80be d8c0 2b3d 1698 b53d
000001d0: faaa 1f3e 7c97 0e3e 1626 23be 0593 f63c
000001e0: b50a 24bd 0087 61bd ba80 c73c 9665 3dbc
000001f0: a883 07bd 7b58 3ebe e247 f13c e394 3ebc
00000200: 3c4a 3f3e ddd8 eb3c 7310 813d 9970 143d
00000210: f0bc 123b 952a 3a3d e012 273e 2b8e 293e
00000220: 3e93 2ebd c548 d7bd 5b0b 943e 6f7b 58bd
00000230: 8c3a f8bd a61d 3c3d 44bf 683e 2592 4cbe
00000240: 7691 1abc d068 833b 14f1 353e a07d 03be
00000250: 66af eb3d d75a 643d ad13 343a acd6 5dbd
00000260: e62b f53d 6294 023e 2044 4e3e d28d 3a3d
00000270: e96c 54bd 8c9c 1e3e e689 aabc 57e3 fc3d
00000280: a722 6fbd e36e d1bd 0e94 eb3d 2eff f73d
00000290: 8039 573e ec0e 363d e8d2 2bbd 42bd 28bc
000002a0: 5b51 e33d b813 ce3d ddb7 9e3d 11ba 78bd
000002b0: 46e7 18bb 26f9 053e a4da f83d 62c6 2a3e
000002c0: c29f 3cbd a4ff 6ebd 4bf7 0fbe 909d 21be
000002d0: 794b 503e d6c6 853e 9dfe e3bc f326 27bd
000002e0: 0af1 e03d 2066 c9bc bd75 a5bd d669 283e
000002f0: a546 0ebe 5be1 3c3d 4050 04be 7185 cb3d
00000300: eb15 473e 6a9d aabe 1a49 aebc 8096 27ba
00000310: 20a8 a2ba 8f31 3ebe b024 763d 7ad5 4bbd
00000320: fe38 e53d 5cba d4bd de7f ba3d d1fa 8cbc
00000330: 7dc6 ed3d ac1e 503e d082 84bd 64d6 94be
00000340: 309d bdbd e64d cb3c ef48 d5bd 3ac0 e03d
00000350: 80f4 f83d 91ae 9fbe c1bc 03be 8351 013e
00000360: 0b66 4f3d 0a82 363e 8836 4b3d 3418 523e
00000370: 664d 81bc 9598 943e eb5f abbd a658 34bd
00000380: c1b1 7c3d aeb1 e53d 06c6 48bd eeb2 f13d
00000390: a021 a0ba 56d2 8bbd af0a ca3d f65c b93c
000003a0: ea03 8dbd de9e 8bbe 7605 94bd bde7 e7bc
000003b0: 3cd8 92be 226f 673d 0dab f33c 099f 3abc
000003c0: 284f f33d d832 b9bd 40f7 b0bb 5647 6cbd
000003d0: 7bbc be3d d96e d43d 4336 143e 962d 773e
000003e0: 285a b0bd b240 1cbe 6536 1cbe 70f1 773e
000003f0: ec19 d03d 96d8 17be c8f1 c4bd d043 5fbe
0.06273329 -0.14149845 -0.24717472 -0.0794239 -0.1766625 -0.06872263 -0.14579177 -0.17349884
-0.11232902 0.16803195 0.1204925 0.06364053 -0.13157901 0.06827671 0.022644024 0.1678844
0.16287172 -0.09663447 0.017375186 0.08388089 -0.09109968 0.050541464 0.19490948 0.010623585
-0.1661802 -0.16763206 -0.1737983 0.1487343 -0.06939854 0.023314182 -0.14640918 -0.00015653484
-0.08385238 -0.24543215 0.2392311 -0.19474225 -0.03829199 0.12613364 -0.021738356 0.025666919
0.04520739 0.1702826 -0.14298986 -0.01508278 0.00016293675 0.028806867 -0.085869744 -0.12974176
0.23876594 0.013049886 0.08628449 -0.17150714 0.12993795 -0.12273674 -0.0021358952 -0.1732978
-0.14905465 0.10519676 -0.09285764 0.2542818 0.09879708 0.12144766 0.09722727 -0.044486806
-0.24825577 0.048934136 -0.050171133 -0.06108235 0.06986898 0.13825473 0.26075092 0.030430347
-0.18431306 0.06177275 0.13148852 0.10242067 0.1411428 0.010118801 -0.11891598 0.18013012
-0.097761914 -0.12716527 -0.0039271675 0.13964884 0.04040557 -0.14714639 -0.017492639 0.3435511
-0.25843078 0.19808605 -0.089374766 0.033984814 0.006873274 0.030535143 -0.06585891 -0.06555199
0.04690001 0.1657317 -0.026666187 -0.06885302 -0.013490804 0.029812705 0.08700405 0.04343073
0.0148130655 -0.008723181 0.22301665 0.06956931 -0.07387527 -0.079839714 -0.093219414 -0.23721044
0.07538103 -0.25189054 0.041931957 0.08866899 0.15592566 0.13924974 -0.15932497 0.030099401
-0.040049274 -0.055060387 0.024353374 -0.0115598645 -0.03308454 -0.1858844 0.029453222 -0.011632177
0.18680662 0.028789932 0.063019656 0.036240194 0.0022390448 0.045450766 0.16315794 0.16558139
-0.04262089 -0.105119266 0.28914914 -0.05285209 -0.12120542 0.045926712 0.22729212 -0.19977625
-0.009434095 0.0040102974 0.17767745 -0.12840891 0.11508064 0.055750694 0.0006869387 -0.054159805
0.119712636 0.12751916 0.20143175 0.045545407 -0.051861677 0.15489405 -0.020817708 0.12348049
-0.058382656 -0.10226228 0.115028486 0.121092185 0.21018028 0.044447824 -0.041949183 -0.010299029
0.11099502 0.10062355 0.07749913 -0.06072432 -0.002333121 0.13083324 0.121510774 0.1667724
-0.046050794 -0.058349267 -0.14059179 -0.15782762 0.2034129 0.26128262 -0.02783137 -0.04080863
0.109834746 -0.02458483 -0.080790974 0.16446623 -0.13894136 0.046113353 -0.12921238 0.09937561
0.19441955 -0.33323222 -0.021275092 -0.00063929707 -0.0012409724 -0.18573593 0.06009358 -0.049764134
0.11192511 -0.10387108 0.0910642 -0.017209442 0.11610124 0.203242 -0.06470263 -0.29069817
-0.09258497 0.024817418 -0.104143016 0.10974164 0.1215601 -0.3118787 -0.12864973 0.1262875
0.050634425 0.17823043 0.049612552 0.20517045 -0.015783977 0.2902266 -0.08367904 -0.044029854
0.061692957 0.1121553 -0.049016975 0.11801706 -0.0012217052 -0.06827228 0.09865319 0.022627335
-0.06885512 -0.27269644 -0.07227604 -0.028308744 -0.286806 0.05650247 0.02974465 -0.011390456
0.11880332 -0.09042901 -0.0054005682 -0.05768522 0.093132935 0.10372705 0.14473824 0.24138483
-0.08610946 -0.15259054 -0.15255125 0.24213195 0.10161194 -0.14828715 -0.096164286 -0.21803212

model/lstm/while/lstm_cell/MatMul f4 [64, 4]
00000000: 2225 ae3e a6c1 eb3e 4e0a 303f f70f b73e
00000010: 3ad9 173f 57a6 953e 8843 3b3d 0aa8 033f
00000020: f337 313f 10e4 c63e aa49 273e 75a1 013e
00000030: 1d3d 813e 248e 3e3e 4485 2a3f 6d77 73bc
00000040: 5020 f73e 10ef 7e3e d57d 373e 7778 d3bd
00000050: 228b 073f d8ab c33e 3f19 ec3e 0a45 f73e
00000060: e5e8 90be c088 4f3d 087f e13d 8819 393d
00000070: 69d3 253e bd3a 463e 7ed3 17be 56f3 9a3e
00000080: 6d40 4a3d 754f 3fbe b60e 85bc 17e2 06bd
00000090: 63f2 973e 0ab5 293f 7daa fd3e 8321 893e
000000a0: 608c 81be f0a2 a03d 493f 9abe 465b 043e
000000b0: b2c8 333d 0f55 7a3d c1a4 a7bd 5f1c 7ebd
000000c0: 3519 0b3d 3d91 b43e 164d f23e a450 f43d
000000d0: 9ade acbc 1eaa b23e 5902 a03e b97e 7c3d
000000e0: c893 883d a846 543e b0fd 863e 20db cebc
000000f0: fa69 35b9 1a75 253f 5a3d 1b3f ea2e f63e
00000100: 6c45 713e e674 6abe 142c 71be f861 133e
00000110: 7760 84be 00b3 6ebe 00d0 213a 403c fabc
00000120: 9458 5c3e 8cc0 91bd 3cc7 cf3d b031 6e3e
00000130: c624 443e 8828 973e 400d 8f3d 50b4 273e
00000140: b06f 6fbd 8059 91bb 5ce1 5f3e f161 81be
00000150: 16d1 213e 049f 523e e007 06bd 3abe 913e
00000160: 2031 e0bc 38ac 7f3e 6ea0 16be 1ca6 af3d
00000170: 866d d6bd 2af5 813e 407b 5f3d 827b 10be
00000180: 9010 babc d8bc ed3d 70d0 443d 7a9b eebd
00000190: 7c90 d0bd 178a 18be e0df 01bc be26 873e
000001a0: beda 3c3e e4dd 243e e4a0 7bbe 4366 92be
000001b0: 5042 4ebe 70cc 0e3e b88f 87bd 30f9 853e
000001c0: ee9e 7fbe 0011 d6bb bde6 26be ff30 52be
000001d0: 887b 633d 8065 f03c c5ba 32be 784b 2b3d
000001e0: 0852 973d e0fa 71be f095 bb3c aa7d 8dbe
000001f0: b435 7a3e 7375 22be 0d25 1abe 226f 8b3e
00000200: 7f27 ef3e 6d7b 283f 7409 993e 9de9 e13b
00000210: 8c65 f43e dce5 5ebe 8b8a 59be 9f0a 8b3d
00000220: 7758 f33d 2a5d ec3c 7828 dabe a66a e33c
00000230: 3225 f03e 7944 1a3f 904e 433f e2ce 843d
00000240: 379e 0e3e 033b 1fbe 036f d0be e001 3d3e
00000250: 652f b53e 4877 1d3f 3a66 033f 4644 733e
00000260: 8070 c63c a005 963c 342e 8abe 86d8 05be
00000270: 12c8 ec3e 4933 6ebe 3048 a4be 89d4 d03c
00000280: ca86 07be cee6 1cbe 398f 303e cfe0 8fbd
00000290: 3482 fc3e a635 163f 4283 fa3e f83b 9d3e
000002a0: 4222 96be 24cd a33c f552 d6bc 6fa2 173e
000002b0: 2e97 cc3d 9b74 1abe 0af6 66be 7e17 d4bc
000002c0: 6b81 1c3e 1d71 293f be66 203f 8fce 76bd
000002d0: 8d24 f63e 2347 c03e d005 2a3f d562 093e
000002e0: 56e9 84be 6654 72be 5a55 f6bd 2228 eabd
000002f0: b094 fa3e dfd7 953e 67bb 0a3f 1498 913e
00000300: de74 f23e 716b 4f3f 0dec fc3e c2df d33e
00000310: e40f f03e 3bf7 b43e f0cf 833e 8f53 1b3f
00000320: 5024 f73e f8fd 9dbc 77a6 1a3f e2ff 343e
00000330: 3e3d b13e 8d46 0e3f 220b ff3e ed76 713e
00000340: f84e a63e d823 8ebd 6f5f 09be 0546 bebd
00000350: 3ad3 213d 5b8b 0b3e 2bfc 793e 1697 563e
00000360: f0ad ba3d 8832 2a3d 4536 8abe be3e 8e3e
00000370: dbda 223f f038 1c3e cb8e 943e 18f7 e33e
00000380: e92f 38be 8010 0fbe c82f db3d 454e 073e
00000390: 95ea 023e b196 0a3f 4f7a da3e a712 b23e
000003a0: 022e f8bd 9519 02bd 9fe8 663d 928d 313e
000003b0: 1e5b 7d3e 180f 633e d3d3 56be 2739 8ebd
000003c0: fc16 f93e 8566 b83e 2f3a 333f 4d9e 0c3f
000003d0: 584d d73e 32a3 803e 5504 f53e 3839 e83e
000003e0: 0c64 1f3e fa68 babd d0c4 9a3d 8c70 613e
000003f0: e7c9 063f b926 293f 7d54 503f 9b6d ec3e
0.34012705 0.4604618 0.68765724 0.35754368 0.59315836 0.2922847 0.0457187 0.5142828
0.69225997 0.38845873 0.16336694 0.12659247 0.25241938 0.1860891 0.666096 -0.014860016
0.4826684 0.24895883 0.17919095 -0.10325711 0.52946675 0.38217044 0.4611301 0.4829486
-0.28302684 0.050667524 0.110105574 0.045190364 0.16193928 0.19358344 -0.14826772 0.30263776
0.049377847 -0.18682654 -0.016242366 -0.03293046 0.29677114 0.6629187 0.49544135 0.2678338
-0.2530241 0.07843578 -0.30126408 0.12925443 0.04389257 0.061116274 -0.08185721 -0.062038776
0.033959586 0.35267058 0.47324437 0.119294435 -0.021102238 0.34895414 0.3125179 0.06164429
0.06668812 0.20730078 0.26365423 -0.025250971 -0.00017300984 0.6463181 0.6064049 0.48082668
0.23561639 -0.22896156 -0.2355197 0.14392841 -0.25854847 -0.2331047 0.0006172657 -0.030546308
0.21518165 -0.071168035 0.10145423 0.23261142 0.19154653 0.2952311 0.06984949 0.16377378
-0.058456123 -0.004435718 0.21863312 -0.25270036 0.15802416 0.20568472 -0.032722354 0.28465444
-0.027367175 0.2496804 -0.14709637 0.08576605 -0.10470109 0.25382358 0.0545609 -0.14109614
-0.022712976 0.11608285 0.048050344 -0.116507486 -0.10183808 -0.14896427 -0.007926911 0.26396745
0.18442819 0.1610027 -0.24573094 -0.28593644 -0.20142484 0.13945174 -0.06619209 0.26166677
-0.2496297 -0.0065327883 -0.16298957 -0.20526503 0.05553773 0.029345274 -0.1745406 0.04182002
0.07388693 -0.23630857 0.022898644 -0.27634937 0.24434549 -0.15865116 -0.15053196 0.27233225
0.4670982 0.6581333 0.29890025 0.006894304 0.47733724 -0.21767372 -0.21244256 0.06789135
0.11882108 0.028853018 -0.42609 0.027760815 0.46903378 0.6026073 0.7629175 0.06484772
0.13927542 -0.15549855 -0.40709695 0.18457747 0.35387722 0.61510134 0.5132786 0.23756513
0.024223566 0.01831323 -0.26988375 -0.13070878 0.46246392 -0.23261751 -0.32086325 0.02549197
-0.13235012 -0.1532242 0.17242135 -0.07025301 0.49318087 0.5867561 0.48928267 0.30709815
-0.29323012 0.01999528 -0.026162604 0.14808057 0.09989773 -0.15083544 -0.22554794 -0.025890108
0.15283744 0.6618822 0.6265677 -0.060255583 0.4807476 0.37554273 0.6641512 0.13416608
-0.2595927 -0.23665008 -0.12027998 -0.11433436 0.48941565 0.2926626 0.54192203 0.2843634
0.47354788 0.8102332 0.49398842 0.4138165 0.46887124 0.35344872 0.2574458 0.60674375
0.48269892 -0.01928614 0.60410255 0.17675737 0.34617037 0.555764 0.4981318 0.23580523
0.32482123 -0.069404304 -0.13415311 -0.09290699 0.039508082 0.13627379 0.244126 0.20956072
0.09115207 0.041552097 -0.2699453 0.27782243 0.63615197 0.15256095 0.29015192 0.44524455
-0.17987026 -0.13971138 0.10702473 0.13213451 0.12784798 0.54136187 0.4267144 0.34779856
-0.1211815 -0.03176268 0.05637419 0.17339161 0.2474179 0.22173727 -0.20979242 -0.06944495
0.48650348 0.36015716 0.70010656 0.5492905 0.42051196 0.25124508 0.47854868 0.45356154
0.15565509 -0.09102054 0.0755707 0.2201559 0.5265183 0.6607471 0.8137892 0.46177372

lstm_1/lstm_cell_1/bias1 f4 [16]
00000000: b949 a4bc 0000 0000 06fd ecb9 8f74 cf3e
00000010: 0000 803f 0000 803f 0000 803f 0000 803f
00000020: 27e8 20bd 0000 0000 a1b5 abbc 295f 883e
00000030: e29d a5bc 0000 0000 90d9 efb9 96b2 e23e
-0.020054685 0.0 -0.00045201945 0.40518615 1.0 1.0 1.0 1.0
-0.039283898 0.0 -0.02096063 0.266351 -0.020216886 0.0 -0.0004574773 0.44276875

model/lstm_1/while/lstm_cell_1/MatMul_1 f4 [16, 4]
00000000: 9823 4a3e 1eca d43d 59ff ebbd 41f1 223e
00000010: e681 e7bc ec8f 74be 66f6 b5be 1c0e d13d
00000020: 9bba 8d3d 55d5 0abd 0d3e 36be 51ef 65bd
00000030: 5494 2cbe d928 f5be 3025 a7be 8e64 cebd
00000040: 1f34 3dbe 35b1 f73d f87e 403c ccd8 99be
00000050: 742e d53d 0339 33bd c5f5 c7bd c92e 063e
00000060: 05c9 1abe d03f a93c fc4d 3c3e 5235 72bc
00000070: ebf1 3dbb a5ba aabe 9a00 b6bc c269 b5be
00000080: 7f61 11bf fac5 233e 43f4 74be 6f75 dd3e
00000090: 0fb1 b6be fd76 df3d fbaf 96be f2cc f53d
000000a0: 5f06 ab3e 40e1 53bc 2fdd ab3e 2e16 d13e
000000b0: e9b7 863c 8ec1 8abe 9b5c 7a3d ce55 f73e
000000c0: 8291 40bd 2d0e 07bf 5636 103e 2925 eb3c
000000d0: 4058 abbe 7864 eabd 036e de3e e4d7 653e
000000e0: 1e42 0c3e 560f c9be e46e 66bd 67ae 063e
000000f0: 49b4 cf3e 0cf0 043e 447f e8be 4d6a 5f3e
0.1974014 0.10390113 -0.11523313 0.15912344 -0.028260183 -0.23883027 -0.3553955 0.10207769
0.06920358 -0.033894856 -0.17797108 -0.056136433 -0.16853458 -0.47882727 -0.3264556 -0.10077773
-0.18476914 0.120943464 0.011749022 -0.30048215 0.10409251 -0.043755542 -0.09763674 0.13103785
-0.15115745 0.020660311 0.18389124 -0.01478322 -0.0028983306 -0.33345523 -0.022217084 -0.3543225
-0.5678939 0.15993491 -0.23921303 0.43253657 -0.3568196 0.10911367 -0.29431137 0.12001981
0.33403298 -0.012932122 0.33567187 0.40837234 0.016445117 -0.27100796 0.06112347 0.4830765
-0.047013767 -0.52756006 0.14083228 0.028704243 -0.33465767 -0.11444944 0.43443307 0.22445637
0.13697097 -0.39269513 -0.056258097 0.13152467 0.40567234 0.12982196 -0.45409596 0.21817894

model/lstm_1/while/lstm_cell_1/MatMul f4 [16, 16]
00000000: 202f 43be e027 fb3d 28bd fbbd 92b3 bc3e
00000010: a10d a63e 3fff ecbd 180e d6be b41c f9bd
00000020: bcd8 2cbe 235c bb3d cc83 9abd 5cc3 27be
00000030: e1a5 8c3e 75f8 aa3d aa1a 2b3e bb78 8ebd
00000040: 6020 e03c b5b7 cb3e 3074 ff3c 3634 333e
00000050: ac06 a5bd 5932 c4be 9482 61be 2006 39be
00000060: 8414 2cbe f077 98be 631c c23e 8e33 16be
00000070: ac18 bbbd ad91 d3be bfbb 853e f636 b4be
00000080: 9e3f 133e 21fb 893d 2213 053e 7d47 9d3e
00000090: da6a 2cbe 1b51 953e 86de 2c3e 770e b53e
000000a0: 38b5 39bd 9965 5abd 708b 10bd 7136 4bbe
000000b0: 1871 dabd 9aeb 8cbe 903b b2be 67a3 b7be
000000c0: 85a4 ea3e c15f fabe 298b 2abf 41f6 7a3e
000000d0: 4118 07be f6e8 613f a16d bc3e e336 09bf
000000e0: c073 5fbd e87e 693f 3712 a6be a9ba 893e
000000f0: 84f5 7e3f a7f0 433f 9ad6 55be 42d3 443e
00000100: 10e5 4abe dd02 c43e 66d5 c3be e81b 893d
00000110: 872e ce3e d3c6 62be b096 ebbc 75a7 b13e
00000120: c43e 923d e08c 87bd 5409 c23d 5da4 ad3e
00000130: 8c5c 8f3d baaa 2b3e 7e2a 333e 2dd9 9abe
00000140: f5ab 903e 46c1 083e faed 18be fa67 6b3e
00000150: 4c03 9abe 085f 3dbd b06b 84bc 1932 40be
00000160: 4e51 c1be adc7 9e3e 2b1a 6bbe 3eef 393e
00000170: 209f 1b3d 7a57 1fbe 6750 bf3e de79 9cbe
00000180: bcef 99bd 04ae cabd c50f b43e ced2 c9be
00000190: 836c d23e 343a b43d 20b7 fcbd 2c40 1cbe
000001a0: 73af 78be b273 603e e222 433e 588f 0b3d
000001b0: 8448 c9bd 574b 5bbe e085 02bc 9e7b d0be
000001c0: 9c64 d73d 9889 44bd 7cbe 803d 0967 da3e
000001d0: e0d9 203d 07fc ad3e d637 9fbe 7878 a4bd
000001e0: 1636 563e 07fa b1be 34d0 83be d621 25be
000001f0: 4100 883e 2f10 4abe b28c 5b3e c093 d53b
00000200: f24a 17bd 36a6 bcbe 2b05 0a3e 70d2 983e
00000210: 504c 8cbe c316 553e a711 7abe aab4 4bbe
00000220: 74cf 003e 2280 03be 799c 433e c9ca 9e3e
00000230: 97d9 873e db00 a1be 1674 723e 0e38 96be
00000240: 3f05 ce3e 7079 2c3d c44a f6bd 529e 463e
00000250: a9aa a13e 00b2 e3bd e63b 733e 9071 05bd
00000260: 4135 b23e d005 a5be 3478 17be 21e4 69be
00000270: f77b 99be c298 52be 7ab3 573e 1868 d0bd
00000280: e070 c33d c494 e9bd 4d64 ba3e 4af0 123c
00000290: 3a48 bfbe 7db7 9abe fda3 ca3e e4c0 42be
000002a0: 9b7d 6abe 92e7 d0bc 0f31 af3d 7c79 83bd
000002b0: 7f5c 92be 7cb4 cc3d d786 a03e 188f a23c
000002c0: 472f 303f e4b9 5bbf 3ec1 8abf 77a0 de3e
000002d0: 3795 76bf a9ac 6c3e 2b4a 923e 9a27 33bf
000002e0: 4a87 d9bd 453d 313f 9823 98be cc04 893c
000002f0: 350f 883e a900 213f 20ec 97bc a5dc f03e
00000300: b48e 583e b2fa d8be 91ec a63e 38b9 0dbe
00000310: 162d 74be ffc2 453e cc2c b8bd 3e0f 1cbe
00000320: a148 ac3e 2036 59be df32 b5be 180b eabd
00000330: a260 a43e 24f6 383d 7b35 b1be 93f0 24be
00000340: 2ce8 c8bd 829c 463e 9398 803e c4df dc3d
00000350: b0dc 8ebc 9ebf 73be 80e6 683b c43b bfbd
00000360: eef4 603e a0f9 6c3d e1ee ac3e f03c 10bd
00000370: 8350 d13e 8833 40be e4c5 fe3d 94e0 fb3d
00000380: 5399 17bd 739d 863e b6dc 073e 7eb3 1ebe
00000390: 78d9 61bd ecd1 f83d 792b a33e ee1b 223e
000003a0: bd78 d93e 55bb bebd de80 893c 3629 0dbe
000003b0: 7c21 a2be 48f3 213e e234 b3be 92b1 a7be
000003c0: 435d 333f 87cb 1e3e 2f9d 6bbf d2e4 193f
000003d0: 7076 18be 1b63 273f 3a34 98be 6356 91bd
000003e0: 6a69 51bc 6bee 543e f91a 96be 1921 4d3d
000003f0: e686 2b3f 26f2 073f 8d6f 51be e16f ec3e
-0.19060946 0.12263465 -0.12291938 0.3685575 0.32432273 -0.11572122 -0.41807628 -0.12163678
-0.16879553 0.09148433 -0.075446695 -0.16383117 0.27470306 0.08348171 0.1670939 -0.06956621
0.027359188 0.39788595 0.031183332 0.17500386 -0.08057913 -0.38319662 -0.22022468 -0.18068743
-0.16804701 -0.29779005 0.37912282 -0.14668104 -0.09135565 -0.4132208 0.261198 -0.35198182
0.14379737 0.06737352 0.1299558 0.30718604 -0.16837636 0.2916344 0.16881761 0.35362598
-0.04533884 -0.053319547 -0.035289228 -0.19844986 -0.10666102 -0.275235 -0.34811068 -0.35866854
0.45828643 -0.4890118 -0.6661859 0.24508001 -0.13192846 0.88246095 0.3680239 -0.53599375
-0.054553747 0.9120927 -0.32435772 0.26900223 0.9959338 0.7653908 -0.20882645 0.19221213
-0.19813943 0.38283435 -0.38248748 0.06694776 0.40269873 -0.22146158 -0.028758377 0.34698072
0.07140878 -0.06618667 0.094744354 0.33914462 0.07000074 0.16764346 0.17496678 -0.30243817
0.28256193 0.13354978 -0.14934531 0.22988883 -0.3008064 -0.046233207 -0.01616463 -0.1876911
-0.37757343 0.31011716 -0.22959201 0.1815767 0.03799355 -0.15560713 0.3736603 -0.30561727
-0.07516429 -0.09896472 0.3516828 -0.39418644 0.41098413 0.08800164 -0.12339616 -0.15258855
-0.24285679 0.21919134 0.19056275 0.03407225 -0.098282844 -0.21415459 -0.007966489 -0.40719312
0.105172366 -0.047982782 0.06286332 0.42656735 0.03927028 0.33981344 -0.31097287 -0.0803079
0.2091907 -0.34761068 -0.25744784 -0.16126189 0.26562694 -0.19732736 0.2144039 0.0065178573
-0.036936708 -0.3684556 0.13478534 0.2984805 -0.27401972 0.20809464 -0.24420796 -0.19893137
0.12579137 -0.12841848 0.19102658 0.31014088 0.26533195 -0.31445965 0.23677096 -0.2933964
0.40238377 0.042108 -0.12025979 0.19396332 0.31575516 -0.11117935 0.23753318 -0.032579005
0.34806255 -0.32230997 -0.14791948 -0.2284093 -0.2997739 -0.20566085 0.21064559 -0.10176104
0.095430136 -0.11405328 0.36404648 0.008968422 -0.37359792 -0.30218115 0.39578238 -0.19018894
-0.22899477 -0.025501046 0.08554279 -0.06419656 -0.28586194 0.09995362 0.31352875 0.019843623
0.6882214 -0.8583052 -1.0840223 0.434818 -0.96321434 0.2311274 0.2857221 -0.699823
-0.106215075 0.69234115 -0.29714656 0.01672592 0.26574102 0.6289163 -0.01854521 0.47043338
0.21148187 -0.42378765 0.3260236 -0.13840187 -0.23845324 0.19312666 -0.08992919 -0.1524019
0.3364916 -0.21212053 -0.35390374 -0.11427897 0.32104975 0.045156613 -0.34611115 -0.16107397
-0.09809908 0.1939564 0.25116405 0.107848674 -0.017439216 -0.23803565 0.003553778 -0.09337571
0.21968433 0.05785525 0.33776 -0.035214365 0.40881738 -0.18769658 0.124400884 0.12298694
-0.037011456 0.26292 0.13267788 -0.15498158 -0.055139035 0.121494144 0.31869105 0.15830967
0.42474928 -0.093130745 0.016785081 -0.13785252 -0.31666172 0.1581546 -0.35001284 -0.32752663
0.7006418 0.15507327 -0.9203672 0.6011478 -0.1488893 0.653856 -0.29727346 -0.07096555
-0.01278148 0.20794074 -0.29317454 0.050080393 0.67002714 0.53103864 -0.2045271 0.46179107

lstm_2/lstm_cell_2/bias1 f4 [16]
00000000: 832d a93e 1b05 5bba 4a81 9a3e 6b1b 9c3e
00000010: 0000 803f 0000 803f 0000 803f 0000 803f
00000020: f469 093e 3b7f 5b3b 813c a03d 909e 1c3e
00000030: c676 943e 252e 5bba 7a74 883e 2339 9b3e
0.33042535 -0.0008354948 0.30176765 0.30489668 1.0 1.0 1.0 1.0
0.13419324 0.0033492583 0.0782404 0.15294862 0.28996867 -0.0008361063 0.26651365 0.3031703

model/lstm_2/while/lstm_cell_2/MatMul_1 f4 [16, 4]
00000000: 207e abbe 0137 b4bc 6d65 6cbd 0d7f 6ebe
00000010: 54e1 fdbc 3a7a 043f 38b8 3a3d 145c cfbe
00000020: 6ef0 1f3e ea26 4cbe 21a1 8b3c 6694 a0be
00000030: 2e47 19bf e805 d23d c37e 3bbe 6ea5 863e
00000040: f639 b13e 4654 12be 364d 593d 7482 81bc
00000050: 18ef 85be 3d83 e9be 1d85 8ebd ce9d 24be
00000060: 5669 133d dd47 b6be 68ed 6e3e 496e 033d
00000070: 306c 363e e9f4 8c3e ec69 8bbe 4e89 4d3e
00000080: 06a4 783d bfd2 1c3e 6866 4e3e 0788 88bd
00000090: eb7c 25be 86ff 993e 6780 793e 7a0a 923e
000000a0: a42d 8a3d 3ed0 a33e e74e 013d b2c8 0cbc
000000b0: dd4d 44be ba62 6d3c b84b aabe 9ede 05bf
000000c0: 3a3e adbd 22b8 1bbe e9ad 70be 2936 d93e
000000d0: a83c 443e 224e c63d 11a9 8fbe be21 afbc
000000e0: 497c cc3e 9f21 1bbd 94be e5be 8239 ab3d
000000f0: d058 b93d 5b30 edbb e6e0 063f 9026 c4bb
-0.33494663 -0.021998884 -0.057713915 -0.23290654 -0.030991234 0.51749 0.04558584 -0.40499938
0.1561906 -0.1993672 0.017044606 -0.3136322 -0.59874237 0.10255033 -0.18310075 0.26298088
0.34614533 -0.1428996 0.05305215 -0.015809275 -0.26158977 -0.4560794 -0.06958983 -0.16075823
0.035989128 -0.35601702 0.23332751 0.032087598 0.17814708 0.27530602 -0.2722925 0.20071909
0.0607033 0.15314768 0.20156252 -0.0666657 -0.16160934 0.3007776 0.24365388 0.28523618
0.067469865 0.31994814 0.031569388 -0.008592771 -0.19170327 0.01448887 -0.33260894 -0.5229281
-0.084591344 -0.1520696 -0.23503841 0.42424133 0.19163764 0.096828714 -0.28058675 -0.021378394
0.39938572 -0.03787386 -0.44871962 0.08360578 0.09050143 -0.0072384304 0.5268692 -0.0059860423

model/lstm_2/while/lstm_cell_2/MatMul f4 [16, 4]
00000000: 7745 9ebe dc54 74be 0287 70be 356b 873f
00000010: a82f 84be 5a5a c2be 6e7f ebbe e281 a1be
00000020: 8017 64be c02c 283d ed20 963c 21d7 5b3e
00000030: 7c75 82be 24ef 7dbe 4942 f4bd 9d72 0e3f
00000040: 40e6 ea3c 8673 8abe 4c9f b2bd da5e b3be
00000050: 84fb e73e e895 17be a022 5cbe a08b 35bd
00000060: de59 ffbe 92bd a1be b3a7 f0be a09e df3c
00000070: d32d e0be 34f7 063e 78a0 4abd 3a46 69be
00000080: 66cb d2be a008 863d 8ee2 39bd 3bdd 263f
00000090: da93 ce3e 04fd 063f 47ca 69be 97fc 04bf
000000a0: 3a93 80be de50 abbe a3ad 49be 62cc 1a3f
000000b0: 836e cd3d bc96 a9be 1e48 56be ee58 7b3e
000000c0: 6099 fdbe 31c2 a9be fc3e 8bbe b48a a4be
000000d0: 113c d3be 99c9 03bf 30b7 333d f7e8 92be
000000e0: e2a1 a2be 4042 ddbe c534 443e b209 8fbd
000000f0: 8bf3 a6be e0a3 d7bc 5d56 f43e 0786 083f
-0.30912372 -0.23860496 -0.23489001 1.0579592 -0.2581761 -0.37959558 -0.4599566 -0.31544405
-0.2227459 0.041058302 0.018326247 0.21468784 -0.25480258 -0.24798256 -0.119267054 0.55643636
0.028674245 -0.27041262 -0.0872179 -0.35033303 0.4530908 -0.14803278 -0.21497583 -0.04432261
-0.4987325 -0.31589943 -0.47002944 0.027297318 -0.4378496 0.13180238 -0.04946944 -0.22780696
-0.41170806 0.06544614 -0.045382075 0.6518132 0.40347177 0.5272982 -0.22831069 -0.5194792
-0.25112325 -0.33460134 -0.19695143 0.60468113 0.10030844 -0.33122814 -0.20925948 0.24545643
-0.49531078 -0.3315597 -0.2719649 -0.32137072 -0.41256765 -0.5147949 0.043875873 -0.28693363
-0.31764132 -0.43214607 0.19160755 -0.06984271 -0.32607684 -0.026323259 0.4772214 0.5332951

lstm_3/lstm_cell_3/bias1 f4 [64]
00000000: 684c e03e 9cf1 82bb c1dc 41bd d457 2e3e
00000010: 7e42 eebc a6c2 063e acf0 513e 7e9a 4cbb
00000020: a628 593e bd04 913c 0000 0000 10f2 283f
00000030: 0579 92bc 0fae 4e3e ec40 813e 2ba2 b3b9
00000040: 0000 803f 0000 803f 0000 803f 0000 803f
00000050: 0000 803f 0000 803f 0000 803f 0000 803f
00000060: 0000 803f 0000 803f 0000 803f 0000 803f
00000070: 0000 803f 0000 803f 0000 803f 0000 803f
00000080: 11de 12be acc8 c4bb a0c6 0dbd e7df dc3d
00000090: b0c8 b23d f3f1 e73d 84b9 843d 2bc8 c4bb
000000a0: 3d2a 6b3d 995d 38bd 0000 0000 135a 66be
000000b0: cd2c cbbc 2f1b b43d 2efe 883d d06f 6dbc
000000c0: d624 d33e d0f1 82bb bbad 3fbd 56c1 3a3e
000000d0: bb63 dfbc fae9 103e 4762 4d3e 0e9c 4cbb
000000e0: dddc 613e c74d 9e3c 0000 0000 0811 2d3f
000000f0: 202d 8cbc 8d36 3d3e cd7a 6d3e d68a b9b9
0.43808293 -0.0039960872 -0.047329668 0.17025691 -0.02908444 0.1316019 0.20501965 -0.0031220014
0.21206912 0.017702455 0.0 0.6599436 -0.017879972 0.20183586 0.25244844 -0.00034262365
1.0 1.0 1.0 1.0 1.0 1.0 1.0 1.0
1.0 1.0 1.0 1.0 1.0 1.0 1.0 1.0
-0.14342524 -0.0060053673 -0.03461325 0.107848935 0.08729684 0.11325445 0.06480697 -0.006005307
0.05741333 -0.045011137 0.0 -0.22495298 -0.024801636 0.08794247 0.06689106 -0.01449199
0.4123904 -0.0039961115 -0.04679654 0.18237814 -0.027269235 0.14151755 0.20057021 -0.0031220946
0.22056909 0.019324197 0.0 0.6760411 -0.017111361 0.1847784 0.23191376 -0.0003538939

model/lstm_3/while/lstm_cell_3/MatMul_1 f4 [64, 16]
00000000: 10f7 fd3d 772e 2a3e c21b 88bc 5094 393d
00000010: 5ee5 d4bd 0059 7e3b 954b ad3d b207 13be
00000020: 496a 1a3d 164f 03bd af48 89be 009f 94bd
00000030: 9c74 8cbc 9047 b63d 8ef7 f23d dce3 293c
00000040: 1194 0bbb 5f27 e13b 4cf0 3f3e 75a9 88bd
00000050: 5204 4dbe 9d88 c13d 9ab8 dcbd 74ea b23c
00000060: c0ef 913d ff85 c9bc 07da 5fbe de7f 26be
00000070: e2e7 07be 0627 5fbb 7ede bd3d 5178 2d3e
00000080: 12a0 5fbe c96b f4bc 4d79 1d3d c40b 163e
00000090: b559 3c3e 586f 1fbe 7181 96bd aa38 c63d
000000a0: 0a3d 1a3d 9d22 27bc 7d23 05be 0f8a 9b3d
000000b0: 6cd9 06be 9843 733d 78c1 25be 98d5 613d
000000c0: 5ef2 90be 1c1e 8cbe 68af 373e fec6 3cbe
000000d0: 0137 5ebe e127 f7bc a000 073d 66ab e33d
000000e0: f638 213e 1c22 69bd fad1 843d 7888 4bbc
000000f0: b4ca c73c 0413 06be d381 b1bc d38a 813e
00000100: 07b0 59bd bb5c 403e a36f 283e 4a3e 2a3d
00000110: 7dba be3d 0b27 44be ce0a bebc 8187 87bb
00000120: 0f81 033e 0454 adbd cabb e53d 43f8 3dbd
00000130: 9218 8dbd 783c 2abc 086f 413e d961 ae3d
00000140: 77f8 2abe a8c5 1abb 7267 ce3c f4a6 5d3b
00000150: 4821 ba3d aa88 423e ce7d e0bd ca11 5fbe
00000160: 8924 1bbd 1b92 803d 5257 4a3c c9bf 303d
00000170: 0532 84bd ec88 4dbe f6f8 573c 776f 4abd
00000180: 9e57 393d 6209 dbbd 8681 a6bd 5522 88bd
00000190: 3919 94bb 164b 09bd ebff ad3d 5e64 92bd
000001a0: 19b2 303d 378c d73d 0453 19be 4459 1ebe
000001b0: 83a6 833e e14e d9bd c084 43bc ed55 953e
000001c0: 7cd0 14bd 6839 be3c 9b44 5dbe c19b fa3d
000001d0: eda7 fabd ebce ba3d 1e4b 333e 8cdd 023e
000001e0: c313 11be 1634 333e 3d76 cd3d 9e91 91bd
000001f0: 1808 21be 4779 e4bd 01b9 243e 0f31 53bc
00000200: 58d5 88bd 8dde fe3d 5300 cdbd 5559 2e3d
00000210: 61b6 643d cadb a33c efe9 bd3d d89b d63d
00000220: 5fd6 863d 042c 6a3d 66cc e13d 2c66 103e
00000230: c454 b2bc b117 793d 72c7 fc3d 7562 9f3c
00000240: fe1a c3be 2a6d 75bd fc36 ce3b 4e13 fd3d
00000250: 10b1 c8bc 48ca 3fbc 6892 9dbd 0c08 ebbd
00000260: 1a30 8e3c 25f5 07be 305c b7bc 00c0 c335
00000270: f28c c13c 048a 4b3e 4f8c 683d 695e e83d
00000280: d8a3 413e 6e04 9d3e 0d5d c7bd 1fee 85be
00000290: 4ca5 dfbb 3a5c 823d b0e8 45bd aa26 a8bd
000002a0: 7129 03bd 6cd4 f6bc 5639 3e3d 1b69 0bbd
000002b0: 4c21 e8ba 2aeb eb3c 2f41 6abe 7436 193d
000002c0: 966d 313e 3683 8e3d 7df7 0a3e f62d 853e
000002d0: 9cc8 37bd ef20 d7bd 3071 99be 935a 1bbe
000002e0: 5a5e eb3d 12a0 a43e 5a0e a73c 0846 c2bd
000002f0: a0e6 36be abc4 4fbe 40ef 063c 3105 693d
00000300: a9dd 83bd 160c 303d 05b8 783c 4c22 c8bb
00000310: e7f8 a3bd 304b e73c 41a0 d83c 5cbc b83d
00000320: dd98 88be f2a7 c53c d3bb a9bd a2d7 32be
00000330: 99db 7a3d d2a5 27be be7f 2b3d d664 1dbe
00000340: 0c6f 51bb 363e 82bd d91a 20be cc1b 4cbe
00000350: 5d24 693d 0cad 103c 6714 96bc c833 fb3c
00000360: baa3 863d 92a7 97bd 5025 f8bd 461e 433e
00000370: 1bd5 31be d60d 943c 437a 063e f845 1ebe
00000380: 4f29 d7bd 7664 87bd caf2 12bd b15e 0fbe
00000390: 1951 503e 70f8 94bc b853 b9bc f209 81bc
000003a0: ba18 0fbe c442 b53d 3684 b9bd c597 c03d
000003b0: 9333 803d 5360 6abd b3cc 9c3e 7a7d 893d
000003c0: 8280 2bbc 659a c83c 37a6 a3bb 8cf6 5dbc
000003d0: b582 953c a7e2 0b3e 745a 11be 31e3 0cbe
000003e0: 8c6a 0f3e 59f9 7dbe 3891 8d3e 93ec 36be
000003f0: 18de 9d3d 2b08 74bd 4891 f2bd 9c4d fe3d
0.12400639 0.16619287 -0.016614798 0.045307457 -0.10395311 0.0038810372 0.08461682 -0.14358404
0.037699018 -0.032057844 -0.26813266 -0.07256889 -0.017145447 0.08900368 0.118636236 0.010369267
-0.0021297971 0.0068711485 0.1874401 -0.06672946 -0.2002118 0.09449885 -0.107773975 0.021840312
0.07125807 -0.024600027 -0.21860515 -0.16259715 -0.1327205 -0.003405036 0.09270953 0.16940428
-0.21838406 -0.029836552 0.03844576 0.14652926 0.18393596 -0.15569818 -0.07348908 0.096787766
0.037655868 -0.010201124 -0.13001819 0.07594692 -0.13168877 0.059390634 -0.16187084 0.05513534
-0.2830991 -0.27366722 0.17938006 -0.18435284 -0.2170067 -0.030170383 0.03295958 0.11116676
0.15744385 -0.056917295 0.06485362 -0.012422673 0.024388649 -0.13093191 -0.02166835 0.25301227
-0.05314639 0.18785374 0.16448836 0.04156331 0.093129136 -0.19155519 -0.023198511 -0.0041360264
0.128422 -0.0846329 0.112174585 -0.04637934 -0.06889452 -0.010390393 0.18890011 0.08514757
-0.16696344 -0.0023616347 0.025195811 0.0033821436 0.09088379 0.18997446 -0.10961495 -0.2178413
-0.03787664 0.062778674 0.01234992 0.04315165 -0.06454853 -0.20071763 0.0131819155 -0.049422707
0.045249574 -0.10695149 -0.081301734 -0.06647173 -0.0045196083 -0.033518873 0.08496078 -0.0714805
0.043138597 0.10524791 -0.14973074 -0.1546374 0.25712976 -0.10610748 -0.011933506 0.2916712
-0.03633164 0.023220733 -0.21608202 0.12236739 -0.122390606 0.09121498 0.17509124 0.12779826
-0.14167695 0.17500338 0.10032318 -0.071078524 -0.15725744 -0.11155944 0.16086198 -0.012890114
-0.06681317 0.12444792 -0.100098275 0.042565662 0.055837993 0.020002265 0.09273135 0.104789436
0.06583857 0.057170883 0.11025314 0.14101475 -0.021768935 0.06081361 0.12342729 0.019456128
-0.3810653 -0.05991856 0.0062931757 0.12357198 -0.024498492 -0.011705942 -0.076939404 -0.11476144
0.017356921 -0.13277109 -0.022382826 1.4584512e-06 0.023626778 0.19876868 0.056774434 0.11346132
0.18910158 0.30667442 -0.09734545 -0.26158234 -0.006825125 0.06365247 -0.04831761 -0.082104996
-0.032021943 -0.030130588 0.0464414 -0.034035783 -0.0017710119 0.028798658 -0.22876428 0.037405446
0.1732696 0.0695862 0.13570972 0.26011628 -0.04486905 -0.105043285 -0.29969168 -0.1517127
0.114926055 0.32153374 0.020392586 -0.09486014 -0.17861414 -0.20289867 0.008235753 0.056889717
-0.06438763 0.042980276 0.015180592 -0.006107604 -0.08006459 0.028234094 0.026443603 0.09020302
-0.26679125 0.024127934 -0.08287778 -0.1746507 0.06124458 -0.16371849 0.04186987 -0.15370497
-0.0031957058 -0.06359522 -0.15635242 -0.19932479 0.056919444 0.00883032 -0.018320275 0.03066434
0.06574197 -0.074050084 -0.12116492 0.19054517 -0.1736645 0.018073004 0.13132577 -0.15456378
-0.10505926 -0.06610958 -0.035876073 -0.14000966 0.20343436 -0.01818487 -0.022622928 -0.015751813
-0.13974276 0.08850625 -0.0905842 0.09403948 0.06259837 -0.05722077 0.30624923 0.06713386
-0.01046765 0.024487684 -0.0049941796 -0.013547551 0.018250803 0.1366068 -0.14194661 -0.13758542
0.14005488 -0.2480215 0.27649856 -0.17863683 0.07708377 -0.059578102 -0.118441164 0.124171466

model/lstm_3/while/lstm_cell_3/MatMul f4 [64, 4]
00000000: cdb0 213f 19c3 f33d 8610 b03e d98f d23e
00000010: 970e 8cbe 3351 6f3e 88ec 173d 3f6e 60bd
00000020: 8d2b 1ebe 59ab 0f3c 5f25 6f3e 9f1a 8bbe
00000030: d7c8 0b3e 84f1 c73d a274 363e 5537 a8bc
00000040: 1af9 9ebe 60f5 1abd 6662 07be 7add 28be
00000050: cafa b23b fae2 aabd 64ff 05be 2374 8abe
00000060: 39bc acbb 132b 75be 2cbe cf3e 9786 d6bd
00000070: f0dc 7d3e 8c84 2abe e03b 243d 8d36 2b3e
00000080: 7701 f4ba 9853 46be 8ffb 9d3e 9789 4d3e
00000090: c31b a13d 2aba 553d 0ba0 f43d b47b 033e
000000a0: a82c 1cbe cc61 ad3d b039 803e e8a3 dfbd
000000b0: efee 473f 6804 263e 07bb 693f bb68 203f
000000c0: dd57 5ebd 00eb f33d 7695 85be 43d4 3ebd
000000d0: c1e5 0bbd dacc 96bd b1a8 ee3e 1bb8 063e
000000e0: 84fc cd3e 95ce 08be c329 d23e ba16 c33e
000000f0: ff97 6e3d fea2 a0bd 9cd4 743e 5c81 efbd
00000100: 8070 823d 48bf 7d3d c072 c53b 8800 883e
00000110: 444e 45be ed13 56be d081 503d 63f1 1ebe
00000120: 04bb 6f3e 4e2e 223e 6881 d5bd 58ee 7c3e
00000130: 12de 8a3e 385d 893e 0176 8dbe b837 d33d
00000140: a8a0 373d 70a8 593e 03c8 4bbe dc6f a23d
00000150: 102e cd3c b4a0 ed3d 60a0 3b3e 5019 403d
00000160: 5aba 3abe dc92 633e ee60 2e3e 30d5 a43d
00000170: c8a9 a2bd 5490 6cbe 12b9 c4bd 00f3 c8ba
00000180: 5890 dd3d a043 623c 7447 4abe d087 a1bc
00000190: 1c23 d1bd 0896 6b3e 0048 57b9 166a 383e
000001a0: 0d54 8abe 089b 403e 3041 ecbd 3c39 fb3d
000001b0: 60b9 58bc 59b5 13be 9571 19be 8e0a 913e
000001c0: a0f3 43bc b4b6 953e 084e 1d3e 3486 fd3d
000001d0: 2e6e 143e 801e 8d3e 3e02 4f3e a0f5 523c
000001e0: f87c fd3d 8e12 7abe 10eb 26be ccf3 dc3d
000001f0: 646c 463e 4061 653e dc29 34be 68ce e3bd
00000200: 1337 7abd 6c30 17be a6a3 c13d 89e4 983e
00000210: 28a7 0abe 35dd 243e 0e13 013e b889 15be
00000220: 38be 073d f575 093d 8d1c 2a3d 47da 1ebd
00000230: 40ad 103e 78e0 3cbe 7a45 ff3e 17a2 6e3d
00000240: 5997 bd3d 47da 66be ba1e acbd 639f 69bc
00000250: 3584 bc3e 0350 82bd c4cf de3d 426c 6e3e
00000260: e43b fa3e d9e0 35bd 10b4 973e 7ff1 9f3e
00000270: 360a 0d3e ccad e23d 83d1 90be 0741 bfbd
00000280: cbd4 c83e a46f bdbd 9427 a03e 7ff5 ee3e
00000290: c78d 353d 353a 1d3e b140 36be fa13 2d3e
000002a0: 9e0b 2abe 48db 0a3d d80b 0cbd ea7e 86be
000002b0: b53c 6f3e 4744 88be 9b7d c03e 598c 14bb
000002c0: 8743 993d 916f 433e 0875 26be 8f92 f73d
000002d0: 9f2b 6b3e 9e3d 733e dbb1 cb3e 9ca1 8b3e
000002e0: e0ec fc3e 0a7c 063b e8c4 b53e 9ed2 003f
000002f0: c0a8 853d 8048 113b 7c39 523d bef4 65be
00000300: 2bc8 193f 84ad eb3b 94c3 193f 5bab 243f
00000310: 165a 413e f903 203e 5490 23be f994 023e
00000320: 44f3 9bbd b434 59be b0e0 5c3e 7e78 833e
00000330: 36ea 003f 9335 643e 7d8d cc3e c08e 723e
00000340: 0b73 6abd 187c c8bd d250 61be d480 bebd
00000350: 4e96 c63d 6243 4abe 184b 09bd 2f51 9a3c
00000360: 2fd2 a53e 56cf 29bd 0c2b 49bd f940 86bd
00000370: 4efa 833e 2ea7 81be da3a 953e 6c73 4cbd
00000380: a0c7 973e 4e37 51bc ad26 383e d283 ee3e
00000390: 6af9 68be 234b c2bc faf8 39bd a430 24be
000003a0: b79d 13be 833d 61be c8ce 8f3d 20dd 5abe
000003b0: b888 033f ac1a 933e dc99 203f ae61 553f
000003c0: 3283 353e 6c65 993d a1d5 273e e02a 5a3e
000003d0: d17c fc3d 381c 233e ec4b c3bd a264 973c
000003e0: 5195 093e cc8d d93d 1d5a 1f3d 5d23 7abd
000003f0: 395b 47be e49b 573e 7435 2abd 7ca9 953e
0.631604 0.11902446 0.34387606 0.41125372 -0.2735488 0.23370819 0.03709081 -0.05479264
-0.15446301 0.00876888 0.233541 -0.27168748 0.13650833 0.09762862 0.1781793 -0.020534197
-0.31049424 -0.037831664 -0.1322113 -0.16490737 0.0054620253 -0.083440736 -0.13085705 -0.2704173
-0.0052714613 -0.23942213 0.40574777 -0.1047489 0.24791312 -0.16652125 0.040096164 0.16720028
-0.0018616159 -0.19367826 0.30855986 0.20072018 0.07866623 0.052179493 0.11944588 0.12840158
-0.1525141 0.08465919 0.25044012 -0.109199345 0.7809896 0.16212618 0.91301006 0.62659806
-0.05428301 0.11910057 -0.26090592 -0.046589147 -0.034154657 -0.07363291 0.46613076 0.13156168
0.40231717 -0.13360055 0.41047487 0.38103276 0.058250424 -0.07843588 0.23909229 -0.11694595
0.06369114 0.06195 0.006025642 0.26562905 -0.19268137 -0.20906039 0.05090505 -0.15521769
0.23411185 0.15837976 -0.10425073 0.24700296 0.2712255 0.26828933 -0.27629092 0.10313362
0.044830948 0.2125566 -0.19900517 0.07931492 0.025046378 0.11602917 0.18322897 0.04689914
-0.1823515 0.22223991 0.17029163 0.08048475 -0.079425395 -0.23101932 -0.09605612 -0.0015331209
0.10818547 0.013810068 -0.1975382 -0.01971808 -0.10211775 0.23006451 -0.0002053082 0.18009219
-0.2701725 0.1880914 -0.11535871 0.12266776 -0.013227791 -0.14424647 -0.14984734 0.28328365
-0.01195994 0.29240954 0.15361798 0.12379113 0.14495155 0.27562332 0.20215699 0.012875944
0.123773515 -0.2442114 -0.16300607 0.10788688 0.19377285 0.22400379 -0.17594093 -0.11123353
-0.06108768 -0.14764565 0.094550416 0.29861858 -0.13540328 0.16100009 0.12604925 -0.14603317
0.03314039 0.03355976 0.041531134 -0.038782384 0.1412859 -0.18445003 0.49857694 0.05826005
0.09257383 -0.22544204 -0.08404298 -0.014259192 0.36819616 -0.06362917 0.10879472 0.23283485
0.48873818 -0.044403885 0.29629564 0.31238934 0.13773426 0.110683054 -0.28284845 -0.09338575
0.39224848 -0.092498094 0.31280196 0.46671674 0.044324663 0.15354235 -0.17798115 0.16902152
-0.16605994 0.03390053 -0.034190983 -0.26268703 0.23363002 -0.2661459 0.3759583 -0.0022666662
0.07483583 0.19085528 -0.16255581 0.12088501 0.22965859 0.23753974 0.3978413 0.27271736
0.4939947 0.002052071 0.3550179 0.50321376 0.06526327 0.0022168458 0.051324353 -0.22456643
0.6007106 0.0071923155 0.60064054 0.6432397 0.18882021 0.15626515 -0.15973026 0.12752141
-0.076147586 -0.21211511 0.21570086 0.25677866 0.5035738 0.22286062 0.39951697 0.23687267
-0.05723862 -0.09789294 -0.22003487 -0.09301916 0.09696637 -0.19752267 -0.03351888 0.01883754
0.3238692 -0.041457497 -0.04911332 -0.06555361 0.25776905 -0.2532286 0.29146463 -0.049914762
0.2964449 -0.012769533 0.17983504 0.46584946 -0.22751394 -0.023717469 -0.04540346 -0.1603418
-0.14415632 -0.21996121 0.07021862 -0.21373415 0.5138049 0.28731287 0.6273477 0.8335217
0.17725828 0.07490048 0.16390087 0.21305418 0.12328494 0.15928733 -0.09535965 0.018480603
0.13435866 0.10622749 0.038904298 -0.06106888 -0.19468392 0.21055561 -0.041554883 0.2923087
