lstm981_ae_0802.tflite (tflite, 76896 bytes, 10 tensors)

time_distributed_1/bias f4 [21]
-0.25173154 -0.24349807 -0.20526303 -0.25767934 -0.074813455 -0.28233525 -0.14867334 -0.17683941
-0.19856769 -0.27934426 -0.20468819 -0.305015 -0.24335214 -0.2851483 -0.2966085 -0.31997544
-0.3068127 -0.25645414 0.2594553 -0.25821912 0.2363113
00000000: f5e2 80be 8f57 79be 7930 52be 8cee 83be
00000010: cc37 99bd 3f8e 90be d33d 18be 6415 35be
00000020: 5455 4bbe 3606 8fbe c899 51be ed2a 9cbe
00000030: 4e31 79be f5fe 91be 12dd 97be d2d3 a3be
00000040: 8e16 9dbe f54d 83be 53d7 843e 4c35 84be
00000050: 97fb 713e

lstm_5/lstm_cell_6/bias f4 [256]
0.020936528 0.019031197 0.010719034 0.009650944 -0.010479978 -0.007841888 -0.00072734855 0.012517537
-0.008008419 -0.029081455 -0.008663915 0.020863876 0.006012358 -0.00024429237 -0.0027178787 0.0042560124
0.0014563071 -0.0023805199 0.0026934526 -0.0011637105 0.0022492383 0.007929267 0.0060055284 -0.013349001
-0.02047851 0.019323602 -0.0017348758 -0.0022252256 -0.009580694 -0.008813828 -0.0036887787 -0.014038992
0.00838914 -0.0013561478 -0.010752718 0.011919043 0.008813178 0.020574277 -0.0008110432 0.00019207786
-0.0027834836 0.025780812 0.011812638 0.0019932624 0.0023473988 0.017132886 -0.0039637457 -0.00224677
0.019270388 0.025405329 -0.002630741 0.011740047 0.006333841 0.014224823 0.00574492 0.0001014596
-0.0061770203 -0.0012979521 0.013653801 0.02354895 0.009618019 0.007095214 0.001340824 0.023862679
1.0 1.0 1.0 1.0 1.0 1.0 1.0 1.0
1.0 1.0 1.0 1.0 1.0 1.0 1.0 1.0
1.0 1.0 1.0 1.0 1.0 1.0 1.0 1.0
1.0 1.0 1.0 1.0 1.0 1.0 1.0 1.0
1.0 1.0 1.0 1.0 1.0 1.0 1.0 1.0
1.0 1.0 1.0 1.0 1.0 1.0 1.0 1.0
1.0 1.0 1.0 1.0 1.0 1.0 1.0 1.0
1.0 1.0 1.0 1.0 1.0 1.0 1.0 1.0
0.08198852 -0.10745862 -0.10092 0.03689125 -0.074402034 -0.020993462 -0.060885504 0.0880472
-0.082118146 -0.0073124697 0.042266127 -0.03703615 0.11263915 0.08610618 0.051432393 -0.05395134
0.122441426 0.028231239 0.086612925 -0.056894075 0.047284853 0.0074317 0.08133442 0.09489096
0.045706324 0.11369033 0.06552512 0.09064191 0.03498949 -0.05173544 0.09016269 -0.07534699
0.08600219 -0.0717874 0.075306475 -0.10565023 0.047758687 -0.1519705 0.01855819 -0.059270017
-0.032216292 -0.09281276 -0.10671693 -0.012389068 0.052344557 0.019056419 -0.02167214 0.025051253
0.012426109 -0.054394472 0.033501167 0.10490379 -0.110060126 -0.031677574 -0.039110843 0.060703244
0.0016312563 0.083188444 -0.07868882 -0.013428856 0.082205765 0.017132733 0.021781292 0.04795513
0.0040873475 0.037361305 0.019237312 0.0061337627 -0.022764904 -0.012776221 -0.007103206 0.013190763
-0.010606172 -0.0270255 -0.0056407354 0.0032536993 0.004302031 -0.006152377 -0.006716083 -0.0062923133
-0.000569346 -0.006282781 -0.00855999 0.00067203457 -0.0009248302 0.0011830095 -0.0074455217 -0.015260661
-0.026282873 0.0151752215 -0.010166728 -0.006224049 -0.011428103 -0.0189953 0.00037094997 -0.022355953
0.009078485 -0.012563088 -0.013816886 0.008086035 0.001918967 0.017267277 -0.0025935203 0.00563282
-0.011673739 0.017421244 0.006533138 -0.0019672483 -0.0059382897 0.019494614 -0.0037961116 -0.007525789
0.010485075 0.0018689579 -0.013361731 0.011560771 -0.012095817 0.0057816743 0.002839461 -0.0073300484
-0.012238874 -0.010648772 -0.003587259 0.009842359 -0.008852471 0.008033152 -0.0065480205 0.01270315
00000000: 1583 ab3c 50e7 9b3c e39e 2f3c fe1e 1e3c
00000010: 37b4 2bbc 437b 00bc 89ab 3eba 5b16 4d3c
00000020: be35 03bc 3b3c eebc 18f3 0dbc b8ea aa3c
00000030: 5003 c53b 5e14 80b9 701e 32bb 0576 8b3b
00000040: 8fe1 be3a 7f02 1cbb a384 303b a587 98ba
00000050: f567 133b c2e9 013c 06ca c43b c5b5 5abc
00000060: 8cc2 a7bc 884c 9e3c c664 e3ba 17d5 11bb
00000070: 58f8 1cbc e067 10bc 70bf 71bb cd03 66bc
00000080: 9a72 093c c5c0 b1ba 2b2c 30bc 1748 433c
00000090: 2665 103c 638b a83c 309c 54ba 8268 4939
000000a0: 1b6b 36bb 4832 d33c cb89 413c 65a1 023b
000000b0: d1d6 193b 445a 8c3c 4fe2 81bb 8c3e 13bb
000000c0: efdc 9d3c d61e d03c 8368 2cbb 5359 403c
000000d0: 1c8c cf3b 3b0f 693c e23f bc3b b5c6 d438
000000e0: 9a68 cabb 0c20 aaba 31b4 5f3c bae9 c03c
000000f0: e594 1d3c f87e e83b 96be af3a aa7b c33c
00000100: 0000 803f 0000 803f 0000 803f 0000 803f
00000110: 0000 803f 0000 803f 0000 803f 0000 803f
00000120: 0000 803f 0000 803f 0000 803f 0000 803f
00000130: 0000 803f 0000 803f 0000 803f 0000 803f
00000140: 0000 803f 0000 803f 0000 803f 0000 803f
00000150: 0000 803f 0000 803f 0000 803f 0000 803f
00000160: 0000 803f 0000 803f 0000 803f 0000 803f
00000170: 0000 803f 0000 803f 0000 803f 0000 803f
00000180: 0000 803f 0000 803f 0000 803f 0000 803f
00000190: 0000 803f 0000 803f 0000 803f 0000 803f
000001a0: 0000 803f 0000 803f 0000 803f 0000 803f
000001b0: 0000 803f 0000 803f 0000 803f 0000 803f
000001c0: 0000 803f 0000 803f 0000 803f 0000 803f
000001d0: 0000 803f 0000 803f 0000 803f 0000 803f
000001e0: 0000 803f 0000 803f 0000 803f 0000 803f
000001f0: 0000 803f 0000 803f 0000 803f 0000 803f
00000200: 99e9 a73d 4413 dcbd 25af cebd 481b 173d
00000210: 1860 98bd 7bfa abbc 1463 79bd 1752 b43d
00000220: 8f2d a8bd 719d efbb 3f1f 2d3d 38b3 17bd
00000230: 5baf e63d 7058 b03d c6aa 523d 15fc 5cbd
00000240: 92c2 fa3d 3345 e73c 1e62 b13d c309 69bd
00000250: c3ad 413d 9e85 f33b a992 a63d 3156 c23d
00000260: 8e36 3b3d 7ad6 e83d 0932 863d 77a2 b93d
00000270: 2451 0f3d 8ae8 53bd 37a7 b83d 864f 9abd
00000280: eb21 b03d 4605 93bd 483a 9a3d 265f d8bd
00000290: 9d9e 433d 289e 1bbe 5807 983c 1ec5 72bd
000002a0: 3bf5 03bd 9e14 bebd 688e dabd 84fb 4abc
000002b0: 3f67 563d 351c 9c3c c689 b1bc 4938 cd3c
000002c0: e196 4b3c bdcc 5ebd 8538 093d ccd7 d63d
000002d0: 3467 e1bd 58c0 01bd b132 20bd f7a3 783d
000002e0: e1cf d53a b45e aa3d 9b27 a1bd b404 5cbc
000002f0: 7f5b a83d f259 8c3c ae6e b23c 996c 443d
00000300: 28ef 853b 2b08 193d 9197 9d3c bbfd c83b
00000310: 777d babc 5b53 51bc 03c2 e8bb 121e 583c
00000320: 82c5 2dbc 9564 ddbc ebd5 b8bb 043c 553b
00000330: 0df8 8c3b e199 c9bb 9612 dcbb c02f cebb
00000340: 2a40 15ba c9df cdbb 333f 0cbc 7a2b 303a
00000350: 4e70 72ba 360f 9b3a 90f9 f3bb da07 7abc
00000360: 2e4f d7bc 7ea1 783c 5992 26bc 1bf3 cbbb
00000370: f03c 3bbc 089c 9bbc 107c c239 d523 b7bc
00000380: edbd 143c 69d5 4dbc 3860 62bc 4a7b 043c
00000390: d985 fb3a 1b74 8d3c 0df8 29bb 8593 b83b
000003a0: 3643 3fbc ffb6 8e3c ef13 d63b f3ec 00bb
000003b0: fc95 c2bb 2bb3 9f3c 2fc8 78bb e59a f6bb
000003c0: 98c9 2b3c d2f7 f43a 29eb 5abc 6369 3d3c
000003d0: 892d 46bc 3374 bd3b 4016 3a3b e730 f0bb
000003e0: 8f85 48bc 3078 2ebc 3818 6bbb d941 213c
000003f0: f409 11bc 7b9d 033c c790 d6bb df20 503c

lstm_4/lstm_cell_5/bias f4 [256]
0.004683593 0.041947745 0.00078509323 0.0036873096 0.020668631 0.040642716 0.0018397997 0.02847055
0.025200535 0.05430262 0.045209818 0.025096003 0.071518786 0.02021214 0.023157684 0.09891803
0.015411129 0.0312335 0.024019685 0.025631243 0.017609924 0.024113357 0.027727837 0.23407035
0.10712794 0.007781549 0.01976978 0.021435851 0.005079322 0.0048104785 0.011263773 0.009451293
0.021087712 0.07816776 0.013921292 -0.014200869 0.018037982 0.21141903 0.022068968 0.037258845
0.02792195 0.04262838 0.04399933 -0.00435438 0.02757649 0.0038855642 0.002587125 -0.006262795
0.016930936 0.020870106 0.011188438 0.0008421415 0.02876154 -0.0056962566 0.19417478 0.04561009
0.041073296 0.021773882 0.005604559 -0.016105572 0.017568804 -0.025729995 0.17347929 0.017522706
1.0 1.0 1.0 1.0 1.0 1.0 1.0 1.0
1.0 1.0 1.0 1.0 1.0 1.0 1.0 1.0
1.0 1.0 1.0 1.0 1.0 1.0 1.0 1.0
1.0 1.0 1.0 1.0 1.0 1.0 1.0 1.0
1.0 1.0 1.0 1.0 1.0 1.0 1.0 1.0
1.0 1.0 1.0 1.0 1.0 1.0 1.0 1.0
1.0 1.0 1.0 1.0 1.0 1.0 1.0 1.0
1.0 1.0 1.0 1.0 1.0 1.0 1.0 1.0
0.0040302454 0.087243475 0.10002987 0.045166593 -0.096305504 -0.07507512 0.07646303 0.01996447
0.0001522947 -0.07392586 0.060429044 0.022837022 0.08871826 -0.046886638 0.026957216 0.07127668
-0.05110942 -0.021425175 0.07290828 -0.032436226 -0.0011073577 -0.013161832 -0.01983331 -0.09380789
-0.12863098 -0.039565887 0.0062173987 -0.04089748 -0.061897796 -0.014370748 -0.048756722 0.047955997
-0.053339582 0.05084619 -0.047587115 -0.030940317 -0.042468008 0.028866526 0.051573087 0.13598324
-0.06453864 -0.058069874 0.09044566 -0.015285244 0.03605881 0.018992089 0.08692332 0.04153056
0.02211339 -0.028426452 -0.04046356 0.037100248 0.04005286 0.0356436 0.09593529 0.08753594
0.116626024 0.056157716 0.013646665 0.0097517595 -0.04568057 0.027717192 0.109220564 -0.009840979
0.002195422 0.034511473 0.0049939672 0.0022159424 0.034733586 0.02778624 -0.0033593653 0.026215639
0.023924498 0.050867688 0.039843906 0.015943512 0.07663582 0.01988545 0.020257581 0.09512867
0.013004587 0.019325681 0.017041994 0.02540238 -0.00511739 0.015076674 0.025254352 0.22630222
0.10977464 0.027511513 0.008854158 0.024712814 0.0056306496 0.010778175 0.016791567 0.018860124
0.017164808 0.07225027 0.021960892 -0.010000361 0.037382837 0.20120247 0.019519327 0.026281651
0.038068473 0.042206403 0.04264195 0.015997536 0.034978174 0.0009154798 0.012738278 -0.008244568
0.020004999 0.021109173 0.034564678 -0.0024536778 0.025254501 0.0026466683 0.19727491 0.044822477
0.034548044 0.02916213 0.009910515 0.003283418 0.02364061 0.026421426 0.17179027 0.018898783
00000000: d378 993b 66d1 2b3d b7ce 4d3a caa6 713b
00000010: 4351 a93c fa78 263d 6f25 f13a 123b e93c
00000020: 5a71 ce3c 6d6c 5e3d ee2d 393d 2296 cd3c
00000030: 7178 923d ee93 a53c 2fb5 bd3c 8995 ca3d
00000040: f67e 7c3c 66dd ff3c eec4 c43c 9df8 d13c
00000050: b042 903c 6089 c53c 7d25 e33c 23b0 6f3e
00000060: e565 db3d 5dfc fe3b 3cf4 a13c 3d9a af3c
00000070: 7170 a63b 38a1 9d3b b08b 383c 99d9 1a3c
00000080: 23c0 ac3c 6b16 a03d 2116 643c c3aa 68bc
00000090: 64c4 933c 3b7e 583e fbc9 b43c bb9c 183d
000000a0: 93bc e43c 199b 2e3d a438 343d 30af 8ebb
000000b0: 17e8 e13c f3a4 7e3b c18c 293b 2238 cdbb
000000c0: bfb2 8a3c c9f7 aa3c b64f 373c 29c3 5c3a
000000d0: 529d eb3c aaa7 babb c1d5 463e a5d1 3a3d
000000e0: 793c 283d 245f b23c 73a6 b73b d5ef 83bc
000000f0: 74ec 8f3c b6c7 d2bc 8ea4 313e c78b 8f3c
00000100: 0000 803f 0000 803f 0000 803f 0000 803f
00000110: 0000 803f 0000 803f 0000 803f 0000 803f
00000120: 0000 803f 0000 803f 0000 803f 0000 803f
00000130: 0000 803f 0000 803f 0000 803f 0000 803f
00000140: 0000 803f 0000 803f 0000 803f 0000 803f
00000150: 0000 803f 0000 803f 0000 803f 0000 803f
00000160: 0000 803f 0000 803f 0000 803f 0000 803f
00000170: 0000 803f 0000 803f 0000 803f 0000 803f
00000180: 0000 803f 0000 803f 0000 803f 0000 803f
00000190: 0000 803f 0000 803f 0000 803f 0000 803f
000001a0: 0000 803f 0000 803f 0000 803f 0000 803f
000001b0: 0000 803f 0000 803f 0000 803f 0000 803f
000001c0: 0000 803f 0000 803f 0000 803f 0000 803f
000001d0: 0000 803f 0000 803f 0000 803f 0000 803f
000001e0: 0000 803f 0000 803f 0000 803f 0000 803f
000001f0: 0000 803f 0000 803f 0000 803f 0000 803f
00000200: 2610 843b b5ac b23d 76dc cc3d 9b00 393d
00000210: d23b c5bd fcc0 99bd a698 9c3d 878c a33c
00000220: 4cb1 1f39 7166 97bd 7284 773d b514 bb3c
00000230: ebb1 b53d 340c 40bd 61d5 dc3c 82f9 913d
00000240: 1c58 51bd d983 afbc f050 953d d9db 04bd
00000250: c224 91ba b9a4 57bc 7779 a2bc 5a1e c0bd
00000260: d7b7 03be d70f 22bd 52bb cb3b 1e84 27bd
00000270: 8b88 7dbd 4973 6bbc 21b5 47bd 826d 443d
00000280: 9b7a 5abd 1844 503d b5ea 42bd 8c76 fdbc
00000290: eff2 2dbd 7e79 ec3c 4d3e 533d 313f 0b3e
000002a0: d62c 84bd adda 6dbd 933b b93d f66e 7abc
000002b0: 67b2 133d 4c95 9b3c db04 b23d f31b 2a3d
000002c0: 2427 b53c 97de e8bc 1ebd 25bd 6ef6 173d
000002d0: 780e 243d 06ff 113d b979 c43d 0b46 b33d
000002e0: a0d9 ee3d a205 663d 4396 5f3c d8c5 1f3c
000002f0: 8d1b 3bbd 2a0f e33c 08af df3d 0f3c 21bc
00000300: 12e1 0f3b e75b 0d3d 6fa4 a33b 5839 113b
00000310: ce44 0e3d f89f e33c cc28 5cbb 2ec2 d63c
00000320: 4ffd c33c a35a 503d 5d33 233d f89b 823c
00000330: 3ef3 9c3d d0e6 a23c 3af3 a53c d2d2 c23d
00000340: 3111 553c e450 9e3c a79b 8b3c a718 d03c
00000350: c7af a7bb 2704 773c 37e2 ce3c c5bb 673e
00000360: 87d1 e03d d35f e13c 0811 113c 8772 ca3c
00000370: 5081 b83b f196 303c 788e 893c 8c80 9a3c
00000380: 369d 8c3c f3f7 933d 54e7 b33c 8ed8 23bc
00000390: bf1e 193d 0508 4e3e ffe6 9f3c 9e4c d73c
000003a0: b0ed 1b3d 9fe0 2c3d 53a9 2e3d 440d 833c
000003b0: 4645 0f3d cffc 6f3a 36b4 503c 3914 07bc
000003c0: 86e1 a33c 25ed ac3c b193 0d3d e2cd 20bb
000003d0: 87e2 ce3c ba73 2d3b 6f02 4a3e c697 373d
000003e0: 4082 0d3d 6be5 ee3c b65f 223c 9d2e 573b
000003f0: f4a9 c13c bf71 d83c cae9 2f3e 9fd1 9a3c

sequential_1/time_distributed_1/dense_1/MatMul i1 [21, 64] scale=0.002607928 zero_point=0
-0.14343603 0.026079278 0.19298667 -0.14343603 0.1121409 0.14604396 0.12518054 -0.05998234
0.19298667 0.18516289 -0.25818485 0.109532975 -0.0651982 -0.08345369 -0.0651982 0.21124215
-0.16169153 -0.19037874 -0.1121409 0.16951531 -0.044334773 -0.2634007 -0.15386775 -0.05998234
-0.18516289 0.013039639 -0.17473117 -0.1955946 0.013039639 0.17994702 -0.08606162 0.19037874
-0.080845766 0.16690738 -0.16690738 0.21124215 -0.020863423 0.12518054 -0.19820252 0.1955946
0.16951531 0.12257261 0.15386775 -0.20863423 -0.16429946 -0.20341837 0.23992936 -0.21385008
0.20081045 0.12257261 -0.14343603 -0.23732144 0.14343603 0.19820252 0.117356755 -0.16429946
-0.18516289 -0.06259027 0.09910126 0.17733909 -0.2634007 -0.1955946 -0.08345369 -0.19820252
-0.12778847 0.17994702 0.21906595 -0.17212324 0.16169153 0.18777081 0.1590836 -0.023471352
0.04955063 0.2242818 -0.080845766 0.14343603 -0.19298667 -0.14604396 -0.23471351 0.2060263
-0.031295136 -0.1590836 -0.22688973 0.22949766 -0.14604396 -0.1121409 -0.12778847 0.018255495
-0.1955946 0.020863423 -0.19820252 -0.13561225 -0.21906595 0.2242818 -0.15386775 0.07562991
-0.18777081 0.14604396 -0.23210558 0.14604396 -0.22167388 0.16690738 -0.018255495 0.1590836
0.18255495 0.16169153 0.16429946 -0.03911892 -0.14865188 -0.11474883 0.15125982 -0.23992936
0.2686166 0.12257261 -0.07041405 -0.07302198 0.2242818 0.17994702 0.20081045 -0.067806125
-0.10692504 -0.24253729 0.14604396 0.22949766 -0.057374414 -0.24514522 -0.2060263 -0.117356755
-0.21906595 0.12257261 0.07302198 -0.17994702 0.21124215 0.16690738 0.023471352 -0.1303964
0.16429946 0.19298667 -0.2242818 0.15647568 -0.08345369 -0.028687207 -0.054766487 0.104317114
-0.080845766 -0.1590836 -0.18777081 0.19037874 -0.12518054 -0.25557694 -0.018255495 -0.2607928
-0.07041405 -0.07302198 -0.20341837 -0.18516289 -0.28948 0.20341837 -0.12778847 0.08345369
-0.023471352 0.14343603 -0.07562991 0.11996468 -0.14343603 0.15125982 -0.32338306 0.17733909
0.24253729 0.09910126 0.16429946 -0.3077355 -0.1303964 -0.2060263 0.1303964 -0.23992936
0.20081045 0.22688973 -0.25557694 -0.09388541 0.10170919 0.109532975 0.19298667 -0.2607928
-0.21906595 -0.109532975 0.19037874 0.23992936 -0.03911892 -0.25818485 -0.19820252 -0.17212324
-0.07302198 0.03651099 0.19037874 -0.08606162 0.20863423 0.13561225 0.07041405 -0.013039639
0.25036108 0.23210558 -0.1590836 0.14865188 -0.20081045 -0.10170919 0.028687207 0.13822018
-0.052158557 -0.17733909 -0.28426415 0.057374414 -0.08606162 -0.21906595 -0.109532975 0.020863423
-0.15647568 -0.15647568 -0.12257261 -0.07302198 -0.3077355 0.23992936 -0.11474883 0.19820252
-0.057374414 0.13822018 -0.15386775 0.09910126 -0.14865188 0.16951531 -0.12518054 0.18255495
0.252969 0.07562991 0.17473117 -0.25818485 -0.14343603 -0.23471351 0.17733909 -0.10692504
0.24253729 0.104317114 -0.2607928 -0.04955063 0.13561225 0.18516289 0.15647568 -0.20863423
-0.24253729 -0.13561225 0.1303964 0.14343603 -0.18777081 -0.2060263 -0.031295136 -0.21906595
00000000: c90a 4ac9 2b38 30e9 4a47 9d2a e7e0 e751
00000010: c2b7 d541 ef9b c5e9 b905 bdb5 0545 df49
00000020: e140 c051 f830 b44b 412f 3bb0 c1b2 5cae
00000030: 4d2f c9a5 374c 2dc1 b9e8 2644 9bb5 e0b4
00000040: cf45 54be 3e48 3df7 1356 e137 b6c8 a64f
00000050: f4c3 a958 c8d5 cf07 b508 b4cc ac56 c51d
00000060: b838 a738 ab40 f93d 463e 3ff1 c7d4 3aa4
00000070: 672f e5e4 5645 4de6 d7a3 3858 eaa2 b1d3
00000080: ac2f 1cbb 5140 09ce 3f4a aa3c e0f5 eb28
00000090: e1c3 b849 d09e f99c e5e4 b2b9 914e cf20
000000a0: f737 e32e c93a 8444 5d26 3f8a ceb1 32a4
000000b0: 4d57 9edc 272a 4a9c acd6 495c f19d b4be
000000c0: e40e 49df 5034 1bfb 6059 c339 b3d9 0b35
000000d0: ecbc 9316 dfac d608 c4c4 d1e4 8a5c d44c
000000e0: ea35 c526 c741 d046 611d 439d c9a6 44d7
000000f0: 5d28 9ced 3447 3cb0 a3cc 3237 b8b1 f4ac

lstm_4/lstm_cell_5/bias1 f4 [256]
0.004683593 0.041947745 0.00078509323 0.0036873096 0.020668631 0.040642716 0.0018397997 0.02847055
0.025200535 0.05430262 0.045209818 0.025096003 0.071518786 0.02021214 0.023157684 0.09891803
0.015411129 0.0312335 0.024019685 0.025631243 0.017609924 0.024113357 0.027727837 0.23407035
0.10712794 0.007781549 0.01976978 0.021435851 0.005079322 0.0048104785 0.011263773 0.009451293
0.021087712 0.07816776 0.013921292 -0.014200869 0.018037982 0.21141903 0.022068968 0.037258845
0.02792195 0.04262838 0.04399933 -0.00435438 0.02757649 0.0038855642 0.002587125 -0.006262795
0.016930936 0.020870106 0.011188438 0.0008421415 0.02876154 -0.0056962566 0.19417478 0.04561009
0.041073296 0.021773882 0.005604559 -0.016105572 0.017568804 -0.025729995 0.17347929 0.017522706
1.0 1.0 1.0 1.0 1.0 1.0 1.0 1.0
1.0 1.0 1.0 1.0 1.0 1.0 1.0 1.0
1.0 1.0 1.0 1.0 1.0 1.0 1.0 1.0
1.0 1.0 1.0 1.0 1.0 1.0 1.0 1.0
1.0 1.0 1.0 1.0 1.0 1.0 1.0 1.0
1.0 1.0 1.0 1.0 1.0 1.0 1.0 1.0
1.0 1.0 1.0 1.0 1.0 1.0 1.0 1.0
1.0 1.0 1.0 1.0 1.0 1.0 1.0 1.0
0.0040302454 0.087243475 0.10002987 0.045166593 -0.096305504 -0.07507512 0.07646303 0.01996447
0.0001522947 -0.07392586 0.060429044 0.022837022 0.08871826 -0.046886638 0.026957216 0.07127668
-0.05110942 -0.021425175 0.07290828 -0.032436226 -0.0011073577 -0.013161832 -0.01983331 -0.09380789
-0.12863098 -0.039565887 0.0062173987 -0.04089748 -0.061897796 -0.014370748 -0.048756722 0.047955997
-0.053339582 0.05084619 -0.047587115 -0.030940317 -0.042468008 0.028866526 0.051573087 0.13598324
-0.06453864 -0.058069874 0.09044566 -0.015285244 0.03605881 0.018992089 0.08692332 0.04153056
0.02211339 -0.028426452 -0.04046356 0.037100248 0.04005286 0.0356436 0.09593529 0.08753594
0.116626024 0.056157716 0.013646665 0.0097517595 -0.04568057 0.027717192 0.109220564 -0.009840979
0.002195422 0.034511473 0.0049939672 0.0022159424 0.034733586 0.02778624 -0.0033593653 0.026215639
0.023924498 0.050867688 0.039843906 0.015943512 0.07663582 0.01988545 0.020257581 0.09512867
0.013004587 0.019325681 0.017041994 0.02540238 -0.00511739 0.015076674 0.025254352 0.22630222
0.10977464 0.027511513 0.008854158 0.024712814 0.0056306496 0.010778175 0.016791567 0.018860124
0.017164808 0.07225027 0.021960892 -0.010000361 0.037382837 0.20120247 0.019519327 0.026281651
0.038068473 0.042206403 0.04264195 0.015997536 0.034978174 0.0009154798 0.012738278 -0.008244568
0.020004999 0.021109173 0.034564678 -0.0024536778 0.025254501 0.0026466683 0.19727491 0.044822477
0.034548044 0.02916213 0.009910515 0.003283418 0.02364061 0.026421426 0.17179027 0.018898783
00000000: d378 993b 66d1 2b3d b7ce 4d3a caa6 713b
00000010: 4351 a93c fa78 263d 6f25 f13a 123b e93c
00000020: 5a71 ce3c 6d6c 5e3d ee2d 393d 2296 cd3c
00000030: 7178 923d ee93 a53c 2fb5 bd3c 8995 ca3d
00000040: f67e 7c3c 66dd ff3c eec4 c43c 9df8 d13c
00000050: b042 903c 6089 c53c 7d25 e33c 23b0 6f3e
00000060: e565 db3d 5dfc fe3b 3cf4 a13c 3d9a af3c
00000070: 7170 a63b 38a1 9d3b b08b 383c 99d9 1a3c
00000080: 23c0 ac3c 6b16 a03d 2116 643c c3aa 68bc
00000090: 64c4 933c 3b7e 583e fbc9 b43c bb9c 183d
000000a0: 93bc e43c 199b 2e3d a438 343d 30af 8ebb
000000b0: 17e8 e13c f3a4 7e3b c18c 293b 2238 cdbb
000000c0: bfb2 8a3c c9f7 aa3c b64f 373c 29c3 5c3a
000000d0: 529d eb3c aaa7 babb c1d5 463e a5d1 3a3d
000000e0: 793c 283d 245f b23c 73a6 b73b d5ef 83bc
000000f0: 74ec 8f3c b6c7 d2bc 8ea4 313e c78b 8f3c
00000100: 0000 803f 0000 803f 0000 803f 0000 803f
00000110: 0000 803f 0000 803f 0000 803f 0000 803f
00000120: 0000 803f 0000 803f 0000 803f 0000 803f
00000130: 0000 803f 0000 803f 0000 803f 0000 803f
00000140: 0000 803f 0000 803f 0000 803f 0000 803f
00000150: 0000 803f 0000 803f 0000 803f 0000 803f
00000160: 0000 803f 0000 803f 0000 803f 0000 803f
00000170: 0000 803f 0000 803f 0000 803f 0000 803f
00000180: 0000 803f 0000 803f 0000 803f 0000 803f
00000190: 0000 803f 0000 803f 0000 803f 0000 803f
000001a0: 0000 803f 0000 803f 0000 803f 0000 803f
000001b0: 0000 803f 0000 803f 0000 803f 0000 803f
000001c0: 0000 803f 0000 803f 0000 803f 0000 803f
000001d0: 0000 803f 0000 803f 0000 803f 0000 803f
000001e0: 0000 803f 0000 803f 0000 803f 0000 803f
000001f0: 0000 803f 0000 803f 0000 803f 0000 803f
00000200: 2610 843b b5ac b23d 76dc cc3d 9b00 393d
00000210: d23b c5bd fcc0 99bd a698 9c3d 878c a33c
00000220: 4cb1 1f39 7166 97bd 7284 773d b514 bb3c
00000230: ebb1 b53d 340c 40bd 61d5 dc3c 82f9 913d
00000240: 1c58 51bd d983 afbc f050 953d d9db 04bd
00000250: c224 91ba b9a4 57bc 7779 a2bc 5a1e c0bd
00000260: d7b7 03be d70f 22bd 52bb cb3b 1e84 27bd
00000270: 8b88 7dbd 4973 6bbc 21b5 47bd 826d 443d
00000280: 9b7a 5abd 1844 503d b5ea 42bd 8c76 fdbc
00000290: eff2 2dbd 7e79 ec3c 4d3e 533d 313f 0b3e
000002a0: d62c 84bd adda 6dbd 933b b93d f66e 7abc
000002b0: 67b2 133d 4c95 9b3c db04 b23d f31b 2a3d
000002c0: 2427 b53c 97de e8bc 1ebd 25bd 6ef6 173d
000002d0: 780e 243d 06ff 113d b979 c43d 0b46 b33d
000002e0: a0d9 ee3d a205 663d 4396 5f3c d8c5 1f3c
000002f0: 8d1b 3bbd 2a0f e33c 08af df3d 0f3c 21bc
00000300: 12e1 0f3b e75b 0d3d 6fa4 a33b 5839 113b
00000310: ce44 0e3d f89f e33c cc28 5cbb 2ec2 d63c
00000320: 4ffd c33c a35a 503d 5d33 233d f89b 823c
00000330: 3ef3 9c3d d0e6 a23c 3af3 a53c d2d2 c23d
00000340: 3111 553c e450 9e3c a79b 8b3c a718 d03c
00000350: c7af a7bb 2704 773c 37e2 ce3c c5bb 673e
00000360: 87d1 e03d d35f e13c 0811 113c 8772 ca3c
00000370: 5081 b83b f196 303c 788e 893c 8c80 9a3c
00000380: 369d 8c3c f3f7 933d 54e7 b33c 8ed8 23bc
00000390: bf1e 193d 0508 4e3e ffe6 9f3c 9e4c d73c
000003a0: b0ed 1b3d 9fe0 2c3d 53a9 2e3d 440d 833c
000003b0: 4645 0f3d cffc 6f3a 36b4 503c 3914 07bc
000003c0: 86e1 a33c 25ed ac3c b193 0d3d e2cd 20bb
000003d0: 87e2 ce3c ba73 2d3b 6f02 4a3e c697 373d
000003e0: 4082 0d3d 6be5 ee3c b65f 223c 9d2e 573b
000003f0: f4a9 c13c bf71 d83c cae9 2f3e 9fd1 9a3c

while/MatMul_1 i1 [256, 64] scale=0.0020379138 zero_point=0
-0.11004734 0.01630331 0.08151655 0.052985758 0.057061587 -0.0020379138 -0.06521324 -0.069289066
0.116161086 -0.057061587 0.022417052 -0.01630331 -0.026492879 -0.0061137415 0.040758274 -0.105971515
-0.018341225 -0.0590995 0.008151655 0.0040758275 -0.008151655 -0.048909932 -0.024454966 -0.097819865
-0.04279619 0.0590995 -0.12023691 -0.07132698 -0.08151655 -0.050947845 -0.10800943 -0.024454966
-0.077440724 -0.048909932 -0.10800943 0.1039336 0.048909932 0.046872016 -0.0590995 0.026492879
-0.105971515 -0.008151655 -0.044834103 -0.012227483 0.0061137415 -0.018341225 -0.08559238 0.048909932
0.03668245 -0.0061137415 0.008151655 -0.012227483 0.026492879 0.07947864 -0.020379137 -0.050947845
-0.10800943 -0.028530793 -0.097819865 -0.06113741 -0.030568706 -0.008151655 -0.087630294 0.069289066
-0.0020379138 0.044834103 -0.09170612 -0.026492879 0.048909932 -0.028530793 0.05502367 0.13654022
0.052985758 -0.1324644 0.06113741 -0.018341225 -0.038720362 -0.024454966 0.105971515 -0.008151655
-0.10800943 -0.16507101 -0.008151655 0.03260662 0.040758274 0.040758274 0.11412317 0.057061587
-0.038720362 0.014265397 0.03260662 -0.024454966 -0.12431274 0.020379137 -0.057061587 -0.0020379138
0.014265397 -0.012227483 0.077440724 0.014265397 0.028530793 -0.034644533 0.030568706 0.028530793
0.008151655 0.05502367 0.010189569 0.008151655 -0.05502367 0.044834103 0.026492879 0.0061137415
-0.040758274 0.09985778 -0.1467298 -0.069289066 0.15488145 -0.03260662 -0.026492879 0.0733649
0.01630331 0.09985778 0.069289066 -0.1039336 0.0590995 -0.022417052 0.0020379138 -0.010189569
0.1039336 0.038720362 0.069289066 -0.052985758 0.0020379138 0.020379137 0.09374403 -0.08151655
-0.034644533 -0.07132698 0.0590995 -0.014265397 -0.044834103 0.0 -0.0061137415 -0.0733649
-0.11412317 -0.07132698 0.0061137415 0.052985758 -0.06113741 -0.0590995 0.0590995 0.03668245
-0.06317533 0.014265397 0.0020379138 -0.01630331 0.087630294 -0.095781945 -0.06113741 0.03260662
0.024454966 -0.14265396 -0.038720362 0.010189569 0.03260662 0.012227483 -0.12838857 0.15488145
-0.01630331 -0.06113741 0.038720362 -0.077440724 -0.12227482 -0.03668245 0.10189569 0.0061137415
0.046872016 0.06725115 0.1039336 0.06725115 0.15080562 -0.0733649 0.04279619 0.0733649
-0.03668245 0.09374403 0.028530793 0.030568706 -0.014265397 -0.046872016 -0.010189569 0.0733649
0.044834103 -0.097819865 0.1039336 0.0040758275 0.06113741 -0.10800943 -0.10800943 0.01630331
-0.018341225 -0.020379137 0.038720362 0.06521324 0.0020379138 -0.03260662 -0.024454966 0.030568706
0.03260662 0.034644533 -0.028530793 -0.06317533 -0.21805677 -0.028530793 -0.01630331 0.008151655
0.014265397 -0.018341225 -0.008151655 -0.17322268 0.050947845 0.0020379138 0.030568706 0.038720362
0.024454966 0.08151655 0.08966821 0.038720362 -0.07947864 0.06113741 -0.09374403 0.014265397
0.07947864 -0.10189569 -0.05502367 0.03260662 -0.03668245 0.030568706 -0.03668245 -0.05502367
0.01630331 0.06725115 0.034644533 -0.010189569 -0.044834103 0.087630294 0.08559238 0.057061587
-0.03668245 0.0020379138 -0.024454966 -0.097819865 -0.046872016 -0.010189569 0.03668245 0.03668245
00000000: ca08 281a 1cff e0de 39e4 0bf8 f3fd 14cc
00000010: f7e3 0402 fce8 f4d0 eb1d c5dd d8e7 cbf4
00000020: dae8 cb33 1817 e30d ccfc eafa 03f7 d618
00000030: 12fd 04fa 0d27 f6e7 cbf2 d0e2 f1fc d522
00000040: ff16 d3f3 18f2 1b43 1abf 1ef7 edf4 34fc
00000050: cbaf fc10 1414 381c ed07 10f4 c30a e4ff
00000060: 07fa 2607 0eef 0f0e 041b 0504 e516 0d03
00000070: ec31 b8de 4cf0 f324 0831 22cd 1df5 01fb
00000080: 3313 22e6 010a 2ed8 efdd 1df9 ea00 fddc
00000090: c8dd 031a e2e3 1d12 e107 01f8 2bd1 e210
000000a0: 0cba ed05 1006 c14c f8e2 13da c4ee 3203
000000b0: 1721 3321 4adc 1524 ee2e 0e0f f9e9 fb24
000000c0: 16d0 3302 1ecb cb08 f7f6 1320 01f0 f40f
000000d0: 1011 f2e1 95f2 f804 07f7 fcab 1901 0f13
000000e0: 0c28 2c13 d91e d207 27ce e510 ee0f eee5
000000f0: 0821 11fb ea2b 2a1c ee01 f4d0 e9fb 1212

while/MatMul i1 [256, 21] scale=0.0043405993 zero_point=0
-0.19966757 0.0 0.06944959 0.073790185 0.04774659 -0.05642779 0.034724794 -0.19966757
-0.16060217 -0.15626158 -0.05208719 -0.19532697 -0.039065395 -0.04774659 -0.15626158 0.10851498
0.10851498 0.021702997 0.091152586 -0.17796457 0.082471386 -0.013021798 -0.06510899 -0.20834877
-0.06510899 -0.017362397 -0.13455857 -0.14323978 0.082471386 -0.04774659 -0.008681199 -0.06076839
-0.17362398 -0.22137056 -0.11719618 -0.16060217 0.04774659 0.05642779 -0.19966757 0.23873296
-0.017362397 0.043405995 -0.10417438 0.0043405993 -0.11285558 -0.08681199 0.06944959 0.11719618
-0.13889918 -0.12587738 -0.12587738 0.11719618 -0.034724794 0.039065395 0.07813079 -0.034724794
0.07813079 -0.043405995 -0.091152586 0.07813079 0.14323978 0.06076839 0.082471386 -0.18664578
0.034724794 0.05208719 -0.11719618 -0.11285558 0.043405995 0.06076839 -0.06510899 0.082471386
-0.082471386 -0.030384194 -0.0043405993 -0.091152586 -0.14758037 -0.11285558 -0.008681199 -0.06944959
-0.034724794 0.030384194 -0.030384194 0.09549318 -0.15626158 0.039065395 -0.10851498 -0.22137056
-0.17796457 -0.039065395 0.04774659 -0.05208719 0.034724794 -0.15626158 -0.19532697 -0.09983379
-0.04774659 -0.18230517 0.043405995 -0.034724794 -0.073790185 -0.13455857 0.082471386 -0.20834877
0.030384194 -0.20834877 -0.043405995 0.008681199 -0.082471386 -0.082471386 0.09983379 0.06944959
-0.091152586 -0.05208719 -0.10417438 -0.008681199 0.082471386 -0.05208719 0.017362397 0.082471386
0.07813079 0.06510899 0.06944959 0.08681199 0.026043596 0.12587738 -0.0043405993 -0.039065395
-0.06510899 -0.021702997 -0.091152586 -0.10417438 0.0043405993 0.017362397 0.06944959 0.07813079
-0.0043405993 -0.06944959 -0.013021798 -0.13455857 0.082471386 0.06076839 -0.034724794 -0.13021798
-0.013021798 -0.16494277 -0.10851498 0.073790185 -0.15626158 -0.17796457 0.10851498 0.017362397
0.07813079 0.05642779 -0.12153678 0.0043405993 0.06076839 -0.12587738 -0.013021798 -0.05208719
-0.12153678 -0.11719618 -0.043405995 0.013021798 -0.017362397 0.16060217 0.10851498 -0.039065395
0.05642779 -0.14323978 0.05642779 -0.030384194 0.021702997 -0.11285558 -0.17362398 0.05642779
-0.06510899 0.026043596 -0.04774659 -0.09549318 -0.12153678 -0.13455857 -0.08681199 -0.15626158
0.013021798 0.073790185 0.12587738 -0.11285558 -0.06510899 -0.14758037 -0.008681199 -0.034724794
-0.12153678 -0.15192097 0.06944959 -0.13021798 0.05642779 -0.08681199 -0.013021798 -0.23873296
0.030384194 0.026043596 0.017362397 -0.06076839 -0.19532697 0.04774659 -0.013021798 0.20400816
-0.09983379 0.19532697 -0.18230517 -0.06944959 0.026043596 -0.0043405993 0.073790185 -0.091152586
0.017362397 -0.11719618 0.091152586 -0.08681199 -0.021702997 -0.017362397 -0.008681199 0.04774659
-0.17796457 -0.017362397 -0.10417438 -0.073790185 0.06076839 0.021702997 -0.06076839 0.0043405993
-0.09983379 -0.14323978 -0.13889918 0.13455857 -0.14758037 -0.09549318 -0.091152586 -0.09549318
0.0043405993 0.039065395 0.017362397 -0.14323978 0.073790185 -0.09549318 -0.0043405993 0.10851498
0.043405995 0.021702997 0.034724794 -0.08681199 -0.20834877 -0.082471386 -0.28647956 -0.26477656
00000000: d200 1011 0bf3 08d2 dbdc f4d3 f7f5 dc19
00000010: 1905 15d7 13fd f1d0 f1fc e1df 13f5 fef2
00000020: d8cd e5db 0b0d d237 fc0a e801 e6ec 101b
00000030: e0e3 e31b f809 12f8 12f6 eb12 210e 13d5
00000040: 080c e5e6 0a0e f113 edf9 ffeb dee6 fef0
00000050: f807 f916 dc09 e7cd d7f7 0bf4 08dc d3e9
00000060: f5d6 0af8 efe1 13d0 07d0 f602 eded 1710
00000070: ebf4 e8fe 13f4 0413 120f 1014 061d fff7
00000080: f1fb ebe8 0104 1012 fff0 fde1 130e f8e2
00000090: fdda e711 dcd7 1904 120d e401 0ee3 fdf4
000000a0: e4e5 f603 fc25 19f7 0ddf 0df9 05e6 d80d
000000b0: f106 f5ea e4e1 ecdc 0311 1de6 f1de fef8
000000c0: e4dd 10e2 0dec fdc9 0706 04f2 d30b fd2f
000000d0: e92d d6f0 06ff 11eb 04e5 15ec fbfc fe0b
000000e0: d7fc e8ef 0e05 f201 e9df e01f deea ebea
000000f0: 0109 04df 11ea ff19 0a05 08ec d0ed bec3

lstm_5/lstm_cell_6/bias1 f4 [256]
0.020936528 0.019031197 0.010719034 0.009650944 -0.010479978 -0.007841888 -0.00072734855 0.012517537
-0.008008419 -0.029081455 -0.008663915 0.020863876 0.006012358 -0.00024429237 -0.0027178787 0.0042560124
0.0014563071 -0.0023805199 0.0026934526 -0.0011637105 0.0022492383 0.007929267 0.0060055284 -0.013349001
-0.02047851 0.019323602 -0.0017348758 -0.0022252256 -0.009580694 -0.008813828 -0.0036887787 -0.014038992
0.00838914 -0.0013561478 -0.010752718 0.011919043 0.008813178 0.020574277 -0.0008110432 0.00019207786
-0.0027834836 0.025780812 0.011812638 0.0019932624 0.0023473988 0.017132886 -0.0039637457 -0.00224677
0.019270388 0.025405329 -0.002630741 0.011740047 0.006333841 0.014224823 0.00574492 0.0001014596
-0.0061770203 -0.0012979521 0.013653801 0.02354895 0.009618019 0.007095214 0.001340824 0.023862679
1.0 1.0 1.0 1.0 1.0 1.0 1.0 1.0
1.0 1.0 1.0 1.0 1.0 1.0 1.0 1.0
1.0 1.0 1.0 1.0 1.0 1.0 1.0 1.0
1.0 1.0 1.0 1.0 1.0 1.0 1.0 1.0
1.0 1.0 1.0 1.0 1.0 1.0 1.0 1.0
1.0 1.0 1.0 1.0 1.0 1.0 1.0 1.0
1.0 1.0 1.0 1.0 1.0 1.0 1.0 1.0
1.0 1.0 1.0 1.0 1.0 1.0 1.0 1.0
0.08198852 -0.10745862 -0.10092 0.03689125 -0.074402034 -0.020993462 -0.060885504 0.0880472
-0.082118146 -0.0073124697 0.042266127 -0.03703615 0.11263915 0.08610618 0.051432393 -0.05395134
0.122441426 0.028231239 0.086612925 -0.056894075 0.047284853 0.0074317 0.08133442 0.09489096
0.045706324 0.11369033 0.06552512 0.09064191 0.03498949 -0.05173544 0.09016269 -0.07534699
0.08600219 -0.0717874 0.075306475 -0.10565023 0.047758687 -0.1519705 0.01855819 -0.059270017
-0.032216292 -0.09281276 -0.10671693 -0.012389068 0.052344557 0.019056419 -0.02167214 0.025051253
0.012426109 -0.054394472 0.033501167 0.10490379 -0.110060126 -0.031677574 -0.039110843 0.060703244
0.0016312563 0.083188444 -0.07868882 -0.013428856 0.082205765 0.017132733 0.021781292 0.04795513
0.0040873475 0.037361305 0.019237312 0.0061337627 -0.022764904 -0.012776221 -0.007103206 0.013190763
-0.010606172 -0.0270255 -0.0056407354 0.0032536993 0.004302031 -0.006152377 -0.006716083 -0.0062923133
-0.000569346 -0.006282781 -0.00855999 0.00067203457 -0.0009248302 0.0011830095 -0.0074455217 -0.015260661
-0.026282873 0.0151752215 -0.010166728 -0.006224049 -0.011428103 -0.0189953 0.00037094997 -0.022355953
0.009078485 -0.012563088 -0.013816886 0.008086035 0.001918967 0.017267277 -0.0025935203 0.00563282
-0.011673739 0.017421244 0.006533138 -0.0019672483 -0.0059382897 0.019494614 -0.0037961116 -0.007525789
0.010485075 0.0018689579 -0.013361731 0.011560771 -0.012095817 0.0057816743 0.002839461 -0.0073300484
-0.012238874 -0.010648772 -0.003587259 0.009842359 -0.008852471 0.008033152 -0.0065480205 0.01270315
00000000: 1583 ab3c 50e7 9b3c e39e 2f3c fe1e 1e3c
00000010: 37b4 2bbc 437b 00bc 89ab 3eba 5b16 4d3c
00000020: be35 03bc 3b3c eebc 18f3 0dbc b8ea aa3c
00000030: 5003 c53b 5e14 80b9 701e 32bb 0576 8b3b
00000040: 8fe1 be3a 7f02 1cbb a384 303b a587 98ba
00000050: f567 133b c2e9 013c 06ca c43b c5b5 5abc
00000060: 8cc2 a7bc 884c 9e3c c664 e3ba 17d5 11bb
00000070: 58f8 1cbc e067 10bc 70bf 71bb cd03 66bc
00000080: 9a72 093c c5c0 b1ba 2b2c 30bc 1748 433c
00000090: 2665 103c 638b a83c 309c 54ba 8268 4939
000000a0: 1b6b 36bb 4832 d33c cb89 413c 65a1 023b
000000b0: d1d6 193b 445a 8c3c 4fe2 81bb 8c3e 13bb
000000c0: efdc 9d3c d61e d03c 8368 2cbb 5359 403c
000000d0: 1c8c cf3b 3b0f 693c e23f bc3b b5c6 d438
000000e0: 9a68 cabb 0c20 aaba 31b4 5f3c bae9 c03c
000000f0: e594 1d3c f87e e83b 96be af3a aa7b c33c
00000100: 0000 803f 0000 803f 0000 803f 0000 803f
00000110: 0000 803f 0000 803f 0000 803f 0000 803f
00000120: 0000 803f 0000 803f 0000 803f 0000 803f
00000130: 0000 803f 0000 803f 0000 803f 0000 803f
00000140: 0000 803f 0000 803f 0000 803f 0000 803f
00000150: 0000 803f 0000 803f 0000 803f 0000 803f
00000160: 0000 803f 0000 803f 0000 803f 0000 803f
00000170: 0000 803f 0000 803f 0000 803f 0000 803f
00000180: 0000 803f 0000 803f 0000 803f 0000 803f
00000190: 0000 803f 0000 803f 0000 803f 0000 803f
000001a0: 0000 803f 0000 803f 0000 803f 0000 803f
000001b0: 0000 803f 0000 803f 0000 803f 0000 803f
000001c0: 0000 803f 0000 803f 0000 803f 0000 803f
000001d0: 0000 803f 0000 803f 0000 803f 0000 803f
000001e0: 0000 803f 0000 803f 0000 803f 0000 803f
000001f0: 0000 803f 0000 803f 0000 803f 0000 803f
00000200: 99e9 a73d 4413 dcbd 25af cebd 481b 173d
00000210: 1860 98bd 7bfa abbc 1463 79bd 1752 b43d
00000220: 8f2d a8bd 719d efbb 3f1f 2d3d 38b3 17bd
00000230: 5baf e63d 7058 b03d c6aa 523d 15fc 5cbd
00000240: 92c2 fa3d 3345 e73c 1e62 b13d c309 69bd
00000250: c3ad 413d 9e85 f33b a992 a63d 3156 c23d
00000260: 8e36 3b3d 7ad6 e83d 0932 863d 77a2 b93d
00000270: 2451 0f3d 8ae8 53bd 37a7 b83d 864f 9abd
00000280: eb21 b03d 4605 93bd 483a 9a3d 265f d8bd
00000290: 9d9e 433d 289e 1bbe 5807 983c 1ec5 72bd
000002a0: 3bf5 03bd 9e14 bebd 688e dabd 84fb 4abc
000002b0: 3f67 563d 351c 9c3c c689 b1bc 4938 cd3c
000002c0: e196 4b3c bdcc 5ebd 8538 093d ccd7 d63d
000002d0: 3467 e1bd 58c0 01bd b132 20bd f7a3 783d
000002e0: e1cf d53a b45e aa3d 9b27 a1bd b404 5cbc
000002f0: 7f5b a83d f259 8c3c ae6e b23c 996c 443d
00000300: 28ef 853b 2b08 193d 9197 9d3c bbfd c83b
00000310: 777d babc 5b53 51bc 03c2 e8bb 121e 583c
00000320: 82c5 2dbc 9564 ddbc ebd5 b8bb 043c 553b
00000330: 0df8 8c3b e199 c9bb 9612 dcbb c02f cebb
00000340: 2a40 15ba c9df cdbb 333f 0cbc 7a2b 303a
00000350: 4e70 72ba 360f 9b3a 90f9 f3bb da07 7abc
00000360: 2e4f d7bc 7ea1 783c 5992 26bc 1bf3 cbbb
00000370: f03c 3bbc 089c 9bbc 107c c239 d523 b7bc
00000380: edbd 143c 69d5 4dbc 3860 62bc 4a7b 043c
00000390: d985 fb3a 1b74 8d3c 0df8 29bb 8593 b83b
000003a0: 3643 3fbc ffb6 8e3c ef13 d63b f3ec 00bb
000003b0: fc95 c2bb 2bb3 9f3c 2fc8 78bb e59a f6bb
000003c0: 98c9 2b3c d2f7 f43a 29eb 5abc 6369 3d3c
000003d0: 892d 46bc 3374 bd3b 4016 3a3b e730 f0bb
000003e0: 8f85 48bc 3078 2ebc 3818 6bbb d941 213c
000003f0: f409 11bc 7b9d 033c c790 d6bb df20 503c

while/MatMul_12 i1 [256, 64] scale=0.0019438774 zero_point=0
0.03693367 -0.009719387 0.0038877549 0.021382652 0.048596937 -0.038877547 -0.0038877549 -0.025270406
0.015551019 0.08164285 0.058316324 -0.021382652 -0.011663265 -0.03693367 -0.058316324 0.0136071425
-0.011663265 0.095249996 0.05442857 0.11274489 0.031102039 0.019438773 0.056372445 0.04470918
-0.033045918 0.0058316323 0.033045918 -0.031102039 -0.1030255 -0.019438773 0.050540812 -0.038877547
0.0602602 0.017494896 -0.099137746 0.058316324 -0.009719387 0.048596937 0.0058316323 0.031102039
-0.1457908 0.042765304 -0.09136224 -0.031102039 -0.0058316323 -0.034989793 -0.048596937 0.10691326
-0.02332653 0.056372445 0.02332653 -0.0019438774 -0.029158162 -0.048596937 -0.042765304 0.042765304
0.08164285 -0.021382652 -0.04470918 -0.017494896 -0.034989793 -0.071923465 0.0019438774 0.04470918
0.06414796 0.07775509 -0.015551019 0.042765304 0.0038877549 0.040821426 -0.069979586 0.040821426
-0.071923465 -0.0038877549 -0.048596937 0.029158162 0.07581122 -0.07775509 0.0038877549 0.0019438774
-0.029158162 -0.04665306 0.021382652 -0.11857653 0.015551019 0.009719387 0.0077755097 0.02332653
0.050540812 -0.034989793 -0.050540812 -0.033045918 0.07969897 0.08358673 0.08941836 0.040821426
-0.048596937 -0.11857653 0.11857653 -0.071923465 0.069979586 0.017494896 0.09330612 0.009719387
-0.05442857 0.13218367 -0.1457908 0.05442857 -0.011663265 -0.04470918 0.029158162 0.038877547
0.040821426 0.017494896 0.09136224 -0.12246428 0.0038877549 0.025270406 0.038877547 -0.009719387
0.009719387 -0.0077755097 0.025270406 -0.021382652 -0.08358673 -0.042765304 -0.031102039 0.101081625
0.048596937 -0.05248469 0.095249996 -0.038877547 -0.042765304 0.017494896 -0.027214285 -0.099137746
-0.09330612 -0.1380153 0.034989793 0.025270406 0.09330612 0.017494896 0.0019438774 0.08553061
-0.042765304 0.0077755097 -0.038877547 -0.03693367 -0.06803571 0.0136071425 0.071923465 0.06803571
-0.066091835 0.027214285 0.101081625 0.05248469 0.0136071425 0.015551019 -0.031102039 -0.021382652
0.040821426 -0.12246428 0.040821426 -0.0038877549 0.11857653 -0.02332653 0.09330612 -0.11274489
0.05442857 -0.095249996 0.0058316323 -0.009719387 0.048596937 0.05248469 -0.03693367 0.066091835
0.071923465 -0.056372445 0.097193874 -0.040821426 0.10496938 -0.05442857 0.009719387 0.038877547
-0.009719387 -0.021382652 -0.0019438774 0.02332653 -0.015551019 -0.14773469 -0.033045918 -0.04665306
-0.11274489 -0.08358673 -0.03693367 -0.06803571 -0.031102039 -0.009719387 0.0136071425 0.04470918
-0.02332653 -0.017494896 0.017494896 -0.050540812 0.029158162 -0.101081625 0.025270406 -0.0058316323
0.04470918 0.15356632 0.025270406 0.029158162 -0.095249996 -0.04665306 0.1030255 -0.12829591
0.04470918 0.06803571 0.019438773 0.027214285 0.05248469 -0.009719387 -0.040821426 -0.019438773
0.058316324 0.033045918 0.038877547 0.062204078 0.10885714 -0.011663265 0.027214285 0.0136071425
0.040821426 -0.02332653 0.015551019 -0.033045918 0.040821426 0.07386734 0.03693367 -0.042765304
-0.031102039 -0.048596937 -0.011663265 -0.11663265 -0.062204078 -0.0058316323 -0.09330612 0.009719387
0.04470918 -0.02332653 0.06414796 -0.07775509 -0.058316324 -0.050540812 0.02332653 -0.017494896
00000000: 13fb 020b 19ec fef3 082a 1ef5 faed e207
00000010: fa31 1c3a 100a 1d17 ef03 11f0 cbf6 1aec
00000020: 1f09 cd1e fb19 0310 b516 d1f0 fdee e737
00000030: f41d 0cff f1e7 ea16 2af5 e9f7 eedb 0117
00000040: 2128 f816 0215 dc15 dbfe e70f 27d8 0201
00000050: f1e8 0bc3 0805 040c 1aee e6ef 292b 2e15
00000060: e7c3 3ddb 2409 3005 e444 b51c fae9 0f14
00000070: 1509 2fc1 020d 14fb 05fc 0df5 d5ea f034
00000080: 19e5 31ec ea09 f2cd d0b9 120d 3009 012c
00000090: ea04 eced dd07 2523 de0e 341b 0708 f0f5
000000a0: 15c1 15fe 3df4 30c6 1ccf 03fb 191b ed22
000000b0: 25e3 32eb 36e4 0514 fbf5 ff0c f8b4 efe8
000000c0: c6d5 eddd f0fb 0717 f4f7 09e6 0fcc 0dfd
000000d0: 174f 0d0f cfe8 35be 1723 0a0e 1bfb ebf6
000000e0: 1e11 1420 38fa 0e07 15f4 08ef 1526 13ea
000000f0: f0e7 fac4 e0fd d005 17f4 21d8 e2e6 0cf7

while/MatMul3 i1 [256, 64] scale=0.0037422886 zero_point=0
0.04490746 -0.05239204 -0.05613433 -0.029938309 -0.15717612 -0.08981492 -0.059876617 0.14594926
0.037422884 0.06736119 0.05613433 0.04864975 0.13846467 -0.101041794 0.018711442 0.059876617
0.07484577 -0.13472238 -0.041165173 -0.12349552 -0.05239204 0.0 -0.05239204 0.007484577
0.063618906 0.0972995 0.10852637 -0.07484577 -0.0037422886 0.07110348 0.04490746 0.08607264
-0.119753234 -0.08607264 -0.02619602 0.11226866 -0.1309801 -0.06736119 -0.07858806 0.033680595
0.101041794 -0.1309801 -0.011226865 -0.093557216 0.16091841 0.037422884 -0.04864975 0.0
0.033680595 0.007484577 0.10852637 0.15717612 0.16466069 -0.059876617 0.02245373 -0.011226865
0.14220697 0.014969154 -0.05613433 0.14220697 -0.1309801 0.10852637 -0.063618906 0.033680595
0.014969154 -0.018711442 0.082330346 0.04490746 -0.12349552 -0.0972995 0.12723781 -0.04490746
-0.041165173 0.06736119 0.0972995 -0.082330346 0.19085671 -0.059876617 0.10478408 0.08981492
-0.04864975 -0.194599 0.014969154 -0.1309801 -0.15343383 -0.06736119 -0.13846467 -0.23576418
-0.23576418 -0.093557216 -0.007484577 -0.059876617 -0.101041794 -0.04490746 -0.17588757 0.07484577
0.014969154 0.16840298 -0.11226866 0.1309801 0.04490746 -0.07484577 -0.037422884 0.14969154
-0.082330346 -0.08981492 -0.02245373 0.033680595 0.08607264 -0.04490746 -0.04490746 0.007484577
-0.02245373 0.007484577 -0.17588757 0.0972995 0.119753234 -0.05239204 0.28067166 0.07858806
0.17962985 0.07110348 -0.07858806 0.16840298 0.014969154 0.18711443 0.2282796 -0.082330346
0.04864975 0.16840298 0.059876617 0.08981492 0.041165173 -0.11226866 0.014969154 0.037422884
-0.063618906 0.0037422886 0.17588757 0.0037422886 0.194599 -0.07858806 0.018711442 0.26944476
-0.059876617 -0.08607264 0.14594926 -0.12723781 0.05613433 -0.16466069 -0.119753234 -0.29938307
-0.2657025 -0.0972995 -0.07484577 -0.014969154 0.07858806 0.04490746 0.011226865 -0.02619602
-0.15343383 0.20582587 -0.12723781 -0.08981492 -0.12723781 -0.11601095 0.18711443 0.08607264
-0.059876617 -0.08981492 0.02619602 0.033680595 0.14969154 0.07484577 -0.04864975 -0.029938309
0.08981492 -0.018711442 0.07484577 0.082330346 -0.029938309 -0.041165173 0.37048656 0.007484577
0.0 -0.07858806 0.07110348 0.11601095 0.02619602 0.014969154 0.21331045 -0.029938309
0.08981492 0.1309801 -0.02619602 -0.07484577 -0.041165173 -0.1309801 0.011226865 -0.063618906
0.033680595 0.014969154 0.02619602 0.0972995 0.04864975 0.101041794 0.15343383 -0.101041794
-0.029938309 -0.041165173 0.0 -0.041165173 0.014969154 0.04864975 0.014969154 0.12349552
0.011226865 -0.041165173 -0.07858806 0.063618906 0.0037422886 -0.1309801 0.014969154 -0.007484577
-0.13472238 -0.033680595 -0.14594926 -0.1309801 -0.033680595 0.0972995 -0.007484577 0.12723781
0.02245373 -0.08607264 0.0 -0.07484577 0.029938309 0.011226865 0.033680595 0.041165173
0.0037422886 -0.04490746 -0.029938309 -0.101041794 0.011226865 -0.033680595 -0.037422884 -0.04490746
-0.04864975 0.0972995 0.15717612 0.018711442 -0.07110348 -0.082330346 -0.07484577 -0.07858806
00000000: 0cf2 f1f8 d6e8 f027 0a12 0f0d 25e5 0510
00000010: 14dc f5df f200 f202 111a 1dec ff13 0c17
00000020: e0e9 f91e ddee eb09 1bdd fde7 2b0a f300
00000030: 0902 1d2a 2cf0 06fd 2604 f126 dd1d ef09
00000040: 04fb 160c dfe6 22f4 f512 1aea 33f0 1c18
00000050: f3cc 04dd d7ee dbc1 c1e7 fef0 e5f4 d114
00000060: 042d e223 0cec f628 eae8 fa09 17f4 f402
00000070: fa02 d11a 20f2 4b15 3013 eb2d 0432 3dea
00000080: 0d2d 1018 0be2 040a ef01 2f01 34eb 0548
00000090: f0e9 27de 0fd4 e0b0 b9e6 ecfc 150c 03f9
000000a0: d737 dee8 dee1 3217 f0e8 0709 2814 f3f8
000000b0: 18fb 1416 f8f5 6302 00eb 131f 0704 39f8
000000c0: 1823 f9ec f5dd 03ef 0904 071a 0d1b 29e5
000000d0: f8f5 00f5 040d 0421 03f5 eb11 01dd 04fe
000000e0: dcf7 d9dd f71a fe22 06e9 00ec 0803 090b
000000f0: 01f4 f8e5 03f7 f6f4 f31a 2a05 edea eceb
