lstm988_ae_0802.tflite (tflite, 223932 bytes, 10 tensors)

time_distributed_8/bias f4 [4]
000000 6c 0c ac 3d 04 28 b4 3d 45 40 42 3d 47 7a 9a 3d
       0.08400807 0.08796695 0.047424573 0.07542854

lstm_42/lstm_cell_52/bias f4 [256]
000000 f3 a7 87 3d 65 9f c3 3d 47 f8 b1 3d 76 e5 94 bc
       0.06623831 0.095518865 0.08689933 -0.018175822
000010 0d 05 90 3d 17 cb 85 bb c1 53 83 3d 7e 4d b4 3d
       0.07032213 -0.004083048 0.06412459 0.08803843
000020 0f 82 d0 bb 46 94 b7 3d d6 d3 a5 bc c4 10 7d bc
       -0.0063631604 0.08963828 -0.020242613 -0.015445892
000030 44 bb a1 3d 7a 19 c5 3d e3 d1 72 bc ce 83 ab 3d
       0.07897046 0.09624 -0.014820549 0.08374749
000040 9a 51 d7 3d ae bd ec 3d e8 49 8d 3d d7 bd 96 bc
       0.10513611 0.11559616 0.06898862 -0.01840107
000050 aa b9 a4 bc 97 11 84 bc 49 fc a7 3d 00 00 00 00
       -0.020108063 -0.016121669 0.082024164 0.0
000060 68 00 85 3d 59 a7 38 bc 0f 02 78 3d 3c 85 ea 3d
       0.06494218 -0.011270368 0.06054884 0.11451194
000070 41 53 a4 3d a1 8c 9d 3d 4a 09 c1 3d 0d db 5d bc
       0.08023692 0.076928385 0.094256 -0.013540995
000080 d9 4b d3 3d dc 43 80 bb fe 9c 6b bc bc 5c f2 bc
       0.10317201 -0.0039143395 -0.014380692 -0.029585235
000090 9c 66 a4 bc 05 22 91 3d ea 0c 25 3e 02 1a c9 3d
       -0.02006846 0.07086567 0.16118208 0.09819414
0000a0 36 97 a4 3d 5e 68 25 bc 44 af 86 bc 83 6a ce 3d
       0.08036654 -0.010095684 -0.016440995 0.10078909
0000b0 8c 88 ac 3d c1 fa 98 bc e4 4c bb bc 29 fa 8c bc
       0.08424482 -0.018674256 -0.022863813 -0.01720913
0000c0 a4 7c 8a bc 43 60 92 3d 03 fc a4 3d fc 82 c5 3d
       -0.016905136 0.07147267 0.0805588 0.09644124
0000d0 6c 2f 39 3e 68 37 91 3d a9 bc b3 3d 5a ad 9c 3d
       0.18084496 0.07090646 0.087762184 0.07650252
0000e0 dc ca e4 bb a6 ec 98 bc 1c fc b6 bc 86 b0 b1 3d
       -0.0069821905 -0.01866753 -0.022337012 0.08676247
0000f0 2c ac 6f 3d d8 8c 35 bd 16 91 8f bc f8 89 99 3d
       0.058513805 -0.044323772 -0.017525237 0.074970186
000100 00 00 80 3f 00 00 80 3f 00 00 80 3f 00 00 80 3f
       1.0 1.0 1.0 1.0
000110 00 00 80 3f 00 00 80 3f 00 00 80 3f 00 00 80 3f
       1.0 1.0 1.0 1.0
000120 00 00 80 3f 00 00 80 3f 00 00 80 3f 00 00 80 3f
       1.0 1.0 1.0 1.0
000130 00 00 80 3f 00 00 80 3f 00 00 80 3f 00 00 80 3f
       1.0 1.0 1.0 1.0
000140 00 00 80 3f 00 00 80 3f 00 00 80 3f 00 00 80 3f
       1.0 1.0 1.0 1.0
000150 00 00 80 3f 00 00 80 3f 00 00 80 3f 00 00 80 3f
       1.0 1.0 1.0 1.0
000160 00 00 80 3f 00 00 80 3f 00 00 80 3f 00 00 80 3f
       1.0 1.0 1.0 1.0
000170 00 00 80 3f 00 00 80 3f 00 00 80 3f 00 00 80 3f
       1.0 1.0 1.0 1.0
000180 00 00 80 3f 00 00 80 3f 00 00 80 3f 00 00 80 3f
       1.0 1.0 1.0 1.0
000190 00 00 80 3f 00 00 80 3f 00 00 80 3f 00 00 80 3f
       1.0 1.0 1.0 1.0
0001a0 00 00 80 3f 00 00 80 3f 00 00 80 3f 00 00 80 3f
       1.0 1.0 1.0 1.0
0001b0 00 00 80 3f 00 00 80 3f 00 00 80 3f 00 00 80 3f
       1.0 1.0 1.0 1.0
0001c0 00 00 80 3f 00 00 80 3f 00 00 80 3f 00 00 80 3f
       1.0 1.0 1.0 1.0
0001d0 00 00 80 3f 00 00 80 3f 00 00 80 3f 00 00 80 3f
       1.0 1.0 1.0 1.0
0001e0 00 00 80 3f 00 00 80 3f 00 00 80 3f 00 00 80 3f
       1.0 1.0 1.0 1.0
0001f0 00 00 80 3f 00 00 80 3f 00 00 80 3f 00 00 80 3f
       1.0 1.0 1.0 1.0
000200 ea 37 25 3d f6 19 0b 3d e0 1f fa 3c 84 ec 9f bc
       0.040336527 0.033960305 0.030532777 -0.01952196
000210 25 54 2d 3d a7 5e 16 bc ec 53 f7 3c 61 54 6e 3d
       0.042316575 -0.00917784 0.030191384 0.05818594
000220 89 42 4c bc ce 25 75 3d ce 6b 8d bc 02 7c ad bc
       -0.012467035 0.059850506 -0.01726332 -0.021177296
000230 d6 9e 00 3d 1b c7 90 3d 1c c3 b1 bc 76 9e 5d 3d
       0.031401478 0.07069226 -0.02169948 0.0541062
000240 2f 7c 40 3d c0 60 ab bb 03 b0 15 3d 2d c7 b6 bc
       0.04699343 -0.0052300394 0.03654481 -0.022311771
000250 cd b4 b1 bc 47 72 bb bc 7a 8a 94 3d 00 00 00 00
       -0.021692658 -0.02288164 0.07252975 0.0
000260 ab 35 1e 3d 29 35 79 bc 5e b6 4f 3c 73 70 6b 3d
       0.0386254 -0.015210428 0.012677757 0.057480287
000270 9b 85 37 3d 58 9c 8c 3d 9e 7c 74 3d 72 67 8a bc
       0.04480515 0.06865758 0.059689157 -0.01689503
000280 df 8b 29 3d 28 f4 5b bc a7 b9 84 bc 1c 70 1c bd
       0.041393157 -0.013424911 -0.016201807 -0.038192853
000290 10 8e b8 bc a5 35 bb 3c fa b6 84 3c f9 a8 94 3d
       -0.022528678 0.022852728 0.016200531 0.072587915
0002a0 0f 4a 6b 3d 31 ca 44 bc 13 a7 74 bc 9d 4f 8d 3d
       0.057443675 -0.012011097 -0.014932412 0.06899951
0002b0 6a 4a 1f 3d 3a 2c d4 bc 84 c2 ba bc 4a 23 87 bc
       0.038889326 -0.025899995 -0.02279783 -0.01649632
0002c0 9c 05 98 bc b9 74 82 3d cc 6b 81 3d 08 dc 7e 3d
       -0.018557362 0.06369919 0.06319389 0.062221557
0002d0 49 8b 73 3d ea dc 32 3d 81 ed 4c 3d 86 37 13 3d
       0.059459005 0.04366771 0.05003119 0.035941623
0002e0 39 08 a6 bc 79 e1 be bc d2 ee 92 bc 06 f3 a7 3d
       -0.020267593 -0.023300873 -0.017936144 0.0820065
0002f0 01 21 92 3c 41 05 0d bc ec 8d ce bc 6a 42 a2 3d
       0.017838003 -0.00860721 -0.025214158 0.07922824
000300 9b 2b 88 3d 11 7f c4 3d ee 59 b4 3d ee f5 93 bc
       0.06648942 0.095945485 0.08806215 -0.018061604
000310 10 8b 90 3d 3f d4 85 bb a3 7d 81 3d 89 7e b3 3d
       0.07057774 -0.0040841396 0.063227914 0.08764369
000320 39 d0 cf bb 9e 9f b5 3d d4 7b a6 bc 20 fe 7d bc
       -0.0063419607 0.08868335 -0.020322718 -0.015502483
000330 82 b6 a2 3d cb e6 c3 3d 4c 42 71 bc d2 f9 ad 3d
       0.07944967 0.09565505 -0.014725279 0.08494915
000340 f1 4d d1 3d bd 13 ea 3d 1c 9a 8e 3d a4 2e 97 bc
       0.10219944 0.11429546 0.06962988 -0.018454857
000350 12 32 a4 bc 80 ce 83 bc 88 a5 a7 3d 00 00 00 00
       -0.020043407 -0.016089678 0.081858695 0.0
000360 30 9f 83 3d 57 7d 38 bc be bb 72 3d fa 37 ea 3d
       0.06426847 -0.011260352 0.059261076 0.11436458
000370 12 86 a3 3d 05 1e a2 3d 8a 9d be 3d 31 d2 5d bc
       0.07984556 0.07915882 0.09307392 -0.013538883
000380 21 6c d3 3d d0 b0 81 bb 76 69 6c bc 1a 5f f2 bc
       0.10323358 -0.0039578453 -0.014429441 -0.029586364
000390 26 db a5 bc 44 e6 93 3d 28 2b 25 3e 0f 65 c8 3d
       -0.0202461 0.07221654 0.16129744 0.097849004
0003a0 48 43 a5 3d 4f 60 25 bc ec 83 86 bc 40 5b cc 3d
       0.080694735 -0.010093763 -0.016420327 0.09978342
0003b0 46 d0 ac 3d 04 b0 98 bc 12 3c ba bc 60 8f 8c bc
       0.084381625 -0.018638618 -0.022733722 -0.01715821
0003c0 3e d6 8a bc ad bc 92 3d 15 73 a3 3d 8d f2 c4 3d
       -0.016947862 0.07164893 0.079809345 0.096165754
0003d0 fd 08 36 3e 0e 8c 93 3d ca 4c b3 3d 18 82 9d 3d
       0.17776866 0.07204448 0.08754881 0.07690829
0003e0 31 d0 e4 bb 27 16 99 bc b3 ee b6 bc 88 5f b0 3d
       -0.006982826 -0.01868732 -0.022330618 0.08611971
0003f0 1d c5 6c 3d 85 40 34 bd cc 5f 90 bc 60 c6 99 3d
       0.05780517 -0.044006843 -0.017623805 0.0750854

lstm_41/lstm_cell_51/bias f4 [256]
000000 7f 8f ea bb 54 04 84 3d 00 00 00 00 0b 14 89 3d
       -0.0071582193 0.06446138 0.0 0.06693276
000010 6d 85 98 3d 3e e4 5b 3d 01 d7 3f 3d 45 2a 54 3d
       0.07447324 0.053684466 0.046835903 0.051798124
000020 00 00 00 00 8d e7 b3 3e 62 f5 93 3d 61 d2 0f 3d
       0.0 0.35137597 0.072245374 0.035112742
000030 a9 74 8e 3d 0c 10 8c 3d e2 92 9a 3d e8 0b ad 3d
       0.06955845 0.06838998 0.07547547 0.084495366
000040 28 3c e4 3d 00 00 00 00 cd ab 8f 3d fd 46 f0 3d
       0.111442864 0.0 0.0701519 0.1173229
000050 00 00 00 00 42 2d 9b 3e dc 82 cd 3e 00 00 00 00
       0.0 0.30307966 0.401389 0.0
000060 64 c3 b7 3e 35 22 e6 bb 3f ff 97 3d 00 00 00 00
       0.3589126 -0.0070231208 0.07421731 0.0
000070 00 00 00 00 cf be 8c 3e ee 5a 94 3d c9 99 2a bc
       0.0 0.27489325 0.07243906 -0.010412642
000080 96 76 bc 3d 4a b0 4e 3d 29 21 8e 3d 1d dd 84 bb
       0.09202306 0.05046109 0.069399185 -0.004054679
000090 10 cf e6 3d e1 ed ee 3d 00 00 00 00 43 94 96 3d
       0.11269963 0.116664656 0.0 0.073524974
0000a0 9f 9f 71 3d c7 55 ad 3d 00 00 00 00 58 35 b3 3d
       0.058990117 0.08463626 0.0 0.08750409
0000b0 00 00 00 00 19 be 85 3d 4c 96 a2 3d 33 7e 85 3d
       0.0 0.06530399 0.07938823 0.06518211
0000c0 53 34 8f 3d 49 62 c1 3e 00 00 00 00 fe 78 08 3e
       0.06992402 0.37770298 0.0 0.13327405
0000d0 cc 52 bd 3d c8 1d 7a 3d 91 91 63 3d e5 57 ec 3d
       0.09244308 0.061063558 0.055558745 0.11540202
0000e0 cc b5 89 3d 2a 78 d6 3e a9 47 7a 3d ae 16 56 3d
       0.06724128 0.41888553 0.061103497 0.052267723
0000f0 98 5f 9b 3d a3 b7 59 3d cd 9b ea bb 94 dc 56 3d
       0.075865924 0.053153645 -0.007159686 0.052456453
000100 00 00 80 3f 00 00 80 3f 00 00 80 3f 00 00 80 3f
       1.0 1.0 1.0 1.0
000110 00 00 80 3f 00 00 80 3f 00 00 80 3f 00 00 80 3f
       1.0 1.0 1.0 1.0
000120 00 00 80 3f 00 00 80 3f 00 00 80 3f 00 00 80 3f
       1.0 1.0 1.0 1.0
000130 00 00 80 3f 00 00 80 3f 00 00 80 3f 00 00 80 3f
       1.0 1.0 1.0 1.0
000140 00 00 80 3f 00 00 80 3f 00 00 80 3f 00 00 80 3f
       1.0 1.0 1.0 1.0
000150 00 00 80 3f 00 00 80 3f 00 00 80 3f 00 00 80 3f
       1.0 1.0 1.0 1.0
000160 00 00 80 3f 00 00 80 3f 00 00 80 3f 00 00 80 3f
       1.0 1.0 1.0 1.0
000170 00 00 80 3f 00 00 80 3f 00 00 80 3f 00 00 80 3f
       1.0 1.0 1.0 1.0
000180 00 00 80 3f 00 00 80 3f 00 00 80 3f 00 00 80 3f
       1.0 1.0 1.0 1.0
000190 00 00 80 3f 00 00 80 3f 00 00 80 3f 00 00 80 3f
       1.0 1.0 1.0 1.0
0001a0 00 00 80 3f 00 00 80 3f 00 00 80 3f 00 00 80 3f
       1.0 1.0 1.0 1.0
0001b0 00 00 80 3f 00 00 80 3f 00 00 80 3f 00 00 80 3f
       1.0 1.0 1.0 1.0
0001c0 00 00 80 3f 00 00 80 3f 00 00 80 3f 00 00 80 3f
       1.0 1.0 1.0 1.0
0001d0 00 00 80 3f 00 00 80 3f 00 00 80 3f 00 00 80 3f
       1.0 1.0 1.0 1.0
0001e0 00 00 80 3f 00 00 80 3f 00 00 80 3f 00 00 80 3f
       1.0 1.0 1.0 1.0
0001f0 00 00 80 3f 00 00 80 3f 00 00 80 3f 00 00 80 3f
       1.0 1.0 1.0 1.0
000200 7a 87 94 bc 8b f5 82 3c 00 00 00 00 7c a2 c0 3c
       -0.018131007 0.015986225 0.0 0.023514979
000210 e3 bc ff 3c 95 44 ef bc ce aa 01 bd 9d 2f 01 bc
       0.031217998 -0.029207507 -0.031657033 -0.007884887
000220 00 00 00 00 14 be 3b 3d 31 93 1d 3d 9e 7d 27 bb
       0.0 0.04583557 0.03847045 -0.0025557051
000230 41 b3 c6 3c b8 39 f3 3c 7c 38 b6 3c 22 7e bd 3c
       0.024255397 0.029690608 0.02224373 0.023131434
000240 98 7b 64 3c 00 00 00 00 1c 1e 06 3d 7a d5 0e bd
       0.013945483 0.0 0.03274356 -0.034871556
000250 00 00 00 00 94 5d 46 3d 92 c5 94 3d 00 00 00 00
       0.0 0.048429087 0.07264246 0.0
000260 cc 22 da 3d ab 06 9d bb 54 2f 8b 3c 00 00 00 00
       0.10651168 -0.0047920546 0.016990341 0.0
000270 00 00 00 00 0a 51 89 3d 83 6c b1 bc a4 cd ad bc
       0.0 0.0670491 -0.021658188 -0.021216221
000280 d9 0e a7 bc ee 28 90 3c 4b 2e 26 3d 59 25 74 bc
       -0.020392822 0.017597642 0.040571492 -0.0149014825
000290 89 c7 8e 3d 77 46 ca bb 00 00 00 00 2e b4 f9 3c
       0.06971652 -0.006172951 0.0 0.030481424
0002a0 04 69 aa 3c 99 a9 c9 3c 00 00 00 00 89 d6 d7 bb
       0.020802028 0.024617003 0.0 -0.006586854
0002b0 00 00 00 00 2f b2 fa 3c 55 f0 91 3c de 1a 86 3c
       0.0 0.030602543 0.017814795 0.016370233
0002c0 fb cd c8 3c 6e 34 2e 3d 00 00 00 00 3a aa 83 3a
       0.024512282 0.04253047 0.0 0.0010045238
0002d0 b2 d4 b2 3c 57 69 b3 3c 8a e0 01 3c 93 61 e4 bc
       0.021829937 0.021900816 0.007927069 -0.027878558
0002e0 b5 d1 f1 3c ae f2 a4 3d d6 b6 9b 3c 20 1b 04 3c
       0.029518941 0.080541 0.019008081 0.008063108
0002f0 ca 32 16 3d f6 cd ed 3b 84 43 98 bc d5 eb c0 3b
       0.03666953 0.0072572185 -0.018586881 0.0058874884
000300 df 3e e8 bb 74 eb 81 3d 00 00 00 00 7a 0a 94 3d
       -0.007087573 0.06343737 0.0 0.07228561
000310 cf 87 94 3d a5 08 5e 3d 37 4b 44 3d 2e d0 57 3d
       0.07252466 0.054207463 0.047923293 0.05268877
000320 00 00 00 00 4e fb b7 3e 9c 0f 96 3d e9 a2 07 3d
       0.0 0.35933918 0.07327196 0.033114348
000330 1a c3 8b 3d e6 a3 82 3d 14 69 87 3d 1b 24 ae 3d
       0.06824322 0.063789174 0.06611839 0.0850298
000340 24 49 d5 3d 00 00 00 00 44 fc 87 3d 91 a0 f4 3d
       0.10414341 0.0 0.06639913 0.11944688
000350 00 00 00 00 f6 01 9f 3e e3 84 d1 3e 00 00 00 00
       0.0 0.31056184 0.40921697 0.0
000360 f0 a6 b7 3e b1 0b e4 bb 88 25 94 3d 00 00 00 00
       0.3586955 -0.0069594015 0.07233721 0.0
000370 00 00 00 00 ab e6 8f 3e 32 fd 99 3d 48 c5 2a bc
       0.0 0.28105673 0.07518996 -0.010423012
000380 26 1d bb 3d 37 44 61 3d a5 fc 94 3d 64 58 88 bb
       0.09136419 0.054996695 0.072747506 -0.0041609276
000390 11 fb e6 3d e6 01 ec 3d 00 00 00 00 45 f4 92 3d
       0.11278356 0.115237996 0.0 0.07175497
0003a0 ac 43 6a 3d 52 ba b2 3d 00 00 00 00 20 f3 a9 3d
       0.057193443 0.08726944 0.0 0.082983255
0003b0 00 00 00 00 c5 5e 84 3d a4 6b 9e 3d 7e 71 80 3d
       0.0 0.06463388 0.077353746 0.06271647
0003c0 b6 07 91 3d 9f 53 c1 3e 00 00 00 00 08 7d 0b 3e
       0.07081549 0.3775911 0.0 0.13621914
0003d0 67 e0 b1 3d 2b 91 5b 3d 9d fb 5f 3d 18 92 f2 3d
       0.086853795 0.05360524 0.054683316 0.118442714
0003e0 cb 87 92 3d ca 3a d6 3e c8 e9 81 3d 12 06 58 3d
       0.07154807 0.41841727 0.06343418 0.052740164
0003f0 41 d3 9e 3d 30 dc 51 3d 42 73 e8 bb ee e9 4d 3d
       0.07755137 0.051235378 -0.007093818 0.05027192

sequential_17/time_distributed_8/dense_8/MatMul f4 [4, 64]
000000 4e ac 98 3e 3c 2e 35 3d 83 72 6e bd 4c 10 87 bd
       0.29818958 0.044233546 -0.058214676 -0.06594905
000010 65 ca b2 3e f0 57 6d be 21 e8 4d be c9 e4 6e bd
       0.3492004 -0.23178077 -0.20108081 -0.058323655
000020 8f e3 fa bd 98 98 89 3e 45 b5 21 bd d5 29 3b be
       -0.122504346 0.26874232 -0.039479513 -0.18277676
000030 4f 3a 1c be 12 38 b7 3e d1 2f 86 be 15 b5 53 3e
       -0.15256618 0.35784966 -0.26208356 0.20674546
000040 9c a0 ab 3c 0c 55 19 be f1 8f 28 3e 84 d4 22 3d
       0.020950608 -0.14973849 0.1646116 0.039753452
000050 fb 5f 46 be d1 78 72 be 52 03 a2 3e 58 1d 03 3d
       -0.19372551 -0.236789 0.31643158 0.032010406
000060 6a 45 6c 3e c7 9c d1 bd bd 53 ca 3c 79 39 69 3e
       0.23073354 -0.10234981 0.024698133 0.2277583
000070 30 d3 78 3e d1 09 8d 3e c5 74 8e 3d 6a fe 3b be
       0.24299312 0.27546552 0.06955866 -0.1835877
000080 d9 a7 95 bb 16 c1 c3 bd 8d 43 c0 bd f3 1d 53 be
       -0.004567128 -0.095583126 -0.09387884 -0.20616893
000090 e5 6d 2f 3d 32 c0 1f be 20 ab 8f be a8 2d 85 3e
       0.042829413 -0.1560066 -0.28060246 0.26011395
0000a0 e7 33 8c 3e 37 01 c7 bd f6 98 33 bd 4a d4 37 3e
       0.27383348 -0.097170286 -0.043847047 0.17952076
0000b0 a0 34 69 bd 46 f3 22 be 04 38 f9 bd ec 7f 4f 3e
       -0.056934953 -0.15913114 -0.12168887 0.20263642
0000c0 cd 11 6c be 0b 5f af 3c 6c 01 a0 3e 5f 0a 54 3e
       -0.23053665 0.021407625 0.31251085 0.20707081
0000d0 a1 a4 9f 3e c6 53 a6 3e 9e 6e c0 3d da 08 b9 3e
       0.3118029 0.3248579 0.093960986 0.36139566
0000e0 d8 0d 9a bc d3 94 61 be 3a 92 6e 3e 20 9f c7 3e
       -0.01880543 -0.22029428 0.23297969 0.3898859
0000f0 71 38 a8 3e d3 6e 13 bd 68 c3 82 be 6e 98 b4 3d
       0.3285556 -0.035994362 -0.25539708 0.08818136
000100 83 f5 8e bb 7a ae aa 3d b5 4b 8a 3e 6b da 45 be
       -0.0043627634 0.0833406 0.27010885 -0.19321601
000110 96 c1 44 3c 47 bf 61 be 1c 94 a8 3e fa f6 87 3e
       0.012009045 -0.22045623 0.32925498 0.26555616
000120 62 e4 7a 3e 63 8c 60 3e 84 bb eb bd b1 13 f7 3d
       0.24501184 0.21928553 -0.11510375 0.12064303
000130 31 b8 bd 3e 63 f4 cf 3d 7b 87 61 3d e4 b9 a2 3e
       0.3705459 0.10154035 0.055060845 0.31782448
000140 0d 93 8c bd 1b ab 58 3d 25 42 6e 3e 64 45 88 be
       -0.06863985 0.052897554 0.2326742 -0.2661544
000150 89 71 1e be 6b f0 18 3e 9b 94 74 3e a0 44 92 3e
       -0.15472998 0.14935462 0.23884813 0.28567982
000160 3d a9 e1 3d 4e a0 24 3c 25 fd 25 bd f5 ee c5 bd
       0.11018608 0.010047985 -0.04052462 -0.09664718
000170 d7 16 e6 bc 4e f3 92 3e a5 a8 55 3e 61 cd 32 be
       -0.028087063 0.28701252 0.20865114 -0.17461158
000180 67 77 a8 3e 3d 29 2b be 06 c9 8b be c5 1b 0d bd
       0.32903597 -0.1671495 -0.27301806 -0.03445031
000190 7a 7b 7f bd c0 ca 98 3e c9 ae 8d 3e dd 07 a7 bb
       -0.062373616 0.29842186 0.27672413 -0.005097373
0001a0 46 c3 74 3e 89 8a e6 3d e0 6e bf bb 1f 04 0f 3e
       0.23902616 0.11256892 -0.0058420748 0.13966416
0001b0 4b 53 a4 3e 9a 34 04 be 03 ae e8 3c f2 7c 19 be
       0.32094797 -0.12910691 0.028403288 -0.14989069
0001c0 12 59 08 3e c7 45 97 3e 6c fe 92 3e 6b f8 9b 3b
       0.13315228 0.29545423 0.28709733 0.0047598383
0001d0 ba 06 38 3d 9f 6e 3f 3e 1e 52 94 3e e8 3a 4c bd
       0.04492829 0.18694542 0.289689 -0.049860865
0001e0 71 ba 2d be 22 c0 86 be 38 d2 96 bd 51 5d 24 3e
       -0.16965653 -0.2631846 -0.07364315 0.16051222
0001f0 90 6d 09 be 19 9e 02 be ba 7f a7 3d e4 28 96 3e
       -0.13420701 -0.12755622 0.08178659 0.29328072
000200 e8 d2 ad 3e 9c 15 c2 3e fe ec b7 3e fa 18 36 3d
       0.3394997 0.37907112 0.35922998 0.044457413
000210 8c 3e 8e 3e 49 fe 8c 3e cc a1 9c bd 59 3e 23 3d
       0.27782094 0.27537754 -0.07648048 0.03985438
000220 ce 00 09 be 61 2e 1a be b6 b1 a8 bd 93 db 16 be
       -0.13379213 -0.15056755 -0.08237021 -0.14732198
000230 f0 5b 7c 3e a4 56 d3 3d 9e 1d 28 3e 78 2a 3f 3e
       0.24644446 0.1031926 0.16417548 0.18668544
000240 f4 b7 ae 3d 61 8a 85 3e 5e 5c ad 3e d1 2d cb bd
       0.0853118 0.26082137 0.33859533 -0.09920848
000250 c6 db 7d be 40 5d f8 3d 3f 5a ed bd 8e 25 53 be
       -0.24790868 0.12127161 -0.11589479 -0.20619795
000260 93 bc 99 3e 3a 76 3a be 94 a9 59 3e db a1 b1 3c
       0.30026683 -0.18209162 0.21256095 0.021683624
000270 1d 87 8e 3e e3 e7 8a bc 13 f3 19 3e 8c 15 2c 3e
       0.27837458 -0.016956275 0.15034132 0.16805094
000280 ec 75 bb 3e 6c 22 4c be bd 6f 2f 3e 48 3d 0d 3d
       0.36613405 -0.19935006 0.17132469 0.03448227
000290 70 85 43 3c 87 3d af 3e 24 19 a1 bd 57 9e 23 3d
       0.011933669 0.3422663 -0.07866123 0.039945927
0002a0 a8 33 90 3d 80 44 0f 3c 40 76 ee 3d b9 9b 14 3e
       0.07041103 0.008744359 0.11643648 0.14512528
0002b0 55 bf 8f 3e f9 bb 69 bd a9 35 0a 3e 58 98 15 be
       0.28075662 -0.05706403 0.13497032 -0.14608896
0002c0 0b c0 0d be 6e 5a 46 bd ac 46 92 bd ff 41 ee bd
       -0.1384279 -0.048426084 -0.07142386 -0.116336815
0002d0 2b 68 bd bd da 78 7e 3e 49 ce ab 3e eb db a3 3e
       -0.09248384 0.24850789 0.3355582 0.32003722
0002e0 ff 4d 75 3e 52 88 c7 bd 10 53 40 bd 1a 0a 0c be
       0.23955534 -0.09742798 -0.046954215 -0.13675728
0002f0 c0 32 ba 3e 4a 25 93 3e 05 51 2b 3e 55 8d 04 be
       0.36366844 0.28739387 0.16730125 -0.12944539
000300 77 b4 a0 3e 5b ad ee bc 1c 9e fe bb 6b 97 0e be
       0.31387684 -0.029135397 -0.007770313 -0.13924949
000310 21 ad f7 3c be a9 fc bd d7 2a 87 3e 1f 6e 87 3e
       0.030233921 -0.12337063 0.26399872 0.26451203
000320 4e 79 ad bd f1 02 c1 3e 1a 1d ad bb 19 21 8b be
       -0.08470403 0.37697557 -0.00528301 -0.2717369
000330 2a d0 37 3e 78 db 2c 3d 3b 38 91 bd 6e c4 53 3c
       0.17950502 0.04220149 -0.07090803 0.01292525
000340 c5 32 d0 3e dd 95 c9 bc c2 bf 9b 3d d2 7f 26 3e
       0.40663734 -0.024607593 0.07604934 0.16259697
000350 ac 4f ad bd 27 5d 29 be fb 29 87 3d 40 ad b5 3c
       -0.08462462 -0.16539441 0.06599804 0.022177339
000360 00 1e b6 3e 0e 0a 08 3d 0a 14 99 3e 05 81 a5 3e
       0.35569763 0.033212714 0.298981 0.32324997
000370 2f 26 49 3c 67 82 03 be 58 e2 8d 3e 16 c1 8d be
       0.01227717 -0.12842713 0.2771175 -0.27686375
000380 40 e9 56 be a7 a1 a6 3b 27 df 80 bc 8b 03 91 3e
       -0.20987415 0.0050851884 -0.015731407 0.28323016
000390 87 54 87 be 5b 78 32 3e 40 d6 a1 3e 7e df 51 3e
       -0.26431677 0.17428724 0.31608772 0.20495412
0003a0 76 72 8c 3e 76 98 f2 bd 34 66 8b be 4f 2c 45 bd
       0.27431077 -0.11845486 -0.27226412 -0.04813796
0003b0 eb 5f 15 be 29 2b b6 3d 03 51 d0 bd 99 2a 86 be
       -0.14587371 0.08894951 -0.10171702 -0.26204374
0003c0 63 7f d9 bd 7e 78 45 3e 3a 7d a0 3e 4c e5 ca 3e
       -0.1062 0.19284245 0.3134554 0.39628065
0003d0 3b d2 99 3e 92 19 a9 bd 4d 01 98 bd 01 82 37 be
       0.30043206 -0.0825683 -0.07422123 -0.17920686
0003e0 d1 58 04 bb b1 f4 02 bd 80 d5 5b be 55 88 00 bd
       -0.002019454 -0.031971637 -0.21468163 -0.031380016
0003f0 31 58 7d bd b2 08 26 be 40 0d 10 be cc 32 2b 3e
       -0.061851684 -0.16214254 -0.14067554 0.16718596

lstm_41/lstm_cell_51/bias1 f4 [256]
000000 7f 8f ea bb 54 04 84 3d 00 00 00 00 0b 14 89 3d
       -0.0071582193 0.06446138 0.0 0.06693276
000010 6d 85 98 3d 3e e4 5b 3d 01 d7 3f 3d 45 2a 54 3d
       0.07447324 0.053684466 0.046835903 0.051798124
000020 00 00 00 00 8d e7 b3 3e 62 f5 93 3d 61 d2 0f 3d
       0.0 0.35137597 0.072245374 0.035112742
000030 a9 74 8e 3d 0c 10 8c 3d e2 92 9a 3d e8 0b ad 3d
       0.06955845 0.06838998 0.07547547 0.084495366
000040 28 3c e4 3d 00 00 00 00 cd ab 8f 3d fd 46 f0 3d
       0.111442864 0.0 0.0701519 0.1173229
000050 00 00 00 00 42 2d 9b 3e dc 82 cd 3e 00 00 00 00
       0.0 0.30307966 0.401389 0.0
000060 64 c3 b7 3e 35 22 e6 bb 3f ff 97 3d 00 00 00 00
       0.3589126 -0.0070231208 0.07421731 0.0
000070 00 00 00 00 cf be 8c 3e ee 5a 94 3d c9 99 2a bc
       0.0 0.27489325 0.07243906 -0.010412642
000080 96 76 bc 3d 4a b0 4e 3d 29 21 8e 3d 1d dd 84 bb
       0.09202306 0.05046109 0.069399185 -0.004054679
000090 10 cf e6 3d e1 ed ee 3d 00 00 00 00 43 94 96 3d
       0.11269963 0.116664656 0.0 0.073524974
0000a0 9f 9f 71 3d c7 55 ad 3d 00 00 00 00 58 35 b3 3d
       0.058990117 0.08463626 0.0 0.08750409
0000b0 00 00 00 00 19 be 85 3d 4c 96 a2 3d 33 7e 85 3d
       0.0 0.06530399 0.07938823 0.06518211
0000c0 53 34 8f 3d 49 62 c1 3e 00 00 00 00 fe 78 08 3e
       0.06992402 0.37770298 0.0 0.13327405
0000d0 cc 52 bd 3d c8 1d 7a 3d 91 91 63 3d e5 57 ec 3d
       0.09244308 0.061063558 0.055558745 0.11540202
0000e0 cc b5 89 3d 2a 78 d6 3e a9 47 7a 3d ae 16 56 3d
       0.06724128 0.41888553 0.061103497 0.052267723
0000f0 98 5f 9b 3d a3 b7 59 3d cd 9b ea bb 94 dc 56 3d
       0.075865924 0.053153645 -0.007159686 0.052456453
000100 00 00 80 3f 00 00 80 3f 00 00 80 3f 00 00 80 3f
       1.0 1.0 1.0 1.0
000110 00 00 80 3f 00 00 80 3f 00 00 80 3f 00 00 80 3f
       1.0 1.0 1.0 1.0
000120 00 00 80 3f 00 00 80 3f 00 00 80 3f 00 00 80 3f
       1.0 1.0 1.0 1.0
000130 00 00 80 3f 00 00 80 3f 00 00 80 3f 00 00 80 3f
       1.0 1.0 1.0 1.0
000140 00 00 80 3f 00 00 80 3f 00 00 80 3f 00 00 80 3f
       1.0 1.0 1.0 1.0
000150 00 00 80 3f 00 00 80 3f 00 00 80 3f 00 00 80 3f
       1.0 1.0 1.0 1.0
000160 00 00 80 3f 00 00 80 3f 00 00 80 3f 00 00 80 3f
       1.0 1.0 1.0 1.0
000170 00 00 80 3f 00 00 80 3f 00 00 80 3f 00 00 80 3f
       1.0 1.0 1.0 1.0
000180 00 00 80 3f 00 00 80 3f 00 00 80 3f 00 00 80 3f
       1.0 1.0 1.0 1.0
000190 00 00 80 3f 00 00 80 3f 00 00 80 3f 00 00 80 3f
       1.0 1.0 1.0 1.0
0001a0 00 00 80 3f 00 00 80 3f 00 00 80 3f 00 00 80 3f
       1.0 1.0 1.0 1.0
0001b0 00 00 80 3f 00 00 80 3f 00 00 80 3f 00 00 80 3f
       1.0 1.0 1.0 1.0
0001c0 00 00 80 3f 00 00 80 3f 00 00 80 3f 00 00 80 3f
       1.0 1.0 1.0 1.0
0001d0 00 00 80 3f 00 00 80 3f 00 00 80 3f 00 00 80 3f
       1.0 1.0 1.0 1.0
0001e0 00 00 80 3f 00 00 80 3f 00 00 80 3f 00 00 80 3f
       1.0 1.0 1.0 1.0
0001f0 00 00 80 3f 00 00 80 3f 00 00 80 3f 00 00 80 3f
       1.0 1.0 1.0 1.0
000200 7a 87 94 bc 8b f5 82 3c 00 00 00 00 7c a2 c0 3c
       -0.018131007 0.015986225 0.0 0.023514979
000210 e3 bc ff 3c 95 44 ef bc ce aa 01 bd 9d 2f 01 bc
       0.031217998 -0.029207507 -0.031657033 -0.007884887
000220 00 00 00 00 14 be 3b 3d 31 93 1d 3d 9e 7d 27 bb
       0.0 0.04583557 0.03847045 -0.0025557051
000230 41 b3 c6 3c b8 39 f3 3c 7c 38 b6 3c 22 7e bd 3c
       0.024255397 0.029690608 0.02224373 0.023131434
000240 98 7b 64 3c 00 00 00 00 1c 1e 06 3d 7a d5 0e bd
       0.013945483 0.0 0.03274356 -0.034871556
000250 00 00 00 00 94 5d 46 3d 92 c5 94 3d 00 00 00 00
       0.0 0.048429087 0.07264246 0.0
000260 cc 22 da 3d ab 06 9d bb 54 2f 8b 3c 00 00 00 00
       0.10651168 -0.0047920546 0.016990341 0.0
000270 00 00 00 00 0a 51 89 3d 83 6c b1 bc a4 cd ad bc
       0.0 0.0670491 -0.021658188 -0.021216221
000280 d9 0e a7 bc ee 28 90 3c 4b 2e 26 3d 59 25 74 bc
       -0.020392822 0.017597642 0.040571492 -0.0149014825
000290 89 c7 8e 3d 77 46 ca bb 00 00 00 00 2e b4 f9 3c
       0.06971652 -0.006172951 0.0 0.030481424
0002a0 04 69 aa 3c 99 a9 c9 3c 00 00 00 00 89 d6 d7 bb
       0.020802028 0.024617003 0.0 -0.006586854
0002b0 00 00 00 00 2f b2 fa 3c 55 f0 91 3c de 1a 86 3c
       0.0 0.030602543 0.017814795 0.016370233
0002c0 fb cd c8 3c 6e 34 2e 3d 00 00 00 00 3a aa 83 3a
       0.024512282 0.04253047 0.0 0.0010045238
0002d0 b2 d4 b2 3c 57 69 b3 3c 8a e0 01 3c 93 61 e4 bc
       0.021829937 0.021900816 0.007927069 -0.027878558
0002e0 b5 d1 f1 3c ae f2 a4 3d d6 b6 9b 3c 20 1b 04 3c
       0.029518941 0.080541 0.019008081 0.008063108
0002f0 ca 32 16 3d f6 cd ed 3b 84 43 98 bc d5 eb c0 3b
       0.03666953 0.0072572185 -0.018586881 0.0058874884
000300 df 3e e8 bb 74 eb 81 3d 00 00 00 00 7a 0a 94 3d
       -0.007087573 0.06343737 0.0 0.07228561
000310 cf 87 94 3d a5 08 5e 3d 37 4b 44 3d 2e d0 57 3d
       0.07252466 0.054207463 0.047923293 0.05268877
000320 00 00 00 00 4e fb b7 3e 9c 0f 96 3d e9 a2 07 3d
       0.0 0.35933918 0.07327196 0.033114348
000330 1a c3 8b 3d e6 a3 82 3d 14 69 87 3d 1b 24 ae 3d
       0.06824322 0.063789174 0.06611839 0.0850298
000340 24 49 d5 3d 00 00 00 00 44 fc 87 3d 91 a0 f4 3d
       0.10414341 0.0 0.06639913 0.11944688
000350 00 00 00 00 f6 01 9f 3e e3 84 d1 3e 00 00 00 00
       0.0 0.31056184 0.40921697 0.0
000360 f0 a6 b7 3e b1 0b e4 bb 88 25 94 3d 00 00 00 00
       0.3586955 -0.0069594015 0.07233721 0.0
000370 00 00 00 00 ab e6 8f 3e 32 fd 99 3d 48 c5 2a bc
       0.0 0.28105673 0.07518996 -0.010423012
000380 26 1d bb 3d 37 44 61 3d a5 fc 94 3d 64 58 88 bb
       0.09136419 0.054996695 0.072747506 -0.0041609276
000390 11 fb e6 3d e6 01 ec 3d 00 00 00 00 45 f4 92 3d
       0.11278356 0.115237996 0.0 0.07175497
0003a0 ac 43 6a 3d 52 ba b2 3d 00 00 00 00 20 f3 a9 3d
       0.057193443 0.08726944 0.0 0.082983255
0003b0 00 00 00 00 c5 5e 84 3d a4 6b 9e 3d 7e 71 80 3d
       0.0 0.06463388 0.077353746 0.06271647
0003c0 b6 07 91 3d 9f 53 c1 3e 00 00 00 00 08 7d 0b 3e
       0.07081549 0.3775911 0.0 0.13621914
0003d0 67 e0 b1 3d 2b 91 5b 3d 9d fb 5f 3d 18 92 f2 3d
       0.086853795 0.05360524 0.054683316 0.118442714
0003e0 cb 87 92 3d ca 3a d6 3e c8 e9 81 3d 12 06 58 3d
       0.07154807 0.41841727 0.06343418 0.052740164
0003f0 41 d3 9e 3d 30 dc 51 3d 42 73 e8 bb ee e9 4d 3d
       0.07755137 0.051235378 -0.007093818 0.05027192

sequential_17/lstm_41/while/lstm_cell_51/MatMul_1 f4 [256, 64]
000000 20 27 16 3d 44 01 f9 3d a6 cb e5 3c 9c ef 03 3e
       0.036658406 0.121584445 0.028051209 0.12884372
000010 ff 6d 34 bd f4 9c 6d bd 58 9a db bb 39 77 41 bd
       -0.044050213 -0.05801101 -0.006701749 -0.04723284
000020 a2 09 45 3d 2a f4 11 be 12 ed 91 bd c9 70 89 3c
       0.04810489 -0.14253297 -0.07125296 0.016777413
000030 12 16 a9 3d bc 2e c9 3c 72 d4 0d 3e 50 c0 aa 3d
       0.08256163 0.024558417 0.13850573 0.08337462
000040 a6 76 1b 3e 41 42 0b 3d a2 d5 4f 3d 67 f9 f9 3c
       0.1518198 0.03399873 0.050740846 0.030514432
000050 1c fd e7 3b bf b3 ab bd b8 ba 70 bc a8 04 e9 3c
       0.0070797335 -0.08383893 -0.014692955 0.028444603
000060 cc d7 b0 3d 80 6f 8a 3d 88 17 94 bc e4 1d a5 bd
       0.0863491 0.06759548 -0.018077627 -0.08062342
000070 2f b2 4b bc f3 e6 09 bd 79 92 7c bd 4c 0c 71 3d
       -0.012432619 -0.033667516 -0.061663125 0.058849618
000080 cf f8 21 3d 15 e2 41 3c 7a 80 de bb b5 fa 3f be
       0.039543923 0.011833687 -0.006790218 -0.18747981
000090 9e c2 e2 bd 00 7b f8 3a 5a 11 00 3d e6 4b 16 be
       -0.110722765 0.0018957555 0.031266548 -0.1467739
0000a0 8c 22 36 bd 29 81 a5 3d d0 7d 79 bd 4f 87 1c bd
       -0.04446654 0.08081276 -0.060911 -0.038214978
0000b0 96 49 b2 bc f8 bf 77 3c 60 73 44 3b 34 fd 36 bd
       -0.021763604 0.0151214525 0.0029975995 -0.044675067
0000c0 8d cf ad bd 00 d2 99 bd 60 02 01 bc 07 5c d3 bd
       -0.08486853 -0.075107574 -0.007874101 -0.10320287
0000d0 ab 63 33 3d ee 3d a0 bd 61 fb 9a bc 27 69 43 3d
       0.043796223 -0.07824312 -0.018918695 0.047707703
0000e0 74 7d 86 3d ff 23 50 bd 92 b4 77 3d 50 d5 ce 3c
       0.06566897 -0.05081558 0.06047494 0.0252482
0000f0 2d 48 46 bd 3c 33 60 bd fa df cb bd 28 1f e7 3b
       -0.048408676 -0.05473636 -0.099548295 0.0070532747
000100 b3 3a 3c 3c 00 90 d9 b9 3d 51 fd 3c ba 86 0f be
       0.011488604 -0.00041496754 0.030922526 -0.14016238
000110 21 8d 00 bd 63 88 9d bd 42 4c a5 3c 2f 65 3d bd
       -0.03138459 -0.07692029 0.020177964 -0.046239074
000120 48 4d 98 bc f8 73 b8 3d 26 ba 6c 3d 4b 75 17 bd
       -0.018591538 0.09006494 0.057794712 -0.036977094
000130 d6 55 7f bc 66 31 93 bd 2d 14 94 3d 97 97 e0 bc
       -0.01558443 -0.071871564 0.07230411 -0.027416034
000140 36 77 7c 3d da 8a 33 3c 06 b6 94 3c 1b 7d 36 bd
       0.061637126 0.010958398 0.018153202 -0.044552904
000150 05 45 9f bd f0 91 c3 3b 18 6c e3 3c 4b 2b 8d bd
       -0.07776836 0.005968325 0.027761504 -0.06893023
000160 44 87 34 3d 2b b1 ff 3c be 8e 6d 3a 44 f2 45 3d
       0.04407431 0.03121241 0.0009062103 0.048326746
000170 1e 25 c1 3c e4 18 0f bd 73 72 d4 bc b3 03 51 bd
       0.02357727 -0.034935847 -0.02593348 -0.05102892
000180 7d 8e b4 bd b6 85 e8 bd f5 79 36 bd d9 c6 84 3d
       -0.0881624 -0.11353628 -0.0445499 0.0648324
000190 4f 60 ef 3c c1 2a 8a bd b9 aa a5 bd 34 0b a1 bc
       0.029220728 -0.06746436 -0.080892034 -0.019658662
0001a0 76 73 c5 bb 2b 04 ac bd 98 44 78 3d 64 c5 02 3e
       -0.006025727 -0.083992325 0.06061229 0.12770611
0001b0 20 d2 00 be e2 18 8d 3d b8 bb dc 3c 33 df d5 ba
       -0.12580156 0.06889512 0.02694498 -0.0016317129
0001c0 a5 81 40 bd 74 5f 0e bd 28 d0 7b bd 99 a2 a2 3d
       -0.04699864 -0.034759 -0.06147781 0.07941169
0001d0 14 f7 07 3d f4 6c 53 3c 5b 49 c4 bc ba f2 ba 3c
       0.033194616 0.012904394 -0.02396076 0.02282082
0001e0 1e ca f7 bb fa c1 d9 bc ad 7a a2 bc b6 d4 d3 3c
       -0.007561936 -0.026581753 -0.019833887 0.025858264
0001f0 d4 ae 29 3d 0e e4 f6 bd 74 cb f4 3d 3c b0 4a bd
       0.041426495 -0.12055217 0.11952868 -0.049484476
000200 cd fb 70 3d 99 2c 8b 3d 00 05 83 3b a0 77 8a bd
       0.058833886 0.06795616 0.003998399 -0.06761098
000210 e7 f8 1f 3d 3d eb 45 3d 2f ed d5 3d 71 51 ad bc
       0.03905573 0.048320044 0.1044563 -0.021156998
000220 60 17 88 bd 7c 8e da bb 42 e4 e5 bc dc fd 52 3d
       -0.066450834 -0.0066698175 -0.028062943 0.05151163
000230 ae f2 3f 3c 9b c5 5e bc ea aa cf bc 5c 43 cc 3b
       0.011715574 -0.0135969175 -0.025350053 0.006233616
000240 10 e5 9c bd fd 31 67 bd e3 d5 97 bc fd 0d b6 3d
       -0.07660878 -0.056444157 -0.018534606 0.08889387
000250 89 1b ae bb a0 e1 df bb 94 1d fe 3c 75 b8 2a 3c
       -0.005313341 -0.0068323165 0.031019963 0.010419955
000260 3e 1e 2d 3d 5a 41 e7 3d 62 eb 6a bd 3f 84 a1 bd
       0.04226517 0.11291762 -0.057353385 -0.07886552
000270 28 30 05 3d 68 d5 e1 bd 2b 6b 46 bd cc 67 ea 3c
       0.03251663 -0.11027032 -0.048442047 0.028613947
000280 05 1e d1 bd 78 c5 0e be 23 db 90 bd 83 65 73 bd
       -0.10210804 -0.13942516 -0.07073047 -0.05942298
000290 71 3f b2 bd c4 d2 30 3d 6d 74 41 3d f1 e1 00 be
       -0.08703507 0.04316975 0.047230173 -0.1258619
0002a0 14 64 ad 3b 0c cb 72 bc 8b 77 88 3d 40 02 fc 3a
       0.0052914713 -0.014818918 0.06663426 0.0019226745
0002b0 e5 01 73 3d bc 8f c8 bd ea ce b9 bb 98 eb 4c 3d
       0.05932798 -0.0979304 -0.005670418 0.050029367
0002c0 d8 d1 f7 bc ba 2b ba 3a 25 0e 7a 3d 7b 80 e0 bd
       -0.030251428 0.0014203705 0.061048646 -0.10962006
0002d0 90 59 2c 3d b8 a4 6d 3d ea 28 10 3d b6 fe 25 bd
       0.0420776 0.058018416 0.03519527 -0.040526114
0002e0 f6 98 ad 3c 46 71 5f 3c 3b b6 d0 3c 54 d2 09 bc
       0.021191102 0.013637846 0.02547752 -0.008411963
0002f0 e2 7c 2c 3d 42 ba 1f 3c 33 ca 3a bc c2 00 c5 3d
       0.042111285 0.009748997 -0.011400747 0.09619285
000300 35 59 82 bd 68 3f 7d bd 97 cd 24 bd 20 73 39 3d
       -0.06364671 -0.061828047 -0.04023513 0.045275807
000310 ce e0 66 bd 71 7a c2 3d 10 e7 70 bc a7 60 73 3d
       -0.056366734 0.0949601 -0.014703527 0.059418347
000320 4d dd 5a 3d 6b 6e 41 bd c6 78 8b 3d ba 56 6e bd
       0.053433705 -0.047224443 0.06810145 -0.058188178
000330 0b a0 c5 3d 94 93 4b bd 15 42 2a be a3 3f be 3d
       0.096496664 -0.04970129 -0.16626771 0.092894815
000340 cc b9 71 3c 6b 47 62 bc 03 27 f8 3d 74 16 3e bc
       0.01475377 -0.013810973 0.12116816 -0.011602033
000350 80 64 10 bd 4f f9 65 bd cd 5e 65 bd a4 fb 93 3d
       -0.035252094 -0.056145962 -0.055998612 0.07225731
000360 3e 28 c8 bd c7 fa 34 bd ba e8 5f bd 5f cb 18 bd
       -0.097733006 -0.044184472 -0.054665305 -0.037303325
000370 7b 22 af 3d 90 ca 2c bb 69 3d be bc 2b 71 6b 3d
       0.085514985 -0.0026365854 -0.023222642 0.057480972
000380 f6 1a bd bd ef 37 8b bd 8e 35 ad bd 5b 88 cc bd
       -0.09233658 -0.06797778 -0.0845748 -0.09986945
000390 62 67 2d bc 36 8c 62 3b 3e 08 a4 3c 5a 27 76 3d
       -0.01058373 0.0034568436 0.020023461 0.060096122
0003a0 b9 62 d1 3d 17 bf 07 bd 96 03 79 3d 03 0f 50 3c
       0.10223908 -0.03314122 0.060794435 0.012698892
0003b0 81 5a 5a 3d c0 19 05 3d 94 d1 17 3e 05 9d d0 3d
       0.053308968 0.03249526 0.14826041 0.10186199
0003c0 48 b4 5f bd 36 1f b2 3d 92 be db bd 52 99 99 bd
       -0.05461529 0.08697359 -0.10729708 -0.07499947
0003d0 0e 24 29 3b 90 52 49 bd 36 a6 d2 3c 4a eb da 3c
       0.0025808844 -0.049151003 0.025714021 0.026723523
0003e0 c3 5f c5 bd fc e1 ab 3d 14 93 52 bb 83 43 21 3d
       -0.09637406 0.083927125 -0.0032131122 0.039371025
0003f0 60 97 c7 3c 9b 93 f1 3c de 13 eb bc 50 cf 8e 3a
       0.024364173 0.02948933 -0.028695997 0.0010895524

sequential_17/lstm_41/while/lstm_cell_51/MatMul f4 [256, 4]
000000 54 a9 fe 3d 9d d8 8c 3c 6e e3 1b 3d eb 37 0d be
       0.124346405 0.017193133 0.03805869 -0.13790862
000010 3a 9d 2d 3e 48 82 e4 3d ae f3 63 bc 0d 94 c2 3d
       0.16954508 0.11157662 -0.013913078 0.09500895
000020 2a 2a c0 bd b0 e8 2d bc 9a 2c 03 3e 6a 95 14 3e
       -0.09383042 -0.010614559 0.12809983 0.14510122
000030 44 a1 44 3e f7 41 ce 3d fd d0 6b 3e e9 72 04 3e
       0.19202143 0.100711755 0.23028941 0.1293446
000040 55 d5 3b 3e e7 4b 34 3e 4b e3 9a 3c 39 ea 56 3e
       0.18343098 0.1760708 0.01890721 0.20987786
000050 d7 cc 1f 3d af a9 6e 3e 1c a2 a4 bc b9 9e 12 bd
       0.03901371 0.23306917 -0.020096831 -0.0357959
000060 de e8 df bc ef 65 dc 3d 4e c6 4f 3e b4 51 2a 3e
       -0.02733272 0.1076163 0.20290491 0.1663273
000070 87 f0 00 3d 88 40 21 3e ec ed b6 ba ec 5f 3f 3e
       0.031479385 0.15747273 -0.0013956404 0.18688935
000080 70 b3 9f bd 09 9b b2 bd 40 8a 2a 3d ff c7 99 bd
       -0.07797897 -0.08720977 0.04163575 -0.07508849
000090 9d ac a1 3e 6c 84 2a 3e 41 a7 f0 3d a1 77 02 3f
       0.31577006 0.16652077 0.11750651 0.5096379
0000a0 05 87 f3 3d 5c 02 0b 3e 55 bf 3f 3e e2 b7 b7 bb
       0.11890987 0.13575119 0.18725331 -0.0056066373
0000b0 cd 5e 0f 3e 35 9b 91 3d b0 c0 60 3e 95 0b 4c 3e
       0.14001007 0.071096815 0.21948504 0.19926293
0000c0 34 3e 74 3e 48 49 dd 3d 79 c9 65 3e 71 9b a0 3c
       0.23851854 0.10804993 0.22440137 0.01960537
0000d0 ec 75 ca bc 0d e2 ef 3d 69 71 df 3d ce 6c 12 3d
       -0.024714433 0.11713038 0.10910303 0.035748295
0000e0 42 2b 04 3e 2f 8d d3 bb a6 b6 18 3a 92 5d 06 3d
       0.12907127 -0.0064560394 0.00058255566 0.03280408
0000f0 bc dd 04 3e 2c 6f 80 bc 46 24 2d 3e 93 13 ec 3d
       0.1297521 -0.01567801 0.16908368 0.11527171
000100 8d 9d aa 3d 19 c8 2b 3d a1 d7 78 3e 6c 4e 2d bd
       0.08330832 0.041938875 0.24301006 -0.042311117
000110 40 02 e0 bd 8c c7 ee 3d a6 29 c7 3d 80 6e 02 3e
       -0.10937929 0.11659154 0.09724741 0.12737465
000120 fd e1 b7 bb 2c e2 9b 3b 18 47 73 3e f8 70 23 bc
       -0.0056116567 0.0047571864 0.23757589 -0.009975664
000130 55 81 69 3e 4a 5b 95 3e 7f 92 3c 3d d9 f4 a3 3d
       0.22803243 0.2917121 0.046038147 0.08005685
000140 bc b0 81 3d 20 6c ac bb 50 00 17 bd 58 7e 01 3d
       0.063325375 -0.005261913 -0.036865532 0.03161463
000150 69 09 f1 3e 04 41 dd 3e f3 0b c8 3e 3b 52 0a 3d
       0.47077492 0.43213665 0.39071617 0.033769827
000160 56 88 03 3f c3 4c 9c 3e 60 cf ed 3e 1b 69 ed 3d
       0.5137991 0.30527315 0.46447277 0.11592313
000170 be 9b a4 3d 70 80 16 3e 16 7f 2b bd 10 fa 10 be
       0.08037518 0.14697433 -0.041869245 -0.14157891
000180 32 da d5 3e 84 c0 64 3e 83 a1 5b 3e db 4c c7 3e
       0.41768032 0.22339064 0.2144833 0.38925824
000190 d6 7a 9d 3d 82 00 ad bb 80 73 65 3d 69 76 01 3c
       0.07689445 -0.0052796016 0.056018353 0.007901766
0001a0 31 37 ac 3d b1 7a ff 3d 1b d8 e8 3d ec 5a e0 3d
       0.084089644 0.124745734 0.11369344 0.10954842
0001b0 bc cc ca 3d 44 c3 3b bd 80 98 2a 3b 2c bf 28 3d
       0.09902331 -0.045840517 0.0026030838 0.04119794
0001c0 90 0c 94 3c 3e 83 86 3d 5a f7 04 be 68 c7 b2 3c
       0.018072397 0.06568001 -0.12984982 0.0218236
0001d0 64 47 63 3d c0 0c 31 3e f7 5d 64 3d dc 91 c9 3e
       0.055488005 0.1729002 0.055753674 0.39369094
0001e0 24 05 51 3d 62 17 f1 3d 59 1f b6 bb fe 5f 90 3e
       0.051030293 0.11772038 -0.005557936 0.28198236
0001f0 e1 e7 a4 3b cb ed be bc 01 1c fd bc 74 8a 1f be
       0.005032525 -0.023306748 -0.030897142 -0.1558016
000200 b6 3c 02 bd 8f f9 24 3e 86 b4 02 3e 19 47 37 3e
       -0.03179618 0.16110824 0.12764177 0.17898215
000210 07 94 2c 3e d1 0a 60 3e 83 ae 03 3d 76 ec c7 3d
       0.16853343 0.21879126 0.03214885 0.09761898
000220 73 99 a9 3d e5 8e 38 3e b6 45 66 3e b1 6e fc 3d
       0.08281221 0.1802326 0.2248753 0.123258
000230 e5 b0 81 bd 3d 48 0d 3e cd 54 cb 3c f8 c0 07 3e
       -0.06332568 0.13797088 0.02482071 0.13257205
000240 8a ce b9 3c 4b f3 5a bc cc 60 03 3e 7c a1 91 bc
       0.022681493 -0.01336367 0.12829894 -0.017777197
000250 30 1a b6 3a 5b 2a 90 3d 9e 2b 3f 3d 70 9d 3c 3e
       0.0013893303 0.07039329 0.046672456 0.18419433
000260 ae 8a 8d 3d 3a 3b 5c bd 96 bf 92 bd 14 15 20 3d
       0.06911217 -0.05376742 -0.07165448 0.0390826
000270 01 ca 58 3e e5 47 52 3e 9d d6 45 3e 4c aa 3b 3c
       0.21170808 0.20535238 0.1932015 0.011454176
000280 ce 0a 5e 3d 6e 86 e4 bc aa 76 b0 3d fc 2b 59 3e
       0.054209523 -0.027896132 0.086163834 0.21208185
000290 7d b2 45 bc 67 24 63 3e 04 c0 93 3e c0 4b 3a 3e
       -0.012066481 0.22181855 0.28857434 0.18192959
0002a0 e4 e2 9f 3d 00 c5 8e 3d 18 43 e2 3c 14 dd 42 3d
       0.07806948 0.069711685 0.027619883 0.047574118
0002b0 9c b0 12 bd 3a c2 8e 3e b1 c0 b3 39 83 11 39 3d
       -0.03581296 0.27882558 0.00034285107 0.045182716
0002c0 ba 84 24 bd 00 8f 9f ba 74 8a c9 3d 60 e2 11 be
       -0.04016564 -0.0012173355 0.09840861 -0.14246511
0002d0 f7 de ac bc 5c 43 57 3e 25 d5 5d 3e d9 c5 53 3e
       -0.021102412 0.2102179 0.2166334 0.20680942
0002e0 81 f3 62 3e e1 a3 11 3c cf e7 b0 3c 02 c9 dc 3d
       0.22163202 0.008889169 0.02159491 0.10780527
0002f0 71 9a 22 3d 03 f6 11 3e 35 69 f2 3c 62 d8 60 3d
       0.039698068 0.14254002 0.029591182 0.05489386
000300 8d f1 8e 3d 81 17 ef 3d b7 c8 71 3d a8 19 27 bd
       0.06979666 0.11674405 0.059029307 -0.040795952
000310 cf 5e 29 3e d1 0c e1 3e 3f 0e b7 3e b5 52 cd 3e
       0.16540073 0.4395509 0.35753056 0.40102163
000320 80 0f f7 3b c8 71 03 3d 48 5e f7 3d 4c f3 07 3e
       0.0075396895 0.032090932 0.120785296 0.13276404
000330 ac bd 7d 3c d3 5b 1f 3e 01 79 a9 3e 2f ab 52 3e
       0.015487116 0.15562372 0.3310013 0.20573114
000340 d4 9b f4 3c 21 ee fd 3d 05 1a 20 3e f0 9a e5 3d
       0.02985946 0.12398935 0.15634926 0.112111926
000350 70 39 b1 3d 28 16 ad 3d c8 eb 41 bc 14 66 da bc
       0.086535335 0.084514916 -0.011836 -0.026660003
000360 fc 2a 38 3e 88 5a 31 3d b2 22 92 3c a4 f6 34 3e
       0.17985147 0.043299228 0.01783881 0.17672211
000370 c9 e0 54 3e d2 03 46 3e af d1 a7 3e da 70 db 3d
       0.20788874 0.19337395 0.32777163 0.10714884
000380 f3 2f 25 3e 4a 47 74 3e e4 49 bb 3d 76 35 ff 3a
       0.16131572 0.2385532 0.09144953 0.0019470889
000390 b2 75 cb 3e 2c 0d cf 3e 7c 04 9d 3e 5f 8f cb 3e
       0.39738232 0.40439737 0.30667484 0.3975782
0003a0 85 28 77 3e 06 a8 ef 3c 85 90 59 bd 52 d7 6d 3e
       0.2413655 0.029254925 -0.05311634 0.2322667
0003b0 39 d0 2b 3e 0b c0 04 3d e6 58 34 3e b6 c0 27 3e
       0.1677865 0.03240971 0.17612037 0.16382107
0003c0 6f 04 67 3e d8 4b 21 3e 35 68 44 3d 3a bb 1b 3e
       0.22560285 0.15751588 0.047950942 0.1520814
0003d0 23 0e df bc 90 5c f5 bc f1 89 15 3c 5f 92 a4 3d
       -0.02722842 -0.029951364 0.009127126 0.080357306
0003e0 35 33 e6 3d 6a 5e cf bd 91 c2 df 3d bd 97 a6 bd
       0.11240236 -0.1012543 0.109257825 -0.081344105
0003f0 d2 76 30 3e 1b e3 60 bd 22 45 c7 3d 75 55 08 3e
       0.17232826 -0.054904085 0.09729983 0.1331385

lstm_42/lstm_cell_52/bias1 f4 [256]
000000 f3 a7 87 3d 65 9f c3 3d 47 f8 b1 3d 76 e5 94 bc
       0.06623831 0.095518865 0.08689933 -0.018175822
000010 0d 05 90 3d 17 cb 85 bb c1 53 83 3d 7e 4d b4 3d
       0.07032213 -0.004083048 0.06412459 0.08803843
000020 0f 82 d0 bb 46 94 b7 3d d6 d3 a5 bc c4 10 7d bc
       -0.0063631604 0.08963828 -0.020242613 -0.015445892
000030 44 bb a1 3d 7a 19 c5 3d e3 d1 72 bc ce 83 ab 3d
       0.07897046 0.09624 -0.014820549 0.08374749
000040 9a 51 d7 3d ae bd ec 3d e8 49 8d 3d d7 bd 96 bc
       0.10513611 0.11559616 0.06898862 -0.01840107
000050 aa b9 a4 bc 97 11 84 bc 49 fc a7 3d 00 00 00 00
       -0.020108063 -0.016121669 0.082024164 0.0
000060 68 00 85 3d 59 a7 38 bc 0f 02 78 3d 3c 85 ea 3d
       0.06494218 -0.011270368 0.06054884 0.11451194
000070 41 53 a4 3d a1 8c 9d 3d 4a 09 c1 3d 0d db 5d bc
       0.08023692 0.076928385 0.094256 -0.013540995
000080 d9 4b d3 3d dc 43 80 bb fe 9c 6b bc bc 5c f2 bc
       0.10317201 -0.0039143395 -0.014380692 -0.029585235
000090 9c 66 a4 bc 05 22 91 3d ea 0c 25 3e 02 1a c9 3d
       -0.02006846 0.07086567 0.16118208 0.09819414
0000a0 36 97 a4 3d 5e 68 25 bc 44 af 86 bc 83 6a ce 3d
       0.08036654 -0.010095684 -0.016440995 0.10078909
0000b0 8c 88 ac 3d c1 fa 98 bc e4 4c bb bc 29 fa 8c bc
       0.08424482 -0.018674256 -0.022863813 -0.01720913
0000c0 a4 7c 8a bc 43 60 92 3d 03 fc a4 3d fc 82 c5 3d
       -0.016905136 0.07147267 0.0805588 0.09644124
0000d0 6c 2f 39 3e 68 37 91 3d a9 bc b3 3d 5a ad 9c 3d
       0.18084496 0.07090646 0.087762184 0.07650252
0000e0 dc ca e4 bb a6 ec 98 bc 1c fc b6 bc 86 b0 b1 3d
       -0.0069821905 -0.01866753 -0.022337012 0.08676247
0000f0 2c ac 6f 3d d8 8c 35 bd 16 91 8f bc f8 89 99 3d
       0.058513805 -0.044323772 -0.017525237 0.074970186
000100 00 00 80 3f 00 00 80 3f 00 00 80 3f 00 00 80 3f
       1.0 1.0 1.0 1.0
000110 00 00 80 3f 00 00 80 3f 00 00 80 3f 00 00 80 3f
       1.0 1.0 1.0 1.0
000120 00 00 80 3f 00 00 80 3f 00 00 80 3f 00 00 80 3f
       1.0 1.0 1.0 1.0
000130 00 00 80 3f 00 00 80 3f 00 00 80 3f 00 00 80 3f
       1.0 1.0 1.0 1.0
000140 00 00 80 3f 00 00 80 3f 00 00 80 3f 00 00 80 3f
       1.0 1.0 1.0 1.0
000150 00 00 80 3f 00 00 80 3f 00 00 80 3f 00 00 80 3f
       1.0 1.0 1.0 1.0
000160 00 00 80 3f 00 00 80 3f 00 00 80 3f 00 00 80 3f
       1.0 1.0 1.0 1.0
000170 00 00 80 3f 00 00 80 3f 00 00 80 3f 00 00 80 3f
       1.0 1.0 1.0 1.0
000180 00 00 80 3f 00 00 80 3f 00 00 80 3f 00 00 80 3f
       1.0 1.0 1.0 1.0
000190 00 00 80 3f 00 00 80 3f 00 00 80 3f 00 00 80 3f
       1.0 1.0 1.0 1.0
0001a0 00 00 80 3f 00 00 80 3f 00 00 80 3f 00 00 80 3f
       1.0 1.0 1.0 1.0
0001b0 00 00 80 3f 00 00 80 3f 00 00 80 3f 00 00 80 3f
       1.0 1.0 1.0 1.0
0001c0 00 00 80 3f 00 00 80 3f 00 00 80 3f 00 00 80 3f
       1.0 1.0 1.0 1.0
0001d0 00 00 80 3f 00 00 80 3f 00 00 80 3f 00 00 80 3f
       1.0 1.0 1.0 1.0
0001e0 00 00 80 3f 00 00 80 3f 00 00 80 3f 00 00 80 3f
       1.0 1.0 1.0 1.0
0001f0 00 00 80 3f 00 00 80 3f 00 00 80 3f 00 00 80 3f
       1.0 1.0 1.0 1.0
000200 ea 37 25 3d f6 19 0b 3d e0 1f fa 3c 84 ec 9f bc
       0.040336527 0.033960305 0.030532777 -0.01952196
000210 25 54 2d 3d a7 5e 16 bc ec 53 f7 3c 61 54 6e 3d
       0.042316575 -0.00917784 0.030191384 0.05818594
000220 89 42 4c bc ce 25 75 3d ce 6b 8d bc 02 7c ad bc
       -0.012467035 0.059850506 -0.01726332 -0.021177296
000230 d6 9e 00 3d 1b c7 90 3d 1c c3 b1 bc 76 9e 5d 3d
       0.031401478 0.07069226 -0.02169948 0.0541062
000240 2f 7c 40 3d c0 60 ab bb 03 b0 15 3d 2d c7 b6 bc
       0.04699343 -0.0052300394 0.03654481 -0.022311771
000250 cd b4 b1 bc 47 72 bb bc 7a 8a 94 3d 00 00 00 00
       -0.021692658 -0.02288164 0.07252975 0.0
000260 ab 35 1e 3d 29 35 79 bc 5e b6 4f 3c 73 70 6b 3d
       0.0386254 -0.015210428 0.012677757 0.057480287
000270 9b 85 37 3d 58 9c 8c 3d 9e 7c 74 3d 72 67 8a bc
       0.04480515 0.06865758 0.059689157 -0.01689503
000280 df 8b 29 3d 28 f4 5b bc a7 b9 84 bc 1c 70 1c bd
       0.041393157 -0.013424911 -0.016201807 -0.038192853
000290 10 8e b8 bc a5 35 bb 3c fa b6 84 3c f9 a8 94 3d
       -0.022528678 0.022852728 0.016200531 0.072587915
0002a0 0f 4a 6b 3d 31 ca 44 bc 13 a7 74 bc 9d 4f 8d 3d
       0.057443675 -0.012011097 -0.014932412 0.06899951
0002b0 6a 4a 1f 3d 3a 2c d4 bc 84 c2 ba bc 4a 23 87 bc
       0.038889326 -0.025899995 -0.02279783 -0.01649632
0002c0 9c 05 98 bc b9 74 82 3d cc 6b 81 3d 08 dc 7e 3d
       -0.018557362 0.06369919 0.06319389 0.062221557
0002d0 49 8b 73 3d ea dc 32 3d 81 ed 4c 3d 86 37 13 3d
       0.059459005 0.04366771 0.05003119 0.035941623
0002e0 39 08 a6 bc 79 e1 be bc d2 ee 92 bc 06 f3 a7 3d
       -0.020267593 -0.023300873 -0.017936144 0.0820065
0002f0 01 21 92 3c 41 05 0d bc ec 8d ce bc 6a 42 a2 3d
       0.017838003 -0.00860721 -0.025214158 0.07922824
000300 9b 2b 88 3d 11 7f c4 3d ee 59 b4 3d ee f5 93 bc
       0.06648942 0.095945485 0.08806215 -0.018061604
000310 10 8b 90 3d 3f d4 85 bb a3 7d 81 3d 89 7e b3 3d
       0.07057774 -0.0040841396 0.063227914 0.08764369
000320 39 d0 cf bb 9e 9f b5 3d d4 7b a6 bc 20 fe 7d bc
       -0.0063419607 0.08868335 -0.020322718 -0.015502483
000330 82 b6 a2 3d cb e6 c3 3d 4c 42 71 bc d2 f9 ad 3d
       0.07944967 0.09565505 -0.014725279 0.08494915
000340 f1 4d d1 3d bd 13 ea 3d 1c 9a 8e 3d a4 2e 97 bc
       0.10219944 0.11429546 0.06962988 -0.018454857
000350 12 32 a4 bc 80 ce 83 bc 88 a5 a7 3d 00 00 00 00
       -0.020043407 -0.016089678 0.081858695 0.0
000360 30 9f 83 3d 57 7d 38 bc be bb 72 3d fa 37 ea 3d
       0.06426847 -0.011260352 0.059261076 0.11436458
000370 12 86 a3 3d 05 1e a2 3d 8a 9d be 3d 31 d2 5d bc
       0.07984556 0.07915882 0.09307392 -0.013538883
000380 21 6c d3 3d d0 b0 81 bb 76 69 6c bc 1a 5f f2 bc
       0.10323358 -0.0039578453 -0.014429441 -0.029586364
000390 26 db a5 bc 44 e6 93 3d 28 2b 25 3e 0f 65 c8 3d
       -0.0202461 0.07221654 0.16129744 0.097849004
0003a0 48 43 a5 3d 4f 60 25 bc ec 83 86 bc 40 5b cc 3d
       0.080694735 -0.010093763 -0.016420327 0.09978342
0003b0 46 d0 ac 3d 04 b0 98 bc 12 3c ba bc 60 8f 8c bc
       0.084381625 -0.018638618 -0.022733722 -0.01715821
0003c0 3e d6 8a bc ad bc 92 3d 15 73 a3 3d 8d f2 c4 3d
       -0.016947862 0.07164893 0.079809345 0.096165754
0003d0 fd 08 36 3e 0e 8c 93 3d ca 4c b3 3d 18 82 9d 3d
       0.17776866 0.07204448 0.08754881 0.07690829
0003e0 31 d0 e4 bb 27 16 99 bc b3 ee b6 bc 88 5f b0 3d
       -0.006982826 -0.01868732 -0.022330618 0.08611971
0003f0 1d c5 6c 3d 85 40 34 bd cc 5f 90 bc 60 c6 99 3d
       0.05780517 -0.044006843 -0.017623805 0.0750854
