lstm984_ae_0802.tflite (tflite, 243412 bytes, 10 tensors)

time_distributed_1/bias f4 [21]
0	0xbe6dadc6	-0.2321082
1	0xbe85c831	-0.26129296
2	0xbe51bcad	-0.2048213
3	0xbe78709c	-0.24261707
4	0xbdc01651	-0.093792565
5	0xbe8f5cf7	-0.28000614
6	0xbe018a3b	-0.12650387
7	0xbe3402b1	-0.17579152
8	0xbe3688d1	-0.17825629
9	0xbe929023	-0.28625593
10	0xbe42fdc7	-0.19042121
11	0xbe9f9fb5	-0.31176534
12	0xbe7e5b14	-0.24839431
13	0xbe8cccab	-0.274999
14	0xbe940913	-0.28913173
15	0xbea48ed8	-0.3214023
16	0xbe9d01a5	-0.30665317
17	0xbe8990d2	-0.26868302
18	0x3e834288	0.25636697
19	0xbe7a7212	-0.24457577
20	0x3e780f44	0.24224573

lstm_5/lstm_cell_11/bias f4 [256]
0	0xbc628236	-0.01382499
1	0x3c2109f5	0.009829034
2	0xbc7e86ca	-0.015535066
3	0x3c35a602	0.011086943
4	0x3c0dd1b5	0.008655955
5	0xbc20c6e2	-0.009813042
6	0xbabaac2c	-0.0014241985
7	0x3cbe002d	0.023193443
8	0x3b99c267	0.004692364
9	0x3b484b40	0.003056243
10	0x3ccea248	0.025223866
11	0xbc81565b	-0.015788248
12	0x3a566962	0.00081791554
13	0xbb280f18	-0.0025643762
14	0x3d104503	0.035222065
15	0xbb6ef80b	-0.0036463763
16	0xb9fc0b67	-0.0004807368
17	0xbbe139be	-0.0068733385
18	0x39780db2	0.00023656225
19	0x3c3c93f6	0.011509886
20	0x3cc7714c	0.024346016
21	0x3c073de2	0.0082545
22	0xbc3714ef	-0.011174425
23	0xbb86ba39	-0.004111555
24	0x3ccb72c0	0.02483499
25	0x3ca9967f	0.020701645
26	0x3bbc29cd	0.0057422877
27	0xbc06b995	-0.008222957
28	0x3a3680ba	0.0006961931
29	0xbb23ccff	-0.0024994013
30	0x3c8df931	0.017330738
31	0xbadc4542	-0.0016805308
32	0x3c312b33	0.010813522
33	0x3bca4d2c	0.0061737504
34	0x3b9094ce	0.00441227
35	0x3c5293e0	0.012852639
36	0xbadb0c1c	-0.0016711983
37	0x3bc54e77	0.0060213166
38	0x3c659f07	0.014014966
39	0xbc156e9e	-0.0091206115
40	0x3c93b580	0.018030882
41	0x3c90559a	0.017618943
42	0x38a61ff6	7.92145e-05
43	0xbbc7d070	-0.0060978457
44	0x3c9ba9ae	0.019001808
45	0x3ccaa531	0.024736973
46	0x3c6b27b0	0.014352724
47	0xbbbcaeec	-0.005758157
48	0x3b8b59f8	0.0042526685
49	0x3b752c9a	0.0037410618
50	0xbc392d73	-0.01130234
51	0x3bcea78c	0.0063065942
52	0xbc1958e9	-0.009359577
53	0xbaa79d57	-0.001278798
54	0x3a33edd3	0.00068637467
55	0x3d2302c2	0.039797552
56	0x3c13742f	0.008999868
57	0x3d17d69a	0.037069894
58	0x3c6e87be	0.014558731
59	0xbb92cdf4	-0.004480118
60	0x3b9c9433	0.004778409
61	0xbbd9e308	-0.0066493787
62	0x3c2340be	0.009964166
63	0xbc0420b3	-0.008064437
64	0x3f800000	1.0
65	0x3f800000	1.0
66	0x3f800000	1.0
67	0x3f800000	1.0
68	0x3f800000	1.0
69	0x3f800000	1.0
70	0x3f800000	1.0
71	0x3f800000	1.0
72	0x3f800000	1.0
73	0x3f800000	1.0
74	0x3f800000	1.0
75	0x3f800000	1.0
76	0x3f800000	1.0
77	0x3f800000	1.0
78	0x3f800000	1.0
79	0x3f800000	1.0
80	0x3f800000	1.0
81	0x3f800000	1.0
82	0x3f800000	1.0
83	0x3f800000	1.0
84	0x3f800000	1.0
85	0x3f800000	1.0
86	0x3f800000	1.0
87	0x3f800000	1.0
88	0x3f800000	1.0
89	0x3f800000	1.0
90	0x3f800000	1.0
91	0x3f800000	1.0
92	0x3f800000	1.0
93	0x3f800000	1.0
94	0x3f800000	1.0
95	0x3f800000	1.0
96	0x3f800000	1.0
97	0x3f800000	1.0
98	0x3f800000	1.0
99	0x3f800000	1.0
100	0x3f800000	1.0
101	0x3f800000	1.0
102	0x3f800000	1.0
103	0x3f800000	1.0
104	0x3f800000	1.0
105	0x3f800000	1.0
106	0x3f800000	1.0
107	0x3f800000	1.0
108	0x3f800000	1.0
109	0x3f800000	1.0
110	0x3f800000	1.0
111	0x3f800000	1.0
112	0x3f800000	1.0
113	0x3f800000	1.0
114	0x3f800000	1.0
115	0x3f800000	1.0
116	0x3f800000	1.0
117	0x3f800000	1.0
118	0x3f800000	1.0
119	0x3f800000	1.0
120	0x3f800000	1.0
121	0x3f800000	1.0
122	0x3f800000	1.0
123	0x3f800000	1.0
124	0x3f800000	1.0
125	0x3f800000	1.0
126	0x3f800000	1.0
127	0x3f800000	1.0
128	0x3db62a09	0.08894736
129	0xbdadb3aa	-0.08481534
130	0x3d5023dd	0.050815452
131	0x3ccaab97	0.024740024
132	0x3d09578e	0.033530764
133	0x3c78070c	0.015138399
134	0xbbce5e96	-0.0062978966
135	0x3db77420	0.08957696
136	0x3d15d3a4	0.03657879
137	0xbdad1d3b	-0.08452841
138	0xbceda24c	-0.029008053
139	0xbd04f9d7	-0.03246483
140	0x3d4a6fd1	0.049423043
141	0x3ddc3810	0.107528806
142	0xbdf15332	-0.11783446
143	0xbcceae45	-0.025229583
144	0x3d5383d2	0.051639386
145	0xbda0f6c1	-0.078595646
146	0xbd0f2684	-0.03494884
147	0xbd17505a	-0.036941864
148	0x3d83d9f3	0.06438055
149	0xbd589119	-0.05287275
150	0xbd1643c0	-0.036685705
151	0x3db3c3d2	0.08777584
152	0xbdb6e962	-0.08931233
153	0xbd836bad	-0.06417022
154	0xbd6f2714	-0.058386877
155	0xbd68f95e	-0.05687844
156	0xbd0ebd94	-0.034848765
157	0xbd66fff6	-0.056396447
158	0x3da3ad2b	0.079920135
159	0x3d444192	0.047914095
160	0x3dafb550	0.085795045
161	0x3d857380	0.065161705
162	0x3c9a6101	0.018845083
163	0xbdb05577	-0.08610051
164	0xbd147a82	-0.036249645
165	0xbcc472a5	-0.023980448
166	0x3c2eed00	0.010676622
167	0x3d77937a	0.06044338
168	0x3c947ad9	0.018124985
169	0xbcd46c92	-0.025930677
170	0x3d9a8b14	0.07546058
171	0x3db9d30c	0.09073457
172	0xbd883248	-0.066502154
173	0x3ab0c4e4	0.0013486412
174	0x3da2766e	0.07932745
175	0x3d95407d	0.07287691
176	0xbd0e07bb	-0.03467534
177	0x3da7d1d4	0.081943184
178	0xbd9e96b9	-0.07743592
179	0xbd8e9ace	-0.069631204
180	0xbd99962e	-0.074993476
181	0x3da07d3e	0.07836388
182	0xbda01c75	-0.07817928
183	0xbda2fd56	-0.07958476
184	0xbd9748b4	-0.07386914
185	0xbe0d45f0	-0.1379621
186	0x3c0a3927	0.008436478
187	0x3d857c37	0.06517833
188	0x3d617048	0.05503872
189	0xbc788954	-0.01516946
190	0x3ddbf867	0.10740738
191	0x3d59f9ad	0.053216625
192	0xbc4259f5	-0.011862268
193	0xbb80a667	-0.0039260867
194	0xbc506236	-0.012718728
195	0x3be94e61	0.007119939
196	0xb69a41f8	-4.5972374e-06
197	0xbc1ef3e2	-0.009701701
198	0xbbd4044a	-0.006470238
199	0xbbcf34d0	-0.0063234344
200	0xbb60f638	-0.0034326445
201	0x3b0db96e	0.0021625417
202	0x3c84aff0	0.016197175
203	0xbbb0908f	-0.0053883265
204	0xbbbd4f9f	-0.005777314
205	0x3c27c150	0.01023896
206	0x3c92b6c6	0.017909419
207	0xbbd1704d	-0.006391561
208	0xbb115d17	-0.002218073
209	0xbad0c4ba	-0.001592777
210	0x394d2226	0.00019563045
211	0x3b564145	0.0032692712
212	0x3c24773f	0.010038196
213	0x3c260487	0.010132915
214	0xbc8f8223	-0.017518109
215	0xbbf07e4e	-0.0073392754
216	0x3c065a74	0.008200277
217	0x3c955bae	0.018232193
218	0xbc268c1c	-0.010165241
219	0xbc9f40c7	-0.019440068
220	0xbc3ad938	-0.011404328
221	0xbc27c6a5	-0.010240232
222	0x3c9f61fc	0.019455902
223	0x393cee42	0.00018017835
224	0xbbae9a92	-0.005328485
225	0xbc04a41d	-0.008095768
226	0x3afbf7f8	0.0019223681
227	0x3c59271f	0.013253956
228	0xbc0e67a0	-0.008691698
229	0x3a772d57	0.00094290584
230	0x3c2c321f	0.010509997
231	0xbc1d9d7e	-0.009620069
232	0x3bf5091e	0.0074778935
233	0x3c6fe9c2	0.014643135
234	0xbba8f7b0	-0.00515648
235	0xbc3ed56e	-0.011647565
236	0x3be17a7a	0.0068810554
237	0x3d11dc29	0.03561035
238	0x3b1ffbaf	0.002441149
239	0xbc79740c	-0.015225422
240	0xbba716d8	-0.0050991587
241	0xba07a16d	-0.00051738956
242	0xbbec0a56	-0.0072033806
243	0xbbda2737	-0.006657507
244	0xbbc342ef	-0.005958907
245	0xbc532960	-0.012888283
246	0xbaf66828	-0.0018799352
247	0x3bfcba81	0.0077126627
248	0xbc8ec3fc	-0.017427437
249	0x3cc4c16c	0.024018012
250	0x3be2789c	0.0069113504
251	0xbc83e13d	-0.016098613
252	0x3b922502	0.004459978
253	0xbc1059a9	-0.008810439
254	0x3c8b8098	0.017029092
255	0xbc47a1a2	-0.012184532

lstm_4/lstm_cell_10/bias f4 [256]
0	0x3d018a67	0.03162613
1	0x3c2406ed	0.010011417
2	0x3c436bf6	0.011927595
3	0x3eb0aa24	0.34504807
4	0x3cd75185	0.026283989
5	0x3c0fdef5	0.008781184
6	0xba4bbac6	-0.0007771667
7	0x3c91f8c7	0.017818822
8	0x3d4f08b6	0.050545417
9	0x3ca84606	0.020541202
10	0x3d802598	0.062571704
11	0x3daaae0d	0.08333979
12	0x3c085007	0.008319861
13	0x3cbb39a8	0.022854641
14	0xbcb5962a	-0.02216633
15	0x3c4084ab	0.0117503805
16	0x3cd11aed	0.025525535
17	0xbb35a584	-0.0027717063
18	0x3ca1b3dc	0.019739084
19	0x3cfdb0c2	0.030968074
20	0x3cc41248	0.023934498
21	0x3c210039	0.009826713
22	0x3ca5e396	0.020250123
23	0x3df0d7da	0.117599204
24	0x3d029f27	0.03189006
25	0x3cc1c08d	0.023651386
26	0xbc285050	-0.010273054
27	0x3c09f32e	0.008419795
28	0x3c7f862e	0.015595956
29	0x3c97e2b3	0.018540716
30	0x3ce28c8e	0.027654912
31	0x3c4ac9b6	0.012377193
32	0x3ca0e6b8	0.019641265
33	0x3ca6b606	0.020350467
34	0x3ce8dce5	0.028425643
35	0x3d017bee	0.03161233
36	0x3c7b6e6c	0.015346151
37	0x3ce130b6	0.027489047
38	0x3e8ef5f5	0.27922025
39	0x3cb3e271	0.021958562
40	0x3d53633c	0.05160831
41	0x3cb42735	0.021991352
42	0x3d3fb989	0.0468078
43	0x3a8588a6	0.0010187819
44	0x3d6ae908	0.057351142
45	0x3b9a5b65	0.004710602
46	0x3cadcf78	0.021217093
47	0x3e0735f5	0.13204177
48	0x3dd0b92f	0.10191571
49	0x3ca37fbb	0.019958368
50	0x3cbead8f	0.023276119
51	0x3cb214a8	0.021738365
52	0x3c1447db	0.009050335
53	0x3c9d1910	0.01917699
54	0x3da35493	0.079751156
55	0x3d30b059	0.04313693
56	0x3caa6695	0.020800868
57	0x3d03793f	0.03209805
58	0x3c33cc2d	0.010973972
59	0x3c78d05c	0.0151863955
60	0x3c629609	0.0138297165
61	0x3c667e94	0.0140682645
62	0x3c31e68b	0.010858188
63	0xbc9b9f8b	-0.018996974
64	0x3f800000	1.0
65	0x3f800000	1.0
66	0x3f800000	1.0
67	0x3f800000	1.0
68	0x3f800000	1.0
69	0x3f800000	1.0
70	0x3f800000	1.0
71	0x3f800000	1.0
72	0x3f800000	1.0
73	0x3f800000	1.0
74	0x3f800000	1.0
75	0x3f800000	1.0
76	0x3f800000	1.0
77	0x3f800000	1.0
78	0x3f800000	1.0
79	0x3f800000	1.0
80	0x3f800000	1.0
81	0x3f800000	1.0
82	0x3f800000	1.0
83	0x3f800000	1.0
84	0x3f800000	1.0
85	0x3f800000	1.0
86	0x3f800000	1.0
87	0x3f800000	1.0
88	0x3f800000	1.0
89	0x3f800000	1.0
90	0x3f800000	1.0
91	0x3f800000	1.0
92	0x3f800000	1.0
93	0x3f800000	1.0
94	0x3f800000	1.0
95	0x3f800000	1.0
96	0x3f800000	1.0
97	0x3f800000	1.0
98	0x3f800000	1.0
99	0x3f800000	1.0
100	0x3f800000	1.0
101	0x3f800000	1.0
102	0x3f800000	1.0
103	0x3f800000	1.0
104	0x3f800000	1.0
105	0x3f800000	1.0
106	0x3f800000	1.0
107	0x3f800000	1.0
108	0x3f800000	1.0
109	0x3f800000	1.0
110	0x3f800000	1.0
111	0x3f800000	1.0
112	0x3f800000	1.0
113	0x3f800000	1.0
114	0x3f800000	1.0
115	0x3f800000	1.0
116	0x3f800000	1.0
117	0x3f800000	1.0
118	0x3f800000	1.0
119	0x3f800000	1.0
120	0x3f800000	1.0
121	0x3f800000	1.0
122	0x3f800000	1.0
123	0x3f800000	1.0
124	0x3f800000	1.0
125	0x3f800000	1.0
126	0x3f800000	1.0
127	0x3f800000	1.0
128	0x3ce7a8b3	0.028278684
129	0x3c949ce6	0.018141221
130	0x3d155cdb	0.036465507
131	0x3ccb15f4	0.024790742
132	0x3c4c3081	0.012462736
133	0xbc0bf4e5	-0.008542274
134	0x3da10a92	0.07863344
135	0xba8e1e21	-0.0010842719
136	0x3de51768	0.11186105
137	0x3c03a5c1	0.008035124
138	0xbe063557	-0.13106285
139	0xbda7604b	-0.08172663
140	0xbc1e20f7	-0.009651414
141	0xbcfc4949	-0.030796664
142	0xbd250924	-0.04029192
143	0xbd9a5d53	-0.075373314
144	0x3dc7a2f3	0.09747877
145	0x3cffa438	0.031206235
146	0xbd74d611	-0.059774462
147	0xbd1ddf24	-0.03854288
148	0x3daaa3b5	0.08332006
149	0x3d96c298	0.073613346
150	0x3c3afdb1	0.011413024
151	0xbe0582d8	-0.13038194
152	0x3c880dac	0.016608082
153	0xbb4008d5	-0.002930214
154	0x3c0f5911	0.008749262
155	0x3cf7fb81	0.030271294
156	0x3d740ab7	0.05958053
157	0xbc886426	-0.016649317
158	0xbd7be734	-0.06149979
159	0x3ce76cd1	0.02825013
160	0x3d0f43bd	0.03497671
161	0xbdd32da6	-0.10311441
162	0xbc1aedfb	-0.009456153
163	0x3d77def2	0.06051535
164	0x3cd6e013	0.026229894
165	0xbd2403a6	-0.040042542
166	0xbd72b70e	-0.059256606
167	0x3c81e9ba	0.01585852
168	0xbd68338a	-0.056689776
169	0xbba6d397	-0.0050911414
170	0x3d2c5246	0.04207065
171	0xbcfc3d88	-0.03079106
172	0x3d804db6	0.06264822
173	0x3d450615	0.048101503
174	0x3bf4b13c	0.007467417
175	0x3daf710d	0.085664846
176	0x3da70866	0.08155899
177	0x3d18fe19	0.0373517
178	0x3dc178ec	0.09446892
179	0xbc8f4984	-0.01749111
180	0xbc9149b3	-0.017735338
181	0x3d1348e3	0.035958182
182	0x3daca2d8	0.084294975
183	0x3d08bbe1	0.0333823
184	0x3d701c13	0.058620524
185	0x3d52a68a	0.051428355
186	0xbd2c5b14	-0.042079046
187	0x3c1e0803	0.009645465
188	0xbd228654	-0.039678887
189	0xbdac4b4a	-0.08412798
190	0xbd724a46	-0.059152864
191	0xbd7564d7	-0.05991062
192	0x3cebc876	0.02878211
193	0x3c784d00	0.015155077
194	0x3ba354f0	0.0049844906
195	0x3eb968ce	0.36212772
196	0x3c3a4063	0.01136789
197	0x3c3c84c9	0.011506268
198	0x3cc4bcea	0.024015862
199	0x3c4bb4af	0.012433215
200	0x3d6550f3	0.055985402
201	0x3cde1482	0.027109388
202	0x3d86f6dc	0.065900534
203	0x3d9c6da1	0.076380976
204	0x3c9e4cf5	0.019323805
205	0x3cdd8605	0.027041445
206	0xbcbdbc7a	-0.023161162
207	0x3d195f6c	0.037444517
208	0x3d021980	0.0317626
209	0x3ce57939	0.028011905
210	0x3ca89e50	0.020583302
211	0x3d136c96	0.035992227
212	0x3d30accb	0.04313354
213	0x3ccca1ca	0.02497949
214	0x3cda8c9b	0.026678374
215	0x3df82538	0.12116474
216	0x3d184fa1	0.037185315
217	0x3ccd1025	0.025032112
218	0xbc28a175	-0.010292401
219	0x3c6d9d78	0.0145028755
220	0x3c45f4b5	0.0120822685
221	0x3c405ca8	0.011740841
222	0x3c3878ee	0.011259301
223	0x3ca58bcb	0.02020826
224	0x3c319c27	0.010840452
225	0x3caeed0d	0.021353269
226	0x3cd24c91	0.025671275
227	0x3cf0ffd5	0.029418865
228	0x3c4cdc35	0.012503673
229	0x3cd213a4	0.025644131
230	0x3e966f6e	0.2938189
231	0x3ce15098	0.02750425
232	0x3d39bd8f	0.045346793
233	0x3cac5281	0.021035435
234	0x3d553a9d	0.05205785
235	0x3cb1078a	0.02161004
236	0x3d2d252f	0.04227179
237	0x3baf00f4	0.00534069
238	0x3cc538fc	0.024075024
239	0x3e026dd1	0.12737204
240	0x3dc8abbb	0.0979838
241	0x3c8e367f	0.01735997
242	0x3d0a0aff	0.033701893
243	0x3ced6764	0.028979965
244	0x3cd5f0c9	0.026115792
245	0x3c4ecdc8	0.012622304
246	0x3da0a036	0.07843058
247	0x3d061e2e	0.032743625
248	0x3c8e377a	0.017360438
249	0x3ceb8c39	0.028753387
250	0x3cd8d387	0.026468052
251	0x3c2058bb	0.00978678
252	0x3cea3af6	0.028592568
253	0x3c3c37c0	0.011487901
254	0x3c7f68f1	0.015588985
255	0xbc8d061d	-0.01721483

sequential/time_distributed_1/dense_1/MatMul f4 [21, 64]
0	0xbe75b0a2	-0.23993161
1	0x3e0e6b08	0.13908017
2	0xbe040e45	-0.12896068
3	0xbe743b25	-0.23850687
4	0xbe722b6e	-0.2364938
5	0x3e156897	0.14590679
6	0x3e16d26e	0.1472871
7	0xbe323e7a	-0.17406645
8	0xbe3af136	-0.18256077
9	0x3deb16f1	0.11478985
10	0x3e58877e	0.21145436
11	0x3e563766	0.2091957
12	0xbe6f0e9b	-0.23345415
13	0xbb9ff866	-0.0048819063
14	0x3e2000a1	0.1562524
15	0x3e0025b3	0.12514381
16	0xbe432fef	-0.19061254
17	0x3e44b2e1	0.19208862
18	0x3e39471c	0.18093532
19	0xbe208bed	-0.15678377
20	0xbe41b9d1	-0.1891854
21	0x3e28e96d	0.16495295
22	0xbc2eacb8	-0.010661297
23	0xbd80293e	-0.06257866
24	0x3e121e04	0.14269263
25	0x3e4b52b0	0.19855762
26	0x3d8a8542	0.06763698
27	0x3e59b008	0.21258557
28	0x3dd4b431	0.10385931
29	0x3d5c5b9d	0.053798307
30	0xbe70f490	-0.23530793
31	0xbd1a5f7b	-0.037688714
32	0xbc49c724	-0.012315545
33	0xbe4f5870	-0.2024858
34	0xbe10d02c	-0.14141911
35	0x3e30ee7d	0.17278476
36	0x3e2ab3fc	0.16670221
37	0x3de79778	0.11308187
38	0xbe61583a	-0.22006312
39	0xbdc3dc9e	-0.09563564
40	0xbe3b8f3d	-0.1831636
41	0x3e85cdb8	0.26133513
42	0xbe55f9e0	-0.20896101
43	0xbe387d35	-0.18016513
44	0x3c80f4f6	0.015741806
45	0xbe9e2545	-0.3088781
46	0xbe34667a	-0.17617217
47	0xbd6cfab4	-0.057856277
48	0x3e0f92d1	0.1402085
49	0xbe5a7abd	-0.21335883
50	0x3e53d5cb	0.20687024
51	0x3d9937c8	0.074813426
52	0x3e4d3485	0.20039566
53	0xbd637a85	-0.055536766
54	0x3dd5fd4c	0.10448703
55	0x3e415d24	0.18883187
56	0x3e2fff8e	0.1718733
57	0x3d0bd35f	0.034137126
58	0xbe06995b	-0.13144438
59	0xbe373bee	-0.17893955
60	0xbde2e420	-0.11078668
61	0x3de24fbf	0.110503666
62	0xbdcfd8cd	-0.10148773
63	0xbdf7e9f2	-0.121051684
64	0xbe12bdda	-0.14330235
65	0x3d923887	0.07139688
66	0xbe817ccd	-0.25290528
67	0xbe6164ef	-0.2201116
68	0xbe479cf5	-0.19493468
69	0x3e4ca194	0.19983512
70	0x3e3d8631	0.18508221
71	0xbddc762e	-0.107647285
72	0xbdda662b	-0.10664018
73	0x3e02434c	0.12720984
74	0x3e1821bb	0.14856617
75	0x3e59aefb	0.21258156
76	0xbde46c1d	-0.111534335
77	0xbe078516	-0.13234362
78	0x3df99948	0.12187439
79	0x3e40befc	0.18822855
80	0xbe0cc9e2	-0.13748887
81	0x3e015ec4	0.12633806
82	0x3d9b739a	0.075904086
83	0xbdd11b3c	-0.10210273
84	0xbe3d8b87	-0.18510257
85	0x3e44f2b2	0.19233206
86	0x3e8ac9e8	0.27107167
87	0xbdea3a2d	-0.114368774
88	0x3dd16277	0.10223859
89	0x3e78b40b	0.24287431
90	0x3e003f4a	0.12524143
91	0x3e5cc37a	0.21558943
92	0x3d938f7a	0.072051
93	0x3e723775	0.23653968
94	0xbe23e2c6	-0.16004476
95	0xbdc3c22d	-0.095585205
96	0xbe2b575f	-0.16732548
97	0xbdbc804b	-0.092041574
98	0xbe6175cf	-0.22017597
99	0x3e4e3012	0.20135525
100	0x3e4a02c0	0.19727612
101	0x3dc40804	0.09571841
102	0xbdaa6872	-0.083207026
103	0xbe7517f1	-0.23934914
104	0xbe197f07	-0.14989863
105	0x3dabae0a	0.08382805
106	0xbd90dfda	-0.07073946
107	0xbdaff299	-0.08591194
108	0x3e0e1f5b	0.13879149
109	0xbe6b597b	-0.22983353
110	0xbdce989c	-0.10087702
111	0xbe6cea3d	-0.2313623
112	0x3e0901fa	0.1337966
113	0xbe23abf3	-0.15983562
114	0x3df1acb8	0.118005216
115	0x3e0dd72d	0.13851614
116	0x3d7cdc61	0.061733607
117	0xbe281851	-0.16415526
118	0x3e63755d	0.2221274
119	0x3ddd8214	0.10815826
120	0x3e26a5b1	0.16274144
121	0x3de4542c	0.11148867
122	0xbe20c406	-0.15699777
123	0xbdebb614	-0.11509338
124	0xbe0bbbae	-0.13645813
125	0x3e4d9332	0.20075682
126	0xbd430aa2	-0.047617562
127	0xbe02fa42	-0.12790778
128	0xbd18605a	-0.037201263
129	0x3e451404	0.19245917
130	0xbe791ebd	-0.24328132
131	0xbe7a6096	-0.24450907
132	0xbe8a5e76	-0.27025193
133	0x3e4987a2	0.19680646
134	0x3e0de86a	0.1385819
135	0xbdac29c1	-0.084064014
136	0xbe603d6a	-0.21898428
137	0x3e4b7222	0.19867757
138	0x3e0c4aea	0.13700452
139	0x3e6021cd	0.21887894
140	0xbe25243c	-0.16127104
141	0xbdeefcb8	-0.11669296
142	0x3d997457	0.07492893
143	0x3e7acedf	0.24492978
144	0xbe29cebf	-0.16582774
145	0x3e218dcf	0.15776752
146	0x3e309844	0.17245585
147	0xbeaef62c	-0.3417219
148	0xbdacba14	-0.08433929
149	0x3e07e4e2	0.13270906
150	0x3dad3998	0.08458251
151	0xbcf7e303	-0.030259615
152	0x3dfb8aa5	0.12282304
153	0x3db094d4	0.08622137
154	0x3e6c97af	0.23104738
155	0x3d10c56d	0.03534453
156	0x3e8c2812	0.2737432
157	0x3cc3b7c9	0.023891347
158	0xbdbca353	-0.09210839
159	0xbe2d6948	-0.16934693
160	0xbe043a8b	-0.12912957
161	0xbe1ce660	-0.15322256
162	0xbe53e17e	-0.20691487
163	0x3d98f21a	0.07468052
164	0x3e7ed545	0.24886043
165	0x3e885bf7	0.26632664
166	0xbe473243	-0.19452767
167	0xbde8a964	-0.11360434
168	0xbe2d288f	-0.16910003
169	0x3e57a21f	0.21057938
170	0xbe1a82cc	-0.15088958
171	0xbde4d5bf	-0.11173581
172	0x3df57278	0.11984724
173	0xbeb4c914	-0.3530966
174	0xbe1e855f	-0.15480565
175	0xbe084393	-0.13307028
176	0x3e8715df	0.26383874
177	0xbe40163f	-0.18758486
178	0x3d64b6be	0.05583834
179	0x3cbc63cc	0.022996806
180	0x3e12bd8b	0.14330117
181	0xbe153d29	-0.14574112
182	0x3e33e6cd	0.17568512
183	0x3dfb93e5	0.12284068
184	0x3d0ae583	0.033910286
185	0x3dab7757	0.08372372
186	0xbe12806c	-0.14306802
187	0xbe8addb5	-0.27122274
188	0xbd6debb8	-0.058086127
189	0x3e9bc86c	0.30426347
190	0xbe12a1db	-0.14319555
191	0xbe6a59c6	-0.22885808
192	0xbdb5daa0	-0.0887959
193	0x3d2caff3	0.042159986
194	0xbcc0b305	-0.023522863
195	0x3cb6a74f	0.022296576
196	0xbe69fb74	-0.22849828
197	0x3e4e8c6f	0.20170759
198	0x3e7c191d	0.24618955
199	0xbe174540	-0.1477251
200	0xbe32121d	-0.17389722
201	0x3d8f1fa0	0.06988454
202	0x3dd8c025	0.10583524
203	0x3dbd1929	0.092333145
204	0xbe759b0f	-0.23984931
205	0x3d3170c6	0.04332044
206	0x3d8e468b	0.06947049
207	0x3e4e5d75	0.20152839
208	0xbe24abc5	-0.1608115
209	0x3e3d1758	0.18465936
210	0x3e3e9cb1	0.1861446
211	0xbe817626	-0.25285453
212	0xbdf6401b	-0.12023946
213	0x3dae6609	0.085155554
214	0x3d2abf54	0.04168637
215	0xbe87eb01	-0.2654648
216	0x3d730d8f	0.059339102
217	0x3e23ee37	0.1600884
218	0x3d9de491	0.07709611
219	0x3e5fb1bd	0.21845146
220	0x3e5bd62c	0.21468419
221	0x3e5bd91c	0.2146954
222	0xbe6d4103	-0.23169331
223	0xbe3eaac0	-0.18619823
224	0xbe55edef	-0.20891546
225	0xbe2f0a7b	-0.17093842
226	0xbe4e7b1b	-0.20164149
227	0x3e21d08b	0.15802209
228	0x3dc7246d	0.097237445
229	0x3e4a9622	0.19783834
230	0xbe38744a	-0.18013111
231	0xbe683c83	-0.22679333
232	0xbdcdf3c4	-0.1005626
233	0x3e142adc	0.14469475
234	0xbe56e790	-0.20986772
235	0xbdc809d4	-0.097674996
236	0x3dad700f	0.08468639
237	0xbe8a60f1	-0.27027085
238	0xbe72ae1c	-0.2369923
239	0xbe6d31ec	-0.23163575
240	0x3e45f4cf	0.19331668
241	0xbe4ca312	-0.19984081
242	0x3dce4785	0.10072235
243	0x3e6bbc14	0.23020965
244	0x3e1359d6	0.14389738
245	0xbe329fa6	-0.17443714
246	0xbc9254d3	-0.017862713
247	0x3dfb46fe	0.122694
248	0x3e2b573c	0.16732496
249	0x3e3590be	0.17730996
250	0xbe4b4de7	-0.19853936
251	0xbc90bd44	-0.017668374
252	0xbde054e4	-0.109536916
253	0x3e8cc2bb	0.27492318
254	0xbe5a580d	-0.21322651
255	0xbe14187d	-0.14462467

lstm_4/lstm_cell_10/bias1 f4 [256]
0	0x3d018a67	0.03162613
1	0x3c2406ed	0.010011417
2	0x3c436bf6	0.011927595
3	0x3eb0aa24	0.34504807
4	0x3cd75185	0.026283989
5	0x3c0fdef5	0.008781184
6	0xba4bbac6	-0.0007771667
7	0x3c91f8c7	0.017818822
8	0x3d4f08b6	0.050545417
9	0x3ca84606	0.020541202
10	0x3d802598	0.062571704
11	0x3daaae0d	0.08333979
12	0x3c085007	0.008319861
13	0x3cbb39a8	0.022854641
14	0xbcb5962a	-0.02216633
15	0x3c4084ab	0.0117503805
16	0x3cd11aed	0.025525535
17	0xbb35a584	-0.0027717063
18	0x3ca1b3dc	0.019739084
19	0x3cfdb0c2	0.030968074
20	0x3cc41248	0.023934498
21	0x3c210039	0.009826713
22	0x3ca5e396	0.020250123
23	0x3df0d7da	0.117599204
24	0x3d029f27	0.03189006
25	0x3cc1c08d	0.023651386
26	0xbc285050	-0.010273054
27	0x3c09f32e	0.008419795
28	0x3c7f862e	0.015595956
29	0x3c97e2b3	0.018540716
30	0x3ce28c8e	0.027654912
31	0x3c4ac9b6	0.012377193
32	0x3ca0e6b8	0.019641265
33	0x3ca6b606	0.020350467
34	0x3ce8dce5	0.028425643
35	0x3d017bee	0.03161233
36	0x3c7b6e6c	0.015346151
37	0x3ce130b6	0.027489047
38	0x3e8ef5f5	0.27922025
39	0x3cb3e271	0.021958562
40	0x3d53633c	0.05160831
41	0x3cb42735	0.021991352
42	0x3d3fb989	0.0468078
43	0x3a8588a6	0.0010187819
44	0x3d6ae908	0.057351142
45	0x3b9a5b65	0.004710602
46	0x3cadcf78	0.021217093
47	0x3e0735f5	0.13204177
48	0x3dd0b92f	0.10191571
49	0x3ca37fbb	0.019958368
50	0x3cbead8f	0.023276119
51	0x3cb214a8	0.021738365
52	0x3c1447db	0.009050335
53	0x3c9d1910	0.01917699
54	0x3da35493	0.079751156
55	0x3d30b059	0.04313693
56	0x3caa6695	0.020800868
57	0x3d03793f	0.03209805
58	0x3c33cc2d	0.010973972
59	0x3c78d05c	0.0151863955
60	0x3c629609	0.0138297165
61	0x3c667e94	0.0140682645
62	0x3c31e68b	0.010858188
63	0xbc9b9f8b	-0.018996974
64	0x3f800000	1.0
65	0x3f800000	1.0
66	0x3f800000	1.0
67	0x3f800000	1.0
68	0x3f800000	1.0
69	0x3f800000	1.0
70	0x3f800000	1.0
71	0x3f800000	1.0
72	0x3f800000	1.0
73	0x3f800000	1.0
74	0x3f800000	1.0
75	0x3f800000	1.0
76	0x3f800000	1.0
77	0x3f800000	1.0
78	0x3f800000	1.0
79	0x3f800000	1.0
80	0x3f800000	1.0
81	0x3f800000	1.0
82	0x3f800000	1.0
83	0x3f800000	1.0
84	0x3f800000	1.0
85	0x3f800000	1.0
86	0x3f800000	1.0
87	0x3f800000	1.0
88	0x3f800000	1.0
89	0x3f800000	1.0
90	0x3f800000	1.0
91	0x3f800000	1.0
92	0x3f800000	1.0
93	0x3f800000	1.0
94	0x3f800000	1.0
95	0x3f800000	1.0
96	0x3f800000	1.0
97	0x3f800000	1.0
98	0x3f800000	1.0
99	0x3f800000	1.0
100	0x3f800000	1.0
101	0x3f800000	1.0
102	0x3f800000	1.0
103	0x3f800000	1.0
104	0x3f800000	1.0
105	0x3f800000	1.0
106	0x3f800000	1.0
107	0x3f800000	1.0
108	0x3f800000	1.0
109	0x3f800000	1.0
110	0x3f800000	1.0
111	0x3f800000	1.0
112	0x3f800000	1.0
113	0x3f800000	1.0
114	0x3f800000	1.0
115	0x3f800000	1.0
116	0x3f800000	1.0
117	0x3f800000	1.0
118	0x3f800000	1.0
119	0x3f800000	1.0
120	0x3f800000	1.0
121	0x3f800000	1.0
122	0x3f800000	1.0
123	0x3f800000	1.0
124	0x3f800000	1.0
125	0x3f800000	1.0
126	0x3f800000	1.0
127	0x3f800000	1.0
128	0x3ce7a8b3	0.028278684
129	0x3c949ce6	0.018141221
130	0x3d155cdb	0.036465507
131	0x3ccb15f4	0.024790742
132	0x3c4c3081	0.012462736
133	0xbc0bf4e5	-0.008542274
134	0x3da10a92	0.07863344
135	0xba8e1e21	-0.0010842719
136	0x3de51768	0.11186105
137	0x3c03a5c1	0.008035124
138	0xbe063557	-0.13106285
139	0xbda7604b	-0.08172663
140	0xbc1e20f7	-0.009651414
141	0xbcfc4949	-0.030796664
142	0xbd250924	-0.04029192
143	0xbd9a5d53	-0.075373314
144	0x3dc7a2f3	0.09747877
145	0x3cffa438	0.031206235
146	0xbd74d611	-0.059774462
147	0xbd1ddf24	-0.03854288
148	0x3daaa3b5	0.08332006
149	0x3d96c298	0.073613346
150	0x3c3afdb1	0.011413024
151	0xbe0582d8	-0.13038194
152	0x3c880dac	0.016608082
153	0xbb4008d5	-0.002930214
154	0x3c0f5911	0.008749262
155	0x3cf7fb81	0.030271294
156	0x3d740ab7	0.05958053
157	0xbc886426	-0.016649317
158	0xbd7be734	-0.06149979
159	0x3ce76cd1	0.02825013
160	0x3d0f43bd	0.03497671
161	0xbdd32da6	-0.10311441
162	0xbc1aedfb	-0.009456153
163	0x3d77def2	0.06051535
164	0x3cd6e013	0.026229894
165	0xbd2403a6	-0.040042542
166	0xbd72b70e	-0.059256606
167	0x3c81e9ba	0.01585852
168	0xbd68338a	-0.056689776
169	0xbba6d397	-0.0050911414
170	0x3d2c5246	0.04207065
171	0xbcfc3d88	-0.03079106
172	0x3d804db6	0.06264822
173	0x3d450615	0.048101503
174	0x3bf4b13c	0.007467417
175	0x3daf710d	0.085664846
176	0x3da70866	0.08155899
177	0x3d18fe19	0.0373517
178	0x3dc178ec	0.09446892
179	0xbc8f4984	-0.01749111
180	0xbc9149b3	-0.017735338
181	0x3d1348e3	0.035958182
182	0x3daca2d8	0.084294975
183	0x3d08bbe1	0.0333823
184	0x3d701c13	0.058620524
185	0x3d52a68a	0.051428355
186	0xbd2c5b14	-0.042079046
187	0x3c1e0803	0.009645465
188	0xbd228654	-0.039678887
189	0xbdac4b4a	-0.08412798
190	0xbd724a46	-0.059152864
191	0xbd7564d7	-0.05991062
192	0x3cebc876	0.02878211
193	0x3c784d00	0.015155077
194	0x3ba354f0	0.0049844906
195	0x3eb968ce	0.36212772
196	0x3c3a4063	0.01136789
197	0x3c3c84c9	0.011506268
198	0x3cc4bcea	0.024015862
199	0x3c4bb4af	0.012433215
200	0x3d6550f3	0.055985402
201	0x3cde1482	0.027109388
202	0x3d86f6dc	0.065900534
203	0x3d9c6da1	0.076380976
204	0x3c9e4cf5	0.019323805
205	0x3cdd8605	0.027041445
206	0xbcbdbc7a	-0.023161162
207	0x3d195f6c	0.037444517
208	0x3d021980	0.0317626
209	0x3ce57939	0.028011905
210	0x3ca89e50	0.020583302
211	0x3d136c96	0.035992227
212	0x3d30accb	0.04313354
213	0x3ccca1ca	0.02497949
214	0x3cda8c9b	0.026678374
215	0x3df82538	0.12116474
216	0x3d184fa1	0.037185315
217	0x3ccd1025	0.025032112
218	0xbc28a175	-0.010292401
219	0x3c6d9d78	0.0145028755
220	0x3c45f4b5	0.0120822685
221	0x3c405ca8	0.011740841
222	0x3c3878ee	0.011259301
223	0x3ca58bcb	0.02020826
224	0x3c319c27	0.010840452
225	0x3caeed0d	0.021353269
226	0x3cd24c91	0.025671275
227	0x3cf0ffd5	0.029418865
228	0x3c4cdc35	0.012503673
229	0x3cd213a4	0.025644131
230	0x3e966f6e	0.2938189
231	0x3ce15098	0.02750425
232	0x3d39bd8f	0.045346793
233	0x3cac5281	0.021035435
234	0x3d553a9d	0.05205785
235	0x3cb1078a	0.02161004
236	0x3d2d252f	0.04227179
237	0x3baf00f4	0.00534069
238	0x3cc538fc	0.024075024
239	0x3e026dd1	0.12737204
240	0x3dc8abbb	0.0979838
241	0x3c8e367f	0.01735997
242	0x3d0a0aff	0.033701893
243	0x3ced6764	0.028979965
244	0x3cd5f0c9	0.026115792
245	0x3c4ecdc8	0.012622304
246	0x3da0a036	0.07843058
247	0x3d061e2e	0.032743625
248	0x3c8e377a	0.017360438
249	0x3ceb8c39	0.028753387
250	0x3cd8d387	0.026468052
251	0x3c2058bb	0.00978678
252	0x3cea3af6	0.028592568
253	0x3c3c37c0	0.011487901
254	0x3c7f68f1	0.015588985
255	0xbc8d061d	-0.01721483

while/MatMul_1 f4 [256, 64]
0	0x3de14950	0.110003114
1	0xbc542bfc	-0.01294994
2	0xbd097aec	-0.033564493
3	0x3b3db848	0.0028948952
4	0xbbed0d40	-0.0072342455
5	0x3daf047a	0.08545776
6	0x3c3dd720	0.011586934
7	0x3cdbf45b	0.026849916
8	0xbd23792a	-0.039910473
9	0x3c45755a	0.012051905
10	0xbdbf361f	-0.09336495
11	0x3b8092c0	0.003923744
12	0x3d246e18	0.040144056
13	0x3c736bf6	0.014857283
14	0x3d51fcd0	0.05126649
15	0x3dc1b63a	0.09458585
16	0xbc5a80bc	-0.013336357
17	0x3b6d34e2	0.003619485
18	0xbd56ce94	-0.052443102
19	0xbda0c69a	-0.0785038
20	0x3cd67236	0.026177507
21	0xbd0e17c0	-0.03469062
22	0xbd2f3213	-0.042772364
23	0x3b7169f8	0.0036836844
24	0xbce6f9f2	-0.028195355
25	0x3d49b17e	0.049241535
26	0x3d28dd9a	0.04122696
27	0xbde591f1	-0.11209477
28	0x3d36b91e	0.044610135
29	0xbccd9040	-0.025093198
30	0xbd6bf608	-0.05760768
31	0xbd535f93	-0.05160482
32	0x3c070c32	0.008242654
33	0x3d176d0f	0.03696924
34	0x3cd80182	0.026367906
35	0xbdab6416	-0.08368699
36	0xbc16be3a	-0.009200627
37	0x3bad459e	0.00528784
38	0x3d3006b8	0.042975157
39	0x3e06e526	0.1317335
40	0xbd53bfb2	-0.051696487
41	0x3d9244df	0.07142042
42	0x3cda6b02	0.026662353
43	0x3c503af8	0.012709372
44	0x3c6f0634	0.014588881
45	0x3d8f9733	0.07011261
46	0xbd5bd16b	-0.053666513
47	0xbd90ad08	-0.07064253
48	0xbd8d0216	-0.068851635
49	0xbd46eff2	-0.048568673
50	0xbde366cf	-0.111035936
51	0x3d239205	0.039934177
52	0xbe18a66b	-0.14907233
53	0x3cfa2e72	0.030539725
54	0xbceff5f6	-0.029292088
55	0x3d5fbd34	0.054623798
56	0x3c871bd1	0.016492756
57	0x3b9aaa12	0.004719981
58	0x3ad6b398	0.0016380427
59	0x3d54c43c	0.051944956
60	0xbc036356	-0.008019289
61	0x3c80c5bc	0.015719287
62	0xbe09d4a4	-0.13460022
63	0xbcd2c986	-0.02573086
64	0x3d952c47	0.07283836
65	0xbbb0f400	-0.005400181
66	0x3c59a57f	0.013284086
67	0xbd5d254d	-0.05399065
68	0x3cec0136	0.028809171
69	0xbd92fd09	-0.07177169
70	0x3d79a00b	0.060943644
71	0xbdedc410	-0.116096616
72	0xbb8c9a00	-0.004290819
73	0xbda53f3b	-0.08068701
74	0xbc52ddff	-0.012870311
75	0xbd999ad4	-0.07500234
76	0x3cb09e8f	0.021559982
77	0xbc86bba8	-0.016446903
78	0xbd801d65	-0.062556066
79	0xbd4425da	-0.04788766
80	0x3dba1805	0.090866126
81	0x3d6256b8	0.055258483
82	0xbc23cfab	-0.009998242
83	0x3df36174	0.11883822
84	0x3dd702c9	0.10498578
85	0xbd5c389c	-0.053764924
86	0x3d48b206	0.0489979
87	0xbd29332d	-0.04130857
88	0xbcd45d65	-0.02592344
89	0x3c4d66be	0.012536703
90	0xbcb74cd3	-0.0223755
91	0x3d8723d0	0.065986276
92	0x3d8a4155	0.06750742
93	0x3e0f3112	0.13983563
94	0x3d3ef43d	0.046619643
95	0xbc115184	-0.0088695325
96	0x3e0b0378	0.13575542
97	0xbc9e7925	-0.019344876
98	0x3cdcb3e7	0.026941253
99	0xbc96a526	-0.018389296
100	0xbc81a0a1	-0.015823664
101	0x3dcd044f	0.100105874
102	0x3bb64ee6	0.0055636046
103	0xbce2e7f2	-0.02769849
104	0xbd9e0e23	-0.0771754
105	0xbd848b14	-0.064718395
106	0x3e22b4a4	0.15889221
107	0x3d2f18d2	0.04274828
108	0x3cbd6771	0.023120614
109	0xbd26b269	-0.04069749
110	0xbe168bbc	-0.14701742
111	0xbdef2512	-0.116769925
112	0xbd0598b0	-0.032616317
113	0xbcbee500	-0.023302555
114	0x3d10cdf3	0.03535266
115	0xbc459c1a	-0.012061143
116	0x3b55e1e8	0.0032635871
117	0xbd26ba35	-0.040704925
118	0xbdc7acc5	-0.0974975
119	0xbc07b5fe	-0.008283136
120	0xbd266b11	-0.04062945
121	0xbd9b8f81	-0.075957306
122	0xbc45e7a4	-0.012079153
123	0xbc27ee10	-0.01024963
124	0xbd3cd2f2	-0.04609961
125	0xbd22fbf1	-0.03979105
126	0xbdb58dda	-0.08864947
127	0xbd4d9af3	-0.0501966
128	0x3d551aaf	0.0520274
129	0x3d65b8d4	0.05608447
130	0x3d175da0	0.036954522
131	0x3da6efa0	0.081511736
132	0xbdb6904f	-0.089142434
133	0xbb9f9c14	-0.004870901
134	0x3dd950aa	0.106110886
135	0xbcccf5f0	-0.025019616
136	0x3d92a02f	0.07159459
137	0xbc2e7b3b	-0.010649498
138	0x3d98ca4e	0.074604616
139	0x39cc33f0	0.0003894861
140	0xbda84e28	-0.08218032
141	0x3ce461c9	0.027878659
142	0xbd9e763a	-0.07737394
143	0x3ca2a386	0.019853365
144	0xbce610d8	-0.028084204
145	0x3cfc48a0	0.030796349
146	0x3d4fe3bf	0.050754305
147	0x3d62bc29	0.055355225
148	0xbd917492	-0.07102312
149	0xbd9ce092	-0.07660021
150	0x3dabe557	0.083933525
151	0x3c0e7a83	0.008696201
152	0x3c802f7e	0.015647646
153	0xbd2ab7b3	-0.041679095
154	0xbcf2c704	-0.029635914
155	0xbd98dfc2	-0.074645534
156	0xbd710972	-0.0588469
157	0xbdadab08	-0.08479887
158	0x3de2d9ec	0.110767215
159	0x3db89034	0.090118796
160	0x3d2a339a	0.041553117
161	0x3d86de0b	0.0658532
162	0x3c1155a7	0.008870519
163	0xbe207cb5	-0.15672572
164	0xbdaba045	-0.08380178
165	0xbdd51e23	-0.10406139
166	0xbc0731b9	-0.008251601
167	0x3c92fa48	0.017941609
168	0x3dc01733	0.09379425
169	0xbc847005	-0.016166696
170	0x3c4692e4	0.012119982
171	0xbc58621e	-0.013206987
172	0x3d921495	0.07132832
173	0xbce9f08a	-0.02855708
174	0xbd5af870	-0.053459585
175	0x3d03423c	0.032045588
176	0xbc1aab84	-0.009440307
177	0xbd902f17	-0.07040232
178	0x3dadf489	0.08493907
179	0xbdb4bcf9	-0.08825106
180	0xbd47d333	-0.0487854
181	0x3b77abe0	0.0037791654
182	0xbd5c990c	-0.053856894
183	0x3afa88fc	0.0019114311
184	0xbd9046de	-0.07044767
185	0x3cd7f5c7	0.026362313
186	0xbd20be74	-0.03924413
187	0xbd8014ae	-0.06253944
188	0xbe3e4522	-0.1858106
189	0x3be4ce54	0.006982604
190	0xbd5f99d2	-0.054590054
191	0xbb9df23c	-0.0048201364
192	0xbba78494	-0.00511224
193	0xbdc35ebd	-0.09539554
194	0xbbf1511e	-0.0073644063
195	0x3d9a90a0	0.07547116
196	0xbd838c51	-0.064232476
197	0x3b8befe0	0.0042705387
198	0xbdc4bafe	-0.096059784
199	0xbd85a6a8	-0.06525928
200	0xbe10aa94	-0.1412757
201	0xbd6d8bd8	-0.057994694
202	0x3d012081	0.03152514
203	0x3d7b973d	0.06142353
204	0xbe0029bb	-0.12515919
205	0xbdbde6a6	-0.09272508
206	0x3d1d5586	0.03841164
207	0xbbd34da3	-0.006448464
208	0x3d3c3d04	0.045956627
209	0xbd18aa5a	-0.037271835
210	0xbd77fc88	-0.060543567
211	0x3d7b5ca6	0.061367653
212	0x3caeece0	0.021353185
213	0x3dc95314	0.09830299
214	0x3e05fa23	0.13083701
215	0xbbd25d07	-0.006419781
216	0x3b9488b0	0.004532896
217	0xbdc91d35	-0.09820024
218	0x3d0dd2f1	0.034624998
219	0x3c42c0cb	0.011886786
220	0x3d44867a	0.04797981
221	0xbd27cc14	-0.04096611
222	0x3d34deaa	0.04415766
223	0xbd63d32c	-0.05562131
224	0x3c3fada8	0.011699118
225	0xbd1557b2	-0.036460586
226	0xbd55a218	-0.052156538
227	0xbbdddcc4	-0.006770702
228	0x3b6e53ce	0.003636587
229	0x3b6e58a4	0.0036368752
230	0x3cc67aa1	0.024228396
231	0x3d1685c2	0.036748655
232	0x3d491693	0.049093794
233	0x3b5abf50	0.0033378191
234	0xbe1b17dc	-0.1514582
235	0xbd4ccdde	-0.050001018
236	0xbcd8ace6	-0.026449632
237	0xbc719541	-0.014745058
238	0x3c83b2ae	0.016076412
239	0x3d35ca62	0.04438246
240	0x3d394a22	0.045236714
241	0xbd7391b2	-0.059465118
242	0xbaaf7772	-0.0013387038
243	0xbd351fe7	-0.044219878
244	0x3cbc5888	0.022991434
245	0xbe170a92	-0.14750126
246	0xbc803d1c	-0.01565414
247	0xbd082d84	-0.033246532
248	0xbcd7f308	-0.026361004
249	0x3df6183f	0.12016343
250	0x3d517ed1	0.051146332
251	0x3d172fd0	0.036910832
252	0xbd46d957	-0.048547115
253	0x3c30573e	0.010762988
254	0xbd3e172f	-0.04640883
255	0xbd2e9534	-0.04262276

while/MatMul f4 [256, 21]
0	0x3daa0458	0.0830161
1	0xbdaa2a51	-0.083088525
2	0x3c2f3810	0.010694519
3	0x3cb51a48	0.022107258
4	0x3deed24b	0.11661204
5	0xbdb122d3	-0.0864922
6	0x3cf135c5	0.029444585
7	0x3d937b4f	0.072012536
8	0x3dac1b4d	0.08403645
9	0x3d9c5d7e	0.0763502
10	0xbe1b5d3c	-0.15172285
11	0xbde76095	-0.112977184
12	0x3d450f93	0.048110556
13	0x3c8a4271	0.016877385
14	0xbd9bd324	-0.07608631
15	0xbd1834e9	-0.037159834
16	0x3c6745f6	0.014115801
17	0x3d5912ef	0.052996572
18	0x3e477918	0.19479787
19	0x3c04b3ad	0.008099479
20	0x3e21a67e	0.15786168
21	0xbe1c8c25	-0.15287836
22	0x3dd7717b	0.105196916
23	0xbe0457ba	-0.1292409
24	0x3d961ed5	0.073300995
25	0x3c302f02	0.010753395
26	0xbc96b6b5	-0.018397668
27	0xbe082a9a	-0.13297501
28	0x3e0a6b05	0.13517387
29	0x39b5af3d	0.00034653573
30	0xbc9758ee	-0.018475022
31	0xbd18d349	-0.037310872
32	0xbd051a0c	-0.032495543
33	0x3c6ce8df	0.014459818
34	0xbb1aef1c	-0.0023641055
35	0xbe391330	-0.18073726
36	0x3db5023f	0.08838319
37	0x3dce3b7e	0.10069941
38	0x3d20bd95	0.0392433
39	0x3e0b0b74	0.13578588
40	0xbe2d1895	-0.16903909
41	0x3da0ef92	0.078581944
42	0x3d040906	0.032235168
43	0xbd92f332	-0.07175292
44	0xbb7ae7bc	-0.0038285097
45	0xbe0dd2f8	-0.1385001
46	0xbddc9ac8	-0.1077171
47	0x3d58774f	0.052848157
48	0x3d266330	0.040621936
49	0xbc99f31f	-0.018792687
50	0xbdde2af0	-0.108480334
51	0xbd0d24f1	-0.03445906
52	0xbde15bae	-0.11003815
53	0x3cbfb08b	0.023399612
54	0xbe1ff36f	-0.15620206
55	0xbe1a1534	-0.15047151
56	0x3d8bd032	0.068268195
57	0x3dc815e9	0.09769804
58	0xbdcb1383	-0.09915831
59	0xbc9e9ef3	-0.019362902
60	0x3e25c4e4	0.16188389
61	0xbcbe4357	-0.02322547
62	0x3da1ba1a	0.07896824
63	0xbddae1fb	-0.106876336
64	0xbebef385	-0.37295166
65	0xbe9c68d7	-0.30548736
66	0xbe986765	-0.29766384
67	0xbe660bf4	-0.22465497
68	0xbeac024a	-0.33595496
69	0xbeda6845	-0.42657676
70	0xbebffdc7	-0.37498304
71	0xbeac8ecd	-0.33702698
72	0xbef0652c	-0.46952188
73	0xbe5656e7	-0.20931588
74	0xbe992f9f	-0.29919145
75	0xbe6bffe5	-0.23046835
76	0xbe6e45cf	-0.23268817
77	0xbed0fb9c	-0.40816963
78	0xbea3e75b	-0.32012448
79	0xbec8f8f3	-0.39252433
80	0xbe0659bb	-0.13120167
81	0x3e3a6c39	0.18205346
82	0xbdd142ff	-0.102178566
83	0x3e1bf7d6	0.1523126
84	0xbdb0cfac	-0.0863336
85	0x3c85e3b5	0.01634393
86	0xbe072e99	-0.1320137
87	0x3d138974	0.036019757
88	0xbd2b685c	-0.04184757
89	0x3c9cc098	0.019134805
90	0xbe0ec895	-0.13943703
91	0x3de7c1d2	0.11316265
92	0xbdc506e7	-0.09620457
93	0x3ca7020c	0.020386718
94	0xbdff5f4a	-0.12469347
95	0x3d927d94	0.071528584
96	0x3d42a03f	0.047516104
97	0xbe30206b	-0.17199866
98	0x3da047be	0.07826184
99	0x3d840bbb	0.0644755
100	0xbd5eebfb	-0.054424267
101	0x3dc4fbcb	0.09618338
102	0x3dafa0ec	0.08575615
103	0xbce66210	-0.028122932
104	0x3e461093	0.1934226
105	0xbdbd37e2	-0.092391744
106	0xbd59e52e	-0.05319708
107	0xbe1877e5	-0.14889486
108	0x3db0f17b	0.08639809
109	0x3dcf7958	0.10130566
110	0xbe025ea3	-0.12731414
111	0xbe0cc983	-0.13748746
112	0x3d7b0570	0.061284482
113	0xbc440f52	-0.011966543
114	0x3d6c17ab	0.05763976
115	0x3e102540	0.1407671
116	0x3cfb0a1d	0.03064447
117	0x3e05d72d	0.13070364
118	0xbddb7fe9	-0.10717756
119	0x3d6be6ec	0.05759327
120	0xbdadbf1c	-0.08483717
121	0xbd990775	-0.074721254
122	0xbcef306d	-0.029197896
123	0x3db86a08	0.09004599
124	0x3d9b4b5d	0.07582734
125	0xbc2a29cf	-0.0103859445
126	0xbde1e139	-0.11029286
127	0x3cb55f96	0.022140305
128	0xbd644acf	-0.055735406
129	0xbe266590	-0.1624968
130	0xbc956767	-0.018237783
131	0xbd518c04	-0.05115892
132	0xbe05de8e	-0.13073179
133	0xbe1704bc	-0.147479
134	0xbdd5f1bc	-0.10446498
135	0xbd5f6b39	-0.054545615
136	0xbdd1e92d	-0.10249553
137	0xbde25209	-0.11050803
138	0xbe27a70b	-0.16372316
139	0xbded08e0	-0.115739584
140	0x3d200673	0.03906865
141	0xbd89fa51	-0.06737197
142	0xbdeed9f6	-0.116626665
143	0xbd849c42	-0.06475116
144	0x3e042910	0.12906289
145	0xbb11e6fd	-0.0022262924
146	0x3aa0821b	0.0012245806
147	0xbe313a06	-0.1730729
148	0xbde6a56a	-0.11262019
149	0xbbb9fb72	-0.0056757266
150	0xbe0fa02d	-0.14025946
151	0xbda7e0cb	-0.08197173
152	0xbd882829	-0.06648285
153	0xbd5b0897	-0.05347499
154	0xbcbc7ab5	-0.02300773
155	0xbdfd87a5	-0.12379388
156	0xbdbc2c00	-0.0918808
157	0x3cd25fc0	0.025680423
158	0x3d6b6d1c	0.0574771
159	0xbd1b1d03	-0.037869465
160	0x3da27a6a	0.07933505
161	0x3db263a5	0.08710412
162	0xbd32a4c8	-0.04361418
163	0xbd68ef79	-0.056869004
164	0x3cdf6572	0.027270053
165	0xbc704723	-0.014665398
166	0x3d05a939	0.032632086
167	0xbb238fb2	-0.0024957475
168	0xbe047831	-0.12936474
169	0x3c238ee5	0.009982799
170	0xbde5eefc	-0.11227223
171	0xbe4b076f	-0.19827054
172	0xbcbe1bc9	-0.023206608
173	0xbd67daa8	-0.05660501
174	0xbd7ff611	-0.062490527
175	0xbdeeb8e2	-0.11656357
176	0xbcb24510	-0.021761447
177	0xbd378df0	-0.044813097
178	0xbe7864a5	-0.24257143
179	0xbd02b55e	-0.031911246
180	0xbe240dd2	-0.16020897
181	0x3d3b5f83	0.045745384
182	0xbd5790b7	-0.052628245
183	0xbe285cf7	-0.16441713
184	0xbdb27d36	-0.08715288
185	0xbdeeebbe	-0.11666058
186	0x3d0543bc	0.0325353
187	0x3d3dde9e	0.046354882
188	0x3c82be06	0.01595975
189	0xbe1d26d6	-0.15346846
190	0xbe2a833f	-0.16651629
191	0x3da923c1	0.08258773
192	0xbda28498	-0.079354465
193	0xbc4b8879	-0.012422674
194	0x3cd711e9	0.026253657
195	0xbe337142	-0.17523673
196	0x3c1a7a1c	0.009428527
197	0x3de5050c	0.11182603
198	0xbd8abaf6	-0.06773941
199	0xbce09160	-0.02741307
200	0x3d355715	0.0442725
201	0xbda9bc3a	-0.082878545
202	0x3d6fb51b	0.058522325
203	0x3da03e5b	0.07824393
204	0x3dd2000c	0.10253915
205	0xbdd5dce1	-0.1044252
206	0xbd078fb5	-0.033096034
207	0xbc5373fd	-0.012906072
208	0xbdc453f3	-0.095863245
209	0x3e257008	0.16156018
210	0xbe135fff	-0.14392088
211	0xbc54a67f	-0.012979149
212	0xbccb900b	-0.024848958
213	0xbd66d6a0	-0.056357026
214	0xbda7bebd	-0.08190677
215	0xbd73eb5d	-0.05955063
216	0xbd6739db	-0.05645166
217	0xbe1ee4b8	-0.15516937
218	0x3d6d57e6	0.057945155
219	0xbc75e23c	-0.015007552
220	0xbe4750af	-0.19464372
221	0x3ce014bd	0.027353639
222	0xbd66721e	-0.056261174
223	0xbd7c680d	-0.061622668
224	0xbaaea75b	-0.0013325022
225	0xbe1a94ba	-0.15095797
226	0x39a093e0	0.00030627754
227	0xbe4716a3	-0.19442229
228	0x3dbd106c	0.09231648
229	0x3d281dae	0.04104393
230	0x3debe028	0.11517364
231	0x3b6b228d	0.0035878748
232	0xbdb79adf	-0.08965086
233	0xbbf5d883	-0.007502617
234	0xbd4eb5e3	-0.05046643
235	0xbe099784	-0.13436705
236	0xbd700326	-0.058596753
237	0xbd238f02	-0.039931305
238	0xbe535982	-0.20639613
239	0xbd6aa841	-0.057289366
240	0xbe6d4a12	-0.23172787
241	0xbd939fcf	-0.072082154
242	0xbe1a5ca1	-0.15074398
243	0xbda49b4c	-0.08037433
244	0xbe50748a	-0.20356956
245	0xb8a0de93	-7.670852e-05
246	0xbe6a8114	-0.22900802
247	0xbdfa132f	-0.1221069
248	0xbe54754a	-0.20747867
249	0x3e029493	0.12751989
250	0xbe2e9a19	-0.17050971
251	0xbc9f77ff	-0.019466398
252	0x3d06cade	0.032908313
253	0xbd541518	-0.05177793
254	0xbe1f2b7f	-0.15543936
255	0xbe141820	-0.14462328

lstm_5/lstm_cell_11/bias1 f4 [256]
0	0xbc628236	-0.01382499
1	0x3c2109f5	0.009829034
2	0xbc7e86ca	-0.015535066
3	0x3c35a602	0.011086943
4	0x3c0dd1b5	0.008655955
5	0xbc20c6e2	-0.009813042
6	0xbabaac2c	-0.0014241985
7	0x3cbe002d	0.023193443
8	0x3b99c267	0.004692364
9	0x3b484b40	0.003056243
10	0x3ccea248	0.025223866
11	0xbc81565b	-0.015788248
12	0x3a566962	0.00081791554
13	0xbb280f18	-0.0025643762
14	0x3d104503	0.035222065
15	0xbb6ef80b	-0.0036463763
16	0xb9fc0b67	-0.0004807368
17	0xbbe139be	-0.0068733385
18	0x39780db2	0.00023656225
19	0x3c3c93f6	0.011509886
20	0x3cc7714c	0.024346016
21	0x3c073de2	0.0082545
22	0xbc3714ef	-0.011174425
23	0xbb86ba39	-0.004111555
24	0x3ccb72c0	0.02483499
25	0x3ca9967f	0.020701645
26	0x3bbc29cd	0.0057422877
27	0xbc06b995	-0.008222957
28	0x3a3680ba	0.0006961931
29	0xbb23ccff	-0.0024994013
30	0x3c8df931	0.017330738
31	0xbadc4542	-0.0016805308
32	0x3c312b33	0.010813522
33	0x3bca4d2c	0.0061737504
34	0x3b9094ce	0.00441227
35	0x3c5293e0	0.012852639
36	0xbadb0c1c	-0.0016711983
37	0x3bc54e77	0.0060213166
38	0x3c659f07	0.014014966
39	0xbc156e9e	-0.0091206115
40	0x3c93b580	0.018030882
41	0x3c90559a	0.017618943
42	0x38a61ff6	7.92145e-05
43	0xbbc7d070	-0.0060978457
44	0x3c9ba9ae	0.019001808
45	0x3ccaa531	0.024736973
46	0x3c6b27b0	0.014352724
47	0xbbbcaeec	-0.005758157
48	0x3b8b59f8	0.0042526685
49	0x3b752c9a	0.0037410618
50	0xbc392d73	-0.01130234
51	0x3bcea78c	0.0063065942
52	0xbc1958e9	-0.009359577
53	0xbaa79d57	-0.001278798
54	0x3a33edd3	0.00068637467
55	0x3d2302c2	0.039797552
56	0x3c13742f	0.008999868
57	0x3d17d69a	0.037069894
58	0x3c6e87be	0.014558731
59	0xbb92cdf4	-0.004480118
60	0x3b9c9433	0.004778409
61	0xbbd9e308	-0.0066493787
62	0x3c2340be	0.009964166
63	0xbc0420b3	-0.008064437
64	0x3f800000	1.0
65	0x3f800000	1.0
66	0x3f800000	1.0
67	0x3f800000	1.0
68	0x3f800000	1.0
69	0x3f800000	1.0
70	0x3f800000	1.0
71	0x3f800000	1.0
72	0x3f800000	1.0
73	0x3f800000	1.0
74	0x3f800000	1.0
75	0x3f800000	1.0
76	0x3f800000	1.0
77	0x3f800000	1.0
78	0x3f800000	1.0
79	0x3f800000	1.0
80	0x3f800000	1.0
81	0x3f800000	1.0
82	0x3f800000	1.0
83	0x3f800000	1.0
84	0x3f800000	1.0
85	0x3f800000	1.0
86	0x3f800000	1.0
87	0x3f800000	1.0
88	0x3f800000	1.0
89	0x3f800000	1.0
90	0x3f800000	1.0
91	0x3f800000	1.0
92	0x3f800000	1.0
93	0x3f800000	1.0
94	0x3f800000	1.0
95	0x3f800000	1.0
96	0x3f800000	1.0
97	0x3f800000	1.0
98	0x3f800000	1.0
99	0x3f800000	1.0
100	0x3f800000	1.0
101	0x3f800000	1.0
102	0x3f800000	1.0
103	0x3f800000	1.0
104	0x3f800000	1.0
105	0x3f800000	1.0
106	0x3f800000	1.0
107	0x3f800000	1.0
108	0x3f800000	1.0
109	0x3f800000	1.0
110	0x3f800000	1.0
111	0x3f800000	1.0
112	0x3f800000	1.0
113	0x3f800000	1.0
114	0x3f800000	1.0
115	0x3f800000	1.0
116	0x3f800000	1.0
117	0x3f800000	1.0
118	0x3f800000	1.0
119	0x3f800000	1.0
120	0x3f800000	1.0
121	0x3f800000	1.0
122	0x3f800000	1.0
123	0x3f800000	1.0
124	0x3f800000	1.0
125	0x3f800000	1.0
126	0x3f800000	1.0
127	0x3f800000	1.0
128	0x3db62a09	0.08894736
129	0xbdadb3aa	-0.08481534
130	0x3d5023dd	0.050815452
131	0x3ccaab97	0.024740024
132	0x3d09578e	0.033530764
133	0x3c78070c	0.015138399
134	0xbbce5e96	-0.0062978966
135	0x3db77420	0.08957696
136	0x3d15d3a4	0.03657879
137	0xbdad1d3b	-0.08452841
138	0xbceda24c	-0.029008053
139	0xbd04f9d7	-0.03246483
140	0x3d4a6fd1	0.049423043
141	0x3ddc3810	0.107528806
142	0xbdf15332	-0.11783446
143	0xbcceae45	-0.025229583
144	0x3d5383d2	0.051639386
145	0xbda0f6c1	-0.078595646
146	0xbd0f2684	-0.03494884
147	0xbd17505a	-0.036941864
148	0x3d83d9f3	0.06438055
149	0xbd589119	-0.05287275
150	0xbd1643c0	-0.036685705
151	0x3db3c3d2	0.08777584
152	0xbdb6e962	-0.08931233
153	0xbd836bad	-0.06417022
154	0xbd6f2714	-0.058386877
155	0xbd68f95e	-0.05687844
156	0xbd0ebd94	-0.034848765
157	0xbd66fff6	-0.056396447
158	0x3da3ad2b	0.079920135
159	0x3d444192	0.047914095
160	0x3dafb550	0.085795045
161	0x3d857380	0.065161705
162	0x3c9a6101	0.018845083
163	0xbdb05577	-0.08610051
164	0xbd147a82	-0.036249645
165	0xbcc472a5	-0.023980448
166	0x3c2eed00	0.010676622
167	0x3d77937a	0.06044338
168	0x3c947ad9	0.018124985
169	0xbcd46c92	-0.025930677
170	0x3d9a8b14	0.07546058
171	0x3db9d30c	0.09073457
172	0xbd883248	-0.066502154
173	0x3ab0c4e4	0.0013486412
174	0x3da2766e	0.07932745
175	0x3d95407d	0.07287691
176	0xbd0e07bb	-0.03467534
177	0x3da7d1d4	0.081943184
178	0xbd9e96b9	-0.07743592
179	0xbd8e9ace	-0.069631204
180	0xbd99962e	-0.074993476
181	0x3da07d3e	0.07836388
182	0xbda01c75	-0.07817928
183	0xbda2fd56	-0.07958476
184	0xbd9748b4	-0.07386914
185	0xbe0d45f0	-0.1379621
186	0x3c0a3927	0.008436478
187	0x3d857c37	0.06517833
188	0x3d617048	0.05503872
189	0xbc788954	-0.01516946
190	0x3ddbf867	0.10740738
191	0x3d59f9ad	0.053216625
192	0xbc4259f5	-0.011862268
193	0xbb80a667	-0.0039260867
194	0xbc506236	-0.012718728
195	0x3be94e61	0.007119939
196	0xb69a41f8	-4.5972374e-06
197	0xbc1ef3e2	-0.009701701
198	0xbbd4044a	-0.006470238
199	0xbbcf34d0	-0.0063234344
200	0xbb60f638	-0.0034326445
201	0x3b0db96e	0.0021625417
202	0x3c84aff0	0.016197175
203	0xbbb0908f	-0.0053883265
204	0xbbbd4f9f	-0.005777314
205	0x3c27c150	0.01023896
206	0x3c92b6c6	0.017909419
207	0xbbd1704d	-0.006391561
208	0xbb115d17	-0.002218073
209	0xbad0c4ba	-0.001592777
210	0x394d2226	0.00019563045
211	0x3b564145	0.0032692712
212	0x3c24773f	0.010038196
213	0x3c260487	0.010132915
214	0xbc8f8223	-0.017518109
215	0xbbf07e4e	-0.0073392754
216	0x3c065a74	0.008200277
217	0x3c955bae	0.018232193
218	0xbc268c1c	-0.010165241
219	0xbc9f40c7	-0.019440068
220	0xbc3ad938	-0.011404328
221	0xbc27c6a5	-0.010240232
222	0x3c9f61fc	0.019455902
223	0x393cee42	0.00018017835
224	0xbbae9a92	-0.005328485
225	0xbc04a41d	-0.008095768
226	0x3afbf7f8	0.0019223681
227	0x3c59271f	0.013253956
228	0xbc0e67a0	-0.008691698
229	0x3a772d57	0.00094290584
230	0x3c2c321f	0.010509997
231	0xbc1d9d7e	-0.009620069
232	0x3bf5091e	0.0074778935
233	0x3c6fe9c2	0.014643135
234	0xbba8f7b0	-0.00515648
235	0xbc3ed56e	-0.011647565
236	0x3be17a7a	0.0068810554
237	0x3d11dc29	0.03561035
238	0x3b1ffbaf	0.002441149
239	0xbc79740c	-0.015225422
240	0xbba716d8	-0.0050991587
241	0xba07a16d	-0.00051738956
242	0xbbec0a56	-0.0072033806
243	0xbbda2737	-0.006657507
244	0xbbc342ef	-0.005958907
245	0xbc532960	-0.012888283
246	0xbaf66828	-0.0018799352
247	0x3bfcba81	0.0077126627
248	0xbc8ec3fc	-0.017427437
249	0x3cc4c16c	0.024018012
250	0x3be2789c	0.0069113504
251	0xbc83e13d	-0.016098613
252	0x3b922502	0.004459978
253	0xbc1059a9	-0.008810439
254	0x3c8b8098	0.017029092
255	0xbc47a1a2	-0.012184532
