lstm999_0801_tfl.tflite (tflite, 325756 bytes, 18 tensors)

time_distributed_3/bias f4 [21]
00000000: 91d7 7dbf c04d 7ebf e559 7dbf 1cc0 7ebf
00000010: a9ed c1be fd80 45bf 9eb4 edbe 9918 04bf
00000020: 0471 17bf 5520 6dbf 5ee9 7bbf 1dc8 7abf
00000030: e03a 7dbf c50b 6dbf 2b8a 7bbf 893c 7abf
00000040: ab54 7cbf a0e6 7ebf 6d6e 7c3f 9a48 7fbf
00000050: c75b 7d3f
-0.99157053 -0.9933739 -0.98965293 -0.99511886 -0.37876633 -0.77149945 -0.46426862 -0.51600033
-0.59156823 -0.9262746 -0.98402965 -0.979616 -0.9891796 -0.92596084 -0.982577 -0.9774862
-0.98566693 -0.99570656 0.98605996 -0.99720156 0.98968166

lstm_21/lstm_cell_25/bias f4 [128]
00000000: d00a d93c cef1 483f 3bea c43c b235 07bd
00000010: a18b 22bd 3fc4 553e c1cf 2c3e a0d4 373b
00000020: 34d1 423c f8cd b8bd 603a 4b3f 7171 10bb
00000030: ba0b f83e 7f8c 0e3d 0e8f b23c fe37 2abb
00000040: ffd2 a8bd c829 923f 9775 e3bb 484f bb3e
00000050: 48e9 d0bc cb3c c9bd 7ddb 183e 9712 18bd
00000060: 5ccb 76bd cac1 90bc 274c 8a3e 0457 cb3d
00000070: 0f31 bf3b 9843 dd3c 2eb0 b43c 7864 6a3c
00000080: 0000 803f 0000 803f 0000 803f 0000 803f
00000090: 0000 803f 0000 803f 0000 803f 0000 803f
000000a0: 0000 803f 0000 803f 0000 803f 0000 803f
000000b0: 0000 803f 0000 803f 0000 803f 0000 803f
000000c0: 0000 803f 0000 803f 0000 803f 0000 803f
000000d0: 0000 803f 0000 803f 0000 803f 0000 803f
000000e0: 0000 803f 0000 803f 0000 803f 0000 803f
000000f0: 0000 803f 0000 803f 0000 803f 0000 803f
00000100: c6f2 06bd cdc0 ad3e eec8 edbc 2c40 96bd
00000110: 09dd 08bd e7ee aa3e fb29 863e b2a7 343b
00000120: 1356 0cbd 313a 8fbd 86b1 f63e 7935 60bd
00000130: 9297 f33e 2f80 973c 0da7 143d b0ee 90bd
00000140: bfb4 3bbd 5776 163f 2d23 a6bc fd3d cb3e
00000150: 759a eebc 0f5e fcbd 113a ef3d b6be 84bd
00000160: 92a5 93bd dcb4 47bd 8e04 c83e 44ea a83d
00000170: a5b9 b5bc 8d71 40bc e1cd 22bd 7b9d 083d
00000180: 5f8b f73b 01c4 053f b231 8abc 4d2c b5bb
00000190: 976a 27bd b3ef 553e 4738 4a3e 2b28 f33c
000001a0: 9241 e53b 079b 8dbd 5357 343f 1657 bc3c
000001b0: 7579 f03e 7538 503d a3c2 b13c 967b abbc
000001c0: 62e3 98bd 8975 803f 5107 eb3b 6c57 b93e
000001d0: c7ee 25bd b1be c7bd 2174 3e3e cebe 46bc
000001e0: df59 7dbd 55fe aebc 38f3 863e 1040 ec3d
000001f0: 40f1 adbc 6614 3c3b a7a5 503c 2fac a73c
0.026494414 0.78493965 0.024037471 -0.033010192 -0.03968394 0.20875643 0.16876127 0.0028050318
0.011890698 -0.090236604 0.7938595 -0.0022040273 0.48446447 0.034801956 0.02179673 -0.0025973315
-0.08243369 1.1419001 -0.006941508 0.36583924 -0.025501862 -0.098260485 0.14927478 -0.037127104
-0.060252532 -0.01767053 0.27011225 0.09928706 0.0058347057 0.02700977 0.022056665 0.01430618
1.0 1.0 1.0 1.0 1.0 1.0 1.0 1.0
1.0 1.0 1.0 1.0 1.0 1.0 1.0 1.0
1.0 1.0 1.0 1.0 1.0 1.0 1.0 1.0
1.0 1.0 1.0 1.0 1.0 1.0 1.0 1.0
-0.03294637 0.33936158 -0.029026475 -0.073364586 -0.03341392 0.33385393 0.26203904 0.0027565775
-0.034261774 -0.06993521 0.48182315 -0.054738495 0.47576576 0.01849374 0.036292125 -0.07076776
-0.04582667 0.5877432 -0.020280445 0.3969573 -0.029126385 -0.12322628 0.11680997 -0.06481688
-0.072093144 -0.048756465 0.39065975 0.082478076 -0.022183249 -0.011745823 -0.039747123 0.03335331
0.007554456 0.52252203 -0.0168694 -0.0055289627 -0.040873136 0.20892219 0.1974803 0.02968224
0.006996342 -0.06914335 0.70445746 0.022990745 0.46967664 0.05083509 0.021699255 -0.020932954
-0.07465245 1.0035869 0.007172503 0.3619951 -0.04051092 -0.097531684 0.18598987 -0.012130452
-0.061853286 -0.02136151 0.26357436 0.115356565 -0.021233201 0.0028698682 0.012734807 0.020467846

lstm_20/lstm_cell_24/bias f4 [256]
00000000: 0312 a2bc 3c69 6e3d e9be 6c3d 541b b53e
00000010: d3f1 823e 3926 8e3d 0db5 7b3e 6071 943e
00000020: 9520 a93d 0db3 003e 6633 843d f122 233e
00000030: 5f99 213d 7940 603e e3d9 bb3d d1b0 613e
00000040: 6efa 42bc 08b5 8f3d f736 243d 2ec8 e43d
00000050: c4a2 873d c2d8 343e 9a41 3f3d d46c 8c3d
00000060: 0baa a43d bfcf c63d d05d cabc 0163 173d
00000070: d58d 353e 962d b03d 8333 8f3e 5e7d 103e
00000080: da3d 783d 8c26 d43d d6ae 1c3e 633f 133e
00000090: 1000 f33c 67d4 9abc 9a09 893e c3ee a93d
000000a0: a00c 983d 0a3d c73d 3fc1 fe3d ab40 383e
000000b0: 989f aa3d 5c4f 413e 381f 1c3e e615 873d
000000c0: 61d4 003e 75e3 4d3b 0e35 cd3d 67e8 123e
000000d0: 563e 6e3e aaed 703d ee3c 783c 1bd7 753e
000000e0: 981f a43d 61a8 7d3e ce58 c83d 211f 9e3d
000000f0: 81f5 243e 6936 acbd c085 3b3e 9e84 39bd
00000100: 0000 803f 0000 803f 0000 803f 0000 803f
00000110: 0000 803f 0000 803f 0000 803f 0000 803f
00000120: 0000 803f 0000 803f 0000 803f 0000 803f
00000130: 0000 803f 0000 803f 0000 803f 0000 803f
00000140: 0000 803f 0000 803f 0000 803f 0000 803f
00000150: 0000 803f 0000 803f 0000 803f 0000 803f
00000160: 0000 803f 0000 803f 0000 803f 0000 803f
00000170: 0000 803f 0000 803f 0000 803f 0000 803f
00000180: 0000 803f 0000 803f 0000 803f 0000 803f
00000190: 0000 803f 0000 803f 0000 803f 0000 803f
000001a0: 0000 803f 0000 803f 0000 803f 0000 803f
000001b0: 0000 803f 0000 803f 0000 803f 0000 803f
000001c0: 0000 803f 0000 803f 0000 803f 0000 803f
000001d0: 0000 803f 0000 803f 0000 803f 0000 803f
000001e0: 0000 803f 0000 803f 0000 803f 0000 803f
000001f0: 0000 803f 0000 803f 0000 803f 0000 803f
00000200: 2071 e3bc 8cb9 433d 7255 c43c 88ac 463e
00000210: 3308 0f3e 8839 fa3c 4249 f9bb e51e 7dbd
00000220: d834 823c ed21 843c 6619 2ebc e2d9 0f3b
00000230: d569 103d d23b f93d fa0b 043c e49f 273e
00000240: c43a 1d39 c884 593c 76c7 813d f29f f7bc
00000250: 0d73 f83c d691 7cbe 74e9 093d 0771 8c3c
00000260: 0d36 3f3d 1bd2 42bd 4ad1 fdbc dcc0 f73b
00000270: 59f0 623d 02f2 38bc 5a04 313e fdb2 09be
00000280: 62a1 08bb a377 5a3d d089 1c3b ede7 cc3d
00000290: c487 e13c beb7 e3bd f542 303e 2bad 243c
000002a0: 8072 043d 0704 8f3c a313 9e3d e3ca 463e
000002b0: 1c19 7c3c ed7f f63d 8d69 5a3e e160 c33b
000002c0: 04e8 afbd 1089 a73d 8084 c73b f70c 893d
000002d0: 27e9 2c3e 0a19 1b3d cb41 a6bc c034 4e3b
000002e0: b5f6 a3bb a0da 2f3e 1037 b4bc 2a57 8bbd
000002f0: 8543 66bd f1af 693d 6a01 c63d 1cf7 a1bd
00000300: e0ae a4bc 4e94 473d 0b13 2b3d 820c a23e
00000310: 4ffd 8d3e 70a7 6e3d b90d 4e3e 1053 9b3e
00000320: 8e00 413d c997 d73d 34cc 5b3d e8e9 063e
00000330: 659c 3e3d 0431 2c3e d4d5 b03d 2102 863e
00000340: ac44 9aba c513 b73d a678 ac3c 8303 103e
00000350: 1c31 383d 4e9c 3d3e c5a3 213d d1e2 313d
00000360: 73e8 163d 7578 a53d 8d66 d1bc 8654 643c
00000370: cf3c 0b3e b465 d83d e295 8e3e 48b2 0a3e
00000380: f89b a03d 5702 083e 8fb1 0d3e be22 263e
00000390: fc89 cd3c 84d8 afbc bdcc 773e 623d c53d
000003a0: 2f57 ca3d 6f42 2e3e 2cc7 153e a4df 383e
000003b0: 3e4b 853d 0ce7 3f3e 130f 103e 7de4 893d
000003c0: c8a5 173e 81eb ebbc a6e5 e33d ef19 033e
000003d0: c77a 603e 9078 373d c0b5 5f3c 5fbf 673e
000003e0: 4336 b93d df24 4f3e d89f 073e c210 0e3e
000003f0: fe73 073e c0b7 9bbd ee55 473e f1fa 33bd
-0.01978398 0.058205828 0.057799254 0.35372412 0.25575122 0.06940884 0.24580784 0.28992748
0.08258168 0.12568302 0.06455116 0.15931298 0.039452907 0.21899594 0.09172418 0.22040106
-0.011900527 0.07016951 0.04009148 0.11170994 0.06622842 0.17660812 0.046693422 0.06856695
0.080402456 0.09707593 -0.024702936 0.03695965 0.17729886 0.08602445 0.27968988 0.14110324
0.06060586 0.10358915 0.1530107 0.14379649 0.029663116 -0.01890011 0.26765138 0.08297493
0.07424283 0.09728439 0.124392025 0.17993419 0.08331221 0.1887793 0.15246284 0.06595974
0.12581016 0.0031416093 0.10019885 0.14346467 0.23265967 0.058820404 0.0151512455 0.24007837
0.080138385 0.24771263 0.09782563 0.07720781 0.16109277 -0.084088154 0.1831274 -0.04529249
1.0 1.0 1.0 1.0 1.0 1.0 1.0 1.0
1.0 1.0 1.0 1.0 1.0 1.0 1.0 1.0
1.0 1.0 1.0 1.0 1.0 1.0 1.0 1.0
1.0 1.0 1.0 1.0 1.0 1.0 1.0 1.0
1.0 1.0 1.0 1.0 1.0 1.0 1.0 1.0
1.0 1.0 1.0 1.0 1.0 1.0 1.0 1.0
1.0 1.0 1.0 1.0 1.0 1.0 1.0 1.0
1.0 1.0 1.0 1.0 1.0 1.0 1.0 1.0
-0.027763903 0.047784373 0.023966525 0.19401753 0.13967972 0.030545011 -0.00760761 -0.06179704
0.015894338 0.016129458 -0.010626173 0.0021949937 0.03525718 0.12169613 0.008059496 0.16369587
0.00014994579 0.013276286 0.06336872 -0.030227635 0.030328298 -0.24665007 0.033669904 0.01714374
0.046682406 -0.047563653 -0.030983586 0.0075608324 0.055404995 -0.011288168 0.17286816 -0.13447185
-0.0020848145 0.05333675 0.0023885854 0.10005174 0.027530558 -0.111190304 0.17213042 0.010051052
0.03233576 0.017457975 0.07718589 0.19413333 0.015386846 0.12036119 0.21329327 0.0059624766
-0.08589175 0.081804395 0.0060887933 0.06691926 0.16885816 0.037865676 -0.020295044 0.0031464547
-0.005003775 0.17173243 -0.021998912 -0.068037346 -0.056216735 0.057052556 0.096682385 -0.079084605
-0.020102918 0.04872542 0.041766208 0.31650168 0.27732322 0.05826515 0.20122422 0.3033681
0.04711967 0.105269976 0.05366154 0.13175166 0.04653587 0.16815573 0.086345345 0.261735
-0.0011769733 0.089393176 0.021053623 0.1406384 0.04496871 0.18516657 0.039462823 0.0434292
0.036842775 0.08079616 -0.025561595 0.013936168 0.13597415 0.10566273 0.27848727 0.13544571
0.07842249 0.13282143 0.13837264 0.1622419 0.02509021 -0.021465547 0.24199195 0.096308485
0.0987991 0.1701753 0.1462676 0.18054062 0.06508492 0.18740481 0.1406825 0.06733034
0.14809334 -0.02879882 0.11127786 0.12802862 0.21921836 0.04479271 0.013654172 0.22631596
0.09043553 0.20228909 0.1324457 0.1387358 0.13227841 -0.07603407 0.19466373 -0.04394049

lstm_19/lstm_cell_23/bias f4 [128]
00000000: 7946 6a3e c04b 303e 22e4 4b3e 89d7 6c3e
00000010: 94d9 693e 28a9 3a3d 9170 653e 57c7 213e
00000020: 00ee 883e df22 403e a4db 103e 6387 753e
00000030: 7156 273e 5bd3 253e 13fe 173e 3d1c 553e
00000040: a0a3 883e c33c 943d 9252 433e 9a28 773e
00000050: df5f a53d cbf1 7e3d 8391 dd3d b1ef 4e3e
00000060: 2de2 a83d f5fc 253e 61d3 833e 42f8 693e
00000070: abe9 9b3e 36b0 6a3e 5b3f 263e e891 9c3d
00000080: 0000 803f 0000 803f 0000 803f 0000 803f
00000090: 0000 803f 0000 803f 0000 803f 0000 803f
000000a0: 0000 803f 0000 803f 0000 803f 0000 803f
000000b0: 0000 803f 0000 803f 0000 803f 0000 803f
000000c0: 0000 803f 0000 803f 0000 803f 0000 803f
000000d0: 0000 803f 0000 803f 0000 803f 0000 803f
000000e0: 0000 803f 0000 803f 0000 803f 0000 803f
000000f0: 0000 803f 0000 803f 0000 803f 0000 803f
00000100: 09a1 3e3d 3db9 d33c 5f24 043d daa3 1d3d
00000110: 0070 6e3d d8a9 6a3c 544c b43d e066 b63d
00000120: 4f6e ec3c 994b 893d d6dd df3d e850 ab3d
00000130: b1d5 b7bb 96c6 573e 1679 e73d fb6f d03d
00000140: 67e9 813a 2a1f 083c c8c6 d23d 5526 043c
00000150: 9042 123c 8515 113d 87bd 673d cb96 173c
00000160: 3fa1 d23d 52fb 1c3d 1964 a23e 1e63 1f3d
00000170: 20f6 723d d805 513e 2db7 f53d 9a9c c63c
00000180: b413 7f3e db6c fa3d edab 043e fe95 743e
00000190: 196c 4d3e 2ec8 c13d aa54 2a3e c598 533e
000001a0: 8cce 863e 22ea 3d3e 1203 063e 1b52 823e
000001b0: 0159 6a3e af03 813e 582b 4a3e 301d 2c3e
000001c0: b50a 8e3e c285 973d d04a a53d bfe1 663e
000001d0: 05e1 b43d 301f 6f3d 6c6f dc3d e2a8 5e3e
000001e0: 99f1 9e3d 76c9 233e 50c4 333e c0b4 4b3e
000001f0: a451 9f3e c87a af3e 2d37 5c3e 9d6c d23d
0.22878446 0.17216396 0.19911245 0.23129095 0.22836906 0.045571476 0.22406222 0.15798698
0.2674408 0.18763302 0.14146286 0.23977427 0.16341569 0.16193907 0.14843015 0.20811553
0.26687336 0.07238152 0.19074467 0.24136582 0.080749266 0.06224231 0.1081877 0.20208623
0.082462646 0.16209777 0.25747207 0.22848609 0.30451712 0.22918782 0.16235106 0.07645017
1.0 1.0 1.0 1.0 1.0 1.0 1.0 1.0
1.0 1.0 1.0 1.0 1.0 1.0 1.0 1.0
1.0 1.0 1.0 1.0 1.0 1.0 1.0 1.0
1.0 1.0 1.0 1.0 1.0 1.0 1.0 1.0
0.046540294 0.025845164 0.03226125 0.03848634 0.05821228 0.0143227205 0.08803621 0.089063406
0.028861193 0.06703872 0.10930984 0.08365041 -0.005610191 0.21071848 0.11302392 0.101776086
0.0009911478 0.008308211 0.10291821 0.00806578 0.008927003 0.035420913 0.05657723 0.00925226
0.102846615 0.038325615 0.31716993 0.038912885 0.059316754 0.20412385 0.11997829 0.024244595
0.2490986 0.12227794 0.1295621 0.23885342 0.20060767 0.09462009 0.1663386 0.20663746
0.26329458 0.18546346 0.13087109 0.25453267 0.22885515 0.25198123 0.19743097 0.16808009
0.27742544 0.07398559 0.0807091 0.22547053 0.088319816 0.058379352 0.107634395 0.21744111
0.07760925 0.1599482 0.17555356 0.1989317 0.31116974 0.34273362 0.21505423 0.102746226

lstm_18/lstm_cell_22/bias f4 [256]
00000000: 011e 343f 9bad dc3d 1a69 b3bc 5548 343f
00000010: ec5c d83c 6455 0d3e 7e10 8dbd 73ad 14bd
00000020: 3b6d 98bc bad6 ffbd 7c02 5e3e 784f bbbd
00000030: 38ca 73bd 2bdb 1b3e ff58 9c3d 481c d63b
00000040: 6be2 c7bd 7251 4cbd 612e 16bd 9b70 c73d
00000050: e042 e93e ef62 973e 9689 463d cba1 2b3f
00000060: 2c83 6fbc a527 3f3e 1ff4 2f3f 3b6e 5b3f
00000070: 36c6 d4bd 590a d53e 9625 173b d1b4 c33e
00000080: 548c 41bd fccc 173e ccf9 883c 50db 0b3f
00000090: cd59 103e 317c c8bc 38dd e33d 3333 14bd
000000a0: a64e d73d af19 26bd d5f6 973c d553 3f3d
000000b0: 53ff ba3d bb29 173f 4a0a 96bb bbec 6a3d
000000c0: e6dc efbc c989 f63d 515a 9fbd 1dd4 8bba
000000d0: ab64 a1bd 612b 2dbb dae4 f73e 6f72 803e
000000e0: 4613 673d 3d1a b33e 0b26 67bd f4d6 0c3e
000000f0: 66ea 9a3e 4da1 a9bd c7ef 66bd b39b 94bd
00000100: 0000 803f 0000 803f 0000 803f 0000 803f
00000110: 0000 803f 0000 803f 0000 803f 0000 803f
00000120: 0000 803f 0000 803f 0000 803f 0000 803f
00000130: 0000 803f 0000 803f 0000 803f 0000 803f
00000140: 0000 803f 0000 803f 0000 803f 0000 803f
00000150: 0000 803f 0000 803f 0000 803f 0000 803f
00000160: 0000 803f 0000 803f 0000 803f 0000 803f
00000170: 0000 803f 0000 803f 0000 803f 0000 803f
00000180: 0000 803f 0000 803f 0000 803f 0000 803f
00000190: 0000 803f 0000 803f 0000 803f 0000 803f
000001a0: 0000 803f 0000 803f 0000 803f 0000 803f
000001b0: 0000 803f 0000 803f 0000 803f 0000 803f
000001c0: 0000 803f 0000 803f 0000 803f 0000 803f
000001d0: 0000 803f 0000 803f 0000 803f 0000 803f
000001e0: 0000 803f 0000 803f 0000 803f 0000 803f
000001f0: 0000 803f 0000 803f 0000 803f 0000 803f
00000200: e5a5 823e fc31 ef3d ec40 18be 99aa 803e
00000210: 525b d6bd e043 fb3d 8cbd 2abe a996 29be
00000220: 381a 9fbd a51c 4ebe d318 743e 3bca 10be
00000230: d651 d5bd 48ae 3d3e 32d8 38be 1632 ffbd
00000240: 1b75 15be 68f9 0bbe c78b fabd 53fa f23d
00000250: 60a6 a73e 59bf 573e 28d5 03be d64a 6f3e
00000260: 41c7 f6bd 5f0c 443e fddc 8f3e 099a 8d3e
00000270: 6926 3cbe 02a9 853e de12 14bd 1491 8b3e
00000280: a635 1bbe b092 093e b378 04be 490d 8c3e
00000290: c709 abbd ad68 13be 48f6 1bbe 0fa4 c5bd
000002a0: 38e7 02be 5aa9 05be 5f3c 27be 3381 14be
000002b0: 7a7a 153d 2763 9b3e 6e38 1eba 28a6 c5bd
000002c0: bb70 b7bd 14e8 ffbd abad fcbd 5fc9 9dbb
000002d0: 2c1b 1fbe e4a2 75bc f07a 863e 7f30 973e
000002e0: df09 d8bd c86f b63e 4f2b d1bd b806 f9bd
000002f0: 1671 3c3e 0bb0 06be 407a 21be 8c75 1bbe
00000300: 9ed6 213f cc44 fd3d bb50 cbbd a1d0 333f
00000310: 74f8 943d bf41 103e c07f 3abd e447 adbd
00000320: 4e0f 9bbc 2d65 66bd 00af 5f3e e8de 8dbd
00000330: 5095 adbd 3d18 1b3e b456 083e c9e6 e43c
00000340: 46c6 04be be5b 09bd bc5c eebb eb27 a03d
00000350: c85a e43e e6a6 9b3e 62d7 e0bc 3b99 2f3f
00000360: 98f2 a4bd ce9c 563e b908 313f d84c 593f
00000370: 3eea 67bd 2bd6 a23e 3266 05bb 5729 5f3e
00000380: 5c86 11bd 05be 2b3e b4dd ba3b 56c5 0d3f
00000390: a1f5 473e fd25 02bc 0638 133e 7c56 58bc
000003a0: 7fb9 853d 6e34 2bbd 54f5 71bc 9f0e 293d
000003b0: 7b0e c33d 2f15 213f a833 99bb e6cc df3d
000003c0: 45a5 efbc ce63 0a3e 1f89 9dbc bf49 a6ba
000003d0: 83d6 a0bd b5b5 14bb 4414 013f 47d5 cf3e
000003e0: 9035 d23d a692 903e b13d 1dbd e37d 273e
000003f0: 20e0 9e3e 450c 83bd 6651 09bd f2ef 83bd
0.7035828 0.107753 -0.021900702 0.7042287 0.026411496 0.13802105 -0.06887911 -0.036298227
-0.018606773 -0.12492128 0.21680635 -0.09146017 -0.059519023 0.15220325 0.07634162 0.006534133
-0.09759983 -0.04988236 -0.036665324 0.09738275 0.45558834 0.29567668 0.048471056 0.6704375
-0.014618676 0.18667467 0.68731874 0.85715073 -0.10389368 0.41609457 0.0023063174 0.3822389
-0.047252968 0.14824289 0.016720675 0.5463152 0.14096756 -0.024473282 0.111261785 -0.03618164
0.10513048 -0.040551838 0.018550316 0.046710808 0.091307305 0.5904805 -0.0045788633 0.05735467
-0.029280137 0.12037999 -0.07780898 -0.0010668073 -0.07880529 -0.002642356 0.48416787 0.25087306
0.056414865 0.34980956 -0.056432765 0.13753873 0.30256957 -0.08282719 -0.056381013 -0.0725626
1.0 1.0 1.0 1.0 1.0 1.0 1.0 1.0
1.0 1.0 1.0 1.0 1.0 1.0 1.0 1.0
1.0 1.0 1.0 1.0 1.0 1.0 1.0 1.0
1.0 1.0 1.0 1.0 1.0 1.0 1.0 1.0
1.0 1.0 1.0 1.0 1.0 1.0 1.0 1.0
1.0 1.0 1.0 1.0 1.0 1.0 1.0 1.0
1.0 1.0 1.0 1.0 1.0 1.0 1.0 1.0
1.0 1.0 1.0 1.0 1.0 1.0 1.0 1.0
0.25517192 0.11679456 -0.14868516 0.25130156 -0.10466637 0.122688055 -0.16673869 -0.16561379
-0.07768673 -0.20128115 0.23837595 -0.14139645 -0.104159996 0.18523514 -0.18051222 -0.12460725
-0.14595453 -0.1366936 -0.12233692 0.11864152 0.32744122 0.21069087 -0.12874281 0.23368391
-0.120497234 0.19145344 0.28098288 0.27656582 -0.18374027 0.26105505 -0.036150806 0.27259123
-0.15157184 0.13434863 -0.12936668 0.27353886 -0.08351474 -0.143954 -0.15230668 -0.09650432
-0.12783515 -0.13052884 -0.16331623 -0.1450241 0.036493756 0.30349085 -0.00060356304 -0.096508324
-0.089570485 -0.12495437 -0.12337812 -0.004815265 -0.15537709 -0.014992449 0.2626567 0.29529187
-0.10548758 0.35632157 -0.102133386 -0.121594846 0.18402514 -0.13153093 -0.15769291 -0.1518156
0.63218105 0.123666376 -0.099275075 0.7024022 0.07273951 0.1408758 -0.04553199 -0.08460978
-0.018928196 -0.056248832 0.21844101 -0.069272816 -0.08475745 0.15145965 0.13314325 0.027942078
-0.1296626 -0.033534758 -0.0072742384 0.07820114 0.4460051 0.3040077 -0.027446453 0.68593186
-0.080540836 0.20958254 0.69153935 0.8488288 -0.056619875 0.31804022 -0.0020355103 0.21793114
-0.035528526 0.16771705 0.0057026986 0.55379236 0.19527294 -0.007943627 0.1437684 -0.013204213
0.06529521 -0.041798048 -0.014767963 0.04127371 0.09524246 0.6292295 -0.0046753474 0.10927753
-0.029253611 0.13514635 -0.019230423 -0.0012686773 -0.07853415 -0.0022691314 0.5042155 0.40592405
0.102641225 0.28236884 -0.03838891 0.16356616 0.3103037 -0.063988246 -0.033524893 -0.0644225

sequential_3/time_distributed_3/dense_4/MatMul f4 [21, 32]
00000000: 220f 35be a688 1c3f 4077 72be 91ec 2abe
00000010: fb23 3abe 1e97 e03e 6fa5 dfbb 11ee 0ebe
00000020: d764 06be 22f4 24be 6fc6 c03e f5f5 2bbe
00000030: 13f6 f73e b3b9 08be 7078 2dbe 6256 49be
00000040: 2887 e2bd d62e 043e ca50 40be 9373 023f
00000050: 67d2 1fbe 2bcd 08be a24c 87bc 2ef8 38be
00000060: d0ad a9be 7606 03be 71e0 e23e 470a 1cbc
00000070: e5a5 fdbd b713 dbbd 9f4d 20be 014e 45be
00000080: 5be1 0dbe 8fff be3e 2d41 79be 7cb7 1cbe
00000090: 0f41 58be 7f4b fc3e 0a07 d739 94ac ebbd
000000a0: ddd5 01be 7381 08be 2164 a13e 2933 22be
000000b0: 1ee6 d13e 13eb bfbd 4b40 00be 314c 40be
000000c0: b179 c0bd 978c cd3d 2f02 2abe 8fa0 ea3e
000000d0: 1ff5 1abe a34f e9bd 402f 083c a3ae 4bbe
000000e0: 9036 5b3e 04ab f4bd 8253 f43e 52d8 4e39
000000f0: 53dd f8bd 11e1 bebd e570 29be 642e 07be
00000100: da80 53be 6848 323f a48a 85be bd59 4cbe
00000110: 57b3 60be dc45 1a3f 7785 eabb 474f 36be
00000120: 7a84 17be ae9a 34be 75b5 f73e d499 21be
00000130: 4cc3 233f d54b 21be 0f86 34be fbce 61be
00000140: 376d 01be 31a0 3e3e 7293 46be 4863 213f
00000150: 1057 35be 285e 17be b960 97bc 67f1 3fbe
00000160: 74fc 88bd 7165 17be 849d 193f a955 82bc
00000170: a66f 0fbe 3750 f6bd 964c 2ebe 7a1a 7dbe
00000180: 2a65 1abe 1784 e93e 6bf4 5abe f348 2dbe
00000190: f6d8 68be f7cf ea3e 1e67 363a 1e59 e6bd
000001a0: 1ace 08be 1267 08be 6ed7 b83e ca88 36be
000001b0: bfa3 e43e 2837 c1bd 760c e8bd d80c 34be
000001c0: 4bae cebd ee9c f93d c292 23be a699 033f
000001d0: 9c32 1ebe 8389 eabd 2020 2b3c 4d71 51be
000001e0: cf0f 393e e261 02be 9728 043f beef 25ba
000001f0: 9be5 05be 6e98 cbbd 5beb 2abe 4b73 01be
00000200: 6811 0ebe 1f35 cc3e 02f2 dabd 063c 54be
00000210: d65c 81be 11a8 f2bb fa4c 393e 85fb 52be
00000220: 2820 00be 3e40 99bd b4ab 3b3e fb99 0cbe
00000230: 3572 fdbd fdd2 a9bd 91c4 7bbe d323 3abb
00000240: a233 dcbd 4c54 d83e 84a9 fb3c e605 40be
00000250: 2b0c fdbd 01f8 84bc 013d 45bc 7de8 54be
00000260: d9f2 0c3e faae 9dbd 3f77 5bbe 2bec 453e
00000270: 53d9 18be f1b2 64bd 7dd5 03bd a157 50be
00000280: 83d1 5abe 167d 2a3e d762 ebbd c307 16be
00000290: 1780 24be 0439 81bd c95f 8cbd 4ab9 23be
000002a0: 98e5 dbbd 62ce 03be c4a3 d83c f5a3 bbbd
000002b0: 431d d1bc dc38 21be d69e 77be 8d59 13be
000002c0: 746f e2bd 795c 8d3d b20e 11be a4ff 5dbd
000002d0: 8a2c fcbd 9543 dfbd c016 b3be 6603 c1bd
000002e0: 4c38 533e 6010 d7bd 0ded 56bd ae2a f7bd
000002f0: ec1c c9bd 4663 c2bd 185c e8bd f1e0 85be
00000300: e775 a9be 98a2 0f3d 76ed cfbd 8c4f 31be
00000310: 4047 0fbe 04b0 61bd 6116 2ebf d71a 91be
00000320: 9e2f 68be 60ce 84be efaf 153d 6fe5 3ebe
00000330: 369a bd3c 1199 58be ed56 7dbe 02e9 9cbe
00000340: e5a9 6dbe 667c 6b3d 7abb 4bbe 9907 16bd
00000350: f6f6 66be 4dd0 4dbe bcaf 48bf 4966 53bd
00000360: 5530 0e3e e659 4dbe 9c9a a23a b742 2dbf
00000370: c7be 51be 8dd9 41be 57ba 65be 4e15 c2be
00000380: 14f9 23be a39c af3e 0a80 22be c6d5 1cbe
00000390: ebb9 43be 3787 8e3c 4d72 39bd 5423 38be
000003a0: 48e3 01be 020c e5bd 4db9 173d abe8 f5bd
000003b0: f5b9 09bd 37da 31be 886f 67be a8b9 febd
000003c0: e7fa c4bd 32d2 d63d 184d b0bd 22e4 aabd
000003d0: d4c6 cbbd 7831 9abd 5231 bebe 8cd1 cfbd
000003e0: d337 563e 1aa4 d0bd f8a7 80bd c9b8 eebd
000003f0: 1467 b4bd 1413 b3bd 0891 c3bd 1962 9abe
-0.17681554 0.6114601 -0.23678303 -0.16691805 -0.18177788 0.43865293 -0.006825141 -0.13958003
-0.13124405 -0.16108754 0.37651393 -0.16793044 0.48429927 -0.13352089 -0.16940475 -0.19661859
-0.11060935 0.12908491 -0.18780819 0.509576 -0.15607606 -0.13359515 -0.016516034 -0.18063423
-0.3314042 -0.12795433 0.4431186 -0.009523935 -0.123851575 -0.1069712 -0.1565461 -0.19268037
-0.13855498 0.3730435 -0.24341269 -0.15304369 -0.21118568 0.4927635 0.0004101324 -0.11507526
-0.12679239 -0.13330631 0.31521705 -0.15839829 0.40995878 -0.09371009 -0.12524526 -0.18779065
-0.09398211 0.10036581 -0.16602395 0.4582562 -0.15132569 -0.113921426 0.0083120465 -0.19890837
0.21407533 -0.11946681 0.4771996 0.00019726277 -0.12151589 -0.09320272 -0.16546972 -0.1320129
-0.20654622 0.69641733 -0.26082337 -0.19956107 -0.21943413 0.60262847 -0.0071570235 -0.1780368
-0.1479663 -0.1763713 0.48380628 -0.15781337 0.63969874 -0.15751584 -0.17629264 -0.22051613
-0.12639318 0.18615796 -0.19392183 0.63042116 -0.17708993 -0.14782012 -0.018478738 -0.18744431
-0.066887766 -0.1478479 0.60005975 -0.015909987 -0.14007434 -0.120270185 -0.17021403 -0.24717131
-0.15077654 0.4560859 -0.213823 -0.16922359 -0.22739014 0.4586179 0.00069581147 -0.112474665
-0.13359872 -0.13320568 0.3610186 -0.17825618 0.44656178 -0.09434348 -0.11330502 -0.17583025
-0.100918375 0.12188135 -0.15973952 0.51406324 -0.15448993 -0.114520095 0.010444671 -0.20453377
0.18072437 -0.12732652 0.51624435 -0.0006329975 -0.13075869 -0.09941183 -0.16691343 -0.12641637
-0.13873827 0.39884278 -0.106906906 -0.20726022 -0.2526614 -0.007405289 0.1809577 -0.2060376
-0.12512267 -0.07482956 0.18327218 -0.13730614 -0.12375299 -0.08292196 -0.24586703 -0.00284027
-0.10752036 0.42251813 0.03072048 -0.1875225 -0.123558365 -0.016231539 -0.01203847 -0.20791812
0.13764514 -0.0769939 -0.21432208 0.19328372 -0.14926653 -0.055834714 -0.03218602 -0.20345928
-0.21368985 0.16649279 -0.114934616 -0.14651398 -0.16064487 -0.06309703 -0.06854207 -0.15988651
-0.10737151 -0.12871698 0.026445277 -0.09162132 -0.025526648 -0.15744346 -0.24181685 -0.1438963
-0.11056414 0.069024034 -0.14165762 -0.054198876 -0.12313183 -0.10901562 -0.34978294 -0.09424476
0.20626944 -0.1050117 -0.052472163 -0.120686874 -0.098199695 -0.09491591 -0.113456905 -0.2614818
-0.33097765 0.03506717 -0.10152714 -0.17315501 -0.13992023 -0.055099502 -0.680029 -0.2834079
-0.22674415 -0.25938702 0.036544736 -0.1864221 0.023144823 -0.2115214 -0.24740191 -0.3064652
-0.23209341 0.057491682 -0.19895735 -0.03662834 -0.22555146 -0.20098992 -0.7839315 -0.05161122
0.13885625 -0.20053825 0.0012405696 -0.67679924 -0.20482932 -0.18930645 -0.22434364 -0.3790688
-0.16012985 0.34299192 -0.15869156 -0.15315923 -0.19113891 0.01739846 -0.04527502 -0.17982227
-0.12684357 -0.11183931 0.03704195 -0.120072685 -0.033624608 -0.17368399 -0.2260114 -0.12437755
-0.09618168 0.1048931 -0.086084545 -0.08344294 -0.09950033 -0.07528967 -0.37147003 -0.1014739
0.20919733 -0.1018755 -0.062820375 -0.11656339 -0.08808723 -0.08743873 -0.09549147 -0.30152968

lstm_18/lstm_cell_22/bias1 f4 [256]
00000000: 011e 343f 9bad dc3d 1a69 b3bc 5548 343f
00000010: ec5c d83c 6455 0d3e 7e10 8dbd 73ad 14bd
00000020: 3b6d 98bc bad6 ffbd 7c02 5e3e 784f bbbd
00000030: 38ca 73bd 2bdb 1b3e ff58 9c3d 481c d63b
00000040: 6be2 c7bd 7251 4cbd 612e 16bd 9b70 c73d
00000050: e042 e93e ef62 973e 9689 463d cba1 2b3f
00000060: 2c83 6fbc a527 3f3e 1ff4 2f3f 3b6e 5b3f
00000070: 36c6 d4bd 590a d53e 9625 173b d1b4 c33e
00000080: 548c 41bd fccc 173e ccf9 883c 50db 0b3f
00000090: cd59 103e 317c c8bc 38dd e33d 3333 14bd
000000a0: a64e d73d af19 26bd d5f6 973c d553 3f3d
000000b0: 53ff ba3d bb29 173f 4a0a 96bb bbec 6a3d
000000c0: e6dc efbc c989 f63d 515a 9fbd 1dd4 8bba
000000d0: ab64 a1bd 612b 2dbb dae4 f73e 6f72 803e
000000e0: 4613 673d 3d1a b33e 0b26 67bd f4d6 0c3e
000000f0: 66ea 9a3e 4da1 a9bd c7ef 66bd b39b 94bd
00000100: 0000 803f 0000 803f 0000 803f 0000 803f
00000110: 0000 803f 0000 803f 0000 803f 0000 803f
00000120: 0000 803f 0000 803f 0000 803f 0000 803f
00000130: 0000 803f 0000 803f 0000 803f 0000 803f
00000140: 0000 803f 0000 803f 0000 803f 0000 803f
00000150: 0000 803f 0000 803f 0000 803f 0000 803f
00000160: 0000 803f 0000 803f 0000 803f 0000 803f
00000170: 0000 803f 0000 803f 0000 803f 0000 803f
00000180: 0000 803f 0000 803f 0000 803f 0000 803f
00000190: 0000 803f 0000 803f 0000 803f 0000 803f
000001a0: 0000 803f 0000 803f 0000 803f 0000 803f
000001b0: 0000 803f 0000 803f 0000 803f 0000 803f
000001c0: 0000 803f 0000 803f 0000 803f 0000 803f
000001d0: 0000 803f 0000 803f 0000 803f 0000 803f
000001e0: 0000 803f 0000 803f 0000 803f 0000 803f
000001f0: 0000 803f 0000 803f 0000 803f 0000 803f
00000200: e5a5 823e fc31 ef3d ec40 18be 99aa 803e
00000210: 525b d6bd e043 fb3d 8cbd 2abe a996 29be
00000220: 381a 9fbd a51c 4ebe d318 743e 3bca 10be
00000230: d651 d5bd 48ae 3d3e 32d8 38be 1632 ffbd
00000240: 1b75 15be 68f9 0bbe c78b fabd 53fa f23d
00000250: 60a6 a73e 59bf 573e 28d5 03be d64a 6f3e
00000260: 41c7 f6bd 5f0c 443e fddc 8f3e 099a 8d3e
00000270: 6926 3cbe 02a9 853e de12 14bd 1491 8b3e
00000280: a635 1bbe b092 093e b378 04be 490d 8c3e
00000290: c709 abbd ad68 13be 48f6 1bbe 0fa4 c5bd
000002a0: 38e7 02be 5aa9 05be 5f3c 27be 3381 14be
000002b0: 7a7a 153d 2763 9b3e 6e38 1eba 28a6 c5bd
000002c0: bb70 b7bd 14e8 ffbd abad fcbd 5fc9 9dbb
000002d0: 2c1b 1fbe e4a2 75bc f07a 863e 7f30 973e
000002e0: df09 d8bd c86f b63e 4f2b d1bd b806 f9bd
000002f0: 1671 3c3e 0bb0 06be 407a 21be 8c75 1bbe
00000300: 9ed6 213f cc44 fd3d bb50 cbbd a1d0 333f
00000310: 74f8 943d bf41 103e c07f 3abd e447 adbd
00000320: 4e0f 9bbc 2d65 66bd 00af 5f3e e8de 8dbd
00000330: 5095 adbd 3d18 1b3e b456 083e c9e6 e43c
00000340: 46c6 04be be5b 09bd bc5c eebb eb27 a03d
00000350: c85a e43e e6a6 9b3e 62d7 e0bc 3b99 2f3f
00000360: 98f2 a4bd ce9c 563e b908 313f d84c 593f
00000370: 3eea 67bd 2bd6 a23e 3266 05bb 5729 5f3e
00000380: 5c86 11bd 05be 2b3e b4dd ba3b 56c5 0d3f
00000390: a1f5 473e fd25 02bc 0638 133e 7c56 58bc
000003a0: 7fb9 853d 6e34 2bbd 54f5 71bc 9f0e 293d
000003b0: 7b0e c33d 2f15 213f a833 99bb e6cc df3d
000003c0: 45a5 efbc ce63 0a3e 1f89 9dbc bf49 a6ba
000003d0: 83d6 a0bd b5b5 14bb 4414 013f 47d5 cf3e
000003e0: 9035 d23d a692 903e b13d 1dbd e37d 273e
000003f0: 20e0 9e3e 450c 83bd 6651 09bd f2ef 83bd
0.7035828 0.107753 -0.021900702 0.7042287 0.026411496 0.13802105 -0.06887911 -0.036298227
-0.018606773 -0.12492128 0.21680635 -0.09146017 -0.059519023 0.15220325 0.07634162 0.006534133
-0.09759983 -0.04988236 -0.036665324 0.09738275 0.45558834 0.29567668 0.048471056 0.6704375
-0.014618676 0.18667467 0.68731874 0.85715073 -0.10389368 0.41609457 0.0023063174 0.3822389
-0.047252968 0.14824289 0.016720675 0.5463152 0.14096756 -0.024473282 0.111261785 -0.03618164
0.10513048 -0.040551838 0.018550316 0.046710808 0.091307305 0.5904805 -0.0045788633 0.05735467
-0.029280137 0.12037999 -0.07780898 -0.0010668073 -0.07880529 -0.002642356 0.48416787 0.25087306
0.056414865 0.34980956 -0.056432765 0.13753873 0.30256957 -0.08282719 -0.056381013 -0.0725626
1.0 1.0 1.0 1.0 1.0 1.0 1.0 1.0
1.0 1.0 1.0 1.0 1.0 1.0 1.0 1.0
1.0 1.0 1.0 1.0 1.0 1.0 1.0 1.0
1.0 1.0 1.0 1.0 1.0 1.0 1.0 1.0
1.0 1.0 1.0 1.0 1.0 1.0 1.0 1.0
1.0 1.0 1.0 1.0 1.0 1.0 1.0 1.0
1.0 1.0 1.0 1.0 1.0 1.0 1.0 1.0
1.0 1.0 1.0 1.0 1.0 1.0 1.0 1.0
0.25517192 0.11679456 -0.14868516 0.25130156 -0.10466637 0.122688055 -0.16673869 -0.16561379
-0.07768673 -0.20128115 0.23837595 -0.14139645 -0.104159996 0.18523514 -0.18051222 -0.12460725
-0.14595453 -0.1366936 -0.12233692 0.11864152 0.32744122 0.21069087 -0.12874281 0.23368391
-0.120497234 0.19145344 0.28098288 0.27656582 -0.18374027 0.26105505 -0.036150806 0.27259123
-0.15157184 0.13434863 -0.12936668 0.27353886 -0.08351474 -0.143954 -0.15230668 -0.09650432
-0.12783515 -0.13052884 -0.16331623 -0.1450241 0.036493756 0.30349085 -0.00060356304 -0.096508324
-0.089570485 -0.12495437 -0.12337812 -0.004815265 -0.15537709 -0.014992449 0.2626567 0.29529187
-0.10548758 0.35632157 -0.102133386 -0.121594846 0.18402514 -0.13153093 -0.15769291 -0.1518156
0.63218105 0.123666376 -0.099275075 0.7024022 0.07273951 0.1408758 -0.04553199 -0.08460978
-0.018928196 -0.056248832 0.21844101 -0.069272816 -0.08475745 0.15145965 0.13314325 0.027942078
-0.1296626 -0.033534758 -0.0072742384 0.07820114 0.4460051 0.3040077 -0.027446453 0.68593186
-0.080540836 0.20958254 0.69153935 0.8488288 -0.056619875 0.31804022 -0.0020355103 0.21793114
-0.035528526 0.16771705 0.0057026986 0.55379236 0.19527294 -0.007943627 0.1437684 -0.013204213
0.06529521 -0.041798048 -0.014767963 0.04127371 0.09524246 0.6292295 -0.0046753474 0.10927753
-0.029253611 0.13514635 -0.019230423 -0.0012686773 -0.07853415 -0.0022691314 0.5042155 0.40592405
0.102641225 0.28236884 -0.03838891 0.16356616 0.3103037 -0.063988246 -0.033524893 -0.0644225

sequential_3/lstm_18/while/lstm_cell_22/MatMul_1 f4 [256, 64]
00000000: d06e 913d c11a 63bd 5697 dbbc 863b 8ebd
00000010: 3d37 b0bd 14ca 2dbd 10ca e93b e278 ffbd
00000020: 94b0 ffbc b098 243c 9491 133d 52bf 023d
00000030: 7cdf b9bd d245 a8bd ed05 3bbc 7843 d2bc
00000040: e875 9ebc a0ab d33c ac24 93bd 3d43 7dbd
00000050: 76e3 99bc bf88 7abd badc b83c c0d8 45bb
00000060: a4fa a43d 6c74 3abc 69a2 353d c0fe 5ebc
00000070: beb6 18bd 4a50 263c 80ae 1c3b 8039 843a
00000080: 008b 7abc 4f72 bb3d 51a5 27bd c0c5 16bd
00000090: c4d3 b43d d729 41bc 0ad3 4d3c 3cb9 91bd
000000a0: 2497 91bc 9a37 ccbb d89e b2bd 8a60 90bc
000000b0: b88a 9fbd 7cfa 11bd fa0b 0f3e 64b1 2cbc
000000c0: d814 81bc 5abd 1abd 15c2 713c 4200 e03c
000000d0: a4d3 213c fc5d 143c c2e7 05bd 47d5 a4bd
000000e0: 425a bf3c 6554 123e 7ec5 a0bd c870 84bd
000000f0: 1f02 d53c 19b5 db3c eb4e d03c d5de 723d
00000100: e512 dc3d d015 82bd 0d96 023d 64a8 27bc
00000110: 03c6 59bc b656 b6bc da4f 693c 74ef 2f3c
00000120: bde4 64bd 520f 843c 002a 2fbe 15db d23d
00000130: 3e50 043d 12b7 82bd 5cf1 8fbd 252e a33d
00000140: 3e42 903c a64b 07be b412 bfbd 9cfd 213e
00000150: eb01 0c3d 2892 41bd e466 b8bb 1ea2 893c
00000160: 9fa6 903c 691a 81bd af4b a6bd c0f8 303d
00000170: 11b8 113d ad62 403d 1973 bc3d 54d2 50bc
00000180: f147 01bd ecae 5ebd 7825 c6bb 7609 a8bc
00000190: 043e 87bc a860 563d a90b eb3d 6dcc 63bd
000001a0: 40f2 093d 70c9 bfbc f022 aabc 6f3c 8b3d
000001b0: 70da 57ba 57c1 febd f683 863c d68a 493d
000001c0: e370 3abd caa7 9cbb 1919 d53c fd0b b23d
000001d0: a18b 48bd 1a72 e7bb 2eb6 303d a3b4 203d
000001e0: b246 733d d0e3 70bd 7fcf b2bd a209 9dbd
000001f0: f7f3 6e3c e0dd f7bb 27b0 943d 7e61 ad3b
00000200: 3e3b aebd 32ba 103d 40cd 5f3d b064 c2bb
00000210: ff05 1f3e c854 8dbc 81d8 2fbd d840 853d
00000220: 6483 293d 59aa f43d e9b0 a7bd 1f0b cf3c
00000230: 7cb0 86bd 737a e5bc 1d8a d1bb 7629 443d
00000240: 4ef9 5a3b f1e5 d0bb 6800 c13a 1384 cdbd
00000250: de9e 9a3c adcb 7fbc c8be 813c 07b2 f2bd
00000260: dcf2 81bd 8a11 0e3d 6efa 103e 09d9 b7bd
00000270: ab5b 313c daf0 c23b 4897 233d dad2 3f3d
00000280: da62 123d 1e91 6d3c afec b93c 012a b03c
00000290: c04a 5aba f5a6 4c3d 1872 e43c b34e b13d
000002a0: 8c75 abbc 8217 eabd e171 14bd f82c 87bc
000002b0: 8d1a 00be 2272 7b3d ba74 203e bd74 4b3c
000002c0: 4d3f af3d f6df b9bb 3dc7 ff3c e08a e43c
000002d0: 983c 6cbd 6af4 ecbd 9359 f83c b877 b13c
000002e0: f367 4c3c 9038 c1bc b04c 023d 367a 8cbd
000002f0: 48e4 1a3e e92b 2b3d 2959 abbd 2902 62bd
00000300: 9319 45bd 7abd 8c3d 916b 803d 20d1 50bd
00000310: f091 d53a e95b a0bd badc b0bb 78a4 82bc
00000320: bd8d a8bd f754 033d 6401 343b 7870 993c
00000330: 49e2 493d c471 0abb 4bdf 03bd 44d5 e2bd
00000340: e251 333d 38d1 193e c4e1 e5bb 0ae7 3c3d
00000350: d140 733d bbf1 0fbc 6579 65bc fc01 cabd
00000360: b0a9 90ba c1a5 9d3d 966d b3bd 7124 193d
00000370: 5a2f debd ceab f43c d5d2 69bc 9698 58bd
00000380: 1ce6 1e3d 8706 3cbd 05a1 573d d3d8 9fbc
00000390: dc10 03bd d0ce 313d cc55 963d 46a8 64bc
000003a0: 5b37 2b3e 3889 563b e776 02be 9cea 85bd
000003b0: 0c8d 6a3d 6c18 24be e0d6 dbbd f407 aa3d
000003c0: 6741 3bbc cc8a 9b3d 6ac2 90bd c21c 57bc
000003d0: 6baa 92bd 419e 933b 70ca b3bd 4a70 ccbd
000003e0: af25 d43d 721c 8c3d 8395 643d a971 18bd
000003f0: 83e7 10bc fcc8 a73c 4cb9 36bc 97ce d03d
0.07101214 -0.055445436 -0.026805561 -0.06944947 -0.08604286 -0.042429045 0.0071346834 -0.124742284
-0.031212129 0.010046169 0.036027506 0.03192074 -0.090758294 -0.08216442 -0.011414987 -0.025666937
-0.019343331 0.025838673 -0.07184729 -0.0618317 -0.01878522 -0.061165567 0.022566188 -0.0030189008
0.080556184 -0.011380296 0.04434434 -0.013610542 -0.03728365 0.010150978 0.002390772 0.0010087937
-0.015291929 0.09152662 -0.040929142 -0.036809683 0.088294536 -0.011789761 0.012562523 -0.07115409
-0.017772265 -0.006232214 -0.08721703 -0.017624158 -0.077901304 -0.03563927 0.13969412 -0.01054034
-0.01575701 -0.037778236 0.014755745 0.027343873 0.009877119 0.009055611 -0.032691725 -0.08048492
0.023358468 0.14290006 -0.07850169 -0.06466824 0.026001988 0.026819753 0.025428256 0.05929454
0.10745791 -0.06351817 0.03188138 -0.010233019 -0.013291839 -0.022258144 0.0142402295 0.010738242
-0.055882204 0.016120587 -0.17105865 0.10295693 0.032303087 -0.06382574 -0.070284575 0.07967786
0.017609712 -0.13212451 -0.09329739 0.158194 0.034181517 -0.047258526 -0.0056275 0.016800936
0.017657576 -0.063038655 -0.08119904 0.043205976 0.03557593 0.046969105 0.09201641 -0.012745459
-0.03156275 -0.054366037 -0.006046947 -0.020512324 -0.016509064 0.052338272 0.114768334 -0.055614877
0.033678293 -0.023411483 -0.020768613 0.06798636 -0.0008234149 -0.124392204 0.016420346 0.04920467
-0.045517813 -0.004780744 0.026012944 0.08693693 -0.048961286 -0.0070631625 0.04314249 0.03923477
0.059393592 -0.05881101 -0.08730983 -0.07667853 0.014584533 -0.0075642914 0.07260161 0.005291163
-0.08507393 0.03533382 0.0546391 -0.005932413 0.15529631 -0.01725234 -0.042931084 0.065065086
0.04138507 0.11946554 -0.0818804 0.025273858 -0.065766305 -0.02801249 -0.006394638 0.047891103
0.0033412757 -0.0063750674 0.0014724853 -0.10034957 0.018874582 -0.015612525 0.015838042 -0.11850362
-0.0634515 0.034684695 0.14158031 -0.08976943 0.010825078 0.005949122 0.039939195 0.046831943
0.035738803 0.014499931 0.022695867 0.021504404 -0.00083271787 0.04996391 0.027886435 0.08657589
-0.020930074 -0.11430265 -0.036241416 -0.016500935 -0.12510128 0.061388142 0.15669528 0.012417969
0.085569955 -0.00567245 0.031222934 0.027898252 -0.057674974 -0.11570056 0.03031615 0.021663532
0.012475955 -0.023586541 0.031811416 -0.068592474 0.15126145 0.041789923 -0.08366615 -0.05517784
-0.048120093 0.06872077 0.06270517 -0.050980687 0.0016294103 -0.078300305 -0.0053974064 -0.015947565
-0.082301594 0.03206345 0.002746665 0.018730387 0.049288068 -0.0021124939 -0.03219537 -0.110758334
0.04377926 0.15021217 -0.0070154388 0.046118774 0.059387986 -0.00878566 -0.0140059935 -0.0986366
-0.0011036899 0.07697631 -0.08761136 0.03738827 -0.10848875 0.02986708 -0.014271458 -0.052879892
0.03879367 -0.045904662 0.052643795 -0.01951257 -0.0319985 0.043410122 0.07340583 -0.013956135
0.16720335 0.0032735597 -0.1274067 -0.06538889 0.05726342 -0.16024941 -0.107343435 0.08302298
-0.011429167 0.07594833 -0.070683315 -0.013129415 -0.07161411 0.0045049493 -0.08778846 -0.09982355
0.1035875 0.06841363 0.055806648 -0.03721777 -0.008844259 0.020481579 -0.011152577 0.10195654

sequential_3/lstm_18/while/lstm_cell_22/MatMul f4 [256, 21]
00000000: 4406 c8bd 7359 a1be 251c 843e a24d e8bd
00000010: 0478 d6be 80d6 25bf a29d 1ebf fa45 d9be
00000020: b260 28bf f268 f3be 970a 1bbb 5339 34bf
00000030: 21b3 f0be bf9c aebe 4315 ccbe 5df1 06bf
00000040: e657 f8be 280b 86bd b426 953e b404 2bbe
00000050: 3f58 3a3d 58cb ca3d 155e 723d 35a9 0f3e
00000060: 024d 08be 1a1a 2ebe ef03 5ebe 2f8b 8cbe
00000070: f3e5 85bd 7c05 febd 19e9 e3bd b591 5dbe
00000080: 8ab5 2f3c 44d4 99be 774f c33d 4762 993c
00000090: fa46 53bd 0743 0a3e 3beb 783d 7b95 133e
000000a0: 13d7 8a3d 5ff2 29be bfd7 87be f578 0fbd
000000b0: f684 c6bd d99a f63c fef5 08be 7d12 adbc
000000c0: b124 bbbd a8c8 483d ff79 0e3d fde1 26bd
000000d0: f54d ee3d b3c0 d93c 0088 73be 569e c1bc
000000e0: 531f f73b 2055 01be 9949 0fbe f1c8 963d
000000f0: 39af 933d c811 57be dda7 cc3d 2c6b c3be
00000100: a77b 95be 3775 bdbd 2089 ddbe 89c3 98be
00000110: a7f9 2bbf 07f0 30bf 5632 00bf 5aea 27bf
00000120: 0a43 c4be 077b 5c3e c9f7 26bf f557 0bbf
00000130: 7c16 d0be 9286 98be c136 02bf b017 02bf
00000140: 7870 c9be 1d1f 653e 2837 84be 1eba 2f3e
00000150: 4512 a1be 8074 4abd 1e08 cdbe 0f6c 1bbe
00000160: f499 2cbe 0a31 91bd 5cc7 f1bc 504c 36be
00000170: 3310 9fbc 651f 2bbe 3543 04bf 314f 31be
00000180: 6a34 acbe e746 89be e432 55be 6e87 f9bc
00000190: ac03 fbbd 0044 94be 68e4 533e b984 b6bd
000001a0: e255 783e d553 4e3d 66a6 863d cc0d 8c3e
000001b0: 91c8 f93d 5ce1 3abc 2977 a2bd 9169 073e
000001c0: 042d 163d 639c 6cbd b2bb ffbd 72de d43d
000001d0: 34e3 4bbe 8454 5a3d 55d2 b1bd 5f94 a73e
000001e0: 2dd7 fabd bcb7 983e d886 6f3d 97cc 2a3d
000001f0: 964b e73d 2836 64bd e093 31bd 846d 873d
00000200: ed29 d3bd 488f e5bd 1202 45bd 427d 0c3e
00000210: 3752 bdbc 9894 3fbd 00f2 cf3d ae90 0cbe
00000220: 24c2 81be 5730 43be 7084 4ebb 1e5c b43d
00000230: cda3 ffbd 96fb 7abd 261c 303d 99ca 36bd
00000240: 8084 153e 8f29 28be af16 df3d a121 3ebd
00000250: 4223 4abe d1c4 aebd 9e26 52be 3b95 82bd
00000260: 08ce cc3d 5203 c4be 3c08 30be 8e65 a9bd
00000270: 3e8b 0bbd 7eed 2b3d eaf0 55bd ce59 b4bd
00000280: b546 f4bd 5bb3 2fbe 274c efbb 221b 15be
00000290: e4f3 2dbd f4a1 2e3d 628a 02be 0cdf 633e
000002a0: 69d0 b03d 8d10 9dbd 134d 7f3d 78ea eebd
000002b0: 2aac b33c 8293 4abd 1a5b d83d 7db7 b13c
000002c0: dbcb 383d 5022 8e3d 820c 543d 353e e2bd
000002d0: 63c5 5f3d b5bc d8bd f4fb 113e e992 a03d
000002e0: d325 dbbc 94b6 0d3e 3afa 4b3d b3d7 87bb
000002f0: 833d 0fbe ad9f 2bbe 62c5 b9bd 6b5d a0be
00000300: ac21 53be 5004 f63c bf29 b63c 5b19 8ebd
00000310: 9d7c 2b3e 04e4 933c d4c2 9ebb 0ac7 1d3d
00000320: ef1f dfbd 1e54 71bd 38d3 26be 372f e5bc
00000330: 8c2b 05be 841d c8bd 70c6 50be b7db dc3d
00000340: f247 8ebd 0f57 1c3e c6a9 c4bd a11e 03be
00000350: 65b3 3fbc 9953 17be 41f1 193e d555 ebbd
00000360: f2da 6cbe 816d 06be 2bd4 b8bd a060 b6bd
00000370: 48ff 043e 1a9b 5abe e82b 0b3e 2568 1abe
00000380: 6262 96bd 97ed 4ebe 09e8 ebbd 0ded 89be
00000390: a5d9 8a3e 5db0 70bc 1ae2 7d3e 228b 483c
000003a0: d9c8 a9bc 2976 24be 012d 9abd 4b1c b13d
000003b0: a767 8c3d e265 5dbd ac18 d9bd 7fa5 e83c
000003c0: 50d3 89bd ac08 213e daa8 f6bb a2f9 0cbe
000003d0: fa46 84bd 78ce b6bd c17d aa3c 9305 97bd
000003e0: 77db 97bd b8ec bdbc a9a6 6cbd a0ff f6bc
000003f0: 874a d5bd 2104 763d 15ef 84bc 7d59 44be
-0.0976682 -0.31513557 0.25802723 -0.11342932 -0.4188844 -0.64780426 -0.6195928 -0.424362
-0.65772545 -0.47541004 -0.0023657435 -0.7039997 -0.47011665 -0.34103963 -0.3985997 -0.5271204
-0.4850456 -0.06545097 0.2913109 -0.16701013 0.045494314 0.09902066 0.059171755 0.14029391
-0.13310626 -0.17002144 -0.21681188 -0.2744994 -0.06538 -0.1240339 -0.11128444 -0.21637614
0.010724435 -0.30044758 0.09536641 0.01872362 -0.05158136 0.13502131 0.06077121 0.14412491
0.067793034 -0.16596363 -0.2653179 -0.035027463 -0.09693329 0.030103134 -0.13375089 -0.02112698
-0.09137858 0.049019486 0.034784313 -0.040742863 0.11635963 0.026581144 -0.23782349 -0.02363507
0.007541576 -0.12630129 -0.13992919 0.07362545 0.072111554 -0.21002877 0.09992955 -0.38167703
-0.29195902 -0.092508726 -0.4326868 -0.2983668 -0.67177814 -0.6911625 -0.50076807 -0.6559197
-0.38332397 0.21531306 -0.6522184 -0.54431087 -0.40642154 -0.2979017 -0.508648 -0.50817394
-0.3934362 0.2237515 -0.2582333 0.17160842 -0.3145925 -0.04942751 -0.40045255 -0.1517794
-0.16855603 -0.070894316 -0.029514007 -0.17802548 -0.019416904 -0.16711195 -0.5166505 -0.17315365
-0.3363374 -0.26811907 -0.20820194 -0.030460086 -0.1225656 -0.2895813 0.20692599 -0.089120336
0.24251512 0.050372917 0.06574707 0.27354276 0.12196458 -0.011406269 -0.07932884 0.13223864
0.036664024 -0.05776633 -0.12486972 0.103939906 -0.1991089 0.053303257 -0.08682696 0.32730386
-0.12248073 0.29827678 0.058478206 0.04169902 0.11293714 -0.05571571 -0.043353915 0.06612685
-0.10310731 -0.11208969 -0.048097678 0.13719657 -0.023110492 -0.04677257 0.1015358 -0.13727066
-0.2534343 -0.19061409 -0.0031512044 0.088066325 -0.124824144 -0.061275087 0.042995594 -0.044626806
0.14601326 -0.16422103 0.108929984 -0.04641879 -0.19740012 -0.085336335 -0.20522544 -0.0637612
0.10000235 -0.38283783 -0.17190641 -0.08271323 -0.03406834 0.041974537 -0.052231707 -0.088061914
-0.11927549 -0.17158262 -0.0073027792 -0.14561132 -0.04246892 0.04263492 -0.12748101 0.22253054
0.08633501 -0.076691724 0.062329363 -0.11665815 0.02193268 -0.04945708 0.10564251 0.02169394
0.045116287 0.06940138 0.05176974 -0.11047021 0.054631602 -0.10582868 0.14256269 0.07840521
-0.026751434 0.1383918 0.04979918 -0.0041455864 -0.13988309 -0.1676013 -0.09070851 -0.31321272
-0.20618314 0.030031353 0.022236703 -0.0693843 0.16746755 0.018053062 -0.0048450027 0.038519897
-0.10894763 -0.05891811 -0.16291511 -0.027976615 -0.13004893 -0.09771255 -0.20388198 0.10784095
-0.06947316 0.15267585 -0.09602694 -0.12804653 -0.011700486 -0.14777984 0.15033437 -0.114909805
-0.23130396 -0.1312771 -0.09024843 -0.089051485 0.12988007 -0.21348229 0.13590968 -0.1507879
-0.07342984 -0.20207821 -0.115188666 -0.26938668 0.27119175 -0.014690486 0.24793282 0.012240203
-0.020725654 -0.160607 -0.07528115 0.086479746 0.068557076 -0.05405224 -0.10600409 0.028399227
-0.06729758 0.15725964 -0.007527453 -0.13767102 -0.0645885 -0.089260995 0.020811917 -0.0737411
-0.074149065 -0.023184165 -0.057776127 -0.030151188 -0.104146056 0.06006253 -0.016227284 -0.19174762

lstm_19/lstm_cell_23/bias1 f4 [128]
00000000: 7946 6a3e c04b 303e 22e4 4b3e 89d7 6c3e
00000010: 94d9 693e 28a9 3a3d 9170 653e 57c7 213e
00000020: 00ee 883e df22 403e a4db 103e 6387 753e
00000030: 7156 273e 5bd3 253e 13fe 173e 3d1c 553e
00000040: a0a3 883e c33c 943d 9252 433e 9a28 773e
00000050: df5f a53d cbf1 7e3d 8391 dd3d b1ef 4e3e
00000060: 2de2 a83d f5fc 253e 61d3 833e 42f8 693e
00000070: abe9 9b3e 36b0 6a3e 5b3f 263e e891 9c3d
00000080: 0000 803f 0000 803f 0000 803f 0000 803f
00000090: 0000 803f 0000 803f 0000 803f 0000 803f
000000a0: 0000 803f 0000 803f 0000 803f 0000 803f
000000b0: 0000 803f 0000 803f 0000 803f 0000 803f
000000c0: 0000 803f 0000 803f 0000 803f 0000 803f
000000d0: 0000 803f 0000 803f 0000 803f 0000 803f
000000e0: 0000 803f 0000 803f 0000 803f 0000 803f
000000f0: 0000 803f 0000 803f 0000 803f 0000 803f
00000100: 09a1 3e3d 3db9 d33c 5f24 043d daa3 1d3d
00000110: 0070 6e3d d8a9 6a3c 544c b43d e066 b63d
00000120: 4f6e ec3c 994b 893d d6dd df3d e850 ab3d
00000130: b1d5 b7bb 96c6 573e 1679 e73d fb6f d03d
00000140: 67e9 813a 2a1f 083c c8c6 d23d 5526 043c
00000150: 9042 123c 8515 113d 87bd 673d cb96 173c
00000160: 3fa1 d23d 52fb 1c3d 1964 a23e 1e63 1f3d
00000170: 20f6 723d d805 513e 2db7 f53d 9a9c c63c
00000180: b413 7f3e db6c fa3d edab 043e fe95 743e
00000190: 196c 4d3e 2ec8 c13d aa54 2a3e c598 533e
000001a0: 8cce 863e 22ea 3d3e 1203 063e 1b52 823e
000001b0: 0159 6a3e af03 813e 582b 4a3e 301d 2c3e
000001c0: b50a 8e3e c285 973d d04a a53d bfe1 663e
000001d0: 05e1 b43d 301f 6f3d 6c6f dc3d e2a8 5e3e
000001e0: 99f1 9e3d 76c9 233e 50c4 333e c0b4 4b3e
000001f0: a451 9f3e c87a af3e 2d37 5c3e 9d6c d23d
0.22878446 0.17216396 0.19911245 0.23129095 0.22836906 0.045571476 0.22406222 0.15798698
0.2674408 0.18763302 0.14146286 0.23977427 0.16341569 0.16193907 0.14843015 0.20811553
0.26687336 0.07238152 0.19074467 0.24136582 0.080749266 0.06224231 0.1081877 0.20208623
0.082462646 0.16209777 0.25747207 0.22848609 0.30451712 0.22918782 0.16235106 0.07645017
1.0 1.0 1.0 1.0 1.0 1.0 1.0 1.0
1.0 1.0 1.0 1.0 1.0 1.0 1.0 1.0
1.0 1.0 1.0 1.0 1.0 1.0 1.0 1.0
1.0 1.0 1.0 1.0 1.0 1.0 1.0 1.0
0.046540294 0.025845164 0.03226125 0.03848634 0.05821228 0.0143227205 0.08803621 0.089063406
0.028861193 0.06703872 0.10930984 0.08365041 -0.005610191 0.21071848 0.11302392 0.101776086
0.0009911478 0.008308211 0.10291821 0.00806578 0.008927003 0.035420913 0.05657723 0.00925226
0.102846615 0.038325615 0.31716993 0.038912885 0.059316754 0.20412385 0.11997829 0.024244595
0.2490986 0.12227794 0.1295621 0.23885342 0.20060767 0.09462009 0.1663386 0.20663746
0.26329458 0.18546346 0.13087109 0.25453267 0.22885515 0.25198123 0.19743097 0.16808009
0.27742544 0.07398559 0.0807091 0.22547053 0.088319816 0.058379352 0.107634395 0.21744111
0.07760925 0.1599482 0.17555356 0.1989317 0.31116974 0.34273362 0.21505423 0.102746226
