lstm978_ae_0802.tflite (tflite, 76896 bytes, 10 tensors)

time_distributed_3/bias f4 [21]
0	0xbe69fbf1	-0.22850014
1	0xbe82fb2e	-0.2558226
2	0xbe59b6f0	-0.21261191
3	0xbe75ac9e	-0.2399163
4	0xbdc42752	-0.09577812
5	0xbe943238	-0.28944564
6	0xbe1eb1fb	-0.15497582
7	0xbe2b1596	-0.16707453
8	0xbe427749	-0.18990816
9	0xbe889a99	-0.2668045
10	0xbe4ded38	-0.20110023
11	0xbe9357cf	-0.2877793
12	0xbe7c686a	-0.24649206
13	0xbe920235	-0.2851731
14	0xbe934d2c	-0.28769815
15	0xbe9b3f6d	-0.30321828
16	0xbe9a9a8e	-0.3019604
17	0xbe7d2a4e	-0.24723169
18	0x3e837c8e	0.25680965
19	0xbe78d76f	-0.24300931
20	0x3e70ddc5	0.23522098

lstm_11/lstm_cell_12/bias f4 [256]
0	0xbcc51d82	-0.024061922
1	0xbbc09f3a	-0.0058783563
2	0xb9834f00	-0.00025045127
3	0x3cc28549	0.023745196
4	0xbc05cbca	-0.008166263
5	0x3bf55137	0.007486488
6	0x3bd6b829	0.0065527153
7	0x3d3e5690	0.04646927
8	0xbc238b95	-0.009982009
9	0x3bafe67f	0.0053680534
10	0x39affd20	0.00033567194
11	0x3aed8dd6	0.0018123935
12	0xbbde5cc0	-0.006785959
13	0xbb3cb4c8	-0.0028794277
14	0x3c9a2c12	0.018819842
15	0x3c1482a9	0.009064355
16	0x3c6e462a	0.014543096
17	0x3ca27654	0.019831814
18	0x3b84db02	0.004054428
19	0x3bb75a14	0.005595455
20	0x3ccca527	0.024981095
21	0x3c999139	0.018746005
22	0x3984716c	0.00025261508
23	0x3cbcbf8e	0.02304056
24	0x3bba8d1d	0.0056930915
25	0xbb817a97	-0.0039513814
26	0xbc86ea97	-0.016469283
27	0xbcc67b7c	-0.024228804
28	0x3c4ec285	0.012619619
29	0x3c00c9c5	0.007860606
30	0xbbe59010	-0.007005699
31	0x3ca8e727	0.020618035
32	0xbb0a3962	-0.0021091332
33	0x3c63a41e	0.013894109
34	0xbb805ff0	-0.0039176866
35	0x3d046cb4	0.03233023
36	0x3a29791f	0.0006464887
37	0x3c0bd05f	0.008533566
38	0xbbadd587	-0.0053049955
39	0x3c801bea	0.01563831
40	0x3b6e57d5	0.003636827
41	0xbc12e2fd	-0.008965251
42	0xbaf73de0	-0.0018863045
43	0x3ab0b8d7	0.0013482821
44	0x3c3d8fcf	0.011569931
45	0x3ce57b77	0.028012974
46	0x3c10a562	0.008828493
47	0x3cd6315b	0.026146581
48	0x3c385cf5	0.011252631
49	0x3d06440c	0.03277974
50	0x3c86eae3	0.016469425
51	0x3bde1aa9	0.0067780805
52	0x3b9d0ee9	0.004793037
53	0xbaf85aab	-0.001894792
54	0xbbe0ba23	-0.0068581267
55	0x3c5e685c	0.013574686
56	0xbc01be6e	-0.007918937
57	0x3bea2ee5	0.0071467035
58	0x3b8e0049	0.00433353
59	0xbc33f680	-0.010984063
60	0x3c170df0	0.009219632
61	0xbc7972a8	-0.01522509
62	0x3b3a883a	0.0028462545
63	0x3c3c2a4d	0.011484695
64	0x3f800000	1.0
65	0x3f800000	1.0
66	0x3f800000	1.0
67	0x3f800000	1.0
68	0x3f800000	1.0
69	0x3f800000	1.0
70	0x3f800000	1.0
71	0x3f800000	1.0
72	0x3f800000	1.0
73	0x3f800000	1.0
74	0x3f800000	1.0
75	0x3f800000	1.0
76	0x3f800000	1.0
77	0x3f800000	1.0
78	0x3f800000	1.0
79	0x3f800000	1.0
80	0x3f800000	1.0
81	0x3f800000	1.0
82	0x3f800000	1.0
83	0x3f800000	1.0
84	0x3f800000	1.0
85	0x3f800000	1.0
86	0x3f800000	1.0
87	0x3f800000	1.0
88	0x3f800000	1.0
89	0x3f800000	1.0
90	0x3f800000	1.0
91	0x3f800000	1.0
92	0x3f800000	1.0
93	0x3f800000	1.0
94	0x3f800000	1.0
95	0x3f800000	1.0
96	0x3f800000	1.0
97	0x3f800000	1.0
98	0x3f800000	1.0
99	0x3f800000	1.0
100	0x3f800000	1.0
101	0x3f800000	1.0
102	0x3f800000	1.0
103	0x3f800000	1.0
104	0x3f800000	1.0
105	0x3f800000	1.0
106	0x3f800000	1.0
107	0x3f800000	1.0
108	0x3f800000	1.0
109	0x3f800000	1.0
110	0x3f800000	1.0
111	0x3f800000	1.0
112	0x3f800000	1.0
113	0x3f800000	1.0
114	0x3f800000	1.0
115	0x3f800000	1.0
116	0x3f800000	1.0
117	0x3f800000	1.0
118	0x3f800000	1.0
119	0x3f800000	1.0
120	0x3f800000	1.0
121	0x3f800000	1.0
122	0x3f800000	1.0
123	0x3f800000	1.0
124	0x3f800000	1.0
125	0x3f800000	1.0
126	0x3f800000	1.0
127	0x3f800000	1.0
128	0xbdf6cc7e	-0.120507225
129	0xbda54d41	-0.08071376
130	0x3d315403	0.04329301
131	0xbdea41a7	-0.114383034
132	0x3c1eb1aa	0.009685913
133	0xbda2b1bd	-0.07944057
134	0xbdf216a4	-0.118207246
135	0xbe6cf97a	-0.23142043
136	0xbe0e3c79	-0.13890256
137	0xbd880dfa	-0.06643291
138	0xbde4bf20	-0.11169267
139	0x3e0c2ba4	0.13688523
140	0x3d9408ca	0.07228239
141	0x3d30d833	0.043174934
142	0xbddd7939	-0.10814137
143	0x3d6af716	0.057364546
144	0x3daf0c59	0.08547277
145	0x3db86857	0.09004276
146	0x3daa1333	0.08304443
147	0xbdc88440	-0.0979085
148	0xbdd4cc17	-0.103904895
149	0xbe0e10e4	-0.13873631
150	0x3d0a221e	0.033723943
151	0xbcdc86c1	-0.026919724
152	0x3c8f0d27	0.017462326
153	0xbd25e827	-0.0405046
154	0x3cf9363b	0.030421367
155	0xbd04add6	-0.032392345
156	0x3db3c8e1	0.08778549
157	0xbd476c43	-0.04868723
158	0xbce6447c	-0.028108828
159	0x3c729b04	0.014807466
160	0xbb2b4283	-0.0026132173
161	0xbd32dfb9	-0.04367039
162	0xbc214947	-0.009844131
163	0x3cb1befa	0.02169751
164	0xbd046b93	-0.032329153
165	0x3d519abb	0.051172953
166	0xbdc98da0	-0.09841466
167	0xbd7eaca1	-0.06217635
168	0x3d612726	0.054968975
169	0xbdb5250b	-0.08844956
170	0x3da2b69f	0.079449885
171	0xbdc10a8c	-0.0942584
172	0xbd75d8b8	-0.060021132
173	0xbda24f7f	-0.07925319
174	0x3cceb705	0.025233755
175	0x3c342faa	0.010997692
176	0xbd9302d1	-0.071782716
177	0xbe0a5112	-0.13507488
178	0x3dea819b	0.114505015
179	0xbd5f386e	-0.054497175
180	0xba9b97d7	-0.0011870813
181	0x3d8284dc	0.06372997
182	0xbcad7e5e	-0.02117842
183	0xbdcfc1a1	-0.10144354
184	0xbdd4c677	-0.10389417
185	0xbcdc1edb	-0.026870182
186	0xbc82ac41	-0.015951278
187	0xbca845c7	-0.020541085
188	0x3d3cbb7e	0.046077244
189	0xbd601bbb	-0.054713946
190	0x3d4d9b64	0.05019702
191	0xbd0bd772	-0.03414101
192	0xbcca3dc5	-0.024687657
193	0xbcbe8f29	-0.023261623
194	0xbc485edb	-0.012229647
195	0x3c6b16de	0.014348714
196	0xbc60ce74	-0.013721097
197	0x3c978225	0.018494675
198	0x3c75e618	0.015008472
199	0x3d372ec7	0.044722345
200	0xbb373fc6	-0.0027961596
201	0xbb8d9882	-0.004321159
202	0xbc10fd2a	-0.0088494215
203	0xba8d98b5	-0.0010802957
204	0x3bd59262	0.0065176943
205	0xbb94d2fc	-0.004541753
206	0x3b0afd67	0.0021208168
207	0x3b13a0d2	0.0022526276
208	0x3be16ce0	0.006879434
209	0xba97c75f	-0.0011579803
210	0x3a90066b	0.0010988241
211	0x3c7ce2ab	0.015434901
212	0x3cac25d5	0.021014133
213	0x3cdfd4ec	0.027323209
214	0xbc1baee7	-0.009502149
215	0x391a4860	0.00014713546
216	0x3c874f2c	0.016517244
217	0xbc81639c	-0.015794568
218	0xbc9cd3bc	-0.019143932
219	0xbcc03c97	-0.023466391
220	0x3b22a5ec	0.0024818135
221	0x3a9d99c0	0.001202397
222	0xbc1230fa	-0.00892281
223	0x3ca65880	0.020305872
224	0xbb92e219	-0.0044825193
225	0x3b363503	0.0027802594
226	0xbc1da915	-0.009622832
227	0x3c07dce1	0.008292408
228	0xbba67638	-0.0050800107
229	0xbba360e2	-0.0049859146
230	0xbb4240a6	-0.0029640584
231	0x3bc28cd9	0.0059372005
232	0xbc3bda30	-0.011465594
233	0xbc0e74f2	-0.008694874
234	0xbbff8f63	-0.0077990755
235	0xbc0c6b30	-0.008570477
236	0x3c2543c2	0.0100869555
237	0x3c5c0ab9	0.013430291
238	0x3bc645af	0.0060507874
239	0x3c126594	0.008935351
240	0x3c18b3a0	0.00932017
241	0x3d06ce32	0.032911487
242	0x3c9c5772	0.019084666
243	0x3b88e7a5	0.004178005
244	0xbbbbf595	-0.005736063
245	0xbba7db8e	-0.0051226085
246	0xbbc8dbde	-0.006129726
247	0x3c26854f	0.010163619
248	0xbb98cbf3	-0.0046629845
249	0x3bda7056	0.0066662235
250	0xba5f66d0	-0.0008522095
251	0xbc42f492	-0.01189913
252	0x3c2b4706	0.010453945
253	0xbc696a55	-0.014246543
254	0x3babd630	0.005244039
255	0xbbf2e610	-0.0074126795

lstm_10/lstm_cell_11/bias f4 [256]
0	0x3c42cb9a	0.011889363
1	0x3d2b044f	0.041752156
2	0x3bbb59d1	0.005717494
3	0x3d409720	0.047019124
4	0x3bfc1f59	0.0076941666
5	0x3c64b0b4	0.013958145
6	0x3ccae7fa	0.024768818
7	0x3cee34ce	0.029077914
8	0x3cd8444d	0.026399756
9	0x3c61e466	0.013787365
10	0x3d26bfae	0.040710144
11	0x3d1af3be	0.037830107
12	0xbcbdb468	-0.023157313
13	0x3cd0f029	0.025505142
14	0x3ca9dcc8	0.02073516
15	0x3d755fcb	0.05990581
16	0x3da49d84	0.08037856
17	0x3dd5acf4	0.10433379
18	0x3cb5778b	0.02215173
19	0x3c6b728d	0.014370573
20	0x3c93577d	0.017986054
21	0x3d3fe773	0.046851587
22	0x3d10e259	0.035372112
23	0x3d8b872a	0.0681289
24	0x3ce1d3c9	0.027566807
25	0xba88d56b	-0.001043958
26	0x3e95dbac	0.2926916
27	0x3c1ffb8f	0.009764566
28	0x3c00809a	0.007843161
29	0x3ca239b7	0.019802911
30	0x3d0c6d09	0.03428367
31	0x3c955254	0.018227734
32	0x3cd819c7	0.02637948
33	0x3c766172	0.015037881
34	0x3d372f89	0.044723067
35	0x3c9247c6	0.01785649
36	0x3d95e37e	0.07318781
37	0x3c9b3d57	0.018950148
38	0x3bf73974	0.0075446907
39	0x3d280d03	0.041028034
40	0x3cc256dd	0.02372306
41	0x3d835daa	0.064143494
42	0xbc8d4481	-0.01724458
43	0xbc2273b7	-0.009915284
44	0x3d44247f	0.047886368
45	0x3c8649ea	0.016392667
46	0x3d08d1c5	0.033403177
47	0x3cce584e	0.025188591
48	0x3c543e37	0.012954286
49	0x3bf60377	0.0075077373
50	0x3d56733d	0.052355994
51	0x3c066dd1	0.008204893
52	0x3d8faf81	0.070158966
53	0x3d79d80b	0.06099705
54	0x3d2e87d5	0.04261001
55	0xba8c83c2	-0.0010720419
56	0xbc7dca74	-0.015490163
57	0x3c16655d	0.00917944
58	0x3cf32242	0.029679421
59	0xbac6acdc	-0.0015157717
60	0x3ccef8c8	0.025265113
61	0x3d213a2b	0.039362114
62	0x3cd3ce6c	0.025855266
63	0x3ca31601	0.019907953
64	0x3f800000	1.0
65	0x3f800000	1.0
66	0x3f800000	1.0
67	0x3f800000	1.0
68	0x3f800000	1.0
69	0x3f800000	1.0
70	0x3f800000	1.0
71	0x3f800000	1.0
72	0x3f800000	1.0
73	0x3f800000	1.0
74	0x3f800000	1.0
75	0x3f800000	1.0
76	0x3f800000	1.0
77	0x3f800000	1.0
78	0x3f800000	1.0
79	0x3f800000	1.0
80	0x3f800000	1.0
81	0x3f800000	1.0
82	0x3f800000	1.0
83	0x3f800000	1.0
84	0x3f800000	1.0
85	0x3f800000	1.0
86	0x3f800000	1.0
87	0x3f800000	1.0
88	0x3f800000	1.0
89	0x3f800000	1.0
90	0x3f800000	1.0
91	0x3f800000	1.0
92	0x3f800000	1.0
93	0x3f800000	1.0
94	0x3f800000	1.0
95	0x3f800000	1.0
96	0x3f800000	1.0
97	0x3f800000	1.0
98	0x3f800000	1.0
99	0x3f800000	1.0
100	0x3f800000	1.0
101	0x3f800000	1.0
102	0x3f800000	1.0
103	0x3f800000	1.0
104	0x3f800000	1.0
105	0x3f800000	1.0
106	0x3f800000	1.0
107	0x3f800000	1.0
108	0x3f800000	1.0
109	0x3f800000	1.0
110	0x3f800000	1.0
111	0x3f800000	1.0
112	0x3f800000	1.0
113	0x3f800000	1.0
114	0x3f800000	1.0
115	0x3f800000	1.0
116	0x3f800000	1.0
117	0x3f800000	1.0
118	0x3f800000	1.0
119	0x3f800000	1.0
120	0x3f800000	1.0
121	0x3f800000	1.0
122	0x3f800000	1.0
123	0x3f800000	1.0
124	0x3f800000	1.0
125	0x3f800000	1.0
126	0x3f800000	1.0
127	0x3f800000	1.0
128	0xbd5922cc	-0.0530117
129	0xbd6bc611	-0.057561938
130	0x3deacdde	0.11465047
131	0xbd38f623	-0.04515661
132	0x3c6eb279	0.014568918
133	0xbc753722	-0.014966758
134	0x3c8e6a95	0.017384807
135	0xbc65c7c7	-0.014024681
136	0xbd45f4e4	-0.04832925
137	0x3d30c3ac	0.043155357
138	0x3d9d91a8	0.07693797
139	0xbc8785d9	-0.016543316
140	0x3d9830f8	0.07431215
141	0xbdaf5937	-0.08561938
142	0xbd71e6e3	-0.05905808
143	0x3d8a091f	0.06740021
144	0xbdd39548	-0.103312075
145	0xbd9e429e	-0.0772755
146	0xbcc5cf7b	-0.024146786
147	0xbda6433d	-0.081182934
148	0x3d88f274	0.06686869
149	0xbd9aeccb	-0.07564696
150	0xbd3dd184	-0.046342388
151	0x3db8e2af	0.090276115
152	0xbd6e8d30	-0.058240116
153	0x3d9be904	0.076128036
154	0xbdb6db15	-0.08928505
155	0x3d8a4b3b	0.0675263
156	0x3d94ca6c	0.072651714
157	0x3d8b20d7	0.06793373
158	0xbd00b891	-0.031426016
159	0x3d59e7e6	0.05319967
160	0xbdbc7e86	-0.0920382
161	0x3c1287fc	0.008943554
162	0xbdeb742a	-0.11496766
163	0x3b81a710	0.003956683
164	0x3db9eae8	0.09078008
165	0xbd37997a	-0.0448241
166	0x3d848caa	0.06472142
167	0xbdc24d3e	-0.09487389
168	0x3c8b4c84	0.017004259
169	0xbd981ab0	-0.07426965
170	0xbd3927b6	-0.045203887
171	0xbdc074c4	-0.09397271
172	0xbdca3b0d	-0.09874544
173	0x3b9719c8	0.0046112277
174	0x3d97309d	0.07382319
175	0x3d9337a3	0.07188346
176	0xbb01c38c	-0.0019800393
177	0xbbc799d7	-0.006091337
178	0xbe2153d3	-0.15754633
179	0x3cc1af07	0.02364303
180	0x3d8563f3	0.065132044
181	0x3d9a869d	0.07545207
182	0xbd8d533b	-0.069006406
183	0xbd432d1f	-0.047650453
184	0x3d4a8ff3	0.049453687
185	0x3d544b64	0.05182971
186	0x3dfbda73	0.12297525
187	0x3d3e32fc	0.04643534
188	0x3c61f3cf	0.013791039
189	0xbd9c1d5c	-0.07622787
190	0xbca7eedc	-0.02049964
191	0x3c6efaad	0.014586133
192	0x3c849ae9	0.016187148
193	0x3d067335	0.032824714
194	0x3c0953ed	0.008381826
195	0x3d860a04	0.06544879
196	0x3c6b8eaf	0.01437728
197	0x3c97bc91	0.018522533
198	0x3c57aa17	0.013163111
199	0x3d0abb0e	0.033869796
200	0x3cf1c919	0.029514836
201	0x3c692f51	0.0142324725
202	0x3d3246f7	0.04352471
203	0x3d06f65a	0.032949783
204	0xbb273740	-0.002551511
205	0x3d0de5a9	0.03464285
206	0x3d0b5051	0.034012143
207	0x3d5228a9	0.051308308
208	0x3d98c513	0.07459464
209	0x3ddc3187	0.10751634
210	0x3d298c34	0.041393474
211	0x3c7354c4	0.014851753
212	0x3bfda005	0.007740023
213	0x3d0977c5	0.033561487
214	0x3cd27757	0.025691671
215	0x3d7d18dd	0.06179129
216	0x3d248eb0	0.04017514
217	0x3d1ada8e	0.037806086
218	0x3e8abc27	0.27096674
219	0x3c75ea97	0.015009544
220	0xbb8eebd9	-0.0043616113
221	0x3cd61814	0.026134528
222	0x3cd85c72	0.026411269
223	0x3c359b39	0.011084371
224	0x3cb4b41b	0.022058537
225	0x3c871f65	0.016494462
226	0x3d2b6f27	0.04185405
227	0x3c910967	0.017704679
228	0x3daf66e3	0.08564546
229	0x3c81a431	0.015825363
230	0x3cd51e7f	0.026015518
231	0x3cf5af98	0.029990956
232	0x3cac0857	0.02100007
233	0x3d6b2b1c	0.05741416
234	0x3aea8c26	0.0017894551
235	0x3cba0c52	0.022710953
236	0x3d47c645	0.04877307
237	0x3ccff5b2	0.025385711
238	0x3d1dc4f9	0.038517926
239	0x3ce382b2	0.027772281
240	0x3c939150	0.018013626
241	0x3c92c7dd	0.017917568
242	0x3d9affde	0.07568334
243	0x3c5c7931	0.013456629
244	0x3d8b00f1	0.06787289
245	0x3d802443	0.062569164
246	0x3cf331ec	0.02968689
247	0x3969601c	0.00022256415
248	0xbd4b221d	-0.04959308
249	0x3c0dc08f	0.008651867
250	0x3d109897	0.03530177
251	0xbc529601	-0.0128531465
252	0x3ca228a9	0.019794779
253	0x3d452a4e	0.048136048
254	0x3d14a6a9	0.036291752
255	0x3c8b367a	0.01699375

sequential_2/time_distributed_3/dense_3/MatMul i1 [21, 64] scale=0.0030141575 zero_point=0
0	0x37	0.16577867
1	0x32	0.15070787
2	0xb1	-0.23811844
3	0x2e	0.13865125
4	0xb0	-0.2411326
5	0x24	0.108509675
6	0x18	0.07233978
7	0x20	0.09645304
8	0x41	0.19592024
9	0x1b	0.08138225
10	0x0f	0.045212362
11	0x9e	-0.29538745
12	0xc2	-0.18687777
13	0xc2	-0.18687777
14	0x16	0.06631146
15	0xe8	-0.07233978
16	0xd9	-0.11755215
17	0xe2	-0.090424724
18	0xe7	-0.075353935
19	0x1f	0.093438886
20	0x17	0.069325626
21	0x1e	0.090424724
22	0xdb	-0.11152383
23	0x3e	0.18687777
24	0xb5	-0.22606182
25	0x33	0.15372203
26	0x57	0.2622317
27	0x0d	0.03918405
28	0xa6	-0.27127418
29	0x58	0.26524585
30	0xaf	-0.24414676
31	0xcf	-0.14769372
32	0x15	0.06329731
33	0x27	0.11755215
34	0x4e	0.2351043
35	0xad	-0.2501751
36	0x27	0.11755215
37	0xac	-0.25318924
38	0x0d	0.03918405
39	0x4b	0.22606182
40	0xa9	-0.2622317
41	0x1e	0.090424724
42	0xb5	-0.22606182
43	0x1f	0.093438886
44	0x50	0.2411326
45	0x26	0.114537984
46	0xcd	-0.15372203
47	0x3e	0.18687777
48	0x2c	0.13262293
49	0x0b	0.03315573
50	0xca	-0.1627645
51	0x2f	0.1416654
52	0xdf	-0.099467196
53	0xe3	-0.08741057
54	0x1b	0.08138225
55	0x37	0.16577867
56	0x28	0.1205663
57	0x38	0.16879281
58	0xa8	-0.26524585
59	0x33	0.15372203
60	0xd3	-0.13563709
61	0x54	0.25318924
62	0xcd	-0.15372203
63	0x3f	0.18989192
64	0x43	0.20194855
65	0x08	0.02411326
66	0xe0	-0.09645304
67	0x3c	0.18084945
68	0xa7	-0.26826003
69	0x4c	0.22907597
70	0x02	0.006028315
71	0x38	0.16879281
72	0x24	0.108509675
73	0x3d	0.18386361
74	0x58	0.26524585
75	0xbc	-0.20496272
76	0xc5	-0.1778353
77	0xbd	-0.20194855
78	0x0b	0.03315573
79	0xbf	-0.19592024
80	0xdb	-0.11152383
81	0xc7	-0.17180698
82	0xda	-0.114537984
83	0x20	0.09645304
84	0x1e	0.090424724
85	0x54	0.25318924
86	0xc2	-0.18687777
87	0x4a	0.22304766
88	0xf8	-0.02411326
89	0x3a	0.17482114
90	0x24	0.108509675
91	0x4f	0.23811844
92	0xff	-0.0030141575
93	0x26	0.114537984
94	0xb8	-0.21701935
95	0xc4	-0.18084945
96	0x3f	0.18989192
97	0x69	0.31648654
98	0x33	0.15372203
99	0xd1	-0.1416654
100	0x29	0.123580456
101	0xd3	-0.13563709
102	0x27	0.11755215
103	0x2d	0.13563709
104	0xe6	-0.0783681
105	0x34	0.1567362
106	0xba	-0.21099102
107	0x58	0.26524585
108	0x12	0.054254837
109	0x21	0.099467196
110	0xdd	-0.10549551
111	0x2e	0.13865125
112	0x3d	0.18386361
113	0xfd	-0.009042473
114	0xdc	-0.108509675
115	0x1e	0.090424724
116	0xbc	-0.20496272
117	0xc6	-0.17482114
118	0x1f	0.093438886
119	0x38	0.16879281
120	0x51	0.24414676
121	0x0f	0.045212362
122	0xbc	-0.20496272
123	0x40	0.19290608
124	0xb1	-0.23811844
125	0x26	0.114537984
126	0xd1	-0.1416654
127	0x35	0.15975034
128	0x1f	0.093438886
129	0xfc	-0.01205663
130	0xd2	-0.13865125
131	0x15	0.06329731
132	0xe0	-0.09645304
133	0x41	0.19592024
134	0x0e	0.042198204
135	0xfb	-0.015070788
136	0x31	0.14769372
137	0x5a	0.27127418
138	0x32	0.15070787
139	0x0a	0.030141575
140	0xc3	-0.18386361
141	0xbe	-0.19893439
142	0x26	0.114537984
143	0xce	-0.15070787
144	0xcc	-0.1567362
145	0xe2	-0.090424724
146	0xcd	-0.15372203
147	0x10	0.04822652
148	0x24	0.108509675
149	0x17	0.069325626
150	0xcf	-0.14769372
151	0x53	0.2501751
152	0xb2	-0.2351043
153	0x22	0.10248136
154	0x71	0.3405998
155	0x22	0.10248136
156	0xc0	-0.19290608
157	0x0f	0.045212362
158	0xab	-0.25620338
159	0x9d	-0.2984016
160	0x13	0.057268992
161	0x37	0.16577867
162	0x48	0.21701935
163	0xa2	-0.2833308
164	0x3f	0.18989192
165	0xd3	-0.13563709
166	0x28	0.1205663
167	0x3d	0.18386361
168	0xb0	-0.2411326
169	0x17	0.069325626
170	0xc1	-0.18989192
171	0xfa	-0.018084945
172	0x31	0.14769372
173	0x34	0.1567362
174	0xbf	-0.19592024
175	0x4a	0.22304766
176	0x24	0.108509675
177	0x34	0.1567362
178	0xf5	-0.03315573
179	0x41	0.19592024
180	0xb1	-0.23811844
181	0xb9	-0.21400519
182	0x56	0.25921756
183	0x35	0.15975034
184	0x17	0.069325626
185	0x32	0.15070787
186	0xc2	-0.18687777
187	0x0c	0.03616989
188	0xb3	-0.23209013
189	0x44	0.20496272
190	0xba	-0.21099102
191	0x54	0.25318924
192	0x53	0.2501751
193	0x1f	0.093438886
194	0xb4	-0.22907597
195	0x17	0.069325626
196	0xd5	-0.12960878
197	0x2e	0.13865125
198	0xff	-0.0030141575
199	0xff	-0.0030141575
200	0x4e	0.2351043
201	0x39	0.17180698
202	0x42	0.19893439
203	0x0d	0.03918405
204	0xc9	-0.16577867
205	0xf3	-0.03918405
206	0x50	0.2411326
207	0xd7	-0.123580456
208	0xc0	-0.19290608
209	0xc2	-0.18687777
210	0xf0	-0.04822652
211	0x44	0.20496272
212	0x47	0.21400519
213	0x20	0.09645304
214	0xc6	-0.17482114
215	0x0f	0.045212362
216	0xba	-0.21099102
217	0x2f	0.1416654
218	0x26	0.114537984
219	0x59	0.26826003
220	0xd9	-0.11755215
221	0x3d	0.18386361
222	0xb5	-0.22606182
223	0xcb	-0.15975034
224	0x35	0.15975034
225	0x1c	0.08439641
226	0x48	0.21701935
227	0xbe	-0.19893439
228	0x30	0.14467956
229	0xe4	-0.08439641
230	0x3a	0.17482114
231	0x24	0.108509675
232	0xee	-0.054254837
233	0x19	0.075353935
234	0xd4	-0.13262293
235	0x1d	0.08741057
236	0x42	0.19893439
237	0x26	0.114537984
238	0xce	-0.15070787
239	0x47	0.21400519
240	0x32	0.15070787
241	0x52	0.24716091
242	0xdf	-0.099467196
243	0x2d	0.13563709
244	0xaf	-0.24414676
245	0xe0	-0.09645304
246	0x3a	0.17482114
247	0x32	0.15070787
248	0x2e	0.13865125
249	0x41	0.19592024
250	0x9e	-0.29538745
251	0x22	0.10248136
252	0xb1	-0.23811844
253	0x54	0.25318924
254	0xca	-0.1627645
255	0x29	0.123580456

lstm_10/lstm_cell_11/bias1 f4 [256]
0	0x3c42cb9a	0.011889363
1	0x3d2b044f	0.041752156
2	0x3bbb59d1	0.005717494
3	0x3d409720	0.047019124
4	0x3bfc1f59	0.0076941666
5	0x3c64b0b4	0.013958145
6	0x3ccae7fa	0.024768818
7	0x3cee34ce	0.029077914
8	0x3cd8444d	0.026399756
9	0x3c61e466	0.013787365
10	0x3d26bfae	0.040710144
11	0x3d1af3be	0.037830107
12	0xbcbdb468	-0.023157313
13	0x3cd0f029	0.025505142
14	0x3ca9dcc8	0.02073516
15	0x3d755fcb	0.05990581
16	0x3da49d84	0.08037856
17	0x3dd5acf4	0.10433379
18	0x3cb5778b	0.02215173
19	0x3c6b728d	0.014370573
20	0x3c93577d	0.017986054
21	0x3d3fe773	0.046851587
22	0x3d10e259	0.035372112
23	0x3d8b872a	0.0681289
24	0x3ce1d3c9	0.027566807
25	0xba88d56b	-0.001043958
26	0x3e95dbac	0.2926916
27	0x3c1ffb8f	0.009764566
28	0x3c00809a	0.007843161
29	0x3ca239b7	0.019802911
30	0x3d0c6d09	0.03428367
31	0x3c955254	0.018227734
32	0x3cd819c7	0.02637948
33	0x3c766172	0.015037881
34	0x3d372f89	0.044723067
35	0x3c9247c6	0.01785649
36	0x3d95e37e	0.07318781
37	0x3c9b3d57	0.018950148
38	0x3bf73974	0.0075446907
39	0x3d280d03	0.041028034
40	0x3cc256dd	0.02372306
41	0x3d835daa	0.064143494
42	0xbc8d4481	-0.01724458
43	0xbc2273b7	-0.009915284
44	0x3d44247f	0.047886368
45	0x3c8649ea	0.016392667
46	0x3d08d1c5	0.033403177
47	0x3cce584e	0.025188591
48	0x3c543e37	0.012954286
49	0x3bf60377	0.0075077373
50	0x3d56733d	0.052355994
51	0x3c066dd1	0.008204893
52	0x3d8faf81	0.070158966
53	0x3d79d80b	0.06099705
54	0x3d2e87d5	0.04261001
55	0xba8c83c2	-0.0010720419
56	0xbc7dca74	-0.015490163
57	0x3c16655d	0.00917944
58	0x3cf32242	0.029679421
59	0xbac6acdc	-0.0015157717
60	0x3ccef8c8	0.025265113
61	0x3d213a2b	0.039362114
62	0x3cd3ce6c	0.025855266
63	0x3ca31601	0.019907953
64	0x3f800000	1.0
65	0x3f800000	1.0
66	0x3f800000	1.0
67	0x3f800000	1.0
68	0x3f800000	1.0
69	0x3f800000	1.0
70	0x3f800000	1.0
71	0x3f800000	1.0
72	0x3f800000	1.0
73	0x3f800000	1.0
74	0x3f800000	1.0
75	0x3f800000	1.0
76	0x3f800000	1.0
77	0x3f800000	1.0
78	0x3f800000	1.0
79	0x3f800000	1.0
80	0x3f800000	1.0
81	0x3f800000	1.0
82	0x3f800000	1.0
83	0x3f800000	1.0
84	0x3f800000	1.0
85	0x3f800000	1.0
86	0x3f800000	1.0
87	0x3f800000	1.0
88	0x3f800000	1.0
89	0x3f800000	1.0
90	0x3f800000	1.0
91	0x3f800000	1.0
92	0x3f800000	1.0
93	0x3f800000	1.0
94	0x3f800000	1.0
95	0x3f800000	1.0
96	0x3f800000	1.0
97	0x3f800000	1.0
98	0x3f800000	1.0
99	0x3f800000	1.0
100	0x3f800000	1.0
101	0x3f800000	1.0
102	0x3f800000	1.0
103	0x3f800000	1.0
104	0x3f800000	1.0
105	0x3f800000	1.0
106	0x3f800000	1.0
107	0x3f800000	1.0
108	0x3f800000	1.0
109	0x3f800000	1.0
110	0x3f800000	1.0
111	0x3f800000	1.0
112	0x3f800000	1.0
113	0x3f800000	1.0
114	0x3f800000	1.0
115	0x3f800000	1.0
116	0x3f800000	1.0
117	0x3f800000	1.0
118	0x3f800000	1.0
119	0x3f800000	1.0
120	0x3f800000	1.0
121	0x3f800000	1.0
122	0x3f800000	1.0
123	0x3f800000	1.0
124	0x3f800000	1.0
125	0x3f800000	1.0
126	0x3f800000	1.0
127	0x3f800000	1.0
128	0xbd5922cc	-0.0530117
129	0xbd6bc611	-0.057561938
130	0x3deacdde	0.11465047
131	0xbd38f623	-0.04515661
132	0x3c6eb279	0.014568918
133	0xbc753722	-0.014966758
134	0x3c8e6a95	0.017384807
135	0xbc65c7c7	-0.014024681
136	0xbd45f4e4	-0.04832925
137	0x3d30c3ac	0.043155357
138	0x3d9d91a8	0.07693797
139	0xbc8785d9	-0.016543316
140	0x3d9830f8	0.07431215
141	0xbdaf5937	-0.08561938
142	0xbd71e6e3	-0.05905808
143	0x3d8a091f	0.06740021
144	0xbdd39548	-0.103312075
145	0xbd9e429e	-0.0772755
146	0xbcc5cf7b	-0.024146786
147	0xbda6433d	-0.081182934
148	0x3d88f274	0.06686869
149	0xbd9aeccb	-0.07564696
150	0xbd3dd184	-0.046342388
151	0x3db8e2af	0.090276115
152	0xbd6e8d30	-0.058240116
153	0x3d9be904	0.076128036
154	0xbdb6db15	-0.08928505
155	0x3d8a4b3b	0.0675263
156	0x3d94ca6c	0.072651714
157	0x3d8b20d7	0.06793373
158	0xbd00b891	-0.031426016
159	0x3d59e7e6	0.05319967
160	0xbdbc7e86	-0.0920382
161	0x3c1287fc	0.008943554
162	0xbdeb742a	-0.11496766
163	0x3b81a710	0.003956683
164	0x3db9eae8	0.09078008
165	0xbd37997a	-0.0448241
166	0x3d848caa	0.06472142
167	0xbdc24d3e	-0.09487389
168	0x3c8b4c84	0.017004259
169	0xbd981ab0	-0.07426965
170	0xbd3927b6	-0.045203887
171	0xbdc074c4	-0.09397271
172	0xbdca3b0d	-0.09874544
173	0x3b9719c8	0.0046112277
174	0x3d97309d	0.07382319
175	0x3d9337a3	0.07188346
176	0xbb01c38c	-0.0019800393
177	0xbbc799d7	-0.006091337
178	0xbe2153d3	-0.15754633
179	0x3cc1af07	0.02364303
180	0x3d8563f3	0.065132044
181	0x3d9a869d	0.07545207
182	0xbd8d533b	-0.069006406
183	0xbd432d1f	-0.047650453
184	0x3d4a8ff3	0.049453687
185	0x3d544b64	0.05182971
186	0x3dfbda73	0.12297525
187	0x3d3e32fc	0.04643534
188	0x3c61f3cf	0.013791039
189	0xbd9c1d5c	-0.07622787
190	0xbca7eedc	-0.02049964
191	0x3c6efaad	0.014586133
192	0x3c849ae9	0.016187148
193	0x3d067335	0.032824714
194	0x3c0953ed	0.008381826
195	0x3d860a04	0.06544879
196	0x3c6b8eaf	0.01437728
197	0x3c97bc91	0.018522533
198	0x3c57aa17	0.013163111
199	0x3d0abb0e	0.033869796
200	0x3cf1c919	0.029514836
201	0x3c692f51	0.0142324725
202	0x3d3246f7	0.04352471
203	0x3d06f65a	0.032949783
204	0xbb273740	-0.002551511
205	0x3d0de5a9	0.03464285
206	0x3d0b5051	0.034012143
207	0x3d5228a9	0.051308308
208	0x3d98c513	0.07459464
209	0x3ddc3187	0.10751634
210	0x3d298c34	0.041393474
211	0x3c7354c4	0.014851753
212	0x3bfda005	0.007740023
213	0x3d0977c5	0.033561487
214	0x3cd27757	0.025691671
215	0x3d7d18dd	0.06179129
216	0x3d248eb0	0.04017514
217	0x3d1ada8e	0.037806086
218	0x3e8abc27	0.27096674
219	0x3c75ea97	0.015009544
220	0xbb8eebd9	-0.0043616113
221	0x3cd61814	0.026134528
222	0x3cd85c72	0.026411269
223	0x3c359b39	0.011084371
224	0x3cb4b41b	0.022058537
225	0x3c871f65	0.016494462
226	0x3d2b6f27	0.04185405
227	0x3c910967	0.017704679
228	0x3daf66e3	0.08564546
229	0x3c81a431	0.015825363
230	0x3cd51e7f	0.026015518
231	0x3cf5af98	0.029990956
232	0x3cac0857	0.02100007
233	0x3d6b2b1c	0.05741416
234	0x3aea8c26	0.0017894551
235	0x3cba0c52	0.022710953
236	0x3d47c645	0.04877307
237	0x3ccff5b2	0.025385711
238	0x3d1dc4f9	0.038517926
239	0x3ce382b2	0.027772281
240	0x3c939150	0.018013626
241	0x3c92c7dd	0.017917568
242	0x3d9affde	0.07568334
243	0x3c5c7931	0.013456629
244	0x3d8b00f1	0.06787289
245	0x3d802443	0.062569164
246	0x3cf331ec	0.02968689
247	0x3969601c	0.00022256415
248	0xbd4b221d	-0.04959308
249	0x3c0dc08f	0.008651867
250	0x3d109897	0.03530177
251	0xbc529601	-0.0128531465
252	0x3ca228a9	0.019794779
253	0x3d452a4e	0.048136048
254	0x3d14a6a9	0.036291752
255	0x3c8b367a	0.01699375

while/MatMul_1 i1 [256, 64] scale=0.0020279589 zero_point=0
0	0x03	0.006083877
1	0xd9	-0.079090394
2	0xfc	-0.008111835
3	0x08	0.01622367
4	0xd7	-0.08314631
5	0xd1	-0.09531406
6	0x1e	0.060838766
7	0xe8	-0.048671015
8	0x0e	0.028391425
9	0x23	0.07097856
10	0xc5	-0.119649574
11	0xc7	-0.11559366
12	0x21	0.06692264
13	0xf5	-0.022307547
14	0x14	0.040559176
15	0xdb	-0.07503448
16	0xf3	-0.026363466
17	0x0d	0.026363466
18	0x2d	0.091258146
19	0x2e	0.093286105
20	0xf0	-0.03244734
21	0x36	0.10950978
22	0xe8	-0.048671015
23	0x16	0.044615094
24	0x22	0.0689506
25	0xf8	-0.01622367
26	0x11	0.0344753
27	0x00	0.0
28	0x23	0.07097856
29	0xf0	-0.03244734
30	0x1a	0.052726932
31	0x1c	0.05678285
32	0xfb	-0.010139794
33	0x09	0.01825163
34	0xf4	-0.024335507
35	0x1e	0.060838766
36	0x07	0.014195712
37	0x07	0.014195712
38	0xf7	-0.01825163
39	0x1d	0.058810808
40	0xfe	-0.0040559177
41	0xad	-0.16832058
42	0x08	0.01622367
43	0xfd	-0.006083877
44	0xef	-0.0344753
45	0x1f	0.062866725
46	0xf1	-0.030419383
47	0x1e	0.060838766
48	0xf0	-0.03244734
49	0xfa	-0.012167754
50	0xc6	-0.117621616
51	0x15	0.042587135
52	0xeb	-0.042587135
53	0xce	-0.10139795
54	0x00	0.0
55	0xfb	-0.010139794
56	0x1d	0.058810808
57	0xc7	-0.11559366
58	0x49	0.148041
59	0x0c	0.024335507
60	0xf5	-0.022307547
61	0x1f	0.062866725
62	0x0c	0.024335507
63	0xea	-0.044615094
64	0x1b	0.05475489
65	0xee	-0.03650326
66	0x3d	0.12370549
67	0x0a	0.020279588
68	0xe1	-0.062866725
69	0xff	-0.0020279589
70	0xd5	-0.08720223
71	0x0d	0.026363466
72	0xfa	-0.012167754
73	0x06	0.012167754
74	0xfd	-0.006083877
75	0x36	0.10950978
76	0xf8	-0.01622367
77	0x0c	0.024335507
78	0xfe	-0.0040559177
79	0x25	0.07503448
80	0xe3	-0.058810808
81	0xde	-0.0689506
82	0xea	-0.044615094
83	0xf8	-0.01622367
84	0xce	-0.10139795
85	0xf2	-0.028391425
86	0xcf	-0.09936999
87	0xfd	-0.006083877
88	0x04	0.008111835
89	0xf6	-0.020279588
90	0x0d	0.026363466
91	0xc6	-0.117621616
92	0xf4	-0.024335507
93	0xe9	-0.046643052
94	0x23	0.07097856
95	0xed	-0.038531218
96	0x3f	0.12776141
97	0x26	0.077062435
98	0x06	0.012167754
99	0xe0	-0.06489468
100	0xee	-0.03650326
101	0x04	0.008111835
102	0x15	0.042587135
103	0x2b	0.08720223
104	0xec	-0.040559176
105	0xfe	-0.0040559177
106	0x04	0.008111835
107	0x01	0.0020279589
108	0xf5	-0.022307547
109	0xfc	-0.008111835
110	0xf6	-0.020279588
111	0xef	-0.0344753
112	0xda	-0.077062435
113	0x01	0.0020279589
114	0xe5	-0.05475489
115	0x0f	0.030419383
116	0xd7	-0.08314631
117	0x26	0.077062435
118	0x03	0.006083877
119	0xfe	-0.0040559177
120	0xec	-0.040559176
121	0x17	0.046643052
122	0xf1	-0.030419383
123	0x11	0.0344753
124	0xf8	-0.01622367
125	0xd4	-0.08923019
126	0x0b	0.022307547
127	0x0b	0.022307547
128	0xd1	-0.09531406
129	0x18	0.048671015
130	0x21	0.06692264
131	0xf8	-0.01622367
132	0x14	0.040559176
133	0x00	0.0
134	0xff	-0.0020279589
135	0x06	0.012167754
136	0x38	0.1135657
137	0x2a	0.08517427
138	0xc4	-0.12167753
139	0x14	0.040559176
140	0xce	-0.10139795
141	0xc7	-0.11559366
142	0xda	-0.077062435
143	0xfc	-0.008111835
144	0x02	0.0040559177
145	0xff	-0.0020279589
146	0x02	0.0040559177
147	0x04	0.008111835
148	0xe9	-0.046643052
149	0xd4	-0.08923019
150	0xde	-0.0689506
151	0xeb	-0.042587135
152	0xc3	-0.12370549
153	0xf8	-0.01622367
154	0xf1	-0.030419383
155	0xff	-0.0020279589
156	0xf1	-0.030419383
157	0xf5	-0.022307547
158	0xdc	-0.07300652
159	0x19	0.050698973
160	0x3f	0.12776141
161	0x06	0.012167754
162	0x20	0.06489468
163	0xf8	-0.01622367
164	0x0a	0.020279588
165	0xf5	-0.022307547
166	0x0e	0.028391425
167	0x09	0.01825163
168	0x1a	0.052726932
169	0xfa	-0.012167754
170	0xde	-0.0689506
171	0xef	-0.0344753
172	0x09	0.01825163
173	0x1e	0.060838766
174	0x0e	0.028391425
175	0xed	-0.038531218
176	0xf6	-0.020279588
177	0xd3	-0.091258146
178	0xff	-0.0020279589
179	0x0d	0.026363466
180	0x09	0.01825163
181	0xe9	-0.046643052
182	0xb5	-0.15209691
183	0xdf	-0.06692264
184	0x2c	0.08923019
185	0x1e	0.060838766
186	0x25	0.07503448
187	0xea	-0.044615094
188	0x16	0.044615094
189	0xe9	-0.046643052
190	0xf6	-0.020279588
191	0x0b	0.022307547
192	0xff	-0.0020279589
193	0xe3	-0.058810808
194	0x0d	0.026363466
195	0xed	-0.038531218
196	0xe5	-0.05475489
197	0x26	0.077062435
198	0xcd	-0.103425905
199	0x03	0.006083877
200	0x31	0.09936999
201	0xbf	-0.13181733
202	0xea	-0.044615094
203	0xfd	-0.006083877
204	0xfb	-0.010139794
205	0xb0	-0.1622367
206	0x07	0.014195712
207	0x0a	0.020279588
208	0xee	-0.03650326
209	0x07	0.014195712
210	0x52	0.16629262
211	0xd7	-0.08314631
212	0x13	0.038531218
213	0xe4	-0.05678285
214	0xf1	-0.030419383
215	0x23	0.07097856
216	0x14	0.040559176
217	0x03	0.006083877
218	0x14	0.040559176
219	0xf2	-0.028391425
220	0x22	0.0689506
221	0xf6	-0.020279588
222	0x0e	0.028391425
223	0xed	-0.038531218
224	0x1e	0.060838766
225	0xee	-0.03650326
226	0xfb	-0.010139794
227	0xd6	-0.08517427
228	0x19	0.050698973
229	0x12	0.03650326
230	0x05	0.010139794
231	0x10	0.03244734
232	0x00	0.0
233	0xf5	-0.022307547
234	0xf1	-0.030419383
235	0x09	0.01825163
236	0xe9	-0.046643052
237	0xff	-0.0020279589
238	0x0c	0.024335507
239	0xdc	-0.07300652
240	0xde	-0.0689506
241	0x01	0.0020279589
242	0xe5	-0.05475489
243	0x3d	0.12370549
244	0x17	0.046643052
245	0x1a	0.052726932
246	0xec	-0.040559176
247	0x33	0.103425905
248	0x02	0.0040559177
249	0xf9	-0.014195712
250	0x08	0.01622367
251	0xe5	-0.05475489
252	0xe3	-0.058810808
253	0x16	0.044615094
254	0xf5	-0.022307547
255	0x0c	0.024335507

while/MatMul i1 [256, 21] scale=0.0036139085 zero_point=0
0	0xf8	-0.028911268
1	0xda	-0.13732852
2	0x16	0.07950599
3	0xde	-0.12287289
4	0x02	0.007227817
5	0xeb	-0.075892076
6	0xf5	-0.039752994
7	0xec	-0.07227817
8	0x15	0.075892076
9	0x1f	0.11203116
10	0x04	0.014455634
11	0xed	-0.06866426
12	0xd4	-0.15901197
13	0x20	0.11564507
14	0x22	0.12287289
15	0xd3	-0.16262588
16	0xdb	-0.13371462
17	0xd1	-0.1698537
18	0xf4	-0.0433669
19	0xe5	-0.09757553
20	0xe7	-0.090347715
21	0xe9	-0.0831199
22	0xfd	-0.010841725
23	0xdb	-0.13371462
24	0xda	-0.13732852
25	0x18	0.0867338
26	0xd9	-0.14094244
27	0xf6	-0.036139086
28	0xe5	-0.09757553
29	0xda	-0.13732852
30	0xd2	-0.1662398
31	0x01	0.0036139085
32	0xd8	-0.14455634
33	0xca	-0.19515106
34	0xe7	-0.090347715
35	0xca	-0.19515106
36	0xfc	-0.014455634
37	0x1a	0.09396162
38	0x01	0.0036139085
39	0x0a	0.036139086
40	0xdc	-0.13010071
41	0xf7	-0.032525178
42	0xdb	-0.13371462
43	0x13	0.06866426
44	0xf4	-0.0433669
45	0xd3	-0.16262588
46	0x04	0.014455634
47	0x06	0.02168345
48	0x0a	0.036139086
49	0x1d	0.104803346
50	0x19	0.090347715
51	0xf8	-0.028911268
52	0x16	0.07950599
53	0x1c	0.10118944
54	0x0e	0.05059472
55	0xd9	-0.14094244
56	0xdc	-0.13010071
57	0xdb	-0.13371462
58	0xe7	-0.090347715
59	0x06	0.02168345
60	0xf9	-0.02529736
61	0x11	0.061436445
62	0x15	0.075892076
63	0xe9	-0.0831199
64	0xf0	-0.057822537
65	0xfe	-0.007227817
66	0xd9	-0.14094244
67	0xe7	-0.090347715
68	0xd4	-0.15901197
69	0x24	0.13010071
70	0xf8	-0.028911268
71	0x09	0.032525178
72	0x0a	0.036139086
73	0xf2	-0.05059472
74	0xe9	-0.0831199
75	0xc2	-0.22406232
76	0xf4	-0.0433669
77	0xf4	-0.0433669
78	0xc9	-0.19876496
79	0xdc	-0.13010071
80	0xc4	-0.21683452
81	0x2c	0.15901197
82	0xfd	-0.010841725
83	0x09	0.032525178
84	0xd2	-0.1662398
85	0xf3	-0.04698081
86	0x13	0.06866426
87	0x1d	0.104803346
88	0x0f	0.05420863
89	0xff	-0.0036139085
90	0xf6	-0.036139086
91	0x13	0.06866426
92	0xd5	-0.15539807
93	0xd1	-0.1698537
94	0xd9	-0.14094244
95	0xf5	-0.039752994
96	0x19	0.090347715
97	0x20	0.11564507
98	0xef	-0.061436445
99	0xe5	-0.09757553
100	0xd2	-0.1662398
101	0x0b	0.039752994
102	0x2c	0.15901197
103	0xf8	-0.028911268
104	0x24	0.13010071
105	0x0d	0.04698081
106	0x05	0.018069543
107	0xd2	-0.1662398
108	0x16	0.07950599
109	0x1e	0.10841726
110	0x13	0.06866426
111	0xd4	-0.15901197
112	0x22	0.12287289
113	0xc7	-0.20599279
114	0xf4	-0.0433669
115	0x0d	0.04698081
116	0x07	0.02529736
117	0xe8	-0.0867338
118	0x1b	0.09757553
119	0xed	-0.06866426
120	0xf9	-0.02529736
121	0xe0	-0.11564507
122	0xd2	-0.1662398
123	0xe6	-0.09396162
124	0xf9	-0.02529736
125	0x04	0.014455634
126	0xf6	-0.036139086
127	0x0a	0.036139086
128	0xdd	-0.1264868
129	0xfb	-0.018069543
130	0xfb	-0.018069543
131	0xfb	-0.018069543
132	0xee	-0.065050356
133	0xdd	-0.1264868
134	0x02	0.007227817
135	0x10	0.057822537
136	0xd9	-0.14094244
137	0xe1	-0.11203116
138	0x11	0.061436445
139	0x10	0.057822537
140	0xd7	-0.14817025
141	0x0b	0.039752994
142	0xf1	-0.05420863
143	0xe9	-0.0831199
144	0xe7	-0.090347715
145	0x02	0.007227817
146	0x09	0.032525178
147	0xd5	-0.15539807
148	0xfe	-0.007227817
149	0xe8	-0.0867338
150	0x00	0.0
151	0xd3	-0.16262588
152	0x00	0.0
153	0x00	0.0
154	0x10	0.057822537
155	0x17	0.0831199
156	0xe5	-0.09757553
157	0x05	0.018069543
158	0x04	0.014455634
159	0xf7	-0.032525178
160	0xe8	-0.0867338
161	0xec	-0.07227817
162	0x0a	0.036139086
163	0xde	-0.12287289
164	0xd9	-0.14094244
165	0x0f	0.05420863
166	0x10	0.057822537
167	0xe8	-0.0867338
168	0x02	0.007227817
169	0xfd	-0.010841725
170	0x0d	0.04698081
171	0x14	0.07227817
172	0xda	-0.13732852
173	0x15	0.075892076
174	0xc6	-0.20960669
175	0x0b	0.039752994
176	0x08	0.028911268
177	0x12	0.065050356
178	0x15	0.075892076
179	0xeb	-0.075892076
180	0x02	0.007227817
181	0x15	0.075892076
182	0xe6	-0.09396162
183	0xfd	-0.010841725
184	0x10	0.057822537
185	0x0d	0.04698081
186	0x1f	0.11203116
187	0xda	-0.13732852
188	0x30	0.1734676
189	0x1b	0.09757553
190	0x1a	0.09396162
191	0xd5	-0.15539807
192	0xd3	-0.16262588
193	0x24	0.13010071
194	0xe9	-0.0831199
195	0xd5	-0.15539807
196	0x0f	0.05420863
197	0x08	0.028911268
198	0xd6	-0.15178415
199	0xed	-0.06866426
200	0xd0	-0.1734676
201	0xe5	-0.09757553
202	0x10	0.057822537
203	0xe4	-0.10118944
204	0x05	0.018069543
205	0x0b	0.039752994
206	0xef	-0.061436445
207	0x0e	0.05059472
208	0xd6	-0.15178415
209	0x17	0.0831199
210	0xfb	-0.018069543
211	0x07	0.02529736
212	0xf0	-0.057822537
213	0x10	0.057822537
214	0xf1	-0.05420863
215	0xde	-0.12287289
216	0x0f	0.05420863
217	0x06	0.02168345
218	0xdf	-0.119258985
219	0x0c	0.0433669
220	0xbe	-0.23851797
221	0xfd	-0.010841725
222	0xd7	-0.14817025
223	0xde	-0.12287289
224	0x05	0.018069543
225	0xe5	-0.09757553
226	0xf0	-0.057822537
227	0xcb	-0.19153716
228	0x20	0.11564507
229	0x0f	0.05420863
230	0x2b	0.15539807
231	0xfe	-0.007227817
232	0x18	0.0867338
233	0x09	0.032525178
234	0x08	0.028911268
235	0xfe	-0.007227817
236	0xcd	-0.18430933
237	0xee	-0.065050356
238	0xd1	-0.1698537
239	0x0e	0.05059472
240	0xcf	-0.17708153
241	0xfb	-0.018069543
242	0xf8	-0.028911268
243	0xd0	-0.1734676
244	0xdc	-0.13010071
245	0x0b	0.039752994
246	0x15	0.075892076
247	0xd4	-0.15901197
248	0xff	-0.0036139085
249	0xf4	-0.0433669
250	0xed	-0.06866426
251	0xfd	-0.010841725
252	0xeb	-0.075892076
253	0xe5	-0.09757553
254	0xe0	-0.11564507
255	0xee	-0.065050356

lstm_11/lstm_cell_12/bias1 f4 [256]
0	0xbcc51d82	-0.024061922
1	0xbbc09f3a	-0.0058783563
2	0xb9834f00	-0.00025045127
3	0x3cc28549	0.023745196
4	0xbc05cbca	-0.008166263
5	0x3bf55137	0.007486488
6	0x3bd6b829	0.0065527153
7	0x3d3e5690	0.04646927
8	0xbc238b95	-0.009982009
9	0x3bafe67f	0.0053680534
10	0x39affd20	0.00033567194
11	0x3aed8dd6	0.0018123935
12	0xbbde5cc0	-0.006785959
13	0xbb3cb4c8	-0.0028794277
14	0x3c9a2c12	0.018819842
15	0x3c1482a9	0.009064355
16	0x3c6e462a	0.014543096
17	0x3ca27654	0.019831814
18	0x3b84db02	0.004054428
19	0x3bb75a14	0.005595455
20	0x3ccca527	0.024981095
21	0x3c999139	0.018746005
22	0x3984716c	0.00025261508
23	0x3cbcbf8e	0.02304056
24	0x3bba8d1d	0.0056930915
25	0xbb817a97	-0.0039513814
26	0xbc86ea97	-0.016469283
27	0xbcc67b7c	-0.024228804
28	0x3c4ec285	0.012619619
29	0x3c00c9c5	0.007860606
30	0xbbe59010	-0.007005699
31	0x3ca8e727	0.020618035
32	0xbb0a3962	-0.0021091332
33	0x3c63a41e	0.013894109
34	0xbb805ff0	-0.0039176866
35	0x3d046cb4	0.03233023
36	0x3a29791f	0.0006464887
37	0x3c0bd05f	0.008533566
38	0xbbadd587	-0.0053049955
39	0x3c801bea	0.01563831
40	0x3b6e57d5	0.003636827
41	0xbc12e2fd	-0.008965251
42	0xbaf73de0	-0.0018863045
43	0x3ab0b8d7	0.0013482821
44	0x3c3d8fcf	0.011569931
45	0x3ce57b77	0.028012974
46	0x3c10a562	0.008828493
47	0x3cd6315b	0.026146581
48	0x3c385cf5	0.011252631
49	0x3d06440c	0.03277974
50	0x3c86eae3	0.016469425
51	0x3bde1aa9	0.0067780805
52	0x3b9d0ee9	0.004793037
53	0xbaf85aab	-0.001894792
54	0xbbe0ba23	-0.0068581267
55	0x3c5e685c	0.013574686
56	0xbc01be6e	-0.007918937
57	0x3bea2ee5	0.0071467035
58	0x3b8e0049	0.00433353
59	0xbc33f680	-0.010984063
60	0x3c170df0	0.009219632
61	0xbc7972a8	-0.01522509
62	0x3b3a883a	0.0028462545
63	0x3c3c2a4d	0.011484695
64	0x3f800000	1.0
65	0x3f800000	1.0
66	0x3f800000	1.0
67	0x3f800000	1.0
68	0x3f800000	1.0
69	0x3f800000	1.0
70	0x3f800000	1.0
71	0x3f800000	1.0
72	0x3f800000	1.0
73	0x3f800000	1.0
74	0x3f800000	1.0
75	0x3f800000	1.0
76	0x3f800000	1.0
77	0x3f800000	1.0
78	0x3f800000	1.0
79	0x3f800000	1.0
80	0x3f800000	1.0
81	0x3f800000	1.0
82	0x3f800000	1.0
83	0x3f800000	1.0
84	0x3f800000	1.0
85	0x3f800000	1.0
86	0x3f800000	1.0
87	0x3f800000	1.0
88	0x3f800000	1.0
89	0x3f800000	1.0
90	0x3f800000	1.0
91	0x3f800000	1.0
92	0x3f800000	1.0
93	0x3f800000	1.0
94	0x3f800000	1.0
95	0x3f800000	1.0
96	0x3f800000	1.0
97	0x3f800000	1.0
98	0x3f800000	1.0
99	0x3f800000	1.0
100	0x3f800000	1.0
101	0x3f800000	1.0
102	0x3f800000	1.0
103	0x3f800000	1.0
104	0x3f800000	1.0
105	0x3f800000	1.0
106	0x3f800000	1.0
107	0x3f800000	1.0
108	0x3f800000	1.0
109	0x3f800000	1.0
110	0x3f800000	1.0
111	0x3f800000	1.0
112	0x3f800000	1.0
113	0x3f800000	1.0
114	0x3f800000	1.0
115	0x3f800000	1.0
116	0x3f800000	1.0
117	0x3f800000	1.0
118	0x3f800000	1.0
119	0x3f800000	1.0
120	0x3f800000	1.0
121	0x3f800000	1.0
122	0x3f800000	1.0
123	0x3f800000	1.0
124	0x3f800000	1.0
125	0x3f800000	1.0
126	0x3f800000	1.0
127	0x3f800000	1.0
128	0xbdf6cc7e	-0.120507225
129	0xbda54d41	-0.08071376
130	0x3d315403	0.04329301
131	0xbdea41a7	-0.114383034
132	0x3c1eb1aa	0.009685913
133	0xbda2b1bd	-0.07944057
134	0xbdf216a4	-0.118207246
135	0xbe6cf97a	-0.23142043
136	0xbe0e3c79	-0.13890256
137	0xbd880dfa	-0.06643291
138	0xbde4bf20	-0.11169267
139	0x3e0c2ba4	0.13688523
140	0x3d9408ca	0.07228239
141	0x3d30d833	0.043174934
142	0xbddd7939	-0.10814137
143	0x3d6af716	0.057364546
144	0x3daf0c59	0.08547277
145	0x3db86857	0.09004276
146	0x3daa1333	0.08304443
147	0xbdc88440	-0.0979085
148	0xbdd4cc17	-0.103904895
149	0xbe0e10e4	-0.13873631
150	0x3d0a221e	0.033723943
151	0xbcdc86c1	-0.026919724
152	0x3c8f0d27	0.017462326
153	0xbd25e827	-0.0405046
154	0x3cf9363b	0.030421367
155	0xbd04add6	-0.032392345
156	0x3db3c8e1	0.08778549
157	0xbd476c43	-0.04868723
158	0xbce6447c	-0.028108828
159	0x3c729b04	0.014807466
160	0xbb2b4283	-0.0026132173
161	0xbd32dfb9	-0.04367039
162	0xbc214947	-0.009844131
163	0x3cb1befa	0.02169751
164	0xbd046b93	-0.032329153
165	0x3d519abb	0.051172953
166	0xbdc98da0	-0.09841466
167	0xbd7eaca1	-0.06217635
168	0x3d612726	0.054968975
169	0xbdb5250b	-0.08844956
170	0x3da2b69f	0.079449885
171	0xbdc10a8c	-0.0942584
172	0xbd75d8b8	-0.060021132
173	0xbda24f7f	-0.07925319
174	0x3cceb705	0.025233755
175	0x3c342faa	0.010997692
176	0xbd9302d1	-0.071782716
177	0xbe0a5112	-0.13507488
178	0x3dea819b	0.114505015
179	0xbd5f386e	-0.054497175
180	0xba9b97d7	-0.0011870813
181	0x3d8284dc	0.06372997
182	0xbcad7e5e	-0.02117842
183	0xbdcfc1a1	-0.10144354
184	0xbdd4c677	-0.10389417
185	0xbcdc1edb	-0.026870182
186	0xbc82ac41	-0.015951278
187	0xbca845c7	-0.020541085
188	0x3d3cbb7e	0.046077244
189	0xbd601bbb	-0.054713946
190	0x3d4d9b64	0.05019702
191	0xbd0bd772	-0.03414101
192	0xbcca3dc5	-0.024687657
193	0xbcbe8f29	-0.023261623
194	0xbc485edb	-0.012229647
195	0x3c6b16de	0.014348714
196	0xbc60ce74	-0.013721097
197	0x3c978225	0.018494675
198	0x3c75e618	0.015008472
199	0x3d372ec7	0.044722345
200	0xbb373fc6	-0.0027961596
201	0xbb8d9882	-0.004321159
202	0xbc10fd2a	-0.0088494215
203	0xba8d98b5	-0.0010802957
204	0x3bd59262	0.0065176943
205	0xbb94d2fc	-0.004541753
206	0x3b0afd67	0.0021208168
207	0x3b13a0d2	0.0022526276
208	0x3be16ce0	0.006879434
209	0xba97c75f	-0.0011579803
210	0x3a90066b	0.0010988241
211	0x3c7ce2ab	0.015434901
212	0x3cac25d5	0.021014133
213	0x3cdfd4ec	0.027323209
214	0xbc1baee7	-0.009502149
215	0x391a4860	0.00014713546
216	0x3c874f2c	0.016517244
217	0xbc81639c	-0.015794568
218	0xbc9cd3bc	-0.019143932
219	0xbcc03c97	-0.023466391
220	0x3b22a5ec	0.0024818135
221	0x3a9d99c0	0.001202397
222	0xbc1230fa	-0.00892281
223	0x3ca65880	0.020305872
224	0xbb92e219	-0.0044825193
225	0x3b363503	0.0027802594
226	0xbc1da915	-0.009622832
227	0x3c07dce1	0.008292408
228	0xbba67638	-0.0050800107
229	0xbba360e2	-0.0049859146
230	0xbb4240a6	-0.0029640584
231	0x3bc28cd9	0.0059372005
232	0xbc3bda30	-0.011465594
233	0xbc0e74f2	-0.008694874
234	0xbbff8f63	-0.0077990755
235	0xbc0c6b30	-0.008570477
236	0x3c2543c2	0.0100869555
237	0x3c5c0ab9	0.013430291
238	0x3bc645af	0.0060507874
239	0x3c126594	0.008935351
240	0x3c18b3a0	0.00932017
241	0x3d06ce32	0.032911487
242	0x3c9c5772	0.019084666
243	0x3b88e7a5	0.004178005
244	0xbbbbf595	-0.005736063
245	0xbba7db8e	-0.0051226085
246	0xbbc8dbde	-0.006129726
247	0x3c26854f	0.010163619
248	0xbb98cbf3	-0.0046629845
249	0x3bda7056	0.0066662235
250	0xba5f66d0	-0.0008522095
251	0xbc42f492	-0.01189913
252	0x3c2b4706	0.010453945
253	0xbc696a55	-0.014246543
254	0x3babd630	0.005244039
255	0xbbf2e610	-0.0074126795

while/MatMul_12 i1 [256, 64] scale=0.002115624 zero_point=0
0	0x02	0.004231248
1	0xce	-0.1057812
2	0xc6	-0.12270619
3	0x2a	0.088856205
4	0xe1	-0.06558435
5	0x05	0.01057812
6	0x18	0.050774977
7	0xd9	-0.08250934
8	0x27	0.08250934
9	0x24	0.076162465
10	0xdf	-0.06981559
11	0xe2	-0.063468724
12	0x08	0.016924992
13	0x11	0.035965607
14	0x36	0.1142437
15	0x0d	0.027503112
16	0xea	-0.04654373
17	0xd7	-0.08674058
18	0xf8	-0.016924992
19	0x03	0.006346872
20	0x1f	0.06558435
21	0xdb	-0.07827809
22	0x1a	0.055006225
23	0x01	0.002115624
24	0xf7	-0.019040616
25	0xe7	-0.0528906
26	0xf0	-0.033849984
27	0xfd	-0.006346872
28	0xf9	-0.014809368
29	0xcc	-0.11001245
30	0x28	0.08462496
31	0x01	0.002115624
32	0xed	-0.04019686
33	0xc6	-0.12270619
34	0x0d	0.027503112
35	0xf8	-0.016924992
36	0x04	0.008462496
37	0x1a	0.055006225
38	0xf8	-0.016924992
39	0x19	0.0528906
40	0x1f	0.06558435
41	0x01	0.002115624
42	0x0b	0.023271864
43	0xd6	-0.088856205
44	0xf2	-0.029618736
45	0xee	-0.038081232
46	0x0b	0.023271864
47	0xd6	-0.088856205
48	0xfd	-0.006346872
49	0x36	0.1142437
50	0xf3	-0.027503112
51	0x01	0.002115624
52	0xcb	-0.11212807
53	0xe0	-0.06769997
54	0x00	0.0
55	0xf0	-0.033849984
56	0xd6	-0.088856205
57	0xe3	-0.061353095
58	0x05	0.01057812
59	0xf6	-0.02115624
60	0xe9	-0.048659354
61	0xe4	-0.059237473
62	0xd8	-0.08462496
63	0xbb	-0.14597806
64	0xe1	-0.06558435
65	0xec	-0.04231248
66	0x2d	0.09520308
67	0x37	0.11635932
68	0x21	0.06981559
69	0xfe	-0.004231248
70	0x1a	0.055006225
71	0xf0	-0.033849984
72	0x1a	0.055006225
73	0xe4	-0.059237473
74	0x01	0.002115624
75	0x15	0.044428103
76	0xed	-0.04019686
77	0xd0	-0.10154995
78	0x24	0.076162465
79	0x1f	0.06558435
80	0x06	0.012693744
81	0x0f	0.031734362
82	0xe3	-0.061353095
83	0x00	0.0
84	0x04	0.008462496
85	0x40	0.13539994
86	0x0b	0.023271864
87	0x1f	0.06558435
88	0xe9	-0.048659354
89	0x21	0.06981559
90	0x0a	0.02115624
91	0xe0	-0.06769997
92	0xdf	-0.06981559
93	0xe0	-0.06769997
94	0x1b	0.05712185
95	0xfc	-0.008462496
96	0xf4	-0.025387488
97	0xf4	-0.025387488
98	0xd6	-0.088856205
99	0xf1	-0.031734362
100	0x1b	0.05712185
101	0xeb	-0.044428103
102	0xdf	-0.06981559
103	0x21	0.06981559
104	0xca	-0.1142437
105	0x29	0.08674058
106	0x22	0.07193121
107	0x28	0.08462496
108	0x28	0.08462496
109	0x37	0.11635932
110	0x1d	0.061353095
111	0xf5	-0.023271864
112	0x25	0.07827809
113	0x34	0.11001245
114	0xdd	-0.07404684
115	0xf0	-0.033849984
116	0xe8	-0.050774977
117	0xb8	-0.15232493
118	0x1a	0.055006225
119	0x1c	0.059237473
120	0xc9	-0.11635932
121	0xf9	-0.014809368
122	0x19	0.0528906
123	0xdc	-0.076162465
124	0xe9	-0.048659354
125	0x05	0.01057812
126	0xe5	-0.05712185
127	0xe9	-0.048659354
128	0x35	0.11212807
129	0x1d	0.061353095
130	0xe5	-0.05712185
131	0x29	0.08674058
132	0x3c	0.12693745
133	0xdf	-0.06981559
134	0xe9	-0.048659354
135	0x05	0.01057812
136	0x1e	0.063468724
137	0xf6	-0.02115624
138	0x3d	0.12905307
139	0x06	0.012693744
140	0xf6	-0.02115624
141	0x35	0.11212807
142	0x13	0.04019686
143	0x03	0.006346872
144	0xf7	-0.019040616
145	0x41	0.13751556
146	0xec	-0.04231248
147	0x18	0.050774977
148	0xfa	-0.012693744
149	0x07	0.014809368
150	0x15	0.044428103
151	0xfa	-0.012693744
152	0x24	0.076162465
153	0xf2	-0.029618736
154	0xf8	-0.016924992
155	0x1a	0.055006225
156	0xf8	-0.016924992
157	0xf9	-0.014809368
158	0xfc	-0.008462496
159	0x15	0.044428103
160	0x23	0.07404684
161	0x05	0.01057812
162	0xc0	-0.13539994
163	0x00	0.0
164	0x0b	0.023271864
165	0x01	0.002115624
166	0xda	-0.08039372
167	0xee	-0.038081232
168	0x00	0.0
169	0xed	-0.04019686
170	0xe4	-0.059237473
171	0x15	0.044428103
172	0x0a	0.02115624
173	0x1a	0.055006225
174	0xf5	-0.023271864
175	0x1a	0.055006225
176	0xe0	-0.06769997
177	0xec	-0.04231248
178	0x02	0.004231248
179	0xda	-0.08039372
180	0xbc	-0.14386243
181	0xea	-0.04654373
182	0x2b	0.090971835
183	0xef	-0.035965607
184	0xff	-0.002115624
185	0x1c	0.059237473
186	0x01	0.002115624
187	0x02	0.004231248
188	0x27	0.08250934
189	0x0e	0.029618736
190	0xef	-0.035965607
191	0xcc	-0.11001245
192	0xf0	-0.033849984
193	0xf5	-0.023271864
194	0xf2	-0.029618736
195	0x20	0.06769997
196	0xf4	-0.025387488
197	0x08	0.016924992
198	0xe9	-0.048659354
199	0x15	0.044428103
200	0x0c	0.025387488
201	0x10	0.033849984
202	0xf3	-0.027503112
203	0x39	0.12059057
204	0x20	0.06769997
205	0xf2	-0.029618736
206	0xf5	-0.023271864
207	0xcb	-0.11212807
208	0x08	0.016924992
209	0x0c	0.025387488
210	0x34	0.11001245
211	0x2e	0.09731871
212	0x2d	0.09520308
213	0xf2	-0.029618736
214	0x23	0.07404684
215	0x06	0.012693744
216	0x2b	0.090971835
217	0xf7	-0.019040616
218	0x03	0.006346872
219	0x09	0.019040616
220	0xe9	-0.048659354
221	0xf5	-0.023271864
222	0x01	0.002115624
223	0x03	0.006346872
224	0xdd	-0.07404684
225	0x15	0.044428103
226	0xe5	-0.05712185
227	0xe4	-0.059237473
228	0x05	0.01057812
229	0x04	0.008462496
230	0xf4	-0.025387488
231	0x01	0.002115624
232	0xe5	-0.05712185
233	0xef	-0.035965607
234	0x02	0.004231248
235	0xed	-0.04019686
236	0x02	0.004231248
237	0xe9	-0.048659354
238	0xff	-0.002115624
239	0xf3	-0.027503112
240	0x18	0.050774977
241	0xf2	-0.029618736
242	0x0f	0.031734362
243	0x1b	0.05712185
244	0xfa	-0.012693744
245	0xe0	-0.06769997
246	0xef	-0.035965607
247	0xfd	-0.006346872
248	0x3d	0.12905307
249	0xda	-0.08039372
250	0x22	0.07193121
251	0x08	0.016924992
252	0x41	0.13751556
253	0xc9	-0.11635932
254	0x11	0.035965607
255	0xe9	-0.048659354
