lstm995_ae_0801.tflite (tflite, 840960 bytes, 14 tensors)

lstm_53/lstm_cell_12/bias f4 [400]
0	0xb9f31844	-0.0004636665
1	0xbb021af6	-0.0019852496
2	0xb4f8d026	-4.6345048e-07
3	0xb7b40fdc	-2.1465057e-05
4	0xb1bd6e7c	-5.5131846e-09
5	0xbac1c1cc	-0.0014782487
6	0xba38ca99	-0.00070492324
7	0xbaedbc05	-0.0018137699
8	0xbb266af7	-0.0025393346
9	0xb4902f96	-2.6856713e-07
10	0xbb0e1641	-0.0021680745
11	0xb30ba74d	-3.251562e-08
12	0x3996d201	0.00028766695
13	0x00000000	0.0
14	0xb4fd327b	-4.7161652e-07
15	0xb88f1ae4	-6.82378e-05
16	0x00000000	0.0
17	0xbaafb3ee	-0.0013405064
18	0xbb0550e2	-0.00203424
19	0xba43613c	-0.0007453149
20	0xb1422b93	-2.8255485e-09
21	0xb505ba2f	-4.9817294e-07
22	0xb798dfa9	-1.8223962e-05
23	0xb0e3bc51	-1.6569947e-09
24	0xb6316bce	-2.6437806e-06
25	0xb88e29a5	-6.7788445e-05
26	0x3991fb26	0.00027843675
27	0x3a13bdae	0.00056358695
28	0x390e4519	0.00013567916
29	0xbaa3425e	-0.0012455692
30	0xb6f738ee	-7.367801e-06
31	0xbb05565f	-0.002034567
32	0xb5fbd17e	-1.8761928e-06
33	0xb81656b5	-3.584354e-05
34	0xb78008dc	-1.5262915e-05
35	0xb601e14c	-1.9353638e-06
36	0xbb0853fb	-0.002080201
37	0xbb18de4d	-0.002332586
38	0xb33ff632	-4.4694566e-08
39	0xb9850888	-0.00025374093
40	0xb61488e0	-2.213339e-06
41	0xb7172bd5	-9.010507e-06
42	0xb8d35fb5	-0.00010079091
43	0xba3fe183	-0.00073196756
44	0x00000000	0.0
45	0xb4ba6cce	-3.4724366e-07
46	0xb782cc0a	-1.559222e-05
47	0xbab95c14	-0.0014141821
48	0x39178768	0.00014450925
49	0xb4deba13	-4.148611e-07
50	0xb83a8db4	-4.4477827e-05
51	0xb52d4a08	-6.455525e-07
52	0xba6aa67e	-0.0008951201
53	0xbaa13c0b	-0.0012301219
54	0xb9f8e6af	-0.0004747412
55	0xb761e4d1	-1.3464321e-05
56	0xb8a6a78c	-7.946705e-05
57	0xb81afe98	-3.695357e-05
58	0xb36aa6df	-5.463414e-08
59	0xba1b380e	-0.00059211336
60	0xb5cb6c3f	-1.5156182e-06
61	0x00000000	0.0
62	0xb79f8ed2	-1.9020783e-05
63	0xba3bf485	-0.000716992
64	0xba1f3036	-0.00060725526
65	0xb27478c9	-1.4230133e-08
66	0xb6af320a	-5.2212317e-06
67	0xb9690ee9	-0.00022226166
68	0xb7dddd10	-2.6448193e-05
69	0xba6953d7	-0.0008900738
70	0xb44e3659	-1.9205017e-07
71	0x00000000	0.0
72	0xba0293fd	-0.00049811584
73	0x00000000	0.0
74	0xb842a9a7	-4.6411205e-05
75	0xbad37464	-0.001613271
76	0x00000000	0.0
77	0x380bfe4d	3.337702e-05
78	0xb819fb91	-3.6712332e-05
79	0xba9e217c	-0.0012064422
80	0xba5b611a	-0.0008368656
81	0xb7d0fd34	-2.491344e-05
82	0xb91a361d	-0.00014706743
83	0xb9c13b88	-0.00036856183
84	0xbb05e9fc	-0.0020433655
85	0xbb06986a	-0.0020537623
86	0xbab9ecd6	-0.0014184962
87	0xb85c4af0	-5.252188e-05
88	0xba5eec2b	-0.00085038197
89	0xb932db9b	-0.00017057212
90	0xb79b8aa2	-1.8541996e-05
91	0xb4c58573	-3.6791207e-07
92	0xb89854b3	-7.263701e-05
93	0xba398f04	-0.0007078501
94	0x00000000	0.0
95	0x00000000	0.0
96	0xb409021d	-1.2759888e-07
97	0xbb096195	-0.0020962704
98	0xb384b9ea	-6.1805466e-08
99	0xb92f5bdc	-0.00016723521
100	0x3f7ff8be	0.99988925
101	0x3f7fba42	0.9989358
102	0x3f800000	1.0
103	0x3f7fffaf	0.9999952
104	0x3f800000	1.0
105	0x3f7f9d4f	0.9984941
106	0x3f7fee64	0.9997313
107	0x3f7fa3b5	0.9985917
108	0x3f7f99d9	0.9984413
109	0x3f800000	1.0
110	0x3f7fb211	0.9988108
111	0x3f800000	1.0
112	0x3f800674	1.0001969
113	0x3f800000	1.0
114	0x3f7fffff	0.99999994
115	0x3f7ffecc	0.99998164
116	0x3f800000	1.0
117	0x3f7fd8e7	0.9994034
118	0x3f7f9d78	0.99849653
119	0x3f7fe73c	0.9996221
120	0x3f800000	1.0
121	0x3f800000	1.0
122	0x3f7fffb7	0.99999565
123	0x3f800000	1.0
124	0x3f800000	1.0
125	0x3f7ffecc	0.99998164
126	0x3f7ffb71	0.99993044
127	0x3f8015b6	1.0006626
128	0x3f7ffbee	0.9999379
129	0x3f7fbc79	0.9989696
130	0x3f7ffff4	0.9999993
131	0x3f7fa95c	0.99867797
132	0x3f7fffff	0.99999994
133	0x3f7fff63	0.99999064
134	0x3f7fffaf	0.9999952
135	0x3f800000	1.0
136	0x3f7f9668	0.99838877
137	0x3f7fa7e2	0.99865544
138	0x3f800000	1.0
139	0x3f7ffa74	0.99991536
140	0x3f7ffffb	0.9999997
141	0x3f7fffe0	0.9999981
142	0x3f7ffd87	0.9999623
143	0x3f7fe950	0.9996538
144	0x3f800000	1.0
145	0x3f7fffff	0.99999994
146	0x3f7fffc6	0.99999654
147	0x3f7fb9ca	0.99892867
148	0x3f80181e	1.000736
149	0x3f800000	1.0
150	0x3f7fff2a	0.99998724
151	0x3f800000	1.0
152	0x3f7fd93a	0.99940836
153	0x3f7fe1ac	0.9995372
154	0x3f7feee5	0.999739
155	0x3f7fffc7	0.9999966
156	0x3f7ffebb	0.9999806
157	0x3f7fff64	0.9999907
158	0x3f800000	1.0
159	0x3f7fec36	0.99969804
160	0x3f800000	1.0
161	0x3f800000	1.0
162	0x3f7fffd1	0.9999972
163	0x3f7fee0c	0.99972606
164	0x3f7ff199	0.99978024
165	0x3f800000	1.0
166	0x3f7fffe8	0.99999857
167	0x3f7ff536	0.9998354
168	0x3f7fff86	0.9999927
169	0x3f7fd50b	0.9993445
170	0x3f800000	1.0
171	0x3f800000	1.0
172	0x3f7fea69	0.99967057
173	0x3f800000	1.0
174	0x3f7fff2c	0.99998736
175	0x3f7fd3a1	0.99932295
176	0x3f800000	1.0
177	0x3f7ff2b2	0.999797
178	0x3f7fff4e	0.9999894
179	0x3f7fe058	0.99951696
180	0x3f7feb5f	0.9996852
181	0x3f7fff9b	0.999994
182	0x3f7ffd4a	0.99995863
183	0x3f7ffa18	0.9999099
184	0x3f7facb2	0.9987289
185	0x3f7fc24d	0.99905854
186	0x3f7fd452	0.9993335
187	0x3f7ffed6	0.99998224
188	0x3f7ff4fd	0.999832
189	0x3f7ffbe0	0.99993706
190	0x3f7fffb6	0.9999956
191	0x3f800000	1.0
192	0x3f7ffec0	0.9999809
193	0x3f7fedf0	0.9997244
194	0x3f800000	1.0
195	0x3f800000	1.0
196	0x3f800000	1.0
197	0x3f7f979a	0.998407
198	0x3f800000	1.0
199	0x3f7ffe8f	0.999978
200	0x3b4d4a18	0.003132468
201	0x3ab70ec6	0.0013966195
202	0xbbaf7da5	-0.005355554
203	0xbbc41438	-0.0059838556
204	0xbb7e532e	-0.0038806903
205	0x3ac733c6	0.0015197925
206	0xbb59ee42	-0.0033253585
207	0x3ad42b48	0.0016187215
208	0x3aa0952f	0.0012251491
209	0xbb7ddbc3	-0.0038735725
210	0x3a7af9ca	0.00095739646
211	0xbb688fd1	-0.0035486112
212	0x3c30e37f	0.010796427
213	0x00000000	0.0
214	0xbbb5b66c	-0.005545428
215	0xbbc3daf3	-0.0059770285
216	0x00000000	0.0
217	0x39bc6cf3	0.00035939328
218	0x3a31aea1	0.0006778036
219	0x3a453640	0.00075230375
220	0xbb0c8cc9	-0.002144622
221	0xbbb9bd99	-0.0056683538
222	0xbbc256ce	-0.005930758
223	0xba2483d0	-0.0006275745
224	0xba594d44	-0.00082894065
225	0xbbc3e1be	-0.0059778383
226	0x3b8e256b	0.0043379567
227	0x3c147f54	0.0090635605
228	0x3b500039	0.0031738414
229	0x3aabab74	0.0013097362
230	0xbbb34780	-0.00547117
231	0x3aa7312e	0.0012755746
232	0xbbb78b91	-0.0056013544
233	0xbbc437e5	-0.0059881085
234	0xbbc428d4	-0.0059863124
235	0xbba8fe57	-0.005157273
236	0x3ab17257	0.0013538104
237	0x3a792c78	0.00095052226
238	0xbb26013d	-0.0025330328
239	0xbbcc1b61	-0.0062288498
240	0xbbc137c6	-0.0058965413
241	0xbbc1f4a3	-0.0059190555
242	0xbb9a64ee	-0.004711739
243	0xb8fc9d54	-0.00012045601
244	0x00000000	0.0
245	0xbb773081	-0.003771812
246	0xbbc3de27	-0.0059774104
247	0x3abbff20	0.0014343001
248	0x3c026236	0.007957986
249	0xbbbd3d98	-0.005775165
250	0xbbc38d6a	-0.0059677856
251	0xbbbcd238	-0.0057623647
252	0x3a6fe387	0.00091510307
253	0xbbcf6d1a	-0.0063301446
254	0x397cc752	0.00024106845
255	0xbbc1b67d	-0.005911647

lstm_52/lstm_cell_11/bias f4 [400]
0	0x00000000	0.0
1	0xbaa5574a	-0.0012614515
2	0xb80cb756	-3.3549346e-05
3	0x00000000	0.0
4	0x33ea87df	1.0921189e-07
5	0x00000000	0.0
6	0xb8aab20a	-8.139394e-05
7	0xbad95f90	-0.0016584266
8	0xb5fa6667	-1.8656254e-06
9	0xb9351973	-0.00017270986
10	0xb7801aa4	-1.5271195e-05
11	0xb6979d3f	-4.5184565e-06
12	0xba388663	-0.0007039068
13	0xb51aba14	-5.764025e-07
14	0xb7df23da	-2.6600366e-05
15	0xb5ec080e	-1.7585714e-06
16	0xbac8ae57	-0.0015310746
17	0xbaa677c1	-0.0012700484
18	0xb6f79ced	-7.379442e-06
19	0xba8dcbd8	-0.0010818196
20	0xba8894eb	-0.0010420358
21	0xb80a60c3	-3.299188e-05
22	0xba83599d	-0.0010021214
23	0xafbef4c8	-3.4734726e-10
24	0xba8cce4e	-0.0010742636
25	0xb9b5ae17	-0.00034652717
26	0x00000000	0.0
27	0xba3f3c8e	-0.0007295095
28	0xb7e63810	-2.7444243e-05
29	0xba949646	-0.0011336289
30	0xb4e09972	-4.1834898e-07
31	0xb6ce5220	-6.148839e-06
32	0xb7c5ecbf	-2.3594474e-05
33	0xbae0e7c5	-0.0017158916
34	0xbab8919c	-0.0014081481
35	0xbb157d16	-0.0022810153
36	0x00000000	0.0
37	0xbab37db2	-0.0013694076
38	0xbac979e9	-0.0015371415
39	0xb6278108	-2.4960045e-06
40	0xb4876278	-2.5217355e-07
41	0xb9f90e24	-0.00047503517
42	0xb2fbf669	-2.93323e-08
43	0xb846a222	-4.7357877e-05
44	0x3a04bf5c	0.0005063915
45	0xb9cfd26b	-0.0003963889
46	0xb65927d0	-3.2358694e-06
47	0xb5a221fa	-1.2079829e-06
48	0xba2ef383	-0.00066738593
49	0xbaf543f5	-0.0018712269
50	0xba60f8d8	-0.00085820025
51	0xba21f150	-0.0006177621
52	0x00000000	0.0
53	0x00000000	0.0
54	0xb642b9a2	-2.9016305e-06
55	0x00000000	0.0
56	0xb7863adb	-1.6001452e-05
57	0x00000000	0.0
58	0xb8361ad1	-4.3417156e-05
59	0x00000000	0.0
60	0xba3e109b	-0.0007250399
61	0xbaf4d292	-0.0018678477
62	0xb2262c2a	-9.6725135e-09
63	0xbaf7828c	-0.001888351
64	0x00000000	0.0
65	0xb3d54573	-9.931218e-08
66	0xb4464a4b	-1.8467215e-07
67	0x00000000	0.0
68	0xb84c71e9	-4.8743477e-05
69	0xb7a73bf7	-1.9935875e-05
70	0xb504c27d	-4.945685e-07
71	0x00000000	0.0
72	0xb25fbe32	-1.3023554e-08
73	0xb7dda322	-2.6421218e-05
74	0xb995411b	-0.00028468002
75	0xb48b0354	-2.589319e-07
76	0xb6683605	-3.4602137e-06
77	0xba2b7091	-0.0006539906
78	0xb9944d7d	-0.00028286493
79	0xba8f88a5	-0.0010950757
80	0x00000000	0.0
81	0x00000000	0.0
82	0xb5122e07	-5.4456217e-07
83	0xb097dcd7	-1.1049462e-09
84	0xbaea7571	-0.0017887783
85	0xb735348c	-1.0800675e-05
86	0x00000000	0.0
87	0xbb06a019	-0.0020542203
88	0x00000000	0.0
89	0x00000000	0.0
90	0xb5f70001	-1.8402935e-06
91	0xbb0b56e7	-0.0021261515
92	0x00000000	0.0
93	0xbb0c4f66	-0.002140963
94	0xb7d9cda3	-2.5964173e-05
95	0xba877882	-0.0010335597
96	0xbafee405	-0.0019446617
97	0xbab86f94	-0.0014071339
98	0xb4292391	-1.575229e-07
99	0xb2b2f66c	-2.0833987e-08
100	0x3f800000	1.0
101	0x3f800000	1.0
102	0x3f800000	1.0
103	0x3f800000	1.0
104	0x3f800000	1.0
105	0x3f800000	1.0
106	0x3f800000	1.0
107	0x3f800000	1.0
108	0x3f800000	1.0
109	0x3f800000	1.0
110	0x3f800000	1.0
111	0x3f800000	1.0
112	0x3f800000	1.0
113	0x3f800000	1.0
114	0x3f800000	1.0
115	0x3f800000	1.0
116	0x3f800000	1.0
117	0x3f800000	1.0
118	0x3f800000	1.0
119	0x3f800000	1.0
120	0x3f800000	1.0
121	0x3f800000	1.0
122	0x3f800000	1.0
123	0x3f800000	1.0
124	0x3f800000	1.0
125	0x3f800000	1.0
126	0x3f800000	1.0
127	0x3f800000	1.0
128	0x3f800000	1.0
129	0x3f800000	1.0
130	0x3f800000	1.0
131	0x3f800000	1.0
132	0x3f800000	1.0
133	0x3f800000	1.0
134	0x3f800000	1.0
135	0x3f800000	1.0
136	0x3f800000	1.0
137	0x3f800000	1.0
138	0x3f800000	1.0
139	0x3f800000	1.0
140	0x3f800000	1.0
141	0x3f800000	1.0
142	0x3f800000	1.0
143	0x3f800000	1.0
144	0x3f800000	1.0
145	0x3f800000	1.0
146	0x3f800000	1.0
147	0x3f800000	1.0
148	0x3f800000	1.0
149	0x3f800000	1.0
150	0x3f800000	1.0
151	0x3f800000	1.0
152	0x3f800000	1.0
153	0x3f800000	1.0
154	0x3f800000	1.0
155	0x3f800000	1.0
156	0x3f800000	1.0
157	0x3f800000	1.0
158	0x3f800000	1.0
159	0x3f800000	1.0
160	0x3f800000	1.0
161	0x3f800000	1.0
162	0x3f800000	1.0
163	0x3f800000	1.0
164	0x3f800000	1.0
165	0x3f800000	1.0
166	0x3f800000	1.0
167	0x3f800000	1.0
168	0x3f800000	1.0
169	0x3f800000	1.0
170	0x3f800000	1.0
171	0x3f800000	1.0
172	0x3f800000	1.0
173	0x3f800000	1.0
174	0x3f800000	1.0
175	0x3f800000	1.0
176	0x3f800000	1.0
177	0x3f800000	1.0
178	0x3f800000	1.0
179	0x3f800000	1.0
180	0x3f800000	1.0
181	0x3f800000	1.0
182	0x3f800000	1.0
183	0x3f800000	1.0
184	0x3f800000	1.0
185	0x3f800000	1.0
186	0x3f800000	1.0
187	0x3f800000	1.0
188	0x3f800000	1.0
189	0x3f800000	1.0
190	0x3f800000	1.0
191	0x3f800000	1.0
192	0x3f800000	1.0
193	0x3f800000	1.0
194	0x3f800000	1.0
195	0x3f800000	1.0
196	0x3f800000	1.0
197	0x3f800000	1.0
198	0x3f800000	1.0
199	0x3f800000	1.0
200	0x00000000	0.0
201	0x3b49da50	0.003080029
202	0xbbc3b0cc	-0.0059720036
203	0x00000000	0.0
204	0xbb95c8fd	-0.004571079
205	0x00000000	0.0
206	0xbbc39946	-0.0059691994
207	0x3b4afdf3	0.003097412
208	0xbbbb6803	-0.0057191863
209	0x3ab7f9af	0.0014036204
210	0xbbc3ae15	-0.00597168
211	0xbbc27a94	-0.0059350226
212	0x3b2e61ca	0.002660858
213	0xbba49165	-0.005022215
214	0xbbc1f1d2	-0.00591872
215	0xbbab573e	-0.005228906
216	0x3b0ee5e3	0.0021804504
217	0xbbc8ca21	-0.0061276113
218	0xbbc2a883	-0.0059404983
219	0x3b1c4b20	0.002384849
220	0x3b47f3bf	0.0030510274
221	0xbbc396d2	-0.005968907
222	0x3b46bb7b	0.003032415
223	0xb966bdb9	-0.00022005186
224	0x3b488f18	0.0030602869
225	0xbbc8917f	-0.00612086
226	0x00000000	0.0
227	0x3b42eaf1	0.0029742087
228	0xbbc30b76	-0.005952294
229	0xbbdb46e8	-0.0066918023
230	0xbb9e436f	-0.004829816
231	0xbb9b8794	-0.004746387
232	0xbbc1c9af	-0.005913935
233	0x3b4b7381	0.0031044187
234	0x3b49e43c	0.0030806204
235	0x3ad1942f	0.0015989597
236	0x00000000	0.0
237	0x3b4b25d7	0.0030997896
238	0x3b48ae92	0.003062163
239	0xbbc1e2b9	-0.00591692
240	0xbb96478b	-0.0045861653
241	0x3b2f2936	0.0026727444
242	0xbb6abc56	-0.0035817823
243	0xbbc318c3	-0.0059538796
244	0x3c3a63b0	0.011376306
245	0xbbb39d05	-0.0054813647
246	0xbbbc5e59	-0.005748552
247	0xbbba98f3	-0.0056945025
248	0x3b21b0ca	0.0024672025
249	0x3b4c161d	0.003114111
250	0xbb97cb72	-0.004632407
251	0xbbe182c1	-0.006882042
252	0x00000000	0.0
253	0x00000000	0.0
254	0xbbc310c0	-0.0059529245
255	0x00000000	0.0

lstm_51/lstm_cell_10/bias f4 [400]
0	0xb70afe0b	-8.28459e-06
1	0xb648b386	-2.9906819e-06
2	0x3adb8774	0.0016748742
3	0x00000000	0.0
4	0xb7c9f11e	-2.4073346e-05
5	0x00000000	0.0
6	0x3985af96	0.00025498559
7	0x38ddce9a	0.00010576584
8	0x00000000	0.0
9	0xb85b36f4	-5.2264848e-05
10	0xb5de1af2	-1.6548131e-06
11	0xb8a3c04e	-7.808265e-05
12	0xb76311a9	-1.3534366e-05
13	0x00000000	0.0
14	0x00000000	0.0
15	0x00000000	0.0
16	0xb6a58c0d	-4.9336873e-06
17	0x00000000	0.0
18	0x391b8130	0.00014830078
19	0x3a2695d2	0.00063547224
20	0xb76ea912	-1.422527e-05
21	0xb980575b	-0.00024479147
22	0xb637196b	-2.728392e-06
23	0xb8dd1440	-0.00010541873
24	0x3a496448	0.00076824846
25	0xb9a009f2	-0.00030524988
26	0xb7118880	-8.674455e-06
27	0xb883ce02	-6.284939e-05
28	0xb7f6bfe9	-2.941485e-05
29	0x3a83ae08	0.0010046372
30	0x00000000	0.0
31	0x00000000	0.0
32	0x39a7afe9	0.00031983785
33	0x00000000	0.0
34	0xb9f08742	-0.00045877142
35	0xb6f3c70d	-7.265137e-06
36	0x00000000	0.0
37	0xb5b8ea17	-1.3777197e-06
38	0x00000000	0.0
39	0xb4b812b8	-3.428629e-07
40	0xb6957d56	-4.455137e-06
41	0xb7e93d20	-2.7804228e-05
42	0x00000000	0.0
43	0x00000000	0.0
44	0x00000000	0.0
45	0x00000000	0.0
46	0x00000000	0.0
47	0x00000000	0.0
48	0xb44ea976	-1.9246895e-07
49	0xb74e6ee0	-1.2304372e-05
50	0x00000000	0.0
51	0x39f43198	0.00046576257
52	0xb7a1a541	-1.9269648e-05
53	0x00000000	0.0
54	0x00000000	0.0
55	0x00000000	0.0
56	0xb9941e57	-0.00028251365
57	0x38813ba1	6.162306e-05
58	0xb821dd70	-3.859162e-05
59	0x00000000	0.0
60	0x3b52254b	0.0032065685
61	0x3ac1feb2	0.0014800637
62	0xb7aa2fbb	-2.0287805e-05
63	0xb82ecd5f	-4.16761e-05
64	0x3a5f765f	0.00085244136
65	0x00000000	0.0
66	0x39bda70d	0.00036173352
67	0xb9232e28	-0.00015562086
68	0x00000000	0.0
69	0x00000000	0.0
70	0x3b447639	0.0029977693
71	0x00000000	0.0
72	0xb78936b7	-1.6357151e-05
73	0xb7fdfac8	-3.027673e-05
74	0x00000000	0.0
75	0xb8835673	-6.262669e-05
76	0x3a2631ad	0.00063398
77	0xb5dd16cc	-1.6472418e-06
78	0x00000000	0.0
79	0xb86c86f7	-5.639248e-05
80	0xb5674cac	-8.616578e-07
81	0xb691b541	-4.3424375e-06
82	0x39fe30a9	0.0004848291
83	0x00000000	0.0
84	0x00000000	0.0
85	0xb7c8b7f4	-2.3927518e-05
86	0x3a7be3a4	0.0009608811
87	0x00000000	0.0
88	0x398fca91	0.0002742601
89	0xb3c6c443	-9.255793e-08
90	0x00000000	0.0
91	0x3ae08224	0.0017128629
92	0xb920a175	-0.00015318936
93	0xb7f685cd	-2.9387791e-05
94	0x00000000	0.0
95	0xb6526cd7	-3.1355792e-06
96	0xb8c4960b	-9.373956e-05
97	0x00000000	0.0
98	0xb9adf014	-0.00033176003
99	0x00000000	0.0
100	0x3f800000	1.0
101	0x3f800000	1.0
102	0x3f800000	1.0
103	0x3f800000	1.0
104	0x3f800000	1.0
105	0x3f800000	1.0
106	0x3f800000	1.0
107	0x3f800000	1.0
108	0x3f800000	1.0
109	0x3f800000	1.0
110	0x3f800000	1.0
111	0x3f800000	1.0
112	0x3f800000	1.0
113	0x3f800000	1.0
114	0x3f800000	1.0
115	0x3f800000	1.0
116	0x3f800000	1.0
117	0x3f800000	1.0
118	0x3f800000	1.0
119	0x3f800000	1.0
120	0x3f800000	1.0
121	0x3f800000	1.0
122	0x3f800000	1.0
123	0x3f800000	1.0
124	0x3f800000	1.0
125	0x3f800000	1.0
126	0x3f800000	1.0
127	0x3f800000	1.0
128	0x3f800000	1.0
129	0x3f800000	1.0
130	0x3f800000	1.0
131	0x3f800000	1.0
132	0x3f800000	1.0
133	0x3f800000	1.0
134	0x3f800000	1.0
135	0x3f800000	1.0
136	0x3f800000	1.0
137	0x3f800000	1.0
138	0x3f800000	1.0
139	0x3f800000	1.0
140	0x3f800000	1.0
141	0x3f800000	1.0
142	0x3f800000	1.0
143	0x3f800000	1.0
144	0x3f800000	1.0
145	0x3f800000	1.0
146	0x3f800000	1.0
147	0x3f800000	1.0
148	0x3f800000	1.0
149	0x3f800000	1.0
150	0x3f800000	1.0
151	0x3f800000	1.0
152	0x3f800000	1.0
153	0x3f800000	1.0
154	0x3f800000	1.0
155	0x3f800000	1.0
156	0x3f800000	1.0
157	0x3f800000	1.0
158	0x3f800000	1.0
159	0x3f800000	1.0
160	0x3f800000	1.0
161	0x3f800000	1.0
162	0x3f800000	1.0
163	0x3f800000	1.0
164	0x3f800000	1.0
165	0x3f800000	1.0
166	0x3f800000	1.0
167	0x3f800000	1.0
168	0x3f800000	1.0
169	0x3f800000	1.0
170	0x3f800000	1.0
171	0x3f800000	1.0
172	0x3f800000	1.0
173	0x3f800000	1.0
174	0x3f800000	1.0
175	0x3f800000	1.0
176	0x3f800000	1.0
177	0x3f800000	1.0
178	0x3f800000	1.0
179	0x3f800000	1.0
180	0x3f800000	1.0
181	0x3f800000	1.0
182	0x3f800000	1.0
183	0x3f800000	1.0
184	0x3f800000	1.0
185	0x3f800000	1.0
186	0x3f800000	1.0
187	0x3f800000	1.0
188	0x3f800000	1.0
189	0x3f800000	1.0
190	0x3f800000	1.0
191	0x3f800000	1.0
192	0x3f800000	1.0
193	0x3f800000	1.0
194	0x3f800000	1.0
195	0x3f800000	1.0
196	0x3f800000	1.0
197	0x3f800000	1.0
198	0x3f800000	1.0
199	0x3f800000	1.0
200	0x39c747cd	0.00038009734
201	0xbbb55511	-0.0055338223
202	0xba34b215	-0.00068929914
203	0x00000000	0.0
204	0xbba81021	-0.005128876
205	0x00000000	0.0
206	0xb9891713	-0.00026147868
207	0x3966c271	0.00022006944
208	0x00000000	0.0
209	0xbbc191c1	-0.005907268
210	0xbb51d1d4	-0.0032015936
211	0xbbc1eebd	-0.0059183524
212	0xbbbcbd35	-0.00575986
213	0x00000000	0.0
214	0x00000000	0.0
215	0x00000000	0.0
216	0xbbb102d7	-0.00540195
217	0x00000000	0.0
218	0x39f21648	0.00046174438
219	0x3b54bd1c	0.003246135
220	0xbbe95c1b	-0.0071215755
221	0x3baa544e	0.005198038
222	0xbb9bc01b	-0.0047531254
223	0xbbc3fdb1	-0.00598117
224	0xb9475853	-0.00019011022
225	0xbb9a9935	-0.0047179707
226	0xbb9ad729	-0.004725356
227	0xbb84938f	-0.0040459107
228	0xbbbe8a83	-0.0058148517
229	0x3bc19a6e	0.005908302
230	0x00000000	0.0
231	0x00000000	0.0
232	0x3b063013	0.0020475432
233	0x00000000	0.0
234	0xbb8b1d3b	-0.004245428
235	0xbbb9d1bb	-0.005670754
236	0x00000000	0.0
237	0xbba71a87	-0.005099598
238	0x00000000	0.0
239	0xbad03df3	-0.0015887603
240	0xbbb7c972	-0.005608731
241	0xbbbf11c4	-0.0058309752
242	0x00000000	0.0
243	0x00000000	0.0
244	0x00000000	0.0
245	0x00000000	0.0
246	0x00000000	0.0
247	0x00000000	0.0
248	0xbae5bab2	-0.0017526953
249	0xbbbb9ad5	-0.0057252445
250	0x00000000	0.0
251	0xb91456b3	-0.00014146678
252	0xbbbbceae	-0.0057314252
253	0x00000000	0.0
254	0x00000000	0.0
255	0x00000000	0.0

model_1/time_distributed_14/dense_14/MatMul f4 [1, 100]
0	0xbde24aca	-0.11049421
1	0x3e242aca	0.16031948
2	0xbe5a8f9d	-0.21343847
3	0xbd08e5c0	-0.03342223
4	0xbe43f489	-0.19136252
5	0xbc9aa888	-0.01887919
6	0xbe48f302	-0.1962395
7	0x3e4a1cd9	0.19737567
8	0xbe16a858	-0.14712656
9	0x3be452c5	0.0069678747
10	0xbe5894dc	-0.21150535
11	0xbdcdd9f5	-0.10051338
12	0x3d58e378	0.052951306
13	0xbd839fc1	-0.06426955
14	0xbda592c7	-0.08084636
15	0xbbf944a5	-0.00760706
16	0x3df11d15	0.11773125
17	0x3e3180a6	0.17334232
18	0xbddf5adf	-0.10906004
19	0x3daeae0a	0.08529289
20	0x3dfce00c	0.12347421
21	0xbe47d624	-0.19515282
22	0x3dd9cf7a	0.10635276
23	0xba83e5de	-0.0010063013
24	0x3e0ac196	0.1355041
25	0x3d2747df	0.040840026
26	0x3d34f4e0	0.044178843
27	0x3d98ba9e	0.074574694
28	0xbe088d00	-0.13335037
29	0x3e1c69df	0.15274762
30	0xbe44c185	-0.19214447
31	0xbe4f0de6	-0.20220146
32	0xbd9cb0c1	-0.07650901
33	0x3e4b987e	0.1988239
34	0x3e1755a8	0.14778769
35	0x3e26e48e	0.16298124
36	0x3e7332de	0.23749873
37	0x3e493557	0.19649254
38	0x3e05e0b1	0.13073994
39	0xbe30fc15	-0.17283662
40	0xbd2c3c9a	-0.04204998
41	0x3d19afd0	0.037521183
42	0x3d7c976c	0.061667845
43	0xbe0cacd4	-0.13737804
44	0xbe78f481	-0.24312021
45	0x3d364961	0.044503573
46	0xbcd872f0	-0.026421994
47	0xbe38ef9a	-0.1806015
48	0x3d4c0622	0.049810536
49	0x3e5030ed	0.20331164
50	0x3da45134	0.08023301
51	0xbe19f5df	-0.15035199
52	0x3e678fca	0.22613445
53	0xbd93bb6e	-0.07213484
54	0xbe1af2e4	-0.15131718
55	0xbd43c9f0	-0.047800004
56	0xbe36949f	-0.17830132
57	0xbbc0cb00	-0.0058835745
58	0xbd3509eb	-0.04419891
59	0x3e47af66	0.19500503
60	0x3d904ec6	0.07046275
61	0x3e53dcb6	0.20689663
62	0x3e058334	0.13038331
63	0x3e39284a	0.18081775
64	0x3d97d634	0.07413903
65	0xbdd865ad	-0.10566268
66	0xbd156b09	-0.03647903
67	0x3e5ad556	0.21370444
68	0xbe41661d	-0.1888661
69	0xbd3e8598	-0.046514124
70	0xbdb08b9c	-0.086203784
71	0xbe11910c	-0.14215487
72	0xbd8b3cb8	-0.067986906
73	0xbe4fc5ea	-0.20290342
74	0x3d3950d4	0.0452431
75	0x3d0c3a7a	0.034235455
76	0xbd53f8cc	-0.051750943
77	0x3d812643	0.06306126
78	0x3c79afd5	0.0152396755
79	0x3dcc94c5	0.09989313
80	0xbd6ca0a4	-0.057770386
81	0xbe386eea	-0.1801106
82	0xbd86eca4	-0.06588104
83	0xbbea6f4d	-0.0071543814
84	0x3e399058	0.18121469
85	0xbd050f52	-0.032485314
86	0xbe38b25e	-0.18036792
87	0x3e58a291	0.21155764
88	0xbe55acf4	-0.20866758
89	0xbe536c7a	-0.2064685
90	0xbdda94bb	-0.10672899
91	0x3e604b27	0.21903668
92	0xbd6bdc10	-0.057582915
93	0x3e5968bf	0.21231364
94	0xbe1c670d	-0.15273686
95	0x3decafe7	0.11556988
96	0x3e431225	0.1904989
97	0x3e2ace64	0.16680294
98	0xbde76b54	-0.11299768
99	0xbc90437d	-0.017610306

model_1/time_distributed_15/dense_15/MatMul f4 [1, 100]
0	0x3e55e332	0.2088745
1	0x3e1fcde3	0.15605883
2	0xbc936b0d	-0.017995382
3	0xbe7278db	-0.23678915
4	0xbe4a87ee	-0.19778416
5	0x3e72b56f	0.23702024
6	0x3d2c80b9	0.042114947
7	0x3e4e07b0	0.2012012
8	0x3e514f30	0.20440364
9	0x39e0d600	0.00042884052
10	0x3e03febf	0.12890147
11	0xbd3a71cf	-0.045518693
12	0xbdf8740f	-0.121315114
13	0x3d4c6440	0.049900293
14	0xbcda007f	-0.026611565
15	0xbe1eccb3	-0.15507774
16	0xbd78c100	-0.060730934
17	0x3defc8e9	0.117082424
18	0x3e52c8da	0.20584431
19	0x3d2d022d	0.042238403
20	0x3d8cf01a	0.06881733
21	0xbe1ce184	-0.15320402
22	0xbd5f1b29	-0.05446926
23	0x3daf0c34	0.085472494
24	0xbe189a11	-0.14902522
25	0xbe18cdae	-0.1492221
26	0xbe2a89a6	-0.16654071
27	0xbd9f9c1a	-0.07793446
28	0xbe0fb19f	-0.14032601
29	0x3e112475	0.14174064
30	0xbddd8855	-0.10817019
31	0x3e35fabe	0.17771432
32	0x3a7aa45d	0.0009561235
33	0xbe768e33	-0.24077682
34	0xbe705a95	-0.23472054
35	0x3e46d7aa	0.19418207
36	0x3e63fd00	0.2226448
37	0x3e2d78d6	0.16940627
38	0xbc7bfbdb	-0.015379871
39	0x3cb061e1	0.021531047
40	0xbd0ec619	-0.03485689
41	0xbd0db31b	-0.034594636
42	0x3dce1e32	0.10064353
43	0x3d207955	0.03917821
44	0x3db19b4c	0.08672199
45	0xbb727d75	-0.0037001048
46	0xbe1ec439	-0.1550454
47	0x3e12bf3a	0.1433076
48	0xbdedc348	-0.116095126
49	0xbd9f45e5	-0.07777003
50	0xbdf900a6	-0.12158327
51	0xbccd5ecd	-0.025069619
52	0x3da79adb	0.08183833
53	0x3dbc207f	0.09185886
54	0x3d14c73c	0.036322817
55	0xbd39d1cb	-0.04536609
56	0xbe0efac8	-0.13962853
57	0xbe2403db	-0.16017096
58	0x3df280e8	0.11840993
59	0x3dac8885	0.084244765
60	0xbe12b7cf	-0.1432793
61	0x3de65180	0.11246014
62	0xbda77970	-0.08177459
63	0x3dd8f8ff	0.10594367
64	0x3e0ff2b8	0.14057434
65	0xbd78aa49	-0.06070927
66	0xbc4f2d4f	-0.01264508
67	0x3c8acdb8	0.016943797
68	0xbe3abc8c	-0.18235987
69	0x3db39b92	0.08769907
70	0xbcf11200	-0.029427528
71	0x3e747dd4	0.23876125
72	0x3d1757db	0.03694902
73	0x3d41ad48	0.047284395
74	0xbe0e5c1a	-0.13902321
75	0x3dd0cdfa	0.10195537
76	0xbe05055f	-0.1299033
77	0x3cc007e8	0.02344127
78	0xbe109fa4	-0.14123398
79	0x3e16284c	0.1466381
80	0x3de138c4	0.10997155
81	0xbe331643	-0.17488961
82	0xbe766e69	-0.24065556
83	0x3a9e09d9	0.0012057378
84	0x3e2c3de6	0.16820487
85	0x3e1cc448	0.1530925
86	0x3e101afa	0.1407279
87	0x3d5bcdbc	0.053663
88	0xbe2e527f	-0.17023657
89	0x3e43eb55	0.19132741
90	0xbcfbd6c4	-0.030742057
91	0xbe625d83	-0.22105984
92	0xbe3c54e1	-0.18391754
93	0x3d2c5970	0.04207748
94	0x3e48ee56	0.19622168
95	0x3e1e7504	0.15474325
96	0xbd12067a	-0.035650708
97	0x3e633246	0.22187147
98	0xbcb82e3f	-0.02248299
99	0xbbc982c3	-0.006149621

lstm_51/lstm_cell_10/bias1 f4 [400]
0	0xb70afe0b	-8.28459e-06
1	0xb648b386	-2.9906819e-06
2	0x3adb8774	0.0016748742
3	0x00000000	0.0
4	0xb7c9f11e	-2.4073346e-05
5	0x00000000	0.0
6	0x3985af96	0.00025498559
7	0x38ddce9a	0.00010576584
8	0x00000000	0.0
9	0xb85b36f4	-5.2264848e-05
10	0xb5de1af2	-1.6548131e-06
11	0xb8a3c04e	-7.808265e-05
12	0xb76311a9	-1.3534366e-05
13	0x00000000	0.0
14	0x00000000	0.0
15	0x00000000	0.0
16	0xb6a58c0d	-4.9336873e-06
17	0x00000000	0.0
18	0x391b8130	0.00014830078
19	0x3a2695d2	0.00063547224
20	0xb76ea912	-1.422527e-05
21	0xb980575b	-0.00024479147
22	0xb637196b	-2.728392e-06
23	0xb8dd1440	-0.00010541873
24	0x3a496448	0.00076824846
25	0xb9a009f2	-0.00030524988
26	0xb7118880	-8.674455e-06
27	0xb883ce02	-6.284939e-05
28	0xb7f6bfe9	-2.941485e-05
29	0x3a83ae08	0.0010046372
30	0x00000000	0.0
31	0x00000000	0.0
32	0x39a7afe9	0.00031983785
33	0x00000000	0.0
34	0xb9f08742	-0.00045877142
35	0xb6f3c70d	-7.265137e-06
36	0x00000000	0.0
37	0xb5b8ea17	-1.3777197e-06
38	0x00000000	0.0
39	0xb4b812b8	-3.428629e-07
40	0xb6957d56	-4.455137e-06
41	0xb7e93d20	-2.7804228e-05
42	0x00000000	0.0
43	0x00000000	0.0
44	0x00000000	0.0
45	0x00000000	0.0
46	0x00000000	0.0
47	0x00000000	0.0
48	0xb44ea976	-1.9246895e-07
49	0xb74e6ee0	-1.2304372e-05
50	0x00000000	0.0
51	0x39f43198	0.00046576257
52	0xb7a1a541	-1.9269648e-05
53	0x00000000	0.0
54	0x00000000	0.0
55	0x00000000	0.0
56	0xb9941e57	-0.00028251365
57	0x38813ba1	6.162306e-05
58	0xb821dd70	-3.859162e-05
59	0x00000000	0.0
60	0x3b52254b	0.0032065685
61	0x3ac1feb2	0.0014800637
62	0xb7aa2fbb	-2.0287805e-05
63	0xb82ecd5f	-4.16761e-05
64	0x3a5f765f	0.00085244136
65	0x00000000	0.0
66	0x39bda70d	0.00036173352
67	0xb9232e28	-0.00015562086
68	0x00000000	0.0
69	0x00000000	0.0
70	0x3b447639	0.0029977693
71	0x00000000	0.0
72	0xb78936b7	-1.6357151e-05
73	0xb7fdfac8	-3.027673e-05
74	0x00000000	0.0
75	0xb8835673	-6.262669e-05
76	0x3a2631ad	0.00063398
77	0xb5dd16cc	-1.6472418e-06
78	0x00000000	0.0
79	0xb86c86f7	-5.639248e-05
80	0xb5674cac	-8.616578e-07
81	0xb691b541	-4.3424375e-06
82	0x39fe30a9	0.0004848291
83	0x00000000	0.0
84	0x00000000	0.0
85	0xb7c8b7f4	-2.3927518e-05
86	0x3a7be3a4	0.0009608811
87	0x00000000	0.0
88	0x398fca91	0.0002742601
89	0xb3c6c443	-9.255793e-08
90	0x00000000	0.0
91	0x3ae08224	0.0017128629
92	0xb920a175	-0.00015318936
93	0xb7f685cd	-2.9387791e-05
94	0x00000000	0.0
95	0xb6526cd7	-3.1355792e-06
96	0xb8c4960b	-9.373956e-05
97	0x00000000	0.0
98	0xb9adf014	-0.00033176003
99	0x00000000	0.0
100	0x3f800000	1.0
101	0x3f800000	1.0
102	0x3f800000	1.0
103	0x3f800000	1.0
104	0x3f800000	1.0
105	0x3f800000	1.0
106	0x3f800000	1.0
107	0x3f800000	1.0
108	0x3f800000	1.0
109	0x3f800000	1.0
110	0x3f800000	1.0
111	0x3f800000	1.0
112	0x3f800000	1.0
113	0x3f800000	1.0
114	0x3f800000	1.0
115	0x3f800000	1.0
116	0x3f800000	1.0
117	0x3f800000	1.0
118	0x3f800000	1.0
119	0x3f800000	1.0
120	0x3f800000	1.0
121	0x3f800000	1.0
122	0x3f800000	1.0
123	0x3f800000	1.0
124	0x3f800000	1.0
125	0x3f800000	1.0
126	0x3f800000	1.0
127	0x3f800000	1.0
128	0x3f800000	1.0
129	0x3f800000	1.0
130	0x3f800000	1.0
131	0x3f800000	1.0
132	0x3f800000	1.0
133	0x3f800000	1.0
134	0x3f800000	1.0
135	0x3f800000	1.0
136	0x3f800000	1.0
137	0x3f800000	1.0
138	0x3f800000	1.0
139	0x3f800000	1.0
140	0x3f800000	1.0
141	0x3f800000	1.0
142	0x3f800000	1.0
143	0x3f800000	1.0
144	0x3f800000	1.0
145	0x3f800000	1.0
146	0x3f800000	1.0
147	0x3f800000	1.0
148	0x3f800000	1.0
149	0x3f800000	1.0
150	0x3f800000	1.0
151	0x3f800000	1.0
152	0x3f800000	1.0
153	0x3f800000	1.0
154	0x3f800000	1.0
155	0x3f800000	1.0
156	0x3f800000	1.0
157	0x3f800000	1.0
158	0x3f800000	1.0
159	0x3f800000	1.0
160	0x3f800000	1.0
161	0x3f800000	1.0
162	0x3f800000	1.0
163	0x3f800000	1.0
164	0x3f800000	1.0
165	0x3f800000	1.0
166	0x3f800000	1.0
167	0x3f800000	1.0
168	0x3f800000	1.0
169	0x3f800000	1.0
170	0x3f800000	1.0
171	0x3f800000	1.0
172	0x3f800000	1.0
173	0x3f800000	1.0
174	0x3f800000	1.0
175	0x3f800000	1.0
176	0x3f800000	1.0
177	0x3f800000	1.0
178	0x3f800000	1.0
179	0x3f800000	1.0
180	0x3f800000	1.0
181	0x3f800000	1.0
182	0x3f800000	1.0
183	0x3f800000	1.0
184	0x3f800000	1.0
185	0x3f800000	1.0
186	0x3f800000	1.0
187	0x3f800000	1.0
188	0x3f800000	1.0
189	0x3f800000	1.0
190	0x3f800000	1.0
191	0x3f800000	1.0
192	0x3f800000	1.0
193	0x3f800000	1.0
194	0x3f800000	1.0
195	0x3f800000	1.0
196	0x3f800000	1.0
197	0x3f800000	1.0
198	0x3f800000	1.0
199	0x3f800000	1.0
200	0x39c747cd	0.00038009734
201	0xbbb55511	-0.0055338223
202	0xba34b215	-0.00068929914
203	0x00000000	0.0
204	0xbba81021	-0.005128876
205	0x00000000	0.0
206	0xb9891713	-0.00026147868
207	0x3966c271	0.00022006944
208	0x00000000	0.0
209	0xbbc191c1	-0.005907268
210	0xbb51d1d4	-0.0032015936
211	0xbbc1eebd	-0.0059183524
212	0xbbbcbd35	-0.00575986
213	0x00000000	0.0
214	0x00000000	0.0
215	0x00000000	0.0
216	0xbbb102d7	-0.00540195
217	0x00000000	0.0
218	0x39f21648	0.00046174438
219	0x3b54bd1c	0.003246135
220	0xbbe95c1b	-0.0071215755
221	0x3baa544e	0.005198038
222	0xbb9bc01b	-0.0047531254
223	0xbbc3fdb1	-0.00598117
224	0xb9475853	-0.00019011022
225	0xbb9a9935	-0.0047179707
226	0xbb9ad729	-0.004725356
227	0xbb84938f	-0.0040459107
228	0xbbbe8a83	-0.0058148517
229	0x3bc19a6e	0.005908302
230	0x00000000	0.0
231	0x00000000	0.0
232	0x3b063013	0.0020475432
233	0x00000000	0.0
234	0xbb8b1d3b	-0.004245428
235	0xbbb9d1bb	-0.005670754
236	0x00000000	0.0
237	0xbba71a87	-0.005099598
238	0x00000000	0.0
239	0xbad03df3	-0.0015887603
240	0xbbb7c972	-0.005608731
241	0xbbbf11c4	-0.0058309752
242	0x00000000	0.0
243	0x00000000	0.0
244	0x00000000	0.0
245	0x00000000	0.0
246	0x00000000	0.0
247	0x00000000	0.0
248	0xbae5bab2	-0.0017526953
249	0xbbbb9ad5	-0.0057252445
250	0x00000000	0.0
251	0xb91456b3	-0.00014146678
252	0xbbbbceae	-0.0057314252
253	0x00000000	0.0
254	0x00000000	0.0
255	0x00000000	0.0

model_1/lstm_51/while/lstm_cell_10/MatMul_1 f4 [400, 100]
0	0x3da58f60	0.08083987
1	0x3c985c1a	0.018598605
2	0x3c796674	0.015222181
3	0xbc8df098	-0.017326638
4	0x3d8ad45e	0.06778787
5	0x3c1d16db	0.009587969
6	0x3dd938c5	0.10606531
7	0xbcab4fbc	-0.020912044
8	0xbdb2116d	-0.0869473
9	0xbd056030	-0.032562435
10	0x3d7799ac	0.060449287
11	0x3d91b903	0.07115366
12	0xbdab701b	-0.08370992
13	0xbc873d8e	-0.016508844
14	0x3d89da00	0.06731033
15	0x3d8c4dfb	0.06850811
16	0xbcb90606	-0.02258588
17	0xbcaa6862	-0.020801727
18	0xbda2b2ee	-0.079442844
19	0x3de4f1e8	0.111789525
20	0x3d55d86c	0.05220835
21	0xbd8926f2	-0.06696881
22	0x3d162853	0.03665955
23	0x3de59be1	0.11211372
24	0x3d8044cd	0.06263123
25	0x3d781061	0.060562495
26	0x3c52fafe	0.012877224
27	0x3c5efe2a	0.013610402
28	0x3d007d47	0.031369474
29	0xbd94241e	-0.07233451
30	0xbd2157ac	-0.03939025
31	0x3dce0877	0.10060208
32	0x3dcb38e5	0.09922961
33	0x3cad809d	0.021179492
34	0xbde3fb63	-0.111319326
35	0xbdb1c033	-0.08679237
36	0xbb96fc3e	-0.0046077063
37	0xbd5f74dc	-0.054554805
38	0x3db13498	0.086526096
39	0x3d95e409	0.07318885
40	0xbcc15094	-0.023597993
41	0x3d180bc2	0.037120588
42	0x3c5d2bed	0.013499242
43	0x3c248eaf	0.010043784
44	0xbdb78fef	-0.08963
45	0xbd1ac548	-0.0377858
46	0x3c6294af	0.013829394
47	0xbc6e70f2	-0.014553295
48	0xbda9210a	-0.08258255
49	0x3cf3002c	0.029663168
50	0xbd52825b	-0.051393848
51	0x3d34ad1e	0.04411041
52	0xbcb19013	-0.021675145
53	0x3d2bbff7	0.04193112
54	0x3caf0a93	0.021367347
55	0x3df9d539	0.12198872
56	0xbce67c51	-0.02813545
57	0x3d440628	0.047857434
58	0xbc87e876	-0.016590338
59	0x3c1cc1d6	0.009567698
60	0xbcdf3003	-0.027244573
61	0xbcc0c7d6	-0.02353279
62	0x3d3d4bb7	0.046214785
63	0xbc8c1008	-0.017097488
64	0xbd99e4ab	-0.07514318
65	0x3c4b716a	0.012417177
66	0xbd9118f3	-0.07084837
67	0xbd1dea30	-0.038553417
68	0x3de66916	0.11250512
69	0xbcda3be0	-0.026639879
70	0x3bbe2bab	0.0058035455
71	0xbd5a147a	-0.053242184
72	0xbd0d09f9	-0.03443334
73	0x3d06fcd7	0.03295597
74	0x3c18754e	0.009305311
75	0x3cda100f	0.026618985
76	0x3d33708a	0.043808497
77	0x3c3eb746	0.0116403755
78	0xbd144d8b	-0.036206763
79	0xbb91e2bd	-0.004452078
80	0x3dcd06be	0.100110516
81	0xbd8473c7	-0.06467395
82	0x3d051b3c	0.032496676
83	0xbdb0941b	-0.08621999
84	0xbd4b23ef	-0.049594816
85	0xbc520887	-0.012819416
86	0x3cd4e4dc	0.025988035
87	0x3d6e63de	0.05820071
88	0xbca3ba12	-0.019986186
89	0x3d4f9fc5	0.050689477
90	0xbad5899c	-0.0016291621
91	0xbce071e0	-0.02739805
92	0x3c1afaac	0.009459179
93	0x3ced3485	0.028955707
94	0xbd5494e2	-0.0518998
95	0x3c448be6	0.011996245
96	0xbcebd559	-0.028788256
97	0xbc0cc0b2	-0.008590864
98	0xbcf04314	-0.02932886
99	0xbd3781a2	-0.04480136
100	0xbc2c34d2	-0.01051064
101	0xbde0e2a0	-0.10980725
102	0x3dd8411a	0.10559292
103	0x3d6c53c2	0.057697065
104	0x3d5bab5d	0.05363022
105	0xbc7935fa	-0.015210623
106	0x3c93b054	0.018028416
107	0xbd974c51	-0.07387603
108	0xbd1f9323	-0.03895868
109	0x3be026c0	0.006840557
110	0xbdcaa80b	-0.09895333
111	0xbb6fd758	-0.003659686
112	0x3d676484	0.056492344
113	0x3d0d5064	0.034500495
114	0x3da00a53	0.07814469
115	0x3cdbb040	0.026817441
116	0xbb2b11d0	-0.0026103146
117	0xbde65b2a	-0.11247857
118	0x3d2101fd	0.039308537
119	0x3d37698c	0.04477839
120	0x3dc03739	0.09385533
121	0x3d0482b5	0.032351214
122	0x3d9b15f0	0.075725436
123	0xbd244319	-0.04010305
124	0x3cafce05	0.021460542
125	0x3c2b9d1f	0.010474472
126	0xbcfdd661	-0.030986013
127	0xbd90770c	-0.070539564
128	0x3cd4186d	0.025890553
129	0x3b04e3e6	0.002027744
130	0x3d5bd767	0.05367222
131	0xbc8fc4f4	-0.01754997
132	0x3dae8a14	0.0852243
133	0x3d19f602	0.037588127
134	0x3cf1cd35	0.029516796
135	0xbd2d808b	-0.042358916
136	0xbc6b1ec2	-0.014350595
137	0xbd40d27b	-0.04707573
138	0xbc31e886	-0.010858661
139	0xbdb366c9	-0.08759839
140	0xbd5eafef	-0.054367002
141	0xbd35d0e5	-0.04438867
142	0xbd2f5305	-0.042803783
143	0x3d24e656	0.040258728
144	0xbdfbab54	-0.122885376
145	0xbd1aca6d	-0.037790705
146	0xbc11c63c	-0.00889736
147	0x3c463161	0.012096734
148	0xbcb3c2c7	-0.021943463
149	0x3d2eff7b	0.042724114
150	0xbd91cbbb	-0.07118937
151	0xbc5f2ba7	-0.013621247
152	0x3da07ad0	0.078359246
153	0xbdeafe5b	-0.11474296
154	0xbc72276a	-0.014779905
155	0x3d3a0048	0.045410424
156	0xbc07b4df	-0.008282869
157	0xbc19dc7e	-0.009390948
158	0x3d5bc5d6	0.053655468
159	0x3dd92968	0.10603601
160	0x3d282545	0.041051168
161	0xbbf4b7c9	-0.007468198
162	0x3d5fc11a	0.054627515
163	0x3cc94776	0.024570208
164	0x3d679a42	0.056543596
165	0xbcb9a228	-0.02266033
166	0xbd70ba49	-0.058771405
167	0x3c9a6677	0.018847687
168	0x3d06f804	0.03295137
169	0x3cd8a73b	0.02644693
170	0xbdaf1471	-0.08548821
171	0xbd4b578c	-0.049644038
172	0xbca41939	-0.020031558
173	0x3cb65547	0.02225746
174	0x3d5ce37c	0.053927884
175	0xbd051641	-0.032491926
176	0x3cf7ad66	0.03023405
177	0xbd247514	-0.040150717
178	0xbcdfc5df	-0.027316032
179	0xbd022f23	-0.031783234
180	0xbda11f04	-0.07867244
181	0xbb1379a8	-0.0022502933
182	0x3c7a135b	0.015263404
183	0x3d48f102	0.049057968
184	0xbd600d82	-0.054700382
185	0x3d84302b	0.064545
186	0x3d7c4afa	0.06159494
187	0xbdb33318	-0.0874998
188	0x3b692ecc	0.0035580872
189	0x3b98ccaa	0.0046630697
190	0xbda86f53	-0.082243584
191	0xbc409406	-0.011754042
192	0xbb9cf12b	-0.0047894916
193	0xbb643601	-0.0034822228
194	0xbd6442c5	-0.05572774
195	0x3cdeb8be	0.027187701
196	0x3d598dc9	0.053113732
197	0x3c463268	0.012096979
198	0xbce72930	-0.028217882
199	0xbd1c15d3	-0.03810675
200	0x3d1dd9df	0.038537856
201	0x3d23f6be	0.040030234
202	0x3cc6d240	0.024270177
203	0xbb0d2f7c	-0.0021543195
204	0x3b9ef096	0.0048504574
205	0x3cc706d7	0.024295254
206	0x3c88c8ec	0.01669737
207	0x3d78f077	0.0607762
208	0xbbdf21ae	-0.006809435
209	0x3d87c0df	0.06628584
210	0xbba4a7c3	-0.0050248816
211	0xbd8109e0	-0.06300712
212	0x3dc992f3	0.098424815
213	0x3c6275e5	0.013822054
214	0xbcb3ef57	-0.021964712
215	0x3ccc7139	0.024956333
216	0x3d848378	0.06470388
217	0x3b3b570b	0.0028585817
218	0xbd914e99	-0.070950694
219	0xbd1bd0fb	-0.038041096
220	0x3c913361	0.017724695
221	0xbc9be62f	-0.019030659
222	0xbd6f9ba9	-0.05849806
223	0x3ce8982c	0.028392874
224	0xbcbdd6e5	-0.023173759
225	0xbc39b528	-0.011334695
226	0xbd9a8ec4	-0.07546762
227	0xbb83c2a2	-0.004021005
228	0xbb0fa8da	-0.0021920712
229	0xbd905956	-0.070482895
230	0x3d2c77ec	0.042106554
231	0x3c947d6a	0.018126208
232	0x3bdf7195	0.00681896
233	0x3d9d8b23	0.07692554
234	0xbb5cd894	-0.0033698427
235	0xbd1f3be2	-0.038875468
236	0x3d5c4360	0.05377519
237	0xbd141aa5	-0.036158223
238	0xbcbf41f5	-0.02334688
239	0x3be696a5	0.007037001
240	0xbd4191b0	-0.04725808
241	0xbb1cf882	-0.0023951833
242	0x3cbf76a4	0.023372002
243	0x3cd97074	0.02654288
244	0x3c9ce434	0.019151784
245	0xbc9302e4	-0.017945714
246	0x3d0e5942	0.03475309
247	0xbd86c1f1	-0.0657996
248	0xbbc07026	-0.005872744
249	0xbd87002d	-0.065918304
250	0xbd1dc3fb	-0.03851698
251	0xb9f31930	-0.00046367338
252	0xbd7dc778	-0.061957806
253	0x3d69ef10	0.057112753
254	0xbd5e2e1e	-0.0542432
255	0xbd5f1346	-0.05446174

model_1/lstm_51/while/lstm_cell_10/MatMul f4 [400, 3]
0	0x3db2203b	0.08697554
1	0x3d831cc9	0.06401975
2	0xbda5c065	-0.08093337
3	0x3cfe8747	0.031070365
4	0x3b1c3570	0.0023835562
5	0xbdc97bfb	-0.098381005
6	0xbcf32403	-0.029680258
7	0xbdcf9b17	-0.10137003
8	0x3d24ebe4	0.040264025
9	0x3d5c61c2	0.053804167
10	0xbdb655db	-0.089030944
11	0x3c6aced8	0.014331542
12	0x3df1b08f	0.11801254
13	0x3d0917f1	0.033470098
14	0x3ddc072b	0.10743555
15	0x3cfc86fc	0.030826084
16	0xbd8f3348	-0.06992203
17	0x3dad7473	0.084694766
18	0xbd44c87d	-0.048042763
19	0x3dcd525f	0.10025477
20	0x3de2d562	0.11075856
21	0xbddc9167	-0.10769921
22	0xbd96aae6	-0.07356815
23	0xbde8fe12	-0.11376585
24	0xbceb7e8c	-0.028746866
25	0x3d03acf6	0.03214737
26	0x3cdc87bc	0.026920192
27	0xbb91da18	-0.0044510476
28	0x3d8365dc	0.064159125
29	0x3b55e79b	0.0032639268
30	0x3dc799bd	0.0974612
31	0xbd9cde1c	-0.076595515
32	0xbdf43f67	-0.119261555
33	0xbd54648d	-0.051853705
34	0xbddb368a	-0.10703762
35	0x3cdb277a	0.026752222
36	0xbcfced89	-0.030874984
37	0xbcf1390a	-0.029446144
38	0xbc1458f8	-0.009054415
39	0xbd30092a	-0.04297749
40	0xbc2b0998	-0.010439299
41	0x3d8b0b59	0.06789274
42	0xbba09c10	-0.0049014166
43	0x3dab1993	0.08354487
44	0xbcf09db0	-0.029372066
45	0x3d59ea02	0.053201683
46	0xbd870983	-0.06593611
47	0x3de702c9	0.11279828
48	0x3d651195	0.05592497
49	0xbdb243f0	-0.08704364
50	0xbd6a1b5e	-0.057155006
51	0xbd94f63c	-0.07273528
52	0xbcdca580	-0.026934385
53	0xbdf78d27	-0.120874695
54	0xbce2c34e	-0.02768102
55	0x3d4bc1b7	0.049745288
56	0x3decac80	0.11556339
57	0xbdebe736	-0.11518709
58	0xbb491496	-0.0030682436
59	0x3d2ff1bf	0.042955156
60	0x3dacaefa	0.08431812
61	0xbd039a52	-0.032129593
62	0xbd7b21ff	-0.061311718
63	0xbc1f6bd8	-0.009730302
64	0x3d681647	0.05666187
65	0x3da70974	0.081561
66	0xbd568985	-0.052377243
67	0xbdbfd6b5	-0.09367124
68	0xbb83bf4b	-0.0040206066
69	0x3da24d9d	0.0792496
70	0x3ce3853d	0.027773494
71	0xbd961bd3	-0.07329526
72	0xbd38bb2e	-0.045100383
73	0x3c880735	0.016605
74	0xbdc91267	-0.09817963
75	0xbd165286	-0.036699794
76	0x3d988ca9	0.07448704
77	0x3dad9c1f	0.08477043
78	0x3c1fcd07	0.009753472
79	0x3cfef8a5	0.031124422
80	0xbcde7d3f	-0.027159331
81	0x3d66cea5	0.056349415
82	0xbd27d92c	-0.040978596
83	0xbd31f5aa	-0.043447174
84	0x3dc45a62	0.09587552
85	0x3dc41d1a	0.09575863
86	0xbdb57d91	-0.088618405
87	0x3aa2a23b	0.0012407968
88	0xbd9b4a07	-0.07582479
89	0x3cdccb9f	0.026952563
90	0x3d89148b	0.066933714
91	0xbb479060	-0.0030451044
92	0x3c81ec94	0.01585988
93	0x3deacd67	0.11464959
94	0x3db259c9	0.087085314
95	0xbc37fd70	-0.011229858
96	0xbbe04292	-0.0068438733
97	0xbdce855c	-0.1008403
98	0x3c70df08	0.014701612
99	0x3bf66cf0	0.0075203106
100	0xbd750b72	-0.05982537
101	0x3bbc34f0	0.0057436153
102	0x3da400e3	0.08007982
103	0xbd92b4c5	-0.07163385
104	0x3dcea459	0.100899406
105	0xbd26b16b	-0.040696543
106	0xbdba6c1f	-0.09102654
107	0x3ddd354d	0.10801182
108	0x3df4fc35	0.11962167
109	0xbdb58368	-0.088629544
110	0xbb29b980	-0.002589792
111	0x3c984c34	0.018591024
112	0xbdcd491a	-0.10023709
113	0xbdb93176	-0.09042637
114	0x3dca3c01	0.09874726
115	0x3deea5db	0.11652728
116	0x3d1d1bd6	0.038356625
117	0xbcf1c738	-0.02951394
118	0x3c5db4e8	0.013531901
119	0x3d5d8b0e	0.05408769
120	0x3c938e6c	0.018012248
121	0x3cf1a106	0.029495727
122	0xbcd3693c	-0.025807016
123	0x3df484a7	0.11939364
124	0x3d692c62	0.056927092
125	0x3db6e991	0.08931268
126	0x3d99155d	0.07474778
127	0x3defd63f	0.11710786
128	0x3dec9111	0.11551107
129	0x3d846fb5	0.06466619
130	0x3d469586	0.04848244
131	0xbde1bf6b	-0.11022838
132	0xba744b80	-0.00093191117
133	0xbdb00ee2	-0.08596589
134	0x3df79791	0.12089456
135	0xbdc67483	-0.096901916
136	0xbcb01fe4	-0.021499582
137	0x3dc6db7f	0.09709834
138	0xbbb56a70	-0.00553637
139	0xbc88d888	-0.016704813
140	0x3de8dfd7	0.11370819
141	0x3c2d8d78	0.010592811
142	0xbb90aa90	-0.004414864
143	0xbca2460c	-0.019808792
144	0x3dcb6fb5	0.09933416
145	0x3dc8e08f	0.09808456
146	0xbdc3b6f4	-0.0955638
147	0x3dc6a839	0.09700055
148	0xbd555520	-0.052083135
149	0x3d695077	0.056961503
150	0xbc8144c0	-0.015779853
151	0x3d98f847	0.0746923
152	0x3d844993	0.06459346
153	0x3c467466	0.0121127125
154	0x3ddc5f00	0.10760307
155	0x3c943192	0.018090043
156	0xbcd46208	-0.025925651
157	0xbdb8cb90	-0.090232015
158	0xbd87dbe2	-0.06633736
159	0x3cbc9cb4	0.02302394
160	0x3dd27443	0.102760814
161	0xbde91f95	-0.11382977
162	0xbdbc6bea	-0.092002705
163	0xbd2fd7ce	-0.042930417
164	0x3df7d8ed	0.12101922
165	0x3dddab8f	0.10823738
166	0xbdd4dd8d	-0.1039382
167	0xbc8a1e00	-0.016860008
168	0xbd50b4fd	-0.050953854
169	0x3ce8f059	0.02843492
170	0xbdc2101a	-0.094757274
171	0x3da16c5a	0.078819945
172	0x3d6ae852	0.057350464
173	0x3cd2fd60	0.025755584
174	0x3da85dbf	0.08221006
175	0xbce4c246	-0.027924668
176	0x3db822a4	0.08990982
177	0x3db3af07	0.08773618
178	0x3d279ee2	0.040923007
179	0xbdc9e95b	-0.09858962
180	0x3db66856	0.08906619
181	0x3df33f02	0.11877252
182	0xbdd08e58	-0.101834
183	0xbdd37a90	-0.10326111
184	0xbda6fd7c	-0.08153817
185	0xbbaf0ab0	-0.00534185
186	0x3d981792	0.07426371
187	0x3df76027	0.120788865
188	0x3d56875e	0.05237519
189	0xbd979c10	-0.074028134
190	0x3d01111d	0.03151046
191	0xbd470daf	-0.048597034
192	0x3da4b8df	0.08043074
193	0xbd0d27c3	-0.034461748
194	0xbc0e6507	-0.008691079
195	0x3b8f0d70	0.0043656155
196	0xbdada438	-0.08478588
197	0xbd84e732	-0.064894095
198	0x3dc666f9	0.09687609
199	0x3d5772e0	0.052599788
200	0xbdcb545b	-0.09928199
201	0x3d8fea0a	0.07027061
202	0xbdb2979b	-0.08720323
203	0x3d34b77e	0.044120304
204	0x3d251c8a	0.04031042
205	0x3dc6e9bd	0.09712551
206	0xbd067b78	-0.032832593
207	0xbdf44cee	-0.11928736
208	0x3d27b91e	0.040948026
209	0x3d1f65d2	0.038915463
210	0xbca2b72a	-0.01986273
211	0x3da0143c	0.078163594
212	0xbdf203e4	-0.11817148
213	0x3cb42d1c	0.021994166
214	0xbd99c79a	-0.07508774
215	0xbdd68e2e	-0.104763374
216	0xbc5cd60d	-0.013478768
217	0xbdd09b39	-0.10185856
218	0x3de0752d	0.109598495
219	0xbd0db7d8	-0.034599155
220	0x3dc1eb2c	0.094686836
221	0xbbd490a4	-0.006486969
222	0xbd126892	-0.035744257
223	0xbd323a6a	-0.04351274
224	0xbd769a71	-0.06020588
225	0xbd91d7b9	-0.07121224
226	0xbc2fcff2	-0.01073073
227	0x3d8c333c	0.0684571
228	0x3d59c1d6	0.053163372
229	0xbd6d8306	-0.05798628
230	0x3de8b3f9	0.11362452
231	0x3d5fe774	0.05466409
232	0x3dac7b43	0.08421948
233	0xbde9fe8a	-0.114255026
234	0xbdd737c5	-0.10508684
235	0xbd0cc0ea	-0.034363665
236	0xbd5814ca	-0.0527542
237	0xbdb7ce28	-0.08974868
238	0xbc8ed6f4	-0.017436482
239	0xbdc12afd	-0.094320275
240	0xbddaf470	-0.10691154
241	0x3d650aea	0.05591861
242	0x3ded13e3	0.11576059
243	0x3dc647ce	0.096816644
244	0x3dd5729d	0.104222514
245	0x3da479f0	0.0803107
246	0x3df42459	0.11920995
247	0xbd6b8bbc	-0.057506308
248	0xbcc69a7d	-0.024243588
249	0xbd83327a	-0.06406112
250	0xbd9449b6	-0.07240622
251	0x3d1e619e	0.038667314
252	0x3d701e46	0.05862262
253	0x3d959d61	0.07305408
254	0x3cad3c44	0.021146901
255	0xbd26bda9	-0.040708218

lstm_52/lstm_cell_11/bias1 f4 [400]
0	0x00000000	0.0
1	0xbaa5574a	-0.0012614515
2	0xb80cb756	-3.3549346e-05
3	0x00000000	0.0
4	0x33ea87df	1.0921189e-07
5	0x00000000	0.0
6	0xb8aab20a	-8.139394e-05
7	0xbad95f90	-0.0016584266
8	0xb5fa6667	-1.8656254e-06
9	0xb9351973	-0.00017270986
10	0xb7801aa4	-1.5271195e-05
11	0xb6979d3f	-4.5184565e-06
12	0xba388663	-0.0007039068
13	0xb51aba14	-5.764025e-07
14	0xb7df23da	-2.6600366e-05
15	0xb5ec080e	-1.7585714e-06
16	0xbac8ae57	-0.0015310746
17	0xbaa677c1	-0.0012700484
18	0xb6f79ced	-7.379442e-06
19	0xba8dcbd8	-0.0010818196
20	0xba8894eb	-0.0010420358
21	0xb80a60c3	-3.299188e-05
22	0xba83599d	-0.0010021214
23	0xafbef4c8	-3.4734726e-10
24	0xba8cce4e	-0.0010742636
25	0xb9b5ae17	-0.00034652717
26	0x00000000	0.0
27	0xba3f3c8e	-0.0007295095
28	0xb7e63810	-2.7444243e-05
29	0xba949646	-0.0011336289
30	0xb4e09972	-4.1834898e-07
31	0xb6ce5220	-6.148839e-06
32	0xb7c5ecbf	-2.3594474e-05
33	0xbae0e7c5	-0.0017158916
34	0xbab8919c	-0.0014081481
35	0xbb157d16	-0.0022810153
36	0x00000000	0.0
37	0xbab37db2	-0.0013694076
38	0xbac979e9	-0.0015371415
39	0xb6278108	-2.4960045e-06
40	0xb4876278	-2.5217355e-07
41	0xb9f90e24	-0.00047503517
42	0xb2fbf669	-2.93323e-08
43	0xb846a222	-4.7357877e-05
44	0x3a04bf5c	0.0005063915
45	0xb9cfd26b	-0.0003963889
46	0xb65927d0	-3.2358694e-06
47	0xb5a221fa	-1.2079829e-06
48	0xba2ef383	-0.00066738593
49	0xbaf543f5	-0.0018712269
50	0xba60f8d8	-0.00085820025
51	0xba21f150	-0.0006177621
52	0x00000000	0.0
53	0x00000000	0.0
54	0xb642b9a2	-2.9016305e-06
55	0x00000000	0.0
56	0xb7863adb	-1.6001452e-05
57	0x00000000	0.0
58	0xb8361ad1	-4.3417156e-05
59	0x00000000	0.0
60	0xba3e109b	-0.0007250399
61	0xbaf4d292	-0.0018678477
62	0xb2262c2a	-9.6725135e-09
63	0xbaf7828c	-0.001888351
64	0x00000000	0.0
65	0xb3d54573	-9.931218e-08
66	0xb4464a4b	-1.8467215e-07
67	0x00000000	0.0
68	0xb84c71e9	-4.8743477e-05
69	0xb7a73bf7	-1.9935875e-05
70	0xb504c27d	-4.945685e-07
71	0x00000000	0.0
72	0xb25fbe32	-1.3023554e-08
73	0xb7dda322	-2.6421218e-05
74	0xb995411b	-0.00028468002
75	0xb48b0354	-2.589319e-07
76	0xb6683605	-3.4602137e-06
77	0xba2b7091	-0.0006539906
78	0xb9944d7d	-0.00028286493
79	0xba8f88a5	-0.0010950757
80	0x00000000	0.0
81	0x00000000	0.0
82	0xb5122e07	-5.4456217e-07
83	0xb097dcd7	-1.1049462e-09
84	0xbaea7571	-0.0017887783
85	0xb735348c	-1.0800675e-05
86	0x00000000	0.0
87	0xbb06a019	-0.0020542203
88	0x00000000	0.0
89	0x00000000	0.0
90	0xb5f70001	-1.8402935e-06
91	0xbb0b56e7	-0.0021261515
92	0x00000000	0.0
93	0xbb0c4f66	-0.002140963
94	0xb7d9cda3	-2.5964173e-05
95	0xba877882	-0.0010335597
96	0xbafee405	-0.0019446617
97	0xbab86f94	-0.0014071339
98	0xb4292391	-1.575229e-07
99	0xb2b2f66c	-2.0833987e-08
100	0x3f800000	1.0
101	0x3f800000	1.0
102	0x3f800000	1.0
103	0x3f800000	1.0
104	0x3f800000	1.0
105	0x3f800000	1.0
106	0x3f800000	1.0
107	0x3f800000	1.0
108	0x3f800000	1.0
109	0x3f800000	1.0
110	0x3f800000	1.0
111	0x3f800000	1.0
112	0x3f800000	1.0
113	0x3f800000	1.0
114	0x3f800000	1.0
115	0x3f800000	1.0
116	0x3f800000	1.0
117	0x3f800000	1.0
118	0x3f800000	1.0
119	0x3f800000	1.0
120	0x3f800000	1.0
121	0x3f800000	1.0
122	0x3f800000	1.0
123	0x3f800000	1.0
124	0x3f800000	1.0
125	0x3f800000	1.0
126	0x3f800000	1.0
127	0x3f800000	1.0
128	0x3f800000	1.0
129	0x3f800000	1.0
130	0x3f800000	1.0
131	0x3f800000	1.0
132	0x3f800000	1.0
133	0x3f800000	1.0
134	0x3f800000	1.0
135	0x3f800000	1.0
136	0x3f800000	1.0
137	0x3f800000	1.0
138	0x3f800000	1.0
139	0x3f800000	1.0
140	0x3f800000	1.0
141	0x3f800000	1.0
142	0x3f800000	1.0
143	0x3f800000	1.0
144	0x3f800000	1.0
145	0x3f800000	1.0
146	0x3f800000	1.0
147	0x3f800000	1.0
148	0x3f800000	1.0
149	0x3f800000	1.0
150	0x3f800000	1.0
151	0x3f800000	1.0
152	0x3f800000	1.0
153	0x3f800000	1.0
154	0x3f800000	1.0
155	0x3f800000	1.0
156	0x3f800000	1.0
157	0x3f800000	1.0
158	0x3f800000	1.0
159	0x3f800000	1.0
160	0x3f800000	1.0
161	0x3f800000	1.0
162	0x3f800000	1.0
163	0x3f800000	1.0
164	0x3f800000	1.0
165	0x3f800000	1.0
166	0x3f800000	1.0
167	0x3f800000	1.0
168	0x3f800000	1.0
169	0x3f800000	1.0
170	0x3f800000	1.0
171	0x3f800000	1.0
172	0x3f800000	1.0
173	0x3f800000	1.0
174	0x3f800000	1.0
175	0x3f800000	1.0
176	0x3f800000	1.0
177	0x3f800000	1.0
178	0x3f800000	1.0
179	0x3f800000	1.0
180	0x3f800000	1.0
181	0x3f800000	1.0
182	0x3f800000	1.0
183	0x3f800000	1.0
184	0x3f800000	1.0
185	0x3f800000	1.0
186	0x3f800000	1.0
187	0x3f800000	1.0
188	0x3f800000	1.0
189	0x3f800000	1.0
190	0x3f800000	1.0
191	0x3f800000	1.0
192	0x3f800000	1.0
193	0x3f800000	1.0
194	0x3f800000	1.0
195	0x3f800000	1.0
196	0x3f800000	1.0
197	0x3f800000	1.0
198	0x3f800000	1.0
199	0x3f800000	1.0
200	0x00000000	0.0
201	0x3b49da50	0.003080029
202	0xbbc3b0cc	-0.0059720036
203	0x00000000	0.0
204	0xbb95c8fd	-0.004571079
205	0x00000000	0.0
206	0xbbc39946	-0.0059691994
207	0x3b4afdf3	0.003097412
208	0xbbbb6803	-0.0057191863
209	0x3ab7f9af	0.0014036204
210	0xbbc3ae15	-0.00597168
211	0xbbc27a94	-0.0059350226
212	0x3b2e61ca	0.002660858
213	0xbba49165	-0.005022215
214	0xbbc1f1d2	-0.00591872
215	0xbbab573e	-0.005228906
216	0x3b0ee5e3	0.0021804504
217	0xbbc8ca21	-0.0061276113
218	0xbbc2a883	-0.0059404983
219	0x3b1c4b20	0.002384849
220	0x3b47f3bf	0.0030510274
221	0xbbc396d2	-0.005968907
222	0x3b46bb7b	0.003032415
223	0xb966bdb9	-0.00022005186
224	0x3b488f18	0.0030602869
225	0xbbc8917f	-0.00612086
226	0x00000000	0.0
227	0x3b42eaf1	0.0029742087
228	0xbbc30b76	-0.005952294
229	0xbbdb46e8	-0.0066918023
230	0xbb9e436f	-0.004829816
231	0xbb9b8794	-0.004746387
232	0xbbc1c9af	-0.005913935
233	0x3b4b7381	0.0031044187
234	0x3b49e43c	0.0030806204
235	0x3ad1942f	0.0015989597
236	0x00000000	0.0
237	0x3b4b25d7	0.0030997896
238	0x3b48ae92	0.003062163
239	0xbbc1e2b9	-0.00591692
240	0xbb96478b	-0.0045861653
241	0x3b2f2936	0.0026727444
242	0xbb6abc56	-0.0035817823
243	0xbbc318c3	-0.0059538796
244	0x3c3a63b0	0.011376306
245	0xbbb39d05	-0.0054813647
246	0xbbbc5e59	-0.005748552
247	0xbbba98f3	-0.0056945025
248	0x3b21b0ca	0.0024672025
249	0x3b4c161d	0.003114111
250	0xbb97cb72	-0.004632407
251	0xbbe182c1	-0.006882042
252	0x00000000	0.0
253	0x00000000	0.0
254	0xbbc310c0	-0.0059529245
255	0x00000000	0.0
