lstm3_ae_0801.tflite (tflite, 53064 bytes, 5 tensors)

lstm/lstm_cell/bias f4 [200]
000000 00 00 00 00 00 00 00 00 00 00 00 00 00 00 00 00
       0.0 0.0 0.0 0.0
000010 00 00 00 00 00 00 00 00 00 00 00 00 00 00 00 00
       0.0 0.0 0.0 0.0
000020 00 00 00 00 00 00 00 00 00 00 00 00 00 00 00 00
       0.0 0.0 0.0 0.0
000030 00 00 00 00 00 00 00 00 00 00 00 00 00 00 00 00
       0.0 0.0 0.0 0.0
000040 00 00 00 00 00 00 00 00 00 00 00 00 00 00 00 00
       0.0 0.0 0.0 0.0
000050 00 00 00 00 00 00 00 00 00 00 00 00 00 00 00 00
       0.0 0.0 0.0 0.0
000060 00 00 00 00 00 00 00 00 00 00 00 00 00 00 00 00
       0.0 0.0 0.0 0.0
000070 00 00 00 00 00 00 00 00 00 00 00 00 00 00 00 00
       0.0 0.0 0.0 0.0
000080 00 00 00 00 00 00 00 00 00 00 00 00 00 00 00 00
       0.0 0.0 0.0 0.0
000090 00 00 00 00 00 00 00 00 00 00 00 00 00 00 00 00
       0.0 0.0 0.0 0.0
0000a0 00 00 00 00 00 00 00 00 00 00 00 00 00 00 00 00
       0.0 0.0 0.0 0.0
0000b0 00 00 00 00 00 00 00 00 00 00 00 00 00 00 00 00
       0.0 0.0 0.0 0.0
0000c0 00 00 00 00 00 00 00 00 00 00 80 3f 00 00 80 3f
       0.0 0.0 1.0 1.0
0000d0 00 00 80 3f 00 00 80 3f 00 00 80 3f 00 00 80 3f
       1.0 1.0 1.0 1.0
0000e0 00 00 80 3f 00 00 80 3f 00 00 80 3f 00 00 80 3f
       1.0 1.0 1.0 1.0
0000f0 00 00 80 3f 00 00 80 3f 00 00 80 3f 00 00 80 3f
       1.0 1.0 1.0 1.0
000100 00 00 80 3f 00 00 80 3f 00 00 80 3f 00 00 80 3f
       1.0 1.0 1.0 1.0
000110 00 00 80 3f 00 00 80 3f 00 00 80 3f 00 00 80 3f
       1.0 1.0 1.0 1.0
000120 00 00 80 3f 00 00 80 3f 00 00 80 3f 00 00 80 3f
       1.0 1.0 1.0 1.0
000130 00 00 80 3f 00 00 80 3f 00 00 80 3f 00 00 80 3f
       1.0 1.0 1.0 1.0
000140 00 00 80 3f 00 00 80 3f 00 00 80 3f 00 00 80 3f
       1.0 1.0 1.0 1.0
000150 00 00 80 3f 00 00 80 3f 00 00 80 3f 00 00 80 3f
       1.0 1.0 1.0 1.0
000160 00 00 80 3f 00 00 80 3f 00 00 80 3f 00 00 80 3f
       1.0 1.0 1.0 1.0
000170 00 00 80 3f 00 00 80 3f 00 00 80 3f 00 00 80 3f
       1.0 1.0 1.0 1.0
000180 00 00 80 3f 00 00 80 3f 00 00 80 3f 00 00 80 3f
       1.0 1.0 1.0 1.0
000190 00 00 00 00 00 00 00 00 00 00 00 00 00 00 00 00
       0.0 0.0 0.0 0.0
0001a0 00 00 00 00 00 00 00 00 00 00 00 00 00 00 00 00
       0.0 0.0 0.0 0.0
0001b0 00 00 00 00 00 00 00 00 00 00 00 00 00 00 00 00
       0.0 0.0 0.0 0.0
0001c0 00 00 00 00 00 00 00 00 00 00 00 00 00 00 00 00
       0.0 0.0 0.0 0.0
0001d0 00 00 00 00 00 00 00 00 00 00 00 00 00 00 00 00
       0.0 0.0 0.0 0.0
0001e0 00 00 00 00 00 00 00 00 00 00 00 00 00 00 00 00
       0.0 0.0 0.0 0.0
0001f0 00 00 00 00 00 00 00 00 00 00 00 00 00 00 00 00
       0.0 0.0 0.0 0.0
000200 00 00 00 00 00 00 00 00 00 00 00 00 00 00 00 00
       0.0 0.0 0.0 0.0
000210 00 00 00 00 00 00 00 00 00 00 00 00 00 00 00 00
       0.0 0.0 0.0 0.0
000220 00 00 00 00 00 00 00 00 00 00 00 00 00 00 00 00
       0.0 0.0 0.0 0.0
000230 00 00 00 00 00 00 00 00 00 00 00 00 00 00 00 00
       0.0 0.0 0.0 0.0
000240 00 00 00 00 00 00 00 00 00 00 00 00 00 00 00 00
       0.0 0.0 0.0 0.0
000250 00 00 00 00 00 00 00 00 00 00 00 00 00 00 00 00
       0.0 0.0 0.0 0.0
000260 00 00 00 00 00 00 00 00 00 00 00 00 00 00 00 00
       0.0 0.0 0.0 0.0
000270 00 00 00 00 00 00 00 00 00 00 00 00 00 00 00 00
       0.0 0.0 0.0 0.0
000280 00 00 00 00 00 00 00 00 00 00 00 00 00 00 00 00
       0.0 0.0 0.0 0.0
000290 00 00 00 00 00 00 00 00 00 00 00 00 00 00 00 00
       0.0 0.0 0.0 0.0
0002a0 00 00 00 00 00 00 00 00 00 00 00 00 00 00 00 00
       0.0 0.0 0.0 0.0
0002b0 00 00 00 00 00 00 00 00 00 00 00 00 00 00 00 00
       0.0 0.0 0.0 0.0
0002c0 00 00 00 00 00 00 00 00 00 00 00 00 00 00 00 00
       0.0 0.0 0.0 0.0
0002d0 00 00 00 00 00 00 00 00 00 00 00 00 00 00 00 00
       0.0 0.0 0.0 0.0
0002e0 00 00 00 00 00 00 00 00 00 00 00 00 00 00 00 00
       0.0 0.0 0.0 0.0
0002f0 00 00 00 00 00 00 00 00 00 00 00 00 00 00 00 00
       0.0 0.0 0.0 0.0
000300 00 00 00 00 00 00 00 00 00 00 00 00 00 00 00 00
       0.0 0.0 0.0 0.0
000310 00 00 00 00 00 00 00 00 00 00 00 00 00 00 00 00
       0.0 0.0 0.0 0.0

sequential/dense/Tensordot/MatMul f4 [1, 50]
000000 5c 05 84 3d 36 bb 69 3e 77 5a 39 be 58 77 67 bd
       0.06446335 0.22825322 -0.18100916 -0.0565103
000010 3c 88 73 be 0c 20 de 3d d8 fc b6 3d 5f ab 22 be
       -0.23782438 0.10845956 0.08934945 -0.15885685
000020 9f bb 80 3e ae db e2 bd 7e 79 e1 bd 90 99 9e 3d
       0.25143144 -0.11077057 -0.11009501 0.077441335
000030 d6 72 56 3e 9c c7 fe bd d9 cb ad 3e 73 17 91 3e
       0.20942244 -0.12440416 0.33944586 0.28338203
000040 5e 0d 25 3e 80 86 4f bd b9 af a2 3e c2 1d 2c 3e
       0.1611838 -0.05066538 0.3177469 0.16808227
000050 64 ce a1 3d 05 86 a7 be 00 80 51 39 46 91 43 3e
       0.07900694 -0.32719436 0.00019979477 0.19098386
000060 40 63 89 be 00 77 b9 3a dc 1a 6d be e6 96 00 3e
       -0.26833534 0.0014149845 -0.23154777 0.12557563
000070 90 3e 3d 3d 55 a2 24 be 40 18 fd bb 7f a2 14 be
       0.046202242 -0.1607755 -0.007723838 -0.14515112
000080 b0 1b ac bc ca 20 49 3e 0e 04 7d 3e 4a 41 41 3e
       -0.021009296 0.19641414 0.24708578 0.18872562
000090 84 fd c8 3d 51 54 14 be 08 01 04 3d 6c 5d 8d bd
       0.09813979 -0.14485289 0.032227546 -0.069025844
0000a0 18 02 ac be 44 64 84 be 96 0c ac be b0 c3 4b bd
       -0.33595347 -0.25857747 -0.33603352 -0.04974717
0000b0 12 c7 e5 bd c8 4a 1c bd 50 43 be 3c b0 83 4c bd
       -0.1121961 -0.038157254 0.023225456 -0.049930274
0000c0 98 e9 08 3d ec 7a 85 bd
       0.033425897 -0.06517586

lstm/lstm_cell/bias1 f4 [200]
000000 00 00 00 00 00 00 00 00 00 00 00 00 00 00 00 00
       0.0 0.0 0.0 0.0
000010 00 00 00 00 00 00 00 00 00 00 00 00 00 00 00 00
       0.0 0.0 0.0 0.0
000020 00 00 00 00 00 00 00 00 00 00 00 00 00 00 00 00
       0.0 0.0 0.0 0.0
000030 00 00 00 00 00 00 00 00 00 00 00 00 00 00 00 00
       0.0 0.0 0.0 0.0
000040 00 00 00 00 00 00 00 00 00 00 00 00 00 00 00 00
       0.0 0.0 0.0 0.0
000050 00 00 00 00 00 00 00 00 00 00 00 00 00 00 00 00
       0.0 0.0 0.0 0.0
000060 00 00 00 00 00 00 00 00 00 00 00 00 00 00 00 00
       0.0 0.0 0.0 0.0
000070 00 00 00 00 00 00 00 00 00 00 00 00 00 00 00 00
       0.0 0.0 0.0 0.0
000080 00 00 00 00 00 00 00 00 00 00 00 00 00 00 00 00
       0.0 0.0 0.0 0.0
000090 00 00 00 00 00 00 00 00 00 00 00 00 00 00 00 00
       0.0 0.0 0.0 0.0
0000a0 00 00 00 00 00 00 00 00 00 00 00 00 00 00 00 00
       0.0 0.0 0.0 0.0
0000b0 00 00 00 00 00 00 00 00 00 00 00 00 00 00 00 00
       0.0 0.0 0.0 0.0
0000c0 00 00 00 00 00 00 00 00 00 00 80 3f 00 00 80 3f
       0.0 0.0 1.0 1.0
0000d0 00 00 80 3f 00 00 80 3f 00 00 80 3f 00 00 80 3f
       1.0 1.0 1.0 1.0
0000e0 00 00 80 3f 00 00 80 3f 00 00 80 3f 00 00 80 3f
       1.0 1.0 1.0 1.0
0000f0 00 00 80 3f 00 00 80 3f 00 00 80 3f 00 00 80 3f
       1.0 1.0 1.0 1.0
000100 00 00 80 3f 00 00 80 3f 00 00 80 3f 00 00 80 3f
       1.0 1.0 1.0 1.0
000110 00 00 80 3f 00 00 80 3f 00 00 80 3f 00 00 80 3f
       1.0 1.0 1.0 1.0
000120 00 00 80 3f 00 00 80 3f 00 00 80 3f 00 00 80 3f
       1.0 1.0 1.0 1.0
000130 00 00 80 3f 00 00 80 3f 00 00 80 3f 00 00 80 3f
       1.0 1.0 1.0 1.0
000140 00 00 80 3f 00 00 80 3f 00 00 80 3f 00 00 80 3f
       1.0 1.0 1.0 1.0
000150 00 00 80 3f 00 00 80 3f 00 00 80 3f 00 00 80 3f
       1.0 1.0 1.0 1.0
000160 00 00 80 3f 00 00 80 3f 00 00 80 3f 00 00 80 3f
       1.0 1.0 1.0 1.0
000170 00 00 80 3f 00 00 80 3f 00 00 80 3f 00 00 80 3f
       1.0 1.0 1.0 1.0
000180 00 00 80 3f 00 00 80 3f 00 00 80 3f 00 00 80 3f
       1.0 1.0 1.0 1.0
000190 00 00 00 00 00 00 00 00 00 00 00 00 00 00 00 00
       0.0 0.0 0.0 0.0
0001a0 00 00 00 00 00 00 00 00 00 00 00 00 00 00 00 00
       0.0 0.0 0.0 0.0
0001b0 00 00 00 00 00 00 00 00 00 00 00 00 00 00 00 00
       0.0 0.0 0.0 0.0
0001c0 00 00 00 00 00 00 00 00 00 00 00 00 00 00 00 00
       0.0 0.0 0.0 0.0
0001d0 00 00 00 00 00 00 00 00 00 00 00 00 00 00 00 00
       0.0 0.0 0.0 0.0
0001e0 00 00 00 00 00 00 00 00 00 00 00 00 00 00 00 00
       0.0 0.0 0.0 0.0
0001f0 00 00 00 00 00 00 00 00 00 00 00 00 00 00 00 00
       0.0 0.0 0.0 0.0
000200 00 00 00 00 00 00 00 00 00 00 00 00 00 00 00 00
       0.0 0.0 0.0 0.0
000210 00 00 00 00 00 00 00 00 00 00 00 00 00 00 00 00
       0.0 0.0 0.0 0.0
000220 00 00 00 00 00 00 00 00 00 00 00 00 00 00 00 00
       0.0 0.0 0.0 0.0
000230 00 00 00 00 00 00 00 00 00 00 00 00 00 00 00 00
       0.0 0.0 0.0 0.0
000240 00 00 00 00 00 00 00 00 00 00 00 00 00 00 00 00
       0.0 0.0 0.0 0.0
000250 00 00 00 00 00 00 00 00 00 00 00 00 00 00 00 00
       0.0 0.0 0.0 0.0
000260 00 00 00 00 00 00 00 00 00 00 00 00 00 00 00 00
       0.0 0.0 0.0 0.0
000270 00 00 00 00 00 00 00 00 00 00 00 00 00 00 00 00
       0.0 0.0 0.0 0.0
000280 00 00 00 00 00 00 00 00 00 00 00 00 00 00 00 00
       0.0 0.0 0.0 0.0
000290 00 00 00 00 00 00 00 00 00 00 00 00 00 00 00 00
       0.0 0.0 0.0 0.0
0002a0 00 00 00 00 00 00 00 00 00 00 00 00 00 00 00 00
       0.0 0.0 0.0 0.0
0002b0 00 00 00 00 00 00 00 00 00 00 00 00 00 00 00 00
       0.0 0.0 0.0 0.0
0002c0 00 00 00 00 00 00 00 00 00 00 00 00 00 00 00 00
       0.0 0.0 0.0 0.0
0002d0 00 00 00 00 00 00 00 00 00 00 00 00 00 00 00 00
       0.0 0.0 0.0 0.0
0002e0 00 00 00 00 00 00 00 00 00 00 00 00 00 00 00 00
       0.0 0.0 0.0 0.0
0002f0 00 00 00 00 00 00 00 00 00 00 00 00 00 00 00 00
       0.0 0.0 0.0 0.0
000300 00 00 00 00 00 00 00 00 00 00 00 00 00 00 00 00
       0.0 0.0 0.0 0.0
000310 00 00 00 00 00 00 00 00 00 00 00 00 00 00 00 00
       0.0 0.0 0.0 0.0

while/MatMul_1 f4 [200, 50]
000000 f0 a0 b1 3d 03 12 9a 3c f6 70 f5 3c fe 9c 83 bd
       0.086732745 0.018807417 0.02996109 -0.06426428
000010 64 54 30 3d e3 8d 63 3d 8e 36 49 bd b6 13 94 3d
       0.04304923 0.055555236 -0.049124293 0.07230322
000020 1a 49 be 3d ee 3b cd 3d 0d e7 13 3e b2 68 42 3e
       0.09291287 0.10021196 0.14443608 0.1898525
000030 73 57 45 bd 5e dc 2f bd f8 e7 93 3c a8 db 5b bc
       -0.0481791 -0.042934768 0.018054947 -0.013419069
000040 e8 08 87 bd c0 f7 63 3c 00 70 9e bc 0a 21 9f 3d
       -0.065934956 0.013914049 -0.019340515 0.077699736
000050 6a a1 03 3e 62 fd a6 3b f0 dd e5 bc 65 39 53 3d
       0.12854543 0.0050961236 -0.02805993 0.051568408
000060 1c 8d 09 bd b8 44 db bd e4 8b 81 bd 7c aa 51 3e
       -0.033581838 -0.107064664 -0.0632551 0.20475191
000070 70 ae d9 bd 43 ca 63 3d 6e bb 47 bc ad 50 5a 3d
       -0.106289744 0.055612814 -0.012190683 0.053299595
000080 f0 4a a8 bb 84 d2 f0 3c 50 be fa bd 56 b2 91 3d
       -0.0051358864 0.029397257 -0.122433305 0.07114093
000090 c0 44 aa 3d 82 68 c6 bd 54 ce 0c bd 46 2d 8e 3d
       0.08313894 -0.09687902 -0.034376457 0.06942229
0000a0 45 14 e0 3c c7 f0 1a 3d 6c e6 8d 3d 99 84 f1 bb
       0.027353415 0.03782728 0.06928715 -0.007370543
0000b0 a1 b2 2c bc a8 91 17 bd f6 21 e9 3c 70 16 a9 3d
       -0.010540635 -0.037004143 0.028458577 0.08256233
0000c0 aa 5d d8 bc 61 d9 84 3c ff f5 73 bc d0 b2 b4 bd
       -0.02641185 0.016216936 -0.014890193 -0.08823168
0000d0 47 4d 76 3c f6 2d 07 bd 07 87 29 bd 05 8c ca bc
       0.015033073 -0.033002816 -0.041388538 -0.02472497
0000e0 73 56 97 bd e0 4e b2 bc 06 0f 6f 3d 51 85 e9 3d
       -0.07389536 -0.021766126 0.058363937 0.11402381
0000f0 af a2 c9 3d b1 73 a2 3d 9e e9 b0 3c 2f d2 96 bb
       0.098454826 0.07932223 0.021595772 -0.0046026926
000100 b3 a1 77 3d e0 d7 20 bc fc 81 1e bd 5b 0c ee 3c
       0.060456943 -0.009817094 -0.03869818 0.029058626
000110 88 89 83 3d ef 36 ee 3c e8 b7 4e 3d 5e d5 79 3d
       0.064227164 0.029078929 0.050468355 0.0609945
000120 32 0b c9 3d 5e 90 77 3b 06 a8 5d bb af 08 f8 3c
       0.098165885 0.0037775259 -0.0033822074 0.030277578
000130 08 fc 26 bb ea a0 dc bd 2b a9 2d bd 68 36 1f 3e
       -0.0025479812 -0.107728794 -0.04239766 0.15548098
000140 5f ba 46 3b 7e 25 28 bd df 24 cb 3d 29 4a b7 bc
       0.0030323488 -0.04105138 0.09919142 -0.02237423
000150 2e 84 c5 3d 4a f5 97 3d 44 eb f6 3b 34 0a 00 bd
       0.09644352 0.07419832 0.00753537 -0.03125973
000160 5d ad 66 3d 85 7f 24 3d 4d 31 87 3c 98 85 0a 3d
       0.056317676 0.040160675 0.016503 0.03381881
000170 aa b3 02 bd 82 86 a4 bb 3a 0e ec bd af 58 d4 3d
       -0.031909622 -0.0050209174 -0.11526151 0.103684776
000180 da bd 3a 3a 35 d0 1d 3c 8f 65 75 3d bf dc 15 3e
       0.0007123627 0.00963216 0.059911307 0.14634989
000190 7c d6 81 bd 9a cc b2 bd a0 f7 19 be 69 e0 71 3d
       -0.06339738 -0.08730431 -0.15035868 0.059051905
0001a0 7f 32 b7 bd 58 63 35 bd a5 6e 2b 3d 74 48 e6 3c
       -0.08945178 -0.044284195 0.041853566 0.02811072
0001b0 3f 5a bf bc ca 12 12 bd 67 f9 91 bd 04 54 b6 bd
       -0.023358462 -0.03566245 -0.07127648 -0.089027435
0001c0 b3 cc 46 3d 8c 28 d7 bc 98 b9 46 3c 40 5a 92 bb
       0.04853506 -0.026264451 0.01212921 -0.004466325
0001d0 6d 1b 06 3d 7e cb 80 bd bc 90 aa bd 33 f5 cb bc
       0.032741 -0.06288813 -0.08328387 -0.024897194
0001e0 2d ee 77 3d f5 e3 5a bd e1 66 c4 bd ef 80 23 3d
       0.060529877 -0.053440053 -0.09589935 0.039917883
0001f0 c3 b9 b3 3c 12 6e 49 bd 94 8b 53 bd 18 a6 4c 3c
       0.021939164 -0.049177237 -0.051646784 0.012490772
000200 65 d1 18 3d d8 13 00 3e 6f 5b 19 bd 18 e7 b8 3b
       0.03730907 0.1250757 -0.037440713 0.005642783
000210 ee 85 4a 3d 6f b9 dd bd 9d 27 32 3d f6 9c 25 3e
       0.04944413 -0.10826384 0.04349481 0.16173157
000220 7f fb a2 3d d3 d5 2a 3d 2a 52 4a bd c4 56 8c 3d
       0.07958125 0.041707825 -0.049394764 0.06852487
000230 19 ac 03 be be cf 64 bc f6 bf 29 bd 55 f9 b0 bc
       -0.12858619 -0.013965545 -0.041442834 -0.021603266
000240 6c 26 ec 3d 26 b7 e2 bd 27 d3 93 bd 4c cf 5c bb
       0.11530766 -0.11070089 -0.072180085 -0.0033692895
000250 db bd 82 3c 8e 11 a2 bd df e1 2f bd 86 3e 06 bb
       0.01595967 -0.079135045 -0.042940017 -0.0020484044
000260 27 e6 8b bd 00 49 fc bc d0 20 49 ba 79 b0 43 bd
       -0.068310075 -0.030796528 -0.0007672431 -0.04777572
000270 3c 8b 70 3d 1f 7d 9b 3c 5d 2c 81 bd d6 82 74 3c
       0.058726534 0.01898056 -0.0630729 0.014923772
000280 7e fa d7 bb 47 91 96 3d 5c 6d b2 3c e6 3f 25 3d
       -0.0065911403 0.07351928 0.021780662 0.04034414
000290 fe 01 22 bc f6 ce 35 be 51 4e 2a 3e 3c a7 fe 3a
       -0.00988817 -0.1775473 0.16631438 0.0019428502
0002a0 98 08 b3 3d bf 73 fe bd 72 71 f3 bc ed d4 af bd
       0.087418735 -0.124244206 -0.02971718 -0.08585534
0002b0 72 ff 40 3d 61 0f b5 bc e9 c1 78 bd 7e 0d 5d bc
       0.04711861 -0.02210206 -0.060731802 -0.013491986
0002c0 db a6 0e be 0f 06 f1 bd 2a 4a 06 3d e0 37 08 bd
       -0.13930838 -0.11768734 0.032785572 -0.03325641
0002d0 c2 ce 18 3d 97 82 cd 3d 0d 29 84 bd 95 89 d8 bc
       0.037306555 0.10034674 -0.06453142 -0.026432792
0002e0 ac d1 78 3c 15 1e c7 bd 58 58 20 bd db c1 f9 bb
       0.015186708 -0.097225346 -0.03914675 -0.0076219863
0002f0 4d 84 ac bd a9 fe 96 bd 68 a5 5e bd 18 6a c8 3c
       -0.08423672 -0.07372791 -0.054356962 0.024464652
000300 5f fc 37 3d 43 bd 01 bc 99 aa 55 bd 83 5c 3c 3c
       0.044918414 -0.007918659 -0.052164648 0.011496666
000310 fd 1e d9 3d da 55 c0 bd c2 80 c3 3d cd e7 3a bd
       0.10601614 -0.09391375 0.09546043 -0.04563122
000320 dd 62 0c be ed 33 d4 bd cb 8a b8 bd 54 12 9e bd
       -0.13709588 -0.103614666 -0.09010848 -0.077183396
000330 40 af 42 bc 60 c5 a1 bb d3 8f 0e bd be a9 c0 bc
       -0.011882603 -0.004936859 -0.03480513 -0.02351844
000340 b6 b7 78 bd da d1 8a bc 93 90 c9 bd 25 49 d9 bd
       -0.060722075 -0.016945768 -0.098420285 -0.10609654
000350 14 60 4d 3d 17 9c dc bd d6 ca 81 bb f0 33 68 3a
       0.050140455 -0.10771959 -0.0039609475 0.0008857837
000360 64 cf 21 3d 0e 50 3e bd 92 87 34 be bb e2 61 bd
       0.039504424 -0.046463065 -0.17629841 -0.055147868
000370 34 6a 67 3e b9 de 53 bd 22 cc b1 bd ea 8e a2 bd
       0.22599107 -0.051726077 -0.08681513 -0.07937415
000380 d6 68 dd bd 44 54 29 bd 68 4d b2 3d 70 0a 08 bd
       -0.108110115 -0.041340128 0.0870617 -0.03321308
000390 cf 63 14 3d c8 14 69 bc c2 91 92 bc 84 ed e0 bc
       0.036227997 -0.014226146 -0.017891768 -0.027457006
0003a0 9d 3d cc bd 7a 12 f1 3d c3 c7 df 3c d8 b8 55 bd
       -0.09972689 0.11771102 0.027316933 -0.052178234
0003b0 65 f5 a3 3d c0 3a 9b bd 61 0e 8b bd 1e bb fa bb
       0.0800579 -0.07579565 -0.06789852 -0.0076517006
0003c0 ac 02 d4 3b 68 8e 93 bd 72 28 7d 3d 8d f8 8b 3d
       0.006470045 -0.07204896 0.06180615 0.06834517
0003d0 0d b4 2d 3e 4b 3c 8a 3d d2 0a da bb c8 d5 dc bc
       0.16963215 0.06749781 -0.006654122 -0.026957408
0003e0 d2 47 45 3d dc 8f 83 3d 03 b4 c0 3c 36 8e 2d 3c
       0.048164196 0.064239234 0.023523336 0.010592988
0003f0 a0 59 17 bc 8e 3a 22 3c 72 91 ea bc 20 98 d6 3d
       -0.009237677 0.009901656 -0.028633807 0.10478234

while/MatMul f4 [200, 1]
000000 a2 64 0b 3e 48 54 85 3d 68 28 af 3d 40 55 f9 bd
       0.13612607 0.06510216 0.08552629 -0.12174463
000010 80 ca d3 3b 34 f2 1f bd b8 7b 2c 3e 7c 4c b6 3d
       0.006463349 -0.039049342 0.1684407 0.08901307
000020 0c f5 37 3d 1c de e8 3d 18 a1 b6 bc 06 f2 82 3d
       0.04491143 0.11370489 -0.022293612 0.063938186
000030 98 1a b6 3d 02 84 0c 3e a0 3f d5 3d 00 7c 89 ba
       0.08891791 0.13722232 0.10412526 -0.0010489225
000040 a7 69 25 be 0c 19 e3 3d 60 f3 d0 3d 90 02 34 bc
       -0.16153584 0.11088762 0.1020267 -0.010986939
000050 90 b9 72 bc 2a 5f b0 bd 5c 15 1c be 42 3b bd bd
       -0.014814749 -0.08611901 -0.15242523 -0.09239818
000060 40 2f 14 3e a0 3d f1 bb 70 97 c1 3d 4c 7a 2c bd
       0.1447115 -0.0073620826 0.094527125 -0.04210882
000070 80 6f a6 3a 30 4b 16 3e d0 f6 bb 3d c0 45 0f 3e
       0.0012698025 0.1467712 0.09177935 0.13991451
000080 18 d8 ee bc 23 f0 2b be 20 f4 57 bd a4 c2 f6 bd
       -0.029155776 -0.16790824 -0.05272305 -0.120488435
000090 80 57 97 3b 17 7b 10 be 0c 16 17 be 82 f5 24 be
       0.004618585 -0.14109455 -0.14754504 -0.16109279
0000a0 e2 d6 10 3e f4 56 a9 3d 5e 63 0f be 36 e1 0c 3e
       0.14144471 0.08268538 -0.1400275 0.13757786
0000b0 88 10 b3 bd 06 f6 0b be 3e 6e 18 3e f4 1c e6 3d
       -0.087433875 -0.13668069 0.14885804 0.11235991
0000c0 71 bf b3 bd 01 f2 9f bd e3 98 0b be 84 45 c3 3d
       -0.08776749 -0.078098305 -0.1363254 0.095347434
0000d0 7a 58 00 3e 60 50 5f bc 38 87 de 3d 58 a9 a8 3c
       0.12533751 -0.013630003 0.10865635 0.020588562
0000e0 5c cc 02 3e d0 2a 2b 3d 50 b0 ff 3d 90 d5 e5 bc
       0.1277327 0.041788876 0.12484801 -0.028055936
0000f0 da 52 c1 bd a0 bd 20 3e bc 66 0d 3e d8 ba ed 3c
       -0.09439631 0.15697336 0.13808721 0.029019758
000100 78 8e 54 bd 8c 5f 41 3d 0e 60 25 3e 26 54 90 bd
       -0.05189368 0.04721026 0.16149923 -0.070473
000110 c4 43 ce bd f2 19 aa bd 45 82 e6 bd 40 3d 4b 3c
       -0.10071519 -0.0830573 -0.11255316 0.01240474
000120 32 d8 13 3e 4c f8 a0 bd f5 7c 2d be 18 c9 e3 bc
       0.1443794 -0.07859859 -0.16942199 -0.02780585
000130 e6 3e 96 bd c2 4f cf bd ee 1a 19 3e 94 d8 af 3d
       -0.07336216 -0.101226345 0.14951679 0.08586231
000140 e8 6b ee 3d fc e9 bb bd f4 d9 04 3e bb d7 86 bd
       0.11641675 -0.09175488 0.12973768 -0.06584116
000150 11 75 26 be d8 68 06 3e be ac 18 3e 20 f6 92 3b
       -0.16255595 0.13125932 0.14909646 0.004484907
000160 00 b4 28 be e0 d6 08 3c f8 e1 b4 3d a9 49 0e be
       -0.16474915 0.008352011 0.088321626 -0.13895287
000170 6e 71 02 3e c8 10 b7 bc 30 29 9b 3d e8 d2 b7 3d
       0.12738582 -0.02234687 0.07576215 0.08975774
000180 2f 82 26 be c4 cc d8 3d f8 4d d0 3d c0 61 7a bb
       -0.16260599 0.10585931 0.10171121 -0.0038205236
000190 40 5a 13 be 64 d1 67 3d a4 c4 56 3d 18 fa 04 3e
       -0.14389896 0.056596175 0.052433625 0.12986028
0001a0 41 d0 97 bd 96 d9 07 3e 8c 67 1f bd 84 30 b9 3d
       -0.07412768 0.13266596 -0.03891711 0.09042457
0001b0 18 09 3d bd 10 f3 3d bd 8a a6 27 3e ce e5 04 3e
       -0.04615125 -0.04637438 0.16372123 0.12978289
0001c0 87 b4 09 be 28 34 ac bd 08 60 b4 3d b2 76 26 3e
       -0.13447772 -0.084083855 0.08807379 0.16256216
0001d0 50 20 cd 3c 80 85 18 3c fa be 0a 3e c8 29 cd 3d
       0.025039822 0.009309173 0.13549414 0.10017735
0001e0 fc d2 07 be 58 ab 97 bd 82 5a 85 3d d0 c9 f6 bc
       -0.13264078 -0.07405728 0.065114036 -0.030125529
0001f0 c8 a0 de 3c c8 dc 8d bc c6 d7 0f be be dd 26 3e
       0.027176276 -0.01731719 -0.14047155 0.16295525
000200 5d 1e a0 bd d8 a6 cd bd 30 58 f9 bc bc c8 05 3e
       -0.07818291 -0.100415885 -0.030437559 0.13064855
000210 ee 46 4d bd 7c 2c 0d 3e 5c fe 07 3e 24 ad a8 3d
       -0.050116472 0.137865 0.13280624 0.08236149
000220 18 10 0a 3d 40 3c f8 3d 20 77 1e 3d fb 2d 16 be
       0.033706754 0.12120867 0.038687825 -0.14665978
000230 46 fd 84 3d 59 3f 92 bd f8 78 26 bd bd fb a1 bd
       0.064936206 -0.07140989 -0.04064271 -0.079093434
000240 fc 70 f4 3d 3e 53 87 3d e4 55 2d 3e 42 45 1a 3e
       0.119356126 0.06607674 0.16927296 0.15065482
000250 99 80 03 be 27 10 1d be 12 98 23 be cc a8 1c 3d
       -0.12842025 -0.15338193 -0.15975979 0.038246915
000260 0c de 0f 3e 5a 1a 58 bd 64 32 a2 3d 74 5c 97 bd
       0.14049548 -0.052759506 0.079197675 -0.07390681
000270 00 a7 f4 bd ee 72 c5 bd d0 1c db 3d 80 ae a3 ba
       -0.11945915 -0.09641062 0.10698855 -0.0012487918
000280 e0 66 c8 3d 2c c4 61 3d 8c 2e a0 3d 32 c5 2b 3e
       0.09785247 0.055118725 0.07821378 0.16774443
000290 a0 27 08 3d f2 61 11 be ab b2 97 bd a0 3e 8f 3c
       0.033240914 -0.1419752 -0.07407125 0.017485917
0002a0 48 ae 97 bc 90 af 98 bd 81 02 0d be 74 f2 18 bd
       -0.018515721 -0.07455361 -0.13770486 -0.037340596
0002b0 c7 c2 b1 bd 84 41 a8 bd 57 92 af bd 1c 6e b2 3d
       -0.08679729 -0.08215621 -0.08572834 0.08712408
0002c0 7c 04 15 3e a0 64 26 3d 90 e5 67 3c d8 12 f3 bd
       0.14552492 0.040623307 0.014153853 -0.118688285
0002d0 ac 97 43 bd 24 73 2a 3e 1e 9f 18 be 84 e1 d4 3d
       -0.047752067 0.16645485 -0.14904448 0.10394576
0002e0 28 41 21 bd 34 a5 10 bd c0 1a 3d 3d 88 6f 9a 3c
       -0.03936878 -0.0353138 0.04616809 0.01885201
0002f0 30 93 3f bd 58 ae 0d bd ba e4 8e 3d 18 b4 a0 3d
       -0.04677123 -0.034590095 0.0697722 0.0784685
000300 7e 8d 2c be b0 84 af 3d 02 e0 0d be 84 46 16 3e
       -0.1685085 0.0857023 -0.13854983 0.14675337
000310 4c 86 14 3e b2 35 a4 bd c8 eb d3 3d 96 96 28 3e
       0.14504355 -0.08018054 0.10347706 0.16463694
