lstm983_ae_0802.tflite (tflite, 76832 bytes, 10 tensors)

time_distributed_1/bias f4 [21]
000000 c6 ad 6d be 31 c8 85 be ad bc 51 be 9c 70 78 be
       -0.2321082 -0.26129296 -0.2048213 -0.24261707
000010 51 16 c0 bd f7 5c 8f be 3b 8a 01 be b1 02 34 be
       -0.093792565 -0.28000614 -0.12650387 -0.17579152
000020 d1 88 36 be 23 90 92 be c7 fd 42 be b5 9f 9f be
       -0.17825629 -0.28625593 -0.19042121 -0.31176534
000030 14 5b 7e be ab cc 8c be 13 09 94 be d8 8e a4 be
       -0.24839431 -0.274999 -0.28913173 -0.3214023
000040 a5 01 9d be d2 90 89 be 88 42 83 3e 12 72 7a be
       -0.30665317 -0.26868302 0.25636697 -0.24457577
000050 44 0f 78 3e
       0.24224573

lstm_5/lstm_cell_11/bias f4 [256]
000000 36 82 62 bc f5 09 21 3c ca 86 7e bc 02 a6 35 3c
       -0.01382499 0.009829034 -0.015535066 0.011086943
000010 b5 d1 0d 3c e2 c6 20 bc 2c ac ba ba 2d 00 be 3c
       0.008655955 -0.009813042 -0.0014241985 0.023193443
000020 67 c2 99 3b 40 4b 48 3b 48 a2 ce 3c 5b 56 81 bc
       0.004692364 0.003056243 0.025223866 -0.015788248
000030 62 69 56 3a 18 0f 28 bb 03 45 10 3d 0b f8 6e bb
       0.00081791554 -0.0025643762 0.035222065 -0.0036463763
000040 67 0b fc b9 be 39 e1 bb b2 0d 78 39 f6 93 3c 3c
       -0.0004807368 -0.0068733385 0.00023656225 0.011509886
000050 4c 71 c7 3c e2 3d 07 3c ef 14 37 bc 39 ba 86 bb
       0.024346016 0.0082545 -0.011174425 -0.004111555
000060 c0 72 cb 3c 7f 96 a9 3c cd 29 bc 3b 95 b9 06 bc
       0.02483499 0.020701645 0.0057422877 -0.008222957
000070 ba 80 36 3a ff cc 23 bb 31 f9 8d 3c 42 45 dc ba
       0.0006961931 -0.0024994013 0.017330738 -0.0016805308
000080 33 2b 31 3c 2c 4d ca 3b ce 94 90 3b e0 93 52 3c
       0.010813522 0.0061737504 0.00441227 0.012852639
000090 1c 0c db ba 77 4e c5 3b 07 9f 65 3c 9e 6e 15 bc
       -0.0016711983 0.0060213166 0.014014966 -0.0091206115
0000a0 80 b5 93 3c 9a 55 90 3c f6 1f a6 38 70 d0 c7 bb
       0.018030882 0.017618943 7.92145e-05 -0.0060978457
0000b0 ae a9 9b 3c 31 a5 ca 3c b0 27 6b 3c ec ae bc bb
       0.019001808 0.024736973 0.014352724 -0.005758157
0000c0 f8 59 8b 3b 9a 2c 75 3b 73 2d 39 bc 8c a7 ce 3b
       0.0042526685 0.0037410618 -0.01130234 0.0063065942
0000d0 e9 58 19 bc 57 9d a7 ba d3 ed 33 3a c2 02 23 3d
       -0.009359577 -0.001278798 0.00068637467 0.039797552
0000e0 2f 74 13 3c 9a d6 17 3d be 87 6e 3c f4 cd 92 bb
       0.008999868 0.037069894 0.014558731 -0.004480118
0000f0 33 94 9c 3b 08 e3 d9 bb be 40 23 3c b3 20 04 bc
       0.004778409 -0.0066493787 0.009964166 -0.008064437
000100 00 00 80 3f 00 00 80 3f 00 00 80 3f 00 00 80 3f
       1.0 1.0 1.0 1.0
000110 00 00 80 3f 00 00 80 3f 00 00 80 3f 00 00 80 3f
       1.0 1.0 1.0 1.0
000120 00 00 80 3f 00 00 80 3f 00 00 80 3f 00 00 80 3f
       1.0 1.0 1.0 1.0
000130 00 00 80 3f 00 00 80 3f 00 00 80 3f 00 00 80 3f
       1.0 1.0 1.0 1.0
000140 00 00 80 3f 00 00 80 3f 00 00 80 3f 00 00 80 3f
       1.0 1.0 1.0 1.0
000150 00 00 80 3f 00 00 80 3f 00 00 80 3f 00 00 80 3f
       1.0 1.0 1.0 1.0
000160 00 00 80 3f 00 00 80 3f 00 00 80 3f 00 00 80 3f
       1.0 1.0 1.0 1.0
000170 00 00 80 3f 00 00 80 3f 00 00 80 3f 00 00 80 3f
       1.0 1.0 1.0 1.0
000180 00 00 80 3f 00 00 80 3f 00 00 80 3f 00 00 80 3f
       1.0 1.0 1.0 1.0
000190 00 00 80 3f 00 00 80 3f 00 00 80 3f 00 00 80 3f
       1.0 1.0 1.0 1.0
0001a0 00 00 80 3f 00 00 80 3f 00 00 80 3f 00 00 80 3f
       1.0 1.0 1.0 1.0
0001b0 00 00 80 3f 00 00 80 3f 00 00 80 3f 00 00 80 3f
       1.0 1.0 1.0 1.0
0001c0 00 00 80 3f 00 00 80 3f 00 00 80 3f 00 00 80 3f
       1.0 1.0 1.0 1.0
0001d0 00 00 80 3f 00 00 80 3f 00 00 80 3f 00 00 80 3f
       1.0 1.0 1.0 1.0
0001e0 00 00 80 3f 00 00 80 3f 00 00 80 3f 00 00 80 3f
       1.0 1.0 1.0 1.0
0001f0 00 00 80 3f 00 00 80 3f 00 00 80 3f 00 00 80 3f
       1.0 1.0 1.0 1.0
000200 09 2a b6 3d aa b3 ad bd dd 23 50 3d 97 ab ca 3c
       0.08894736 -0.08481534 0.050815452 0.024740024
000210 8e 57 09 3d 0c 07 78 3c 96 5e ce bb 20 74 b7 3d
       0.033530764 0.015138399 -0.0062978966 0.08957696
000220 a4 d3 15 3d 3b 1d ad bd 4c a2 ed bc d7 f9 04 bd
       0.03657879 -0.08452841 -0.029008053 -0.03246483
000230 d1 6f 4a 3d 10 38 dc 3d 32 53 f1 bd 45 ae ce bc
       0.049423043 0.107528806 -0.11783446 -0.025229583
000240 d2 83 53 3d c1 f6 a0 bd 84 26 0f bd 5a 50 17 bd
       0.051639386 -0.078595646 -0.03494884 -0.036941864
000250 f3 d9 83 3d 19 91 58 bd c0 43 16 bd d2 c3 b3 3d
       0.06438055 -0.05287275 -0.036685705 0.08777584
000260 62 e9 b6 bd ad 6b 83 bd 14 27 6f bd 5e f9 68 bd
       -0.08931233 -0.06417022 -0.058386877 -0.05687844
000270 94 bd 0e bd f6 ff 66 bd 2b ad a3 3d 92 41 44 3d
       -0.034848765 -0.056396447 0.079920135 0.047914095
000280 50 b5 af 3d 80 73 85 3d 01 61 9a 3c 77 55 b0 bd
       0.085795045 0.065161705 0.018845083 -0.08610051
000290 82 7a 14 bd a5 72 c4 bc 00 ed 2e 3c 7a 93 77 3d
       -0.036249645 -0.023980448 0.010676622 0.06044338
0002a0 d9 7a 94 3c 92 6c d4 bc 14 8b 9a 3d 0c d3 b9 3d
       0.018124985 -0.025930677 0.07546058 0.09073457
0002b0 48 32 88 bd e4 c4 b0 3a 6e 76 a2 3d 7d 40 95 3d
       -0.066502154 0.0013486412 0.07932745 0.07287691
0002c0 bb 07 0e bd d4 d1 a7 3d b9 96 9e bd ce 9a 8e bd
       -0.03467534 0.081943184 -0.07743592 -0.069631204
0002d0 2e 96 99 bd 3e 7d a0 3d 75 1c a0 bd 56 fd a2 bd
       -0.074993476 0.07836388 -0.07817928 -0.07958476
0002e0 b4 48 97 bd f0 45 0d be 27 39 0a 3c 37 7c 85 3d
       -0.07386914 -0.1379621 0.008436478 0.06517833
0002f0 48 70 61 3d 54 89 78 bc 67 f8 db 3d ad f9 59 3d
       0.05503872 -0.01516946 0.10740738 0.053216625
000300 f5 59 42 bc 67 a6 80 bb 36 62 50 bc 61 4e e9 3b
       -0.011862268 -0.0039260867 -0.012718728 0.007119939
000310 f8 41 9a b6 e2 f3 1e bc 4a 04 d4 bb d0 34 cf bb
       -4.5972374e-06 -0.009701701 -0.006470238 -0.0063234344
000320 38 f6 60 bb 6e b9 0d 3b f0 af 84 3c 8f 90 b0 bb
       -0.0034326445 0.0021625417 0.016197175 -0.0053883265
000330 9f 4f bd bb 50 c1 27 3c c6 b6 92 3c 4d 70 d1 bb
       -0.005777314 0.01023896 0.017909419 -0.006391561
000340 17 5d 11 bb ba c4 d0 ba 26 22 4d 39 45 41 56 3b
       -0.002218073 -0.001592777 0.00019563045 0.0032692712
000350 3f 77 24 3c 87 04 26 3c 23 82 8f bc 4e 7e f0 bb
       0.010038196 0.010132915 -0.017518109 -0.0073392754
000360 74 5a 06 3c ae 5b 95 3c 1c 8c 26 bc c7 40 9f bc
       0.008200277 0.018232193 -0.010165241 -0.019440068
000370 38 d9 3a bc a5 c6 27 bc fc 61 9f 3c 42 ee 3c 39
       -0.011404328 -0.010240232 0.019455902 0.00018017835
000380 92 9a ae bb 1d a4 04 bc f8 f7 fb 3a 1f 27 59 3c
       -0.005328485 -0.008095768 0.0019223681 0.013253956
000390 a0 67 0e bc 57 2d 77 3a 1f 32 2c 3c 7e 9d 1d bc
       -0.008691698 0.00094290584 0.010509997 -0.009620069
0003a0 1e 09 f5 3b c2 e9 6f 3c b0 f7 a8 bb 6e d5 3e bc
       0.0074778935 0.014643135 -0.00515648 -0.011647565
0003b0 7a 7a e1 3b 29 dc 11 3d af fb 1f 3b 0c 74 79 bc
       0.0068810554 0.03561035 0.002441149 -0.015225422
0003c0 d8 16 a7 bb 6d a1 07 ba 56 0a ec bb 37 27 da bb
       -0.0050991587 -0.00051738956 -0.0072033806 -0.006657507
0003d0 ef 42 c3 bb 60 29 53 bc 28 68 f6 ba 81 ba fc 3b
       -0.005958907 -0.012888283 -0.0018799352 0.0077126627
0003e0 fc c3 8e bc 6c c1 c4 3c 9c 78 e2 3b 3d e1 83 bc
       -0.017427437 0.024018012 0.0069113504 -0.016098613
0003f0 02 25 92 3b a9 59 10 bc 98 80 8b 3c a2 a1 47 bc
       0.004459978 -0.008810439 0.017029092 -0.012184532

lstm_4/lstm_cell_10/bias f4 [256]
000000 67 8a 01 3d ed 06 24 3c f6 6b 43 3c 24 aa b0 3e
       0.03162613 0.010011417 0.011927595 0.34504807
000010 85 51 d7 3c f5 de 0f 3c c6 ba 4b ba c7 f8 91 3c
       0.026283989 0.008781184 -0.0007771667 0.017818822
000020 b6 08 4f 3d 06 46 a8 3c 98 25 80 3d 0d ae aa 3d
       0.050545417 0.020541202 0.062571704 0.08333979
000030 07 50 08 3c a8 39 bb 3c 2a 96 b5 bc ab 84 40 3c
       0.008319861 0.022854641 -0.02216633 0.0117503805
000040 ed 1a d1 3c 84 a5 35 bb dc b3 a1 3c c2 b0 fd 3c
       0.025525535 -0.0027717063 0.019739084 0.030968074
000050 48 12 c4 3c 39 00 21 3c 96 e3 a5 3c da d7 f0 3d
       0.023934498 0.009826713 0.020250123 0.117599204
000060 27 9f 02 3d 8d c0 c1 3c 50 50 28 bc 2e f3 09 3c
       0.03189006 0.023651386 -0.010273054 0.008419795
000070 2e 86 7f 3c b3 e2 97 3c 8e 8c e2 3c b6 c9 4a 3c
       0.015595956 0.018540716 0.027654912 0.012377193
000080 b8 e6 a0 3c 06 b6 a6 3c e5 dc e8 3c ee 7b 01 3d
       0.019641265 0.020350467 0.028425643 0.03161233
000090 6c 6e 7b 3c b6 30 e1 3c f5 f5 8e 3e 71 e2 b3 3c
       0.015346151 0.027489047 0.27922025 0.021958562
0000a0 3c 63 53 3d 35 27 b4 3c 89 b9 3f 3d a6 88 85 3a
       0.05160831 0.021991352 0.0468078 0.0010187819
0000b0 08 e9 6a 3d 65 5b 9a 3b 78 cf ad 3c f5 35 07 3e
       0.057351142 0.004710602 0.021217093 0.13204177
0000c0 2f b9 d0 3d bb 7f a3 3c 8f ad be 3c a8 14 b2 3c
       0.10191571 0.019958368 0.023276119 0.021738365
0000d0 db 47 14 3c 10 19 9d 3c 93 54 a3 3d 59 b0 30 3d
       0.009050335 0.01917699 0.079751156 0.04313693
0000e0 95 66 aa 3c 3f 79 03 3d 2d cc 33 3c 5c d0 78 3c
       0.020800868 0.03209805 0.010973972 0.0151863955
0000f0 09 96 62 3c 94 7e 66 3c 8b e6 31 3c 8b 9f 9b bc
       0.0138297165 0.0140682645 0.010858188 -0.018996974
000100 00 00 80 3f 00 00 80 3f 00 00 80 3f 00 00 80 3f
       1.0 1.0 1.0 1.0
000110 00 00 80 3f 00 00 80 3f 00 00 80 3f 00 00 80 3f
       1.0 1.0 1.0 1.0
000120 00 00 80 3f 00 00 80 3f 00 00 80 3f 00 00 80 3f
       1.0 1.0 1.0 1.0
000130 00 00 80 3f 00 00 80 3f 00 00 80 3f 00 00 80 3f
       1.0 1.0 1.0 1.0
000140 00 00 80 3f 00 00 80 3f 00 00 80 3f 00 00 80 3f
       1.0 1.0 1.0 1.0
000150 00 00 80 3f 00 00 80 3f 00 00 80 3f 00 00 80 3f
       1.0 1.0 1.0 1.0
000160 00 00 80 3f 00 00 80 3f 00 00 80 3f 00 00 80 3f
       1.0 1.0 1.0 1.0
000170 00 00 80 3f 00 00 80 3f 00 00 80 3f 00 00 80 3f
       1.0 1.0 1.0 1.0
000180 00 00 80 3f 00 00 80 3f 00 00 80 3f 00 00 80 3f
       1.0 1.0 1.0 1.0
000190 00 00 80 3f 00 00 80 3f 00 00 80 3f 00 00 80 3f
       1.0 1.0 1.0 1.0
0001a0 00 00 80 3f 00 00 80 3f 00 00 80 3f 00 00 80 3f
       1.0 1.0 1.0 1.0
0001b0 00 00 80 3f 00 00 80 3f 00 00 80 3f 00 00 80 3f
       1.0 1.0 1.0 1.0
0001c0 00 00 80 3f 00 00 80 3f 00 00 80 3f 00 00 80 3f
       1.0 1.0 1.0 1.0
0001d0 00 00 80 3f 00 00 80 3f 00 00 80 3f 00 00 80 3f
       1.0 1.0 1.0 1.0
0001e0 00 00 80 3f 00 00 80 3f 00 00 80 3f 00 00 80 3f
       1.0 1.0 1.0 1.0
0001f0 00 00 80 3f 00 00 80 3f 00 00 80 3f 00 00 80 3f
       1.0 1.0 1.0 1.0
000200 b3 a8 e7 3c e6 9c 94 3c db 5c 15 3d f4 15 cb 3c
       0.028278684 0.018141221 0.036465507 0.024790742
000210 81 30 4c 3c e5 f4 0b bc 92 0a a1 3d 21 1e 8e ba
       0.012462736 -0.008542274 0.07863344 -0.0010842719
000220 68 17 e5 3d c1 a5 03 3c 57 35 06 be 4b 60 a7 bd
       0.11186105 0.008035124 -0.13106285 -0.08172663
000230 f7 20 1e bc 49 49 fc bc 24 09 25 bd 53 5d 9a bd
       -0.009651414 -0.030796664 -0.04029192 -0.075373314
000240 f3 a2 c7 3d 38 a4 ff 3c 11 d6 74 bd 24 df 1d bd
       0.09747877 0.031206235 -0.059774462 -0.03854288
000250 b5 a3 aa 3d 98 c2 96 3d b1 fd 3a 3c d8 82 05 be
       0.08332006 0.073613346 0.011413024 -0.13038194
000260 ac 0d 88 3c d5 08 40 bb 11 59 0f 3c 81 fb f7 3c
       0.016608082 -0.002930214 0.008749262 0.030271294
000270 b7 0a 74 3d 26 64 88 bc 34 e7 7b bd d1 6c e7 3c
       0.05958053 -0.016649317 -0.06149979 0.02825013
000280 bd 43 0f 3d a6 2d d3 bd fb ed 1a bc f2 de 77 3d
       0.03497671 -0.10311441 -0.009456153 0.06051535
000290 13 e0 d6 3c a6 03 24 bd 0e b7 72 bd ba e9 81 3c
       0.026229894 -0.040042542 -0.059256606 0.01585852
0002a0 8a 33 68 bd 97 d3 a6 bb 46 52 2c 3d 88 3d fc bc
       -0.056689776 -0.0050911414 0.04207065 -0.03079106
0002b0 b6 4d 80 3d 15 06 45 3d 3c b1 f4 3b 0d 71 af 3d
       0.06264822 0.048101503 0.007467417 0.085664846
0002c0 66 08 a7 3d 19 fe 18 3d ec 78 c1 3d 84 49 8f bc
       0.08155899 0.0373517 0.09446892 -0.01749111
0002d0 b3 49 91 bc e3 48 13 3d d8 a2 ac 3d e1 bb 08 3d
       -0.017735338 0.035958182 0.084294975 0.0333823
0002e0 13 1c 70 3d 8a a6 52 3d 14 5b 2c bd 03 08 1e 3c
       0.058620524 0.051428355 -0.042079046 0.009645465
0002f0 54 86 22 bd 4a 4b ac bd 46 4a 72 bd d7 64 75 bd
       -0.039678887 -0.08412798 -0.059152864 -0.05991062
000300 76 c8 eb 3c 00 4d 78 3c f0 54 a3 3b ce 68 b9 3e
       0.02878211 0.015155077 0.0049844906 0.36212772
000310 63 40 3a 3c c9 84 3c 3c ea bc c4 3c af b4 4b 3c
       0.01136789 0.011506268 0.024015862 0.012433215
000320 f3 50 65 3d 82 14 de 3c dc f6 86 3d a1 6d 9c 3d
       0.055985402 0.027109388 0.065900534 0.076380976
000330 f5 4c 9e 3c 05 86 dd 3c 7a bc bd bc 6c 5f 19 3d
       0.019323805 0.027041445 -0.023161162 0.037444517
000340 80 19 02 3d 39 79 e5 3c 50 9e a8 3c 96 6c 13 3d
       0.0317626 0.028011905 0.020583302 0.035992227
000350 cb ac 30 3d ca a1 cc 3c 9b 8c da 3c 38 25 f8 3d
       0.04313354 0.02497949 0.026678374 0.12116474
000360 a1 4f 18 3d 25 10 cd 3c 75 a1 28 bc 78 9d 6d 3c
       0.037185315 0.025032112 -0.010292401 0.0145028755
000370 b5 f4 45 3c a8 5c 40 3c ee 78 38 3c cb 8b a5 3c
       0.0120822685 0.011740841 0.011259301 0.02020826
000380 27 9c 31 3c 0d ed ae 3c 91 4c d2 3c d5 ff f0 3c
       0.010840452 0.021353269 0.025671275 0.029418865
000390 35 dc 4c 3c a4 13 d2 3c 6e 6f 96 3e 98 50 e1 3c
       0.012503673 0.025644131 0.2938189 0.02750425
0003a0 8f bd 39 3d 81 52 ac 3c 9d 3a 55 3d 8a 07 b1 3c
       0.045346793 0.021035435 0.05205785 0.02161004
0003b0 2f 25 2d 3d f4 00 af 3b fc 38 c5 3c d1 6d 02 3e
       0.04227179 0.00534069 0.024075024 0.12737204
0003c0 bb ab c8 3d 7f 36 8e 3c ff 0a 0a 3d 64 67 ed 3c
       0.0979838 0.01735997 0.033701893 0.028979965
0003d0 c9 f0 d5 3c c8 cd 4e 3c 36 a0 a0 3d 2e 1e 06 3d
       0.026115792 0.012622304 0.07843058 0.032743625
0003e0 7a 37 8e 3c 39 8c eb 3c 87 d3 d8 3c bb 58 20 3c
       0.017360438 0.028753387 0.026468052 0.00978678
0003f0 f6 3a ea 3c c0 37 3c 3c f1 68 7f 3c 1d 06 8d bc
       0.028592568 0.011487901 0.015588985 -0.01721483

sequential/time_distributed_1/dense_1/MatMul i1 [21, 64] scale=0.0030341386 zero_point=0
000000 b1 2e d5 b1 b2 30 31 c7 c4 26 46 45 b3 fe 33 29
       -0.23969695 0.13957037 -0.13046797 -0.23969695 -0.2366628 0.14563864 0.14867279 -0.1729459 -0.18204832 0.115297265 0.21238971 0.20935556 -0.23362868 -0.006068277 0.15474106 0.124399684
000010 c1 3f 3c cc c2 36 fc eb 2f 41 16 46 22 12 b2 f4
       -0.19115072 0.19115072 0.18204832 -0.15777521 -0.1881166 0.16384348 -0.012136554 -0.06371691 0.14260451 0.19721901 0.06675105 0.21238971 0.10316071 0.054614495 -0.2366628 -0.03640966
000020 fc bd d1 39 37 25 b7 e0 c4 56 bb c5 05 9a c6 ed
       -0.012136554 -0.20328729 -0.14260451 0.1729459 0.16687763 0.11226313 -0.22149211 -0.097092435 -0.18204832 0.26093593 -0.20935556 -0.17901418 0.015170693 -0.30948213 -0.17598003 -0.057648633
000030 2e ba 44 19 42 ee 22 3e 39 0b d5 c5 db 24 df d8
       0.13957037 -0.21238971 0.20632142 0.07585347 0.20025314 -0.054614495 0.10316071 0.1881166 0.1729459 0.033375524 -0.13046797 -0.17901418 -0.11226313 0.10922899 -0.10012657 -0.12136555
000040 d1 18 ad b7 c0 42 3d dd dd 2a 31 46 db d4 28 3e
       -0.14260451 0.07281932 -0.2518335 -0.22149211 -0.19418487 0.20025314 0.18508245 -0.106194854 -0.106194854 0.12743382 0.14867279 0.21238971 -0.11226313 -0.1335021 0.12136555 0.1881166
000050 d3 2a 19 de c3 3f 59 da 22 50 29 47 18 4e cb e0
       -0.13653624 0.12743382 0.07585347 -0.10316071 -0.18508245 0.19115072 0.27003834 -0.115297265 0.10316071 0.2427311 0.124399684 0.21542384 0.07281932 0.2366628 -0.16080934 -0.097092435
000060 c9 e2 b7 42 41 20 e5 b1 cf 1c e9 e4 2e b4 df b4
       -0.16687763 -0.09102416 -0.22149211 0.20025314 0.19721901 0.097092435 -0.08192174 -0.23969695 -0.14867279 0.08495588 -0.069785185 -0.08495588 0.13957037 -0.23059453 -0.10012657 -0.23059453
000070 2c cb 27 2e 14 ca 49 24 36 25 cc da d3 42 f0 d6
       0.1335021 -0.16080934 0.1183314 0.13957037 0.060682774 -0.16384348 0.22149211 0.10922899 0.16384348 0.11226313 -0.15777521 -0.115297265 -0.13653624 0.20025314 -0.048546217 -0.12743382
000080 f4 3f b0 af a7 41 2e e4 b8 41 2d 48 cb da 19 51
       -0.03640966 0.19115072 -0.2427311 -0.24576522 -0.27003834 0.19721901 0.13957037 -0.08495588 -0.21845798 0.19721901 0.13653624 0.21845798 -0.16080934 -0.115297265 0.07585347 0.24576522
000090 c9 34 39 8f e4 2c 1c f6 28 1c 4c 0c 5a 08 e2 c8
       -0.16687763 0.15777521 0.1729459 -0.34285766 -0.08495588 0.1335021 0.08495588 -0.030341387 0.12136555 0.08495588 0.23059453 0.03640966 0.27307248 0.024273109 -0.09102416 -0.16991176
0000a0 d5 ce bc 19 52 58 c0 db c8 45 ce db 27 8c cd d4
       -0.13046797 -0.15170693 -0.20632142 0.07585347 0.24879937 0.2670042 -0.19418487 -0.11226313 -0.16991176 0.20935556 -0.15170693 -0.11226313 0.1183314 -0.35196006 -0.15474106 -0.1335021
0000b0 57 c2 12 08 2f d0 3a 28 0b 1c d1 a7 ed 64 d1 b5
       0.26397005 -0.1881166 0.054614495 0.024273109 0.14260451 -0.14563864 0.17598003 0.12136555 0.033375524 0.08495588 -0.14260451 -0.27003834 -0.057648633 0.30341387 -0.14260451 -0.2275604
0000c0 e3 0e f8 07 b5 42 51 cf c7 17 23 1e b1 0e 17 42
       -0.087990016 0.04247794 -0.024273109 0.02123897 -0.2275604 0.20025314 0.24576522 -0.14867279 -0.1729459 0.069785185 0.106194854 0.09102416 -0.23969695 0.04247794 0.069785185 0.20025314
0000d0 cb 3d 3d ad d8 1c 0e a9 14 35 19 48 47 47 b4 c3
       -0.16080934 0.18508245 0.18508245 -0.2518335 -0.12136555 0.08495588 0.04247794 -0.26397005 0.060682774 0.16080934 0.07585347 0.21845798 0.21542384 0.21542384 -0.23059453 -0.18508245
0000e0 bb c8 be 34 20 41 c5 b5 df 30 bb e0 1c a7 b2 b4
       -0.20935556 -0.16991176 -0.20025314 0.15777521 0.097092435 0.19721901 -0.17901418 -0.2275604 -0.10012657 0.14563864 -0.20935556 -0.097092435 0.08495588 -0.27003834 -0.2366628 -0.23059453
0000f0 40 be 21 4c 2f c7 fa 28 37 3a bf fa dc 5b ba d0
       0.19418487 -0.20025314 0.10012657 0.23059453 0.14260451 -0.1729459 -0.01820483 0.12136555 0.16687763 0.17598003 -0.19721901 -0.01820483 -0.10922899 0.27610663 -0.21238971 -0.14563864

lstm_4/lstm_cell_10/bias1 f4 [256]
000000 67 8a 01 3d ed 06 24 3c f6 6b 43 3c 24 aa b0 3e
       0.03162613 0.010011417 0.011927595 0.34504807
000010 85 51 d7 3c f5 de 0f 3c c6 ba 4b ba c7 f8 91 3c
       0.026283989 0.008781184 -0.0007771667 0.017818822
000020 b6 08 4f 3d 06 46 a8 3c 98 25 80 3d 0d ae aa 3d
       0.050545417 0.020541202 0.062571704 0.08333979
000030 07 50 08 3c a8 39 bb 3c 2a 96 b5 bc ab 84 40 3c
       0.008319861 0.022854641 -0.02216633 0.0117503805
000040 ed 1a d1 3c 84 a5 35 bb dc b3 a1 3c c2 b0 fd 3c
       0.025525535 -0.0027717063 0.019739084 0.030968074
000050 48 12 c4 3c 39 00 21 3c 96 e3 a5 3c da d7 f0 3d
       0.023934498 0.009826713 0.020250123 0.117599204
000060 27 9f 02 3d 8d c0 c1 3c 50 50 28 bc 2e f3 09 3c
       0.03189006 0.023651386 -0.010273054 0.008419795
000070 2e 86 7f 3c b3 e2 97 3c 8e 8c e2 3c b6 c9 4a 3c
       0.015595956 0.018540716 0.027654912 0.012377193
000080 b8 e6 a0 3c 06 b6 a6 3c e5 dc e8 3c ee 7b 01 3d
       0.019641265 0.020350467 0.028425643 0.03161233
000090 6c 6e 7b 3c b6 30 e1 3c f5 f5 8e 3e 71 e2 b3 3c
       0.015346151 0.027489047 0.27922025 0.021958562
0000a0 3c 63 53 3d 35 27 b4 3c 89 b9 3f 3d a6 88 85 3a
       0.05160831 0.021991352 0.0468078 0.0010187819
0000b0 08 e9 6a 3d 65 5b 9a 3b 78 cf ad 3c f5 35 07 3e
       0.057351142 0.004710602 0.021217093 0.13204177
0000c0 2f b9 d0 3d bb 7f a3 3c 8f ad be 3c a8 14 b2 3c
       0.10191571 0.019958368 0.023276119 0.021738365
0000d0 db 47 14 3c 10 19 9d 3c 93 54 a3 3d 59 b0 30 3d
       0.009050335 0.01917699 0.079751156 0.04313693
0000e0 95 66 aa 3c 3f 79 03 3d 2d cc 33 3c 5c d0 78 3c
       0.020800868 0.03209805 0.010973972 0.0151863955
0000f0 09 96 62 3c 94 7e 66 3c 8b e6 31 3c 8b 9f 9b bc
       0.0138297165 0.0140682645 0.010858188 -0.018996974
000100 00 00 80 3f 00 00 80 3f 00 00 80 3f 00 00 80 3f
       1.0 1.0 1.0 1.0
000110 00 00 80 3f 00 00 80 3f 00 00 80 3f 00 00 80 3f
       1.0 1.0 1.0 1.0
000120 00 00 80 3f 00 00 80 3f 00 00 80 3f 00 00 80 3f
       1.0 1.0 1.0 1.0
000130 00 00 80 3f 00 00 80 3f 00 00 80 3f 00 00 80 3f
       1.0 1.0 1.0 1.0
000140 00 00 80 3f 00 00 80 3f 00 00 80 3f 00 00 80 3f
       1.0 1.0 1.0 1.0
000150 00 00 80 3f 00 00 80 3f 00 00 80 3f 00 00 80 3f
       1.0 1.0 1.0 1.0
000160 00 00 80 3f 00 00 80 3f 00 00 80 3f 00 00 80 3f
       1.0 1.0 1.0 1.0
000170 00 00 80 3f 00 00 80 3f 00 00 80 3f 00 00 80 3f
       1.0 1.0 1.0 1.0
000180 00 00 80 3f 00 00 80 3f 00 00 80 3f 00 00 80 3f
       1.0 1.0 1.0 1.0
000190 00 00 80 3f 00 00 80 3f 00 00 80 3f 00 00 80 3f
       1.0 1.0 1.0 1.0
0001a0 00 00 80 3f 00 00 80 3f 00 00 80 3f 00 00 80 3f
       1.0 1.0 1.0 1.0
0001b0 00 00 80 3f 00 00 80 3f 00 00 80 3f 00 00 80 3f
       1.0 1.0 1.0 1.0
0001c0 00 00 80 3f 00 00 80 3f 00 00 80 3f 00 00 80 3f
       1.0 1.0 1.0 1.0
0001d0 00 00 80 3f 00 00 80 3f 00 00 80 3f 00 00 80 3f
       1.0 1.0 1.0 1.0
0001e0 00 00 80 3f 00 00 80 3f 00 00 80 3f 00 00 80 3f
       1.0 1.0 1.0 1.0
0001f0 00 00 80 3f 00 00 80 3f 00 00 80 3f 00 00 80 3f
       1.0 1.0 1.0 1.0
000200 b3 a8 e7 3c e6 9c 94 3c db 5c 15 3d f4 15 cb 3c
       0.028278684 0.018141221 0.036465507 0.024790742
000210 81 30 4c 3c e5 f4 0b bc 92 0a a1 3d 21 1e 8e ba
       0.012462736 -0.008542274 0.07863344 -0.0010842719
000220 68 17 e5 3d c1 a5 03 3c 57 35 06 be 4b 60 a7 bd
       0.11186105 0.008035124 -0.13106285 -0.08172663
000230 f7 20 1e bc 49 49 fc bc 24 09 25 bd 53 5d 9a bd
       -0.009651414 -0.030796664 -0.04029192 -0.075373314
000240 f3 a2 c7 3d 38 a4 ff 3c 11 d6 74 bd 24 df 1d bd
       0.09747877 0.031206235 -0.059774462 -0.03854288
000250 b5 a3 aa 3d 98 c2 96 3d b1 fd 3a 3c d8 82 05 be
       0.08332006 0.073613346 0.011413024 -0.13038194
000260 ac 0d 88 3c d5 08 40 bb 11 59 0f 3c 81 fb f7 3c
       0.016608082 -0.002930214 0.008749262 0.030271294
000270 b7 0a 74 3d 26 64 88 bc 34 e7 7b bd d1 6c e7 3c
       0.05958053 -0.016649317 -0.06149979 0.02825013
000280 bd 43 0f 3d a6 2d d3 bd fb ed 1a bc f2 de 77 3d
       0.03497671 -0.10311441 -0.009456153 0.06051535
000290 13 e0 d6 3c a6 03 24 bd 0e b7 72 bd ba e9 81 3c
       0.026229894 -0.040042542 -0.059256606 0.01585852
0002a0 8a 33 68 bd 97 d3 a6 bb 46 52 2c 3d 88 3d fc bc
       -0.056689776 -0.0050911414 0.04207065 -0.03079106
0002b0 b6 4d 80 3d 15 06 45 3d 3c b1 f4 3b 0d 71 af 3d
       0.06264822 0.048101503 0.007467417 0.085664846
0002c0 66 08 a7 3d 19 fe 18 3d ec 78 c1 3d 84 49 8f bc
       0.08155899 0.0373517 0.09446892 -0.01749111
0002d0 b3 49 91 bc e3 48 13 3d d8 a2 ac 3d e1 bb 08 3d
       -0.017735338 0.035958182 0.084294975 0.0333823
0002e0 13 1c 70 3d 8a a6 52 3d 14 5b 2c bd 03 08 1e 3c
       0.058620524 0.051428355 -0.042079046 0.009645465
0002f0 54 86 22 bd 4a 4b ac bd 46 4a 72 bd d7 64 75 bd
       -0.039678887 -0.08412798 -0.059152864 -0.05991062
000300 76 c8 eb 3c 00 4d 78 3c f0 54 a3 3b ce 68 b9 3e
       0.02878211 0.015155077 0.0049844906 0.36212772
000310 63 40 3a 3c c9 84 3c 3c ea bc c4 3c af b4 4b 3c
       0.01136789 0.011506268 0.024015862 0.012433215
000320 f3 50 65 3d 82 14 de 3c dc f6 86 3d a1 6d 9c 3d
       0.055985402 0.027109388 0.065900534 0.076380976
000330 f5 4c 9e 3c 05 86 dd 3c 7a bc bd bc 6c 5f 19 3d
       0.019323805 0.027041445 -0.023161162 0.037444517
000340 80 19 02 3d 39 79 e5 3c 50 9e a8 3c 96 6c 13 3d
       0.0317626 0.028011905 0.020583302 0.035992227
000350 cb ac 30 3d ca a1 cc 3c 9b 8c da 3c 38 25 f8 3d
       0.04313354 0.02497949 0.026678374 0.12116474
000360 a1 4f 18 3d 25 10 cd 3c 75 a1 28 bc 78 9d 6d 3c
       0.037185315 0.025032112 -0.010292401 0.0145028755
000370 b5 f4 45 3c a8 5c 40 3c ee 78 38 3c cb 8b a5 3c
       0.0120822685 0.011740841 0.011259301 0.02020826
000380 27 9c 31 3c 0d ed ae 3c 91 4c d2 3c d5 ff f0 3c
       0.010840452 0.021353269 0.025671275 0.029418865
000390 35 dc 4c 3c a4 13 d2 3c 6e 6f 96 3e 98 50 e1 3c
       0.012503673 0.025644131 0.2938189 0.02750425
0003a0 8f bd 39 3d 81 52 ac 3c 9d 3a 55 3d 8a 07 b1 3c
       0.045346793 0.021035435 0.05205785 0.02161004
0003b0 2f 25 2d 3d f4 00 af 3b fc 38 c5 3c d1 6d 02 3e
       0.04227179 0.00534069 0.024075024 0.12737204
0003c0 bb ab c8 3d 7f 36 8e 3c ff 0a 0a 3d 64 67 ed 3c
       0.0979838 0.01735997 0.033701893 0.028979965
0003d0 c9 f0 d5 3c c8 cd 4e 3c 36 a0 a0 3d 2e 1e 06 3d
       0.026115792 0.012622304 0.07843058 0.032743625
0003e0 7a 37 8e 3c 39 8c eb 3c 87 d3 d8 3c bb 58 20 3c
       0.017360438 0.028753387 0.026468052 0.00978678
0003f0 f6 3a ea 3c c0 37 3c 3c f1 68 7f 3c 1d 06 8d bc
       0.028592568 0.011487901 0.015588985 -0.01721483

while/MatMul_1 i1 [256, 64] scale=0.0018912737 zero_point=0
000000 3a f9 ee 02 fc 2d 06 0e eb 06 cf 02 15 08 1b 32
       0.10969387 -0.013238915 -0.034042925 0.0037825473 -0.0075650946 0.08510731 0.011347642 0.02647783 -0.039716747 0.011347642 -0.09267241 0.0037825473 0.039716747 0.015130189 0.051064387 0.094563685
000010 f9 02 e4 d6 0e ee e9 02 f1 1a 16 c5 18 f3 e2 e5
       -0.013238915 0.0037825473 -0.05295566 -0.07943349 0.02647783 -0.034042925 -0.043499295 0.0037825473 -0.028369104 0.049173117 0.04160802 -0.11158515 0.04539057 -0.024586558 -0.05673821 -0.051064387
000020 04 14 0e d4 fb 03 17 46 e5 26 0e 07 08 25 e4 db
       0.0075650946 0.037825473 0.02647783 -0.08321604 -0.009456368 0.005673821 0.043499295 0.13238916 -0.051064387 0.0718684 0.02647783 0.013238915 0.015130189 0.06997713 -0.05295566 -0.06997713
000030 dc e6 c5 15 b1 10 f1 1d 09 02 01 1b fc 08 b9 f2
       -0.06808585 -0.049173117 -0.11158515 0.039716747 -0.14941062 0.030260378 -0.028369104 0.054846935 0.017021462 0.0037825473 0.0018912737 0.051064387 -0.0075650946 0.015130189 -0.13428043 -0.02647783
000040 27 fd 07 e3 0f da 20 c3 fe d5 f9 d8 0b f7 df e7
       0.073759675 -0.005673821 0.013238915 -0.054846935 0.028369104 -0.0718684 0.060520757 -0.115367696 -0.0037825473 -0.08132476 -0.013238915 -0.075650945 0.02080401 -0.017021462 -0.06241203 -0.047281843
000050 30 1d fb 3f 38 e4 1a ea f2 07 f4 23 24 4a 19 fb
       0.09078114 0.054846935 -0.009456368 0.11915024 0.10591132 -0.05295566 0.049173117 -0.04160802 -0.02647783 0.013238915 -0.022695284 0.06619458 0.06808585 0.13995425 0.047281843 -0.009456368
000060 48 f6 0e f6 f8 35 03 f1 d7 de 54 17 0c ea b2 c2
       0.1361717 -0.018912736 0.02647783 -0.018912736 -0.015130189 0.1002375 0.005673821 -0.028369104 -0.07754222 -0.0643033 0.15886699 0.043499295 0.022695284 -0.04160802 -0.14751935 -0.117258966
000070 ef f4 13 fa 02 ea cc fc eb d8 fa fb e8 eb d1 e5
       -0.03215165 -0.022695284 0.0359342 -0.011347642 0.0037825473 -0.04160802 -0.09834623 -0.0075650946 -0.039716747 -0.075650945 -0.011347642 -0.009456368 -0.04539057 -0.039716747 -0.08888986 -0.051064387
000080 1c 1e 14 2b d1 fd 38 f3 26 fa 27 00 d5 0f d7 0a
       0.05295566 0.05673821 0.037825473 0.08132476 -0.08888986 -0.005673821 0.10591132 -0.024586558 0.0718684 -0.011347642 0.073759675 0.0 -0.08132476 0.028369104 -0.07754222 0.018912736
000090 f1 10 1b 1d da d7 2c 05 08 ea f0 d9 e1 d3 3b 30
       -0.028369104 0.030260378 0.051064387 0.054846935 -0.0718684 -0.07754222 0.08321604 0.009456368 0.015130189 -0.04160802 -0.030260378 -0.073759675 -0.058629483 -0.08510731 0.11158515 0.09078114
0000a0 16 23 05 ad d4 c9 fc 09 32 f7 06 f9 26 f1 e4 11
       0.04160802 0.06619458 0.009456368 -0.15697572 -0.08321604 -0.10402005 -0.0075650946 0.017021462 0.094563685 -0.017021462 0.011347642 -0.013238915 0.0718684 -0.028369104 -0.05295566 0.03215165
0000b0 fb db 2d d1 e6 02 e4 01 db 0e eb df 9e 04 e3 fd
       -0.009456368 -0.06997713 0.08510731 -0.08888986 -0.049173117 0.0037825473 -0.05295566 0.0018912737 -0.06997713 0.02647783 -0.039716747 -0.06241203 -0.18534482 0.0075650946 -0.054846935 -0.005673821
0000c0 fd ce fc 28 de 02 cd dd b5 e1 11 20 be cf 14 fd
       -0.005673821 -0.094563685 -0.0075650946 0.075650945 -0.0643033 0.0037825473 -0.096454956 -0.06619458 -0.14184552 -0.058629483 0.03215165 0.060520757 -0.12482406 -0.09267241 0.037825473 -0.005673821
0000d0 18 ec e0 20 0b 34 45 fd 02 cc 12 06 19 ea 17 e3
       0.04539057 -0.037825473 -0.060520757 0.060520757 0.02080401 0.09834623 0.13049789 -0.005673821 0.0037825473 -0.09834623 0.034042925 0.011347642 0.047281843 -0.04160802 0.043499295 -0.054846935
0000e0 06 ed e4 fc 02 02 0d 13 1a 02 b0 e6 f2 f8 09 17
       0.011347642 -0.0359342 -0.05295566 -0.0075650946 0.0037825473 0.0037825473 0.024586558 0.0359342 0.049173117 0.0037825473 -0.15130189 -0.049173117 -0.02647783 -0.015130189 0.017021462 0.043499295
0000f0 18 e1 ff e9 0c b2 f8 ee f2 40 1b 14 e6 06 e7 e9
       0.04539057 -0.058629483 -0.0018912737 -0.043499295 0.022695284 -0.14751935 -0.015130189 -0.034042925 -0.02647783 0.121041514 0.051064387 0.037825473 -0.049173117 0.011347642 -0.047281843 -0.043499295

while/MatMul i1 [256, 21] scale=0.0051217717 zero_point=0
000000 10 f0 02 04 17 ef 06 0e 10 0f e2 ea 09 03 f1 f9
       0.08194835 -0.08194835 0.010243543 0.020487087 0.11780075 -0.08707012 0.030730631 0.071704805 0.08194835 0.07682657 -0.15365314 -0.112678975 0.046095945 0.015365316 -0.07682657 -0.035852402
000010 03 0a 26 02 1f e2 15 e7 0e 02 fc e6 1a 00 fc f9
       0.015365316 0.051217716 0.19462733 0.010243543 0.15877493 -0.15365314 0.10755721 -0.12804429 0.071704805 0.010243543 -0.020487087 -0.13316606 0.13316606 0.0 -0.020487087 -0.035852402
000020 fa 03 00 dd 11 14 08 1b df 0f 06 f2 ff e5 eb 0a
       -0.030730631 0.015365316 0.0 -0.17926201 0.08707012 0.10243543 0.040974174 0.13828784 -0.16901846 0.07682657 0.030730631 -0.071704805 -0.0051217717 -0.13828784 -0.10755721 0.051217716
000030 08 fc eb f9 eb 05 e2 e3 0d 13 ed fc 20 fb 0f eb
       0.040974174 -0.020487087 -0.10755721 -0.035852402 -0.10755721 0.025608858 -0.15365314 -0.14853138 0.06658303 0.097313665 -0.097313665 -0.020487087 0.1638967 -0.025608858 0.07682657 -0.10755721
000040 b7 c4 c6 d4 be ad b7 be a4 d7 c6 d3 d3 b0 c1 b3
       -0.37388933 -0.3073063 -0.29706275 -0.22535795 -0.33803692 -0.42510706 -0.37388933 -0.33803692 -0.471203 -0.20999265 -0.29706275 -0.23047973 -0.23047973 -0.40974173 -0.32267162 -0.39437643
000050 e6 24 ec 1e ef 03 e6 07 f8 04 e5 16 ed 04 e8 0e
       -0.13316606 0.18438378 -0.10243543 0.15365314 -0.08707012 0.015365316 -0.13316606 0.035852402 -0.040974174 0.020487087 -0.13828784 0.112678975 -0.097313665 0.020487087 -0.122922525 0.071704805
000060 09 de 0f 0d f5 13 11 fb 26 ee f6 e3 11 14 e7 e5
       0.046095945 -0.17414024 0.07682657 0.06658303 -0.056339487 0.097313665 0.08707012 -0.025608858 0.19462733 -0.09219189 -0.051217716 -0.14853138 0.08707012 0.10243543 -0.12804429 -0.13828784
000070 0c fe 0b 1b 06 1a eb 0b ef f1 fa 12 0f fe ea 04
       0.061461262 -0.010243543 0.056339487 0.13828784 0.030730631 0.13316606 -0.10755721 0.056339487 -0.08707012 -0.07682657 -0.030730631 0.09219189 0.07682657 -0.010243543 -0.112678975 0.020487087
000080 f5 e0 fc f6 e6 e3 ec f5 ec ea e0 e9 08 f3 e9 f3
       -0.056339487 -0.1638967 -0.020487087 -0.051217716 -0.13316606 -0.14853138 -0.10243543 -0.056339487 -0.10243543 -0.112678975 -0.1638967 -0.11780075 0.040974174 -0.06658303 -0.11780075 -0.06658303
000090 19 00 00 de ea ff e5 f0 f3 f6 fc e8 ee 05 0b f9
       0.12804429 0.0 0.0 -0.17414024 -0.112678975 -0.0051217717 -0.13828784 -0.08194835 -0.06658303 -0.051217716 -0.020487087 -0.122922525 -0.09219189 0.025608858 0.056339487 -0.035852402
0000a0 0f 11 f7 f5 05 fd 06 00 e7 02 ea d9 fb f5 f4 e9
       0.07682657 0.08707012 -0.046095945 -0.056339487 0.025608858 -0.015365316 0.030730631 0.0 -0.12804429 0.010243543 -0.112678975 -0.1997491 -0.025608858 -0.056339487 -0.061461262 -0.11780075
0000b0 fc f7 d1 fa e1 09 f6 e0 ef e9 06 09 03 e2 df 10
       -0.020487087 -0.046095945 -0.24072327 -0.030730631 -0.15877493 0.046095945 -0.051217716 -0.1638967 -0.08707012 -0.11780075 0.030730631 0.046095945 0.015365316 -0.15365314 -0.16901846 0.08194835
0000c0 f1 fe 05 de 02 16 f3 fb 09 f0 0b 0f 14 ec fa fd
       -0.07682657 -0.010243543 0.025608858 -0.17414024 0.010243543 0.112678975 -0.06658303 -0.025608858 0.046095945 -0.08194835 0.056339487 0.07682657 0.10243543 -0.10243543 -0.030730631 -0.015365316
0000d0 ed 20 e4 fd fb f5 f0 f4 f5 e2 0b fd da 05 f5 f4
       -0.097313665 0.1638967 -0.14340961 -0.015365316 -0.025608858 -0.056339487 -0.08194835 -0.061461262 -0.056339487 -0.15365314 0.056339487 -0.015365316 -0.19462733 0.025608858 -0.056339487 -0.061461262
0000e0 00 e3 00 da 12 08 16 01 ee ff f6 e6 f5 f8 d8 f5
       0.0 -0.14853138 0.0 -0.19462733 0.09219189 0.040974174 0.112678975 0.0051217717 -0.09219189 -0.0051217717 -0.051217716 -0.13316606 -0.056339487 -0.040974174 -0.20487086 -0.056339487
0000f0 d3 f2 e3 f0 d8 00 d3 e8 d7 19 df fc 06 f6 e2 e4
       -0.23047973 -0.071704805 -0.14853138 -0.08194835 -0.20487086 0.0 -0.23047973 -0.122922525 -0.20999265 0.12804429 -0.16901846 -0.020487087 0.030730631 -0.051217716 -0.15365314 -0.14340961

lstm_5/lstm_cell_11/bias1 f4 [256]
000000 36 82 62 bc f5 09 21 3c ca 86 7e bc 02 a6 35 3c
       -0.01382499 0.009829034 -0.015535066 0.011086943
000010 b5 d1 0d 3c e2 c6 20 bc 2c ac ba ba 2d 00 be 3c
       0.008655955 -0.009813042 -0.0014241985 0.023193443
000020 67 c2 99 3b 40 4b 48 3b 48 a2 ce 3c 5b 56 81 bc
       0.004692364 0.003056243 0.025223866 -0.015788248
000030 62 69 56 3a 18 0f 28 bb 03 45 10 3d 0b f8 6e bb
       0.00081791554 -0.0025643762 0.035222065 -0.0036463763
000040 67 0b fc b9 be 39 e1 bb b2 0d 78 39 f6 93 3c 3c
       -0.0004807368 -0.0068733385 0.00023656225 0.011509886
000050 4c 71 c7 3c e2 3d 07 3c ef 14 37 bc 39 ba 86 bb
       0.024346016 0.0082545 -0.011174425 -0.004111555
000060 c0 72 cb 3c 7f 96 a9 3c cd 29 bc 3b 95 b9 06 bc
       0.02483499 0.020701645 0.0057422877 -0.008222957
000070 ba 80 36 3a ff cc 23 bb 31 f9 8d 3c 42 45 dc ba
       0.0006961931 -0.0024994013 0.017330738 -0.0016805308
000080 33 2b 31 3c 2c 4d ca 3b ce 94 90 3b e0 93 52 3c
       0.010813522 0.0061737504 0.00441227 0.012852639
000090 1c 0c db ba 77 4e c5 3b 07 9f 65 3c 9e 6e 15 bc
       -0.0016711983 0.0060213166 0.014014966 -0.0091206115
0000a0 80 b5 93 3c 9a 55 90 3c f6 1f a6 38 70 d0 c7 bb
       0.018030882 0.017618943 7.92145e-05 -0.0060978457
0000b0 ae a9 9b 3c 31 a5 ca 3c b0 27 6b 3c ec ae bc bb
       0.019001808 0.024736973 0.014352724 -0.005758157
0000c0 f8 59 8b 3b 9a 2c 75 3b 73 2d 39 bc 8c a7 ce 3b
       0.0042526685 0.0037410618 -0.01130234 0.0063065942
0000d0 e9 58 19 bc 57 9d a7 ba d3 ed 33 3a c2 02 23 3d
       -0.009359577 -0.001278798 0.00068637467 0.039797552
0000e0 2f 74 13 3c 9a d6 17 3d be 87 6e 3c f4 cd 92 bb
       0.008999868 0.037069894 0.014558731 -0.004480118
0000f0 33 94 9c 3b 08 e3 d9 bb be 40 23 3c b3 20 04 bc
       0.004778409 -0.0066493787 0.009964166 -0.008064437
000100 00 00 80 3f 00 00 80 3f 00 00 80 3f 00 00 80 3f
       1.0 1.0 1.0 1.0
000110 00 00 80 3f 00 00 80 3f 00 00 80 3f 00 00 80 3f
       1.0 1.0 1.0 1.0
000120 00 00 80 3f 00 00 80 3f 00 00 80 3f 00 00 80 3f
       1.0 1.0 1.0 1.0
000130 00 00 80 3f 00 00 80 3f 00 00 80 3f 00 00 80 3f
       1.0 1.0 1.0 1.0
000140 00 00 80 3f 00 00 80 3f 00 00 80 3f 00 00 80 3f
       1.0 1.0 1.0 1.0
000150 00 00 80 3f 00 00 80 3f 00 00 80 3f 00 00 80 3f
       1.0 1.0 1.0 1.0
000160 00 00 80 3f 00 00 80 3f 00 00 80 3f 00 00 80 3f
       1.0 1.0 1.0 1.0
000170 00 00 80 3f 00 00 80 3f 00 00 80 3f 00 00 80 3f
       1.0 1.0 1.0 1.0
000180 00 00 80 3f 00 00 80 3f 00 00 80 3f 00 00 80 3f
       1.0 1.0 1.0 1.0
000190 00 00 80 3f 00 00 80 3f 00 00 80 3f 00 00 80 3f
       1.0 1.0 1.0 1.0
0001a0 00 00 80 3f 00 00 80 3f 00 00 80 3f 00 00 80 3f
       1.0 1.0 1.0 1.0
0001b0 00 00 80 3f 00 00 80 3f 00 00 80 3f 00 00 80 3f
       1.0 1.0 1.0 1.0
0001c0 00 00 80 3f 00 00 80 3f 00 00 80 3f 00 00 80 3f
       1.0 1.0 1.0 1.0
0001d0 00 00 80 3f 00 00 80 3f 00 00 80 3f 00 00 80 3f
       1.0 1.0 1.0 1.0
0001e0 00 00 80 3f 00 00 80 3f 00 00 80 3f 00 00 80 3f
       1.0 1.0 1.0 1.0
0001f0 00 00 80 3f 00 00 80 3f 00 00 80 3f 00 00 80 3f
       1.0 1.0 1.0 1.0
000200 09 2a b6 3d aa b3 ad bd dd 23 50 3d 97 ab ca 3c
       0.08894736 -0.08481534 0.050815452 0.024740024
000210 8e 57 09 3d 0c 07 78 3c 96 5e ce bb 20 74 b7 3d
       0.033530764 0.015138399 -0.0062978966 0.08957696
000220 a4 d3 15 3d 3b 1d ad bd 4c a2 ed bc d7 f9 04 bd
       0.03657879 -0.08452841 -0.029008053 -0.03246483
000230 d1 6f 4a 3d 10 38 dc 3d 32 53 f1 bd 45 ae ce bc
       0.049423043 0.107528806 -0.11783446 -0.025229583
000240 d2 83 53 3d c1 f6 a0 bd 84 26 0f bd 5a 50 17 bd
       0.051639386 -0.078595646 -0.03494884 -0.036941864
000250 f3 d9 83 3d 19 91 58 bd c0 43 16 bd d2 c3 b3 3d
       0.06438055 -0.05287275 -0.036685705 0.08777584
000260 62 e9 b6 bd ad 6b 83 bd 14 27 6f bd 5e f9 68 bd
       -0.08931233 -0.06417022 -0.058386877 -0.05687844
000270 94 bd 0e bd f6 ff 66 bd 2b ad a3 3d 92 41 44 3d
       -0.034848765 -0.056396447 0.079920135 0.047914095
000280 50 b5 af 3d 80 73 85 3d 01 61 9a 3c 77 55 b0 bd
       0.085795045 0.065161705 0.018845083 -0.08610051
000290 82 7a 14 bd a5 72 c4 bc 00 ed 2e 3c 7a 93 77 3d
       -0.036249645 -0.023980448 0.010676622 0.06044338
0002a0 d9 7a 94 3c 92 6c d4 bc 14 8b 9a 3d 0c d3 b9 3d
       0.018124985 -0.025930677 0.07546058 0.09073457
0002b0 48 32 88 bd e4 c4 b0 3a 6e 76 a2 3d 7d 40 95 3d
       -0.066502154 0.0013486412 0.07932745 0.07287691
0002c0 bb 07 0e bd d4 d1 a7 3d b9 96 9e bd ce 9a 8e bd
       -0.03467534 0.081943184 -0.07743592 -0.069631204
0002d0 2e 96 99 bd 3e 7d a0 3d 75 1c a0 bd 56 fd a2 bd
       -0.074993476 0.07836388 -0.07817928 -0.07958476
0002e0 b4 48 97 bd f0 45 0d be 27 39 0a 3c 37 7c 85 3d
       -0.07386914 -0.1379621 0.008436478 0.06517833
0002f0 48 70 61 3d 54 89 78 bc 67 f8 db 3d ad f9 59 3d
       0.05503872 -0.01516946 0.10740738 0.053216625
000300 f5 59 42 bc 67 a6 80 bb 36 62 50 bc 61 4e e9 3b
       -0.011862268 -0.0039260867 -0.012718728 0.007119939
000310 f8 41 9a b6 e2 f3 1e bc 4a 04 d4 bb d0 34 cf bb
       -4.5972374e-06 -0.009701701 -0.006470238 -0.0063234344
000320 38 f6 60 bb 6e b9 0d 3b f0 af 84 3c 8f 90 b0 bb
       -0.0034326445 0.0021625417 0.016197175 -0.0053883265
000330 9f 4f bd bb 50 c1 27 3c c6 b6 92 3c 4d 70 d1 bb
       -0.005777314 0.01023896 0.017909419 -0.006391561
000340 17 5d 11 bb ba c4 d0 ba 26 22 4d 39 45 41 56 3b
       -0.002218073 -0.001592777 0.00019563045 0.0032692712
000350 3f 77 24 3c 87 04 26 3c 23 82 8f bc 4e 7e f0 bb
       0.010038196 0.010132915 -0.017518109 -0.0073392754
000360 74 5a 06 3c ae 5b 95 3c 1c 8c 26 bc c7 40 9f bc
       0.008200277 0.018232193 -0.010165241 -0.019440068
000370 38 d9 3a bc a5 c6 27 bc fc 61 9f 3c 42 ee 3c 39
       -0.011404328 -0.010240232 0.019455902 0.00018017835
000380 92 9a ae bb 1d a4 04 bc f8 f7 fb 3a 1f 27 59 3c
       -0.005328485 -0.008095768 0.0019223681 0.013253956
000390 a0 67 0e bc 57 2d 77 3a 1f 32 2c 3c 7e 9d 1d bc
       -0.008691698 0.00094290584 0.010509997 -0.009620069
0003a0 1e 09 f5 3b c2 e9 6f 3c b0 f7 a8 bb 6e d5 3e bc
       0.0074778935 0.014643135 -0.00515648 -0.011647565
0003b0 7a 7a e1 3b 29 dc 11 3d af fb 1f 3b 0c 74 79 bc
       0.0068810554 0.03561035 0.002441149 -0.015225422
0003c0 d8 16 a7 bb 6d a1 07 ba 56 0a ec bb 37 27 da bb
       -0.0050991587 -0.00051738956 -0.0072033806 -0.006657507
0003d0 ef 42 c3 bb 60 29 53 bc 28 68 f6 ba 81 ba fc 3b
       -0.005958907 -0.012888283 -0.0018799352 0.0077126627
0003e0 fc c3 8e bc 6c c1 c4 3c 9c 78 e2 3b 3d e1 83 bc
       -0.017427437 0.024018012 0.0069113504 -0.016098613
0003f0 02 25 92 3b a9 59 10 bc 98 80 8b 3c a2 a1 47 bc
       0.004459978 -0.008810439 0.017029092 -0.012184532

while/MatMul_12 i1 [256, 64] scale=0.0020576094 zero_point=0
000000 1f 1c c5 c7 dc fd f9 14 48 eb 00 09 0e 23 48 0c
       0.06378589 0.057613064 -0.121398956 -0.11728373 -0.07407394 -0.0061728284 -0.014403266 0.041152187 0.14814788 -0.0432098 0.0 0.018518485 0.028806532 0.07201633 0.14814788 0.024691314
000010 ec ec 14 27 1b c5 35 e1 cb 27 38 06 0d b3 e3 d3
       -0.041152187 -0.041152187 0.041152187 0.08024677 0.05555545 -0.121398956 0.1090533 -0.06378589 -0.1090533 0.08024677 0.11522613 0.012345657 0.026748922 -0.15843593 -0.05967067 -0.092592426
000020 c2 0c e4 04 ff e7 1a 05 f0 ee 1a f3 17 de 09 ec
       -0.12757178 0.024691314 -0.057613064 0.0082304375 -0.0020576094 -0.051440235 0.053497843 0.010288047 -0.03292175 -0.03703697 0.053497843 -0.026748922 0.047325015 -0.06995872 0.018518485 -0.041152187
000030 43 11 f6 f1 e1 ef 04 2a 2f d0 1b 43 06 21 13 0b
       0.13785982 0.03497936 -0.020576093 -0.03086414 -0.06378589 -0.03497936 0.0082304375 0.0864196 0.09670764 -0.098765254 0.05555545 0.13785982 0.012345657 0.06790111 0.03909458 0.022633703
000040 f2 21 ff f7 0f f9 cc 09 f3 01 ea ff ee 05 10 d5
       -0.028806532 0.06790111 -0.0020576094 -0.018518485 0.03086414 -0.014403266 -0.10699569 0.018518485 -0.026748922 0.0020576094 -0.045267407 -0.0020576094 -0.03703697 0.010288047 0.03292175 -0.0884772
000050 13 f5 ea e4 21 27 eb f3 df ff f8 28 09 19 e9 eb
       0.03909458 -0.022633703 -0.045267407 -0.057613064 0.06790111 0.08024677 -0.0432098 -0.026748922 -0.06790111 -0.0020576094 -0.016460875 0.08230437 0.018518485 0.051440235 -0.047325015 -0.0432098
000060 e4 ee 1a 04 e3 27 23 32 ef e7 07 d4 ee 1e dd 08
       -0.057613064 -0.03703697 0.053497843 0.0082304375 -0.05967067 0.08024677 0.07201633 0.10288047 -0.03497936 -0.051440235 0.014403266 -0.09053481 -0.03703697 0.06172828 -0.07201633 0.016460875
000070 03 06 15 06 2c 0b 08 d7 ea 0e e5 01 2a d5 1e d4
       0.0061728284 0.012345657 0.0432098 0.012345657 0.09053481 0.022633703 0.016460875 -0.084361985 -0.045267407 0.028806532 -0.05555545 0.0020576094 0.0864196 -0.0884772 0.06172828 -0.09053481
000080 29 ed 0d 1c 07 fb 0d 20 d7 d2 05 0c f0 0f f9 04
       0.084361985 -0.03909458 0.026748922 0.057613064 0.014403266 -0.010288047 0.026748922 0.0658435 -0.084361985 -0.09465003 0.010288047 0.024691314 -0.03292175 0.03086414 -0.014403266 0.0082304375
000090 19 06 18 02 f6 0b d3 0a 1d be 26 f2 d2 14 f7 28
       0.051440235 0.012345657 0.049382627 0.0041152188 -0.020576093 0.022633703 -0.092592426 0.020576093 0.05967067 -0.13580222 0.07818916 -0.028806532 -0.09465003 0.041152187 -0.018518485 0.08230437
0000a0 c3 e1 18 1a 08 f5 20 f5 2c 0c fb 1d 15 fd fe 13
       -0.12551418 -0.06378589 0.049382627 0.053497843 0.016460875 -0.022633703 0.0658435 -0.022633703 0.09053481 0.024691314 -0.010288047 0.05967067 0.0432098 -0.0061728284 -0.0041152188 0.03909458
0000b0 a6 07 12 1b e9 da 08 f8 fb 15 43 19 e3 d3 31 d6
       -0.18518485 0.014403266 0.03703697 0.05555545 -0.047325015 -0.07818916 0.016460875 -0.016460875 -0.010288047 0.0432098 0.13785982 0.051440235 -0.05967067 -0.092592426 0.10082286 -0.0864196
0000c0 0e db f0 f3 fa 20 c6 49 ac fa e7 ff 01 bf d2 0d
       0.028806532 -0.076131545 -0.03292175 -0.026748922 -0.012345657 0.0658435 -0.11934134 0.15020548 -0.1728392 -0.012345657 -0.051440235 -0.0020576094 0.0020576094 -0.13374461 -0.09465003 0.026748922
0000d0 29 e2 e2 0c e0 01 d1 c6 28 19 16 ce 20 31 dc 14
       0.084361985 -0.06172828 -0.06172828 0.024691314 -0.0658435 0.0020576094 -0.09670764 -0.11934134 0.08230437 0.051440235 0.045267407 -0.10288047 0.0658435 0.10082286 -0.07407394 0.041152187
0000e0 fe d1 49 fe 14 19 f6 14 1b c4 eb ed de 01 31 da
       -0.0041152188 -0.09670764 0.15020548 -0.0041152188 0.041152187 0.051440235 -0.020576093 0.041152187 0.05555545 -0.12345656 -0.0432098 -0.03909458 -0.06995872 0.0020576094 0.10082286 -0.07818916
0000f0 30 e7 ee 07 0b 05 e3 f8 02 00 f7 29 d2 ed 18 15
       0.098765254 -0.051440235 -0.03703697 0.014403266 0.022633703 0.010288047 -0.05967067 -0.016460875 0.0041152188 0.0 -0.018518485 0.084361985 -0.09465003 -0.03909458 0.049382627 0.0432098

while/MatMul3 i1 [256, 64] scale=0.0050697024 zero_point=0
000000 14 fe f1 ea 0e 07 1c e0 0e f3 0c f2 ff ee f9 e2
       0.10139405 -0.010139405 -0.076045536 -0.111533456 0.07097583 0.035487916 0.14195167 -0.16223048 0.07097583 -0.06590613 0.060836427 -0.07097583 -0.0050697024 -0.091254644 -0.035487916 -0.15209107
000010 16 10 e3 f8 14 f3 12 de 04 e8 fe 1e 0b e8 e3 1a
       0.111533456 0.08111524 -0.14702137 -0.04055762 0.10139405 -0.06590613 0.091254644 -0.17236988 0.02027881 -0.121672854 -0.010139405 0.15209107 0.055766728 -0.121672854 -0.14702137 0.13181226
000020 05 f7 fb 25 05 df f7 f8 f0 12 ff 01 20 f1 1c 13
       0.025348512 -0.045627322 -0.025348512 0.18757899 0.025348512 -0.16730018 -0.045627322 -0.04055762 -0.08111524 0.091254644 -0.0050697024 0.0050697024 0.16223048 -0.076045536 0.14195167 0.09632435
000030 1e 0a 25 02 f9 0b 2b 0a 0b 18 ff fc f8 f8 f8 11
       0.15209107 0.050697025 0.18757899 0.010139405 -0.035487916 0.055766728 0.21799721 0.050697025 0.055766728 0.121672854 -0.0050697024 -0.02027881 -0.04055762 -0.04055762 -0.04055762 0.08618494
000040 f3 21 f5 37 e0 eb 13 0d 1e f6 02 dc 09 fa 05 e6
       -0.06590613 0.16730018 -0.055766728 0.27883363 -0.16223048 -0.10646375 0.09632435 0.06590613 0.15209107 -0.050697025 0.010139405 -0.18250929 0.045627322 -0.030418213 0.025348512 -0.13181226
000050 07 fa ff e3 f9 0c f4 f2 01 f2 0a 11 15 08 0e 17
       0.035487916 -0.030418213 -0.0050697024 -0.14702137 -0.035487916 0.060836427 -0.060836427 -0.07097583 0.0050697024 -0.07097583 0.050697025 0.08618494 0.10646375 0.04055762 0.07097583 0.11660316
000060 01 fc f1 fd e1 ee e4 0c 0a 1e 02 eb 0f f1 23 2e
       0.0050697024 -0.02027881 -0.076045536 -0.015209107 -0.15716077 -0.091254644 -0.14195167 0.060836427 0.050697025 0.15209107 0.010139405 -0.10646375 0.076045536 -0.076045536 0.17743959 0.23320632
000070 10 fc ee 05 12 06 05 1b 27 15 dc f7 0f e6 04 e5
       0.08111524 -0.02027881 -0.091254644 0.025348512 0.091254644 0.030418213 0.025348512 0.13688196 0.1977184 0.10646375 -0.18250929 -0.045627322 0.076045536 -0.13181226 0.02027881 -0.13688196
000080 0e 11 16 b5 f4 e2 f6 e9 04 1c ec 0c 1d e8 e7 0f
       0.07097583 0.08618494 0.111533456 -0.38022768 -0.060836427 -0.15209107 -0.050697025 -0.11660316 0.02027881 0.14195167 -0.10139405 0.060836427 0.14702137 -0.121672854 -0.12674256 0.076045536
000090 f2 22 f1 f8 0b f5 15 d6 14 0f 19 00 fd f1 f0 fd
       -0.07097583 0.17236988 -0.076045536 -0.04055762 0.055766728 -0.055766728 0.10646375 -0.2129275 0.10139405 0.076045536 0.12674256 0.0 -0.015209107 -0.076045536 -0.08111524 -0.015209107
0000a0 02 e9 f5 12 12 01 2d 04 e4 0b 16 05 16 14 1c 12
       0.010139405 -0.11660316 -0.055766728 0.091254644 0.091254644 0.0050697024 0.22813661 0.02027881 -0.14195167 0.055766728 0.111533456 0.025348512 0.111533456 0.10139405 0.14195167 0.091254644
0000b0 f1 1f 22 fa fd fd 33 1f fc 14 ea 0d 03 06 09 16
       -0.076045536 0.15716077 0.17236988 -0.030418213 -0.015209107 -0.015209107 0.25855482 0.15716077 -0.02027881 0.10139405 -0.111533456 0.06590613 0.015209107 0.030418213 0.045627322 0.111533456
0000c0 ff 09 fb e1 0b de 07 e0 1b 1c e7 fe 19 fe 14 ff
       -0.0050697024 0.045627322 -0.025348512 -0.15716077 0.055766728 -0.17236988 0.035487916 -0.16223048 0.13688196 0.14195167 -0.12674256 -0.010139405 0.12674256 -0.010139405 0.10139405 -0.0050697024
0000d0 ec 15 10 0f f7 fe fa 06 10 ee f0 12 17 e2 ff 1a
       -0.10139405 0.10646375 0.08111524 0.076045536 -0.045627322 -0.010139405 -0.030418213 0.030418213 0.08111524 -0.091254644 -0.08111524 0.091254644 0.11660316 -0.15209107 -0.0050697024 0.13181226
0000e0 0b 07 03 0f 05 12 18 1a f8 ef f8 0c 1b f4 13 0c
       0.055766728 0.035487916 0.015209107 0.076045536 0.025348512 0.091254644 0.121672854 0.13181226 -0.04055762 -0.08618494 -0.04055762 0.060836427 0.13688196 -0.060836427 0.09632435 0.060836427
0000f0 fb 0d 1c fe 11 05 05 1c ef f7 e8 e9 14 fc 07 eb
       -0.025348512 0.06590613 0.14195167 -0.010139405 0.08618494 0.025348512 0.025348512 0.14195167 -0.08618494 -0.045627322 -0.121672854 -0.11660316 0.10139405 -0.02027881 0.035487916 -0.10646375
