lstm991_ae_0802.tflite (tflite, 46968 bytes, 17 tensors)

lstm_28/lstm_cell_32/bias f4 [64]
00000000: 6f29 82bc 74d6 233e d289 033e efd4 343e
00000010: 28b4 903c 52ab 243e 4d26 1e3e 6ec5 2e3e
00000020: 0000 0000 0000 0000 0bfa 303e 649b 2e3e
00000030: 7522 2c3e 2f75 ebbb 8d81 0ab9 0791 f4b9
00000040: 0000 803f 0000 803f 0000 803f 0000 803f
00000050: 0000 803f 0000 803f 0000 803f 0000 803f
00000060: 0000 803f 0000 803f 0000 803f 0000 803f
00000070: 0000 803f 0000 803f 0000 803f 0000 803f
00000080: dc43 81bc 11fb ea3d c7f7 56bd d4d9 0b3e
00000090: 7c12 e4bc b0f7 ef3d e303 ef3d a92c ec3d
000000a0: 0000 0000 0000 0000 3206 ea3d 5ada f03d
000000b0: 4468 f83d 503d 81bc c521 b6bb 7ac0 c4bb
000000c0: f5d7 81bc 9e15 223e 3d69 043e a344 323e
000000d0: 0d7d a03c 5e63 283e 2ace 203e 7187 303e
000000e0: 0000 0000 0000 0000 b5ad 2e3e 88c5 2f3e
000000f0: c1c5 2d3e 2416 ecbb 6a80 0ab9 a391 f4b9
-0.015888898 0.15999776 0.12845543 0.17659353 0.01766403 0.16080979 0.15444298 0.17067501
0.0 0.0 0.17282884 0.17051464 0.1681002 -0.0071856 -0.00013208967 -0.0004664736
1.0 1.0 1.0 1.0 1.0 1.0 1.0 1.0
1.0 1.0 1.0 1.0 1.0 1.0 1.0 1.0
-0.015779428 0.11473668 -0.052482393 0.13657314 -0.027840845 0.117171645 0.11670663 0.11531956
0.0 0.0 0.11426963 0.11760397 0.12129262 -0.015776306 -0.005558225 -0.0060043903
-0.015850047 0.15828559 0.1293077 0.17408995 0.019590879 0.16444156 0.15703645 0.17239167
0.0 0.0 0.17058451 0.17165196 0.16969968 -0.007204788 -0.00013208544 -0.00046647814

lstm_27/lstm_cell_31/bias f4 [16]
00000000: 4ddd 413e 6afc 593e 036d 433e 0000 0000
00000010: 0000 803f 0000 803f 0000 803f 0000 803f
00000020: a87f 1d3e bb49 123e a440 0f3e 0000 0000
00000030: 7746 263e 49d7 653e c95a 513e 0000 0000
0.18932076 0.21287695 0.19084553 0.0 1.0 1.0 1.0 1.0
0.15380728 0.14285938 0.13989502 0.0 0.16237818 0.22445406 0.20444788 0.0

lstm_26/lstm_cell_30/bias f4 [16]
00000000: ebb2 7e3e 0000 0000 8951 7e3e e2a2 5dbc
00000010: 0000 803f 0000 803f 0000 803f 0000 803f
00000020: 5571 433e 0000 0000 d775 383e cb3c 4dbd
00000030: d677 823e 0000 0000 5b03 5e3e 4864 78bc
0.2487294 0.0 0.2483579 -0.013527604 1.0 1.0 1.0 1.0
0.19086201 0.0 0.18013702 -0.050106805 0.25482053 0.0 0.21680968 -0.015160628

lstm_25/lstm_cell_29/bias f4 [64]
00000000: 49be 5ebc 3e4c 8c3e 3462 cd3d 9cdc 1dbc
00000010: 701e cabc e7db 743e 73aa 8a3e 37c5 aa3d
00000020: 1dff 8c3e a32d 7fbc c3ac d53d 18c2 71b9
00000030: 0000 0000 e062 eb3b ccf3 cebb ac41 a13d
00000040: 0000 803f 0000 803f 0000 803f 0000 803f
00000050: 0000 803f 0000 803f 0000 803f 0000 803f
00000060: 0000 803f 0000 803f 0000 803f 0000 803f
00000070: 0000 803f 0000 803f 0000 803f 0000 803f
00000080: 24d4 23bd 374b 703e e8b7 0f3d 2e4f ffbc
00000090: 13eb 5dbc b16b 733e 916e 7b3e 8bf4 0c3e
000000a0: ee7c 733e 3545 87bc 4e70 5f3d a4d0 a0bb
000000b0: 0000 0000 da23 4dbc f79e 15bb f2e5 283d
000000c0: 768c 4bbc e1fd 913e 78b0 d43d b22a 42bc
000000d0: 1613 e6bc 2cf4 7a3e a19d 8f3e 2fc2 df3d
000000e0: 5eb8 813e 7351 7fbc 62d1 e43d b580 57b9
000000f0: 0000 0000 4ec2 c83b 9f4d d0bb f07c a03d
-0.013595172 0.27401918 0.100284964 -0.009635117 -0.024672717 0.23912011 0.27083167 0.08338397
0.27538386 -0.0155748455 0.10433342 -0.00023055857 0.0 0.0071834177 -0.006315684 0.07873854
1.0 1.0 1.0 1.0 1.0 1.0 1.0 1.0
1.0 1.0 1.0 1.0 1.0 1.0 1.0 1.0
-0.039997235 0.23466192 0.035087496 -0.031165686 -0.013544816 0.2377155 0.24553896 0.1376516
0.23778126 -0.016512493 0.05455046 -0.0049076844 0.0 -0.012520755 -0.0022830346 0.041234918
-0.012423625 0.28514007 0.10385221 -0.011851 -0.028085273 0.24507207 0.2804995 0.109257095
0.25335974 -0.015583384 0.11172749 -0.00020551945 0.0 0.0061266785 -0.0063569094 0.0783633

sequential_10/time_distributed_3/dense_3/MatMul f4 [1, 16]
00000000: aa38 b6be ae24 fe3e 0c61 123e c404 4c3e
00000010: c3c1 c5be 9678 c93e 518f db3e ec4a dc3e
00000020: d005 62be ccf5 f83e 6159 233f f456 c83e
00000030: a4f1 993e 6bf3 76be 142b 84be 0aed a6be
-0.35590106 0.4963736 0.14294833 0.19923693 -0.3862439 0.39349812 0.4288278 0.4302591
-0.2207253 0.48625028 0.63808256 0.3912884 0.3006717 -0.24116294 -0.25814116 -0.3260272

lstm_25/lstm_cell_29/bias1 f4 [64]
00000000: 49be 5ebc 3e4c 8c3e 3462 cd3d 9cdc 1dbc
00000010: 701e cabc e7db 743e 73aa 8a3e 37c5 aa3d
00000020: 1dff 8c3e a32d 7fbc c3ac d53d 18c2 71b9
00000030: 0000 0000 e062 eb3b ccf3 cebb ac41 a13d
00000040: 0000 803f 0000 803f 0000 803f 0000 803f
00000050: 0000 803f 0000 803f 0000 803f 0000 803f
00000060: 0000 803f 0000 803f 0000 803f 0000 803f
00000070: 0000 803f 0000 803f 0000 803f 0000 803f
00000080: 24d4 23bd 374b 703e e8b7 0f3d 2e4f ffbc
00000090: 13eb 5dbc b16b 733e 916e 7b3e 8bf4 0c3e
000000a0: ee7c 733e 3545 87bc 4e70 5f3d a4d0 a0bb
000000b0: 0000 0000 da23 4dbc f79e 15bb f2e5 283d
000000c0: 768c 4bbc e1fd 913e 78b0 d43d b22a 42bc
000000d0: 1613 e6bc 2cf4 7a3e a19d 8f3e 2fc2 df3d
000000e0: 5eb8 813e 7351 7fbc 62d1 e43d b580 57b9
000000f0: 0000 0000 4ec2 c83b 9f4d d0bb f07c a03d
-0.013595172 0.27401918 0.100284964 -0.009635117 -0.024672717 0.23912011 0.27083167 0.08338397
0.27538386 -0.0155748455 0.10433342 -0.00023055857 0.0 0.0071834177 -0.006315684 0.07873854
1.0 1.0 1.0 1.0 1.0 1.0 1.0 1.0
1.0 1.0 1.0 1.0 1.0 1.0 1.0 1.0
-0.039997235 0.23466192 0.035087496 -0.031165686 -0.013544816 0.2377155 0.24553896 0.1376516
0.23778126 -0.016512493 0.05455046 -0.0049076844 0.0 -0.012520755 -0.0022830346 0.041234918
-0.012423625 0.28514007 0.10385221 -0.011851 -0.028085273 0.24507207 0.2804995 0.109257095
0.25335974 -0.015583384 0.11172749 -0.00020551945 0.0 0.0061266785 -0.0063569094 0.0783633

sequential_10/lstm_25/while/lstm_cell_29/MatMul_1 f4 [64, 16]
00000000: 0040 ebbb 3480 e93d dc2f 20be 2375 b5bb
00000010: 2d32 083e fba7 02be 059a 20be 2b44 413d
00000020: 429f 573d b502 663d c6a3 a03c 7cb7 a83c
00000030: 1e59 843d 1844 793d 6f6a 47be afda 96bd
00000040: d280 5c3d ea90 e1bc c469 c5bd cca2 41be
00000050: fce1 a0bc 5a74 123e 210a 9e3d b482 fd3d
00000060: b3a4 9c3d b581 ba3d 6b51 933c 45d2 623d
00000070: 7d0b 353c 31c1 7ebd d73d 493c 245c c0bd
00000080: 7215 a0bd 9633 cc3c 985b e3ba b7bb 3b3e
00000090: 6e0a 353e a856 22be 899f 46be daa2 acbd
000000a0: 75b0 963d bbaf 58bd a0d8 8b3e e611 d83d
000000b0: 7b09 ad3c 8f13 11bd c0dc d539 6257 2e3d
000000c0: 3b8d 2a3e ba05 8b3d 9318 3abe 3e47 b23d
000000d0: 5da5 71bd 9060 203e b714 013e c448 b53c
000000e0: 4810 b33d d41c 1dbe df7b 9fbd 3460 cabc
000000f0: 3b0b 5abd 3b52 d8bd 18ab 213d 129d 78bd
00000100: fbbd 5cbe 1455 e43d d569 1b3e af67 b93d
00000110: eae8 d83d 4226 64be 9235 163d 42cd 6e3e
00000120: 5bcd d73c b5c1 153c 868b 2abe 3101 5cbe
00000130: 5d69 443d e9de c1bd a681 d0bd dc9d 323e
00000140: d9c8 733e 0eea d63d 7f31 cb3d 0a9e adbe
00000150: 4730 183e 3a7e 963d cd4a 2dbd fb97 e5bd
00000160: 66bf b83d 7e8c d73c 91ae 003e 753c 5abd
00000170: 6c8f 56bd 1a81 5e3c 203f efbd c613 e7bd
00000180: 587f 10be 4319 e5bc bb0e 9d3c 9aab 2abe
00000190: d044 1b3b a220 e73d 4607 33bd a0a6 84bd
000001a0: 8223 6abd 8577 ccbe 01a4 423b 6bfa 653c
000001b0: b196 723e 7d6a ba3d fe11 5bbe a09a 8abd
000001c0: 160d 103d aa8f 9bbd 16e3 c1bd 7f90 1c3d
000001d0: 01b6 19bd 8eff 09bd 05be dd3c 1584 d43d
000001e0: 127a 653d 4c18 56be c72e 9bbc 1ae4 15be
000001f0: c16f 4bbe 616b 883d 7486 8a3c bc43 98bd
00000200: 9def 4fbd b9f6 4f3e ecc0 fbbd 5a37 663e
00000210: a4dd 07bd e427 233e 37c3 81bd c8a5 05bc
00000220: 4915 15bd 0297 54bd fa33 37bd 3362 2a3c
00000230: 2407 36be 11c8 1c3d 2cb7 4dbe fe85 dabc
00000240: d628 d0bd 5202 90bd c7be 1f3e f85d 46bb
00000250: 611c 8b3e 230b 3ebe 3a4f 073e ca65 63bc
00000260: ddb0 143e 5578 e13b b79e e33d 786b 873e
00000270: e8ba 40be 4535 c0bb 889d 553c 4a0f 03be
00000280: 1f4c c43d 8da7 e5bc 1ed4 ae3c 6094 803e
00000290: b0be a0bc 8866 75bd f3fe 963e 26ce 0c3d
000002a0: 063e d73c f20f e2bd 056a 27bd c456 a83d
000002b0: 0039 293e 3e6d 463d 8854 dabc c777 ce3d
000002c0: 09cc 93be a4ac 98bc 00d4 613b 5d9c 37bc
000002d0: 844b c03c 5219 fa3d bf23 16bd 46ad 073d
000002e0: 469b d2bc 60d8 ffbd b2bf 56be b953 88bc
000002f0: f7e6 b93e 78fc 11be 156a 5ebd 1f6d 82bd
00000300: 01f8 0fbe ee24 913d 1d41 6abe 5bc4 6c3d
00000310: 99a8 523e 03b6 423e 4d78 7f3d cb98 2dbc
00000320: ee30 1b3d 7027 cb3d 1ce7 64bd 5d6e 893e
00000330: 5f4c cabc c145 9d3e a786 173e e336 f6bd
00000340: 5daa 3a3d b542 56be 3214 81bd aefb 37bd
00000350: 9734 c6bd fc44 40be a82c 843d a5a9 70be
00000360: 947f afbd 7f6d 403c cfe7 56bc e3b9 c53d
00000370: ff3f 33bd b686 e93a 06c5 13be 9c77 3fbd
00000380: 5b7f b43c 1970 423e ae18 513d a72c 333d
00000390: 0533 0d3e 0e5b 093e cb76 193d 6cda e7bd
000003a0: c4bb 2abc ec61 0ebc 6498 46bd cffb ab3c
000003b0: f481 853d b9d5 203d ff42 1a3d d902 9e3c
000003c0: 14b8 e13b 84c3 1bbb ebfb 21bd 0402 3d3d
000003d0: 602b 0b3b ca5c 6a3c 6f8e f0bd 6c9a 89be
000003e0: 8f25 81bd e27e 25be aae1 1ebe 907b 2f3e
000003f0: 0d58 b83d d64f 17be 2b83 3a3e 5301 dfbd
-0.0071792603 0.11401406 -0.15643257 -0.0055376454 0.1330039 -0.12759392 -0.15683754 0.04718415
0.052642114 0.056154925 0.019609343 0.020595305 0.0646231 0.060855955 -0.19474195 -0.07365929
0.05383379 -0.02753492 -0.09639314 -0.18909758 -0.019639008 0.14302197 0.07716776 0.12378445
0.076486014 0.09106771 0.017983159 0.05537631 0.011050102 -0.06219596 0.01228281 -0.093925744
-0.0781659 0.024926942 -0.0017346023 0.18333326 0.1767976 -0.15853369 -0.19396795 -0.08429499
0.07357875 -0.052901965 0.2731371 0.10550289 0.021122685 -0.035419043 0.00040790997 0.042563803
0.16655438 0.06788202 -0.18173437 0.087049946 -0.058995593 0.15661836 0.12605558 0.022129424
0.0874334 -0.15343028 -0.077872984 -0.024704076 -0.053233366 -0.10562559 0.03946981 -0.06069667
-0.21556847 0.1114904 0.1517709 0.09052979 0.105913 -0.22280219 0.036672182 0.23320487
0.026343038 0.009140422 -0.16654786 -0.2148483 0.047952045 -0.09466345 -0.101809785 0.17443031
0.23807086 0.10493861 0.0992155 -0.33909637 0.14862166 0.073482946 -0.042307664 -0.112106286
0.09020881 0.02631211 0.12566592 -0.053280313 -0.05238287 0.013580585 -0.11681962 -0.11283068
-0.14111078 -0.027966147 0.019172063 -0.16667023 0.0023692138 0.11285521 -0.04370811 -0.06477094
-0.05716277 -0.39934936 0.0029699805 0.014036755 0.23690297 0.09102342 -0.21393582 -0.06767774
0.03516873 -0.07595761 -0.09467141 0.03822374 -0.037527088 -0.03369098 0.027068147 0.10376755
0.05602462 -0.20907706 -0.018943204 -0.14637795 -0.1986685 0.06661106 0.016909815 -0.07434794
-0.050765622 0.20308961 -0.12292656 0.22482052 -0.033170357 0.15933186 -0.063360624 -0.008157201
-0.036397252 -0.051901825 -0.044727303 0.010399389 -0.17776161 0.038276736 -0.20089406 -0.02667522
-0.10164039 -0.070316926 0.1560012 -0.0030268412 0.2717009 -0.18558936 0.13213816 -0.013879249
0.14520593 0.0068808 0.11114257 0.2644918 -0.18821299 -0.005865725 0.013038047 -0.12798801
0.095848314 -0.028033996 0.02134138 0.251132 -0.019622177 -0.059912235 0.29491386 0.034376286
0.026274692 -0.110381976 -0.040872592 0.08219674 0.1652565 0.048444025 -0.026651636 0.100814395
-0.28866604 -0.018637009 0.0034458637 -0.0112067135 0.023473509 0.12211861 -0.036655184 0.03312423
-0.025708806 -0.12492442 -0.20971563 -0.016641485 0.36309025 -0.14256465 -0.054300386 -0.063684694
-0.1405945 0.07087122 -0.22876401 0.057804447 0.20572127 0.19014744 0.062370587 -0.010595511
0.03788846 0.099196315 -0.055884466 0.26842013 -0.02469462 0.3071728 0.1479746 -0.120221876
0.045572627 -0.20923884 -0.0630268 -0.044917755 -0.096779995 -0.18776315 0.0645383 -0.23502214
-0.085692555 0.011744856 -0.013116791 0.09654596 -0.043762203 0.0017816636 -0.14430627 -0.046744928
0.022033384 0.18988074 0.051048927 0.043743756 0.13788994 0.13413641 0.037466805 -0.113209575
-0.010420743 -0.008690339 -0.048485175 0.020994095 0.06518927 0.03926632 0.03766155 0.019288467
0.006888399 -0.002376766 -0.03954689 0.0461445 0.002123557 0.014304349 -0.11745917 -0.26875627
-0.06305992 -0.16161683 -0.15515772 0.17136979 0.09001169 -0.14776549 0.18214099 -0.108889244

sequential_10/lstm_25/while/lstm_cell_29/MatMul f4 [64, 4]
00000000: ec01 f73d d6fa fc3c 8f52 313e 74c5 75be
00000010: 98c6 0b3f 3bb1 053f f6f6 e43d 98f2 9c3e
00000020: f85e c33e 87de b43e e437 0b3e 6d9d 353e
00000030: 4024 67bb 5f6d 883e 0c37 463e 71e4 b7bb
00000040: 015a 9dbe 78fe 69be 195f 5fbe 231d 0bbc
00000050: 28ad d23d 00fa 083f cd2a 0f3f 752b 1c3e
00000060: 3713 ee3e 904e 0b3f d94c 0c3f 3f8a 6f3e
00000070: 6336 893e 46e4 9abd 5792 59be 65bf aabe
00000080: a2c8 b13e 124c cd3e f24e 0b3d df38 6b3e
00000090: 51b9 82be d2cb ea3d 652e 29be 4fba 8b3e
000000a0: 5d93 e23d 199b 76bd 2cf2 c63e 9e4b b33e
000000b0: 2b17 323e b786 74bd 3f07 8cbe c216 5abe
000000c0: 8457 143e 2c82 793e 483c 873e 206d c9bc
000000d0: 3e92 c2bd 00dc 09be 9664 88be 382a 843e
000000e0: 4d24 873e b7bf eebd 3cf6 84be 40c8 61be
000000f0: ad5f 773e 6baa 8c3d 5671 2abd a2e7 3d3e
00000100: d5d4 33be fc43 d4bd b258 6abe a05f 53bc
00000110: 8424 433e d0ba 153e 9074 dabd 744a 2cbe
00000120: 3485 a9bd 6190 63be 34e8 373e 20ee 5c3d
00000130: 8881 71be 986f 443d f2c1 95be d209 eebd
00000140: c4f9 8e3d 5931 28be 90e2 ddbc 8859 883e
00000150: e040 33bd c8ef 5e3e f0ad 873d 0093 93bc
00000160: 8645 73be 80d5 e83d 92f9 a4bd b069 823e
00000170: 50ea 2d3e cad0 953e 0e17 433e 442c 81bd
00000180: c0d2 80bc f82a 563e 8605 75be c88a 553e
00000190: e099 7c3e 8071 3a3e 70a4 d33d 10c2 56bd
000001a0: 20c4 5b3c 10fd 5c3d 62b7 e8bd 673b 3fbe
000001b0: db8a 41be 864e 8d3e 68a1 f43d 78b2 f83d
000001c0: 2012 843e c663 88bd fc4a 4e3e 65a5 14be
000001d0: 46b5 e1bd a033 4e3e 441b 063e 4a20 123e
000001e0: ca67 8d3e b718 66be 4891 11be d827 c3bd
000001f0: c051 a2bd 8827 0cbe 1c68 f4bd 0685 283e
00000200: db21 1bbe 1bd3 12bd 8aa5 123e 345b c7bd
00000210: e928 3b3e e720 0e3f 9689 073f 1e82 5d3e
00000220: 8a02 cd3d 77d9 773e 0bb8 883e 5574 d9bd
00000230: 136e 283e 8eae ed3d 4878 adbe 6047 ccbd
00000240: 1ad2 48be 7d71 943e be06 89be 656f 97be
00000250: 3ef4 4b3d 9753 063f d0f6 c93e 7aea 0d3d
00000260: 080f 0c3f 58f5 4b3e dd12 b63e 88d8 d13e
00000270: 8052 92bd e854 f3bc ec9b 1cbe 2b28 483e
00000280: ad29 e43e 59c3 603c 6bb9 fa3e b33d f23e
00000290: a7d9 d1bd 91ec 8ebe e442 58be 307b 0e3e
000002a0: d4a5 0b3e 1d71 a43e d463 75bd 823b 1d3e
000002b0: 9ef7 95be 3baa 57be 0eb3 823e 9505 cabd
000002c0: 6af8 163e 401b 43be 9d3f 91be 5c4f 95be
000002d0: e0a9 68bc e2b6 293e ea27 0fbe 10db 8ebe
000002e0: 5533 86be fea4 85bd 4e6d 343e 447f 72be
000002f0: 2fe5 33be 3fb8 0cbe 30e1 973e e7b1 64be
00000300: 68fb 543e 8542 8a3e b672 873e 4f2f 28be
00000310: 83de 143e 5270 ba3e 9ac7 6b3e d010 9e3e
00000320: 096d c23e c74f 913e 7515 073e 2a2c e83d
00000330: 3d5f 3a3e 7dbd 82be b48c a2bd 9291 c1bd
00000340: 291c 9ebe 80e3 633e 39c3 403e 923e 44bd
00000350: abaf 113f cc46 4d3d 27ea 7d3e 7482 b03e
00000360: ed95 133f c014 0c3e 9aa7 d63e a2d2 cf3e
00000370: 3986 233e 69cf 283e 121f a2be d853 7b3e
00000380: 0c46 903e c99c f43e 0fb3 f93e 8bc5 f63e
00000390: 7224 053e 98ab 1bbe 97ae 023c da88 6f3e
000003a0: 0383 de3d 7a4c d83e 8b71 72bd 3724 e73c
000003b0: d6f0 a2bd a93e 60be 56c6 013e 7b79 d4bd
000003c0: b5bb 83be 3293 1c3e f2ed 3abe 7cbd 92bd
000003d0: c7f4 91be da5a 94be dd85 b5bc 606d 55be
000003e0: 2654 203e add9 e1bd 6006 97be 18e9 213e
000003f0: b08d 9b3e 26a0 05be 4f7a 503d 180d 663c
0.120609134 0.030881327 0.1731665 -0.24001104 0.54599905 0.5222356 0.111799166 0.30653834
0.38158393 0.35326025 0.1359554 0.17735834 -0.003526941 0.26645944 0.19356936 -0.005611949
-0.3073273 -0.22850978 -0.2181362 -0.008490833 0.10286933 0.5350647 0.55924684 0.15250953
0.46499035 0.5441675 0.5480476 0.2339258 0.26799306 -0.07563071 -0.2124723 -0.33349147
0.34723383 0.400971 0.034010835 0.22970913 -0.2553201 0.11464657 -0.16521604 0.2729058
0.110632636 -0.060206506 0.38856637 0.3501863 0.1739165 -0.059698787 -0.27349278 -0.21297744
0.1448651 0.24366063 0.26413178 -0.024588168 -0.0950055 -0.1346283 -0.2663924 0.2581346
0.26394883 -0.116576605 -0.25969112 -0.22049046 0.24157591 0.06868442 -0.04161199 0.18545392
-0.17561658 -0.103645295 -0.22885397 -0.012901217 0.19056898 0.14622045 -0.10666764 -0.16825277
-0.082773596 -0.22223045 0.17959672 0.05393803 -0.23584569 0.047957987 -0.2924953 -0.11622967
0.06981233 -0.16425075 -0.027085572 0.26630807 -0.04376304 0.21771157 0.06624973 -0.018014431
-0.2375699 0.11368847 -0.08055414 0.25471258 0.16983914 0.29260856 0.19051763 -0.06307271
-0.015725493 0.20914829 -0.23927888 0.20853722 0.24668074 0.1820736 0.10334098 -0.052431166
0.013413459 0.053952277 -0.113631025 -0.18675004 -0.18900625 0.2759897 0.11944848 0.12143415
0.25795078 -0.06659655 0.20145792 -0.14516218 -0.11020903 0.20136881 0.13096339 0.1427013
0.27618247 -0.22470365 -0.14215577 -0.09529084 -0.07925749 -0.13686955 -0.1193392 0.16456994
-0.15149634 -0.035845857 0.1432096 -0.097341925 0.18277325 0.55518955 0.52944314 0.21631667
0.1001025 0.2420405 0.26702914 -0.10617892 0.1644824 0.11605559 -0.3388083 -0.09974551
-0.19611397 0.28992835 -0.26762956 -0.29577175 0.049793474 0.524713 0.39446115 0.034647442
0.54710436 0.1991781 0.35561267 0.40985513 -0.07144642 -0.029703572 -0.15293854 0.19546573
0.44563046 0.0137184495 0.48969588 0.47312698 -0.10246592 -0.2791486 -0.21119267 0.1391418
0.13637477 0.3211755 -0.059909657 0.15354732 -0.2929048 -0.21061032 0.25527233 -0.09864346
0.147432 -0.19053364 -0.28368846 -0.2916211 -0.014200658 0.1657367 -0.1398007 -0.27901506
-0.26211038 -0.065256104 0.17619821 -0.2368136 -0.17567895 -0.1374216 0.29663992 -0.2233349
0.20799029 0.27003875 0.26454705 -0.16424297 0.14538006 0.3641382 0.2302536 0.30872202
0.37973812 0.28381178 0.13191779 0.113365486 0.18200393 -0.25535193 -0.07936993 -0.094515935
-0.3088086 0.22254753 0.18824472 -0.047911234 0.56908673 0.050116345 0.24796353 0.34474528
0.57650644 0.1367979 0.41924745 0.40590388 0.1596917 0.1648537 -0.3166433 0.24543703
0.28178442 0.47775868 0.48769423 0.48197588 0.13002184 -0.15202177 0.007976196 0.23392048
0.10864832 0.42245847 -0.059190314 0.02821551 -0.07956092 -0.21898903 0.12673315 -0.10374733
-0.25729147 0.15290526 -0.18254831 -0.071650475 -0.28507063 -0.28975564 -0.022158558 -0.20842505
0.156571 -0.110278465 -0.2949705 0.15811574 0.30381536 -0.13049373 0.050897893 0.014041208

lstm_26/lstm_cell_30/bias1 f4 [16]
00000000: ebb2 7e3e 0000 0000 8951 7e3e e2a2 5dbc
00000010: 0000 803f 0000 803f 0000 803f 0000 803f
00000020: 5571 433e 0000 0000 d775 383e cb3c 4dbd
00000030: d677 823e 0000 0000 5b03 5e3e 4864 78bc
0.2487294 0.0 0.2483579 -0.013527604 1.0 1.0 1.0 1.0
0.19086201 0.0 0.18013702 -0.050106805 0.25482053 0.0 0.21680968 -0.015160628

sequential_10/lstm_26/while/lstm_cell_30/MatMul_1 f4 [16, 4]
00000000: c83b 213e bb70 38be 2ae5 ca3c 30fc 9a3c
00000010: af65 50bd 9a79 4bbd cb70 a33d 84b5 1bbe
00000020: 25a2 00be 61b3 a73e c7b3 b43e aa66 6e3e
00000030: d867 d5be 40e0 4dbc fe28 a63e 44cc 883e
00000040: 525d 593e 3447 3bbe 0aec 97bd d56d e3be
00000050: ff8a b0bd 10c8 913d c740 12bf 6ce7 823e
00000060: 61a0 ba3e 806c ca3d 78ef 49bd 5d30 f23e
00000070: 1295 9a3e 0089 243a 4a42 a23d ff17 823e
00000080: 7a71 6b3e 1940 d2bd 53b6 5e3e d2f1 85bd
00000090: e404 f13e 0c28 d03e db40 6bbd 3f2c 36bd
000000a0: e0b4 563e ace0 a93e c4df 1f3e dbaa 003e
000000b0: 3b94 023e 25c7 a4be cc20 943d 8428 04be
000000c0: ba9f d43d 1406 d43e 3b9e 1ebe b1f9 cdbe
000000d0: 84ca 573e a923 18be 72be fc3e c5b0 c3bd
000000e0: fa90 53be 1786 293d ea09 46be d5e4 88bc
000000f0: 9751 8bbe fda5 f23e aba4 453e 6196 99be
0.15745461 -0.18011753 0.024767477 0.01891908 -0.050878223 -0.049676515 0.07980498 -0.15205961
-0.12561853 0.32754043 0.3529341 0.2328135 -0.4168079 -0.012565672 0.3245315 0.26718342
0.21227005 -0.1828888 -0.07418068 -0.44419733 -0.086202614 0.07118237 -0.5713009 0.25567186
0.36450484 0.09883976 -0.04930064 0.47302523 0.30191857 0.0006276518 0.079228 0.25408933
0.22992507 -0.10266132 0.21749239 -0.06540264 0.47074044 0.40655553 -0.057434898 -0.04447579
0.20967436 0.33179224 0.15612704 0.12565176 0.12751858 -0.32183185 0.07232818 -0.1290608
0.10382028 0.41410887 -0.15490048 -0.40229562 0.21073347 -0.14857353 0.49364048 -0.095552005
-0.20660773 0.041387644 -0.1933972 -0.016710678 -0.27210686 0.47392264 0.19301097 -0.29997543

sequential_10/lstm_26/while/lstm_cell_30/MatMul f4 [16, 16]
00000000: b68e 4abe df1b 093f eedd 34be 1976 7ebe
00000010: d689 babc 48df 1d3f c8c8 143f 6ca0 393e
00000020: 0db3 cb3e 258f a53e a44f 4a3d 415f cfbe
00000030: 6c35 d33d 61a8 0dbc c5f4 3a3e 116d 7f3e
00000040: dbe8 873e 2499 b73d 80d6 7fbc 642b 9d3d
00000050: 2bff 55be bc6a dbbd 207e ad3c 961d 97be
00000060: 10fd 8abc c2f1 94be bb86 cf3e 1239 2b3e
00000070: 1e4f 4c3e 1c67 e1bd df2b ac3e 12dc 4b3e
00000080: f142 9b3e 3507 203e 3255 0f3f e961 00be
00000090: 6347 4fbe 3c7c b53e 9730 f63d b334 9d3d
000000a0: 5d64 133e 5638 afbe 93d0 a83e 102c 82be
000000b0: bf5b 5abe d031 a0bd 0226 7a3e 8703 173e
000000c0: 07bb a7be a494 d83e e0b3 d5bd 3f6b 183d
000000d0: 5315 94be 32e3 3c3e 9309 393d d74f ab3e
000000e0: cdda 1dbe 5a32 7d3e 6839 96bd c80a 033d
000000f0: 20cb a9be 82fa 1c3e 4c6a d23d 690f f3bd
00000100: 2c5c 8abd 9e79 4b3e 7689 56be 888c 40bd
00000110: 324f 0b3e 206f 143d dcaf 0fbe 9418 d63d
00000120: 6fd8 923e e4b4 d93d e116 babe 50af 6abd
00000130: 1c4a 83be 683b ddbd ec53 61be 0c67 f53d
00000140: a0fe e6bc c69a 61be 9ca0 b63d 86b3 c2be
00000150: c585 883e 082f 3cbd bcb2 c9be 80c1 86bc
00000160: f4af f2bd 7379 8d3e dfd6 ca3e 8c60 b83d
00000170: 79e5 cdbe 8e8f a3be d5d6 dabe 7ca0 d83d
00000180: c69f b1be fb74 983e b257 35be 5ac5 08be
00000190: 518b c9be c822 b4be b097 743d cc3c d43d
000001a0: baca 543e 9bc1 a53e 17de a53e 602d d8bc
000001b0: 9d3c 6fbe c47c 8d3d 8509 d13e 2adc 573e
000001c0: 8314 dcbe 47ce a1be 0cb6 ab3d a92d d33e
000001d0: c625 a2be 7b26 93be 835f 8b3e ae74 073e
000001e0: 1b48 d13e 4ce9 b13d 8225 233e 0851 9cbe
000001f0: 275b 843e b3e9 d3be 009b e6bc b650 08be
00000200: 2559 2dbe 2096 f83e 86fa 74be c42f 47be
00000210: be1e 403b f0fd 1f3f bcfc 233f 3fa2 a0be
00000220: 3713 f53e ec87 183e dc05 12bd 9857 bebe
00000230: bc57 bb3d 9d7b debe e73e 7d3e cdd0 8ebe
00000240: 5a7d 443e 9a9f 3cbe f765 be3e d8d3 9fbe
00000250: ecfd 97bd 0d23 77be 12dd 21be 8abc b1be
00000260: 0ff1 88be 4126 da3e d037 08be 378a bbbe
00000270: 3c10 a8be 4c1d dcbd 003e 373c cfd9 c83e
00000280: e9bf aebd 2754 263f 7a22 fb3e c9f8 adbe
00000290: f204 a33e 6959 c1bd 1554 033f c0f7 cabe
000002a0: fa33 f5ba e45f 203e b1aa a83e 39f9 14be
000002b0: e22a 87be 3489 553d 50e0 0dbe e1da cdbd
000002c0: 9b19 d3be 0f21 18be 3ac2 453e 7214 0fbe
000002d0: 14b0 cbbd 711d a23e 2347 d33d bc5b a73d
000002e0: 5905 80be 7feb 8a3e 114e 6fbe 9c5f 78be
000002f0: c37f 93be c448 8e3e 161e 0dbe 2a82 d13e
00000300: f285 92be 9e3b bf3e 673f 1f3f db36 a9be
00000310: 6ddb ca3d fbe5 783e 1801 3b3f 490b 55be
00000320: b643 893e 9190 d03d f0a1 2a3e a0bb d83e
00000330: 8c53 8fbd a525 d0be 0d03 93be 0125 fbbe
00000340: c697 4dbe ec06 72be ed4c b53e ae59 613e
00000350: 5450 f3bd d8f9 27be 3438 83be 424b 333e
00000360: ddc9 c43e 3054 1a3d c7cf ad3e 9689 61be
00000370: e028 f6bd e612 153e 8a1c 1d3e 4875 79be
00000380: 5f96 c8be 309b d53d 66a7 f53e 9162 7cbe
00000390: 0ef5 7dbe 08d6 ff3e 3384 2e3f 42a7 1a3e
000003a0: 3636 313f e1bb 013e 92f0 3e3e ef4d f2bd
000003b0: 737e 9b3e 223c a73e c61e 3b3d beb6 523e
000003c0: d72c 79be 96db 15be 8b57 4b3e c815 b4bd
000003d0: 07a8 b03d b0c2 d0be b16b e0be bf54 bd3e
000003e0: 4770 2e3e b0b4 cbbd 7a6c 8f3e 67d1 bf3e
000003f0: e229 2e3e 8071 0f3d 5818 673d dad1 bbbd
-0.19781002 0.5355815 -0.17662784 -0.24849738 -0.022770803 0.61668825 0.5811887 0.18127602
0.39785042 0.32335773 0.049392357 -0.4050236 0.10312924 -0.008646102 0.18257435 0.2494395
0.26544842 0.08964756 -0.015615106 0.07674292 -0.2089812 -0.10713717 0.021178305 -0.2951476
-0.016966373 -0.29090697 0.4053248 0.1672099 0.19952056 -0.11005995 0.3362722 0.19908169
0.3032451 0.1562775 0.5598937 -0.1253735 -0.20242076 0.35446346 0.120209865 0.07676067
0.14393754 -0.34222668 0.3297163 -0.25424242 -0.21324061 -0.07822001 0.24428561 0.1474744
-0.32759878 0.42300904 -0.10434699 0.037211653 -0.2892252 0.18446043 0.045175146 0.3345935
-0.15415497 0.24726239 -0.07335168 0.031992704 -0.33162785 0.15329936 0.10274181 -0.11868174
-0.06755862 0.19870612 -0.20950875 -0.04700902 0.1360443 0.03623879 -0.14031929 0.10453907
0.2868075 0.10630205 -0.3634558 -0.057296097 -0.25642478 -0.108023465 -0.2200467 0.11982545
-0.028197587 -0.22031698 0.089173526 -0.3802759 0.26664558 -0.04594329 -0.39394176 -0.01644969
-0.11849967 0.2763172 0.3961706 0.0900279 -0.40214136 -0.3194546 -0.4274203 0.10577485
-0.3469221 0.2977675 -0.17709234 -0.13356534 -0.39364102 -0.35182786 0.059714973 0.103631586
0.20780459 0.32374272 0.32396004 -0.026388824 -0.23362966 0.06908563 0.40827575 0.2108008
-0.429844 -0.3160269 0.08384332 0.41245773 -0.31669444 -0.28740296 0.27221307 0.13228104
0.40875325 0.08687076 0.15932277 -0.30530572 0.25850794 -0.41389236 -0.028150082 -0.13312039
-0.16928537 0.48552036 -0.23923692 -0.19451815 0.0029315199 0.6249685 0.6405752 -0.31373784
0.47866222 0.148956 -0.03565012 -0.37176204 0.091475934 -0.43453684 0.24731027 -0.27893677
0.19188443 -0.18420258 0.37187168 -0.3121631 -0.07421479 -0.24134465 -0.15806988 -0.34714156
-0.26746413 0.4260731 -0.13302541 -0.36628887 -0.32824886 -0.107477754 0.011184216 0.39228675
-0.08532698 0.64972156 0.4904974 -0.3397887 0.3183971 -0.09440882 0.51300174 -0.39642143
-0.0018707507 0.1566158 0.32942727 -0.14548196 -0.26399904 0.0521328 -0.138551 -0.100515135
-0.41230473 -0.14856361 0.19312373 -0.13972643 -0.099456936 0.31663087 0.103163026 0.08171794
-0.2500408 0.27132794 -0.23369624 -0.24255222 -0.28808412 0.2778989 -0.13781008 0.4091962
-0.28617817 0.37350172 0.6220612 -0.33049664 0.099051334 0.2430648 0.73048544 -0.20805086
0.26809472 0.10183824 0.16663337 0.42330647 -0.06998357 -0.4065372 -0.28713265 -0.4905167
-0.20077428 -0.23635453 0.35410252 0.22006866 -0.11880556 -0.16403902 -0.25628817 0.17509177
0.3843526 0.037677944 0.33947584 -0.22025141 -0.12019515 0.1455799 0.15342918 -0.24361145
-0.39177224 0.1042999 0.47979277 -0.24646975 -0.24800512 0.4996798 0.6817047 0.15102866
0.69223344 0.12669326 0.18646458 -0.11831271 0.3036991 0.32663065 0.045683645 0.20577523
-0.24333511 -0.14634547 0.19857614 -0.08793217 0.08625799 -0.40773535 -0.43832162 0.3697872
0.17035018 -0.09946573 0.2801245 0.3746445 0.17008165 0.03502035 0.0564197 -0.091708854

lstm_27/lstm_cell_31/bias1 f4 [16]
00000000: 4ddd 413e 6afc 593e 036d 433e 0000 0000
00000010: 0000 803f 0000 803f 0000 803f 0000 803f
00000020: a87f 1d3e bb49 123e a440 0f3e 0000 0000
00000030: 7746 263e 49d7 653e c95a 513e 0000 0000
0.18932076 0.21287695 0.19084553 0.0 1.0 1.0 1.0 1.0
0.15380728 0.14285938 0.13989502 0.0 0.16237818 0.22445406 0.20444788 0.0

sequential_10/lstm_27/while/lstm_cell_31/MatMul_1 f4 [16, 4]
00000000: 609b 113d 9e56 553d bc7d 813e 733c 083e
00000010: 6a42 b93d 91ce 8e3e 5540 90be 21aa 553d
00000020: fbc4 a1be bc32 263e d346 2b3e e5a2 ef3e
00000030: b802 4ebe 2ca1 be3d d486 dd3e 68df 9abc
00000040: ec29 213d 11f8 5b3e 8d85 85bd a470 efbc
00000050: adec 3c3e 31f9 29bd dc9e 8c3d c179 693e
00000060: a75c 62be 8f5b 77be a0c5 413d 44e7 e4be
00000070: a9d0 da3e c523 4c3e b0a6 47be ac6a 2d3c
00000080: 156d ec3d c735 eb3e f733 b23e 932c bebe
00000090: 7d59 1a3e 1150 4f3e f1bc 82be be8e 193d
000000a0: 24a7 113e 678d e23e e4d3 943d 5edb 3e3e
000000b0: 8850 9f3e 8382 a7be 6a5e 403e 50bf 22bd
000000c0: ec8a eebe f626 cdbd eed0 aabe 7668 6a3e
000000d0: 7438 c63e 2b70 bfbe b24d 183d 6081 083c
000000e0: dbfc 65be 4d7d 3b3e d49b 65be 1934 07bf
000000f0: 1d63 e6bd 69cf 8d3c c954 e63e b225 7f3c
0.035548568 0.052084558 0.2529124 0.1330431 0.090458706 0.27891973 -0.2817408 0.0521642
-0.31595597 0.16230291 0.16726236 0.46803966 -0.20118225 0.09308085 0.43266928 -0.018905357
0.03934662 0.21481349 -0.065196134 -0.029228516 0.1844966 -0.041497413 0.068662375 0.22800352
-0.22105657 -0.2415602 0.04730761 -0.44707692 0.4273732 0.1993552 -0.1949718 0.010584515
0.11544243 0.45939466 0.3480527 -0.37143382 0.150732 0.20245387 -0.25534776 0.037489645
0.14223915 0.44248506 0.072669774 0.1863837 0.31116128 -0.3271676 0.18786016 -0.03973323
-0.46590364 -0.10017197 -0.33362526 0.22891411 0.38714945 -0.37390265 0.03718347 0.008331627
-0.22459738 0.18309517 -0.22422725 -0.5281387 -0.11249373 0.017310815 0.4498656 0.015572952

sequential_10/lstm_27/while/lstm_cell_31/MatMul f4 [16, 4]
00000000: 9ea5 5dbe f06c 483e eaa6 72be cc44 323d
00000010: 936f 573f 9dab e4be 0195 a63e 1fa9 353e
00000020: 99d7 073e 4038 c43e a320 2c3f b482 f33e
00000030: e0dc f7be 8031 bfbb 20c3 0d3d e450 843e
00000040: 254f bfbe d04a 24bd c724 05bf ceaa dabe
00000050: d887 d9bd 7081 be3d 4a59 093f 58ef 65bd
00000060: b463 043e e44b a4bd 5092 163e e031 d6be
00000070: 0ea3 8e3e a06c a9be 2c35 d5bd 02b6 0bbe
00000080: e3ef 35bc 48ab 6dbe 238c d23e e5e3 03bf
00000090: ec96 463f eca2 efbd 275c 9f3e 3486 91be
000000a0: 63f0 013e d0e2 f03e 8344 1a3f 9fb6 873e
000000b0: 227b d2be 9c4f 3b3e 841a 58be e0de f93d
000000c0: 406d 0a3f 2c78 153e 425b 183f b6a0 efbe
000000d0: 8f8b d43e 26db 8e3e 5b60 d53e 14ae c83e
000000e0: 617d c83c 947b 303e c67a 51be a68d 033e
000000f0: 3cfb d4be 0c31 68be b09d 483e d098 4e3e
-0.21645209 0.19572806 -0.23696485 0.04352264 0.84154624 -0.4466218 0.32535556 0.17740296
0.13265838 0.38324165 0.672373 0.47560656 -0.48410702 -0.0058347583 0.034609914 0.25842965
-0.3736507 -0.04011041 -0.5200924 -0.4270844 -0.10621613 0.09302032 0.5365187 -0.05613646
0.12928659 -0.080222875 0.14704251 -0.41834927 0.27858776 -0.33090687 -0.10410532 -0.13643649
-0.011104557 -0.2320987 0.4112254 -0.51519614 0.7757404 -0.11700997 0.31124994 -0.284227
0.12689357 0.47048044 0.6026079 0.26506516 -0.41109568 0.18292087 -0.21103865 0.12200713
0.5407295 0.14596623 0.5951425 -0.468023 0.41512725 0.27901572 0.41675076 0.3919531
0.024473848 0.17234641 -0.2045699 0.12847003 -0.41597927 -0.2267496 0.19591403 0.20175481

lstm_28/lstm_cell_32/bias1 f4 [64]
00000000: 6f29 82bc 74d6 233e d289 033e efd4 343e
00000010: 28b4 903c 52ab 243e 4d26 1e3e 6ec5 2e3e
00000020: 0000 0000 0000 0000 0bfa 303e 649b 2e3e
00000030: 7522 2c3e 2f75 ebbb 8d81 0ab9 0791 f4b9
00000040: 0000 803f 0000 803f 0000 803f 0000 803f
00000050: 0000 803f 0000 803f 0000 803f 0000 803f
00000060: 0000 803f 0000 803f 0000 803f 0000 803f
00000070: 0000 803f 0000 803f 0000 803f 0000 803f
00000080: dc43 81bc 11fb ea3d c7f7 56bd d4d9 0b3e
00000090: 7c12 e4bc b0f7 ef3d e303 ef3d a92c ec3d
000000a0: 0000 0000 0000 0000 3206 ea3d 5ada f03d
000000b0: 4468 f83d 503d 81bc c521 b6bb 7ac0 c4bb
000000c0: f5d7 81bc 9e15 223e 3d69 043e a344 323e
000000d0: 0d7d a03c 5e63 283e 2ace 203e 7187 303e
000000e0: 0000 0000 0000 0000 b5ad 2e3e 88c5 2f3e
000000f0: c1c5 2d3e 2416 ecbb 6a80 0ab9 a391 f4b9
-0.015888898 0.15999776 0.12845543 0.17659353 0.01766403 0.16080979 0.15444298 0.17067501
0.0 0.0 0.17282884 0.17051464 0.1681002 -0.0071856 -0.00013208967 -0.0004664736
1.0 1.0 1.0 1.0 1.0 1.0 1.0 1.0
1.0 1.0 1.0 1.0 1.0 1.0 1.0 1.0
-0.015779428 0.11473668 -0.052482393 0.13657314 -0.027840845 0.117171645 0.11670663 0.11531956
0.0 0.0 0.11426963 0.11760397 0.12129262 -0.015776306 -0.005558225 -0.0060043903
-0.015850047 0.15828559 0.1293077 0.17408995 0.019590879 0.16444156 0.15703645 0.17239167
0.0 0.0 0.17058451 0.17165196 0.16969968 -0.007204788 -0.00013208544 -0.00046647814

sequential_10/lstm_28/while/lstm_cell_32/MatMul_1 f4 [64, 16]
00000000: 5015 983d e11d 4c3e 6664 44bc 0ab6 f63d
00000010: 0461 9abd 4cd9 80be 18e6 4ebe 709c edbc
00000020: a2d4 1a3c ac4c b53c 3090 61bd 0008 fabb
00000030: 941a 203d 0d8d d13c 5948 36bd f7cf b8bd
00000040: 2506 df3c 3a91 c8bc 8c7a 65bd a13d e83d
00000050: 51b8 32be e10e d9bd e21a d63d 6c03 103b
00000060: b452 a03d 986a e6bd 0e05 2bbe cd4b 9aba
00000070: 572e 963e 61cd 193c 7056 283e 6582 e6bd
00000080: fd84 debc 9b4a 17be 0cd3 d43c ee01 053d
00000090: 492e fd3c 0750 543e 297c 0b3e 6d44 843d
000000a0: 2d39 afbc ecd8 4abc 3312 16be 44c3 da3c
000000b0: f31a 903e a3a1 403c a78a 5e3d 1403 9b3a
000000c0: 8cb4 973d 97de e7bd fc63 5cbe 2bd3 263e
000000d0: 70c5 2c3d 0c17 05bd c7c0 663d 28d1 ae3d
000000e0: 2302 c4bd f3d4 4cbe 4ba9 e23d 0fab b83d
000000f0: 6128 113e a777 223e 9733 ffbd 44c7 5abd
00000100: 542b 01bd a8b1 d1bc 6155 a7be eafb 103e
00000110: 7bef febd 9e30 f9bd 195f d13c 6a35 333e
00000120: 1317 d03d d39b 85bd df47 253e 5c99 583e
00000130: 745f 71be b64e 85bc d7cf 09be 3716 99bd
00000140: e282 303e e989 f53d 4587 e9bd d02b a8bd
00000150: b79f 26be 3489 803d 80ca 243e 7ee0 1dbe
00000160: e267 81be d51a 62be 00d5 4e3e ecbf 4e3c
00000170: 562f e4bd da93 c2bd c201 073e 60ca 963d
00000180: bc6e 1dbd 7611 413e d188 b0bd 4e22 d13d
00000190: ba6a d13d 39a2 58bc 19a2 753d 8c6e efbb
000001a0: cd28 9b3d e21f 663d aca3 05be 5887 d23d
000001b0: b0ad 843c a79f 153e 3f50 8b3e ad1b d8bc
000001c0: 497a 2c3e bd5b 2dbe b5d6 423e 9eaa 64bc
000001d0: 4f1d a1bd bc07 b7bd f4df 583c e33d dd3d
000001e0: 3ef6 d53d 216f ce3d b82b e33e b54c 4d3c
000001f0: 259a 103e 94d2 a7bc 7eda f23c 5f1e c9bd
00000200: bfdf a2bd adf2 72be 1cef 823d a280 963c
00000210: a2d8 a9bd 5248 97bd 1cff 04be 83f5 3abd
00000220: 25ce 0fbd e82b aa3c d7b2 f5bd 349e 39bd
00000230: e966 14be cb65 843d 5806 b1bd 6932 83bd
00000240: 4362 103d 54f8 c2bd 742a 60be 1276 503c
00000250: f504 10bc d8ef b7ba 1602 80bc 3f94 c83d
00000260: fab6 1f3e aeb0 06bd 0e57 06be 4952 3e3d
00000270: c6cb 3fbe b25c d9bd 70e5 473e cfaa 463e
00000280: f2f0 813d 1a6c a4bb 091c c23d cd43 4c3d
00000290: 310f f43d 8571 b0be 2470 fb3d 780d c1bc
000002a0: e7ca 4fbe ffec 04be 4a3b 353b 8704 3a3e
000002b0: 5c0a f8bc 11d9 4cbd 5dfd 0ebc f9da 023e
000002c0: 6fba 5b3e 77b1 3dbd 8321 47bd 2038 513e
000002d0: 273b 1fbd b8f0 b73c fb1c 8b3e 4e73 7d3d
000002e0: 2f8e b6bc fdd3 b23c 977d 633d a474 9b3d
000002f0: 6e44 85bd 13ce 593e 78f5 4c3d 0337 0cbd
00000300: ad86 533d 8fa0 bf3d 5c40 db3d 1049 a7be
00000310: 91f3 6bbe 2455 133e 17a3 443e 7310 36bd
00000320: d631 113e 92d9 c33d 8ecc afbb 3941 3ebd
00000330: aeb9 27bd e004 253e bfbf 32bd de1c 4bbd
00000340: 50b1 5d3d 3a2c 47be a895 68be 3e3c 0dbe
00000350: be63 01be 000a 6bbe 11fe 473d 5b72 0d3e
00000360: 7d50 96bd a821 cebd 7821 47bd 5c3b 08be
00000370: e2d9 873d 273c d63d a3f5 3dbe 3071 a93d
00000380: c787 2f3d b072 12bd 17f6 14be c248 5c3d
00000390: 7b3a 1fbd 5ed0 1ebc 0060 073e 3fe4 0abe
000003a0: dae9 62bc ae28 503e 19ed c4bd dfdd 7dbd
000003b0: 052d 7d3d 6add 95be e203 adbc d3a7 27bd
000003c0: 72c8 473d b917 af3d 8949 123e 902b 1abc
000003d0: 32ca 0d3e 30f8 76be 8c58 e33c 9e3e 103e
000003e0: 8737 9dbc 6830 18bd abaf 8e3c 29ab b03d
000003f0: 4d59 4e3e 2962 c5bc 313f 493e 1ad4 4cbd
0.0742594 0.19933273 -0.0119868275 0.1204644 -0.075380355 -0.25165784 -0.20204961 -0.02900526
0.00945011 0.022131287 -0.05506915 -0.007630348 0.039087847 0.025579954 -0.04450259 -0.09024041
0.02722461 -0.024483312 -0.056025073 0.1133988 -0.17453124 -0.10598541 0.10454346 0.0021974696
0.07828274 -0.112508 -0.16701147 -0.0011771858 0.2933223 0.009387345 0.16439223 -0.112553395
-0.027163023 -0.14774553 0.025979541 0.032472543 0.03090586 0.20733653 0.13621582 0.06458364
-0.021389568 -0.01238082 -0.1465538 0.026704438 0.2814556 0.011757287 0.054331448 0.0011826479
0.074074835 -0.113217525 -0.21522516 0.16291492 0.04218048 -0.032492682 0.05633619 0.08535987
-0.0957072 -0.20003109 0.11067446 0.09017002 0.1417556 0.15865956 -0.12461012 -0.05341269
-0.03153546 -0.025597408 -0.32682326 0.14158598 -0.12448021 -0.12167476 0.025558041 0.17500845
0.10160651 -0.06523862 0.16140698 0.21152252 -0.23571569 -0.016272884 -0.13458191 -0.0747494
0.17237428 0.11989195 -0.11402754 -0.082114816 -0.16271864 0.062761694 0.16092873 -0.15417668
-0.2527457 -0.22080548 0.2019844 0.012619 -0.11141841 -0.09500857 0.13184264 0.07362819
-0.038435683 0.18854317 -0.08619846 0.10211621 0.102254346 -0.013222271 0.05996904 -0.0073068794
0.075761415 0.05618275 -0.13050717 0.10279721 0.016196102 0.14611684 0.2720966 -0.026380384
0.16843523 -0.16929527 0.19027217 -0.013956694 -0.07866918 -0.08937022 0.013236988 0.108028196
0.104473576 0.1007979 0.44369292 0.012530495 0.14121301 -0.020486154 0.0296452 -0.09820246
-0.079528324 -0.23725386 0.06393263 0.018371884 -0.082932726 -0.07386841 -0.12987942 -0.045644294
-0.035108704 0.02077289 -0.119970016 -0.04531689 -0.14492382 0.06464728 -0.08643788 -0.06406099
0.03524996 -0.09520021 -0.21891195 0.012723463 -0.008790244 -0.0014033271 -0.015625995 0.09793901
0.15597144 -0.03288334 -0.13119146 0.046465192 -0.18730077 -0.10613383 0.19521117 0.19401096
0.06344785 -0.0050177695 0.094780035 0.049869347 0.1191696 -0.3446161 0.122772485 -0.023565993
-0.20292245 -0.12981032 0.0027653747 0.1816579 -0.030278377 -0.0500117 -0.008727399 0.12778844
0.21457838 -0.04631182 -0.048615944 0.20431566 -0.03887477 0.02245365 0.27170548 0.06187754
-0.022284595 0.0218296 0.055539694 0.07590607 -0.065071926 0.21270017 0.050038785 -0.03423215
0.05164211 0.09356796 0.10705635 -0.3267293 -0.23042132 0.14387947 0.19202839 -0.04444928
0.14179167 0.095629826 -0.005364961 -0.04644892 -0.040948562 0.16115141 -0.043639895 -0.049588077
0.054124177 -0.19450465 -0.2271334 -0.13792512 -0.12635705 -0.22953033 0.04882628 0.13813154
-0.07339571 -0.10065013 -0.048615903 -0.13303894 0.06633355 0.10460692 -0.18550734 0.08273542
0.042854097 -0.035753906 -0.14547001 0.053780325 -0.03887413 -0.009693233 0.13220215 -0.13563631
-0.0138497 0.20328018 -0.09615535 -0.06197917 0.061810512 -0.29270488 -0.021120016 -0.040931534
0.048775144 0.085494466 0.14285864 -0.0094098 0.13846663 -0.24118114 0.027752183 0.14086387
-0.019191517 -0.03715554 0.01741775 0.08626396 0.20151253 -0.024094658 0.19653012 -0.050006963

sequential_10/lstm_28/while/lstm_cell_32/MatMul f4 [64, 4]
00000000: a7d8 aabd f6d6 ac3d 500d 69be f8ed 183e
00000010: 28fd 383e 774a 813d 7b52 e23e 5817 21be
00000020: a39a bcbd 988b 8a3d 975e 8e3e c017 c1bb
00000030: bcd4 353e 62c1 3b3e d375 8fbc 8030 aa3c
00000040: cb54 593e 7bb0 babd c4dd 803e 74ce 6ebd
00000050: 1220 d13d 4fe2 ce3e 85b4 b93e a8d7 95be
00000060: a0d7 bd3b ae9c 033f 7b44 153d 6ca7 af3d
00000070: 4f23 f13d be55 613e d832 763e 60fa c1bc
00000080: bea8 b8bd e812 713e 6aa8 8c3e 661a 053e
00000090: d4ad 7e3e 6c5f 8e3e b94c 30be d056 6c3e
000000a0: b31b 3f3e 7942 a33e 4736 b93e 5491 1ebe
000000b0: f96d 803d f269 de3e e2e8 243e 7aae 4d3e
000000c0: 301b 953e f2d8 193e 0a3c f63e d4b4 033e
000000d0: 51a1 81be 9232 41be 5552 8d3e 0125 5cbe
000000e0: 0ced 6bbe c650 063e b063 c0bd 08f4 b5bd
000000f0: 3441 0e3e 0050 49bc f453 483e 5026 d83c
00000100: 008c d2ba 4fe4 8dbe 70d3 ab3d 80e3 42be
00000110: c280 7abe ca53 f6bd fa54 123e 88f0 2cbd
00000120: 942a bbbd f082 053e 4203 4a3e 677e 26be
00000130: a827 2c3d 6ecd 95be a857 0fbd 11d7 27be
00000140: 5e8f 11be a4d3 5c3e 0e76 38be 1887 28bd
00000150: 5c31 10be dc9a 71bd b011 703e 7836 63be
00000160: 18f5 78be b215 203e df8f 6abe 6017 26bd
00000170: b497 51bd d8fa 893e e005 97bd 30ae fa3d
00000180: f4d4 84be c835 fdbd b4ae 8f3e e251 d5bd
00000190: 7acd cfbd 2ce7 c03d 6009 22bc a2bd 01be
000001a0: 4871 393e 88ce f53d ac85 3c3e 28bd 983d
000001b0: feda 1e3e c82f 7a3d 6901 43be ac76 6d3e
000001c0: 047f 50be 88d8 a43d 0070 af39 f4fb 933d
000001d0: 86b6 d1bd 78dd 92be 80ed 113b a465 5e3e
000001e0: ae89 283e 3bde 27be a383 7fbe b43a f93d
000001f0: ea23 d5bd 4824 3abd 0667 92be 40b7 363d
00000200: 6182 1ebe 6358 e8bc 1033 333e 7245 8e3e
00000210: 4eb8 943e 2d1b 3e3e 8db7 043e c8c6 583d
00000220: 2f76 d8bd cb8b 9b3e 2de5 2a3d 14a3 de3d
00000230: 42c3 8c3e 5bcb c43e a965 673e 38c2 6e3d
00000240: e09e 303e 47b5 f03c 6ed9 a2bb a869 403d
00000250: 0a23 093e e9b8 753e fadf 0a3e 5890 ddbd
00000260: 638f b5bc 99b0 b83d 816a 443e d405 af3d
00000270: 5cf7 e63d 4ec2 f83e 5911 bc3e a813 5fbe
00000280: 8040 65bc a0f9 24be 724f 97be a647 113e
00000290: dcea c43d 46e4 8abd 7240 27be 20ab 0c3d
000002a0: 2421 b33e 2e12 053f 440d bb3e 70b4 48be
000002b0: b289 d2bd 6bb5 e83e a56c 7f3e 0647 6ebe
000002c0: 2c1f ad3e 461a b43e 2252 113e c55f 1bbe
000002d0: a5f4 12bd c129 d5bc 7bdf 043e e0bd 383c
000002e0: 965a bbbd 41cd de3b 3881 f5bd fc3b 72be
000002f0: a9e7 3cbe f0b8 93be 23fb 723d a07b ce3d
00000300: 2310 843c 9417 5a3d 22a6 2bbe 00b9 463d
00000310: b914 913e 8588 a03e ce8d c83e e01b 1abd
00000320: 0b5f 4f3e b344 063e 5bb2 743e a887 b63d
00000330: ce1e 4b3e 91ae bf3e 93cf a33e 286d 83be
00000340: ee68 61be 881e 5ebe 9bff afbd e830 163d
00000350: cdf3 c43d 2a7c 80bc 1b9b 413d 89e1 61be
00000360: abc0 dbbc a580 eebc 8b58 de3e e039 b33c
00000370: 06f3 e93c a091 ce3d 5b9a a3bc 00be 7cbe
00000380: dce5 7cbe d6a9 03be f2ac 073e 12b5 073e
00000390: 6c3e 55bd 80d1 0bbc e0b8 4e3c 94b1 58be
000003a0: db1a e83e e46d 073f 97b7 cf3e f031 ce3c
000003b0: b70a 1c3e 9ddb 5d3e 6859 973e c0fe 8d3e
000003c0: ee23 c4bc acbf 053d 5829 be3e bdbb 91be
000003d0: 8bbd 203e 9b64 60be 0ef2 8dbd 5844 8b3e
000003e0: 4645 87be 040b 5c3e 3cb9 fbbd 7202 c5bd
000003f0: a439 cebd c8f6 3fbd c6d1 323e 50c5 f73d
-0.083421044 0.08439438 -0.22758985 0.14934528 0.18065321 0.06313031 0.44203553 -0.15731561
-0.09209182 0.06764907 0.2780654 -0.005892724 0.17756933 0.18335488 -0.017512238 0.02077508
0.21223752 -0.09115692 0.25169194 -0.058302358 0.10211195 0.40407035 0.36270538 -0.29266095
0.005793527 0.5141095 0.03644226 0.08576855 0.11774313 0.22005364 0.24042833 -0.023678958
-0.0901656 0.23542368 0.2747224 0.12998351 0.24870998 0.27807176 -0.17216767 0.23079991
0.1866291 0.31886652 0.36174223 -0.15485126 0.062709756 0.43440205 0.16104463 0.20086089
0.29122305 0.15024164 0.4809268 0.12861949 -0.25318387 -0.18866947 0.27601877 -0.21498491
-0.23039645 0.1311675 -0.09394014 -0.08884436 0.1389206 -0.01228714 0.19563276 0.026385456
-0.0016063452 -0.27713248 0.08389938 -0.19032097 -0.2446318 -0.120277 0.14290228 -0.042221576
-0.091389805 0.1303823 0.19727805 -0.16259156 0.042030007 -0.29258293 -0.034995705 -0.16390635
-0.14214846 0.2156511 -0.18013784 -0.04114446 -0.14081329 -0.058985576 0.23444247 -0.22188747
-0.24312246 0.15633276 -0.22906445 -0.040549636 -0.051170066 0.2694919 -0.073741674 0.12240255
-0.2594372 -0.123637736 0.28062975 -0.104160085 -0.101466134 0.094190925 -0.0098899305 -0.12669995
0.1810962 0.12002283 0.18410367 0.07457954 0.15513226 0.061080724 -0.19043507 0.23189801
-0.20360953 0.080491126 0.00033462048 0.072257906 -0.10239892 -0.28684592 0.0022266805 0.2171846
0.1645877 -0.16393368 -0.24952559 0.121694 -0.10407241 -0.045444757 -0.28594226 0.044608355
-0.15479423 -0.028362459 0.17499948 0.27787358 0.29046863 0.18565054 0.12960644 0.052923948
-0.10569417 0.3038009 0.041722465 0.108709484 0.2749272 0.38436398 0.22597374 0.05829069
0.17248106 0.029383315 -0.0049697673 0.04697576 0.13392273 0.23996319 0.13562003 -0.10818547
-0.022163099 0.09018058 0.19181253 0.085460335 0.11277649 0.48585743 0.36731985 -0.21784842
-0.013992429 -0.1611085 -0.295528 0.14187488 0.09615108 -0.06781821 -0.16333178 0.034342885
0.34986222 0.51980865 0.36533558 -0.19600081 -0.102801695 0.4545091 0.24943788 -0.23269281
0.33812845 0.35176295 0.14191487 -0.15173252 -0.035877842 -0.026020886 0.12975876 0.0112757385
-0.09148137 0.0067993705 -0.11987537 -0.23655695 -0.18447746 -0.28852034 0.059321534 0.10082173
0.016120976 0.053245142 -0.16762593 0.048516273 0.28336123 0.31354156 0.39170688 -0.03762424
0.202511 0.13112144 0.23896162 0.08912593 0.1983597 0.3743787 0.31994304 -0.25669217
-0.22012684 -0.21691334 -0.08593675 0.036667734 0.09616814 -0.015684206 0.04726706 -0.22058691
-0.02682527 -0.029114077 0.43426928 0.021878183 0.028558265 0.100863695 -0.019971063 -0.24681854
-0.2469706 -0.12857756 0.13249567 0.13252667 -0.052061483 -0.008533835 0.01261732 -0.2116149
0.4533299 0.52902055 0.40569755 0.025170296 0.15238462 0.21665807 0.295604 0.2773342
-0.023942914 0.032653496 0.37140918 -0.28463545 0.15697305 -0.21913378 -0.06930934 0.2720058
-0.2642004 0.21488577 -0.1229119 -0.09619607 -0.10069588 -0.04686621 0.17462835 0.12098181
