lstm992_ae_0801.tflite (tflite, 46340 bytes, 16 tensors)

time_distributed_2/bias f4 [4]
000000 49 31 02 3f 5f 07 05 3f 3c 35 c8 3e c1 45 d3 3e
       0.50856453 0.5196437 0.39103115 0.41264156

lstm_10/lstm_cell_14/bias f4 [16]
000000 00 00 00 00 00 00 00 00 00 00 00 00 00 00 00 00
       0.0 0.0 0.0 0.0
000010 00 00 80 3f 00 00 80 3f 00 00 80 3f 00 00 80 3f
       1.0 1.0 1.0 1.0
000020 00 00 00 00 00 00 00 00 00 00 00 00 00 00 00 00
       0.0 0.0 0.0 0.0
000030 00 00 00 00 00 00 00 00 00 00 00 00 00 00 00 00
       0.0 0.0 0.0 0.0

lstm_11/lstm_cell_15/bias f4 [64]
000000 00 00 00 00 00 00 00 00 00 00 00 00 00 00 00 00
       0.0 0.0 0.0 0.0
000010 00 00 00 00 00 00 00 00 00 00 00 00 00 00 00 00
       0.0 0.0 0.0 0.0
000020 00 00 00 00 00 00 00 00 00 00 00 00 00 00 00 00
       0.0 0.0 0.0 0.0
000030 00 00 00 00 00 00 00 00 00 00 00 00 00 00 00 00
       0.0 0.0 0.0 0.0
000040 00 00 80 3f 00 00 80 3f 00 00 80 3f 00 00 80 3f
       1.0 1.0 1.0 1.0
000050 00 00 80 3f 00 00 80 3f 00 00 80 3f 00 00 80 3f
       1.0 1.0 1.0 1.0
000060 00 00 80 3f 00 00 80 3f 00 00 80 3f 00 00 80 3f
       1.0 1.0 1.0 1.0
000070 00 00 80 3f 00 00 80 3f 00 00 80 3f 00 00 80 3f
       1.0 1.0 1.0 1.0
000080 00 00 00 00 00 00 00 00 00 00 00 00 00 00 00 00
       0.0 0.0 0.0 0.0
000090 00 00 00 00 00 00 00 00 00 00 00 00 00 00 00 00
       0.0 0.0 0.0 0.0
0000a0 00 00 00 00 00 00 00 00 00 00 00 00 00 00 00 00
       0.0 0.0 0.0 0.0
0000b0 00 00 00 00 00 00 00 00 00 00 00 00 00 00 00 00
       0.0 0.0 0.0 0.0
0000c0 00 00 00 00 00 00 00 00 00 00 00 00 00 00 00 00
       0.0 0.0 0.0 0.0
0000d0 00 00 00 00 00 00 00 00 00 00 00 00 00 00 00 00
       0.0 0.0 0.0 0.0
0000e0 00 00 00 00 00 00 00 00 00 00 00 00 00 00 00 00
       0.0 0.0 0.0 0.0
0000f0 00 00 00 00 00 00 00 00 00 00 00 00 00 00 00 00
       0.0 0.0 0.0 0.0

sequential_1/time_distributed_2/dense_2/MatMul f4 [4, 16]
000000 c0 ba b1 bc 54 a3 cb be ea aa db 3e cc 6d 92 bd
       -0.021695495 -0.39773047 0.42903835 -0.07149848
000010 55 6a 8c be 60 62 22 3d b8 71 67 3e 0c 3e 0b 3f
       -0.27424875 0.0396446 0.22601974 0.5439155
000020 0b e2 f7 be 6f e6 f6 be 9c bf 3c be 54 40 8a 3e
       -0.48414645 -0.48222682 -0.18432468 0.27002203
000030 a0 76 9f bc 30 8a b5 3d ee f0 d6 3e 11 41 94 be
       -0.019465744 0.08864248 0.4198069 -0.28955892
000040 d8 fe 71 3e 16 20 9c 3e 48 d4 ea 3e c4 5a 79 3e
       0.23632371 0.3049323 0.45865083 0.2435103
000050 cc 21 e1 3e 8c 2c fd 3e c0 67 db be 5e 4a bf be
       0.43971097 0.4944805 -0.42852592 -0.37361425
000060 b0 4f b9 3e de a0 81 be 00 b0 c4 be 70 95 76 3d
       0.3619361 -0.25318044 -0.38415527 0.06020111
000070 1c 6c b4 be 61 fe 91 be 8a 12 8c 3e bc 8e 25 3e
       -0.3523873 -0.28514388 0.27357894 0.1616773
000080 20 09 ed 3e 0e c2 ad 3e 50 30 ec 3e 6a 6a 93 3e
       0.46296024 0.33937114 0.4613061 0.28792125
000090 dc fd af 3e 6b d5 db be a0 e7 6b 3e 9e 0a c9 be
       0.34373367 -0.42936262 0.23037577 -0.39265913
0000a0 c4 e9 4e 3e 3c 38 46 3e dc dd 34 3e d2 ed 96 3e
       0.20206362 0.19357389 0.17662758 0.29478317
0000b0 56 f1 f8 be 44 1d 0a 3e 20 33 9e 3c 3b ec 04 bf
       -0.48621625 0.13487726 0.019311488 -0.5192296
0000c0 ac fd 94 3e 30 0e 6d be cc 93 0d 3e 00 62 d0 3b
       0.29099786 -0.23149943 0.13825911 0.0063593388
0000d0 5e ac 27 be fe 8f af be 10 a3 cd bd f0 d9 8d bd
       -0.16374347 -0.34289545 -0.10040867 -0.06926334
0000e0 30 e9 ca bd 6c ee df 3e b8 01 eb 3e 90 03 0f bd
       -0.09907758 0.4373659 0.4589975 -0.034915507
0000f0 f0 e3 4c be c0 71 0a bd c0 a6 c2 3c 4a 77 a9 3e
       -0.20008826 -0.033799887 0.023761153 0.33098823

lstm_11/lstm_cell_15/bias1 f4 [64]
000000 00 00 00 00 00 00 00 00 00 00 00 00 00 00 00 00
       0.0 0.0 0.0 0.0
000010 00 00 00 00 00 00 00 00 00 00 00 00 00 00 00 00
       0.0 0.0 0.0 0.0
000020 00 00 00 00 00 00 00 00 00 00 00 00 00 00 00 00
       0.0 0.0 0.0 0.0
000030 00 00 00 00 00 00 00 00 00 00 00 00 00 00 00 00
       0.0 0.0 0.0 0.0
000040 00 00 80 3f 00 00 80 3f 00 00 80 3f 00 00 80 3f
       1.0 1.0 1.0 1.0
000050 00 00 80 3f 00 00 80 3f 00 00 80 3f 00 00 80 3f
       1.0 1.0 1.0 1.0
000060 00 00 80 3f 00 00 80 3f 00 00 80 3f 00 00 80 3f
       1.0 1.0 1.0 1.0
000070 00 00 80 3f 00 00 80 3f 00 00 80 3f 00 00 80 3f
       1.0 1.0 1.0 1.0
000080 00 00 00 00 00 00 00 00 00 00 00 00 00 00 00 00
       0.0 0.0 0.0 0.0
000090 00 00 00 00 00 00 00 00 00 00 00 00 00 00 00 00
       0.0 0.0 0.0 0.0
0000a0 00 00 00 00 00 00 00 00 00 00 00 00 00 00 00 00
       0.0 0.0 0.0 0.0
0000b0 00 00 00 00 00 00 00 00 00 00 00 00 00 00 00 00
       0.0 0.0 0.0 0.0
0000c0 00 00 00 00 00 00 00 00 00 00 00 00 00 00 00 00
       0.0 0.0 0.0 0.0
0000d0 00 00 00 00 00 00 00 00 00 00 00 00 00 00 00 00
       0.0 0.0 0.0 0.0
0000e0 00 00 00 00 00 00 00 00 00 00 00 00 00 00 00 00
       0.0 0.0 0.0 0.0
0000f0 00 00 00 00 00 00 00 00 00 00 00 00 00 00 00 00
       0.0 0.0 0.0 0.0

sequential_1/lstm_8/while/lstm_cell_12/MatMul_1 f4 [64, 16]
000000 80 87 95 bd eb ad 3f bc e2 fc 8f be db d5 ed 3d
       -0.07301235 -0.01169918 -0.28122622 0.11613055
000010 28 37 54 3c e1 8e 41 be b4 77 6f 3d 46 b9 72 be
       0.012952603 -0.1890216 0.058463767 -0.23703489
000020 79 54 6d 3d 26 86 c4 3d 91 bd 15 3d be 62 71 bd
       0.057941888 0.09595899 0.036557738 -0.05893206
000030 a5 81 02 be a7 71 1b bd 8a 99 7b be a0 a3 42 bb
       -0.12744768 -0.037950184 -0.24570289 -0.002969958
000040 29 53 ee bc 7e 5d 81 bd 1b e1 96 be d0 7b 76 bc
       -0.029092388 -0.0631666 -0.29468617 -0.015044168
000050 1f d2 e7 bc fe 73 fd 3d 9f d9 4b be 6d 0b 82 bd
       -0.028298436 0.123756394 -0.19907235 -0.063498355
000060 fd b9 09 3e 5c 7a c3 3c 7a 02 1c 3d 18 57 93 bd
       0.13449855 0.023862056 0.0380883 -0.07194346
000070 40 6d 00 3e c0 1f d1 3d 30 3d 17 be 77 66 a3 3b
       0.12541676 0.10211134 -0.14769435 0.00498658
000080 36 c6 85 be 9d 79 0a 3e e9 2e d2 3d 34 61 60 3e
       -0.26127785 0.13522954 0.10262854 0.2191208
000090 7a 47 62 be ff 58 7c be b2 17 49 be 07 52 27 bd
       -0.22097579 -0.24643324 -0.19637945 -0.04084971
0000a0 d1 82 ba 3d 4f ec 83 3d c0 5c f8 bd 4c d7 be bb
       0.091069825 0.06441557 -0.12127066 -0.005824005
0000b0 8c 49 46 bc 00 19 3f bb 48 32 11 be 30 69 83 bd
       -0.012102496 -0.0029159188 -0.14179337 -0.06416547
0000c0 a0 39 a4 3c 27 50 50 3d 11 c4 f0 3d cf 6e 10 3e
       0.020047009 0.05085769 0.11756147 0.1410477
0000d0 1d 11 5c bd 63 cc 24 3e fb a6 7e 3e 59 72 1c be
       -0.053727258 0.16093592 0.24868385 -0.15277995
0000e0 2d 04 78 bc 23 34 06 3e 7a 17 cf 3d bb b6 90 3d
       -0.015137714 0.13105826 0.101119 0.07066103
0000f0 ab f6 6f 3d 25 0f a0 bd 19 f2 04 3d 30 af c7 3d
       0.05858485 -0.078153886 0.032457445 0.09750211
000100 cf 7e 8f 3e 7b 10 1f be dc 1e 20 3d 63 2e 3d bd
       0.28026435 -0.1553363 0.03909193 -0.046186816
000110 77 a1 a2 3c 08 3b 67 3c 68 29 67 bd 40 87 13 ba
       0.019852383 0.014113195 -0.056435972 -0.0005627759
000120 ce 16 42 3d 9d 74 f2 3d 34 1d 94 3d bc 23 15 be
       0.04738503 0.118386485 0.072321326 -0.14564413
000130 9a 1a d5 bc 09 3a 1f be 28 20 0a be 60 76 fa bc
       -0.026013661 -0.15549482 -0.13488829 -0.030574024
000140 b4 2d a7 3d 9e 02 78 3d d8 58 8c bd 36 95 3f bd
       0.08163014 0.06054937 -0.06852883 -0.046773158
000150 c2 87 8b bc 12 4a a8 3d 99 2b 13 3e 1e 34 c4 bd
       -0.017032508 0.08217253 0.143721 -0.09580253
000160 30 0a d1 bc 68 f8 73 3e 3f d2 06 3e 4a ee b4 bd
       -0.025517553 0.23825228 0.1316614 -0.088345125
000170 15 01 7a be 89 91 c3 3d 7c b3 62 bd 5f 81 14 be
       -0.24414475 0.09549243 -0.05534695 -0.14502476
000180 28 49 ff bd b7 cc eb bd b4 d4 0d 3e a8 ba d5 bd
       -0.12465125 -0.11513656 0.13850671 -0.104359925
000190 c7 ad 77 bd b9 5a a9 3e 2b c7 0b 3d 58 91 da bd
       -0.06046846 0.33077028 0.03412549 -0.10672253
0001a0 54 fc a9 bc 16 ac ac bc 37 ea c1 3d 3a 55 58 bc
       -0.020750202 -0.02107815 0.09468501 -0.013203913
0001b0 d8 aa f4 ba 4c 9d e1 bd b4 e7 86 3d 2a bc ba 3c
       -0.0018666638 -0.1101633 0.065871626 0.022794802
0001c0 0b 5c 03 be a9 3f 25 be 57 73 1b 3d f3 ed 58 bc
       -0.1282808 -0.16137566 0.037951794 -0.013240325
0001d0 17 d0 80 3d 96 12 25 3e 31 be c5 bb f6 55 e3 3d
       0.0628969 0.16120371 -0.0060346355 0.1110038
0001e0 46 07 d2 3b 90 3f c7 3d c8 d1 fc bd df a0 e8 3d
       0.0064095585 0.097289205 -0.123447 0.11358809
0001f0 20 c4 b4 bd 9a 3f 4e be df 81 81 be 70 c4 f0 bd
       -0.088264704 -0.2014145 -0.25294396 -0.117562175
000200 88 a4 9e 3d cf b0 bd bd cb 4b 94 3d 1e 77 4b be
       0.077462256 -0.09262239 0.07241019 -0.19869658
000210 74 30 d5 3d fc db 89 bd 62 3e cb bd 95 2b 9e be
       0.10409632 -0.06731412 -0.09924008 -0.30892625
000220 30 c6 40 bd 9e 8d 9b 3d d0 9c b7 bd 45 bf b1 bc
       -0.047064006 0.07595371 -0.089654565 -0.02169765
000230 6e 63 18 3e e2 b5 02 3e f4 c1 0a bc 6e 67 63 bd
       0.1488168 0.12764695 -0.008469094 -0.05551856
000240 dd fb 80 3d 5f 52 1a be 5c 55 11 3e a6 a5 5f 3e
       0.06298039 -0.15070485 0.14192718 0.21840534
000250 15 5f 6b 3d 16 a7 84 bd ce 7b 1b 3e 4c 79 e1 bd
       0.057463724 -0.064771816 0.15183946 -0.11009464
000260 ac 16 3a 3d b4 a1 80 3c 6d 82 7e 3e 51 af 81 3e
       0.045431778 0.015702106 0.24854441 0.25329068
000270 05 fb dc bc 3a 43 f8 bb 93 88 43 3e 12 b2 7c bc
       -0.026975164 -0.0075763734 0.19095068 -0.015423315
000280 35 2a 14 3e ff 4a 67 be 5a 74 11 be d0 98 51 be
       0.14469226 -0.22587202 -0.14204541 -0.2046845
000290 50 e9 69 be 0d d7 36 be ff 97 7d 3e 38 d7 8b 3d
       -0.22842908 -0.17855473 0.24765013 0.06828159
0002a0 23 a3 cb 3d 4b a5 33 bd 09 78 47 be 54 f2 cc 3d
       0.09943225 -0.043858808 -0.19479384 0.10007158
0002b0 b1 70 65 bd 1a 2c f7 3d d1 dc 2a 3e d9 f5 89 bc
       -0.056015674 0.120689586 0.16685797 -0.016840862
0002c0 99 12 5c 3d 4b e4 b1 3c 34 53 f3 bc a5 3c b0 3e
       0.053728674 0.021715304 -0.02970276 0.34421268
0002d0 8f cc 9a be 8b fa 34 be 65 5c 74 3d 45 68 09 be
       -0.3023419 -0.176737 0.059658427 -0.13418682
0002e0 0c a8 0a 3d c0 23 89 bc 9d 48 8c 3d 4e d3 8a 3d
       0.03385167 -0.01674068 0.068497874 0.067785844
0002f0 ef 37 9b 3d 50 04 7a be f0 e2 aa bb 41 41 24 be
       0.07579028 -0.24415708 -0.0052150413 -0.16040517
000300 ba f1 43 3d 56 ad b6 bd b0 f7 89 3d 3b 86 84 3d
       0.04783795 -0.0891978 0.06736696 0.06470915
000310 94 fd f6 3c 80 25 54 bc 48 f4 57 bd 31 15 25 3d
       0.030150212 -0.012948394 -0.0527232 0.040303413
000320 f7 c7 31 3e 02 f2 b5 bd 94 3f c3 3d f4 ee 06 3e
       0.17361437 -0.0888405 0.09533611 0.13177091
000330 c2 8c 22 bb b7 25 8d bc 9c d6 95 bb 5d f7 1e be
       -0.0024803136 -0.017229898 -0.0045727026 -0.15524049
000340 5c 98 97 3d eb 4c ab bc f2 44 3b 3e e2 61 a6 3c
       0.07402107 -0.0209107 0.1828802 0.020310346
000350 5c f1 21 be 81 b3 33 3e 6c cc df bd 26 88 b2 bc
       -0.15814728 0.17548944 -0.10927662 -0.021793436
000360 64 35 1a 3e 7c 60 3e 3d 8a ab c1 bc ca 88 7c be
       0.1505943 0.046478733 -0.023641367 -0.24661556
000370 bd db 15 3e b5 c2 28 3b 47 7f 9f 3e b3 ad 0f 3e
       0.14634605 0.002575082 0.31151792 0.14031105
000380 7a c1 26 3d 69 3f aa 3e b7 0c 30 bc 0e 47 11 be
       0.040711857 0.33251503 -0.010745219 -0.14187261
000390 fc 5c 68 39 88 0d a9 bc f1 cc a7 bd 87 a4 33 3e
       0.00022159884 -0.020636335 -0.08193386 0.17543231
0003a0 a5 4e 97 bd 26 d8 66 3e 52 96 26 bd bb 18 e3 bd
       -0.07388047 0.22543392 -0.0406707 -0.11088701
0003b0 72 9f 52 3e 93 b0 65 bc 42 a4 83 bd 21 f4 8e bc
       0.20568636 -0.014019149 -0.06427814 -0.017450394
0003c0 e9 d7 d7 3d c2 86 07 3e 54 20 18 3e 2b 43 a3 bd
       0.105392285 0.13235 0.14856082 -0.07971796
0003d0 55 27 ff bc 21 c2 84 3e ad 33 cb bd 62 78 a4 bc
       -0.031146685 0.2592936 -0.09921966 -0.020076934
0003e0 52 f6 26 3e 9a 95 9e 3d 22 4a 93 be 00 4e c8 3c
       0.16304901 0.07743378 -0.28767496 0.024451256
0003f0 66 3c d7 3d 37 44 83 3d 06 f8 41 bc e8 e3 4f bd
       0.10509567 0.06409495 -0.011838919 -0.050754458

sequential_1/lstm_8/while/lstm_cell_12/MatMul f4 [64, 4]
000000 18 96 49 bd 84 df 87 3d d0 be 29 3e 84 82 5b 3e
       -0.049215406 0.06634429 0.16576695 0.21436507
000010 a8 8c 43 3d 8c 6a ae 3d ae d3 43 be 00 48 94 3d
       0.047741562 0.08516416 -0.19123718 0.072402954
000020 20 40 ee 3c 18 dd 74 3d ac c8 ee 3d 6c d1 77 3e
       0.029083312 0.059781164 0.11659369 0.24200982
000030 dc be 91 3e ca 8f b8 bd 2c 5e 8b 3d 10 ee 69 3d
       0.28465927 -0.090118006 0.06805071 0.0571118
000040 0d 2f 41 be a2 0b b5 bd 7a 4b 96 3e d8 02 a4 3d
       -0.18865605 -0.088401094 0.2935446 0.08008355
000050 3c d8 27 be e8 20 e9 3d ac 27 a2 3d d0 7b 87 3e
       -0.1639108 0.113832295 0.07917723 0.2646165
000060 c6 54 88 3e 5c fd c9 3d b8 97 85 be fc a0 97 be
       0.26627177 0.098627776 -0.26092315 -0.2961501
000070 1c fd 75 3e cc b3 ff 3d e0 c7 7a bc e2 0b a3 bd
       0.24022335 0.124854654 -0.015306443 -0.07961251
000080 a5 59 93 be 20 ea 95 bc c0 bc ee bb 80 cb 78 3d
       -0.2877933 -0.018300116 -0.0072856843 0.060740948
000090 de 21 37 be 74 85 a8 3d 54 b2 db 3d 0b d0 48 be
       -0.17884013 0.08228579 0.10727373 -0.19610612
0000a0 64 2b f1 3d 6e f0 2a 3e ae 0e 85 be dc 4f b1 bd
       0.11775854 0.16693279 -0.25987762 -0.0865781
0000b0 90 43 8c 3e d8 83 65 3e 10 06 cb bd 7a 8b bf bd
       0.27395296 0.22413576 -0.09913266 -0.09352775
0000c0 c0 9b bd 3d fc 8e 69 be 50 4d 00 3d 46 e0 07 be
       0.092582226 -0.2280845 0.03132373 -0.13269147
0000d0 78 9a 17 bd 44 db d8 3d 72 0f 18 3e e0 1f 44 bc
       -0.037012547 0.105886966 0.14849642 -0.01197049
0000e0 0a 2a 21 3e 2c 45 0f 3e b0 0f 10 3d 44 f9 56 3e
       0.15738693 0.1399123 0.03517121 0.20993525
0000f0 10 0b 39 3e 1c 65 22 be 36 bd 8b 3e 70 3f 91 3c
       0.18070626 -0.15858883 0.27292794 0.017730445
000100 28 02 10 bd 04 b4 ff bd e8 a3 92 be 70 e8 7c bd
       -0.035158306 -0.12485507 -0.28640676 -0.061745107
000110 fc a1 d8 bd 84 a5 1c be 27 e2 75 be 0e d2 45 3e
       -0.10577771 -0.15297514 -0.24012052 0.19318411
000120 20 63 8d 3c a0 d1 78 3e 70 57 04 3e 54 6e b0 3d
       0.01725918 0.24298716 0.1292398 0.086147934
000130 60 ae 6d 3e 1c 9c ab 3d 88 9f 0d 3d 8a 7e 4d be
       0.2321105 0.08379385 0.03457597 -0.20067802
000140 9a c2 09 be 2e f7 84 3e 38 c3 28 3e 26 3a 48 be
       -0.13453141 0.25969833 0.1648072 -0.19553432
000150 04 7a 56 be 00 09 a7 bc 89 c7 8a be b8 bd 47 bd
       -0.20944983 -0.020390034 -0.27105358 -0.048764914
000160 48 13 b7 3d 4c 9a b3 bd 42 38 8b 3e 5c fc 60 3e
       0.089392245 -0.08769664 0.2719136 0.21971267
000170 e8 b5 8d be 24 cc 43 be ca 5b 3c 3e e4 43 1a 3e
       -0.27677846 -0.19120842 0.1839439 0.1506496
000180 64 37 b6 3d 03 07 0b be bf e5 90 be 58 8d 93 3d
       0.08897284 -0.13576894 -0.28300282 0.072046936
000190 54 c0 f6 3d dc 8e 54 3e a8 51 88 3d dc 22 6a be
       0.120484024 0.20757622 0.066562 -0.2286486
0001a0 2e 80 8d be 42 1f 8d 3e 40 06 52 bc 79 5d 34 be
       -0.27636856 0.2756291 -0.012818873 -0.17613782
0001b0 f4 45 c5 3d 80 b7 14 bb 1a 96 13 3e 2f 4b 83 be
       0.09632483 -0.0022692382 0.14412728 -0.25643298
0001c0 6a ff 80 be c0 e5 27 3e c4 39 74 3e 84 de f9 3d
       -0.25194865 0.16396236 0.23850161 0.122006446
0001d0 ae 04 1e be 0c 64 90 3e 84 95 64 3e 8a 86 6e be
       -0.15431473 0.2820133 0.2232266 -0.2329351
0001e0 f6 20 b6 bd 00 b3 ff bb 78 91 00 3d ad a4 57 be
       -0.088930055 -0.007803321 0.03138873 -0.21058913
0001f0 b2 c9 c8 bd c0 ac 3e be fe 27 1c 3e 84 be 2f 3e
       -0.09804095 -0.18620586 0.15249631 0.1716252
000200 b0 ff c6 bc b1 b0 85 be e0 9d 3d bd e6 86 4d be
       -0.024291843 -0.26111367 -0.04629314 -0.20070991
000210 13 67 84 be c0 98 cb 3c 30 8b ce 3c ac 0e 95 3d
       -0.2585989 0.02485311 0.025212854 0.07278189
000220 84 81 fc 3d 40 a3 d9 3c 7e 97 4e 3e fc 9c 1f 3e
       0.12329391 0.026567101 0.20174977 0.15587229
000230 c8 6c 2c bd 80 c9 31 3d 98 fc c0 3d 10 f7 3d 3d
       -0.04209593 0.043405056 0.094231784 0.046378195
000240 08 20 07 3e 80 bc 38 3d a4 70 c7 bd 9a dd 66 be
       0.13195813 0.045101643 -0.09738281 -0.22545472
000250 00 7a 12 3e 20 de 99 3c f0 45 32 3e 4a ad 89 be
       0.14304352 0.018782675 0.17409492 -0.26890022
000260 06 80 8a bd e6 49 8f 3e 73 96 24 be 03 62 3c be
       -0.067627 0.27986068 -0.16073017 -0.18396764
000270 1a be fe bd 6e bb 25 be ce 30 81 3e 57 90 92 be
       -0.12438603 -0.1618478 0.25232548 -0.28625748
000280 60 86 3b 3d c0 87 a0 bc b0 11 d3 3d 10 23 92 3e
       0.045782447 -0.01959598 0.10306108 0.28542376
000290 60 7e 70 3d 9f 78 83 be a0 08 c4 bd 60 08 6a 3e
       0.05871427 -0.25677964 -0.095719576 0.22854757
0002a0 ee c5 61 be 14 44 38 3e b6 ba dd bd 93 f2 18 be
       -0.2204816 0.1799472 -0.10826628 -0.14936285
0002b0 1d 07 95 be c0 35 4d bc 28 3e 39 3e 98 da 20 3d
       -0.2910699 -0.012525022 0.18090117 0.039270967
0002c0 98 c6 62 be da 51 09 3e 26 58 95 3e 04 e7 9b bd
       -0.2214607 0.1341013 0.29168814 -0.07612422
0002d0 f0 e5 d1 bd 00 ec a2 3b 86 89 90 be 44 56 9a 3d
       -0.10248935 0.004971981 -0.28229922 0.07535985
0002e0 e8 aa 5b 3e a2 b5 96 3e 08 cd 2f 3d ff 8e 12 be
       0.21451914 0.2943545 0.042920142 -0.14312361
0002f0 a0 44 e9 3d 5c 4e 1a 3e 90 c1 c8 3c 80 09 a8 3c
       0.11390042 0.15068954 0.02450636 0.020512342
000300 1a 1a 8c be 52 1d e5 bd e0 d1 cd bc c6 b5 43 3e
       -0.27363664 -0.11187233 -0.02512449 0.1911231
000310 d0 79 ec bd d8 52 57 3e d5 0e 87 be 50 95 77 3d
       -0.115466714 0.21027696 -0.26378503 0.06044513
000320 78 03 d8 bd e2 84 9b bd 92 33 90 3e c6 e1 86 be
       -0.105475366 -0.07593705 0.28164345 -0.26344126
000330 72 46 40 be fe 0f 45 3e 2b ad 5a be 72 7f 80 be
       -0.18776873 0.19244382 -0.21355121 -0.25097233
000340 48 71 69 be dc 5a b2 bd 31 64 64 be 70 c9 d7 3d
       -0.2279712 -0.08708736 -0.22303845 0.10536468
000350 cc 95 3f be 44 d3 51 bd 38 5a 0c 3e 90 9f fa 3d
       -0.18709487 -0.05122687 0.1370629 0.122374654
000360 2a 83 94 3e 14 a3 88 bd f8 ad 9f 3d 80 be f9 3c
       0.2900632 -0.0667173 0.07796854 0.030486345
000370 00 ad 98 bb a0 9e 0a bd 78 6b c9 bd 89 e1 3c be
       -0.004659295 -0.033842683 -0.09834951 -0.1844541
000380 9f 64 97 be c4 14 64 be 83 73 1e be e5 40 0c be
       -0.29568955 -0.22273546 -0.15473752 -0.1369663
000390 dc 92 b2 3d 88 39 0b 3d 74 cf bc bd 84 03 6c 3e
       0.087194175 0.033990413 -0.09219256 0.23048216
0003a0 de df 89 be 28 7f e7 bd 80 82 89 3d 09 d5 72 be
       -0.2692861 -0.1130355 0.06714344 -0.23714079
0003b0 c2 03 75 be 73 78 24 be 60 5c aa bd ec 8a 2e 3e
       -0.23927215 -0.16061573 -0.083184004 0.17045182
0003c0 4c dc 57 3e de 58 04 3e 66 e6 03 3e 06 38 ef bd
       0.2108013 0.12924525 0.12880859 -0.116806075
0003d0 ef a8 70 be 98 be 77 bd 80 7e 16 3b 45 19 88 be
       -0.23501943 -0.0604845 0.0022963583 -0.2658178
0003e0 d4 b2 f0 bd 00 6e a3 3b e0 7b 4d 3c 32 dc 34 3e
       -0.11752859 0.0049874783 0.012541741 0.17662123
0003f0 36 91 20 be 8e 04 51 be 68 e9 3c be e0 77 78 be
       -0.15680394 -0.20411894 -0.18448412 -0.24264479

lstm_10/lstm_cell_14/bias1 f4 [16]
000000 00 00 00 00 00 00 00 00 00 00 00 00 00 00 00 00
       0.0 0.0 0.0 0.0
000010 00 00 80 3f 00 00 80 3f 00 00 80 3f 00 00 80 3f
       1.0 1.0 1.0 1.0
000020 00 00 00 00 00 00 00 00 00 00 00 00 00 00 00 00
       0.0 0.0 0.0 0.0
000030 00 00 00 00 00 00 00 00 00 00 00 00 00 00 00 00
       0.0 0.0 0.0 0.0

sequential_1/lstm_9/while/lstm_cell_13/MatMul_1 f4 [16, 4]
000000 d0 03 a5 3e 1b 96 5b be cc 04 0b 3e e3 c8 35 3e
       0.3222947 -0.2144398 0.13576049 0.17752413
000010 09 07 eb be 22 fc 74 bd a7 94 71 3d 7f a5 35 be
       -0.45903805 -0.059810765 0.058979657 -0.17738913
000020 a4 b4 d9 bd 52 b3 29 be 8b aa 67 be 0b 20 b6 bd
       -0.106301576 -0.16572312 -0.2262365 -0.088928305
000030 c9 f8 ac 3e d2 6e 55 3e df 11 9c bd b4 18 94 3d
       0.33783558 0.20843056 -0.07620596 0.07231274
000040 d5 b3 a4 3e ae 6e 2f 3d 6a ef 9d bd ac 62 a5 3d
       0.3216845 0.04283016 -0.0771168 0.08075461
000050 0b a4 9f 3e 84 09 21 bd c8 41 c8 be a0 b1 88 bc
       0.31179842 -0.039315715 -0.39112687 -0.01668626
000060 dd ca 85 bc 9a ba e7 bd e6 0a dc bb cf 95 4a 3c
       -0.016332084 -0.11314888 -0.0067151664 0.012364819
000070 9b 66 8c bd ba fc 0f 3f 6e 80 17 3e 3f 96 a7 be
       -0.06855508 0.56245005 0.14795086 -0.32731816
000080 ed cb 68 3e 18 89 de 3b e4 92 10 3e 75 7e 2a 3e
       0.22734042 0.006791245 0.14118534 0.16649802
000090 30 94 86 bd bd c8 e4 bd d2 b8 c0 3e c8 22 22 3f
       -0.06571233 -0.111711 0.37641007 0.6333432
0000a0 2a 21 0d 3d 45 33 a4 3e 53 94 48 bd 18 16 29 bb
       0.034455456 0.32070366 -0.048969578 -0.0025800522
0000b0 d3 93 7c bd a3 4c 97 be 16 ba 5b bd c9 70 4f be
       -0.061664414 -0.29550657 -0.053644262 -0.20257868
0000c0 ed 80 cd 3e 93 a0 9f be b8 14 31 be d9 0c aa be
       0.40137425 -0.31177196 -0.1729306 -0.33212927
0000d0 90 08 03 3e 92 18 69 be 54 87 e5 3e 8e e9 e9 bd
       0.12796235 -0.22763279 0.4482981 -0.114215
0000e0 cb 7a 98 3e d8 82 ee 3d 64 1e 11 3f 82 77 c9 be
       0.29781184 0.1164605 0.56687 -0.3934899
0000f0 06 bc 28 be 99 41 da be 24 d7 14 3e 7d 61 7e be
       -0.16477975 -0.42628172 0.14535195 -0.24841876

sequential_1/lstm_9/while/lstm_cell_13/MatMul f4 [16, 16]
000000 ca 11 5c 3e 99 b7 bb 3e 89 b3 44 be 05 f9 d7 3e
       0.21491161 0.3666351 -0.19209112 0.42182174
000010 ec eb 04 be 14 f6 f0 3d 10 f7 68 3d b2 4c 5d 3e
       -0.12980622 0.11765686 0.056876242 0.21611288
000020 6b 9c 9f be 21 87 a1 3e 40 69 51 3d 62 4c 81 be
       -0.31174025 0.31548408 0.051125765 -0.25253588
000030 41 31 96 be 67 0a bf 3e 8d 37 d0 3e 24 4d f6 3d
       -0.29334453 0.37312624 0.40667382 0.12026432
000040 0c 85 90 3d cf 7c cb be 9a 36 59 3e 57 30 b9 3e
       0.07056627 -0.3974366 0.21212235 0.36169693
000050 74 e3 a8 be d0 74 ca bd 65 d5 94 3e 90 5c 95 be
       -0.32986033 -0.098855615 0.29069057 -0.29172182
000060 90 b0 74 be be ce 3c 3e 2d 34 98 3e 87 39 a4 3e
       -0.23895478 0.18438241 0.29727307 0.3207514
000070 3d 03 dd be 7e cb 9c be bd b3 81 be 1f b2 92 3e
       -0.43166533 -0.30624002 -0.25332442 0.2865152
000080 b8 6f 44 bd 55 0d c8 3e d1 37 bf 3e f4 f5 f8 3d
       -0.047958106 0.39072672 0.37347272 0.12156287
000090 dc ac 05 be 79 de a0 3e f3 4c 7d be 11 f2 5c be
       -0.13054222 0.31419733 -0.24736385 -0.21576716
0000a0 3c 41 bf 3d f8 00 7d bd 88 ff fb bd 68 fd c7 be
       0.09338614 -0.061768502 -0.12304598 -0.3906052
0000b0 ec e2 27 be 00 7b de bc 75 05 a7 3e 5f 36 d0 3e
       -0.16395158 -0.02715826 0.3262135 0.40666482
0000c0 cc 9b 89 3d a0 72 26 bd fe 95 40 3e 8d c1 a5 3e
       0.06719169 -0.04063666 0.18807217 0.3237423
0000d0 c2 64 8f be 81 ce d7 3e d0 4f 06 3d 50 6f 80 3c
       -0.2800656 0.42149737 0.03279096 0.015678078
0000e0 70 9f b7 be f0 c3 90 bd bb 57 90 3e 99 6d 80 be
       -0.3586383 -0.07068622 0.28191933 -0.25083616
0000f0 00 b0 bc 39 62 60 5c 3e ba 87 26 3e ee 97 26 3e
       0.00035989285 0.21521142 0.16262713 0.16268894
000100 c6 d5 33 3e 29 07 84 3e 9a 1a d7 be 39 60 94 3e
       0.17562017 0.25786713 -0.42012483 0.28979662
000110 91 56 87 3e 7a ad 09 be f0 c1 58 3d 82 ae ac be
       0.26433232 -0.13445082 0.05291933 -0.3372689
000120 40 cb 08 bd 30 c6 03 3d bd 8d 93 3e d4 cb 9b bd
       -0.03339696 0.03217143 0.28819075 -0.076072365
000130 20 73 88 bc 9c 0a 16 be c0 d1 9f 3b 54 65 e7 bd
       -0.016656458 -0.14652485 0.004877299 -0.11298624
000140 94 ff 9d be e6 bb 6a 3e b9 5d d0 3e b0 42 87 be
       -0.30859053 0.2292324 0.40696505 -0.26418066
000150 6b 99 b2 be 6a f0 4c be d0 10 1e 3d c2 8e cf be
       -0.34882674 -0.20013586 0.038590252 -0.40538603
000160 fb fe c0 3e 33 f3 bf 3e 5b 3f ae 3e d1 dd b1 3e
       0.37694535 0.37490234 0.3403271 0.34739545
000170 20 75 e6 3c 00 39 39 be 68 3f 70 bd 40 95 15 3d
       0.028132021 -0.1808815 -0.05865422 0.03651929
000180 12 5f 47 be ca a2 9a be f4 1a bf 3d 3c 75 82 3d
       -0.1946986 -0.30202323 0.09331313 0.06370017
000190 fa 2e 0c 3e 3f 9a bd 3e 14 e4 f1 3d 90 5e 42 bd
       0.13689795 0.37031743 0.118110806 -0.047453463
0001a0 f5 c4 c8 be 13 e2 89 3e 5e 00 c3 be 40 77 76 3d
       -0.39212766 0.26930293 -0.38086218 0.06017232
0001b0 32 35 8a be 06 98 43 3e 63 8a b3 3e 88 35 ea bd
       -0.2699371 0.19100961 0.35066518 -0.114359915
0001c0 9a 77 0e 3e 5c 49 dd 3d 81 3a c6 be b8 29 3b bd
       0.13912812 0.10805008 -0.3871651 -0.045694083
0001d0 ec 0e e3 3d e0 a2 82 3c 3c 1f a9 be ab e3 cc be
       0.110868305 0.015946805 -0.33031642 -0.40017447
0001e0 60 78 1f bc 9b 13 69 be 06 ab 36 3e 01 ee a0 3e
       -0.0097332895 -0.22761385 0.17838678 0.31431583
0001f0 54 f2 da be b7 2b aa be 57 43 ac be 1f 3b 45 be
       -0.42763007 -0.33236477 -0.33645126 -0.19260834
000200 10 8d 93 be 02 ba 78 3e c7 85 5d be b2 59 15 be
       -0.2881856 0.24289706 -0.21633063 -0.14584997
000210 c0 a2 c2 3b bf 2f 7a be f9 ec 6a be 7d b3 ac be
       0.0059398115 -0.24432276 -0.2294196 -0.3373069
000220 3c 5c b6 3d 14 f1 1d be 1c a5 dd 3d 90 9c d2 3c
       0.08904311 -0.15423995 0.10822508 0.02570942
000230 2e 37 1d be 33 bb 87 be d4 62 db bd 59 e5 b0 3e
       -0.1535308 -0.2651001 -0.10712209 0.34549978
000240 29 e0 9d 3e 77 da b0 3e e7 10 cb 3e aa 3a 4e 3e
       0.30835083 0.34541675 0.39661333 0.20139566
000250 7c 4a 91 bd 49 14 a6 3e be 2e 39 be 6f e8 b6 3e
       -0.07094285 0.3243735 -0.18084237 0.35724208
000260 63 e2 be 3e 88 7e 3d bd 38 d8 5d bd f5 db c0 3e
       0.37282094 -0.046263248 -0.05416128 0.37667814
000270 46 4f 77 3e 68 78 83 3d 74 ab ac bd 5e e7 13 3e
       0.24151334 0.0641945 -0.084311396 0.14443728
000280 c0 00 67 3d a0 bf ce bd e8 d3 52 bd 41 24 84 3e
       0.0563972 -0.10095143 -0.05147162 0.2580891
000290 46 cf 55 3e 24 8e d6 bd 0d 21 46 be 89 73 80 3e
       0.2087985 -0.1047633 -0.19348545 0.25088146
0002a0 ad 71 d7 3e 97 c8 db 3e 4a 72 30 be 74 a1 d6 3d
       0.42078915 0.42926475 -0.17231098 0.104800135
0002b0 c8 5b 04 be e4 8f a0 bd df b7 be 3e ec ea 97 bd
       -0.12925637 -0.07839945 0.37249658 -0.07417855
0002c0 e6 ee b5 be e2 5a 46 3e 6a 5d 62 be 6b 86 c7 3e
       -0.35533828 0.19370607 -0.22105947 0.3896974
0002d0 61 b2 9c 3e c4 d0 4a be 24 b7 86 bd 9e 38 8f be
       0.30604842 -0.198062 -0.065779 -0.27972883
0002e0 f6 7e 4a 3e 76 31 cb be 93 7d bb 3e 73 7b d2 3e
       0.19774994 -0.39686173 0.36619243 0.4110981
0002f0 5a 81 3b 3e dc da 84 be d8 75 f3 bd c0 c6 eb bc
       0.18311062 -0.25948226 -0.11887711 -0.028781295
000300 2a 93 65 3e 2e a0 88 be aa c5 5b be 2b 5f d7 3e
       0.2241942 -0.26684707 -0.21462122 0.42064795
000310 04 3c b8 bd a3 16 9e 3e 4b cb 9f 3e 62 92 58 3e
       -0.08995822 0.30876645 0.31209788 0.2114959
000320 4c 43 9f 3d ea a3 13 3e 6c e7 33 be d4 97 d6 bd
       0.07776508 0.14417997 -0.17568749 -0.10478178
000330 8e 0c 4a 3e 6e 85 b2 be b2 0b 7e 3e 36 18 13 3e
       0.19731352 -0.34867424 0.24809149 0.14364704
000340 23 c0 81 3e 98 56 84 3d 00 50 aa bb 62 1c 61 3e
       0.253419 0.06461829 -0.005197525 0.21983483
000350 9c 1b 53 be 8c e2 b2 3d b8 e8 c0 bd ec 00 db 3d
       -0.20616001 0.08734617 -0.094193876 0.10693535
000360 e6 ea 11 be 6e 3d 1c 3e 72 02 0b 3e 30 65 48 3d
       -0.14249763 0.15257809 0.13575152 0.048924625
000370 10 07 96 be 07 27 d0 3e bb 98 66 be 80 b1 55 3c
       -0.29302263 0.40654776 -0.225192 0.013042808
000380 f8 de bd bd c8 bb c8 bd 97 17 bc 3e d7 b9 93 be
       -0.092710435 -0.098014414 0.36736748 -0.28852722
000390 d4 44 da bd c1 9f 94 3e aa 7a 5c be ee c3 34 3e
       -0.10657659 0.29028133 -0.21531168 0.17652866
0003a0 30 a7 07 3d 59 65 db 3e 18 cd 64 bd cc 6e 7b be
       0.033118427 0.4285076 -0.055859655 -0.24553984
0003b0 24 51 ae 3d c2 0b 69 be 56 5d 65 3e 7e 4c 62 3e
       0.0851157 -0.22758391 0.22398886 0.22099492
0003c0 a2 39 42 3e 34 17 ad 3d 05 25 86 be e8 37 18 bd
       0.18967298 0.08451691 -0.2620012 -0.03716269
0003d0 42 df 00 3e f8 f8 a7 bd f5 14 98 be 40 64 c1 be
       0.12585166 -0.08201784 -0.2970349 -0.37771797
0003e0 37 d7 d6 be ee a8 ca be c0 6c 0e bd 4a 3e 06 3e
       -0.4196107 -0.39582008 -0.03477168 0.13109699
0003f0 2f b4 96 3e 4c d7 f7 3d 5c 61 c2 be 28 84 72 bd
       0.29434344 0.121016115 -0.37964904 -0.059208065

lstm_10/lstm_cell_14/bias2 f4 [16]
000000 00 00 00 00 00 00 00 00 00 00 00 00 00 00 00 00
       0.0 0.0 0.0 0.0
000010 00 00 80 3f 00 00 80 3f 00 00 80 3f 00 00 80 3f
       1.0 1.0 1.0 1.0
000020 00 00 00 00 00 00 00 00 00 00 00 00 00 00 00 00
       0.0 0.0 0.0 0.0
000030 00 00 00 00 00 00 00 00 00 00 00 00 00 00 00 00
       0.0 0.0 0.0 0.0

sequential_1/lstm_10/while/lstm_cell_14/MatMul_1 f4 [16, 4]
000000 88 d8 8c be d8 6e 6e 3d 77 45 39 be e2 81 81 3e
       -0.2750895 0.058211178 -0.18092905 0.25294405
000010 ed e5 46 bb 24 e3 8c 3d 1b be fb 3e d2 d0 e4 3e
       -0.0030349449 0.06879261 0.49168476 0.44690567
000020 6e 0b 06 3f b3 11 e6 3d 26 b4 6f be f8 98 2c 3e
       0.5236119 0.112338446 -0.23408565 0.16855228
000030 8f f2 9d 3e 31 2d 8e bd 73 73 1f 3f c6 79 2e be
       0.3084912 -0.06942213 0.62285537 -0.1703864
000040 90 0e 5e be 5e 15 7d be 64 84 45 3e cb ee 5b be
       -0.21685243 -0.24715182 0.19288784 -0.21477811
000050 d6 43 b2 3e e4 63 2a 3e a4 a5 89 3d 71 7d 4b bd
       0.3481738 0.16639668 0.067210466 -0.049680177
000060 f1 d5 8b 3d a6 71 bc bd ca 77 36 3d ff 1a c8 be
       0.068279155 -0.09201364 0.044547834 -0.39083096
000070 4d 68 b8 3e d6 72 e0 bc 9e 8c 11 3e a5 45 e9 3e
       0.36017075 -0.027398508 0.14213797 0.45560947
000080 64 1b ae be f3 fe 9b be e4 86 20 3e a1 3c d2 3e
       -0.34005272 -0.30467948 0.15676457 0.4106188
000090 68 c3 5a bd 78 c6 7f 3e cc 4e 58 3c d9 fa 9f bd
       -0.05340901 0.24978054 0.01320238 -0.07811517
0000a0 5b 5b 2b 3d c9 d8 9c 3b 70 80 22 3d 5c 2e 03 be
       0.04183517 0.004786585 0.03967327 -0.12810653
0000b0 90 1f 0e 3e 41 44 a1 3d e1 ab a5 be 19 4d 73 3e
       0.13879228 0.078743465 -0.32357696 0.23759879
0000c0 7c d6 8c 3e 96 d5 d0 be 27 a4 24 be ee e2 a6 bd
       0.2750739 -0.40787953 -0.16078244 -0.08148752
0000d0 08 0f 6a bd 15 92 19 3f a2 ee 4f 3e 95 f0 ef bd
       -0.05714324 0.5998853 0.20305875 -0.11715809
0000e0 90 8b 9d 3d ad d3 ad be 5e a7 04 3e dc 06 ef bc
       0.07692635 -0.33950558 0.1295447 -0.029178075
0000f0 10 55 2b be 73 d2 8a 3e 05 f2 80 3d ca fd 09 3d
       -0.16731668 0.27113685 0.062961616 0.033689298

sequential_1/lstm_10/while/lstm_cell_14/MatMul f4 [16, 4]
000000 88 de e2 3d b4 0d 76 3e d8 13 8c 3e f8 d1 e5 bd
       0.11077601 0.24028665 0.2735889 -0.11221689
000010 5c 4d 00 3f 0e ce d9 3e 40 37 48 bc 38 ac 0f be
       0.5011804 0.4254002 -0.012220204 -0.1403054
000020 a0 ef e7 bc a4 a9 60 be 00 f4 d6 bc 5c b4 08 3f
       -0.028312504 -0.21939713 -0.026239395 0.53400207
000030 f4 cb 0b be ec da 27 3e da 26 39 be f0 e4 96 be
       -0.1365202 0.16392106 -0.18081227 -0.2947154
000040 a0 51 36 3d f8 6c e2 be 90 98 af 3d 01 47 92 be
       0.044511437 -0.44223762 0.08574021 -0.28569797
000050 14 8f 06 3f be fe d6 3e 00 10 42 ba d8 e4 a3 bd
       0.5256207 0.41991228 -0.0007402897 -0.08002633
000060 30 92 7f 3e 90 0b 53 3e 95 2d 05 bf b6 75 9f 3e
       0.2495811 0.2060988 -0.5202268 0.31144494
000070 e0 a5 f0 bc e0 0c ed bc ac ec 0c 3e a0 8c a6 be
       -0.02937597 -0.028936803 0.13762158 -0.32529163
000080 12 7f 97 be 32 de 10 be 98 c4 8b bd d8 ba 08 bf
       -0.29589134 -0.14147261 -0.06824607 -0.534101
000090 0a 41 a0 3e 80 fa 40 bd 00 c6 62 bb 38 c7 eb be
       0.3129962 -0.047113895 -0.003460288 -0.4605043
0000a0 1f f2 d9 be 08 a5 ad bd 6b e2 07 bf 80 91 8f 3e
       -0.42567536 -0.08478743 -0.5307986 0.28040695
0000b0 1c 61 ab be 8c 24 08 be 60 da b8 be 58 1c 78 be
       -0.33472526 -0.13295192 -0.36104107 -0.24229562
0000c0 fe 6c f2 be a0 c7 6e 3d c0 b4 62 3c b6 19 03 3f
       -0.4734878 0.058295846 0.0138370395 0.51211107
0000d0 fc ce 06 3f 14 1c 2b 3e 16 4b c8 3e f0 13 b5 3d
       0.52659583 0.1670993 0.39119786 0.088416934
0000e0 3d c0 09 bf 28 d3 66 3e 0e 04 e5 3e 10 a1 63 be
       -0.5380896 0.22541487 0.44729656 -0.22229409
0000f0 be 7c fe be 58 71 a6 3e 3a c1 c5 be dc 7f 1f 3e
       -0.49704546 0.3250835 -0.38623983 0.15576118

lstm_11/lstm_cell_15/bias2 f4 [64]
000000 00 00 00 00 00 00 00 00 00 00 00 00 00 00 00 00
       0.0 0.0 0.0 0.0
000010 00 00 00 00 00 00 00 00 00 00 00 00 00 00 00 00
       0.0 0.0 0.0 0.0
000020 00 00 00 00 00 00 00 00 00 00 00 00 00 00 00 00
       0.0 0.0 0.0 0.0
000030 00 00 00 00 00 00 00 00 00 00 00 00 00 00 00 00
       0.0 0.0 0.0 0.0
000040 00 00 80 3f 00 00 80 3f 00 00 80 3f 00 00 80 3f
       1.0 1.0 1.0 1.0
000050 00 00 80 3f 00 00 80 3f 00 00 80 3f 00 00 80 3f
       1.0 1.0 1.0 1.0
000060 00 00 80 3f 00 00 80 3f 00 00 80 3f 00 00 80 3f
       1.0 1.0 1.0 1.0
000070 00 00 80 3f 00 00 80 3f 00 00 80 3f 00 00 80 3f
       1.0 1.0 1.0 1.0
000080 00 00 00 00 00 00 00 00 00 00 00 00 00 00 00 00
       0.0 0.0 0.0 0.0
000090 00 00 00 00 00 00 00 00 00 00 00 00 00 00 00 00
       0.0 0.0 0.0 0.0
0000a0 00 00 00 00 00 00 00 00 00 00 00 00 00 00 00 00
       0.0 0.0 0.0 0.0
0000b0 00 00 00 00 00 00 00 00 00 00 00 00 00 00 00 00
       0.0 0.0 0.0 0.0
0000c0 00 00 00 00 00 00 00 00 00 00 00 00 00 00 00 00
       0.0 0.0 0.0 0.0
0000d0 00 00 00 00 00 00 00 00 00 00 00 00 00 00 00 00
       0.0 0.0 0.0 0.0
0000e0 00 00 00 00 00 00 00 00 00 00 00 00 00 00 00 00
       0.0 0.0 0.0 0.0
0000f0 00 00 00 00 00 00 00 00 00 00 00 00 00 00 00 00
       0.0 0.0 0.0 0.0

sequential_1/lstm_11/while/lstm_cell_15/MatMul_1 f4 [64, 16]
000000 80 ca 03 bd 5d 8c 1e bd 5b 6c 0a 3e cf fe fc 3d
       -0.03217554 -0.03870808 0.13517897 0.123532884
000010 36 4f 0e 3d 6f 8d 12 3e f0 79 8e 3e 1a 9f 58 be
       0.03474351 0.14311765 0.27827406 -0.21154442
000020 d7 a6 05 bd 41 98 9e 3d 9a 14 d4 3c 34 e2 37 be
       -0.032629814 0.07743884 0.02588873 -0.17957383
000030 a6 7e c2 3d f9 ef 19 3d 51 1e 09 be f0 ee 6c be
       0.094968125 0.03758237 -0.13390471 -0.23138022
000040 19 8b bb 3d 64 c1 87 bd f6 05 2b be 64 1a 43 3e
       0.0915739 -0.06628683 -0.16701493 0.19053036
000050 2c ef 28 3d 8b f1 20 3e 9d e2 07 be 02 59 c7 bc
       0.041243717 0.15717141 -0.1327004 -0.024334434
000060 a9 f6 09 be d0 f1 80 bd 3e 5a 61 bd ca 68 e3 bd
       -0.13473 -0.06296122 -0.055017702 -0.11103971
000070 25 12 2a be 81 f5 d8 bc 70 0f f0 3c b0 d5 17 3d
       -0.16608484 -0.026484253 0.029304236 0.037069023
000080 2f 52 15 3d a6 7e 37 be 2a 84 d2 bd 74 0e ab bc
       0.03645533 -0.17919406 -0.102791145 -0.020880915
000090 47 75 1b 3e fc e5 37 be e5 b5 6b 3d 97 1f fc 3d
       0.15181457 -0.17958826 0.057546515 0.12310713
0000a0 04 96 14 3e 20 03 56 bc f4 5d 3c 3e 7d f7 5e be
       0.14510351 -0.0130622685 0.18395215 -0.21774097
0000b0 3e 48 ed 3b ad a9 db 3d a8 6d a1 bc 7f ee 7f 3c
       0.007241278 0.107257225 -0.019705608 0.015620827
0000c0 41 35 5f be e6 8f e1 bd e0 ce 60 be 65 6b 15 be
       -0.21797659 -0.110137746 -0.21953917 -0.14591749
0000d0 10 47 0f be 6d a4 18 be 99 7a 58 3e 14 3f d7 bd
       -0.13991952 -0.14906473 0.21140517 -0.10510078
0000e0 75 97 af 3d 5a 56 50 bd a0 c8 8f bd 71 63 37 be
       0.0857381 -0.0508636 -0.07020688 -0.17909028
0000f0 c8 ea 99 bd e8 a2 4b be f2 30 1b 3d 66 c8 17 3e
       -0.07515484 -0.19886363 0.037888475 0.1482254
000100 a0 5e 76 bc 01 45 40 3e d4 1d b7 bc 14 fa c1 bd
       -0.015037209 0.18776323 -0.02235309 -0.09471527
000110 fe 05 cd 3c 9e 72 ab bd 08 65 0a 3e ac 7c 44 be
       0.025027271 -0.08371471 0.13515103 -0.19188184
000120 76 1f ed 3c cd 12 eb 3d 71 6c b3 3d 3f 55 25 be
       0.028945666 0.11478195 0.08760918 -0.161458
000130 58 69 3a be c6 f1 42 3e 46 73 35 3e cd 95 f5 3d
       -0.18204248 0.19037542 0.17719755 0.11991463
000140 1d 7b 04 3e 53 e1 82 3e d8 c3 7f 3e de 57 c4 bd
       0.12937589 0.25562534 0.24977052 -0.09587072
000150 f4 60 48 bc 28 12 c7 3d a9 b2 c7 bd 02 83 5e be
       -0.012230147 0.0972026 -0.097508736 -0.21729663
000160 bf 26 a8 bc 80 3c 5c bd 9f 93 00 3d 74 d9 da 3d
       -0.020526288 -0.053768635 0.031390782 0.10686007
000170 26 3f ec 3b fb bf 6d be b2 21 38 3c 24 2f 3b 3d
       0.0072096763 -0.23217766 0.011238502 0.045699254
000180 d5 6e a3 3d 70 39 7a 3c fc a0 cf bd 57 11 3b 3e
       0.07980124 0.015272483 -0.10138127 0.18268333
000190 39 ba fd bc f0 61 22 3e c8 7b 8e 3c 48 7d 1d be
       -0.030972587 0.15857673 0.017393008 -0.15379822
0001a0 1c 40 14 be 0e 96 61 be 32 59 a6 bc de 8b 28 be
       -0.14477581 -0.22029898 -0.020306204 -0.16459605
0001b0 1e 9d 93 bd a1 f5 d9 3d 6c db ff 3c f2 4e 82 bd
       -0.07207702 0.10642553 0.031232558 -0.06362714
0001c0 1f 7d ae 3b 2d e5 3c 3d ac 1b d5 3d f0 56 8c 3d
       0.005324974 0.046116997 0.104056686 0.068525195
0001d0 71 c1 ac bc ec 3a 02 3e e0 b6 0f 3e 3d 51 36 3d
       -0.021088334 0.1271779 0.14034605 0.04451107
0001e0 45 72 0b 3e 55 62 36 be 4a 72 58 bd 46 76 20 3c
       0.13617809 -0.17810948 -0.05284337 0.009793824
0001f0 98 da b4 3c 12 00 f6 3c cf 7f 3a be 90 c8 d8 bd
       0.02207689 0.03002933 -0.18212818 -0.10585129
000200 d4 83 26 bd 19 14 d8 3d 8a 18 36 be 8b 81 7a bd
       -0.040653065 0.10550708 -0.17782798 -0.061158698
000210 04 3a 2b 3e e9 26 89 3e 3c 5d de 3d 56 8c ae 3d
       0.1672135 0.267875 0.10857627 0.08522861
000220 bc 2d 53 3d 08 9d 0c bd 46 16 ce bd e2 69 0f 3e
       0.051557288 -0.034329444 -0.10062842 0.14005235
000230 48 89 58 3e cb 84 a1 3d 4e 4a b2 bd c9 55 6f bd
       0.21146119 0.078866564 -0.08705579 -0.05843142
000240 11 60 49 3d cb 57 45 3d d0 6e 53 bd ad 92 88 be
       0.04916388 0.04817943 -0.05161935 -0.26674405
000250 3b 44 db bb 77 22 cd 3d 9a e8 9c 3d 6d c9 d6 3d
       -0.0066914833 0.10016339 0.07661553 0.10487638
000260 00 60 92 3c 76 c3 0a bd ba 41 dc bd 21 fb 32 3d
       0.017868042 -0.033877812 -0.10754724 0.043696526
000270 be dd fb bc f1 dc 54 be 14 fc 08 be a3 40 ef 3d
       -0.030745383 -0.20787407 -0.1337741 0.1168225
000280 4d ee 49 be f8 48 77 bc 28 7a a9 bd a9 fa 51 be
       -0.19719811 -0.015093081 -0.082752526 -0.20505776
000290 2f 27 f3 bc 4f 83 16 be 47 aa 8f be 82 96 0b bd
       -0.02968177 -0.14698528 -0.280596 -0.034079082
0002a0 9c 11 30 be 00 8d f3 3d 47 e1 30 3e e0 0f e4 3d
       -0.17194217 0.11892128 0.17273436 0.111358404
0002b0 ef 52 fd bc e6 b3 b3 3d 8a 5e 46 bc 8e e0 bd 3c
       -0.030923335 0.08774547 -0.012107501 0.023178365
0002c0 08 00 b7 bd fe 1c e3 bb cc 68 31 bd 5d 31 66 bd
       -0.08935553 -0.0069309464 -0.043312833 -0.05619942
0002d0 d9 65 a1 3a 5c 5a 86 3d 28 0a 26 3e 9d 08 96 bd
       0.0012313678 0.065602034 0.16214812 -0.073258616
0002e0 05 36 0d be 58 15 c7 bc fc ac 30 3e 47 83 e7 bd
       -0.13790138 -0.02430217 0.17253488 -0.11304336
0002f0 0e f6 78 3e 8f 31 38 3e 20 22 66 3e 16 ac cb bd
       0.24312612 0.17987655 0.22473955 -0.09944932
000300 3b e3 74 3b 8e 8c 13 bb 09 51 3a 3e 04 c0 2a 3e
       0.0037366885 -0.0022514197 0.18194975 0.1667481
000310 eb 59 12 bd d9 4f 14 bc 3e 34 02 3e 38 9a 51 3d
       -0.035730284 -0.00905224 0.12715241 0.051172465
000320 4d 62 4b 3d dc e6 39 bd 4a d6 90 3e 9d 16 68 3d
       0.049654294 -0.04538618 0.2828849 0.05666219
000330 b6 64 0a be 09 0c 5f 3d df fa e1 3d 2f 27 a4 3d
       -0.1351498 0.054454837 0.11034178 0.08015286
000340 95 66 eb 3d 0b 91 1d 3e ea da 56 be 82 18 87 bd
       0.11494175 0.15387361 -0.20981947 -0.06596471
000350 c4 f6 af 3d 62 a8 65 be a4 ae c0 bc 5c 10 a2 3d
       0.08591989 -0.22427514 -0.023520775 0.079132766
000360 48 18 85 3d 82 73 58 bd 58 22 8a bc c6 c7 a3 bd
       0.06498772 -0.05284453 -0.01686208 -0.07997088
000370 00 3b e2 b9 33 a0 fd bc 00 c2 d1 3d 98 13 a9 be
       -0.00043150038 -0.030960178 0.10242081 -0.3302276
000380 ba df a7 bc 1e 89 4d be d6 eb 05 3d 1f db fe bd
       -0.020492423 -0.20071837 0.032695614 -0.12444138
000390 5d 52 8b be a2 c0 1d bd bd d2 fc bd 28 ed 8c 3d
       -0.27211276 -0.038513787 -0.12344883 0.068811715
0003a0 ec 50 be bd 08 6d 61 bd 4f c6 36 3d 4e 3c d9 bd
       -0.092927784 -0.05503562 0.044622716 -0.10607205
0003b0 4c 9c 11 3e 69 75 25 be 01 3f 5a 3e b1 6b d9 3d
       0.14219779 -0.1615807 0.21313097 0.10616244
0003c0 55 15 1e be 80 7d 05 be e6 c7 00 be 57 ff a7 3d
       -0.15437825 -0.13036156 -0.12576255 0.08202999
0003d0 37 88 bb 3d 8e 84 c4 3c 5e f7 a7 bd a8 2d 97 be
       0.0915684 0.023988988 -0.082014784 -0.2952702
0003e0 34 72 43 3e e9 b3 81 be 73 99 46 bd 38 3f 0b 3c
       0.19086534 -0.25332573 -0.048486184 0.008498959
0003f0 d2 ae b6 bc ee 33 38 be fe 7d 51 3c 62 71 b9 bd
       -0.022300158 -0.1798856 0.012786387 -0.09054829

sequential_1/lstm_11/while/lstm_cell_15/MatMul f4 [64, 4]
000000 94 8c 54 3e ca 5d 92 be 34 37 91 3e 02 5f 46 3e
       0.20756751 -0.2858718 0.2836243 0.1937218
000010 88 84 7e be d0 1d 4f 3e 44 02 5c 3e e6 23 3a be
       -0.24855244 0.20226216 0.2148524 -0.18177757
000020 42 8c e2 bd 30 b9 78 be a4 31 77 bd 14 58 82 be
       -0.11061908 -0.24289393 -0.060350075 -0.25457823
000030 86 19 89 3e a2 89 50 be e2 25 e4 bd 62 39 c9 bd
       0.26777285 -0.20365003 -0.11140038 -0.09825398
000040 4d 6a 0a be 34 7a 31 be ca 36 80 3e 70 13 26 3d
       -0.13517113 -0.17331773 0.250418 0.04054588
000050 34 82 70 3e b0 63 92 3e 7c be 68 bd 67 c7 20 be
       0.23487169 0.2859168 -0.056822285 -0.15701066
000060 ae c0 8b bd ac 60 d1 3d 8a df 69 be 02 ca 68 be
       -0.0682386 0.10223517 -0.2283918 -0.2273331
000070 16 85 4b be de 5a 5b be cc db 83 3e 04 6e 43 be
       -0.19874987 -0.21421382 0.2575363 -0.19084936
000080 b6 3e 2e be e6 e4 30 3e e0 02 9d 3d 52 7b 83 be
       -0.1701611 0.17274818 0.07666564 -0.25680023
000090 ac 14 94 3e 08 9c 4a 3e c0 f2 c7 3b 11 a8 44 be
       0.2892202 0.19786084 0.006101936 -0.19204737
0000a0 20 28 ea bc 70 20 a4 3c b0 04 55 be fe 8d 82 3e
       -0.028583586 0.020034999 -0.2080257 0.25498956
0000b0 e8 a6 03 3e 2c 6c 9f 3d c0 06 71 3e 24 c9 1c be
       0.12856638 0.07784304 0.23537731 -0.15311104
0000c0 57 09 67 be a8 ec 8c bd 9e 9f 6f be b4 ec 6e 3e
       -0.22562157 -0.06881076 -0.23400733 0.23332483
0000d0 76 4e 87 3e cc a0 57 be 20 1d 60 3e 30 24 5a 3e
       0.26427048 -0.21057433 0.2188611 0.21302867
0000e0 38 ca a6 3d 96 9c 76 be 18 3d c7 3d c9 c4 80 be
       0.08144039 -0.2408317 0.097284496 -0.25150135
0000f0 52 e6 6d be 82 bb d7 bd 8c e1 28 3e 90 09 69 3d
       -0.23232391 -0.10533811 0.1649229 0.056893885
000100 18 b9 b9 3d de 21 83 bd e0 0b e8 3d 1a a2 40 3e
       0.09068507 -0.06402944 0.1133039 0.18811837
000110 cb 43 4a be 28 57 3f be bc b1 3b 3e b4 15 68 be
       -0.19752423 -0.18685591 0.18329519 -0.22664529
000120 7a 7c 3e 3e 00 68 58 3e 10 d9 28 3d 18 9c 38 3e
       0.18602172 0.21133423 0.041222632 0.18028295
000130 51 05 0c be 6e e6 0e 3e 3c 0c 7c be c2 e5 39 be
       -0.13673903 0.1395509 -0.24614042 -0.18154052
000140 68 9d 95 3d cc 47 8f 3e 2e 7d 82 be 34 49 ec bd
       0.073054135 0.27984464 -0.2548613 -0.115374
000150 d2 a7 35 3e a8 66 96 3d 66 8b 69 be f8 5a 0e be
       0.177398 0.07343799 -0.22807083 -0.1390189
000160 80 c3 30 3b 1c 92 af 3d d9 d7 26 be ab 3c 97 be
       0.0026971996 0.0857279 -0.16293277 -0.29538473
000170 5e 41 86 3e bc 71 8f 3d a8 14 14 3d 56 b4 a5 bd
       0.26221746 0.07004115 0.03615251 -0.08091037
000180 48 fc 31 3d 50 08 4f be be 2b 77 be 20 94 c8 3c
       0.043453485 -0.20218015 -0.2413778 0.024484694
000190 90 d0 8f 3c 90 e6 81 3c 63 07 39 be e2 82 24 3e
       0.017555505 0.015857011 -0.18069224 0.16065553
0001a0 76 54 20 3e a4 1f 07 be ae e5 6b be fc 80 61 3e
       0.1565722 -0.13195664 -0.23036835 0.2202186
0001b0 ba ef b0 bd 94 d8 6f 3e b0 69 24 3e 50 b9 e3 3c
       -0.08639474 0.23422462 0.16055942 0.027798325
0001c0 44 d7 81 3e c6 7c 59 be b4 bb 54 3e 75 de 87 be
       0.25359547 -0.21239004 0.20774728 -0.2653691
0001d0 f0 0f 35 3e 68 cf 97 be fe 24 79 be a6 62 7f be
       0.17681861 -0.29650426 -0.24330518 -0.24939975
0001e0 fc 30 86 bd 5e a4 25 3e ec da 18 3e 0c e5 ca 3d
       -0.06552312 0.16175982 0.14927262 0.099069685
0001f0 9c f5 ef bd 54 bc 91 3e 22 36 8f 3e 30 ab 03 bd
       -0.11716768 0.28463995 0.27970988 -0.03214568
000200 b0 47 63 3d 94 0a 04 3e 18 43 92 3e 64 80 24 3e
       0.05548829 0.1289466 0.28566813 0.16064602
000210 c5 1f 5c be 90 4f 96 3e 3c fe f5 3d 20 89 b4 3d
       -0.21496494 0.29357576 0.12011382 0.08815217
000220 fe 4d 5d be ef 6a 73 be 62 40 63 be f6 0c 8f 3e
       -0.21611783 -0.2377126 -0.22192529 0.27939576
000230 e8 63 02 3d a0 2f af bc 56 98 83 3e 7f 2d 86 be
       0.03183356 -0.021385014 0.2570216 -0.26206586
000240 2e 83 09 be 9a 1f 86 3e 86 d2 aa bd fc 92 53 bd
       -0.13428947 0.26195985 -0.083409354 -0.051653847
000250 08 2e d9 3d 9a 68 03 3e 94 11 5d 3e f0 09 d2 3c
       0.10604483 0.12832871 0.21588737 0.025639504
000260 9e fe d3 bd 18 78 00 3e 66 98 d8 bd c2 95 94 3e
       -0.10351299 0.12545812 -0.10575943 0.29020506
000270 34 ca e3 3d c0 61 89 bc ac 53 81 be 3e 98 4c 3e
       0.111225516 -0.016770244 -0.2525915 0.19979951
000280 24 0a d0 3d 66 e1 0e 3e 58 d4 ca bd b0 b8 3e 3e
       0.10158184 0.1395317 -0.099037826 0.1862514
000290 c8 32 29 bd ba 55 b4 bd 4a 12 8d 3e 54 eb 8c 3e
       -0.041308194 -0.088054135 0.27553016 0.2752329
0002a0 4e 68 17 3e 80 d7 3f 3c 50 33 73 3e 10 45 83 bc
       0.14785883 0.011709094 0.23750043 -0.016024143
0002b0 76 57 e2 bd c4 c9 49 be 68 88 21 3e 60 3f 7c bc
       -0.11051838 -0.19705874 0.15774691 -0.015395969
0002c0 08 64 f7 3d 04 fc 0b 3e c0 0d 89 3e 70 7c d3 bd
       0.12079626 0.13670355 0.26768303 -0.10326469
0002d0 c0 b6 39 3d 9c 3c 8a 3e e6 8f fd bd 1f fc 0d be
       0.0453403 0.26999366 -0.12380962 -0.13865708
0002e0 22 33 8f 3e a0 e9 c3 3d c4 93 8f be 70 50 90 3d
       0.279687 0.09566045 -0.28042424 0.07046592
0002f0 36 d1 68 be 12 e9 bc bd 00 60 c6 bb c3 c5 97 be
       -0.22736058 -0.09224142 -0.0060539246 -0.29643068
000300 e0 86 e1 bc 4c 6e 56 3e 88 87 6f 3d 0c b0 8e be
       -0.027530134 0.20940512 0.058478862 -0.27868688
000310 04 3e 55 be 48 f1 25 bd 10 34 85 3c 29 91 0f be
       -0.20824438 -0.040513307 0.016260177 -0.14020218
000320 f2 79 93 be f8 d3 e5 3d 7c d9 dc 3d f8 8c 5e 3e
       -0.28803974 0.112220705 0.10783669 0.21733463
000330 0c 8e 8d 3e 88 a2 66 3d d8 e1 5d bd e3 f0 77 be
       0.27647436 0.056307346 -0.05417046 -0.24212985
000340 60 d6 08 3e 9f 43 31 be f4 bc 85 3d 74 81 df 3d
       0.13363028 -0.17310952 0.065301806 0.10913363
000350 12 7b ec bd 00 f8 f8 3a 1b d5 95 be 03 84 25 be
       -0.11546911 0.0018994808 -0.2926415 -0.1616364
000360 98 18 5a 3e 8a 57 8d 3e 78 9b 2d 3e a4 23 15 3e
       0.21298444 0.2760585 0.16953838 0.14564377
000370 98 a3 36 3d 68 00 99 3d 10 bf 52 3e f6 3b 3f be
       0.04458961 0.074707806 0.20580697 -0.18675217
000380 04 33 38 be 84 e4 87 3e ac 0e 16 3e 40 b6 10 3d
       -0.17988211 0.2654153 0.14654034 0.035330057
000390 5a 14 dc bd ce 41 36 be 60 52 76 3c 10 5a a9 bc
       -0.10746069 -0.1779854 0.015034288 -0.020672828
0003a0 38 7e 10 be 60 8b 49 3c 8a aa de bd a0 71 4d 3d
       -0.14110649 0.012301296 -0.108723715 0.05015719
0003b0 b0 b7 80 bc 18 58 3d 3e a8 75 52 3e 80 be 6c bc
       -0.015712589 0.18490636 0.20552695 -0.014449716
0003c0 00 d7 97 be c8 52 7a 3d 08 1d 5a 3d 48 4e 03 bd
       -0.2965622 0.061114103 0.053250343 -0.032057077
0003d0 80 36 ef 3d 5c bf 91 be f0 87 6a 3d 7a 00 5e be
       0.11680317 -0.28466308 0.057258546 -0.2167987
0003e0 76 48 22 3e 64 5c 79 3e 74 65 34 be 80 74 0b bd
       0.15847954 0.2435165 -0.17616826 -0.03404665
0003f0 c0 c2 83 be c4 bb 44 3e e0 00 c9 3d d6 47 d1 bd
       -0.2573452 0.19212252 0.0981462 -0.1021878
