lstm996_ae_0801.tflite (tflite, 304924 bytes, 18 tensors)

time_distributed_9/bias f4 [3]
000000 9e c9 b0 3b d9 ef 5e 3b 7f 4f 8b 3b
       0.0053951284 0.0034017472 0.00425142

lstm_43/lstm_cell_7/bias f4 [128]
000000 09 96 4c b5 d3 0a 16 bc da 93 23 bb 33 5e f6 bb
       -7.621425e-07 -0.009157854 -0.0024959953 -0.0075185536
000010 55 7e db bb 00 00 00 00 2a a1 11 b8 c3 3e 98 b5
       -0.0066984096 0.0 -3.472079e-05 -1.1343149e-06
000020 d2 05 bc ba 0c 1c 91 b8 44 ec 66 ba 00 00 00 00
       -0.0014344996 -6.919363e-05 -0.000880901 0.0
000030 6a c3 60 b8 96 f6 3c b9 40 0f e5 b6 ea d2 89 bb
       -5.3587755e-05 -0.00018020938 -6.826507e-06 -0.004206051
000040 00 00 00 00 c8 2b 02 bc 48 22 46 b6 84 a6 4a b8
       0.0 -0.007945009 -2.9524253e-06 -4.8315633e-05
000050 0c 2d b2 b6 d8 c2 29 b7 32 cc bb b6 00 00 00 00
       -5.3100575e-06 -1.0118551e-05 -5.5968057e-06 0.0
000060 00 00 00 00 35 50 5f b4 00 00 00 00 f0 22 3b b9
       0.0 -2.0797673e-07 0.0 -0.00017846725
000070 00 00 00 00 8d 0a 22 bb 33 2e 0a bc c0 e0 14 b9
       0.0 -0.0024725527 -0.008433866 -0.00014198106
000080 00 00 80 3f 00 00 80 3f 00 00 80 3f 00 00 80 3f
       1.0 1.0 1.0 1.0
000090 00 00 80 3f 00 00 80 3f 00 00 80 3f 00 00 80 3f
       1.0 1.0 1.0 1.0
0000a0 00 00 80 3f 00 00 80 3f 00 00 80 3f 00 00 80 3f
       1.0 1.0 1.0 1.0
0000b0 00 00 80 3f 00 00 80 3f 00 00 80 3f 00 00 80 3f
       1.0 1.0 1.0 1.0
0000c0 00 00 80 3f 00 00 80 3f 00 00 80 3f 00 00 80 3f
       1.0 1.0 1.0 1.0
0000d0 00 00 80 3f 00 00 80 3f 00 00 80 3f 00 00 80 3f
       1.0 1.0 1.0 1.0
0000e0 00 00 80 3f 00 00 80 3f 00 00 80 3f 00 00 80 3f
       1.0 1.0 1.0 1.0
0000f0 00 00 80 3f 00 00 80 3f 00 00 80 3f 00 00 80 3f
       1.0 1.0 1.0 1.0
000100 05 a9 c4 bb c9 65 92 3a 73 26 c0 3b 83 6d 7e bb
       -0.006001594 0.001116925 0.0058639585 -0.0038822598
000110 39 80 8c 3b 00 00 00 00 01 bf c4 bb 74 ac c4 bb
       0.0042877463 0.0 -0.0060042148 -0.0060020033
000120 c9 2e af bb fa c4 c4 bb 02 22 b6 bb 00 00 00 00
       -0.0053461534 -0.0060049267 -0.0055582533 0.0
000130 82 c5 c4 bb 9d d5 a8 bb df bd c4 bb d9 2d a0 3b
       -0.00600499 -0.005152418 -0.0060040797 0.004888278
000140 00 00 00 00 de 79 2b 3b c2 be c4 bb 2d c4 c4 bb
       0.0 0.0026165168 -0.0060041854 -0.0060048313
000150 b1 c3 c4 bb e1 c4 c4 bb 29 bd c4 bb 00 00 00 00
       -0.0060047735 -0.006004915 -0.006003995 0.0
000160 00 00 00 00 f4 4f c4 bb 00 00 00 00 44 12 b7 bb
       0.0 -0.0059909765 0.0 -0.005586894
000170 00 00 00 00 64 d2 c6 3b 70 6b 85 3b 7e 73 ce bb
       0.0 0.006067561 0.0040716454 -0.006300389
000180 0b 96 4c b5 18 0d 16 bc 55 9b 23 bb f5 60 f6 bb
       -7.6214263e-07 -0.009158395 -0.0024964411 -0.0075188824
000190 19 77 db bb 00 00 00 00 26 a1 11 b8 c5 3e 98 b5
       -0.006697547 0.0 -3.4720775e-05 -1.1343151e-06
0001a0 fb 0f bc ba 16 1c 91 b8 1e f1 66 ba 00 00 00 00
       -0.0014348024 -6.91937e-05 -0.0008809733 0.0
0001b0 76 c3 60 b8 89 f5 3c b9 3d 0f e5 b6 1c d9 89 bb
       -5.35878e-05 -0.00018020546 -6.826506e-06 -0.0042067897
0001c0 00 00 00 00 86 28 02 bc 43 22 46 b6 8f a6 4a b8
       0.0 -0.007944232 -2.9524242e-06 -4.8315673e-05
0001d0 1d 2d b2 b6 e0 c2 29 b7 23 cc bb b6 00 00 00 00
       -5.3100653e-06 -1.0118558e-05 -5.596799e-06 0.0
0001e0 00 00 00 00 25 50 5f b4 00 00 00 00 82 0f 3b b9
       0.0 -2.079765e-07 0.0 -0.00017839487
0001f0 00 00 00 00 c5 f2 21 bb 9a 2f 0a bc 26 e0 14 b9
       0.0 -0.0024711352 -0.008434201 -0.00014197882

lstm_42/lstm_cell_6/bias f4 [256]
000000 d5 54 bb b8 37 ec ce b7 d5 29 bd b1 00 00 00 00
       -8.932656e-05 -2.466711e-05 -5.5053797e-09 0.0
000010 fb 30 98 ae 29 4f b4 b7 6f ad 0a b6 00 00 00 00
       -6.9208604e-11 -2.1494534e-05 -2.0664554e-06 0.0
000020 00 00 00 00 b5 53 3b b7 00 00 00 00 32 70 ce bb
       0.0 -1.1165558e-05 0.0 -0.006299996
000030 b5 06 ab bb 0b 3e c1 bb e5 82 6c bb fe d6 0c b7
       -0.0052193054 -0.0058972887 -0.0036088761 -8.394707e-06
000040 9a 06 7f bb ed ae e0 bb 6f 6b d1 bb ea 8f d7 b7
       -0.0038913847 -0.0068567903 -0.006390981 -2.5697012e-05
000050 64 88 72 bb f6 b0 9c bb e7 fb b9 bb a5 98 1e ba
       -0.0037007565 -0.0047818376 -0.005675781 -0.00060499675
000060 44 12 dd b5 3a db da bb fb 43 bd b8 11 fc 18 b8
       -1.6471099e-06 -0.006678966 -9.024885e-05 -3.647438e-05
000070 00 00 00 00 00 00 00 00 48 85 5d b8 9a 90 9a b9
       0.0 0.0 -5.2814634e-05 -0.00029480906
000080 47 2c 06 b8 5e 49 24 bb d7 fe 9f bb 69 5a d1 b6
       -3.1989326e-05 -0.0025068144 -0.004882674 -6.2392105e-06
000090 1c 83 f4 b7 b9 70 8c b5 de c1 40 bb a9 64 cf bb
       -2.914812e-05 -1.046362e-06 -0.002941243 -0.0063291383
0000a0 00 00 00 00 47 5f 89 bb 91 52 9b bb 00 00 00 00
       0.0 -0.004192266 -0.0047400673 0.0
0000b0 69 21 7f b5 00 00 00 00 b9 b0 4e bb 23 e2 6a b5
       -9.504352e-07 0.0 -0.003153844 -8.7500865e-07
0000c0 1f a8 8a b8 1d 8e 91 b4 00 00 00 00 00 00 00 00
       -6.611668e-05 -2.7111756e-07 0.0 0.0
0000d0 1d d1 5f bb 18 80 16 bc 23 eb 6e b3 87 ae 38 b8
       -0.003415174 -0.009185813 -5.562755e-08 -4.403156e-05
0000e0 26 9b d8 bb ad 2c a1 bb 06 d7 8f b7 37 1f 59 3a
       -0.006610292 -0.004918656 -1.7147056e-05 0.00082825444
0000f0 76 dc 42 b5 18 a4 ae bb fa e4 dc bb 30 87 36 b6
       -7.2591445e-07 -0.00532962 -0.0067411633 -2.7198803e-06
000100 00 00 80 3f 00 00 80 3f 00 00 80 3f 00 00 80 3f
       1.0 1.0 1.0 1.0
000110 00 00 80 3f 00 00 80 3f 00 00 80 3f 00 00 80 3f
       1.0 1.0 1.0 1.0
000120 00 00 80 3f 00 00 80 3f 00 00 80 3f 00 00 80 3f
       1.0 1.0 1.0 1.0
000130 00 00 80 3f 00 00 80 3f 00 00 80 3f 00 00 80 3f
       1.0 1.0 1.0 1.0
000140 00 00 80 3f 00 00 80 3f 00 00 80 3f 00 00 80 3f
       1.0 1.0 1.0 1.0
000150 00 00 80 3f 00 00 80 3f 00 00 80 3f 00 00 80 3f
       1.0 1.0 1.0 1.0
000160 00 00 80 3f 00 00 80 3f 00 00 80 3f 00 00 80 3f
       1.0 1.0 1.0 1.0
000170 00 00 80 3f 00 00 80 3f 00 00 80 3f 00 00 80 3f
       1.0 1.0 1.0 1.0
000180 00 00 80 3f 00 00 80 3f 00 00 80 3f 00 00 80 3f
       1.0 1.0 1.0 1.0
000190 00 00 80 3f 00 00 80 3f 00 00 80 3f 00 00 80 3f
       1.0 1.0 1.0 1.0
0001a0 00 00 80 3f 00 00 80 3f 00 00 80 3f 00 00 80 3f
       1.0 1.0 1.0 1.0
0001b0 00 00 80 3f 00 00 80 3f 00 00 80 3f 00 00 80 3f
       1.0 1.0 1.0 1.0
0001c0 00 00 80 3f 00 00 80 3f 00 00 80 3f 00 00 80 3f
       1.0 1.0 1.0 1.0
0001d0 00 00 80 3f 00 00 80 3f 00 00 80 3f 00 00 80 3f
       1.0 1.0 1.0 1.0
0001e0 00 00 80 3f 00 00 80 3f 00 00 80 3f 00 00 80 3f
       1.0 1.0 1.0 1.0
0001f0 00 00 80 3f 00 00 80 3f 00 00 80 3f 00 00 80 3f
       1.0 1.0 1.0 1.0
000200 19 7c b5 bb 96 96 c4 bb b9 ef b9 bb 00 00 00 00
       -0.0055384752 -0.0059993966 -0.005674329 0.0
000210 a4 8b 24 bb 71 80 c4 bb 5f 45 c4 bb 00 00 00 00
       -0.0025107646 -0.0059967567 -0.005989715 0.0
000220 00 00 00 00 60 41 c3 bb 00 00 00 00 38 14 4a 3a
       0.0 -0.005958721 0.0 0.00077087013
000230 cd fa 8a bb be 03 84 bb 26 c7 bf 3b 6a 51 c4 bb
       -0.0042413236 -0.0040287664 0.0058525978 -0.0059911506
000240 86 1d 6e 3b 8d bf ec b9 d3 ec e4 3a 99 52 b6 bb
       0.0036333515 -0.00045156144 0.0017465599 -0.0055640456
000250 62 03 ce bb 05 ce 8d 3b ba 1c 53 bb 77 5e cd bb
       -0.0062870244 0.004327538 -0.0032213167 -0.0062673646
000260 71 eb c2 bb 44 aa 52 3b 28 a7 c4 bb bf a5 c4 bb
       -0.005948477 0.0032144943 -0.006001372 -0.006001204
000270 00 00 00 00 00 00 00 00 84 9d c4 bb d6 06 b6 bb
       0.0 0.0 -0.0060002226 -0.005555014
000280 aa ae b5 bb 85 05 e4 3a 7a 5a 32 3b 18 5e c4 bb
       -0.005544503 0.0017396664 0.0027214573 -0.005992662
000290 1a d3 b5 bb 94 fc c2 bb 26 40 c0 3b 47 ee 29 3b
       -0.005548847 -0.00595052 0.005867022 0.0025929378
0002a0 00 00 00 00 40 dd 80 3b b0 53 7d 3b 00 00 00 00
       0.0 0.003932625 0.0038654618 0.0
0002b0 29 36 c4 bb 00 00 00 00 f5 e8 cc bb b8 76 ad bb
       -0.0059879017 0.0 -0.0062533566 -0.0052936934
0002c0 88 ac c4 bb a4 09 c2 bb 00 00 00 00 00 00 00 00
       -0.0060020126 -0.0059215594 0.0 0.0
0002d0 fa 7d 7d bb 0e 12 30 3b 96 8f a6 bb f3 9a c4 bb
       -0.0038679824 0.002686623 -0.0050830347 -0.0059999167
0002e0 6f 21 d2 3a 98 24 80 3b da 68 c4 bb 9e b2 03 3c
       0.0016031693 0.0039106123 -0.0059939446 0.008038191
0002f0 db 12 c0 bb 10 91 85 3b 15 ab 5f 3b e5 a3 b5 bb
       -0.0058616227 0.0040761307 0.0034129072 -0.0055432194
000300 55 57 bb b8 48 ec ce b7 5d 2a bd b1 00 00 00 00
       -8.933122e-05 -2.466714e-05 -5.50544e-09 0.0
000310 45 31 98 ae f3 4e b4 b7 27 ad 0a b6 00 00 00 00
       -6.920912e-11 -2.1494436e-05 -2.066439e-06 0.0
000320 00 00 00 00 25 54 3b b7 00 00 00 00 f7 74 ce bb
       0.0 -1.116566e-05 0.0 -0.0063005644
000330 d7 09 ab bb 27 3a c1 bb 97 81 6c bb d7 d6 0c b7
       -0.005219679 -0.005896825 -0.0036087984 -8.394672e-06
000340 dc 0e 7f bb 79 b3 e0 bb 5d 69 d1 bb 9e 9b d7 b7
       -0.003891877 -0.0068573323 -0.006390734 -2.5702462e-05
000350 cd 89 72 bb 1d b1 9c bb e8 f9 b9 bb 34 96 1e ba
       -0.0037008405 -0.0047818557 -0.005675543 -0.00060496037
000360 69 12 dd b5 e5 da da bb 3a 44 bd b8 2a fc 18 b8
       -1.6471141e-06 -0.0066789263 -9.0249305e-05 -3.647447e-05
000370 00 00 00 00 00 00 00 00 31 85 5d b8 da 8e 9a b9
       0.0 0.0 -5.281455e-05 -0.00029479602
000380 0e 2b 06 b8 45 4c 24 bb 29 03 a0 bb 5c 5b d1 b6
       -3.1988187e-05 -0.0025069874 -0.004883189 -6.239321e-06
000390 7f 7f f4 b7 34 70 8c b5 15 c8 40 bb d5 66 cf bb
       -2.9146437e-05 -1.0463468e-06 -0.0029416133 -0.006329397
0003a0 00 00 00 00 8f 59 89 bb 93 50 9b bb 00 00 00 00
       0.0 -0.0041915844 -0.00473983 0.0
0003b0 e0 22 7f b5 00 00 00 00 2e ad 4e bb 10 ed 6a b5
       -9.504565e-07 0.0 -0.0031536329 -8.7516764e-07
0003c0 46 a8 8a b8 4b 8e 91 b4 00 00 00 00 00 00 00 00
       -6.611696e-05 -2.7111886e-07 0.0 0.0
0003d0 b3 d2 5f bb 50 81 16 bc b6 f0 6e b3 21 ae 38 b8
       -0.0034152686 -0.009186104 -5.563262e-08 -4.403119e-05
0003e0 d9 9c d8 bb f3 2c a1 bb 19 d7 8f b7 68 1c 59 3a
       -0.0066104946 -0.0049186884 -1.7147091e-05 0.0008282126
0003f0 47 db 42 b5 b8 9d ae bb 33 e2 dc bb b3 86 36 b6
       -7.258972e-07 -0.00532886 -0.0067408322 -2.7198519e-06

lstm_41/lstm_cell_5/bias f4 [128]
000000 db 2b 53 bb b9 e7 12 b9 b2 36 89 b4 55 cf 96 b6
       -0.0032222185 -0.00014009968 -2.5558035e-07 -4.494485e-06
000010 33 a8 1a b4 39 0b 59 b8 91 60 b7 b8 22 01 dd ba
       -1.4403558e-07 -5.1747284e-05 -8.744107e-05 -0.00168613
000020 00 00 00 00 80 fa 93 ba d6 7e 2e bb 31 cf c0 b7
       0.0 -0.0011289865 -0.0026625893 -2.2984665e-05
000030 c8 09 13 b8 00 00 00 00 85 c8 23 b2 a4 33 58 b7
       -3.505664e-05 0.0 -9.533442e-09 -1.2886627e-05
000040 7d 51 61 bb 00 00 00 00 c4 74 2f b5 c3 c7 f9 b7
       -0.0034380846 0.0 -6.5362497e-07 -2.9776134e-05
000050 28 2e 35 b8 bd 2e 3e b9 3d 2a a8 ba 5d 74 a3 b5
       -4.319675e-05 -0.00018137223 -0.0012829971 -1.2178313e-06
000060 00 00 00 00 25 65 ae b7 2f f4 a4 b6 6a 8b 05 b7
       0.0 -2.0789515e-05 -4.9160076e-06 -7.959878e-06
000070 99 ab 64 ba 52 ce 52 ba 39 b2 83 ba 37 f8 6c b6
       -0.000872308 -0.00080416084 -0.0010047621 -3.531122e-06
000080 00 00 80 3f 00 00 80 3f 00 00 80 3f 00 00 80 3f
       1.0 1.0 1.0 1.0
000090 00 00 80 3f 00 00 80 3f 00 00 80 3f 00 00 80 3f
       1.0 1.0 1.0 1.0
0000a0 00 00 80 3f 00 00 80 3f 00 00 80 3f 00 00 80 3f
       1.0 1.0 1.0 1.0
0000b0 00 00 80 3f 00 00 80 3f 00 00 80 3f 00 00 80 3f
       1.0 1.0 1.0 1.0
0000c0 00 00 80 3f 00 00 80 3f 00 00 80 3f 00 00 80 3f
       1.0 1.0 1.0 1.0
0000d0 00 00 80 3f 00 00 80 3f 00 00 80 3f 00 00 80 3f
       1.0 1.0 1.0 1.0
0000e0 00 00 80 3f 00 00 80 3f 00 00 80 3f 00 00 80 3f
       1.0 1.0 1.0 1.0
0000f0 00 00 80 3f 00 00 80 3f 00 00 80 3f 00 00 80 3f
       1.0 1.0 1.0 1.0
000100 50 30 36 3b d2 c4 90 bb 28 4b 96 bb d7 dc c2 bb
       0.0027799793 -0.004417994 -0.004586596 -0.0059467363
000110 93 6f 88 bb 12 97 c2 bb de 78 c3 bb 07 94 41 bb
       -0.0041636913 -0.005938419 -0.005965336 -0.0029537694
000120 00 00 00 00 a7 4f ae 3b e7 9d 52 ba cc cd c1 bb
       0.0 0.005319554 -0.00080343935 -0.0059144255
000130 42 a7 c2 bb 00 00 00 00 25 87 74 bb f3 25 c2 bb
       -0.005940349 0.0 -0.0037311998 -0.005924934
000140 fb 65 1f 3b 00 00 00 00 40 4e a0 bb ec ce c2 bb
       0.002432226 0.0 -0.0048921406 -0.005945077
000150 24 7c c3 bb 12 5d a9 bb 54 d3 d1 3b 7a 49 a2 bb
       -0.0059657265 -0.0051685655 0.006403366 -0.0049526067
000160 00 00 00 00 07 d7 c1 bb 9e 1e b1 bb d3 c1 ac bb
       0.0 -0.005915526 -0.005405261 -0.005272129
000170 2e 27 03 bb 9f c8 c8 bb 1c be 0e bc a2 ec b9 bb
       -0.0020012367 -0.0061274315 -0.008712318 -0.005673961
000180 a8 1a 53 bb 4f e1 12 b9 69 42 89 b4 59 cb 96 b6
       -0.0032211933 -0.00014007579 -2.5566558e-07 -4.494021e-06
000190 94 a1 1a b4 59 0e 59 b8 0e 61 b7 b8 91 f5 dc ba
       -1.440115e-07 -5.1750194e-05 -8.744198e-05 -0.0016857852
0001a0 00 00 00 00 11 26 94 ba e5 89 2e bb 0e ce c0 b7
       0.0 -0.0011302849 -0.0026632485 -2.2984135e-05
0001b0 86 0c 13 b8 00 00 00 00 60 d1 23 b2 ec 38 58 b7
       -3.5059194e-05 0.0 -9.535455e-09 -1.2887856e-05
0001c0 15 5c 61 bb 00 00 00 00 7b 69 2f b5 2c c2 f9 b7
       -0.003438716 0.0 -6.5346075e-07 -2.9773531e-05
0001d0 ae 2d 35 b8 45 31 3e b9 e2 1f a8 ba ef 81 a3 b5
       -4.3196305e-05 -0.00018138166 -0.0012826885 -1.2182262e-06
0001e0 00 00 00 00 b4 68 ae b7 81 ec a4 b6 7b 92 05 b7
       0.0 -2.0791173e-05 -4.9151135e-06 -7.961523e-06
0001f0 04 a1 64 ba 3f d1 52 ba ee b3 83 ba 09 f7 6c b6
       -0.0008721503 -0.00080420444 -0.001004813 -3.5310534e-06

lstm_40/lstm_cell_4/bias f4 [256]
000000 e4 b8 3a b7 8c 8f fe b8 25 1a 9c b5 00 00 00 00
       -1.1129512e-05 -0.000121384015 -1.1630515e-06 0.0
000010 00 00 00 00 13 35 b1 b8 00 00 00 00 00 00 00 00
       0.0 -8.4499035e-05 0.0 0.0
000020 39 92 67 b9 00 00 00 00 00 00 00 00 30 2a 64 b7
       -0.00022084349 0.0 0.0 -1.3599682e-05
000030 0c 20 09 b6 00 00 00 00 41 80 49 b9 9d 22 2b b9
       -2.0433245e-06 0.0 -0.00019216632 -0.00016320725
000040 5e de 66 b8 1d ed 69 b6 f3 c9 2a b9 00 00 00 00
       -5.504337e-05 -3.4857724e-06 -0.00016287695 0.0
000050 4b a2 e5 b8 00 00 00 00 0e 47 b5 b8 47 e1 81 b9
       -0.000109498 0.0 -8.6439875e-05 -0.00024772642
000060 00 00 00 00 81 9d ca b6 00 00 00 00 00 00 00 00
       0.0 -6.038405e-06 0.0 0.0
000070 c0 c8 02 b7 21 28 73 b4 bf a1 98 b9 a7 3e b8 b7
       -7.795345e-06 -2.2645737e-07 -0.0002911221 -2.1963684e-05
000080 c7 8f 59 b9 00 00 00 00 00 00 00 00 00 00 00 00
       -0.00020748294 0.0 0.0 0.0
000090 00 00 00 00 4e 55 37 37 b9 0b a4 b3 7f 4d 8e b8
       0.0 1.09275115e-05 -7.6389775e-08 -6.7855224e-05
0000a0 00 00 00 00 69 13 38 b8 0d 43 3d b6 00 00 00 00
       0.0 -4.3887096e-05 -2.8202223e-06 0.0
0000b0 8e 8d aa b8 ca c9 99 b9 a5 21 e0 b7 00 00 00 00
       -8.132598e-05 -0.0002933278 -2.6718548e-05 0.0
0000c0 7d 6f dd b7 a2 c9 b8 38 90 2d cf b6 68 b3 0b b3
       -2.6397169e-05 8.811361e-05 -6.174385e-06 -3.252663e-08
0000d0 00 00 00 00 4b 7e 45 b4 15 9f e7 b7 00 00 00 00
       0.0 -1.8393e-07 -2.7611424e-05 0.0
0000e0 00 00 00 00 4c 15 89 b7 81 6d ea b8 15 fd c1 b8
       0.0 -1.634159e-05 -0.00011178386 -9.250097e-05
0000f0 7d 90 cf b7 91 f1 50 b8 50 f6 e0 b7 e1 c5 5b b7
       -2.4743606e-05 -4.981604e-05 -2.6817579e-05 -1.30994895e-05
000100 00 00 80 3f 00 00 80 3f 00 00 80 3f 00 00 80 3f
       1.0 1.0 1.0 1.0
000110 00 00 80 3f 00 00 80 3f 00 00 80 3f 00 00 80 3f
       1.0 1.0 1.0 1.0
000120 00 00 80 3f 00 00 80 3f 00 00 80 3f 00 00 80 3f
       1.0 1.0 1.0 1.0
000130 00 00 80 3f 00 00 80 3f 00 00 80 3f 00 00 80 3f
       1.0 1.0 1.0 1.0
000140 00 00 80 3f 00 00 80 3f 00 00 80 3f 00 00 80 3f
       1.0 1.0 1.0 1.0
000150 00 00 80 3f 00 00 80 3f 00 00 80 3f 00 00 80 3f
       1.0 1.0 1.0 1.0
000160 00 00 80 3f 00 00 80 3f 00 00 80 3f 00 00 80 3f
       1.0 1.0 1.0 1.0
000170 00 00 80 3f 00 00 80 3f 00 00 80 3f 00 00 80 3f
       1.0 1.0 1.0 1.0
000180 00 00 80 3f 00 00 80 3f 00 00 80 3f 00 00 80 3f
       1.0 1.0 1.0 1.0
000190 00 00 80 3f 00 00 80 3f 00 00 80 3f 00 00 80 3f
       1.0 1.0 1.0 1.0
0001a0 00 00 80 3f 00 00 80 3f 00 00 80 3f 00 00 80 3f
       1.0 1.0 1.0 1.0
0001b0 00 00 80 3f 00 00 80 3f 00 00 80 3f 00 00 80 3f
       1.0 1.0 1.0 1.0
0001c0 00 00 80 3f 00 00 80 3f 00 00 80 3f 00 00 80 3f
       1.0 1.0 1.0 1.0
0001d0 00 00 80 3f 00 00 80 3f 00 00 80 3f 00 00 80 3f
       1.0 1.0 1.0 1.0
0001e0 00 00 80 3f 00 00 80 3f 00 00 80 3f 00 00 80 3f
       1.0 1.0 1.0 1.0
0001f0 00 00 80 3f 00 00 80 3f 00 00 80 3f 00 00 80 3f
       1.0 1.0 1.0 1.0
000200 2c 50 b3 bb 4d 14 dd bb 40 e8 86 bb 00 00 00 00
       -0.0054722037 -0.006746805 -0.004117042 0.0
000210 00 00 00 00 72 80 20 3b 00 00 00 00 00 00 00 00
       0.0 0.0024490622 0.0 0.0
000220 1a cd b9 bb 00 00 00 00 00 00 00 00 67 95 c3 3b
       -0.005670202 0.0 0.0 0.005968738
000230 ac e5 45 3c 00 00 00 00 c8 07 89 bb 6b 7d 42 bb
       0.012078684 0.0 -0.004181836 -0.0029676806
000240 f1 d1 bf bb 9a 29 b4 bb d0 23 aa bb 00 00 00 00
       -0.0058538844 -0.0054981234 -0.0051922575 0.0
000250 c3 cb 8d bb 00 00 00 00 0b 07 c6 bb 16 87 ed bb
       -0.004327269 0.0 -0.00604332 -0.0072487695
000260 00 00 00 00 94 43 b4 bb 00 00 00 00 00 00 00 00
       0.0 -0.00550122 0.0 0.0
000270 c6 b1 ad bb 77 33 5e bb f9 ae 26 3b c6 af dd bb
       -0.0053007333 -0.0033905187 0.0025433882 -0.0067653386
000280 16 0f 3a b9 00 00 00 00 00 00 00 00 00 00 00 00
       -0.00017743962 0.0 0.0 0.0
000290 00 00 00 00 ef fa 2a 3b dd 7d 36 ba d9 e0 69 bb
       0.0 0.002608951 -0.0006961504 -0.0035686998
0002a0 00 00 00 00 fe f7 96 bb ed 45 97 bb 00 00 00 00
       0.0 -0.0046071997 -0.00461649 0.0
0002b0 86 7e be bb d1 4c d6 b9 ea 45 be bb 00 00 00 00
       -0.0058134226 -0.00040874493 -0.0058066742 0.0
0002c0 98 b3 d3 bb 13 6f 89 3b 4a f6 b8 bb 12 67 e3 ba
       -0.006460618 0.0041941493 -0.0056445943 -0.0017349443
0002d0 00 00 00 00 6c 8c 8d ba ef be a6 3b 00 00 00 00
       0.0 -0.0010799295 0.005088679 0.0
0002e0 00 00 00 00 32 2c 89 39 b4 6e fc 3a f3 26 85 bb
       0.0 0.00026163604 0.0019259066 -0.004063481
0002f0 80 9d 05 bc b1 99 ba bb 6f 0e c1 bb 54 a6 c3 bb
       -0.008155227 -0.005694591 -0.005891613 -0.0059707556
000300 bb c1 3a b7 72 b2 fe b8 c4 19 9c b5 00 00 00 00
       -1.113157e-05 -0.00012144902 -1.1630405e-06 0.0
000310 00 00 00 00 db 2f b1 b8 00 00 00 00 00 00 00 00
       0.0 -8.4489315e-05 0.0 0.0
000320 2d ba 67 b9 00 00 00 00 00 00 00 00 32 87 60 b7
       -0.00022099233 0.0 0.0 -1.3382918e-05
000330 23 2c 5d b6 00 00 00 00 61 7e 49 b9 b0 3a 2b b9
       -3.2957257e-06 0.0 -0.00019215934 -0.00016329694
000340 d2 d8 66 b8 66 ff 69 b6 23 cb 2a b9 00 00 00 00
       -5.5038203e-05 -3.4868367e-06 -0.00016288138 0.0
000350 58 81 e5 b8 00 00 00 00 91 57 b5 b8 77 e6 81 b9
       -0.00010943663 0.0 -8.647063e-05 -0.00024776507
000360 00 00 00 00 34 a8 ca b6 00 00 00 00 00 00 00 00
       0.0 -6.0396505e-06 0.0 0.0
000370 42 ba 02 b7 c7 eb 72 b4 a3 3b 98 b9 65 5a b8 b7
       -7.79197e-06 -2.2623782e-07 -0.00029036132 -2.1976603e-05
000380 61 8c 59 b9 00 00 00 00 00 00 00 00 00 00 00 00
       -0.00020747028 0.0 0.0 0.0
000390 00 00 00 00 88 ec 37 37 fa 64 a4 b3 f6 4a 8e b8
       0.0 1.0962722e-05 -7.6552126e-08 -6.78505e-05
0003a0 00 00 00 00 41 35 38 b8 ed 0a 3d b6 00 00 00 00
       0.0 -4.3918615e-05 -2.8169554e-06 0.0
0003b0 5b a3 aa b8 22 d4 99 b9 86 0b e0 b7 00 00 00 00
       -8.136659e-05 -0.00029340485 -2.6708247e-05 0.0
0003c0 0e 7d dd b7 a2 25 ba 38 85 51 cf b6 d4 b1 0b b3
       -2.6403486e-05 8.876181e-05 -6.178571e-06 -3.2525193e-08
0003d0 00 00 00 00 92 23 45 b4 b8 aa e7 b7 00 00 00 00
       0.0 -1.8359995e-07 -2.7616843e-05 0.0
0003e0 00 00 00 00 62 09 89 b7 f8 79 e9 b8 82 0a c2 b8
       0.0 -1.6336042e-05 -0.00011133024 -9.252598e-05
0003f0 38 b9 cf b7 c6 b7 50 b8 77 25 e1 b7 1f a7 5b b7
       -2.4762572e-05 -4.9762217e-05 -2.6839536e-05 -1.3092328e-05

sequential_9/time_distributed_9/dense_9/MatMul f4 [3, 32]
000000 05 16 ab be fc a6 84 3e d2 7d 8c 3e f4 e6 a3 be
       -0.33415237 0.2590865 0.27439743 -0.3201214
000010 0b 98 8a 3e 24 25 95 be 3b 2a 81 bc 05 e2 8d bc
       0.27069125 -0.291299 -0.015767207 -0.017319689
000020 63 45 1e be c6 f9 a2 be 6b 72 78 be bb 02 4a be
       -0.15456156 -0.31831187 -0.24262397 -0.19727604
000030 8b 06 5d be e5 d7 02 be ea a1 d5 3d 55 87 12 3e
       -0.21584527 -0.1277767 0.10431273 0.14309438
000040 d0 6b 1c bd 17 9b 6f be fc 5a 9b 3e 4a 78 14 3c
       -0.038188756 -0.23399006 0.30342853 0.009061882
000050 16 d6 47 be 31 c2 aa be 0d c5 8e be 34 3b c2 be
       -0.19515261 -0.3335128 -0.27884713 -0.37935793
000060 c0 b7 b9 be ac 3b 38 be fe ff 7c 3e 44 62 bb bd
       -0.36273003 -0.17991513 0.24707028 -0.09149602
000070 bc 49 98 bd c2 e1 50 3e 3c a7 9a 3e bb 47 2a bb
       -0.07435939 0.2039862 0.30205715 -0.0025982696
000080 7d fa 59 3e af c5 8d 3e d0 ed c0 be 71 2f b5 3d
       0.2128696 0.27689883 -0.37681437 0.08846939
000090 b6 db 31 3e 64 85 a1 3d 4c 8d 46 3e 11 bb 6d be
       0.1736897 0.0788677 0.19389838 -0.23215891
0000a0 05 df c3 bc 83 87 35 bd 3f 5f cd be 9c 92 fa 3d
       -0.023910055 -0.044318687 -0.4011173 0.12234995
0000b0 11 53 ad be 5c 13 b1 3e 16 af 07 be 6f cc 39 be
       -0.33852437 0.34585083 -0.13250384 -0.18144391
0000c0 c0 f6 98 3d 6c 94 cf 3e 4c 98 cd be 0f d8 ff bd
       0.07468939 0.40542924 -0.40155256 -0.12492382
0000d0 f4 7a 7a be 0a e1 8f be 01 8a 23 3e ca 34 08 be
       -0.24460965 -0.2810138 0.15970613 -0.13301387
0000e0 aa 2d 19 be 7a 5e 1d 3e 2f 5e b8 be fe 6b 94 3e
       -0.14958826 0.15368071 -0.36009356 0.28988642
0000f0 d8 ab 8d be b2 63 e0 bd 94 fa b7 3e d7 c7 c7 3d
       -0.2767017 -0.10956515 0.35933363 0.09754913
000100 05 6a 0d be 81 ed f1 3d 14 e9 82 3e 26 07 9c 3e
       -0.13809974 0.118128784 0.2556845 0.30474204
000110 86 dc 92 bd cc ec ba bd a3 28 ca be 5c e7 5e be
       -0.07170968 -0.09127197 -0.39484128 -0.21767944
000120 76 a6 49 be a9 e0 9d be bd 14 b9 3c 40 98 fc 3c
       -0.19692406 -0.30835465 0.022592897 0.030834317
000130 d9 e5 8a be 1a a2 e3 3b 5c 78 28 be 89 54 98 3e
       -0.27128485 0.0069468142 -0.16452163 0.29751995
000140 83 a1 2a be 78 3b 59 3e e8 dd 38 be 35 f9 d1 be
       -0.16663174 0.21214092 -0.180534 -0.41010442
000150 46 98 c8 be 49 48 67 bd e7 24 88 bd eb cf bb be
       -0.39178675 -0.05646542 -0.066476636 -0.36682066
000160 9c 42 e7 3d 16 9f d6 3b 34 86 97 bd 35 4c f8 3c
       0.112920016 0.0065497262 -0.07398644 0.030309776
000170 78 37 3e bd 67 ab c3 bd 1d 52 ce be 21 eb c5 be
       -0.046439618 -0.09554177 -0.40297022 -0.38655952

lstm_40/lstm_cell_4/bias1 f4 [256]
000000 e4 b8 3a b7 8c 8f fe b8 25 1a 9c b5 00 00 00 00
       -1.1129512e-05 -0.000121384015 -1.1630515e-06 0.0
000010 00 00 00 00 13 35 b1 b8 00 00 00 00 00 00 00 00
       0.0 -8.4499035e-05 0.0 0.0
000020 39 92 67 b9 00 00 00 00 00 00 00 00 30 2a 64 b7
       -0.00022084349 0.0 0.0 -1.3599682e-05
000030 0c 20 09 b6 00 00 00 00 41 80 49 b9 9d 22 2b b9
       -2.0433245e-06 0.0 -0.00019216632 -0.00016320725
000040 5e de 66 b8 1d ed 69 b6 f3 c9 2a b9 00 00 00 00
       -5.504337e-05 -3.4857724e-06 -0.00016287695 0.0
000050 4b a2 e5 b8 00 00 00 00 0e 47 b5 b8 47 e1 81 b9
       -0.000109498 0.0 -8.6439875e-05 -0.00024772642
000060 00 00 00 00 81 9d ca b6 00 00 00 00 00 00 00 00
       0.0 -6.038405e-06 0.0 0.0
000070 c0 c8 02 b7 21 28 73 b4 bf a1 98 b9 a7 3e b8 b7
       -7.795345e-06 -2.2645737e-07 -0.0002911221 -2.1963684e-05
000080 c7 8f 59 b9 00 00 00 00 00 00 00 00 00 00 00 00
       -0.00020748294 0.0 0.0 0.0
000090 00 00 00 00 4e 55 37 37 b9 0b a4 b3 7f 4d 8e b8
       0.0 1.09275115e-05 -7.6389775e-08 -6.7855224e-05
0000a0 00 00 00 00 69 13 38 b8 0d 43 3d b6 00 00 00 00
       0.0 -4.3887096e-05 -2.8202223e-06 0.0
0000b0 8e 8d aa b8 ca c9 99 b9 a5 21 e0 b7 00 00 00 00
       -8.132598e-05 -0.0002933278 -2.6718548e-05 0.0
0000c0 7d 6f dd b7 a2 c9 b8 38 90 2d cf b6 68 b3 0b b3
       -2.6397169e-05 8.811361e-05 -6.174385e-06 -3.252663e-08
0000d0 00 00 00 00 4b 7e 45 b4 15 9f e7 b7 00 00 00 00
       0.0 -1.8393e-07 -2.7611424e-05 0.0
0000e0 00 00 00 00 4c 15 89 b7 81 6d ea b8 15 fd c1 b8
       0.0 -1.634159e-05 -0.00011178386 -9.250097e-05
0000f0 7d 90 cf b7 91 f1 50 b8 50 f6 e0 b7 e1 c5 5b b7
       -2.4743606e-05 -4.981604e-05 -2.6817579e-05 -1.30994895e-05
000100 00 00 80 3f 00 00 80 3f 00 00 80 3f 00 00 80 3f
       1.0 1.0 1.0 1.0
000110 00 00 80 3f 00 00 80 3f 00 00 80 3f 00 00 80 3f
       1.0 1.0 1.0 1.0
000120 00 00 80 3f 00 00 80 3f 00 00 80 3f 00 00 80 3f
       1.0 1.0 1.0 1.0
000130 00 00 80 3f 00 00 80 3f 00 00 80 3f 00 00 80 3f
       1.0 1.0 1.0 1.0
000140 00 00 80 3f 00 00 80 3f 00 00 80 3f 00 00 80 3f
       1.0 1.0 1.0 1.0
000150 00 00 80 3f 00 00 80 3f 00 00 80 3f 00 00 80 3f
       1.0 1.0 1.0 1.0
000160 00 00 80 3f 00 00 80 3f 00 00 80 3f 00 00 80 3f
       1.0 1.0 1.0 1.0
000170 00 00 80 3f 00 00 80 3f 00 00 80 3f 00 00 80 3f
       1.0 1.0 1.0 1.0
000180 00 00 80 3f 00 00 80 3f 00 00 80 3f 00 00 80 3f
       1.0 1.0 1.0 1.0
000190 00 00 80 3f 00 00 80 3f 00 00 80 3f 00 00 80 3f
       1.0 1.0 1.0 1.0
0001a0 00 00 80 3f 00 00 80 3f 00 00 80 3f 00 00 80 3f
       1.0 1.0 1.0 1.0
0001b0 00 00 80 3f 00 00 80 3f 00 00 80 3f 00 00 80 3f
       1.0 1.0 1.0 1.0
0001c0 00 00 80 3f 00 00 80 3f 00 00 80 3f 00 00 80 3f
       1.0 1.0 1.0 1.0
0001d0 00 00 80 3f 00 00 80 3f 00 00 80 3f 00 00 80 3f
       1.0 1.0 1.0 1.0
0001e0 00 00 80 3f 00 00 80 3f 00 00 80 3f 00 00 80 3f
       1.0 1.0 1.0 1.0
0001f0 00 00 80 3f 00 00 80 3f 00 00 80 3f 00 00 80 3f
       1.0 1.0 1.0 1.0
000200 2c 50 b3 bb 4d 14 dd bb 40 e8 86 bb 00 00 00 00
       -0.0054722037 -0.006746805 -0.004117042 0.0
000210 00 00 00 00 72 80 20 3b 00 00 00 00 00 00 00 00
       0.0 0.0024490622 0.0 0.0
000220 1a cd b9 bb 00 00 00 00 00 00 00 00 67 95 c3 3b
       -0.005670202 0.0 0.0 0.005968738
000230 ac e5 45 3c 00 00 00 00 c8 07 89 bb 6b 7d 42 bb
       0.012078684 0.0 -0.004181836 -0.0029676806
000240 f1 d1 bf bb 9a 29 b4 bb d0 23 aa bb 00 00 00 00
       -0.0058538844 -0.0054981234 -0.0051922575 0.0
000250 c3 cb 8d bb 00 00 00 00 0b 07 c6 bb 16 87 ed bb
       -0.004327269 0.0 -0.00604332 -0.0072487695
000260 00 00 00 00 94 43 b4 bb 00 00 00 00 00 00 00 00
       0.0 -0.00550122 0.0 0.0
000270 c6 b1 ad bb 77 33 5e bb f9 ae 26 3b c6 af dd bb
       -0.0053007333 -0.0033905187 0.0025433882 -0.0067653386
000280 16 0f 3a b9 00 00 00 00 00 00 00 00 00 00 00 00
       -0.00017743962 0.0 0.0 0.0
000290 00 00 00 00 ef fa 2a 3b dd 7d 36 ba d9 e0 69 bb
       0.0 0.002608951 -0.0006961504 -0.0035686998
0002a0 00 00 00 00 fe f7 96 bb ed 45 97 bb 00 00 00 00
       0.0 -0.0046071997 -0.00461649 0.0
0002b0 86 7e be bb d1 4c d6 b9 ea 45 be bb 00 00 00 00
       -0.0058134226 -0.00040874493 -0.0058066742 0.0
0002c0 98 b3 d3 bb 13 6f 89 3b 4a f6 b8 bb 12 67 e3 ba
       -0.006460618 0.0041941493 -0.0056445943 -0.0017349443
0002d0 00 00 00 00 6c 8c 8d ba ef be a6 3b 00 00 00 00
       0.0 -0.0010799295 0.005088679 0.0
0002e0 00 00 00 00 32 2c 89 39 b4 6e fc 3a f3 26 85 bb
       0.0 0.00026163604 0.0019259066 -0.004063481
0002f0 80 9d 05 bc b1 99 ba bb 6f 0e c1 bb 54 a6 c3 bb
       -0.008155227 -0.005694591 -0.005891613 -0.0059707556
000300 bb c1 3a b7 72 b2 fe b8 c4 19 9c b5 00 00 00 00
       -1.113157e-05 -0.00012144902 -1.1630405e-06 0.0
000310 00 00 00 00 db 2f b1 b8 00 00 00 00 00 00 00 00
       0.0 -8.4489315e-05 0.0 0.0
000320 2d ba 67 b9 00 00 00 00 00 00 00 00 32 87 60 b7
       -0.00022099233 0.0 0.0 -1.3382918e-05
000330 23 2c 5d b6 00 00 00 00 61 7e 49 b9 b0 3a 2b b9
       -3.2957257e-06 0.0 -0.00019215934 -0.00016329694
000340 d2 d8 66 b8 66 ff 69 b6 23 cb 2a b9 00 00 00 00
       -5.5038203e-05 -3.4868367e-06 -0.00016288138 0.0
000350 58 81 e5 b8 00 00 00 00 91 57 b5 b8 77 e6 81 b9
       -0.00010943663 0.0 -8.647063e-05 -0.00024776507
000360 00 00 00 00 34 a8 ca b6 00 00 00 00 00 00 00 00
       0.0 -6.0396505e-06 0.0 0.0
000370 42 ba 02 b7 c7 eb 72 b4 a3 3b 98 b9 65 5a b8 b7
       -7.79197e-06 -2.2623782e-07 -0.00029036132 -2.1976603e-05
000380 61 8c 59 b9 00 00 00 00 00 00 00 00 00 00 00 00
       -0.00020747028 0.0 0.0 0.0
000390 00 00 00 00 88 ec 37 37 fa 64 a4 b3 f6 4a 8e b8
       0.0 1.0962722e-05 -7.6552126e-08 -6.78505e-05
0003a0 00 00 00 00 41 35 38 b8 ed 0a 3d b6 00 00 00 00
       0.0 -4.3918615e-05 -2.8169554e-06 0.0
0003b0 5b a3 aa b8 22 d4 99 b9 86 0b e0 b7 00 00 00 00
       -8.136659e-05 -0.00029340485 -2.6708247e-05 0.0
0003c0 0e 7d dd b7 a2 25 ba 38 85 51 cf b6 d4 b1 0b b3
       -2.6403486e-05 8.876181e-05 -6.178571e-06 -3.2525193e-08
0003d0 00 00 00 00 92 23 45 b4 b8 aa e7 b7 00 00 00 00
       0.0 -1.8359995e-07 -2.7616843e-05 0.0
0003e0 00 00 00 00 62 09 89 b7 f8 79 e9 b8 82 0a c2 b8
       0.0 -1.6336042e-05 -0.00011133024 -9.252598e-05
0003f0 38 b9 cf b7 c6 b7 50 b8 77 25 e1 b7 1f a7 5b b7
       -2.4762572e-05 -4.9762217e-05 -2.6839536e-05 -1.3092328e-05

sequential_9/lstm_40/while/lstm_cell_4/MatMul_1 f4 [256, 64]
000000 c0 b1 03 3d c8 59 00 3e af 8b 40 3d ec bc 19 3d
       0.032151937 0.12534249 0.047008213 0.037533686
000010 c0 74 83 3b 77 f5 be 3d 47 f5 ae 3d f3 a2 c0 bd
       0.0040117204 0.093241625 0.08542877 -0.0940608
000020 0c 5f a0 bd e0 25 21 3d d0 e1 76 3d 2c d4 41 3d
       -0.07830629 0.03934276 0.060273945 0.047321483
000030 92 61 09 bd d5 96 42 3d dc 1c b7 3c b4 c8 fe bc
       -0.033540316 0.047507126 0.022352628 -0.031101562
000040 23 11 09 3e 18 6f 57 3d 01 43 3e 3d a0 da 2e 3c
       0.13385443 0.05259618 0.04645062 0.010672241
000050 a8 86 f6 3c f6 74 8f 3d 14 79 8f 3c a7 79 95 3d
       0.030093506 0.070047304 0.01751379 0.07298594
000060 ae 9a 2b 3d ae 8e b0 3d 93 97 4e bd 84 cc 2b 3d
       0.04189556 0.08620964 -0.05043752 0.04194309
000070 82 4e 35 bd 40 5b 4c 3c 14 fd f9 3b b8 eb 2e bd
       -0.044264324 0.012472928 0.007629046 -0.042705268
000080 b0 b8 03 3b 13 e1 c3 bc da 2d d0 bd f0 52 88 bc
       0.0020099096 -0.023911035 -0.101649955 -0.01664111
000090 70 96 b7 bd 46 fb 14 be ea e5 cc 3d 46 b9 a2 3c
       -0.089642406 -0.14548978 0.1000479 0.019863736
0000a0 02 4e 25 3d c6 f4 1a be 63 89 3e 3d 62 f4 3c bd
       0.040357597 -0.15132436 0.04651774 -0.0461315
0000b0 95 09 96 3d a0 53 4b 3b ef 86 87 bc 0f 9d a3 3c
       0.073260464 0.0031025186 -0.016543834 0.019972352
0000c0 3e a5 75 3d 58 dc 24 bd 1a e2 9f 3c de a1 db bc
       0.05997204 -0.0402492 0.019516993 -0.026810583
0000d0 58 8f bf 3d bc 96 de bd d0 a0 80 3d 31 59 80 bc
       0.093535125 -0.10868594 0.062806726 -0.01566753
0000e0 20 6a bc bc 48 47 87 3b 08 30 be 3d 54 f3 68 bc
       -0.022999823 0.0041283704 0.09286505 -0.01421817
0000f0 8c f7 10 3c e4 cf 91 3d 04 c7 c0 3c d8 d6 2c 3c
       0.008848082 0.0711973 0.023532398 0.01054927
000100 9f 42 1d 3d 20 18 0f bd f6 25 03 3d 7c 59 7e bd
       0.038393613 -0.034935117 0.032018624 -0.062097058
000110 1a 73 dc 3b 6a ab fc bc c6 d6 4f 3d 50 23 81 3d
       0.0067275884 -0.030843455 0.050741933 0.063055634
000120 cb 31 73 bd 5a 91 41 bd c1 03 0e 3d 71 cd fa 3d
       -0.05937366 -0.04725776 0.03467155 0.12246216
000130 48 61 a1 3d 0c ce a6 bd eb bc 43 3d bc 49 25 3c
       0.07879883 -0.08144769 0.047787588 0.01008838
000140 4b bb 9b 3d 03 34 a4 bd c4 ec 35 3c 54 0b 2e bd
       0.07604083 -0.08017733 0.011103813 -0.042491272
000150 41 23 31 bd d7 34 06 3e 8f 1b bc bb 54 2e f0 ba
       -0.04324651 0.13106094 -0.00574059 -0.0018324354
000160 83 58 67 bd 58 dc 81 3c 91 fc 64 bd 6a 6a a9 3d
       -0.056480896 0.015852138 -0.05590493 0.0827225
000170 73 7a 62 bd bb 3d 02 3d 8c d6 e9 3d 1f ef 5c 3c
       -0.055292558 0.031797152 0.11417875 0.013484745
000180 6f 8b 53 bd 85 ec 14 be 94 1c 9d 3d 6d 45 54 3d
       -0.051646646 -0.1454335 0.076714665 0.051824022
000190 6b 55 17 3c 1a 4f e0 bc 3e 02 11 be 53 ae 9e 3c
       0.009236674 -0.027381469 -0.14161012 0.019370234
0001a0 c1 49 c6 bc 4f 59 44 bd 3f c2 2b be dd ee 58 3d
       -0.02420509 -0.047936734 -0.16773318 0.052962173
0001b0 18 0f 2c bd d8 e3 8e bd 28 55 3d 3d d8 b6 92 3d
       -0.042006582 -0.069770515 0.04622379 0.07163781
0001c0 99 7b 78 3d 61 e0 7c 3d b2 c1 72 bc 92 9c 5c 3d
       0.060664747 0.061737422 -0.014816688 0.053860255
0001d0 c9 d5 dc 3c 8b d7 9a bc 86 20 00 bd a0 d1 1e 3c
       0.02695741 -0.018901607 -0.031281017 0.009693533
0001e0 0b 6f a5 3d 0a 89 3e 3d 8d 48 9f 3c 2e 43 45 bd
       0.080778204 0.04651741 0.019443775 -0.04815977
0001f0 7a a2 80 3d e2 87 8c bb 4a c1 d4 bc 06 7a 99 3a
       0.0628099 -0.0042886594 -0.025971074 0.001170934
000200 a8 4b 30 bd e3 ba 9f 3c 00 9d ec 3b bc 94 b1 3d
       -0.0430409 0.019498294 0.0072208643 0.08670947
000210 7e 9c 9f 3d ed 8d d0 bd 75 64 33 3c 48 fc ff bc
       0.077935204 -0.1018332 0.010949244 -0.031248227
000220 3e d4 d2 bc be f0 e0 3d 20 5b 05 bc 10 80 8a 3a
       -0.02573597 0.10983418 -0.008139402 0.001056673
000230 3f 20 2a 3d 87 a4 94 bb d9 21 12 bd b6 4d 74 bc
       0.04153466 -0.0045362148 -0.03567681 -0.014911106
000240 4d 6e 8c bd 8b e7 13 3c 24 30 0a 3d a6 0e a2 bc
       -0.06856976 0.009027372 0.033737317 -0.019782376
000250 dc a1 c6 bd d2 79 e3 3b a3 67 96 3d 9d 10 cc 3d
       -0.09698841 0.0069420123 0.07343986 0.09964106
000260 c1 e4 87 bd 27 4b 3f 3d e7 06 31 bd bf e2 9b 3c
       -0.06635428 0.04670253 -0.043219473 0.01902902
000270 24 80 37 3d 75 c8 2a 3d 84 1a 8d bb ea da 5d 3d
       0.04479994 0.041695077 -0.0043061394 0.05416385
000280 10 1d b4 3b 6d 44 8c 3d 28 c1 82 3d a5 e4 ad bd
       0.0054966286 0.06848989 0.06384498 -0.08490876
000290 34 81 26 bd 90 f4 11 be 0d 12 9d 3d cc 9e a4 3d
       -0.04065056 -0.1425345 0.076694585 0.080381006
0002a0 b0 ea 63 3d 50 c5 fe 3c 30 29 b2 ba 0c 11 53 3c
       0.055643737 0.031099945 -0.0013592597 0.012882482
0002b0 bc cb 20 bd 0a c7 32 bd 24 ba ea 3c 16 0c 01 3c
       -0.039256796 -0.04364685 0.028653212 0.007876417
0002c0 c8 a0 97 bd 97 4b 7c 3c 50 a1 3a bd e2 3c 78 3d
       -0.074037135 0.015398881 -0.045563996 0.060604937
0002d0 10 c6 a9 bd 8d 6c 94 3d ba 0d 7d 3c 69 6f 2f bd
       -0.082897305 0.07247267 0.015445167 -0.04283086
0002e0 3d cf a5 bd 07 fa c4 bc 5a a5 4d 3d d5 fe 65 3d
       -0.08096168 -0.024045004 0.05020652 0.05615123
0002f0 25 fb e4 bc 2f e3 f7 3c fc 49 cf 3d f8 f5 a8 bd
       -0.027951786 0.030259697 0.10121533 -0.0825004
000300 4c 75 16 3e 58 b2 58 bd f1 39 45 bc 80 3d b1 bc
       0.14693183 -0.052904457 -0.01203774 -0.02163577
000310 1c 4d 78 3d 5b 80 02 3d fc 7b 82 3d b5 f8 2a bd
       0.060620412 0.03186069 0.063713044 -0.04174109
000320 58 00 17 3e 4a bf 28 bd f2 99 a2 3c 13 cd 3d bc
       0.14746225 -0.041198052 0.019848797 -0.011584538
000330 44 79 fe ba f6 23 63 bd 86 b1 3d bb e6 71 77 bd
       -0.0019414802 -0.055454217 -0.0028944924 -0.060411356
000340 f4 98 2b 3d ad 83 3c bd a3 ba 54 bd 66 ec 2a 3d
       0.041893914 -0.046024013 -0.051935803 0.041729353
000350 63 58 29 3d 24 25 ee 3b fa 9b 38 3d e4 2c 23 be
       0.041344058 0.007267611 0.045070626 -0.15935093
000360 be d5 6a bd 48 a8 94 bc fa c4 77 bc 10 51 36 3d
       -0.057332747 -0.018146649 -0.0151226465 0.0445109
000370 67 5d 89 3d c4 5a 8a bd c1 23 38 be 90 3f 45 bd
       0.06707268 -0.067555934 -0.17982389 -0.04815632
000380 f5 4a b6 bc 90 fb 6b 3d f8 83 95 bc 31 04 a0 3d
       -0.02225254 0.057612956 -0.018251404 0.078132994
000390 cb a9 0b 3d 8d 95 16 bd f8 2a 2b 3d 00 0e 3c 3e
       0.034097474 -0.036763716 0.041789025 0.18364716
0003a0 f9 46 7f 3d f8 3b 9c 3d 38 09 a9 3b bf 61 83 3d
       0.062323544 0.07628626 0.0051585697 0.06415128
0003b0 e4 f4 d5 3b a0 e2 f4 3d 57 81 14 3d ad 76 63 3c
       0.0065294374 0.11957288 0.03625616 0.013883275
0003c0 cb f5 be bd 3d 9e 10 3d 77 97 6b bd 42 73 bd bd
       -0.09324225 0.035307158 -0.057517495 -0.09250499
0003d0 e0 07 09 3d 18 d0 00 3d f3 d8 71 bc 9d ef cf bb
       0.033454776 0.031448454 -0.014761197 -0.006345703
0003e0 71 36 04 3d 0e e5 08 3d 1a fc 46 bd 98 83 eb bc
       0.032278482 0.03342157 -0.048580267 -0.028749272
0003f0 da 03 27 bd 54 e2 e5 3c 38 f6 34 bd c2 51 28 bc
       -0.040775158 0.028062023 -0.044180125 -0.010273399

sequential_9/lstm_40/while/lstm_cell_4/MatMul f4 [256, 3]
000000 61 9d 00 be 05 f2 05 3d 43 84 78 3d 9c a1 c6 3d
       -0.12560035 0.03270151 0.06067301 0.09698793
000010 45 23 84 bd 61 43 10 3c ec 19 83 3c d9 73 04 be
       -0.0645204 0.008805127 0.016003571 -0.12934817
000020 dd 33 45 3c c4 87 02 3e 80 a9 29 3b 60 dc d9 3b
       0.012036291 0.12747103 0.0025888383 0.006648585
000030 b3 01 06 be 68 ce c9 3c 50 53 11 3d d3 d2 b0 bd
       -0.13086586 0.024634555 0.035479844 -0.086339615
000040 c9 44 00 3e 25 f6 cb 3c a3 b9 c6 bd c6 ed bc 3d
       0.1252624 0.024897644 -0.09703376 0.09225039
000050 f8 b4 8e 3c a6 3a 96 3d e0 b6 7d 3d ac 3c 79 bd
       0.017420277 0.07335405 0.06194198 -0.060848877
000060 49 05 18 3e a2 ff 20 3d 1e d8 d2 3d 90 8a 7a 3d
       0.14845766 0.03930629 0.10295127 0.0611673
000070 f8 6f 79 3d 78 05 c6 3c 84 48 59 3d 00 12 5e 3b
       0.060897797 0.02417253 0.053047672 0.003388524
000080 60 40 00 bc 81 27 56 bd 39 2b 67 bd 9f 6e 47 3d
       -0.007827848 -0.052283768 -0.056437705 0.04868948
000090 a0 5a a1 bb fd fc ee 3d 83 92 a9 3d ac 6c a2 3d
       -0.0049241334 0.116693474 0.08279898 0.07930884
0000a0 b9 89 0a be 70 d2 07 be b7 c6 c4 bc f8 cf 78 3c
       -0.135291 -0.1326387 -0.024020536 0.015186302
0000b0 be 52 fc bd af 77 2a bd 97 1b 13 be 19 13 bf 3d
       -0.12320469 -0.041618045 -0.14365993 0.093298145
0000c0 e9 20 cd 3d 33 56 5e 3d 48 12 f8 bd e4 3b 90 bd
       0.10016043 0.054281425 -0.12112862 -0.07042673
0000d0 e4 1e 03 3d e5 c1 12 be e4 51 08 be ce 8f 74 3d
       0.03201188 -0.14331777 -0.13312489 0.059707455
0000e0 0a 70 a9 3d 1e e5 31 bd 68 6a f6 bd d6 63 f5 bd
       0.08273323 -0.043431394 -0.12032014 -0.11981933
0000f0 e5 81 18 bb 67 50 fe bd a7 4f 5c bd 00 c2 bf 39
       -0.0023270783 -0.12417679 -0.0537869 0.000365749
000100 12 ed 06 3e a0 a7 a0 3c 56 2e e6 3d fa 77 4f bd
       0.13176373 0.01961118 0.11239307 -0.050651528
000110 f4 c0 43 3d ad 5e a1 3c 22 78 10 be 0b 3a 6f 3c
       0.047791436 0.019698465 -0.14108327 0.014601241
000120 23 66 b6 bd bc 2f 6f bd 8e fe b1 3d 07 de ce 3d
       -0.089062 -0.058395132 0.086911306 0.10100942
000130 f3 cd f0 bc da b0 16 3e 14 29 01 3d 30 81 11 3e
       -0.02939508 0.14715901 0.031533316 0.14209437
000140 4a fc ac 3d 23 46 a3 bd ce 4a 9e 3d c2 58 75 bd
       0.08446558 -0.07972362 0.077291116 -0.0598991
000150 2b 21 21 bd 83 70 df 3d c7 1a e5 bc bb 86 a9 bd
       -0.039338272 0.10910132 -0.02796687 -0.08277651
000160 42 d5 c3 3d 90 98 06 be 31 d3 d9 3d 4c 72 b6 3c
       0.0956216 -0.13144135 0.10635985 0.022271298
000170 b7 19 f9 bd 3e c5 bf 3d fa 65 0f 3e df d6 09 be
       -0.12163108 0.09363793 0.14003745 -0.13460873
000180 41 b5 b5 bc d6 55 0f 3d f8 d7 13 3e 00 65 a8 3b
       -0.022181155 0.03499397 0.14437854 0.0051389933
000190 cf a9 19 be 70 db f6 bd 50 d8 2e bd fa b5 c5 bd
       -0.15006183 -0.12053573 -0.04268676 -0.0965385
0001a0 38 e7 bc 3c a4 68 e6 bc 90 90 47 3d 14 9e 4d bd
       0.023059472 -0.028126068 0.04872185 -0.050199583
0001b0 34 72 7f 3d 18 a2 2a bd 08 fc b6 bc 02 a0 53 3d
       0.062364772 -0.04165849 -0.022336975 0.051666267
0001c0 33 dd b0 3a 23 4e df 3c 4c 0b 3a 3d 1f cb c6 bd
       0.0013493657 0.027258938 0.04542093 -0.09706711
0001d0 ea cd 0f 3e 00 24 7a 3d b0 ea 70 3d ad 86 fc 3d
       0.14043394 0.06106949 0.058817565 0.12330375
0001e0 a0 aa d0 3c 33 b2 d4 bd 19 53 96 bd e0 da be 3d
       0.025471985 -0.10385551 -0.07340068 0.09319091
0001f0 41 e5 07 3e bd 6e 10 3e fc 7e 9c bd dc 85 ba bd
       0.13271047 0.14104743 -0.07641408 -0.09107563
000200 20 d8 a1 3d 90 be fc 3d f0 29 7d 3d 79 fa 84 bd
       0.07902551 0.123410344 0.061807573 -0.06493086
000210 77 03 83 3c fc 5d 7e bd 77 62 bc 3d d9 78 f9 bd
       0.015992863 -0.06210135 0.09198468 -0.12181253
000220 b4 1d f1 bd 8a 5c 00 be ae 0d d2 bd da 93 37 bd
       -0.117732435 -0.12535301 -0.102565154 -0.044818737
000230 ec 02 ef 3c 04 4b 3e 3d d0 d4 de bc 88 c6 6f 3d
       0.029176198 0.04645826 -0.027201086 0.058538944
000240 e4 4f dc 3d 37 14 e5 3d 33 5d 21 3c b0 eb 61 3d
       0.107574254 0.11185496 0.009848881 0.05515641
000250 f3 c9 86 3d 37 9e fc bd 41 a9 95 3d 37 02 d2 3b
       0.065814875 -0.123348646 0.07307673 0.0064089554
000260 68 23 92 3d 87 c3 84 bd b4 92 b7 3d 99 d2 8f bd
       0.071356595 -0.064826064 0.08963528 -0.0702259
000270 b0 9a 78 3d 58 1a e8 3c a0 1e 50 bd 56 cd 05 bd
       0.060694396 0.028332874 -0.050810456 -0.032666527
000280 40 63 ca 3d 85 15 8c bd 34 64 c0 3c 17 4b 53 bd
       0.09882212 -0.06840042 0.02348528 -0.051585283
000290 29 4b 71 3d c8 e1 a2 3c 70 58 18 3c bc e8 16 3d
       0.05890957 0.019883052 0.009298429 0.036843047
0002a0 82 03 51 bd d2 61 90 bd db 66 9a bd 91 21 a9 bc
       -0.051028736 -0.07049908 -0.075391494 -0.020645889
0002b0 8f 65 9e bd 4d 73 20 bd 9e 65 69 bc 9d 29 7c 3b
       -0.077342145 -0.03917246 -0.014245419 0.0038476952
0002c0 e3 c5 03 3e 5e 3f 6b bd 3e 41 aa bd d0 3d bb 3d
       0.12868457 -0.05743348 -0.08313225 0.09142649
0002d0 a4 b6 54 3c 83 3b 38 bd 59 f4 0d 3b 35 e2 c4 bd
       0.012982998 -0.04497863 0.0021660535 -0.09613458
0002e0 dd 07 15 be 67 ce d3 bc 68 ff 61 bd 21 c3 ba 3c
       -0.14553781 -0.025855256 -0.055175215 0.022798123
0002f0 a6 b8 14 3e c0 ad 83 bc 30 8b 08 3c 15 88 0f bd
       0.14523563 -0.016074061 0.008333966 -0.035041887
000300 42 b0 fd bd 86 41 e9 bd c8 bc 25 3d fd 03 13 be
       -0.12387134 -0.11389451 0.04046324 -0.1435699
000310 7f 9b aa bd 1f 4f 93 bd 40 9d d2 3d 4e c2 f9 bd
       -0.0833044 -0.071928255 0.10283899 -0.12195264
000320 f4 24 95 bd a6 2e 5b bd 08 be 56 3d 2c ea 3b bd
       -0.07282439 -0.053511284 0.05242732 -0.04587762
000330 f4 4a e5 bd d4 ab 59 3d a3 92 0d be 80 a8 a0 3b
       -0.11195937 0.053142384 -0.13825469 0.0049028993
000340 80 8e 34 bc d2 72 b8 bd 74 19 09 3d 4c f1 11 3d
       -0.011020303 -0.09006275 0.03347154 0.03563051
000350 e0 46 17 3d 10 11 10 3d 66 03 63 bd 8d de fb bd
       0.036932826 0.035172522 -0.055423163 -0.122983076
000360 b6 41 04 3e d8 9b fa 3c f0 17 34 3c 7e b5 95 3d
       0.12915692 0.03059189 0.010992035 0.073100075
000370 c0 37 0f 3d 58 e8 b1 3c 75 84 08 be 02 ba af 3d
       0.034965277 0.021717235 -0.13331778 0.085804
000380 18 f1 0f bd e0 64 00 be 08 3b 47 bd 7f 05 94 bd
       -0.035142034 -0.12538481 -0.04864028 -0.07227611
000390 d0 c6 93 3d 1c 5a 04 3e 7c 01 15 3d 50 b3 1d 3d
       0.07215655 0.12924999 0.03637837 0.038501084
0003a0 e8 47 54 bd 40 92 01 3c ea c2 c2 3d 18 e8 03 3e
       -0.051826388 0.007908404 0.09509833 0.12881505
0003b0 73 4c 15 be 44 0f e7 3d 5c b4 da 3d 83 55 fb bd
       -0.14579944 0.112822086 0.10678932 -0.122721694
0003c0 56 ff bf 3d 78 51 2a 3d 7c 2a ce 3d 27 29 14 be
       0.09374873 0.0415816 0.10066697 -0.14468823
0003d0 13 a2 cd bd fc 74 00 bd a7 15 8c bd cc 11 07 bd
       -0.10040679 -0.031361565 -0.06840067 -0.032975957
0003e0 8a 84 7d bd 7c 6c 8c bd 8a b4 f2 bd c4 79 6c bd
       -0.061893977 -0.06856629 -0.11850841 -0.057733312
0003f0 00 c1 a5 bc 80 3a 1d bb e6 1d 82 bd 6a b9 8b 3d
       -0.020233631 -0.0023991168 -0.06353359 0.06822474

lstm_41/lstm_cell_5/bias1 f4 [128]
000000 db 2b 53 bb b9 e7 12 b9 b2 36 89 b4 55 cf 96 b6
       -0.0032222185 -0.00014009968 -2.5558035e-07 -4.494485e-06
000010 33 a8 1a b4 39 0b 59 b8 91 60 b7 b8 22 01 dd ba
       -1.4403558e-07 -5.1747284e-05 -8.744107e-05 -0.00168613
000020 00 00 00 00 80 fa 93 ba d6 7e 2e bb 31 cf c0 b7
       0.0 -0.0011289865 -0.0026625893 -2.2984665e-05
000030 c8 09 13 b8 00 00 00 00 85 c8 23 b2 a4 33 58 b7
       -3.505664e-05 0.0 -9.533442e-09 -1.2886627e-05
000040 7d 51 61 bb 00 00 00 00 c4 74 2f b5 c3 c7 f9 b7
       -0.0034380846 0.0 -6.5362497e-07 -2.9776134e-05
000050 28 2e 35 b8 bd 2e 3e b9 3d 2a a8 ba 5d 74 a3 b5
       -4.319675e-05 -0.00018137223 -0.0012829971 -1.2178313e-06
000060 00 00 00 00 25 65 ae b7 2f f4 a4 b6 6a 8b 05 b7
       0.0 -2.0789515e-05 -4.9160076e-06 -7.959878e-06
000070 99 ab 64 ba 52 ce 52 ba 39 b2 83 ba 37 f8 6c b6
       -0.000872308 -0.00080416084 -0.0010047621 -3.531122e-06
000080 00 00 80 3f 00 00 80 3f 00 00 80 3f 00 00 80 3f
       1.0 1.0 1.0 1.0
000090 00 00 80 3f 00 00 80 3f 00 00 80 3f 00 00 80 3f
       1.0 1.0 1.0 1.0
0000a0 00 00 80 3f 00 00 80 3f 00 00 80 3f 00 00 80 3f
       1.0 1.0 1.0 1.0
0000b0 00 00 80 3f 00 00 80 3f 00 00 80 3f 00 00 80 3f
       1.0 1.0 1.0 1.0
0000c0 00 00 80 3f 00 00 80 3f 00 00 80 3f 00 00 80 3f
       1.0 1.0 1.0 1.0
0000d0 00 00 80 3f 00 00 80 3f 00 00 80 3f 00 00 80 3f
       1.0 1.0 1.0 1.0
0000e0 00 00 80 3f 00 00 80 3f 00 00 80 3f 00 00 80 3f
       1.0 1.0 1.0 1.0
0000f0 00 00 80 3f 00 00 80 3f 00 00 80 3f 00 00 80 3f
       1.0 1.0 1.0 1.0
000100 50 30 36 3b d2 c4 90 bb 28 4b 96 bb d7 dc c2 bb
       0.0027799793 -0.004417994 -0.004586596 -0.0059467363
000110 93 6f 88 bb 12 97 c2 bb de 78 c3 bb 07 94 41 bb
       -0.0041636913 -0.005938419 -0.005965336 -0.0029537694
000120 00 00 00 00 a7 4f ae 3b e7 9d 52 ba cc cd c1 bb
       0.0 0.005319554 -0.00080343935 -0.0059144255
000130 42 a7 c2 bb 00 00 00 00 25 87 74 bb f3 25 c2 bb
       -0.005940349 0.0 -0.0037311998 -0.005924934
000140 fb 65 1f 3b 00 00 00 00 40 4e a0 bb ec ce c2 bb
       0.002432226 0.0 -0.0048921406 -0.005945077
000150 24 7c c3 bb 12 5d a9 bb 54 d3 d1 3b 7a 49 a2 bb
       -0.0059657265 -0.0051685655 0.006403366 -0.0049526067
000160 00 00 00 00 07 d7 c1 bb 9e 1e b1 bb d3 c1 ac bb
       0.0 -0.005915526 -0.005405261 -0.005272129
000170 2e 27 03 bb 9f c8 c8 bb 1c be 0e bc a2 ec b9 bb
       -0.0020012367 -0.0061274315 -0.008712318 -0.005673961
000180 a8 1a 53 bb 4f e1 12 b9 69 42 89 b4 59 cb 96 b6
       -0.0032211933 -0.00014007579 -2.5566558e-07 -4.494021e-06
000190 94 a1 1a b4 59 0e 59 b8 0e 61 b7 b8 91 f5 dc ba
       -1.440115e-07 -5.1750194e-05 -8.744198e-05 -0.0016857852
0001a0 00 00 00 00 11 26 94 ba e5 89 2e bb 0e ce c0 b7
       0.0 -0.0011302849 -0.0026632485 -2.2984135e-05
0001b0 86 0c 13 b8 00 00 00 00 60 d1 23 b2 ec 38 58 b7
       -3.5059194e-05 0.0 -9.535455e-09 -1.2887856e-05
0001c0 15 5c 61 bb 00 00 00 00 7b 69 2f b5 2c c2 f9 b7
       -0.003438716 0.0 -6.5346075e-07 -2.9773531e-05
0001d0 ae 2d 35 b8 45 31 3e b9 e2 1f a8 ba ef 81 a3 b5
       -4.3196305e-05 -0.00018138166 -0.0012826885 -1.2182262e-06
0001e0 00 00 00 00 b4 68 ae b7 81 ec a4 b6 7b 92 05 b7
       0.0 -2.0791173e-05 -4.9151135e-06 -7.961523e-06
0001f0 04 a1 64 ba 3f d1 52 ba ee b3 83 ba 09 f7 6c b6
       -0.0008721503 -0.00080420444 -0.001004813 -3.5310534e-06
