lstm989_ae_0802.tflite (tflite, 221676 bytes, 10 tensors)

time_distributed_5/bias f4 [4]
0.06280039 0.06520217 0.026918577 0.05488584
00000000: 7e9d 803d b788 853d 5984 dc3c f9cf 603d

lstm_34/lstm_cell_42/bias f4 [256]
0.09307199 0.09732009 0.039594144 0.03952169 0.046280738 0.053377658 0.09114066 0.117121235
0.083227046 0.07451431 0.08071876 0.060984127 0.068686604 0.05041061 0.047765862 0.05761529
0.08589798 0.09022574 0.031760655 0.1006821 0.07568603 0.06441324 0.045135137 0.03685902
0.051505953 0.06949847 0.054200295 0.06758466 0.05481374 0.043892976 0.036881577 0.05836859
0.03586816 0.066612914 0.09674575 0.035056937 0.07785811 0.05487146 0.04152032 0.05438078
0.033891495 0.04771943 0.06389677 0.057543192 0.07957968 0.0714281 0.067610085 0.0638727
0.0788495 0.0795646 0.044189338 0.04439394 0.05184872 0.07681185 0.080546 0.06399951
0.076676086 0.035045452 0.078011505 0.03195855 0.07554545 0.07094439 0.100464754 0.057874646
1.0 1.0 1.0 1.0 1.0 1.0 1.0 1.0
1.0 1.0 1.0 1.0 1.0 1.0 1.0 1.0
1.0 1.0 1.0 1.0 1.0 1.0 1.0 1.0
1.0 1.0 1.0 1.0 1.0 1.0 1.0 1.0
1.0 1.0 1.0 1.0 1.0 1.0 1.0 1.0
1.0 1.0 1.0 1.0 1.0 1.0 1.0 1.0
1.0 1.0 1.0 1.0 1.0 1.0 1.0 1.0
1.0 1.0 1.0 1.0 1.0 1.0 1.0 1.0
-0.012600403 0.027068732 0.03778302 -0.04381756 0.021289513 0.03824909 0.031726193 -0.04424925
-0.021629637 0.04567663 -0.026703313 0.030870749 -0.028442131 -0.037417293 -0.030804988 0.046979327
0.026726916 -0.0003388574 0.032314792 -0.048275188 -0.009810925 0.016636439 -0.03349265 -0.0016286776
-0.025060594 -0.047323737 -0.032828327 0.0055274917 0.04015665 -0.020152867 0.027552212 0.02522606
-0.040970966 -0.04532111 0.032542173 0.027226165 0.031413093 0.035816263 -0.031362634 -0.044860385
-0.02992679 0.022306995 -0.044255756 0.0046283407 -0.05102801 -0.030522246 -0.050262995 -0.055579364
0.061408326 0.053843364 -0.047064517 0.02623807 -0.019901106 -0.024299396 -0.049587734 -0.019562664
-0.015219228 0.032933876 0.04595971 -0.029328056 -0.02765416 -0.021130001 0.02786273 0.021975199
0.091916226 0.09835364 0.039612517 0.03913782 0.046637435 0.053202495 0.09234119 0.11330587
0.08422478 0.07523318 0.08008814 0.059855297 0.06859494 0.051319305 0.049985312 0.057507027
0.08661051 0.089181826 0.03179825 0.102593705 0.07626123 0.066944964 0.04432628 0.038231924
0.05260951 0.06882 0.05503937 0.06694961 0.056798443 0.04400445 0.036888577 0.057419173
0.03419623 0.06790633 0.09497738 0.035074446 0.07961232 0.05515857 0.04121006 0.05397206
0.034107365 0.04838146 0.065920234 0.05887197 0.0808439 0.072179936 0.06810876 0.06530879
0.07745586 0.078666136 0.046723768 0.044088215 0.050257057 0.075393714 0.081279606 0.064742856
0.07624147 0.034523286 0.07875985 0.032883823 0.07506467 0.0711689 0.1012626 0.057952642
00000000: 879c be3d c14f c73d 782d 223d 7fe1 213d
00000010: df90 3d3d 88a2 5a3d f4a7 ba3d 42dd ef3d
00000020: f172 aa3d f59a 983d e14f a53d 7eca 793d
00000030: 90ab 8c3d 5b7b 4e3d 23a6 433d 03fe 6b3d
00000040: 48eb af3d 46c8 b83d 7617 023d 6b32 ce3d
00000050: 4701 9b3d 17eb 833d 9fdf 383d 7cf9 163d
00000060: e8f7 523d 3755 8e3d 2101 5e3d d469 8a3d
00000070: 5f84 603d 1fc9 333d 2311 173d e713 6f3d
00000080: 7eea 123d 5a6c 883d a322 c63d dd97 0f3d
00000090: 1374 9f3d e5c0 603d 3611 2a3d 61be 5e3d
000000a0: cfd1 0a3d 7375 433d 4fdc 823d 69b2 6b3d
000000b0: acfa a23d e548 923d 2877 8a3d b1cf 823d
000000c0: d97b a13d c4f2 a23d e1ff 343d 6cd6 353d
000000d0: 535f 543d 884f 9d3d 4df5 a43d 2d12 833d
000000e0: 5a08 9d3d d28b 0f3d 7fc4 9f3d f8e6 023d
000000f0: 93b7 9a3d 4b4b 913d 77c0 cd3d f70d 6d3d
00000100: 0000 803f 0000 803f 0000 803f 0000 803f
00000110: 0000 803f 0000 803f 0000 803f 0000 803f
00000120: 0000 803f 0000 803f 0000 803f 0000 803f
00000130: 0000 803f 0000 803f 0000 803f 0000 803f
00000140: 0000 803f 0000 803f 0000 803f 0000 803f
00000150: 0000 803f 0000 803f 0000 803f 0000 803f
00000160: 0000 803f 0000 803f 0000 803f 0000 803f
00000170: 0000 803f 0000 803f 0000 803f 0000 803f
00000180: 0000 803f 0000 803f 0000 803f 0000 803f
00000190: 0000 803f 0000 803f 0000 803f 0000 803f
000001a0: 0000 803f 0000 803f 0000 803f 0000 803f
000001b0: 0000 803f 0000 803f 0000 803f 0000 803f
000001c0: 0000 803f 0000 803f 0000 803f 0000 803f
000001d0: 0000 803f 0000 803f 0000 803f 0000 803f
000001e0: 0000 803f 0000 803f 0000 803f 0000 803f
000001f0: 0000 803f 0000 803f 0000 803f 0000 803f
00000200: ec71 4ebc 3fbf dd3c 5ec2 1a3d 0b7a 33bd
00000210: 5867 ae3c 14ab 1c3d 53f3 013d b43e 35bd
00000220: a330 b1bc 6b17 3b3d e8c0 dabc a7e4 fc3c
00000230: 79ff e8bc e042 19bd be5a fcbc 656d 403d
00000240: 68f2 da3c aca8 b1b9 845c 043d 34bc 45bd
00000250: 01be 20bc 2449 883c 972f 09bd 5a79 d5ba
00000260: e04b cdbc 89d6 41bd ff76 06bd f61f b53b
00000270: 4d7b 243d a017 a5bc 2db5 e13c e2a6 ce3c
00000280: 2cd1 27bd a1a2 39bd f14a 053d 6809 df3c
00000290: 04ab 003d 13b4 123d 1b76 00bd 86bf 37bd
000002a0: 0729 f5bc 29bd b63c 8645 35bd 56a9 973b
000002b0: bf02 51bd ca09 fabc 92e0 4dbd 30a7 63bd
000002c0: 4c87 7b3d dc8a 5c3d b9c6 40bd 39f1 d63c
000002d0: a507 a3bc 870f c7bc 821c 4bbd e141 a0bc
000002e0: 125a 79bc ace5 063d 4040 3c3d 6441 f0bc
000002f0: fa8a e2bc d318 adbc 6140 e43c 5505 b43c
00000300: 933e bc3d a26d c93d bc40 223d fb4e 203d
00000310: e506 3f3d dcea 593d 611d bd3d e80c e83d
00000320: 0b7e ac3d da13 9a3d 4005 a43d d42a 753d
00000330: 817b 8c3d 3134 523d 66bd 4c3d 7d8c 6b3d
00000340: da60 b13d f6a4 b63d e23e 023d a61c d23d
00000350: d92e 9c3d 711a 893d 798f 353d 1499 1c3d
00000360: 127d 573d 80f1 8c3d f670 613d e11c 893d
00000370: 7ca5 683d 033e 343d 7a18 173d 5e30 6b3d
00000380: 5911 0c3d 7912 8b3d 8083 c23d 39aa 0f3d
00000390: c90b a33d f4ed 613d e1cb 283d cf11 5d3d
000003a0: 2ab4 0b3d a32b 463d 3001 873d bc23 713d
000003b0: 7d91 a53d 13d3 933d 9b7c 8b3d 9dc0 853d
000003c0: 2ea1 9e3d b61b a13d 6c61 3f3d d895 343d
000003d0: 58da 4d3d 0568 9a3d ec75 a63d e797 843d
000003e0: 7d24 9c3d 4a68 0d3d d84c a13d 30b1 063d
000003f0: 81bb 993d 00c1 913d c462 cf3d c05f 6d3d

lstm_33/lstm_cell_41/bias f4 [256]
0.5265677 0.031095484 0.055870607 0.06709352 0.0666302 0.027778417 0.088734485 0.048938613
0.05440033 0.045748707 0.2855839 0.04785375 0.09707716 0.0436487 0.35906944 0.046937544
0.112897165 0.25739017 0.03207254 0.051080838 0.119975016 0.06413586 0.09749319 0.08304664
0.09031655 0.13117532 0.03498376 0.035768364 0.14614232 0.05873252 0.044097487 0.13580756
0.060708076 0.05999789 0.07284941 0.034990884 0.06491493 0.056499097 0.058893494 0.04494377
0.041683637 0.04045942 0.027489685 0.05967273 0.06437711 0.05450492 0.11215878 0.15653794
0.014750733 0.054011356 0.03464335 0.036053352 0.23953582 0.09467718 0.043718997 0.06314103
0.07611671 0.080818176 0.054675564 0.48147097 0.15204829 0.04210801 0.041689757 0.11452756
1.0 1.0 1.0 1.0 1.0 1.0 1.0 1.0
1.0 1.0 1.0 1.0 1.0 1.0 1.0 1.0
1.0 1.0 1.0 1.0 1.0 1.0 1.0 1.0
1.0 1.0 1.0 1.0 1.0 1.0 1.0 1.0
1.0 1.0 1.0 1.0 1.0 1.0 1.0 1.0
1.0 1.0 1.0 1.0 1.0 1.0 1.0 1.0
1.0 1.0 1.0 1.0 1.0 1.0 1.0 1.0
1.0 1.0 1.0 1.0 1.0 1.0 1.0 1.0
0.022692015 -0.03176627 -0.0042974264 -0.042682946 -0.007717459 -0.050956156 -0.023106026 0.014922994
0.011933174 0.005045981 0.025257554 -0.0049957773 -0.031243721 0.0059557287 0.03666388 0.00064158277
-0.0052303527 0.032836292 -0.01461576 -0.00914128 0.023918249 -0.01897226 0.075708754 0.00031439398
-0.008920615 0.013935033 0.042182453 0.002052196 -0.019470256 -0.009461256 -0.0028357864 0.0049032844
0.00496726 -0.008748108 0.017367717 0.001959994 0.011790667 -0.012991743 0.012546004 -0.04252578
-0.012490527 0.007527909 -0.03828284 0.043694835 0.0020735003 0.0032689427 0.0060212677 -0.0006099209
0.03723023 0.023603592 -0.010444364 -0.0032201924 -0.044585936 -0.0052641225 0.007570316 -0.0005254403
-0.029477524 0.01466468 0.011723446 0.019084085 0.0040768418 -0.0019252638 0.00682431 0.008467124
0.52719605 0.024852555 0.05853278 0.06567878 0.060409736 0.028300062 0.087567955 0.04293202
0.056534473 0.049828954 0.28264648 0.052395318 0.1037471 0.039805718 0.35797426 0.047825035
0.11449671 0.25651 0.036182653 0.054485016 0.12120613 0.06247902 0.0948711 0.082679056
0.08628872 0.12792632 0.035927203 0.039724335 0.14737292 0.057753537 0.049968313 0.13712744
0.057790168 0.06282683 0.07667637 0.036024798 0.067011885 0.059780255 0.06264793 0.042841434
0.048233487 0.044755045 0.025727302 0.056534912 0.06740248 0.06238939 0.11363772 0.15640341
0.01424793 0.057489008 0.035865247 0.036935214 0.23517302 0.093454294 0.03827857 0.062839
0.078839675 0.0819848 0.053283002 0.48100275 0.14947249 0.043118354 0.045637116 0.11802614
00000000: 24cd 063f f5bb fe3c 94d8 643d 5468 893d
00000010: 6a75 883d 908f e33c 6dba b53d db73 483d
00000020: e1d2 5e3d ff62 3b3d 0e38 923e 4b02 443d
00000030: 64d0 c63d fbc8 323d f3d7 b73e 9541 403d
00000040: a136 e73d a5c8 833e 7f5e 033d 243a 513d
00000050: 76b5 f53d a959 833d 82aa c73d 5b14 aa3d
00000060: e2f7 b83d d352 063e 224b 0f3d d981 123d
00000070: 55a6 153e 8391 703d 919f 343d 2311 0b3e
00000080: 08a9 783d 59c0 753d 1232 953d 9a52 0f3d
00000090: 1ef2 843d 996b 673d 4e3a 713d f516 383d
000000a0: 76bc 2a3d c7b8 253d 0c32 e13c 646b 743d
000000b0: 25d8 833d 8d40 5f3d 81b3 e53d 7b4b 203e
000000c0: 0fad 713c 033b 5d3d 2fe6 0d3d aeac 133d
000000d0: e148 753e 1ce6 c13d b112 333d 1650 813d
000000e0: 14e3 9b3d 0084 a53d 7cf3 5f3d 5d83 f63e
000000f0: 8cb2 1b3e 7379 2c3d e1c2 2a3d 6d8d ea3d
00000100: 0000 803f 0000 803f 0000 803f 0000 803f
00000110: 0000 803f 0000 803f 0000 803f 0000 803f
00000120: 0000 803f 0000 803f 0000 803f 0000 803f
00000130: 0000 803f 0000 803f 0000 803f 0000 803f
00000140: 0000 803f 0000 803f 0000 803f 0000 803f
00000150: 0000 803f 0000 803f 0000 803f 0000 803f
00000160: 0000 803f 0000 803f 0000 803f 0000 803f
00000170: 0000 803f 0000 803f 0000 803f 0000 803f
00000180: 0000 803f 0000 803f 0000 803f 0000 803f
00000190: 0000 803f 0000 803f 0000 803f 0000 803f
000001a0: 0000 803f 0000 803f 0000 803f 0000 803f
000001b0: 0000 803f 0000 803f 0000 803f 0000 803f
000001c0: 0000 803f 0000 803f 0000 803f 0000 803f
000001d0: 0000 803f 0000 803f 0000 803f 0000 803f
000001e0: 0000 803f 0000 803f 0000 803f 0000 803f
000001f0: 0000 803f 0000 803f 0000 803f 0000 803f
00000200: 9be4 b93c 591d 02bd 6dd1 8cbb 50d4 2ebd
00000210: bde2 fcbb 67b7 50bd d948 bdbc 937f 743c
00000220: 5c83 433c c258 a53b eee8 ce3c 9eb3 a3bb
00000230: d5f2 ffbc 4628 c33b dd2c 163d e42f 283a
00000240: 6163 abbb 597f 063d f176 6fbc 4fc5 15bc
00000250: 34f0 c33c b76b 9bbc 310d 9b3d 3fd5 a439
00000260: c527 12bc c44f 643c 82c7 2c3d 237e 063b
00000270: 1680 9fbc 6203 1bbc 9ad8 39bb bbab a03b
00000280: 66c4 a23b 3954 0fbc be46 8e3c 3e73 003b
00000290: a42d 413c 52db 54bc c18d 4d3c 832f 2ebd
000002a0: 11a5 4cbc adac f63b 78ce 1cbd 5bf9 323d
000002b0: 90e3 073b c23b 563b 0e4e c53b 19e3 1fba
000002c0: ba7e 183d 525c c13c d61e 2bbc dd09 53bb
000002d0: be9f 36bd a97e acbb 6a10 f83b b4bd 09ba
000002e0: d97a f1bc 2044 703c b213 403c 3a56 9c3c
000002f0: 0797 853b 2259 fcba 769e df3b b1b9 0a3c
00000300: 52f6 063f 9697 cb3c 11c0 6f3d 9982 863d
00000310: 3370 773d 88d5 e73c d456 b33d 7cd9 2f3d
00000320: b190 673d 7219 4c3d 0ab7 903e 799c 563d
00000330: 5c79 d43d 520b 233d 6748 b73e 2fe4 433d
00000340: 407d ea3d 4755 833e 4334 143d ae2b 5f3d
00000350: eb3a f83d 00ea 7f3d c74b c23d a353 a93d
00000360: 24b8 b03d 1eff 023e 6728 133d fcb5 223d
00000370: ede8 163e f98e 6c3d 93ab 4c3d 236b 0c3e
00000380: 62b5 6c3d 5aab 803d 8008 9d3d bd8e 133d
00000390: 873d 893d 24dc 743d 8f4d 803d 807a 2f3d
000003a0: 7a90 453d 1151 373d 10c2 d23c 2791 673d
000003b0: 500a 8a3d 048c 7f3d e5ba e83d 3728 203e
000003c0: 2670 693c 9879 6b3d 70e7 123d 6149 173d
000003d0: 32d1 703e f764 bf3d fdc9 1c3d bcb1 803d
000003e0: b276 a13d a6e7 a73d 473f 5a3d fe45 f63e
000003f0: 510f 193e df9c 303d fced 3a3d b0b7 f13d

sequential_13/time_distributed_5/dense_5/MatMul f4 [4, 64]
-0.2938628 -0.14606951 0.014713398 -0.1579803 0.0072011077 0.3259825 -0.1322996 -0.33341298
-0.1549358 0.25888786 0.07758181 0.031944145 -0.0840413 -0.019213453 -0.31966284 0.12466456
0.18592876 0.2730158 0.31580076 -0.293372 -0.035865966 0.07953324 -0.053999547 -0.20265852
-0.051177192 -0.3478551 -0.2764057 -0.13435532 0.19390734 -0.050174326 0.2765732 0.2962998
-0.26803413 -0.25558436 0.30836684 0.2703206 -0.0950823 0.25694588 -0.14862865 -0.2982268
-0.16074832 0.33398452 0.021732599 0.14128745 -0.35718438 0.007866724 -0.31356934 0.03186182
0.26505774 0.18318743 -0.26082012 0.24918802 -0.31578827 0.0938803 -0.1197251 0.048724327
0.08618594 0.2992723 -0.04136365 -0.03075275 -0.21284378 -0.31798396 0.2358593 0.16683765
0.17543387 0.36489496 0.322636 -0.27101138 0.25008672 0.29193422 0.24797408 0.061754968
-0.24561332 0.32764387 -0.22732486 0.21408829 -0.29824507 -0.044766605 -0.20243144 0.21825635
0.1403051 -0.20966347 0.1805029 0.032587975 -0.3142649 -0.047939952 -0.1568574 0.18965262
-0.15888287 -0.3279348 0.0016259394 0.2698371 0.03814441 -0.1218649 0.33209008 -0.004133924
-0.24016516 -0.073832795 0.18751386 0.16913024 0.22509912 0.109784834 -0.2924234 -0.0060783606
-0.04369284 0.05860637 -0.15882447 -0.075475425 -0.072741166 -0.2522205 -0.09957847 -0.2541989
0.08916749 0.07113252 -0.15953343 0.21980388 -0.05797581 -0.31339398 -0.1600053 -0.12201176
-0.30431888 0.28405204 0.30181217 -0.09979477 -0.13358077 0.17738059 -0.14654058 -0.13810845
-0.102522396 0.22818877 0.11093388 -0.057819504 0.33985114 0.0041071684 0.04829413 0.20137694
-0.23571469 -0.054899182 -0.32923457 0.12178881 -0.21050487 -0.054503772 -0.25822785 0.14817199
0.19883436 -0.3707625 0.21856385 0.16056201 -0.3246734 0.20005623 -0.2810261 -0.2725423
-0.2361073 0.19010061 -0.13157912 0.16150482 0.10437 -0.33355358 0.174551 0.33596447
0.048495997 -0.06471728 0.15418951 0.311298 0.16223799 0.20065363 -0.15692064 0.015670622
-0.28068236 0.28103063 -0.058258716 0.2928703 0.10236833 -0.26547185 -0.084611356 0.07481385
-0.17676316 -0.1767577 0.0013371281 0.31214607 -0.29712066 -0.15995172 0.07613948 -0.25728735
-0.30581743 0.07748203 -0.15512669 -0.27421936 -0.15168583 -0.2221961 0.032123137 0.105733104
-0.09624507 -0.11761456 0.24156718 -0.23188902 0.21400537 0.27291068 0.37460315 -0.30156806
0.20917897 -0.18969755 -0.006420212 0.24684079 0.106600784 -0.11068248 0.19821721 0.110197455
-0.16458775 -0.31692368 -0.049851865 -0.24200155 0.20471875 0.2795939 -0.07054715 -0.060095992
-0.21970488 -0.35999733 -0.29975498 0.026469268 0.2370803 -0.31695914 0.27162877 -0.01954519
-0.3249429 -0.16292448 -0.23460697 0.20789693 0.058022972 -0.02317453 -0.21735887 -0.2762421
-0.24935822 -0.25945476 -0.09394914 0.005334521 -0.005326724 -0.20019487 -0.12118165 -0.225086
0.1741793 0.3109725 -0.18025711 -0.14228281 -0.005844956 0.05124596 -0.29543132 -0.3593056
0.034611914 0.00652189 0.3068749 -0.13252342 0.16734388 -0.011133104 0.24700701 0.33106193
00000000: 2f75 96be 3f93 15be 7710 713c 96c5 21be
00000010: 45f7 eb3b 2ee7 a63e 8c79 07be 1bb5 aabe
00000020: 7ea7 1ebe f38c 843e 36e3 9e3d ddd7 023d
00000030: d81d acbd 8865 9dbc d9aa a3be 2250 ff3d
00000040: 1c64 3e3e bac8 8b3e a3b0 a13e db34 96be
00000050: 31e8 12bd 53e2 a23d a12e 5dbd b785 4fbe
00000060: 2d9f 51bd 101a b2be 0c85 8dbe 7194 09be
00000070: a58f 463e 9883 4dbd 019b 8d3e 9bb4 973e
00000080: c53b 89be f4db 82be 42e2 9d3e 7667 8a3e
00000090: 82ba c2bd 698e 833e 1c32 18be 2fb1 98be
000000a0: 359b 24be 0500 ab3e 9008 b23c a8ad 103e
000000b0: dfe0 b6be 6fe3 003c 298c a0be 8a81 023d
000000c0: a6b5 873e 7c95 3b3e 378a 85be 252b 7f3e
000000d0: 00af a1be 5144 c03d 6f32 f5bd 2993 473d
000000e0: 4182 b03d 383a 993e ee6c 29bd 31ed fbbc
000000f0: b8f3 59be cbce a2be 1a85 713e 7dd7 2a3e
00000100: f0a4 333e 83d3 ba3e 8c30 a53e 01c2 8abe
00000110: 5e0b 803e 6778 953e ebec 7d3e c7f2 7c3d
00000120: 0f82 7bbe f0c0 a73e d9c7 68be f639 5b3e
00000130: 94b3 98be 305d 37bd 304a 4fbe 987e 5f3e
00000140: 24ac 0f3e 05b2 56be c1d5 383e f87a 053d
00000150: 54e7 a0be af5c 44bd 3a9f 20be 4c34 423e
00000160: 31b2 22be 12e7 a7be 791d d53a 1728 8a3e
00000170: 503d 1c3d 4e94 f9bd b607 aa3e de75 87bb
00000180: dbed 75be a635 97bd a203 403e 7a30 2d3e
00000190: 6280 663e dfd6 e03d 85b8 95be fc2c c7bb
000001a0: 43f7 32bd 3c0d 703d e2a2 22be dc92 9abd
000001b0: 52f9 94bd 0c23 81be ccef cbbd 5c26 82be
000001c0: 729d b63d edad 913d bb5c 23be 4514 613e
000001d0: 0b78 6dbd 2d75 a0be 6ed8 23be 4de1 f9bd
000001e0: afcf 9bbe 456f 913e 2087 9a3e 3361 ccbd
000001f0: 66c9 08be 42a3 353e bc0e 16be 4d6c 0dbe
00000200: 43f7 d1bd 51aa 693e 4d31 e33d 25d4 6cbd
00000210: f800 ae3e 6d95 863b 11d0 453d c235 4e3e
00000220: 315f 71be f7dd 60bd 6f91 a8be 696c f93d
00000230: 978e 57be 593f 5fbd 7136 84be 66ba 173e
00000240: 3c9b 4b3e 95d4 bdbe 34cf 5f3e 5e6a 243e
00000250: 983b a6be 8adb 4c3e a7e2 8fbe aa8a 8bbe
00000260: 1dc6 71be bca9 423e adbc 06be 8561 253e
00000270: f0bf d53d 89c7 aabe 7fbd 323e 8903 ac3e
00000280: bda3 463d 7e8a 84bd dbe3 1d3e 7462 9f3e
00000290: b721 263e 2578 4d3e ceaf 20be ad5f 803c
000002a0: 99b5 8fbe 3fe3 8f3e b1a0 6ebd 19f3 953e
000002b0: 7da6 d13d edeb 87be b848 adbd 0138 993d
000002c0: 6701 35be f8ff 34be 9342 af3a 9cd1 9f3e
000002d0: 3320 98be 62ca 23be 04ef 9b3d 2bbb 83be
000002e0: 1a94 9cbe e6ae 9e3d 88d9 1ebe 7b66 8cbe
000002f0: 8853 1bbe 6087 63be 8d93 033d 998a d83d
00000300: 231c c5bd e7df f0bd 635d 773e 5174 6dbe
00000310: 3924 5b3e f3ba 8b3e fccb bf3e 2167 9abe
00000320: 0333 563e 1340 42be a460 d2bb d5c3 7c3e
00000330: 8351 da3d 7fad e2bd 74f9 4a3e 34af e13d
00000340: b189 28be d243 a2be 7831 4cbd 41cf 77be
00000350: cba1 513e ef26 8f3e 067b 90bd 3727 76bd
00000360: 51fa 60be 9251 b8be 7c79 99be 14d6 d83c
00000370: 2ec5 723e 7848 a2be ed12 8b3e 3c1d a0bc
00000380: ea5e a6be add5 26be cf3c 70be efe2 543e
00000390: 7fa9 6d3d 83d8 bdbc 5393 5ebe 9b6f 8dbe
000003a0: c357 7fbe 41d7 84be 6868 c0bd 35cd ae3b
000003b0: cd8b aebb e2ff 4cbe 162e f8bd f27c 66be
000003c0: 0f5c 323e ca37 9f3e 5295 38be 96b2 11be
000003d0: 0b87 bfbb 49e7 513d c642 97be e7f6 b7be
000003e0: 39c5 0d3d 94b5 d53b b51e 9d3e 38b4 07be
000003f0: 325c 2b3e 9f67 36bc 68ef 7c3e f380 a93e

lstm_33/lstm_cell_41/bias1 f4 [256]
0.5265677 0.031095484 0.055870607 0.06709352 0.0666302 0.027778417 0.088734485 0.048938613
0.05440033 0.045748707 0.2855839 0.04785375 0.09707716 0.0436487 0.35906944 0.046937544
0.112897165 0.25739017 0.03207254 0.051080838 0.119975016 0.06413586 0.09749319 0.08304664
0.09031655 0.13117532 0.03498376 0.035768364 0.14614232 0.05873252 0.044097487 0.13580756
0.060708076 0.05999789 0.07284941 0.034990884 0.06491493 0.056499097 0.058893494 0.04494377
0.041683637 0.04045942 0.027489685 0.05967273 0.06437711 0.05450492 0.11215878 0.15653794
0.014750733 0.054011356 0.03464335 0.036053352 0.23953582 0.09467718 0.043718997 0.06314103
0.07611671 0.080818176 0.054675564 0.48147097 0.15204829 0.04210801 0.041689757 0.11452756
1.0 1.0 1.0 1.0 1.0 1.0 1.0 1.0
1.0 1.0 1.0 1.0 1.0 1.0 1.0 1.0
1.0 1.0 1.0 1.0 1.0 1.0 1.0 1.0
1.0 1.0 1.0 1.0 1.0 1.0 1.0 1.0
1.0 1.0 1.0 1.0 1.0 1.0 1.0 1.0
1.0 1.0 1.0 1.0 1.0 1.0 1.0 1.0
1.0 1.0 1.0 1.0 1.0 1.0 1.0 1.0
1.0 1.0 1.0 1.0 1.0 1.0 1.0 1.0
0.022692015 -0.03176627 -0.0042974264 -0.042682946 -0.007717459 -0.050956156 -0.023106026 0.014922994
0.011933174 0.005045981 0.025257554 -0.0049957773 -0.031243721 0.0059557287 0.03666388 0.00064158277
-0.0052303527 0.032836292 -0.01461576 -0.00914128 0.023918249 -0.01897226 0.075708754 0.00031439398
-0.008920615 0.013935033 0.042182453 0.002052196 -0.019470256 -0.009461256 -0.0028357864 0.0049032844
0.00496726 -0.008748108 0.017367717 0.001959994 0.011790667 -0.012991743 0.012546004 -0.04252578
-0.012490527 0.007527909 -0.03828284 0.043694835 0.0020735003 0.0032689427 0.0060212677 -0.0006099209
0.03723023 0.023603592 -0.010444364 -0.0032201924 -0.044585936 -0.0052641225 0.007570316 -0.0005254403
-0.029477524 0.01466468 0.011723446 0.019084085 0.0040768418 -0.0019252638 0.00682431 0.008467124
0.52719605 0.024852555 0.05853278 0.06567878 0.060409736 0.028300062 0.087567955 0.04293202
0.056534473 0.049828954 0.28264648 0.052395318 0.1037471 0.039805718 0.35797426 0.047825035
0.11449671 0.25651 0.036182653 0.054485016 0.12120613 0.06247902 0.0948711 0.082679056
0.08628872 0.12792632 0.035927203 0.039724335 0.14737292 0.057753537 0.049968313 0.13712744
0.057790168 0.06282683 0.07667637 0.036024798 0.067011885 0.059780255 0.06264793 0.042841434
0.048233487 0.044755045 0.025727302 0.056534912 0.06740248 0.06238939 0.11363772 0.15640341
0.01424793 0.057489008 0.035865247 0.036935214 0.23517302 0.093454294 0.03827857 0.062839
0.078839675 0.0819848 0.053283002 0.48100275 0.14947249 0.043118354 0.045637116 0.11802614
00000000: 24cd 063f f5bb fe3c 94d8 643d 5468 893d
00000010: 6a75 883d 908f e33c 6dba b53d db73 483d
00000020: e1d2 5e3d ff62 3b3d 0e38 923e 4b02 443d
00000030: 64d0 c63d fbc8 323d f3d7 b73e 9541 403d
00000040: a136 e73d a5c8 833e 7f5e 033d 243a 513d
00000050: 76b5 f53d a959 833d 82aa c73d 5b14 aa3d
00000060: e2f7 b83d d352 063e 224b 0f3d d981 123d
00000070: 55a6 153e 8391 703d 919f 343d 2311 0b3e
00000080: 08a9 783d 59c0 753d 1232 953d 9a52 0f3d
00000090: 1ef2 843d 996b 673d 4e3a 713d f516 383d
000000a0: 76bc 2a3d c7b8 253d 0c32 e13c 646b 743d
000000b0: 25d8 833d 8d40 5f3d 81b3 e53d 7b4b 203e
000000c0: 0fad 713c 033b 5d3d 2fe6 0d3d aeac 133d
000000d0: e148 753e 1ce6 c13d b112 333d 1650 813d
000000e0: 14e3 9b3d 0084 a53d 7cf3 5f3d 5d83 f63e
000000f0: 8cb2 1b3e 7379 2c3d e1c2 2a3d 6d8d ea3d
00000100: 0000 803f 0000 803f 0000 803f 0000 803f
00000110: 0000 803f 0000 803f 0000 803f 0000 803f
00000120: 0000 803f 0000 803f 0000 803f 0000 803f
00000130: 0000 803f 0000 803f 0000 803f 0000 803f
00000140: 0000 803f 0000 803f 0000 803f 0000 803f
00000150: 0000 803f 0000 803f 0000 803f 0000 803f
00000160: 0000 803f 0000 803f 0000 803f 0000 803f
00000170: 0000 803f 0000 803f 0000 803f 0000 803f
00000180: 0000 803f 0000 803f 0000 803f 0000 803f
00000190: 0000 803f 0000 803f 0000 803f 0000 803f
000001a0: 0000 803f 0000 803f 0000 803f 0000 803f
000001b0: 0000 803f 0000 803f 0000 803f 0000 803f
000001c0: 0000 803f 0000 803f 0000 803f 0000 803f
000001d0: 0000 803f 0000 803f 0000 803f 0000 803f
000001e0: 0000 803f 0000 803f 0000 803f 0000 803f
000001f0: 0000 803f 0000 803f 0000 803f 0000 803f
00000200: 9be4 b93c 591d 02bd 6dd1 8cbb 50d4 2ebd
00000210: bde2 fcbb 67b7 50bd d948 bdbc 937f 743c
00000220: 5c83 433c c258 a53b eee8 ce3c 9eb3 a3bb
00000230: d5f2 ffbc 4628 c33b dd2c 163d e42f 283a
00000240: 6163 abbb 597f 063d f176 6fbc 4fc5 15bc
00000250: 34f0 c33c b76b 9bbc 310d 9b3d 3fd5 a439
00000260: c527 12bc c44f 643c 82c7 2c3d 237e 063b
00000270: 1680 9fbc 6203 1bbc 9ad8 39bb bbab a03b
00000280: 66c4 a23b 3954 0fbc be46 8e3c 3e73 003b
00000290: a42d 413c 52db 54bc c18d 4d3c 832f 2ebd
000002a0: 11a5 4cbc adac f63b 78ce 1cbd 5bf9 323d
000002b0: 90e3 073b c23b 563b 0e4e c53b 19e3 1fba
000002c0: ba7e 183d 525c c13c d61e 2bbc dd09 53bb
000002d0: be9f 36bd a97e acbb 6a10 f83b b4bd 09ba
000002e0: d97a f1bc 2044 703c b213 403c 3a56 9c3c
000002f0: 0797 853b 2259 fcba 769e df3b b1b9 0a3c
00000300: 52f6 063f 9697 cb3c 11c0 6f3d 9982 863d
00000310: 3370 773d 88d5 e73c d456 b33d 7cd9 2f3d
00000320: b190 673d 7219 4c3d 0ab7 903e 799c 563d
00000330: 5c79 d43d 520b 233d 6748 b73e 2fe4 433d
00000340: 407d ea3d 4755 833e 4334 143d ae2b 5f3d
00000350: eb3a f83d 00ea 7f3d c74b c23d a353 a93d
00000360: 24b8 b03d 1eff 023e 6728 133d fcb5 223d
00000370: ede8 163e f98e 6c3d 93ab 4c3d 236b 0c3e
00000380: 62b5 6c3d 5aab 803d 8008 9d3d bd8e 133d
00000390: 873d 893d 24dc 743d 8f4d 803d 807a 2f3d
000003a0: 7a90 453d 1151 373d 10c2 d23c 2791 673d
000003b0: 500a 8a3d 048c 7f3d e5ba e83d 3728 203e
000003c0: 2670 693c 9879 6b3d 70e7 123d 6149 173d
000003d0: 32d1 703e f764 bf3d fdc9 1c3d bcb1 803d
000003e0: b276 a13d a6e7 a73d 473f 5a3d fe45 f63e
000003f0: 510f 193e df9c 303d fced 3a3d b0b7 f13d

while/MatMul_1 f4 [256, 64]
-0.030754328 0.07619666 -0.045251 -0.026135761 -0.067233436 0.06273312 -0.024509415 0.030209944
-0.03397916 0.0141276065 -0.06539704 -0.02047702 -0.01674892 0.08126597 -0.037362643 0.05664443
-0.054452676 -0.06959018 -0.090535745 -0.021038134 -0.07787351 -0.031706247 0.067287356 0.019790698
0.0601218 0.0046793856 -0.001431942 0.02897402 0.012068637 0.10882735 -0.012136776 0.078560196
-0.045842253 0.011834515 -0.057127602 -0.011770479 -0.031122044 0.09545924 -0.104543924 -0.0138756465
-0.060575698 -0.03787043 0.050307907 0.0025977197 -0.06882787 -0.1299868 -0.06498388 -0.026112111
-0.021324564 -0.09317962 0.030444078 -0.046696737 -0.04130002 -0.081880264 -0.07258267 0.022989076
0.12273193 0.0010892546 -0.011397436 0.048856914 0.007176817 -0.025165271 -0.011689298 -0.024257105
-0.023167677 0.0719223 -0.008057611 -0.017309254 -0.013227034 -0.019893687 0.034020524 0.0030768805
0.0052964976 0.0759069 0.0029766778 0.083191216 0.016032204 -0.11129519 0.05448897 0.049050502
0.039166402 0.03076013 -0.05058678 -0.040953387 0.013663994 -0.045342576 -0.040088437 0.124160394
-0.06530559 0.0010675618 -0.05914081 -0.01351022 -0.009286874 0.06896393 0.0006853095 0.076507345
0.047693223 -0.012318377 -0.0015278038 -0.05157903 -0.034171935 0.042665392 -0.12888311 0.005755906
0.03551826 0.0040645874 -0.07938138 0.047874022 -0.004912526 0.10237928 0.045500673 -0.0393715
0.08714376 0.0627307 -0.09230188 0.053632557 0.152203 -0.05435253 -0.096813045 0.08763933
-0.032005847 -0.053563938 0.023779739 -0.07116683 -0.13770826 -0.013027223 -0.010993978 0.03595886
-0.0827777 -0.12288365 -0.07915676 0.040130455 0.095545895 -0.008811099 0.04680218 0.03359395
-0.07824853 0.08072545 -0.057226494 0.018177912 -0.030759253 0.024022967 0.0068116942 0.046389114
0.08990301 0.14420314 0.044445325 0.031512853 -0.016339075 0.04664798 -0.050302193 -0.03468582
0.049993698 0.14829586 0.026049064 -0.030590784 0.12923546 0.051574305 -0.051996544 0.039836857
0.0030933078 0.119950086 0.0066365753 -0.044340234 0.08146257 -0.04312683 0.016455166 0.14658818
-0.06954467 -0.006183232 -0.1010896 0.018800566 0.045843635 -0.06357598 0.0128117455 -0.018093593
-0.024291813 -0.12928408 0.034475278 -0.07284891 0.085072406 -0.018051095 0.008772542 -0.04232412
0.08545335 0.0909512 -0.09578682 -0.059520125 -0.020311097 -0.0007782603 -0.07537259 -0.06503317
0.03698173 -0.097278014 0.009465734 0.015116334 0.044942018 0.01797045 -0.082503565 -0.111210555
0.02805081 -0.0311357 0.009614018 -0.04324282 0.012957723 0.056501858 -0.0040900493 -0.06605694
-0.037557267 -0.00042099506 -0.071800105 0.009253504 0.063314185 -0.1442757 -0.012114026 0.006930327
0.034295853 -0.091620006 -0.041177526 0.0072586895 0.117008135 -0.012682327 -0.030733185 0.04623027
0.1058644 0.03637569 0.062966794 -0.012379684 -0.023262043 0.020900114 0.030477354 -0.049712256
-0.043924674 -0.08783233 -0.07388229 0.011821071 0.005189969 0.063566856 0.006724232 -0.026375303
-0.02580565 0.027643781 0.03669075 -0.042858712 -0.11260296 -0.01831099 -0.045930512 0.050596762
-0.16230947 0.0017183316 -0.071569264 0.007708508 -0.055358965 -0.026631758 -0.07537621 -0.075230315
00000000: 80f0 fbbc ff0c 9c3d 1d59 39bd aa1a d6bc
00000010: afb1 89bd 397a 803d f8c7 c8bc d87a f73c
00000020: bb2d 0bbd 7a77 673c e2ee 85bd 6cbf a7bc
00000030: 0835 89bc c66e a63d 9209 19bd fd03 683d
00000040: c509 5fbd 4c85 8ebd ce6a b9bd 2a58 acbc
00000050: 267c 9fbd 69de 01bd f4cd 893d 1a20 a23c
00000060: 4742 763d 8855 993b 00b0 bbba ed5a ed3c
00000070: 88bb 453c e0e0 de3d 54d9 46bc 2be4 a03d
00000080: 16c5 3bbd 8ee5 413c a2fe 69bd f8d8 40bc
00000090: a8f3 febc 2280 c33d 201b d6bd ae56 63bc
000000a0: 391e 78bd 061e 1bbd aa0f 4e3d 813e 2a3b
000000b0: a0f5 8cbd 421b 05be 4516 85bd 11e9 d5bc
000000c0: dab0 aebc f5d4 bebd dc65 f93c 1445 3fbd
000000d0: 362a 29bd d7b0 a7bd 39a6 94bd 9653 bc3c
000000e0: e15a fb3d 52c5 8e3a 50bc 3abc 301e 483d
000000f0: 812b eb3b 6627 cebc 7884 3fbc d6b6 c6bc
00000100: 24ca bdbc 004c 933d 1204 04bc 23cc 8dbc
00000110: 34b6 58bc 16f8 a2bc 1b59 0b3d 7da5 493b
00000120: 3e8e ad3b 1475 9b3d 5e14 433b 2860 aa3d
00000130: f855 833c bcee e3bd d42f 5f3d 2ee9 483d
00000140: f36c 203d abfc fb3c 1534 4fbd bdbe 27bd
00000150: f2de 5f3c 23b9 39bd c633 24bd ce47 fe3d
00000160: f0be 85bd 6eed 8b3a a23d 72bd f859 5dbc
00000170: f927 18bc f63c 8d3d 58a6 333a e2af 9c3d
00000180: f859 433d 05d3 49bc 9740 c8ba 8844 53bd
00000190: dff7 0bbd e8c1 2e3d eff9 03be 0a9c bc3b
000001a0: 987b 113d 3b30 853b b492 a2bd 8d17 443d
000001b0: 41f9 a0bb 3aac d13d ea5e 3a3d 0344 21bd
000001c0: 6d78 b23d f478 803d c508 bdbd d0ad 5b3d
000001d0: 1adb 1b3e c2a0 5ebd eb45 c6bd 407c b33d
000001e0: 9018 03bd dc65 5bbd bacd c23c eabf 91bd
000001f0: 6503 0dbe 2270 55bc 1620 34bc 9949 133d
00000200: 5b87 a9bd 6caa fbbd f01c a2bd d55f 243d
00000210: 91ad c33d 6e5c 10bc a5b3 3f3d cf99 093d
00000220: c440 a0bd 6253 a53d 5466 6abd d8e9 943c
00000230: d4fa fbbc d0cb c43c a234 df3b 8302 3e3d
00000240: 121f b83d fda9 133e 4d0c 363d 9f13 013d
00000250: 86d9 85bc f411 3f3d ac09 4ebd b812 0ebd
00000260: 31c6 4c3d dfda 173e d964 d53c 8699 fabc
00000270: 4d56 043e 943f 533d 54fa 54bd f92b 233d
00000280: 18b9 4a3b 64a8 f53d a177 d93b 1b9e 35bd
00000290: d9d5 a63d c2a5 30bd fccc 863c 361b 163e
000002a0: 706d 8ebd b69c cabb 1008 cfbd a503 9a3c
000002b0: 89c6 3b3d 2034 82bd 5be8 513c 0439 94bc
000002c0: a0ff c6bc 0c63 04be f335 0d3d cf31 95bd
000002d0: 713a ae3d e4df 93bc b5ba 0f3c 0e5c 2dbd
000002e0: 2a02 af3d 9f44 ba3d e12b c4bd 60cb 73bd
000002f0: 7563 a6bc 2a04 4cba f25c 9abd 1c30 85bd
00000300: 287a 173d b239 c7bd 2a16 1b3c 80aa 773c
00000310: 1f15 383d c436 933c a1f7 a8bd 5cc2 e3bd
00000320: d0ca e53c 4c10 ffbc 1d84 1d3c 621f 31bd
00000330: a14c 543c 7e6e 673d d205 86bb dc48 87bd
00000340: a6d5 19bd 00b9 dcb9 ef0b 93bd 029c 173c
00000350: deaa 813d 02bd 13be e879 46bc cc17 e33b
00000360: cf79 0c3d 45a3 bbbd c4a9 28bd 4dda ed3b
00000370: f6a1 ef3d 89c9 4fbc 29c4 fbbc f45b 3d3d
00000380: 6fcf d83d adfe 143d bcf4 803d 28d4 4abc
00000390: 0a90 bebc b736 ab3c a5ab f93c 149f 4bbd
000003a0: 5cea 33bd 70e1 b3bd 994f 97bd 2aad 413c
000003b0: 9e10 aa3b 572f 823d f256 dc3b 0511 d8bc
000003c0: 5f66 d3bc 3675 e23c 0a49 163d 9e8c 2fbd
000003d0: 619c e6bd ee00 96bc a221 3cbd 8d3e 4f3d
000003e0: 7434 26be a439 e13a e892 92bd a797 fc3b
000003f0: 15c0 62bd d82a dabc d85e 9abd 5a12 9abd

while/MatMul f4 [256, 4]
0.5330262 0.64412606 0.6141532 0.54304516 0.0059810732 0.023738544 -0.035253763 0.050208043
-0.0069273924 0.108409815 0.21925029 0.033289023 -0.011534561 -0.096074015 -0.04782033 0.20188873
-0.001879898 0.03962302 0.06253322 0.15292938 0.05742297 -0.008675487 -0.038047977 0.1948513
-0.03443546 0.11998142 0.038447402 0.15759502 0.09113963 0.113858014 -0.0015350875 0.18591286
0.12379875 0.093225084 0.018770216 0.14303641 -0.018524023 0.014604859 0.25126222 0.1751528
0.13223723 0.31690335 0.2976544 0.2005828 0.1048026 -0.07801758 0.16619647 0.20213714
0.12986004 0.095673315 -0.07518073 0.27334943 0.010409382 -0.052144375 0.11318242 -0.0897482
0.31265938 0.32701787 0.45778862 0.27655384 0.014717494 0.19985336 -0.05586081 -0.019970339
0.27094612 0.0021250618 0.04685878 -0.059308592 0.36032164 0.20657638 0.2092261 0.19257486
0.12097779 0.038159266 0.112543926 0.15827526 -0.026552157 0.14960408 0.20555715 -0.035676725
0.28803873 0.058099497 0.23348436 0.26807907 -0.06940807 0.0009515967 -0.049559426 0.18654607
-0.051482037 0.054621484 0.10778927 0.00027679338 0.18850815 0.036618017 0.0127087785 0.10730285
0.2189404 -0.025293991 -0.008043109 0.0774393 0.017846445 0.26165342 0.043137133 0.11278017
0.1689514 0.022975393 -0.049921464 0.019784665 0.21765828 -0.04917083 -0.0120483115 0.14273062
0.02420471 0.17942317 0.15243576 0.119250335 -0.0051237866 0.11764835 -0.040586766 -0.0063983086
0.15779307 0.09851447 0.009667378 0.19542412 0.24353214 0.10172575 0.17287323 0.31807843
0.21359134 0.08472897 0.103632264 0.062248763 0.04776211 0.04554797 0.21697646 0.22360739
0.13575901 0.2598037 -0.03431226 0.06419763 -0.0013414136 0.17487518 0.19599453 0.023927782
-0.013729125 0.004124305 0.27501896 -0.04768594 0.046054192 0.0032508506 0.15813571 0.14127566
0.27093127 0.08852131 0.21581753 0.10762469 0.18224828 0.15284088 0.16906697 0.11215584
0.19455828 0.17848109 0.19886471 0.09565553 0.16134356 0.10245409 0.086153865 0.16354622
-0.06319628 0.19154076 0.03623924 0.1901014 0.017197354 0.00020089665 -0.011564718 0.13851309
0.20897342 0.22994968 0.030597093 0.28301218 0.1404379 0.20278439 0.22458704 -0.042093452
-0.029306699 0.2932182 0.30602047 0.14503333 0.27016217 0.06684901 0.23845097 0.2654675
-0.07333323 0.1494206 0.04769579 0.04427229 -0.023774471 0.043287184 0.13801725 0.17670068
-0.036039967 0.1397526 0.094511434 0.20785329 0.092786044 0.149011 0.08507049 -0.08052097
0.12018658 0.29342207 0.26438424 0.1363905 -0.059545368 0.2776659 0.13699543 -0.07857153
0.08085548 -0.06037038 0.067267135 0.106063515 0.017191378 0.084841765 0.048804652 0.12406935
0.15055597 0.25506067 0.09503959 -0.03867058 0.087604016 0.14507338 0.11805646 0.008625845
-0.0032836478 0.015495034 0.15045248 0.11918336 0.3974619 0.31733248 0.514616 0.4341009
0.17463326 0.17589572 0.08123064 0.12275439 0.029781848 0.16710295 0.08437047 0.02321124
0.24074174 0.12918583 -0.04789899 0.088627666 0.049979895 0.13323596 0.25960132 -0.018825503
00000000: 6874 083f 72e5 243f 2539 1d3f 0205 0b3f
00000010: e1fc c33b 5677 c23c 4066 10bd f3a6 4d3d
00000020: 2eff e2bb f705 de3d 2683 603e 125a 083d
00000030: 75fb 3cbc 74c2 c4bd 40df 43bd ebbb 4e3e
00000040: e966 f6ba bf4b 223d 6b11 803d 8599 1c3e
00000050: 5934 6b3d a123 0ebc 32d8 1bbd 1987 473e
00000060: 320c 0dbd d2b8 f53d 067b 1d3d 9760 213e
00000070: 6aa7 ba3d 642e e93d fd34 c9ba f15f 3e3e
00000080: 338a fd3d cbec be3d ffc3 993c 2378 123e
00000090: b1bf 97bc 3849 6f3c 71a5 803e 415b 333e
000000a0: 3269 073e 2841 a23e 2866 983e 9465 4d3e
000000b0: bfa2 d63d aec7 9fbd 682f 2a3e 0afd 4e3e
000000c0: 08fa 043e 5ff0 c33d 5bf8 99bd 75f4 8b3e
000000d0: 1d8c 2a3c 5795 55bd 2fcc e73d e7cd b7bd
000000e0: e414 a03e e36e a73e 4563 ea3e 7798 8d3e
000000f0: a521 713c 5ca6 4c3e 4ece 64bd d698 a3bc
00000100: 73b9 8a3e 9f44 0b3b feee 3f3d 91ed 72bd
00000110: 147c b83e c288 533e 5e3f 563e 5832 453e
00000120: 34c3 f73d e44c 1c3d 6e7d e63d e912 223e
00000130: e983 d9bc d031 193e 937d 523e c221 12bd
00000140: d079 933e bdf9 6d3d 8616 6f3e a941 893e
00000150: d125 8ebd 9374 793a d3fe 4abd ef05 3f3e
00000160: d4de 52bd c7ba 5f3d 9fc0 dc3d 941e 9139
00000170: 4808 413e c6fc 153d 7b38 503c 99c1 db3d
00000180: ea31 603e 5835 cfbc 3fc7 03bc 7f98 9e3d
00000190: b532 923c 70f7 853e 90b0 303d 4af9 e63d
000001a0: 9901 2d3e e436 bc3c 737a 4cbd 7313 a23c
000001b0: d0e1 5e3e 5a67 49bd 4866 45bc fa27 123e
000001c0: f548 c63c b5ba 373e 1f18 1c3e 8539 f43d
000001d0: 70e5 a7bb 9ef1 f03d 4f3e 26bd e7a8 d1bb
000001e0: 8294 213e f4c1 c93d ec63 1e3c 431d 483e
000001f0: 7d60 793e 9755 d03d ae05 313e 2ddb a23e
00000200: b0b7 5a3e 6286 ad3d 273d d43d 8ff8 7e3d
00000210: 34a2 433d 8290 3a3d 142f 5e3e 56f9 643e
00000220: 6904 0b3e fe04 853e 038b 0cbd 0c7a 833d
00000230: 5fd2 afba 7b12 333e cab2 483e 3204 c43c
00000240: 20f0 60bc 2e25 873b 49cf 8c3e 5552 43bd
00000250: 52a3 3c3d 390c 553b 54ee 213e 91aa 103e
00000260: 81b7 8a3e a94a b53d 45ff 5c3e 556a dc3d
00000270: 4b9f 3a3e 5282 1c3e e41f 2d3e f6b1 e53d
00000280: 493a 473e bfc3 363e 31a3 4b3e 0ce7 c33d
00000290: 3f37 253e 73d3 d13d 7071 b03d a978 273e
000002a0: 0d6d 81bd 4323 443e 996f 143d f1a9 423e
000002b0: 77e1 8c3c c9a7 5239 f179 3dbc 60d6 0d3e
000002c0: 21fd 553e ee77 6b3e c1a6 fa3c f9e6 903e
000002d0: f4ce 0f3e b6a6 4f3e 25fa 653e 2f6a 2cbd
000002e0: 9a14 f0bc b220 963e b7ae 9c3e 9e83 143e
000002f0: b252 8a3e 22e8 883d 7e2c 743e 5beb 873e
00000300: bc2f 96bd b701 193e a95c 433d dc56 353d
00000310: aec2 c2bc e74d 313d 6554 0d3e 06f1 343e
00000320: a59e 13bd 4e1b 0f3e 368f c13d 7ed7 543e
00000330: 9c06 be3d 5796 183e 7039 ae3d 2ee8 a4bd
00000340: 6224 f63d 6b3b 963e 5f5d 873e f4a9 0b3e
00000350: d8e5 73bd 3a2a 8e3e 8848 0c3e 1cea a0bd
00000360: 8f97 a53d ee46 77bd 5ac3 893d d437 d93d
00000370: efd4 8c3c 85c1 ad3d 63e7 473d 1218 fe3d
00000380: 582b 1a3e 5097 823e 1ea4 c23d 0b65 1ebd
00000390: bc69 b33d 1e8e 143e 96c7 f13d 6b53 0d3c
000003a0: 7832 57bb e2de 7d3c 3710 1a3e 6816 f43d
000003b0: 2080 cb3e 6779 a23e e0bd 033f 7942 de3e
000003c0: 10d3 323e 021e 343e 405c a63d a766 fb3d
000003d0: 10f9 f33c 091d 2b3e 6dca ac3d 8025 be3c
000003e0: 0185 763e 4a49 043e bb31 44bd 6c82 b53d
000003f0: b8b7 4c3d 026f 083e 77ea 843e f137 9abc

lstm_34/lstm_cell_42/bias1 f4 [256]
0.09307199 0.09732009 0.039594144 0.03952169 0.046280738 0.053377658 0.09114066 0.117121235
0.083227046 0.07451431 0.08071876 0.060984127 0.068686604 0.05041061 0.047765862 0.05761529
0.08589798 0.09022574 0.031760655 0.1006821 0.07568603 0.06441324 0.045135137 0.03685902
0.051505953 0.06949847 0.054200295 0.06758466 0.05481374 0.043892976 0.036881577 0.05836859
0.03586816 0.066612914 0.09674575 0.035056937 0.07785811 0.05487146 0.04152032 0.05438078
0.033891495 0.04771943 0.06389677 0.057543192 0.07957968 0.0714281 0.067610085 0.0638727
0.0788495 0.0795646 0.044189338 0.04439394 0.05184872 0.07681185 0.080546 0.06399951
0.076676086 0.035045452 0.078011505 0.03195855 0.07554545 0.07094439 0.100464754 0.057874646
1.0 1.0 1.0 1.0 1.0 1.0 1.0 1.0
1.0 1.0 1.0 1.0 1.0 1.0 1.0 1.0
1.0 1.0 1.0 1.0 1.0 1.0 1.0 1.0
1.0 1.0 1.0 1.0 1.0 1.0 1.0 1.0
1.0 1.0 1.0 1.0 1.0 1.0 1.0 1.0
1.0 1.0 1.0 1.0 1.0 1.0 1.0 1.0
1.0 1.0 1.0 1.0 1.0 1.0 1.0 1.0
1.0 1.0 1.0 1.0 1.0 1.0 1.0 1.0
-0.012600403 0.027068732 0.03778302 -0.04381756 0.021289513 0.03824909 0.031726193 -0.04424925
-0.021629637 0.04567663 -0.026703313 0.030870749 -0.028442131 -0.037417293 -0.030804988 0.046979327
0.026726916 -0.0003388574 0.032314792 -0.048275188 -0.009810925 0.016636439 -0.03349265 -0.0016286776
-0.025060594 -0.047323737 -0.032828327 0.0055274917 0.04015665 -0.020152867 0.027552212 0.02522606
-0.040970966 -0.04532111 0.032542173 0.027226165 0.031413093 0.035816263 -0.031362634 -0.044860385
-0.02992679 0.022306995 -0.044255756 0.0046283407 -0.05102801 -0.030522246 -0.050262995 -0.055579364
0.061408326 0.053843364 -0.047064517 0.02623807 -0.019901106 -0.024299396 -0.049587734 -0.019562664
-0.015219228 0.032933876 0.04595971 -0.029328056 -0.02765416 -0.021130001 0.02786273 0.021975199
0.091916226 0.09835364 0.039612517 0.03913782 0.046637435 0.053202495 0.09234119 0.11330587
0.08422478 0.07523318 0.08008814 0.059855297 0.06859494 0.051319305 0.049985312 0.057507027
0.08661051 0.089181826 0.03179825 0.102593705 0.07626123 0.066944964 0.04432628 0.038231924
0.05260951 0.06882 0.05503937 0.06694961 0.056798443 0.04400445 0.036888577 0.057419173
0.03419623 0.06790633 0.09497738 0.035074446 0.07961232 0.05515857 0.04121006 0.05397206
0.034107365 0.04838146 0.065920234 0.05887197 0.0808439 0.072179936 0.06810876 0.06530879
0.07745586 0.078666136 0.046723768 0.044088215 0.050257057 0.075393714 0.081279606 0.064742856
0.07624147 0.034523286 0.07875985 0.032883823 0.07506467 0.0711689 0.1012626 0.057952642
00000000: 879c be3d c14f c73d 782d 223d 7fe1 213d
00000010: df90 3d3d 88a2 5a3d f4a7 ba3d 42dd ef3d
00000020: f172 aa3d f59a 983d e14f a53d 7eca 793d
00000030: 90ab 8c3d 5b7b 4e3d 23a6 433d 03fe 6b3d
00000040: 48eb af3d 46c8 b83d 7617 023d 6b32 ce3d
00000050: 4701 9b3d 17eb 833d 9fdf 383d 7cf9 163d
00000060: e8f7 523d 3755 8e3d 2101 5e3d d469 8a3d
00000070: 5f84 603d 1fc9 333d 2311 173d e713 6f3d
00000080: 7eea 123d 5a6c 883d a322 c63d dd97 0f3d
00000090: 1374 9f3d e5c0 603d 3611 2a3d 61be 5e3d
000000a0: cfd1 0a3d 7375 433d 4fdc 823d 69b2 6b3d
000000b0: acfa a23d e548 923d 2877 8a3d b1cf 823d
000000c0: d97b a13d c4f2 a23d e1ff 343d 6cd6 353d
000000d0: 535f 543d 884f 9d3d 4df5 a43d 2d12 833d
000000e0: 5a08 9d3d d28b 0f3d 7fc4 9f3d f8e6 023d
000000f0: 93b7 9a3d 4b4b 913d 77c0 cd3d f70d 6d3d
00000100: 0000 803f 0000 803f 0000 803f 0000 803f
00000110: 0000 803f 0000 803f 0000 803f 0000 803f
00000120: 0000 803f 0000 803f 0000 803f 0000 803f
00000130: 0000 803f 0000 803f 0000 803f 0000 803f
00000140: 0000 803f 0000 803f 0000 803f 0000 803f
00000150: 0000 803f 0000 803f 0000 803f 0000 803f
00000160: 0000 803f 0000 803f 0000 803f 0000 803f
00000170: 0000 803f 0000 803f 0000 803f 0000 803f
00000180: 0000 803f 0000 803f 0000 803f 0000 803f
00000190: 0000 803f 0000 803f 0000 803f 0000 803f
000001a0: 0000 803f 0000 803f 0000 803f 0000 803f
000001b0: 0000 803f 0000 803f 0000 803f 0000 803f
000001c0: 0000 803f 0000 803f 0000 803f 0000 803f
000001d0: 0000 803f 0000 803f 0000 803f 0000 803f
000001e0: 0000 803f 0000 803f 0000 803f 0000 803f
000001f0: 0000 803f 0000 803f 0000 803f 0000 803f
00000200: ec71 4ebc 3fbf dd3c 5ec2 1a3d 0b7a 33bd
00000210: 5867 ae3c 14ab 1c3d 53f3 013d b43e 35bd
00000220: a330 b1bc 6b17 3b3d e8c0 dabc a7e4 fc3c
00000230: 79ff e8bc e042 19bd be5a fcbc 656d 403d
00000240: 68f2 da3c aca8 b1b9 845c 043d 34bc 45bd
00000250: 01be 20bc 2449 883c 972f 09bd 5a79 d5ba
00000260: e04b cdbc 89d6 41bd ff76 06bd f61f b53b
00000270: 4d7b 243d a017 a5bc 2db5 e13c e2a6 ce3c
00000280: 2cd1 27bd a1a2 39bd f14a 053d 6809 df3c
00000290: 04ab 003d 13b4 123d 1b76 00bd 86bf 37bd
000002a0: 0729 f5bc 29bd b63c 8645 35bd 56a9 973b
000002b0: bf02 51bd ca09 fabc 92e0 4dbd 30a7 63bd
000002c0: 4c87 7b3d dc8a 5c3d b9c6 40bd 39f1 d63c
000002d0: a507 a3bc 870f c7bc 821c 4bbd e141 a0bc
000002e0: 125a 79bc ace5 063d 4040 3c3d 6441 f0bc
000002f0: fa8a e2bc d318 adbc 6140 e43c 5505 b43c
00000300: 933e bc3d a26d c93d bc40 223d fb4e 203d
00000310: e506 3f3d dcea 593d 611d bd3d e80c e83d
00000320: 0b7e ac3d da13 9a3d 4005 a43d d42a 753d
00000330: 817b 8c3d 3134 523d 66bd 4c3d 7d8c 6b3d
00000340: da60 b13d f6a4 b63d e23e 023d a61c d23d
00000350: d92e 9c3d 711a 893d 798f 353d 1499 1c3d
00000360: 127d 573d 80f1 8c3d f670 613d e11c 893d
00000370: 7ca5 683d 033e 343d 7a18 173d 5e30 6b3d
00000380: 5911 0c3d 7912 8b3d 8083 c23d 39aa 0f3d
00000390: c90b a33d f4ed 613d e1cb 283d cf11 5d3d
000003a0: 2ab4 0b3d a32b 463d 3001 873d bc23 713d
000003b0: 7d91 a53d 13d3 933d 9b7c 8b3d 9dc0 853d
000003c0: 2ea1 9e3d b61b a13d 6c61 3f3d d895 343d
000003d0: 58da 4d3d 0568 9a3d ec75 a63d e797 843d
000003e0: 7d24 9c3d 4a68 0d3d d84c a13d 30b1 063d
000003f0: 81bb 993d 00c1 913d c462 cf3d c05f 6d3d

while/MatMul_12 f4 [256, 64]
-0.03312123 0.074172385 0.01247628 0.039493117 -0.075874805 -0.08331537 0.037732698 -0.011946447
0.027145755 -0.04123997 0.019811142 -0.0042734966 -0.05481043 -0.07415883 0.018421933 -0.18310669
0.05331119 0.028745316 -0.050412457 -0.022031117 0.03092222 0.023536347 -0.066547625 -0.013545096
-0.029097183 -0.080189794 -0.011820927 -0.033583194 -0.077206224 0.12584029 0.058713675 0.025201347
-0.01532303 0.018842155 -0.028814763 -0.030724926 0.017793026 0.0091041885 -0.09026812 0.07698236
0.04990609 0.021241974 0.06576978 0.069086276 0.08071077 -0.086905435 -0.079309806 -0.07339583
-0.028798409 0.05241116 -0.049924243 0.014282382 -0.05753362 -0.015880575 0.042352926 -0.041999448
-0.1331824 0.009774377 -0.032271925 -0.01804955 0.027771892 0.0062948796 0.06556472 -0.04960969
0.10537941 -0.04993701 0.06225757 0.04001895 -0.026176242 0.03194312 0.021854233 0.056209713
0.09258548 -0.007279641 0.014390309 -0.04866835 0.048889615 0.06609175 -0.14165053 -0.00076906756
0.020393144 0.0690193 0.075444475 0.085332654 0.04529775 0.0048821704 -0.005115011 -0.006949667
0.12733875 0.030556474 0.025895264 0.013259586 0.0029891636 0.05049721 -0.022933189 0.020061316
0.024418792 -0.06589716 -0.093019105 -0.012570497 -0.095292166 -0.08329045 0.003884091 0.123447634
-0.042223956 -0.03219223 0.00291871 -0.056265354 -0.021488104 -0.055857345 -0.03225595 -0.09077676
-0.06257582 -0.04497534 0.03326888 0.01707416 0.05149683 0.0061267805 -0.0376046 0.12538289
0.014849192 0.0006900226 -0.08419405 0.031075327 0.096506596 -0.14519633 -0.011003864 -0.06430366
0.07755794 0.06372649 -0.06808925 0.06555362 0.08989694 -0.0009868378 -0.009702332 -0.03166094
0.0034934124 -0.008424981 -0.019202989 0.0063164984 0.022729315 0.028105184 0.024791887 -0.015750881
0.010000369 0.06206599 -0.04406604 9.172573e-05 0.09620538 -0.018486505 0.059036415 0.00164635
0.005793456 -0.06747617 0.0958036 -0.009811763 0.018985659 -0.034402806 -0.016252318 0.08739586
-0.036675405 0.05756124 0.08219701 -0.019268556 0.00648218 0.057775903 -0.031746358 0.016323995
-0.123515494 -0.044515695 -0.016214488 -0.009925634 0.06147059 0.011470751 -0.11255902 0.1180957
-0.032119155 -0.16265874 0.03781911 0.028213475 -0.10352698 -0.05682964 -0.057315953 0.024456445
0.090540275 -0.014407596 0.068066746 0.004964171 -0.041390512 -0.048804276 -0.0034095403 -0.014156267
-0.044150162 0.061028972 0.1044616 -0.09493947 -0.047890346 0.08254432 0.033195604 0.10882904
0.015434049 0.052229628 -0.04279745 -0.077275485 0.082624845 0.003232832 0.017281592 -0.16995412
0.036944117 -0.030032668 -0.036058873 -0.0004435801 0.010221996 -0.03447939 0.05904948 -0.043298233
-0.1074951 -0.021329803 0.01718102 -0.016639363 0.0003687488 0.07756155 -0.06286868 0.021930527
0.05743761 0.08188149 0.09740254 -0.05088385 -0.061718684 -0.01773744 0.12618628 -0.037527315
-0.13066453 -0.00021561328 0.04325549 -0.051347855 -0.0740062 -0.036906384 -0.0011738036 0.094505005
0.09336468 0.027666934 0.1450159 -0.028983157 0.04531594 -0.02627054 -0.028285127 -0.15823504
-0.013414087 -0.0117148785 -0.022569535 0.039630245 -0.03973839 -0.03265098 0.0053125583 0.041647814
00000000: 20aa 07bd b1e7 973d 5069 4c3c 89c3 213d
00000010: 4064 9bbd 40a1 aabd 9a8d 1a3d 08bb 43bc
00000020: c660 de3c 3eeb 28bd fa4a a23c b008 8cbb
00000030: e780 60bd 96e0 97bd 98e9 963c 5280 3bbe
00000040: d65c 5a3d 4c7b eb3c 4b7d 4ebd 9a7a b4bc
00000050: 9850 fd3c 4ccf c03c 1f4a 88bd 40ec 5dbc
00000060: 375d eebc 8c3a a4bd 90ac 41bc 888e 09bd
00000070: 4c1e 9ebd 47dc 003e c07d 703d 0e73 ce3c
00000080: 720d 7bbc dd5a 9a3c f00c ecbc d7b2 fbbc
00000090: aec2 913c bc29 153c 7ede b8bd eda8 9d3d
000000a0: 546a 4c3d a603 ae3c 4eb2 863d 1b7d 8d3d
000000b0: b04b a53d 7afb b1bd 2e6d a2bd 8e50 96bd
000000c0: a4ea ebbc 16ad 563d 5d7d 4cbd a700 6a3c
000000d0: 60a8 6bbd fb17 82bc 437a 2d3d 9d07 2cbd
000000e0: f860 08be b524 203c 912f 04bd a6dc 93bc
000000f0: e181 e33c 4745 ce3b cc46 863d 8833 4bbd
00000100: 29d1 d73d c08a 4cbd cb01 7f3d e9ea 233d
00000110: 8f6f d6bc cad6 023d a607 b33c 283c 663d
00000120: 759d bd3d 0e8a eebb 55c5 6b3c 7758 47bd
00000130: 7a40 483d 1d5b 873d d60c 11be 409b 49ba
00000140: 860f a73c fe59 8d3d a282 9a3d e3c2 ae3d
00000150: 228a 393d 9dfa 9f3b d29b a7bb 08ba e3bb
00000160: 1765 023e 9251 fa3c 4e22 d43c bc3e 593c
00000170: d8e5 433b 2ad6 4e3d 62de bbbc a157 a43c
00000180: eb09 c83c 17f5 86bd cd80 bebd 7cf4 4dbc
00000190: 8a28 c3bd 2f94 aabd 3c8c 7e3b 1dd2 fc3d
000001a0: 07f3 2cbd 00dc 03bd d447 3f3b 8076 66bd
000001b0: d207 b0bc acca 64bd d11e 04bd 2ae9 b9bd
000001c0: c027 80bd 1038 38bd f344 083d 1cdf 8b3c
000001d0: 57ee 523d 29c3 c83b 4807 1abd 5f64 003e
000001e0: 074a 733c a2e2 343a ee6d acbd af91 fe3c
000001f0: 40a5 c53d 59ae 14be 8d49 34bc a3b1 83bd
00000200: b2d6 9e3d 0983 823d 6072 8bbd fa40 863d
00000210: e31b b83d c858 81ba 88f6 1ebc e7ae 01bd
00000220: bcf1 643b ee08 0abc 964f 9dbc a1fa ce3b
00000230: d432 ba3c d83c e63c 5b18 cb3c fe07 81bc
00000240: 96d8 233c e838 7e3d 987e 34bd e05c c038
00000250: 5407 c53d 0371 97bc 2bd0 713d 57ca d73a
00000260: 08d7 bd3b f230 8abd ae34 c43d 84c1 20bc
00000270: d087 9b3c f5e9 0cbd 9523 85bc 9afc b23d
00000280: f338 16bd 56c5 6b3d e856 a83d 17d9 9dbc
00000290: 7868 d43b 6da6 6c3d 7808 02bd e6b9 853c
000002a0: b1f5 fcbd 1756 36bd 3fd4 84bc 209f 22bc
000002b0: 96c8 7b3d d1ef 3b3c 5885 e6bd 29dc f13d
000002c0: 608f 03bd 0390 26be 36e8 1a3d f21f e73c
000002d0: f405 d4bd 32c6 68bd 22c4 6abd e258 c83c
000002e0: 2e6d b93d d60d 6cbc 9466 8b3d 7caa a23b
000002f0: 1989 29bd fee6 47bd 9872 5fbb b0ef 67bc
00000300: cdd6 34bd 84f9 793d f7ef d53d a06f c2bd
00000310: ab28 44bd ff0c a93d 1df8 073d c2e1 de3d
00000320: 18df 7c3c bcee 553d 614c 2fbd 9c42 9ebd
00000330: 3737 a93d ecdd 533b 2092 8d3c 7408 2ebe
00000340: b752 173d 1207 f6bc 78b2 13bd 5090 e8b9
00000350: 297a 273c 433a 0dbd dedd 713d 7d59 31bd
00000360: 6426 dcbd d7bb aebc 36bf 8c3c 464f 88bc
00000370: a054 c139 97d8 9e3d 4bc1 80bd a6a7 b33c
00000380: b343 6b3d 7cb1 a73d fc7a c73d 956b 50bd
00000390: bbcc 7cbd 1c4e 91bc fa36 013e 3eb6 19bd
000003a0: eccc 05be 4016 62b9 ab2c 313d 2152 52bd
000003b0: 9090 97bd 262b 17bd 50da 99ba d78b c13d
000003c0: fb35 bf3d c4a5 e23c 0c7f 143e 166e edbc
000003d0: 359d 393d 5135 d7bc 36b6 e7bc 5e08 22be
000003e0: c2c6 5bbc c3ef 3fbc bfe3 b8bc 5353 223d
000003f0: b9c4 22bd 09bd 05bd f814 ae3b e696 2a3d
