lstm986_ae_0802.tflite (tflite, 286272 bytes, 18 tensors)

time_distributed_10/bias f4 [4]
0	0x3d9d9100	0.07693672
1	0x3d8e966b	0.06962284
2	0x3ca56301	0.02018881
3	0x3d4f3190	0.050584376

lstm_48/lstm_cell_64/bias f4 [256]
0	0x3c987524	0.018610545
1	0x3d4b46df	0.049628135
2	0x3d79b397	0.060962286
3	0x3c8bac50	0.017049938
4	0x3d60a71c	0.054846868
5	0x3d2254c9	0.03963164
6	0x3d83094d	0.06398258
7	0x3d813cb9	0.0631041
8	0x3cdd238b	0.026994487
9	0x3d3f3740	0.04668355
10	0x3d36114b	0.044450086
11	0x3d3de795	0.046363432
12	0x3d185de9	0.037198935
13	0x3cd56e5b	0.026053598
14	0x3cf03a12	0.029324565
15	0x3d6b2d6d	0.05741637
16	0x3d73fdf8	0.059568375
17	0x3cd8fd11	0.026487859
18	0x3cce2f7a	0.025169123
19	0x3d4243c0	0.047427893
20	0x3d54ace0	0.05192268
21	0x3d6d16d1	0.057883088
22	0x3cf372bf	0.029717801
23	0x3d6518b1	0.05593175
24	0x3ca70a49	0.020390647
25	0x3d6d05d3	0.057866883
26	0x3d171b8b	0.0368915
27	0x3d57b8c6	0.052666448
28	0x3d76f104	0.060288444
29	0x3d58fae8	0.052973658
30	0x3d7fe459	0.06247363
31	0x3d3b1063	0.045669924
32	0x3d11a916	0.035561644
33	0x3cfa8ecc	0.030585669
34	0x3d8cb289	0.068699904
35	0x3d3c1733	0.045920562
36	0x3d61b1b5	0.055101115
37	0x3c7f4959	0.015581452
38	0x3d7b9ede	0.061430804
39	0x3d5db02f	0.0541231
40	0x3d3a38e9	0.04546443
41	0x3d48bffa	0.049011208
42	0x3d5388a8	0.051643997
43	0x3d70c931	0.05878562
44	0x3d8f724d	0.07004223
45	0x3d2be6a6	0.04196801
46	0xbb92951c	-0.0044733416
47	0x3d71c231	0.059023086
48	0x3d5cff9c	0.053954706
49	0x3d49090d	0.049080897
50	0x3d17a37a	0.037021138
51	0x3d6e93f8	0.058246583
52	0x3d0d522d	0.034502197
53	0x3d3bc042	0.04583765
54	0x3d784cc1	0.060620073
55	0x3d110553	0.03540547
56	0x3cecf84b	0.028926989
57	0x3d78d03f	0.060745474
58	0x3d454be1	0.048168067
59	0x3d650da1	0.0559212
60	0x3d0050ce	0.03132706
61	0x3d4b5d67	0.049649622
62	0x3caaa3f8	0.02083014
63	0x3d853766	0.06504707
64	0x3f800000	1.0
65	0x3f800000	1.0
66	0x3f800000	1.0
67	0x3f800000	1.0
68	0x3f800000	1.0
69	0x3f800000	1.0
70	0x3f800000	1.0
71	0x3f800000	1.0
72	0x3f800000	1.0
73	0x3f800000	1.0
74	0x3f800000	1.0
75	0x3f800000	1.0
76	0x3f800000	1.0
77	0x3f800000	1.0
78	0x3f800000	1.0
79	0x3f800000	1.0
80	0x3f800000	1.0
81	0x3f800000	1.0
82	0x3f800000	1.0
83	0x3f800000	1.0
84	0x3f800000	1.0
85	0x3f800000	1.0
86	0x3f800000	1.0
87	0x3f800000	1.0
88	0x3f800000	1.0
89	0x3f800000	1.0
90	0x3f800000	1.0
91	0x3f800000	1.0
92	0x3f800000	1.0
93	0x3f800000	1.0
94	0x3f800000	1.0
95	0x3f800000	1.0
96	0x3f800000	1.0
97	0x3f800000	1.0
98	0x3f800000	1.0
99	0x3f800000	1.0
100	0x3f800000	1.0
101	0x3f800000	1.0
102	0x3f800000	1.0
103	0x3f800000	1.0
104	0x3f800000	1.0
105	0x3f800000	1.0
106	0x3f800000	1.0
107	0x3f800000	1.0
108	0x3f800000	1.0
109	0x3f800000	1.0
110	0x3f800000	1.0
111	0x3f800000	1.0
112	0x3f800000	1.0
113	0x3f800000	1.0
114	0x3f800000	1.0
115	0x3f800000	1.0
116	0x3f800000	1.0
117	0x3f800000	1.0
118	0x3f800000	1.0
119	0x3f800000	1.0
120	0x3f800000	1.0
121	0x3f800000	1.0
122	0x3f800000	1.0
123	0x3f800000	1.0
124	0x3f800000	1.0
125	0x3f800000	1.0
126	0x3f800000	1.0
127	0x3f800000	1.0
128	0xbcb2efdc	-0.02184289
129	0x3cef9da3	0.029249972
130	0xbd397f5c	-0.045287475
131	0x3b40c99f	0.002941705
132	0xbce3ad3d	-0.027792567
133	0x3d45a16b	0.048249643
134	0xbd7abe12	-0.06121642
135	0x3d8e90f4	0.06961241
136	0xbc277d6c	-0.010222774
137	0xbcb3e99d	-0.021961981
138	0x3d58e2b2	0.05295057
139	0x3ca616b6	0.020274501
140	0x3c917ad6	0.017758768
141	0xbb84bbcb	-0.004050707
142	0x3d0582d8	0.032595485
143	0x3d4f13b5	0.050555903
144	0xbd436efa	-0.047713257
145	0xbb8d81b1	-0.004318439
146	0xbc46b1b0	-0.012127325
147	0x3ca6a68f	0.020343093
148	0x3d26de3d	0.040739287
149	0x3d4b65b3	0.049657535
150	0xbcb8f244	-0.022576459
151	0xbd8943d3	-0.067023896
152	0xbc35571c	-0.011068132
153	0x3d3dec44	0.0463679
154	0x3c5b2fb0	0.013378069
155	0x3cedd337	0.02903138
156	0xbd2ea0e1	-0.042633895
157	0xbd36f87b	-0.044670563
158	0x3d59d869	0.0531849
159	0x3ce7a2d6	0.028275888
160	0x3c6396b9	0.013890916
161	0x3ca4b326	0.020104956
162	0x3d957eaf	0.072995536
163	0x3cad8fdf	0.021186767
164	0xbd41a7f0	-0.0472793
165	0x3c7c0033	0.015380907
166	0x3d1bf1cf	0.038072404
167	0x3d1cf650	0.03832084
168	0x3d5364a8	0.051609665
169	0xbd60905a	-0.054825164
170	0xbd4ad9b7	-0.049524035
171	0xbd2ad846	-0.04171016
172	0x3d32eeb9	0.043684695
173	0xbcaec96e	-0.021336284
174	0xbc3cdb3a	-0.011526877
175	0xbd831042	-0.06399585
176	0xbd04bd88	-0.032407314
177	0x3d4c0927	0.049813416
178	0x3cc77398	0.024347112
179	0xbced4e43	-0.028967982
180	0x3c67ed60	0.014155716
181	0xbd88c99a	-0.066790774
182	0x3d9f63e3	0.07782724
183	0xbbcc30f7	-0.006231423
184	0xbc5e1418	-0.013554595
185	0x3d755925	0.059899468
186	0x3ccb9415	0.024850884
187	0x3d671c1c	0.05642329
188	0x39b94a73	0.0003534142
189	0xbcf3f99b	-0.029782107
190	0xbb1f4f1b	-0.0024308625
191	0x3d29ae3d	0.041425932
192	0x3c9602ab	0.018311819
193	0x3d47d0e1	0.048783187
194	0x3d788d0c	0.060681388
195	0x3c90b79e	0.01766568
196	0x3d60cc6c	0.054882452
197	0x3d2147a1	0.03937495
198	0x3d824e93	0.06362643
199	0x3d80f3c2	0.06296493
200	0x3cdb4c33	0.026769733
201	0x3d3cd871	0.046104852
202	0x3d342b16	0.043986402
203	0x3d473a70	0.048639715
204	0x3d196b11	0.037455622
205	0x3cdfd5ba	0.027323592
206	0x3cf0518a	0.029335756
207	0x3d68eaee	0.05686467
208	0x3d735dda	0.059415676
209	0x3cde2dc2	0.027121428
210	0x3ccd752c	0.025080286
211	0x3d419224	0.04725851
212	0x3d53b6ad	0.051687885
213	0x3d6c5b24	0.057704106
214	0x3cee8a39	0.029118644
215	0x3d651ac2	0.05593372
216	0x3cacf494	0.021112718
217	0x3d6d9d1b	0.058011156
218	0x3d14fec3	0.036375772
219	0x3d58c1ad	0.05291908
220	0x3d75b214	0.05998428
221	0x3d5494ba	0.05189965
222	0x3d7f8691	0.062384192
223	0x3d38e20b	0.045137446
224	0x3d0bd60c	0.034139678
225	0x3cf6923b	0.030099025
226	0x3d8a0f87	0.06741243
227	0x3d3d3d49	0.046201024
228	0x3d5fb817	0.05461892
229	0x3c8389ce	0.016056921
230	0x3d7dfb03	0.06200696
231	0x3d5c0f7e	0.053725712
232	0x3d3ba546	0.045811914
233	0x3d479610	0.048727095
234	0x3d52fe7a	0.05151222
235	0x3d6fa69e	0.058508508
236	0x3d8db766	0.06919746
237	0x3d2ca3f0	0.04214853
238	0xbba3138c	-0.0049766954
239	0x3d717674	0.058950856
240	0x3d5c7045	0.053818006
241	0x3d472546	0.04861953
242	0x3d168262	0.036745436
243	0x3d6afef0	0.057372034
244	0x3d1244ca	0.035710134
245	0x3d394c8f	0.045239028
246	0x3d79747f	0.060902115
247	0x3d148909	0.0362635
248	0x3ceba21c	0.028763823
249	0x3d780f61	0.06056154
250	0x3d4590ac	0.048233673
251	0x3d641d02	0.055691727
252	0x3d081922	0.033227094
253	0x3d49ef20	0.049300313
254	0x3ca98f86	0.02069832
255	0x3d8606d9	0.06544275

lstm_47/lstm_cell_63/bias f4 [128]
0	0x3d47798e	0.048699908
1	0x3d0dce9f	0.034620877
2	0x3d3b5ae3	0.045740973
3	0x3d4c05ba	0.04981015
4	0x3d4a2f14	0.049361303
5	0x3d2e93a1	0.04262126
6	0x3d1ae3e0	0.037814975
7	0x3d6c4337	0.05768129
8	0x3d4988b7	0.049202647
9	0x3cf5efd3	0.030021584
10	0x3d46419c	0.048402414
11	0x3d5a7bf4	0.053340867
12	0x3d18d286	0.037310146
13	0x3d09fc87	0.033688094
14	0x3d4157f5	0.047203023
15	0x3d2987f1	0.04138941
16	0x3d3e577a	0.046470143
17	0x3d2881c2	0.04113937
18	0x3d4d2ceb	0.050091665
19	0x3d2818cb	0.04103927
20	0x3d60eea4	0.054915085
21	0x3d1de40a	0.038547553
22	0x3d51001d	0.0510255
23	0x3d4b3dd2	0.049619503
24	0x3d15a6cd	0.036536027
25	0x3d0ec6ba	0.03485749
26	0x3d62fa34	0.055414394
27	0x3d59c2ec	0.053164408
28	0x3d2ece64	0.0426773
29	0x3d4f5c0c	0.050624892
30	0x3d19012e	0.03735464
31	0x3d33df76	0.04391428
32	0x3f800000	1.0
33	0x3f800000	1.0
34	0x3f800000	1.0
35	0x3f800000	1.0
36	0x3f800000	1.0
37	0x3f800000	1.0
38	0x3f800000	1.0
39	0x3f800000	1.0
40	0x3f800000	1.0
41	0x3f800000	1.0
42	0x3f800000	1.0
43	0x3f800000	1.0
44	0x3f800000	1.0
45	0x3f800000	1.0
46	0x3f800000	1.0
47	0x3f800000	1.0
48	0x3f800000	1.0
49	0x3f800000	1.0
50	0x3f800000	1.0
51	0x3f800000	1.0
52	0x3f800000	1.0
53	0x3f800000	1.0
54	0x3f800000	1.0
55	0x3f800000	1.0
56	0x3f800000	1.0
57	0x3f800000	1.0
58	0x3f800000	1.0
59	0x3f800000	1.0
60	0x3f800000	1.0
61	0x3f800000	1.0
62	0x3f800000	1.0
63	0x3f800000	1.0
64	0x3cb6305c	0.022239856
65	0xbcdcac5c	-0.026937656
66	0xbcc333d3	-0.023828423
67	0xbcde1636	-0.0271102
68	0xbcb1147e	-0.021616217
69	0xbcd5f33a	-0.026116956
70	0xbc9c5dbe	-0.019087669
71	0xbcc7cbad	-0.024389112
72	0x3cdfb5bd	0.02730834
73	0x3cd0f188	0.025505796
74	0x3cba8b57	0.02277152
75	0xbce9dbc7	-0.02854718
76	0xbcc4e1e3	-0.024033492
77	0xbb36e232	-0.002790582
78	0xbce877f6	-0.028377514
79	0x3cdd1e5a	0.026992012
80	0x3cea673d	0.028613681
81	0x3d1b8435	0.03796788
82	0x3cfa491b	0.030552438
83	0x3cd0366f	0.025416581
84	0x3cf2e92f	0.029652206
85	0xbb7f257d	-0.0038932257
86	0xbcf1ed58	-0.02953212
87	0xbcdf3eae	-0.027251568
88	0x3cab3e96	0.020903867
89	0x3cc2f69c	0.023799233
90	0xbcfa6e6e	-0.030570235
91	0xbcc3441b	-0.023836186
92	0x3cff1d32	0.031141851
93	0x3cc2f854	0.023800053
94	0x3bc2f0f3	0.0059491335
95	0xbcc784d2	-0.024355326
96	0x3d47cc13	0.048778605
97	0x3d10cb65	0.035350222
98	0x3d36aad2	0.0445965
99	0x3d4fa969	0.05069867
100	0x3d4c74d2	0.049916096
101	0x3d2fa3d7	0.04288086
102	0x3d1a5aaa	0.03768412
103	0x3d70e59e	0.05881273
104	0x3d41f38f	0.047351416
105	0x3cfd6a84	0.03093458
106	0x3d4aab30	0.049479663
107	0x3d5968cc	0.053078458
108	0x3d161e95	0.03665026
109	0x3d0fc5b9	0.035100672
110	0x3d464ba9	0.048412
111	0x3d2ec825	0.04267134
112	0x3d42eb4b	0.047587674
113	0x3d2aa0a7	0.041657116
114	0x3d4d2785	0.050086517
115	0x3d2a298d	0.041543532
116	0x3d64305e	0.05571019
117	0x3d1b591f	0.03792679
118	0x3d4dc4b3	0.050236415
119	0x3d4e1ded	0.05032151
120	0x3d1896c8	0.03725317
121	0x3d0e4782	0.034736164
122	0x3d6414e2	0.055683978
123	0x3d643ee3	0.055724036
124	0x3d3326e6	0.04373827
125	0x3d557cd4	0.052121
126	0x3d1c4e07	0.03816035
127	0x3d30ef2e	0.04319685

lstm_46/lstm_cell_62/bias f4 [128]
0	0x3d2e556b	0.04256193
1	0x3d5eb8ab	0.05437533
2	0x3d1718d6	0.03688892
3	0x3c7fdb00	0.0156161785
4	0x3d2e6e4d	0.04258566
5	0x3d568d11	0.052380625
6	0x3d33eccb	0.043926995
7	0x3d47db20	0.04879296
8	0x3d350805	0.0441971
9	0x3d414a19	0.047189806
10	0x3d4a6353	0.04941113
11	0x3d739d91	0.05947644
12	0x3d070d6e	0.032971792
13	0x3d609cb6	0.05483695
14	0x3d2863ed	0.04111092
15	0x3d441ec9	0.04788092
16	0x3d3b1ced	0.045681883
17	0x3d5561ea	0.05209533
18	0x3d269f34	0.04067917
19	0x3d66ae1c	0.056318387
20	0x3d6a50ac	0.05720584
21	0x3ca9337d	0.020654434
22	0x3d6ea73a	0.05826495
23	0x3c011b1f	0.007880001
24	0x3d39c4e4	0.045353785
25	0x3d61dfe8	0.055145174
26	0x3d665360	0.056231856
27	0x3d3c07c4	0.045905843
28	0x3d521dd0	0.051297963
29	0x3d5f824c	0.05456762
30	0x3d16b178	0.03679034
31	0x3d26cd6a	0.040723242
32	0x3f800000	1.0
33	0x3f800000	1.0
34	0x3f800000	1.0
35	0x3f800000	1.0
36	0x3f800000	1.0
37	0x3f800000	1.0
38	0x3f800000	1.0
39	0x3f800000	1.0
40	0x3f800000	1.0
41	0x3f800000	1.0
42	0x3f800000	1.0
43	0x3f800000	1.0
44	0x3f800000	1.0
45	0x3f800000	1.0
46	0x3f800000	1.0
47	0x3f800000	1.0
48	0x3f800000	1.0
49	0x3f800000	1.0
50	0x3f800000	1.0
51	0x3f800000	1.0
52	0x3f800000	1.0
53	0x3f800000	1.0
54	0x3f800000	1.0
55	0x3f800000	1.0
56	0x3f800000	1.0
57	0x3f800000	1.0
58	0x3f800000	1.0
59	0x3f800000	1.0
60	0x3f800000	1.0
61	0x3f800000	1.0
62	0x3f800000	1.0
63	0x3f800000	1.0
64	0xbb7b1030	-0.003830921
65	0xbcb26e9b	-0.021781256
66	0x3cb99fee	0.022659268
67	0x3c8a169b	0.016856482
68	0xbc07b2c9	-0.008282372
69	0x3cb4f6bb	0.022090307
70	0xbbede519	-0.0072599766
71	0x3c4dce57	0.012561402
72	0xbca3cefe	-0.019996163
73	0x3c1ede94	0.009696621
74	0x3c793ac8	0.015211768
75	0xbcb0b6f0	-0.021571606
76	0x3a991a14	0.0011680746
77	0x3cb4b33d	0.022058124
78	0x3cbdffb6	0.023193222
79	0xbc8fafd1	-0.01753989
80	0x3cc88cbb	0.024481168
81	0x3ccc5053	0.024940645
82	0xbcb8520a	-0.022500057
83	0x3c8ee040	0.017440915
84	0xbca3b314	-0.019982852
85	0xbc9ce91a	-0.01915412
86	0x3ca6d7b3	0.020366525
87	0x3c405eca	0.0117413495
88	0xbbce4d6d	-0.006295851
89	0xbc3adc7b	-0.011405106
90	0x3cb94993	0.02261809
91	0xbcd2c72d	-0.02572974
92	0xbcc5cb5f	-0.024144826
93	0x3c95a8d4	0.01826898
94	0xbcce99a9	-0.025219755
95	0x3cbce9ba	0.023060668
96	0x3d2851c2	0.041093595
97	0x3d696623	0.05698217
98	0x3d0d1b64	0.03444995
99	0x3c74d19c	0.014942553
100	0x3d313e60	0.043272376
101	0x3d61140f	0.05495077
102	0x3d301a05	0.042993564
103	0x3d4dfd2b	0.050290268
104	0x3d30d031	0.043167297
105	0x3d432002	0.047637947
106	0x3d4c572c	0.04988782
107	0x3d766aa7	0.060160305
108	0x3d14301f	0.036178704
109	0x3d62657c	0.055272564
110	0x3d30eb1c	0.043192968
111	0x3d4d5391	0.050128523
112	0x3d3bfd08	0.045895606
113	0x3d5bf1c4	0.053697363
114	0x3d32ed60	0.04368341
115	0x3d6a542f	0.05720919
116	0x3d7731b2	0.060350128
117	0x3ca24cea	0.019812066
118	0x3d6f979c	0.058494195
119	0x3c3da7c5	0.011575644
120	0x3d3d2f59	0.046187732
121	0x3d642798	0.055701822
122	0x3d64af71	0.055831376
123	0x3d4076cc	0.046988294
124	0x3d579943	0.052636396
125	0x3d6f635d	0.05844437
126	0x3d18e89b	0.037331205
127	0x3d2dedbf	0.04246306

lstm_45/lstm_cell_61/bias f4 [256]
0	0x3d54e309	0.05197433
1	0x3c39c728	0.011338986
2	0x3d64ee96	0.055891596
3	0x3d56347e	0.052296154
4	0x3d3c7a9f	0.046015378
5	0x3d527fa8	0.051391274
6	0x3d4dfffb	0.05029295
7	0x3d09f7fe	0.03368377
8	0x3d2ab71a	0.041678526
9	0x3d802d0b	0.06258591
10	0x3d63fdca	0.055661954
11	0x3d0f7326	0.035021923
12	0x3d5efa88	0.054438144
13	0x3d2df4d0	0.0424698
14	0x3d1e1a2f	0.03859919
15	0x3d7bdb9f	0.061488744
16	0x3d109f92	0.035308428
17	0x3d4fb6d5	0.05071147
18	0x3d3bacad	0.045818973
19	0x3d5aac22	0.053386815
20	0x3d050024	0.032470837
21	0x3d30f18f	0.04319912
22	0x3d6d99de	0.058008067
23	0x3d2251a3	0.039628636
24	0x3d061424	0.03273405
25	0x3d38d609	0.045125995
26	0x3d42de51	0.0475753
27	0x3d7b2a88	0.061319858
28	0x3d3d6052	0.046234436
29	0x3d3f1f34	0.046660617
30	0x3d12223c	0.03567718
31	0x3d620859	0.055183742
32	0x3d4309fa	0.047616936
33	0x3d440b0d	0.0478621
34	0x3d6b35fd	0.057424534
35	0x3d77d065	0.060501475
36	0x3d518791	0.051154677
37	0x3d4693c2	0.048480757
38	0x3d7de8b8	0.061989516
39	0x3d6769fe	0.056497566
40	0x3d76f662	0.060293563
41	0x3d64566c	0.05574648
42	0x3d5ca153	0.05386479
43	0x3d42ba86	0.047541164
44	0x3d736e81	0.059431557
45	0x3d58e09f	0.05294859
46	0x3d84440a	0.0645829
47	0x3d2e4376	0.042544805
48	0x3d72ee05	0.059309024
49	0x3d447529	0.047963295
50	0x3d1026bf	0.0351932
51	0x3ccc8505	0.024965772
52	0x3d87b338	0.0662598
53	0x3d5276b5	0.05138274
54	0x3d0b3043	0.033981573
55	0x3d33ccc6	0.04389646
56	0x3d6659ff	0.05623817
57	0x3d514996	0.051095568
58	0x3d8fb161	0.07016254
59	0x3d35c9df	0.044381972
60	0x3d72e901	0.05930424
61	0x3d5d29a5	0.053994793
62	0x3d7f86c9	0.0623844
63	0x3d28eedb	0.041243415
64	0x3f800000	1.0
65	0x3f800000	1.0
66	0x3f800000	1.0
67	0x3f800000	1.0
68	0x3f800000	1.0
69	0x3f800000	1.0
70	0x3f800000	1.0
71	0x3f800000	1.0
72	0x3f800000	1.0
73	0x3f800000	1.0
74	0x3f800000	1.0
75	0x3f800000	1.0
76	0x3f800000	1.0
77	0x3f800000	1.0
78	0x3f800000	1.0
79	0x3f800000	1.0
80	0x3f800000	1.0
81	0x3f800000	1.0
82	0x3f800000	1.0
83	0x3f800000	1.0
84	0x3f800000	1.0
85	0x3f800000	1.0
86	0x3f800000	1.0
87	0x3f800000	1.0
88	0x3f800000	1.0
89	0x3f800000	1.0
90	0x3f800000	1.0
91	0x3f800000	1.0
92	0x3f800000	1.0
93	0x3f800000	1.0
94	0x3f800000	1.0
95	0x3f800000	1.0
96	0x3f800000	1.0
97	0x3f800000	1.0
98	0x3f800000	1.0
99	0x3f800000	1.0
100	0x3f800000	1.0
101	0x3f800000	1.0
102	0x3f800000	1.0
103	0x3f800000	1.0
104	0x3f800000	1.0
105	0x3f800000	1.0
106	0x3f800000	1.0
107	0x3f800000	1.0
108	0x3f800000	1.0
109	0x3f800000	1.0
110	0x3f800000	1.0
111	0x3f800000	1.0
112	0x3f800000	1.0
113	0x3f800000	1.0
114	0x3f800000	1.0
115	0x3f800000	1.0
116	0x3f800000	1.0
117	0x3f800000	1.0
118	0x3f800000	1.0
119	0x3f800000	1.0
120	0x3f800000	1.0
121	0x3f800000	1.0
122	0x3f800000	1.0
123	0x3f800000	1.0
124	0x3f800000	1.0
125	0x3f800000	1.0
126	0x3f800000	1.0
127	0x3f800000	1.0
128	0x3d919cff	0.07110023
129	0xbb842b93	-0.0040335148
130	0xbc23d462	-0.0099993665
131	0x3bd36086	0.0064507155
132	0x3c95286f	0.018207757
133	0x3b899ed0	0.00419984
134	0x3c8ff266	0.01757164
135	0x3d85b972	0.065295115
136	0xbcd59ed3	-0.02607671
137	0x3c9077f7	0.017635329
138	0xbd750295	-0.059816916
139	0x3ce4cc6f	0.027929513
140	0xb98da4a6	-0.00027016288
141	0x3c58b238	0.013226084
142	0x3c2ad2e5	0.010426258
143	0x3bb5f825	0.005553263
144	0xbca232c9	-0.019799607
145	0x3b97193e	0.0046111634
146	0xbcbafef2	-0.022826646
147	0x3c50027e	0.012695907
148	0x3d626cca	0.05527953
149	0xbbc587a0	-0.0060281307
150	0x393ae358	0.00017823034
151	0xbc43d3a4	-0.0119523145
152	0xbd730b3d	-0.05933689
153	0xbb5544d7	-0.0032542252
154	0x39f83a6e	0.0004734578
155	0xbba104d1	-0.0049139042
156	0x3c40c074	0.011764634
157	0xbb8d5c7b	-0.004314003
158	0xbcb8f7cd	-0.022579098
159	0x3baa8462	0.0052037695
160	0xbd33401e	-0.04376232
161	0x3ca93f89	0.020660179
162	0x3916ef08	0.00014394161
163	0x3c0e813a	0.008697802
164	0xb9d22c00	-0.00040087104
165	0xbc81d5e9	-0.01584907
166	0x3ca2f0b9	0.019890176
167	0x3b2af0ca	0.0026083463
168	0x3c22e40a	0.009942064
169	0xbc349070	-0.011020765
170	0xbc1904f5	-0.009339561
171	0xba181ad8	-0.000580234
172	0x3c46c0c7	0.012130923
173	0x3c98bde8	0.018645242
174	0xbba51c16	-0.0050387485
175	0x3c323fa1	0.010879428
176	0x3b97d378	0.0046333633
177	0xbc8e9600	-0.01740551
178	0x3b698ab6	0.0035635657
179	0xbd09cf9d	-0.03364526
180	0xba84ea7e	-0.0010140685
181	0xbc4419b2	-0.011969017
182	0x3c5e8661	0.013581843
183	0xbd118977	-0.035531487
184	0x3b4da54a	0.0031379038
185	0x3c913228	0.017724112
186	0xbd78e228	-0.060762554
187	0xbb988735	-0.00465479
188	0x3ba88f45	0.005144032
189	0x3bbf95b9	0.0058467058
190	0x3c04f95f	0.008116095
191	0x3bbc0fe0	0.005739197
192	0x3d4d0372	0.050052114
193	0x3c24f128	0.010067262
194	0x3d77c64f	0.060491856
195	0x3d614f6e	0.05500739
196	0x3d5018e5	0.05080499
197	0x3d64afd1	0.055831734
198	0x3d2a035a	0.041507103
199	0x3cf680b9	0.030090677
200	0x3d19af55	0.037520725
201	0x3d71716d	0.058946062
202	0x3d650173	0.055909585
203	0x3d3b03e2	0.045658
204	0x3d5fff3d	0.054686774
205	0x3d278786	0.04090073
206	0x3d2e1ce3	0.042508017
207	0x3d841ee5	0.06451205
208	0x3d2505d6	0.04028877
209	0x3d686780	0.05673933
210	0x3d3b282b	0.045692604
211	0x3d56ab07	0.052409198
212	0x3d0d1b63	0.034449946
213	0x3d414fa7	0.047195103
214	0x3d64813a	0.055787303
215	0x3d2bf028	0.041977078
216	0x3d2197c3	0.039451372
217	0x3d3e719d	0.04649507
218	0x3d4f4765	0.050605197
219	0x3d7f2bfd	0.06229781
220	0x3d3eafe6	0.04655447
221	0x3d4281c0	0.04748702
222	0x3d0cb408	0.03435138
223	0x3d72c378	0.059268445
224	0x3d3102fd	0.04321574
225	0x3d42530c	0.04744248
226	0x3d6b31cd	0.05742054
227	0x3d7348e6	0.059395693
228	0x3d4396e2	0.047751315
229	0x3d4fe2eb	0.050753515
230	0x3d65b3f0	0.056079805
231	0x3d657823	0.056022774
232	0x3d446c93	0.047955107
233	0x3d7c7e24	0.061643735
234	0x3d582b8f	0.052775916
235	0x3d466e73	0.048445176
236	0x3d59a057	0.053131428
237	0x3d544782	0.051826008
238	0x3d95355f	0.0728557
239	0x3d2561ab	0.040376347
240	0x3d7aeff9	0.061264012
241	0x3d59ae7b	0.053144913
242	0x3d148b57	0.036265697
243	0x3ce0aba9	0.027425604
244	0x3d7bfc0a	0.06151966
245	0x3d499a4a	0.049219407
246	0x3cfc0caf	0.030767767
247	0x3d36aa05	0.044595737
248	0x3d6a52a8	0.057207733
249	0x3d42b636	0.04753705
250	0x3d8edda9	0.06975872
251	0x3d3a7592	0.04552228
252	0x3d6aec5c	0.057354316
253	0x3d6428f2	0.05570311
254	0x3d7af1db	0.061265808
255	0x3d45b509	0.04826835

sequential_19/time_distributed_10/dense_10/MatMul f4 [4, 64]
0	0xbea4ea10	-0.32209826
1	0x3eadecbc	0.33969676
2	0xbe5d190b	-0.21591584
3	0xbd372fb6	-0.044723235
4	0xbe38f168	-0.18060839
5	0x3dd196b2	0.10233821
6	0xbe96a3cf	-0.2942185
7	0x3e9c9812	0.3058477
8	0x3d9f52ad	0.07779441
9	0xbdcfc1b2	-0.10144366
10	0x3e2d2f89	0.16912664
11	0x3dd8a0ff	0.105775826
12	0x3dceb7b9	0.10093636
13	0x3dd9f2d3	0.10642018
14	0x3ea997c1	0.33123592
15	0x3e821a7b	0.25410828
16	0xbe100254	-0.14063388
17	0xbbd9f69f	-0.006651714
18	0xbd0ffcd8	-0.03515324
19	0x3dc41707	0.095747046
20	0xbdf152bc	-0.117833585
21	0x3e02b327	0.12763654
22	0xbe929db0	-0.2863593
23	0xbe441474	-0.19148427
24	0xbe9fc088	-0.31201577
25	0xbda8030c	-0.08203706
26	0xbd9dae0c	-0.076992124
27	0x3e61e779	0.22060956
28	0xbe41fe0b	-0.18944566
29	0xbe6f2250	-0.23352933
30	0x3e54dc56	0.20787176
31	0x3ea71be6	0.32638472
32	0x3e29fdcf	0.16600727
33	0x3e0bb0bd	0.13641639
34	0x3e4557bf	0.19271754
35	0xbd0e7699	-0.034781072
36	0xbe9ad393	-0.30239543
37	0xbdd736fd	-0.10508535
38	0x3e769bcc	0.2408287
39	0x3e969efd	0.29418173
40	0xbd4d6419	-0.05014429
41	0xbd7fead6	-0.062479816
42	0xbea3e226	-0.32008475
43	0xbdbcd10a	-0.092195585
44	0x3d55197e	0.052026264
45	0x3da8d8db	0.08244487
46	0x3e20ba50	0.15696073
47	0xbe82008f	-0.2539105
48	0xbd9c283f	-0.07624864
49	0x3e47a8bc	0.19497961
50	0x3d0f0eba	0.034926154
51	0xbe009ada	-0.12559071
52	0xbe380aac	-0.17972821
53	0xbe8e560c	-0.27800024
54	0x3e671a13	0.2256854
55	0x3d84aba8	0.06478053
56	0xbe0018f9	-0.12509526
57	0x3e2d0a91	0.16898562
58	0x3db7ac54	0.08968416
59	0x3e57ca4a	0.21073261
60	0x3c3ec397	0.011643312
61	0xbe69b0fc	-0.2282142
62	0x3daf5f91	0.0856315
63	0x3af71eee	0.0018853822
64	0x3e13a12d	0.14416952
65	0x3e0f2a43	0.13980965
66	0xbea4a66f	-0.3215823
67	0x3e391a6d	0.18076487
68	0xbc9b2e92	-0.018943105
69	0x3e58549b	0.21126024
70	0xbe4acbd9	-0.19804324
71	0x3c88e92f	0.016712753
72	0xbd960afa	-0.07326312
73	0xbead20d4	-0.33814108
74	0x3d4a32bc	0.04936479
75	0x3c9e003b	0.01928722
76	0x3c7fad68	0.015605308
77	0xbcd20d50	-0.025641114
78	0xbe1b3234	-0.1515587
79	0x3ea2bb2a	0.3178342
80	0xbe2b7e81	-0.16747476
81	0xbd85518e	-0.06509696
82	0x3d01d506	0.031697296
83	0x3e155c8d	0.14586087
84	0x3e8bf838	0.27337813
85	0x3e7cf847	0.24704085
86	0x3e351a09	0.17685713
87	0xbe0356d7	-0.12826096
88	0x3e1abbed	0.1511075
89	0x3e2c43b4	0.16822702
90	0x3e99d4be	0.30045122
91	0x3e279608	0.16365826
92	0xbea313d6	-0.3185107
93	0xbd963fd4	-0.07336393
94	0x3e6d984c	0.23202628
95	0xbc4449d7	-0.011980495
96	0xbcb2f663	-0.021846002
97	0xbd750af8	-0.059824914
98	0x3ea87d7c	0.32908237
99	0x3e3266fe	0.17422101
100	0xbe81964e	-0.25309986
101	0x3da4d3e9	0.08048231
102	0x3dbd83ee	0.09253679
103	0x3e9401b7	0.28907558
104	0x3e66116b	0.22467582
105	0xbde3a39e	-0.11115192
106	0xbdf7650f	-0.12079822
107	0xbeaee1fa	-0.3415678
108	0x3e6d9ff9	0.23205556
109	0xbe8a26a7	-0.26982614
110	0xbddff92d	-0.109361984
111	0xbe20d16e	-0.15704891
112	0xbe6fdcaa	-0.2342402
113	0x3dbac67c	0.09119889
114	0x3d893f71	0.067015536
115	0xbdf53b7e	-0.11974238
116	0x3e9b3ca7	0.30319712
117	0xbdeb8e98	-0.11501807
118	0xbc1ce6de	-0.009576527
119	0xbe1523a4	-0.14564377
120	0x3d7b6519	0.06137571
121	0x3ea67c9b	0.3251694
122	0x3e12efde	0.14349315
123	0x3e1a08a7	0.15042363
124	0x3e863b59	0.26217154
125	0xbd28bb28	-0.04119411
126	0xbba95b7e	-0.0051683774
127	0x3e97efe3	0.29675207
128	0xbe801f70	-0.25023985
129	0x3ea9c700	0.33159637
130	0xbd735291	-0.059404913
131	0xbe8f551c	-0.2799462
132	0xbe80972a	-0.2511533
133	0xbe11f85f	-0.14254902
134	0x3d88cb42	0.06679393
135	0xba97fa4a	-0.0011594978
136	0xbe1d9ea3	-0.15392546
137	0xbe989821	-0.29803565
138	0xbd2d8ad5	-0.04236873
139	0x3e90834f	0.2822518
140	0x3e971213	0.29505977
141	0xbe80c65a	-0.2515133
142	0x3df5964e	0.11991559
143	0xbb45e9f7	-0.0030199268
144	0xbcf5c8f8	-0.030003056
145	0xbe9719a3	-0.29511747
146	0xbe963832	-0.2933975
147	0x3e886131	0.2663665
148	0x3d6d6a80	0.057962894
149	0xbbbd1f46	-0.0057715503
150	0xbea39cb0	-0.3195548
151	0x3e114a57	0.14188515
152	0xbe961572	-0.29313236
153	0x3d81f586	0.06345658
154	0x3eaa0856	0.33209485
155	0x3e563f97	0.20922695
156	0xbe170bdd	-0.14750619
157	0xbe4181f0	-0.18897223
158	0x3b8f349b	0.0043702847
159	0x3e94cb57	0.29061386
160	0x3ea76a6c	0.3269838
161	0x3e0ba3ab	0.13636653
162	0xbe4f60b0	-0.20251727
163	0x3e9da541	0.3079014
164	0x3bf474e3	0.007460223
165	0x3e4288eb	0.18997543
166	0x3e7168f1	0.23575188
167	0x3e586984	0.21134001
168	0xbdc1c639	-0.09461636
169	0x3cf6e08a	0.030136365
170	0xbd8ce01e	-0.068786845
171	0xbd5ee5e5	-0.054418463
172	0x3e2127a0	0.15737772
173	0xbe40856e	-0.188009
174	0xbd60c3d2	-0.05487425
175	0xbca30250	-0.019898564
176	0xbe8094e2	-0.2511359
177	0xbc4be8f2	-0.012445675
178	0x3e8b9953	0.27265415
179	0xbe9ac3e3	-0.30227575
180	0x3eaacd8a	0.3335994
181	0x3e693747	0.22774993
182	0xbc5e144d	-0.013554645
183	0xbe70910d	-0.23492832
184	0xbe9a7414	-0.30166686
185	0xbe01b918	-0.12668264
186	0x3e8255df	0.2545614
187	0xbd83476f	-0.06410109
188	0x3ea4f276	0.32216233
189	0xbe866770	-0.26250792
190	0xbe66f3de	-0.22553965
191	0x3e154e54	0.14580661
192	0x3e0c5d25	0.13707407
193	0xbd82927b	-0.06375595
194	0x3c9346c8	0.017978087
195	0xbe3b0af9	-0.18265904
196	0xbd5c2bda	-0.053752758
197	0x3e806bda	0.25082284
198	0xbe739754	-0.23788196
199	0x3c0873a8	0.008328356
200	0xbe62a794	-0.22134238
201	0x3de6af87	0.11263948
202	0x3e80a96b	0.25129256
203	0x3d5b11db	0.053483825
204	0x3e9b8505	0.30374923
205	0xbea01be7	-0.31271288
206	0x3e95417f	0.29151532
207	0x3e264778	0.162382
208	0xbe0879ab	-0.13327663
209	0xbe55a504	-0.2086373
210	0xbe5fb6e5	-0.21847112
211	0x3dc6307f	0.09677219
212	0x3e3ceff1	0.18450905
213	0x3e6f5608	0.23372662
214	0xbe922a50	-0.28547907
215	0xbe7e635e	-0.24842593
216	0x3dfdfcd3	0.12401738
217	0x3e7f05d8	0.24904573
218	0x3da99760	0.082808256
219	0x3c038aa8	0.008028664
220	0x3d4b7dfc	0.049680695
221	0x3e325d90	0.17418504
222	0x3e5520da	0.20813313
223	0xbe003e20	-0.12523699
224	0x3c9b7601	0.018977167
225	0x3e2c76eb	0.16842239
226	0x3e4df27e	0.20112035
227	0x3ce7eb33	0.028310394
228	0xbe96437b	-0.2934836
229	0x3e9ac893	0.3023115
230	0x3de4abae	0.11165558
231	0x3e945b99	0.28976133
232	0x3e9a030a	0.30080444
233	0xbe49935b	-0.19685118
234	0xbde19fd8	-0.11016816
235	0x3c686174	0.014183391
236	0xbbb2170e	-0.0054348772
237	0x3d5a9b9c	0.053371057
238	0xbe7d96d7	-0.24764572
239	0x3e117259	0.14203776
240	0xbe20fee9	-0.1572224
241	0x3e67f59c	0.22652286
242	0x3e8574aa	0.2606557
243	0xbcb2f6df	-0.021846233
244	0x3ea54d5e	0.3228559
245	0xbe90edf8	-0.28306556
246	0x3dd3c0b8	0.103394926
247	0xbd44f428	-0.048084408
248	0xbe6694af	-0.22517656
249	0x3e73a1e9	0.23792233
250	0x3dfea626	0.12434034
251	0x3e8f7ae8	0.28023458
252	0xbe01a4da	-0.12660542
253	0xbdb46a1f	-0.088093035
254	0xbe833cee	-0.25632423
255	0x3d7ea1ae	0.06216591

lstm_45/lstm_cell_61/bias1 f4 [256]
0	0x3d54e309	0.05197433
1	0x3c39c728	0.011338986
2	0x3d64ee96	0.055891596
3	0x3d56347e	0.052296154
4	0x3d3c7a9f	0.046015378
5	0x3d527fa8	0.051391274
6	0x3d4dfffb	0.05029295
7	0x3d09f7fe	0.03368377
8	0x3d2ab71a	0.041678526
9	0x3d802d0b	0.06258591
10	0x3d63fdca	0.055661954
11	0x3d0f7326	0.035021923
12	0x3d5efa88	0.054438144
13	0x3d2df4d0	0.0424698
14	0x3d1e1a2f	0.03859919
15	0x3d7bdb9f	0.061488744
16	0x3d109f92	0.035308428
17	0x3d4fb6d5	0.05071147
18	0x3d3bacad	0.045818973
19	0x3d5aac22	0.053386815
20	0x3d050024	0.032470837
21	0x3d30f18f	0.04319912
22	0x3d6d99de	0.058008067
23	0x3d2251a3	0.039628636
24	0x3d061424	0.03273405
25	0x3d38d609	0.045125995
26	0x3d42de51	0.0475753
27	0x3d7b2a88	0.061319858
28	0x3d3d6052	0.046234436
29	0x3d3f1f34	0.046660617
30	0x3d12223c	0.03567718
31	0x3d620859	0.055183742
32	0x3d4309fa	0.047616936
33	0x3d440b0d	0.0478621
34	0x3d6b35fd	0.057424534
35	0x3d77d065	0.060501475
36	0x3d518791	0.051154677
37	0x3d4693c2	0.048480757
38	0x3d7de8b8	0.061989516
39	0x3d6769fe	0.056497566
40	0x3d76f662	0.060293563
41	0x3d64566c	0.05574648
42	0x3d5ca153	0.05386479
43	0x3d42ba86	0.047541164
44	0x3d736e81	0.059431557
45	0x3d58e09f	0.05294859
46	0x3d84440a	0.0645829
47	0x3d2e4376	0.042544805
48	0x3d72ee05	0.059309024
49	0x3d447529	0.047963295
50	0x3d1026bf	0.0351932
51	0x3ccc8505	0.024965772
52	0x3d87b338	0.0662598
53	0x3d5276b5	0.05138274
54	0x3d0b3043	0.033981573
55	0x3d33ccc6	0.04389646
56	0x3d6659ff	0.05623817
57	0x3d514996	0.051095568
58	0x3d8fb161	0.07016254
59	0x3d35c9df	0.044381972
60	0x3d72e901	0.05930424
61	0x3d5d29a5	0.053994793
62	0x3d7f86c9	0.0623844
63	0x3d28eedb	0.041243415
64	0x3f800000	1.0
65	0x3f800000	1.0
66	0x3f800000	1.0
67	0x3f800000	1.0
68	0x3f800000	1.0
69	0x3f800000	1.0
70	0x3f800000	1.0
71	0x3f800000	1.0
72	0x3f800000	1.0
73	0x3f800000	1.0
74	0x3f800000	1.0
75	0x3f800000	1.0
76	0x3f800000	1.0
77	0x3f800000	1.0
78	0x3f800000	1.0
79	0x3f800000	1.0
80	0x3f800000	1.0
81	0x3f800000	1.0
82	0x3f800000	1.0
83	0x3f800000	1.0
84	0x3f800000	1.0
85	0x3f800000	1.0
86	0x3f800000	1.0
87	0x3f800000	1.0
88	0x3f800000	1.0
89	0x3f800000	1.0
90	0x3f800000	1.0
91	0x3f800000	1.0
92	0x3f800000	1.0
93	0x3f800000	1.0
94	0x3f800000	1.0
95	0x3f800000	1.0
96	0x3f800000	1.0
97	0x3f800000	1.0
98	0x3f800000	1.0
99	0x3f800000	1.0
100	0x3f800000	1.0
101	0x3f800000	1.0
102	0x3f800000	1.0
103	0x3f800000	1.0
104	0x3f800000	1.0
105	0x3f800000	1.0
106	0x3f800000	1.0
107	0x3f800000	1.0
108	0x3f800000	1.0
109	0x3f800000	1.0
110	0x3f800000	1.0
111	0x3f800000	1.0
112	0x3f800000	1.0
113	0x3f800000	1.0
114	0x3f800000	1.0
115	0x3f800000	1.0
116	0x3f800000	1.0
117	0x3f800000	1.0
118	0x3f800000	1.0
119	0x3f800000	1.0
120	0x3f800000	1.0
121	0x3f800000	1.0
122	0x3f800000	1.0
123	0x3f800000	1.0
124	0x3f800000	1.0
125	0x3f800000	1.0
126	0x3f800000	1.0
127	0x3f800000	1.0
128	0x3d919cff	0.07110023
129	0xbb842b93	-0.0040335148
130	0xbc23d462	-0.0099993665
131	0x3bd36086	0.0064507155
132	0x3c95286f	0.018207757
133	0x3b899ed0	0.00419984
134	0x3c8ff266	0.01757164
135	0x3d85b972	0.065295115
136	0xbcd59ed3	-0.02607671
137	0x3c9077f7	0.017635329
138	0xbd750295	-0.059816916
139	0x3ce4cc6f	0.027929513
140	0xb98da4a6	-0.00027016288
141	0x3c58b238	0.013226084
142	0x3c2ad2e5	0.010426258
143	0x3bb5f825	0.005553263
144	0xbca232c9	-0.019799607
145	0x3b97193e	0.0046111634
146	0xbcbafef2	-0.022826646
147	0x3c50027e	0.012695907
148	0x3d626cca	0.05527953
149	0xbbc587a0	-0.0060281307
150	0x393ae358	0.00017823034
151	0xbc43d3a4	-0.0119523145
152	0xbd730b3d	-0.05933689
153	0xbb5544d7	-0.0032542252
154	0x39f83a6e	0.0004734578
155	0xbba104d1	-0.0049139042
156	0x3c40c074	0.011764634
157	0xbb8d5c7b	-0.004314003
158	0xbcb8f7cd	-0.022579098
159	0x3baa8462	0.0052037695
160	0xbd33401e	-0.04376232
161	0x3ca93f89	0.020660179
162	0x3916ef08	0.00014394161
163	0x3c0e813a	0.008697802
164	0xb9d22c00	-0.00040087104
165	0xbc81d5e9	-0.01584907
166	0x3ca2f0b9	0.019890176
167	0x3b2af0ca	0.0026083463
168	0x3c22e40a	0.009942064
169	0xbc349070	-0.011020765
170	0xbc1904f5	-0.009339561
171	0xba181ad8	-0.000580234
172	0x3c46c0c7	0.012130923
173	0x3c98bde8	0.018645242
174	0xbba51c16	-0.0050387485
175	0x3c323fa1	0.010879428
176	0x3b97d378	0.0046333633
177	0xbc8e9600	-0.01740551
178	0x3b698ab6	0.0035635657
179	0xbd09cf9d	-0.03364526
180	0xba84ea7e	-0.0010140685
181	0xbc4419b2	-0.011969017
182	0x3c5e8661	0.013581843
183	0xbd118977	-0.035531487
184	0x3b4da54a	0.0031379038
185	0x3c913228	0.017724112
186	0xbd78e228	-0.060762554
187	0xbb988735	-0.00465479
188	0x3ba88f45	0.005144032
189	0x3bbf95b9	0.0058467058
190	0x3c04f95f	0.008116095
191	0x3bbc0fe0	0.005739197
192	0x3d4d0372	0.050052114
193	0x3c24f128	0.010067262
194	0x3d77c64f	0.060491856
195	0x3d614f6e	0.05500739
196	0x3d5018e5	0.05080499
197	0x3d64afd1	0.055831734
198	0x3d2a035a	0.041507103
199	0x3cf680b9	0.030090677
200	0x3d19af55	0.037520725
201	0x3d71716d	0.058946062
202	0x3d650173	0.055909585
203	0x3d3b03e2	0.045658
204	0x3d5fff3d	0.054686774
205	0x3d278786	0.04090073
206	0x3d2e1ce3	0.042508017
207	0x3d841ee5	0.06451205
208	0x3d2505d6	0.04028877
209	0x3d686780	0.05673933
210	0x3d3b282b	0.045692604
211	0x3d56ab07	0.052409198
212	0x3d0d1b63	0.034449946
213	0x3d414fa7	0.047195103
214	0x3d64813a	0.055787303
215	0x3d2bf028	0.041977078
216	0x3d2197c3	0.039451372
217	0x3d3e719d	0.04649507
218	0x3d4f4765	0.050605197
219	0x3d7f2bfd	0.06229781
220	0x3d3eafe6	0.04655447
221	0x3d4281c0	0.04748702
222	0x3d0cb408	0.03435138
223	0x3d72c378	0.059268445
224	0x3d3102fd	0.04321574
225	0x3d42530c	0.04744248
226	0x3d6b31cd	0.05742054
227	0x3d7348e6	0.059395693
228	0x3d4396e2	0.047751315
229	0x3d4fe2eb	0.050753515
230	0x3d65b3f0	0.056079805
231	0x3d657823	0.056022774
232	0x3d446c93	0.047955107
233	0x3d7c7e24	0.061643735
234	0x3d582b8f	0.052775916
235	0x3d466e73	0.048445176
236	0x3d59a057	0.053131428
237	0x3d544782	0.051826008
238	0x3d95355f	0.0728557
239	0x3d2561ab	0.040376347
240	0x3d7aeff9	0.061264012
241	0x3d59ae7b	0.053144913
242	0x3d148b57	0.036265697
243	0x3ce0aba9	0.027425604
244	0x3d7bfc0a	0.06151966
245	0x3d499a4a	0.049219407
246	0x3cfc0caf	0.030767767
247	0x3d36aa05	0.044595737
248	0x3d6a52a8	0.057207733
249	0x3d42b636	0.04753705
250	0x3d8edda9	0.06975872
251	0x3d3a7592	0.04552228
252	0x3d6aec5c	0.057354316
253	0x3d6428f2	0.05570311
254	0x3d7af1db	0.061265808
255	0x3d45b509	0.04826835

while/MatMul_1 f4 [256, 64]
0	0x3c083680	0.008313775
1	0xbd17bf64	-0.03704776
2	0xbd3c1f88	-0.045928508
3	0x3dbdbc5e	0.09264444
4	0xbbd9dfc0	-0.0066489875
5	0xbc62dd1b	-0.013846661
6	0xbccf420e	-0.025300052
7	0x3c8ef7b0	0.017452091
8	0x3d75a28a	0.059969462
9	0x3ce8ae9c	0.028403573
10	0x3d14780a	0.03624729
11	0x3d260e1b	0.040540796
12	0xbcd2cb9a	-0.02573185
13	0xbe07efbe	-0.13275048
14	0x3c609ae4	0.013708804
15	0xbd85ea1a	-0.06538792
16	0x3d83467f	0.064099304
17	0xbd2f6124	-0.04281725
18	0x3dba023e	0.09082459
19	0xbd67e8c3	-0.056618463
20	0x3c59b43d	0.013287601
21	0xbdb6c6b7	-0.089246206
22	0x3c79705c	0.0152245425
23	0x3dcbebd6	0.099570915
24	0x3ca36ba0	0.01994878
25	0xbd5ece60	-0.054396033
26	0xbd84da76	-0.064869806
27	0xbd9cc0a8	-0.07653934
28	0x3d6c7abe	0.057734244
29	0xbd3ae196	-0.04562529
30	0x3ca4a52c	0.020098291
31	0xbdc9fa59	-0.09862203
32	0xbd53c67d	-0.051702965
33	0xbc7cac0c	-0.015421879
34	0xbd2db90b	-0.0424128
35	0xbde0c2bc	-0.10974643
36	0x3bf4c9f4	0.0074703638
37	0x3c08cf8e	0.008350266
38	0xbc41af42	-0.01182157
39	0x3d58dbf1	0.052944127
40	0xbc5d28e0	-0.013498515
41	0xbced7106	-0.028984558
42	0x3cf4eaba	0.029897083
43	0x3ca42b2e	0.02004012
44	0x3e033e05	0.12816627
45	0x3d7a68a2	0.061134942
46	0xbd36b73e	-0.044608347
47	0xbda9755e	-0.08274339
48	0xbbb1b708	-0.0054234304
49	0xbc2aeef0	-0.010432944
50	0x3d4fdab4	0.05074568
51	0xbcdb0006	-0.02673341
52	0xbd120d5a	-0.035657264
53	0xbd7aabc2	-0.061198957
54	0x3d40b2de	0.04704558
55	0x3db94099	0.09045524
56	0xbe1597e9	-0.1460873
57	0xbd260586	-0.04053261
58	0x3cbef10c	0.0233083
59	0x3d11ec26	0.0356256
60	0x3dc58198	0.09643859
61	0x3be153b4	0.0068764333
62	0xbdb1c705	-0.08680538
63	0xbd0e1a00	-0.034692764
64	0x3d12fa72	0.035883375
65	0xbc91d340	-0.017800927
66	0xbd2149ff	-0.03937721
67	0x3c085f86	0.008323556
68	0x3cf3f16a	0.029778201
69	0xbd6a0bfa	-0.057140328
70	0x3cc70f73	0.024299359
71	0xbcf20c1d	-0.029546792
72	0x3dc674af	0.096902244
73	0xbc9290ea	-0.017891366
74	0x3d3840f0	0.044983804
75	0x3dfcaf1a	0.123380855
76	0xbcc9d26a	-0.024636466
77	0x3b28509a	0.0025682808
78	0x3d2e166a	0.042501844
79	0xbbc952bc	-0.006143896
80	0xbd833044	-0.0640569
81	0x3d40ecf6	0.047100984
82	0x3e0c14f8	0.13679874
83	0x3d2e4991	0.042550627
84	0xbdc8a01a	-0.09796162
85	0x3ba5e6cc	0.0050629135
86	0xbd14606c	-0.036224768
87	0x3cd8e7b0	0.026477665
88	0x3bae3c66	0.0053172586
89	0xbc89fb43	-0.016843444
90	0x3ae057fa	0.0017116063
91	0x3d8632be	0.06552647
92	0xbdbf1b88	-0.09331423
93	0xbda18e88	-0.07888514
94	0xbdd6f709	-0.10496337
95	0xbca54926	-0.020176481
96	0xbd8b4432	-0.068001166
97	0xbd773773	-0.060355615
98	0x3d0119b1	0.03151864
99	0x3c3ffadb	0.011717523
100	0xbde53733	-0.11192169
101	0xbcad8222	-0.021180216
102	0xbd63e4b6	-0.055638038
103	0xbd6c4f23	-0.05769266
104	0xbdd1ef2d	-0.10250697
105	0xbdab5e52	-0.083675995
106	0x3c5a312f	0.01331739
107	0xbdd7ddcf	-0.105403535
108	0xbd4f9082	-0.050674923
109	0x3d556e81	0.052107338
110	0xbcd7e2b0	-0.02635321
111	0xbd18653b	-0.037205916
112	0x3db0555e	0.086100325
113	0x3b167692	0.0022958857
114	0x3cd88564	0.026430793
115	0x3c12f32c	0.0089691095
116	0x3d444bee	0.047923975
117	0x3d3fa048	0.046783715
118	0xbc5aa230	-0.013344333
119	0xbcdd591c	-0.02702003
120	0xbd3aca86	-0.045603298
121	0xbd5552f2	-0.052081056
122	0xbc547567	-0.012967444
123	0xbe04f664	-0.12984616
124	0x3da28a71	0.07936562
125	0x3d9cc1a9	0.07654125
126	0x3ca277b4	0.01983247
127	0xbd6f0b64	-0.058360472
128	0xbd8dfe96	-0.06933324
129	0xbd7617ed	-0.06008141
130	0x3d9beb60	0.076132536
131	0xbc85225b	-0.016251734
132	0xbe00fa5b	-0.12595503
133	0x3dc71230	0.09720266
134	0x3e077ab1	0.13230397
135	0x3ca47a08	0.02007772
136	0xbcc787ff	-0.02435684
137	0xbd768d4a	-0.060193338
138	0xbcb92049	-0.022598403
139	0x3cd3b674	0.025843836
140	0xbd283ec6	-0.04107549
141	0x3cfbee1e	0.030753192
142	0x3c1a32f8	0.009411566
143	0xbcdd7483	-0.027033096
144	0x3c8c756d	0.017145837
145	0xbd20e353	-0.039279293
146	0x3d5803c0	0.05273795
147	0x3c7337b2	0.014844822
148	0x3dba4571	0.09095276
149	0xbcffc058	-0.031219646
150	0xbc591670	-0.013249978
151	0xbd4faa11	-0.050699297
152	0xbe02a3e5	-0.12757833
153	0x3d7a7d2d	0.061154533
154	0xbda669df	-0.08125662
155	0xbce26162	-0.027634326
156	0xbde86aca	-0.113484934
157	0xbd29abd9	-0.041423652
158	0xbdacc0b8	-0.08435196
159	0xbdde2a95	-0.10847966
160	0x3e1974fc	0.14986032
161	0xbd3d9657	-0.046285953
162	0xbdec1707	-0.115278296
163	0xbd47fc1a	-0.048824407
164	0xbd89cbd3	-0.067283295
165	0xbcba763b	-0.022761455
166	0x3ceec0b9	0.029144632
167	0x3de5d0e5	0.11221484
168	0x3ceceb3f	0.028920768
169	0xbde27b58	-0.11058682
170	0xbd6038b1	-0.054741565
171	0xbd7befaf	-0.061507877
172	0x3d9e74ce	0.077371225
173	0xbdae26e8	-0.085035145
174	0xbd917933	-0.07103195
175	0xbde80d0f	-0.11330616
176	0x3d682587	0.056676414
177	0x3de10f58	0.10989255
178	0x3da6de06	0.08147816
179	0x3bbb54db	0.0057169027
180	0x3cbfc9f4	0.023411728
181	0x3d75f6e5	0.06004991
182	0x3e060649	0.13088335
183	0xbc896b3d	-0.016774768
184	0x3d3db4e8	0.046315104
185	0xbcdaeb5e	-0.02672356
186	0xbd7c11f6	-0.061540566
187	0xbd06c24f	-0.03290015
188	0xbacd9060	-0.0015683286
189	0xbcf51c17	-0.02992062
190	0x3c6d5732	0.014486121
191	0xbd1ffb29	-0.039057884
192	0xbd7aefd5	-0.061263878
193	0x3da632b4	0.081151396
194	0x3c178e59	0.009250247
195	0xbd2a6920	-0.04160416
196	0xbc8669d5	-0.016407887
197	0xbd92df6d	-0.07171521
198	0xbd62c8ac	-0.055367157
199	0xbcbc1077	-0.02295707
200	0xbdab3a61	-0.08360744
201	0x3d70a148	0.05874756
202	0x3d7236f8	0.059134454
203	0x3d595cb4	0.053066924
204	0x3d865a61	0.06560207
205	0xbcdd0768	-0.02698107
206	0x3d767b12	0.060175963
207	0xbc422858	-0.011850439
208	0xbd5076a7	-0.050894406
209	0xbd19137e	-0.037372105
210	0xbd2e574e	-0.04256373
211	0x3dd51145	0.104036845
212	0xbd41db33	-0.047328185
213	0xbdccf21b	-0.100071155
214	0x3c831eb7	0.016005857
215	0xbba18234	-0.0049288515
216	0x3d9cbb79	0.07652945
217	0xbc8e3a74	-0.017361857
218	0xbca769e6	-0.020436238
219	0x3dc44828	0.09584075
220	0x3d26b69e	0.0407015
221	0x3cc08e17	0.023505254
222	0x3c2b3de6	0.010451769
223	0xbcf63f3a	-0.030059446
224	0x3b542ee4	0.0032376582
225	0xbd2f731b	-0.042834383
226	0xbd9ed235	-0.077549376
227	0xbdbfa406	-0.09357457
228	0xbd0072f2	-0.03135962
229	0xbc42276e	-0.011850221
230	0xbdf6bc03	-0.12047579
231	0xbd85bbfa	-0.06529994
232	0xbc7497ab	-0.014928739
233	0x3d0d9651	0.03456718
234	0xbd8e41d4	-0.069461495
235	0xbd052078	-0.032501668
236	0x3dc31bf2	0.095268145
237	0x3d9c4eff	0.07632255
238	0xbd832a78	-0.06404585
239	0xbcf5a9bb	-0.02998816
240	0xbd5086de	-0.05090987
241	0x3d2fa7af	0.042884525
242	0xbcf941c3	-0.030426865
243	0xbd528f92	-0.05140645
244	0x3cfd326e	0.030907836
245	0xbda5ca00	-0.08095169
246	0xbcedd53b	-0.02903234
247	0x3c36f1c5	0.011166041
248	0xbc44be04	-0.012008194
249	0x3d8a48bb	0.067521535
250	0xbe0b68c8	-0.1361419
251	0xbc44b326	-0.012005603
252	0xbd4ef98c	-0.050530955
253	0xbd4cdc0b	-0.050014537
254	0xbd8bcfb7	-0.06826728
255	0xbdbd70d8	-0.09250039

while/MatMul f4 [256, 4]
0	0x3e0a3c1b	0.13499491
1	0x3e271638	0.1631707
2	0x3d07a7c2	0.03311897
3	0xbd97856e	-0.073984966
4	0xbccd25bc	-0.025042407
5	0x3e64ea36	0.2235497
6	0x3e2524ba	0.16127291
7	0xbd0ef415	-0.034900744
8	0x3c365cc4	0.0111305155
9	0x3e0a2ead	0.13494368
10	0x3e4f864b	0.20266072
11	0x3e0695f7	0.13143145
12	0x3cfb1860	0.030651271
13	0x3e2301ce	0.15918657
14	0x3d299abf	0.041407343
15	0xbc99fcbb	-0.01879727
16	0x3d8e10ce	0.06936799
17	0x3e5e180a	0.21688858
18	0xbb597ca6	-0.0033185869
19	0x3e54afd0	0.20770192
20	0x3e21aaeb	0.15787856
21	0xbc298566	-0.010346746
22	0x3e841c53	0.2580286
23	0x3e74ca43	0.23905282
24	0xbd49d54d	-0.049275685
25	0xbd51ede2	-0.051252253
26	0x3dda0903	0.1064625
27	0xbcb8cb10	-0.022557765
28	0x3e123bbf	0.14280604
29	0xbd7f4af8	-0.062327355
30	0x3e0e3bd4	0.1389001
31	0x3d881648	0.06644875
32	0x3c95c5f8	0.018282875
33	0x3e4f3694	0.20235664
34	0x3e3a9339	0.18220223
35	0x3e0218d6	0.12704787
36	0x3e72fdb4	0.23729593
37	0x3cb00141	0.021484973
38	0x3cc2699b	0.023731997
39	0x3defe0f6	0.1171283
40	0x3d107dce	0.035276227
41	0x3e3d1e4c	0.18468589
42	0x3e0e7aa7	0.13913976
43	0x3d93c2af	0.07214867
44	0x3e36024e	0.17774317
45	0x3e7b2731	0.24526669
46	0x3e376109	0.1790811
47	0x3e345ffd	0.17614742
48	0x3d60252b	0.054722946
49	0x3d42160f	0.047384318
50	0x3e3a27ff	0.1817932
51	0x3cdc0123	0.02685601
52	0x3d40546d	0.046955515
53	0x3d11ba01	0.035577778
54	0x3e38453e	0.17995164
55	0x3dfac2a2	0.122441545
56	0xbd24a93f	-0.04020047
57	0x3e4c0fab	0.19927852
58	0x3d76d971	0.060265962
59	0x3d16b934	0.036797717
60	0x3e585ba0	0.21128702
61	0x3e808748	0.2510321
62	0x3e67cccf	0.22636722
63	0x3c2d4485	0.010575418
64	0x3db18b40	0.08669138
65	0x3e35a4ba	0.1773862
66	0x3d4c2730	0.04984206
67	0x3e623153	0.22089128
68	0xbc010b24	-0.007876191
69	0x3e43fe6e	0.19140026
70	0x3e5f3d4e	0.2180073
71	0x3e41f006	0.18939218
72	0x3e5bbda9	0.21459068
73	0x3c997334	0.018731691
74	0x3e2c0e79	0.16802396
75	0x3dda1f35	0.106504835
76	0xbd4ad435	-0.049518783
77	0x3e237800	0.15963745
78	0x3ae40d88	0.0017399052
79	0x3cef9b25	0.029248783
80	0x3e0e2bac	0.13883847
81	0xbc947a91	-0.01812485
82	0x3e5b88e3	0.21438937
83	0x3e3bf9bc	0.18356985
84	0x3e6aab58	0.22916925
85	0x3df7751a	0.12082882
86	0x3e1cb549	0.1530353
87	0x3b2ac86b	0.00260594
88	0x3dfde2e7	0.12396794
89	0x3d8a4abb	0.06752535
90	0x3d894387	0.06702333
91	0x3e622dbf	0.22087763
92	0x3d9fb081	0.07797337
93	0x3e0c3e0d	0.13695545
94	0x3e2dcf0c	0.16973513
95	0x3e430de4	0.19048268
96	0x3e51a0c1	0.20471479
97	0x3e2e1990	0.17001939
98	0x3d4ec6ec	0.050482675
99	0xbd9a2fea	-0.0752867
100	0x3dd4afbd	0.10385082
101	0x3e4b5d6e	0.1985986
102	0x3dba7b91	0.091056
103	0x3d9f96f6	0.077924654
104	0x3e0b053e	0.13576218
105	0x3dbfb900	0.09361458
106	0x3e19f52a	0.15034929
107	0x3d1af92a	0.037835278
108	0x3ca24900	0.0198102
109	0x3d4187f4	0.047248796
110	0x3e79f892	0.24411228
111	0x3d85f0e1	0.06540085
112	0xbc2a4e91	-0.010394708
113	0x3e70ca55	0.23514684
114	0xbc3e52bb	-0.011616404
115	0xbd4e69ea	-0.050393976
116	0x3e098fb1	0.1343372
117	0x3e58dfe5	0.21179159
118	0x3d806751	0.06269706
119	0x3dcab85d	0.09898446
120	0xbd13b4c1	-0.036061052
121	0x3e084e34	0.13311082
122	0x3c175376	0.009236207
123	0x3dfc96ef	0.12333476
124	0x3e6f3751	0.23360945
125	0x3d537cc3	0.051632654
126	0x3e412d28	0.18864882
127	0x3d8482cf	0.06470262
128	0x3e474082	0.19458202
129	0xbca2740b	-0.019830724
130	0x3d1880a0	0.03723204
131	0x3daba153	0.083803795
132	0x3db044c0	0.08606863
133	0x3de4868e	0.11158477
134	0x3dcde8dd	0.10054181
135	0x3e3d8fea	0.1851193
136	0x3d8d6b8c	0.069052786
137	0x3e124297	0.14283215
138	0xbcb5db74	-0.02219937
139	0x3d94719c	0.07248232
140	0x3d8cbfb2	0.068725005
141	0x3d1a27e1	0.037635688
142	0x3d9af937	0.07567065
143	0x3d5dade3	0.05412091
144	0x3de042c1	0.10950232
145	0x3e2b1a15	0.16709168
146	0xbc5ce317	-0.013481877
147	0x3e513c1d	0.20433088
148	0x3bd525ee	0.0065047657
149	0x3da9e548	0.08295685
150	0x3e81d5bf	0.25358388
151	0x3e59beae	0.21264145
152	0x3c615969	0.013754227
153	0x3d26f0e4	0.040757075
154	0x3e1239b6	0.14279827
155	0x3cd8c166	0.026459407
156	0x3e0031b1	0.12518956
157	0x3d920758	0.07130307
158	0x3d98fd90	0.07470238
159	0x3e160c61	0.1465316
160	0xbb82eea0	-0.0039957315
161	0x3d0ad36d	0.033893038
162	0x3ca6228f	0.02028015
163	0xbd204f57	-0.039138164
164	0x3d2e17fa	0.042503335
165	0x3e522900	0.20523453
166	0x3e8455db	0.25846753
167	0x3d71067f	0.058844086
168	0x3e22d57c	0.1590175
169	0x3e0389df	0.12845562
170	0x3dd79049	0.10525567
171	0x3df4cfa4	0.11953667
172	0xbb2460f8	-0.0025082212
173	0x3e5e7f52	0.21728256
174	0x3e77493b	0.24149029
175	0xbb708b48	-0.0036704112
176	0x3e7e920e	0.24860403
177	0xbcaa2454	-0.020769276
178	0x3d258d9c	0.040418252
179	0x3d225104	0.039628044
180	0x3e17c553	0.14821367
181	0x3e1ca1d1	0.15296103
182	0x3de398a7	0.111131005
183	0xbb1adea8	-0.0023631249
184	0x3e7898b2	0.24276999
185	0x3e06f1da	0.13178197
186	0x3dfd81c1	0.12378264
187	0xbc2cb9e4	-0.010542367
188	0x3da4c085	0.08044533
189	0x3d24c0d3	0.040222954
190	0x3d6725b8	0.056432456
191	0x3dcef5c1	0.101054676
192	0x3e4022d2	0.18763283
193	0x3dd0422c	0.10168871
194	0x3db9ecf6	0.090784
195	0x3d216005	0.039398212
196	0xbb2b14b8	-0.0026104879
197	0x3e02a4e7	0.12758218
198	0x3bcff523	0.0063463612
199	0x3e715503	0.23567586
200	0x3dc811d1	0.09769023
201	0x3d126563	0.03574122
202	0x3ce189d3	0.02753154
203	0x3de4514a	0.11148317
204	0x3e1ed66e	0.15511486
205	0xbc862451	-0.016374739
206	0x3defc047	0.11706596
207	0x3d7d37d2	0.061820813
208	0x3b2b0ad1	0.0026098976
209	0x3dfedc5e	0.124443755
210	0x3de8e020	0.113708735
211	0x3dab79f8	0.08372873
212	0x3ce294fd	0.027658934
213	0x3dea70ca	0.11447294
214	0x3e44dc5d	0.19224687
215	0x3e294100	0.16528702
216	0x3e698185	0.22803314
217	0xbd566102	-0.052338608
218	0x3e24fb6d	0.16111536
219	0x3e150be9	0.14555325
220	0x3df6ed2f	0.12056958
221	0x3df86b62	0.12129857
222	0x3d5392fe	0.051653855
223	0xbc2c483a	-0.010515267
224	0x3cf94702	0.030429367
225	0x3e1c1c03	0.1524506
226	0x3dbcfcb2	0.09227885
227	0x3d628fa3	0.055312764
228	0x3dc37802	0.09544374
229	0x3e065c6a	0.1312119
230	0x3caaaef3	0.020835375
231	0x3e07fc86	0.13279924
232	0x3d9aa778	0.075514734
233	0x3d23a1dd	0.039949287
234	0x3e16fc40	0.14744663
235	0x3e053a24	0.1301046
236	0x3e5216ac	0.20516461
237	0x3dd4bd21	0.10387636
238	0x3d8afd78	0.067866266
239	0x3cc0c390	0.023530751
240	0x3dce6f0b	0.100797735
241	0x3de7cae6	0.11317997
242	0x3dc56a6d	0.0963944
243	0x3cc67727	0.024226738
244	0x3e1cf90f	0.15329383
245	0x3d3ebbd0	0.04656583
246	0x3e2f5351	0.17121626
247	0x3d1e040f	0.03857809
248	0x3e06f801	0.13180543
249	0x3e73c39b	0.23805086
250	0x3dac9ff4	0.08428946
251	0xbc1783a5	-0.009247695
252	0x3e677bf1	0.22605874
253	0x3e79dd48	0.24400818
254	0x3e249e30	0.16075969
255	0x3c3c2e35	0.011485626

lstm_46/lstm_cell_62/bias1 f4 [128]
0	0x3d2e556b	0.04256193
1	0x3d5eb8ab	0.05437533
2	0x3d1718d6	0.03688892
3	0x3c7fdb00	0.0156161785
4	0x3d2e6e4d	0.04258566
5	0x3d568d11	0.052380625
6	0x3d33eccb	0.043926995
7	0x3d47db20	0.04879296
8	0x3d350805	0.0441971
9	0x3d414a19	0.047189806
10	0x3d4a6353	0.04941113
11	0x3d739d91	0.05947644
12	0x3d070d6e	0.032971792
13	0x3d609cb6	0.05483695
14	0x3d2863ed	0.04111092
15	0x3d441ec9	0.04788092
16	0x3d3b1ced	0.045681883
17	0x3d5561ea	0.05209533
18	0x3d269f34	0.04067917
19	0x3d66ae1c	0.056318387
20	0x3d6a50ac	0.05720584
21	0x3ca9337d	0.020654434
22	0x3d6ea73a	0.05826495
23	0x3c011b1f	0.007880001
24	0x3d39c4e4	0.045353785
25	0x3d61dfe8	0.055145174
26	0x3d665360	0.056231856
27	0x3d3c07c4	0.045905843
28	0x3d521dd0	0.051297963
29	0x3d5f824c	0.05456762
30	0x3d16b178	0.03679034
31	0x3d26cd6a	0.040723242
32	0x3f800000	1.0
33	0x3f800000	1.0
34	0x3f800000	1.0
35	0x3f800000	1.0
36	0x3f800000	1.0
37	0x3f800000	1.0
38	0x3f800000	1.0
39	0x3f800000	1.0
40	0x3f800000	1.0
41	0x3f800000	1.0
42	0x3f800000	1.0
43	0x3f800000	1.0
44	0x3f800000	1.0
45	0x3f800000	1.0
46	0x3f800000	1.0
47	0x3f800000	1.0
48	0x3f800000	1.0
49	0x3f800000	1.0
50	0x3f800000	1.0
51	0x3f800000	1.0
52	0x3f800000	1.0
53	0x3f800000	1.0
54	0x3f800000	1.0
55	0x3f800000	1.0
56	0x3f800000	1.0
57	0x3f800000	1.0
58	0x3f800000	1.0
59	0x3f800000	1.0
60	0x3f800000	1.0
61	0x3f800000	1.0
62	0x3f800000	1.0
63	0x3f800000	1.0
64	0xbb7b1030	-0.003830921
65	0xbcb26e9b	-0.021781256
66	0x3cb99fee	0.022659268
67	0x3c8a169b	0.016856482
68	0xbc07b2c9	-0.008282372
69	0x3cb4f6bb	0.022090307
70	0xbbede519	-0.0072599766
71	0x3c4dce57	0.012561402
72	0xbca3cefe	-0.019996163
73	0x3c1ede94	0.009696621
74	0x3c793ac8	0.015211768
75	0xbcb0b6f0	-0.021571606
76	0x3a991a14	0.0011680746
77	0x3cb4b33d	0.022058124
78	0x3cbdffb6	0.023193222
79	0xbc8fafd1	-0.01753989
80	0x3cc88cbb	0.024481168
81	0x3ccc5053	0.024940645
82	0xbcb8520a	-0.022500057
83	0x3c8ee040	0.017440915
84	0xbca3b314	-0.019982852
85	0xbc9ce91a	-0.01915412
86	0x3ca6d7b3	0.020366525
87	0x3c405eca	0.0117413495
88	0xbbce4d6d	-0.006295851
89	0xbc3adc7b	-0.011405106
90	0x3cb94993	0.02261809
91	0xbcd2c72d	-0.02572974
92	0xbcc5cb5f	-0.024144826
93	0x3c95a8d4	0.01826898
94	0xbcce99a9	-0.025219755
95	0x3cbce9ba	0.023060668
96	0x3d2851c2	0.041093595
97	0x3d696623	0.05698217
98	0x3d0d1b64	0.03444995
99	0x3c74d19c	0.014942553
100	0x3d313e60	0.043272376
101	0x3d61140f	0.05495077
102	0x3d301a05	0.042993564
103	0x3d4dfd2b	0.050290268
104	0x3d30d031	0.043167297
105	0x3d432002	0.047637947
106	0x3d4c572c	0.04988782
107	0x3d766aa7	0.060160305
108	0x3d14301f	0.036178704
109	0x3d62657c	0.055272564
110	0x3d30eb1c	0.043192968
111	0x3d4d5391	0.050128523
112	0x3d3bfd08	0.045895606
113	0x3d5bf1c4	0.053697363
114	0x3d32ed60	0.04368341
115	0x3d6a542f	0.05720919
116	0x3d7731b2	0.060350128
117	0x3ca24cea	0.019812066
118	0x3d6f979c	0.058494195
119	0x3c3da7c5	0.011575644
120	0x3d3d2f59	0.046187732
121	0x3d642798	0.055701822
122	0x3d64af71	0.055831376
123	0x3d4076cc	0.046988294
124	0x3d579943	0.052636396
125	0x3d6f635d	0.05844437
126	0x3d18e89b	0.037331205
127	0x3d2dedbf	0.04246306
