lstm996_ae_0801.tflite (tflite, 222100 bytes, 9 tensors)

lstm_47/lstm_cell_9/bias f4 [256]
00000000: c8f8 49b5 b1f0 9ab6 26ee 0ebc 0000 0000
00000010: f9ac b5b8 492c a5ba 0000 0000 3707 a4ba
00000020: 730a 21bb 0000 0000 a1ea bfb7 5262 7cb9
00000030: 4f30 8eb7 0000 0000 0000 0000 f65c d1ba
00000040: d397 a7ba 5a4d 3fbb ca75 fbb5 cc01 0abc
00000050: b052 d9bb 0168 ffba 9777 d6b6 d747 00bb
00000060: 0000 0000 997e eabb 27b0 6ebb 990b 0dbc
00000070: 554a 25b7 280d c2bb 01fc 3dbb e9dc edbb
00000080: ec1a dbbb 1885 ddbb bc33 75bb e846 12bc
00000090: 0fbd f9bb 0000 0000 0000 0000 f69c dbb8
000000a0: 2b8f 18ba 0d59 babb a1e8 e9bb 3b1a c4ba
000000b0: 2bcf 21bc bf64 82ba d4e6 3cbb af6a e9ba
000000c0: b5e1 1bb9 4011 e2bb bfb8 a8bb 6d1f e6b9
000000d0: 0000 0000 7b05 d4ba a9de 9fba 7628 2fbc
000000e0: 24b5 03bb 59c4 69b8 9124 0dbc 57ae 0ebc
000000f0: 71b3 1db9 2213 03bc 3476 58b5 1e61 2cb8
00000100: 0000 803f 0000 803f 0000 803f 0000 803f
00000110: 0000 803f 0000 803f 0000 803f 0000 803f
00000120: 0000 803f 0000 803f 0000 803f 0000 803f
00000130: 0000 803f 0000 803f 0000 803f 0000 803f
00000140: 0000 803f 0000 803f 0000 803f 0000 803f
00000150: 0000 803f 0000 803f 0000 803f 0000 803f
00000160: 0000 803f 0000 803f 0000 803f 0000 803f
00000170: 0000 803f 0000 803f 0000 803f 0000 803f
00000180: 0000 803f 0000 803f 0000 803f 0000 803f
00000190: 0000 803f 0000 803f 0000 803f 0000 803f
000001a0: 0000 803f 0000 803f 0000 803f 0000 803f
000001b0: 0000 803f 0000 803f 0000 803f 0000 803f
000001c0: 0000 803f 0000 803f 0000 803f 0000 803f
000001d0: 0000 803f 0000 803f 0000 803f 0000 803f
000001e0: 0000 803f 0000 803f 0000 803f 0000 803f
000001f0: 0000 803f 0000 803f 0000 803f 0000 803f
00000200: 057f c8bb 1515 afbb dd7a dc39 0000 0000
00000210: 1a7f c4bb 16bf c4bb 0000 0000 3fb8 c4bb
00000220: 5fc5 c4bb 0000 0000 9299 c4bb c4bb c4bb
00000230: 5793 c4bb 0000 0000 0000 0000 4ac2 c4bb
00000240: 6cc4 c4bb 2cc3 c4bb 16e7 c3bb acd2 e4bb
00000250: fc95 073b 3ac5 c4bb 4923 c4bb 67c4 c4bb
00000260: 0000 0000 a46e 2f3b 8bc5 c4bb ce36 0b3b
00000270: 30a8 a9bb 4b50 483b a3c5 c4bb 1f3e 023b
00000280: beae 263b 63c2 433b a5c5 c4bb de52 bdba
00000290: 44d9 343b 0000 0000 0000 0000 61b2 c4bb
000002a0: 6920 b6bb 8a7b 483b 40d2 483b eac4 c4bb
000002b0: 22ae c93a cebd c4bb a2c5 c4bb c55b f5bb
000002c0: ddb8 c4bb bd2f 313b c10b a6bb aac4 c4bb
000002d0: 0000 0000 b9c4 c4bb 8822 b6bb 67f5 3c3a
000002e0: 9bc5 c4bb 8d0a a8bb 04df 093b e555 ddbb
000002f0: 04b4 c4bb 0ba6 353b e280 c5bb e090 c3bb
00000300: 9eef 49b5 c2ef 9ab6 4fee 0ebc 0000 0000
00000310: 5ca8 b5b8 552f a5ba 0000 0000 7506 a4ba
00000320: 100d 21bb 0000 0000 feeb bfb7 2564 7cb9
00000330: 1d30 8eb7 0000 0000 0000 0000 2956 d1ba
00000340: eb9b a7ba 744c 3fbb c068 fbb5 3e02 0abc
00000350: eb4e d9bb 9e67 ffba cb79 d6b6 6846 00bb
00000360: 0000 0000 db8a eabb 49b0 6ebb 940b 0dbc
00000370: fd4b 25b7 180d c2bb eafa 3dbb 32dd edbb
00000380: 741d dbbb d98a ddbb 7e32 75bb aa46 12bc
00000390: 94b6 f9bb 0000 0000 0000 0000 ce9c dbb8
000003a0: 078d 18ba 7d47 babb 99e6 e9bb 3f19 c4ba
000003b0: c8d0 21bc ea62 82ba 1be5 3cbb f06a e9ba
000003c0: 35e3 1bb9 7107 e2bb d4be a8bb 1c1d e6b9
000003d0: 0000 0000 170b d4ba 3ddc 9fba 8725 2fbc
000003e0: f7b7 03bb d3c6 69b8 ac1e 0dbc 0faf 0ebc
000003f0: 2eb3 1db9 ef13 03bc a37f 58b5 055e 2cb8
-7.524036e-07 -4.617578e-06 -0.008723771 0.0 -8.662971e-05 -0.0012601699 0.0 -0.0012514357
-0.0024572879 0.0 -2.2878232e-05 -0.0002406922 -1.6950215e-05 0.0 0.0 -0.0015973139
-0.0012786336 -0.0029190392 -1.8735238e-06 -0.00842328 -0.0066321716 -0.0019485952 -6.391619e-06 -0.001957407
0.0 -0.007156205 -0.0036420913 -0.008608722 -9.852073e-06 -0.0059219785 -0.0028989317 -0.0072590006
-0.006686559 -0.006760251 -0.003741487 -0.008928038 -0.0076214145 0.0 0.0 -0.0001047197
-0.00058196735 -0.005686885 -0.007138327 -0.001496143 -0.009876053 -0.0009948238 -0.0028824108 -0.0017808283
-0.00014866034 -0.006899029 -0.0051489766 -0.00043892433 0.0 -0.001617595 -0.0012197095 -0.010690799
-0.0020096982 -5.5734392e-05 -0.008614675 -0.008708558 -0.00015039534 -0.008000167 -8.063828e-07 -4.1098443e-05
1.0 1.0 1.0 1.0 1.0 1.0 1.0 1.0
1.0 1.0 1.0 1.0 1.0 1.0 1.0 1.0
1.0 1.0 1.0 1.0 1.0 1.0 1.0 1.0
1.0 1.0 1.0 1.0 1.0 1.0 1.0 1.0
1.0 1.0 1.0 1.0 1.0 1.0 1.0 1.0
1.0 1.0 1.0 1.0 1.0 1.0 1.0 1.0
1.0 1.0 1.0 1.0 1.0 1.0 1.0 1.0
1.0 1.0 1.0 1.0 1.0 1.0 1.0 1.0
-0.0061186575 -0.0053430893 0.0004205321 0.0 -0.005996597 -0.0060042245 0.0 -0.006003409
-0.006004974 0.0 -0.0059997523 -0.0060038287 -0.0059990096 0.0 0.0 -0.0060046064
-0.0060048606 -0.0060047116 -0.0059784753 -0.006983122 0.0020688763 -0.0060049566 -0.0059856516 -0.0060048583
0.0 0.0026768828 -0.0060049943 0.0021242383 -0.00517752 0.0030565436 -0.0060050054 0.0019873453
0.0025433744 0.0029870502 -0.0060050064 -0.0014444252 0.002759532 0.0 0.0 -0.0060027097
-0.005558063 0.0030591213 0.0030642897 -0.0060049193 0.0015386979 -0.006004072 -0.006005005 -0.0074877464
-0.0060034827 0.002703651 -0.005067319 -0.0060048895 0.0 -0.0060048965 -0.0055583157 0.00072081987
-0.0060050017 -0.005128211 0.0021037469 -0.006754624 -0.006002905 0.0027717378 -0.006027327 -0.005968198
-7.5227024e-07 -4.617469e-06 -0.008723809 0.0 -8.662112e-05 -0.0012602607 0.0 -0.0012514131
-0.0024574436 0.0 -2.2878867e-05 -0.000240699 -1.6950124e-05 0.0 0.0 -0.0015971112
-0.0012787556 -0.0029189857 -1.8731444e-06 -0.008423386 -0.006631722 -0.0019485836 -6.3918756e-06 -0.0019573215
0.0 -0.007157666 -0.0036420992 -0.0086087175 -9.852459e-06 -0.005921971 -0.0028988668 -0.0072590346
-0.0066868607 -0.0067609367 -0.003741413 -0.00892798 -0.007620642 0.0 0.0 -0.00010471941
-0.00058193546 -0.0056847916 -0.007138085 -0.0014961137 -0.0098764375 -0.0009947692 -0.002882308 -0.0017808359
-0.00014866593 -0.0068978597 -0.0051497016 -0.00043890707 0.0 -0.0016177621 -0.0012196373 -0.0106901
-0.0020098665 -5.57367e-05 -0.00861327 -0.008708729 -0.00015039436 -0.008000358 -8.0652006e-07 -4.1095558e-05

lstm_46/lstm_cell_8/bias f4 [256]
00000000: b8fc 8fba 7da4 94ba 0000 0000 0000 0000
00000010: 111b 80b8 a020 b2ba d885 d5bb 7d43 10b9
00000020: 7650 9ebb 0000 0000 d96d ebb6 9222 83bb
00000030: 06da 13b6 0000 0000 0000 0000 a01a 003c
00000040: 0000 0000 0000 0000 6c7d f33b 0000 0000
00000050: eeea 5cba d4b8 00ba 0000 0000 5257 e0ba
00000060: 7e17 91bb e7f2 d8b8 b877 19bb c23f 1cbb
00000070: 1d4b 34bb 95d1 1bbb 79cb 953b 0000 0000
00000080: 87eb 91bb dc46 2eb8 4a4d 14bb ce5c 4dba
00000090: d151 e2ba 347b 60bb 13af 4ebb 77ca 35ba
000000a0: 0000 0000 ae9f 65b9 556c 603b 2ec1 c7ba
000000b0: 0000 0000 ea6b 9dbb 0000 0000 04e1 d3bb
000000c0: a92c b4bb 0000 0000 0000 0000 0000 0000
000000d0: d4c5 88bb a8cf 2cb9 d0f9 2ebc 0000 0000
000000e0: 9b7b 673c 0000 0000 885e ddba 0000 0000
000000f0: 0000 0000 7f27 04bc 4bcc 4c3b 0000 0000
00000100: 0000 803f 0000 803f 0000 803f 0000 803f
00000110: 0000 803f 0000 803f 0000 803f 0000 803f
00000120: 0000 803f 0000 803f 0000 803f 0000 803f
00000130: 0000 803f 0000 803f 0000 803f 0000 803f
00000140: 0000 803f 0000 803f 0000 803f 0000 803f
00000150: 0000 803f 0000 803f 0000 803f 0000 803f
00000160: 0000 803f 0000 803f 0000 803f 0000 803f
00000170: 0000 803f 0000 803f 0000 803f 0000 803f
00000180: 0000 803f 0000 803f 0000 803f 0000 803f
00000190: 0000 803f 0000 803f 0000 803f 0000 803f
000001a0: 0000 803f 0000 803f 0000 803f 0000 803f
000001b0: 0000 803f 0000 803f 0000 803f 0000 803f
000001c0: 0000 803f 0000 803f 0000 803f 0000 803f
000001d0: 0000 803f 0000 803f 0000 803f 0000 803f
000001e0: 0000 803f 0000 803f 0000 803f 0000 803f
000001f0: 0000 803f 0000 803f 0000 803f 0000 803f
00000200: 0b9d c6bb 3dfc dabb 0000 0000 0000 0000
00000210: 889b babb 6200 073a 430b c6bb b6b1 46bb
00000220: 7e75 f4bb 0000 0000 c7bc afbb c113 813b
00000230: 1f2a babb 0000 0000 0000 0000 ec92 113b
00000240: 0000 0000 0000 0000 06cb 9e3a 0000 0000
00000250: 4636 283b 8539 c6bb 0000 0000 70d5 c1bb
00000260: 21be 583b 137d 9fbb 8d6f ccbb 1a4a 98bb
00000270: 57d0 d3bb e0f0 c5bb b85c bc3a 0000 0000
00000280: 206e fcbb d3fb bdbb adc4 783b d798 c4bb
00000290: f9c8 c5bb 0446 923b 9da1 873b 177f 0039
000002a0: 0000 0000 6e53 c3bb d0b7 f33a a31e bbbb
000002b0: 0000 0000 10a6 613a 0000 0000 9266 bfbb
000002c0: 18e1 363b 0000 0000 0000 0000 0000 0000
000002d0: e68a a9bb 5711 2ebb 4e0f 1fbb 0000 0000
000002e0: fbe9 7f3a 0000 0000 7a42 c2bb 0000 0000
000002f0: 0000 0000 a3c8 d8ba 8278 dc3b 0000 0000
00000300: f9f0 8fba 807f 94ba 0000 0000 0000 0000
00000310: 6d42 80b8 db1b b2ba 6081 d5bb 6b45 10b9
00000320: 2944 9ebb 0000 0000 248d ebb6 fe5d 83bb
00000330: 73ec 13b6 0000 0000 0000 0000 3b5f ff3b
00000340: 0000 0000 0000 0000 326b f43b 0000 0000
00000350: d511 59ba cfb7 00ba 0000 0000 2942 e0ba
00000360: 7529 91bb 3255 d9b8 5f63 19bb 4034 1cbb
00000370: 663a 34bb 99cc 1bbb 39aa 953b 0000 0000
00000380: d3e5 91bb 57ab 2eb8 3e73 14bb 437f 4dba
00000390: 4059 e2ba 77fe 5fbb e6d4 4ebb 3097 36ba
000003a0: 0000 0000 df87 65b9 74c4 603b 9082 c7ba
000003b0: 0000 0000 d3f3 9dbb 0000 0000 d4e2 d3bb
000003c0: cf16 b4bb 0000 0000 0000 0000 0000 0000
000003d0: 66d5 88bb 31d3 2cb9 24fa 2ebc 0000 0000
000003e0: 2851 663c 0000 0000 e450 ddba 0000 0000
000003f0: 0000 0000 7027 04bc cf2b 4d3b 0000 0000
-0.001098535 -0.0011340525 0.0 0.0 -6.108557e-05 -0.0013590045 -0.0065161996 -0.00013758052
-0.004831369 0.0 -7.0163337e-06 -0.004001924 -2.2031613e-06 0.0 0.0 0.007818848
0.0 0.0 0.007430723 0.0 -0.0008427341 -0.0004910354 0.0 -0.0017115867
-0.0044278493 -0.00010344927 -0.0023417305 -0.0023841714 -0.0027510591 -0.0023776044 0.004571375 0.0
-0.004453126 -4.1550826e-05 -0.0022629076 -0.00078339584 -0.0017266815 -0.0034253122 -0.0031537458 -0.00069347717
0.0 -0.00021898627 0.0034244258 -0.0015240067 0.0 -0.004804124 0.0 -0.006466033
-0.005498488 0.0 0.0 0.0 -0.0041739736 -0.00016480556 -0.010679677 0.0
0.014128591 0.0 -0.0016889134 0.0 0.0 -0.008066057 0.0031249698 0.0
1.0 1.0 1.0 1.0 1.0 1.0 1.0 1.0
1.0 1.0 1.0 1.0 1.0 1.0 1.0 1.0
1.0 1.0 1.0 1.0 1.0 1.0 1.0 1.0
1.0 1.0 1.0 1.0 1.0 1.0 1.0 1.0
1.0 1.0 1.0 1.0 1.0 1.0 1.0 1.0
1.0 1.0 1.0 1.0 1.0 1.0 1.0 1.0
1.0 1.0 1.0 1.0 1.0 1.0 1.0 1.0
1.0 1.0 1.0 1.0 1.0 1.0 1.0 1.0
-0.0060612014 -0.006682901 0.0 0.0 -0.0056948103 0.00051498984 -0.006043823 -0.0030318326
-0.007460295 0.0 -0.00536308 0.0039391224 -0.0056812908 0.0 0.0 0.0022212816
0.0 0.0 0.0012114949 0.0 0.0025667115 -0.0060493373 0.0 -0.0059153363
0.003307231 -0.004867205 -0.006238884 -0.0046475055 -0.006464045 -0.0060406774 0.0014370894 0.0
-0.0077035576 -0.005797842 0.0037959025 -0.0059996652 -0.0060359207 0.004463913 0.004139139 0.00012254376
0.0 -0.0059608733 0.0018594209 -0.0057104393 0.0 0.0008607814 0.0 -0.0058410848
0.0027905162 0.0 0.0 0.0 -0.0051740287 -0.0026560628 -0.0024270597 0.0
0.0009762344 0.0 -0.005928335 0.0 0.0 -0.0016539287 0.006728233 0.0
-0.001098185 -0.0011329502 0.0 0.0 -6.1158884e-05 -0.0013588624 -0.006515667 -0.0001375877
-0.0048299027 0.0 -7.0199767e-06 -0.0040090075 -2.2042339e-06 0.0 0.0 0.007793335
0.0 0.0 0.0074590677 0.0 -0.000828055 -0.0004910202 0.0 -0.0017109561
-0.004429991 -0.00010363235 -0.0023405177 -0.0023834854 -0.0027500628 -0.0023773073 0.0045674113 0.0
-0.004452446 -4.1644405e-05 -0.0022651698 -0.0007839093 -0.001726903 -0.0034178772 -0.0031560003 -0.0006965278
0.0 -0.00021889758 0.0034296783 -0.0015221406 0.0 -0.004820326 0.0 -0.006466249
-0.005495883 0.0 0.0 0.0 -0.0041758297 -0.00016481873 -0.010679755 0.0
0.014057435 0.0 -0.0016885069 0.0 0.0 -0.008066043 0.003130663 0.0

sequential_11/time_distributed_11/dense_11/MatMul f4 [1, 64]
00000000: 37e9 78bd ec30 1b3e 8699 543d cdf3 88be
00000010: 6375 88bb 3529 8bbd f037 533d 9537 11bd
00000020: f209 83be 1c85 76bd 6bc3 bbbd b541 63bd
00000030: ebfb 31be 5a41 863e 96ee 1a3e a3d8 e2bd
00000040: cc6f 3bbe a786 07be 0734 fbbb 9f7f 7b3e
00000050: 84aa 7f3c 8142 77be a6e9 83bd b9e4 39be
00000060: 7997 05be 0029 343d 5eab 8bbe c892 c83d
00000070: da21 013d a3c6 813e d6f1 91be 127f 593c
00000080: afdc 0d3d 267c 7f3e 18ce 91be 4afe 083d
00000090: 810b 5a3d e41c 913e 5c6f 78be 8874 f1bd
000000a0: 1349 19be ce43 873e 11ae 903e 7c06 7fbe
000000b0: 680f 303e 143d 70bd 4167 91be f069 48bd
000000c0: 5b74 25bd 1496 3f3d 6e12 8ebe f67b 4fbe
000000d0: 12d4 833e 26d9 5abe 45c1 85be 2165 943e
000000e0: dd4f 90be fd1e 583d 3d7a 3b3e bb8e 823e
000000f0: ec6e 87bd 4272 e33d 46c6 dfbd fea7 503b
-0.060769286 0.15155381 0.051904224 -0.26748505 -0.004164384 -0.06794969 0.051567018 -0.035453398
-0.25593525 -0.060185537 -0.091681324 -0.055482585 -0.17381255 0.26221734 0.15130076 -0.110764764
-0.18304366 -0.1323496 -0.0076661143 0.24560402 0.015604619 -0.24146463 -0.06441049 -0.18153657
-0.13046063 0.043984413 -0.2727918 0.09793621 0.031526424 0.2534686 -0.2850482 0.013274925
0.03463429 0.24949703 -0.2847755 0.033445634 0.053233627 0.28342354 -0.2426123 -0.11789805
-0.14969282 0.26418918 0.28257802 -0.24904817 0.17193377 -0.058652 -0.2839909 -0.048929155
-0.04039417 0.046773985 -0.27748436 -0.20262131 0.25747734 -0.21371898 -0.26124015 0.28983405
-0.2818593 0.052763928 0.18308349 0.2549952 -0.066129535 0.11105777 -0.109264895 0.0031838412

lstm_46/lstm_cell_8/bias1 f4 [256]
00000000: b8fc 8fba 7da4 94ba 0000 0000 0000 0000
00000010: 111b 80b8 a020 b2ba d885 d5bb 7d43 10b9
00000020: 7650 9ebb 0000 0000 d96d ebb6 9222 83bb
00000030: 06da 13b6 0000 0000 0000 0000 a01a 003c
00000040: 0000 0000 0000 0000 6c7d f33b 0000 0000
00000050: eeea 5cba d4b8 00ba 0000 0000 5257 e0ba
00000060: 7e17 91bb e7f2 d8b8 b877 19bb c23f 1cbb
00000070: 1d4b 34bb 95d1 1bbb 79cb 953b 0000 0000
00000080: 87eb 91bb dc46 2eb8 4a4d 14bb ce5c 4dba
00000090: d151 e2ba 347b 60bb 13af 4ebb 77ca 35ba
000000a0: 0000 0000 ae9f 65b9 556c 603b 2ec1 c7ba
000000b0: 0000 0000 ea6b 9dbb 0000 0000 04e1 d3bb
000000c0: a92c b4bb 0000 0000 0000 0000 0000 0000
000000d0: d4c5 88bb a8cf 2cb9 d0f9 2ebc 0000 0000
000000e0: 9b7b 673c 0000 0000 885e ddba 0000 0000
000000f0: 0000 0000 7f27 04bc 4bcc 4c3b 0000 0000
00000100: 0000 803f 0000 803f 0000 803f 0000 803f
00000110: 0000 803f 0000 803f 0000 803f 0000 803f
00000120: 0000 803f 0000 803f 0000 803f 0000 803f
00000130: 0000 803f 0000 803f 0000 803f 0000 803f
00000140: 0000 803f 0000 803f 0000 803f 0000 803f
00000150: 0000 803f 0000 803f 0000 803f 0000 803f
00000160: 0000 803f 0000 803f 0000 803f 0000 803f
00000170: 0000 803f 0000 803f 0000 803f 0000 803f
00000180: 0000 803f 0000 803f 0000 803f 0000 803f
00000190: 0000 803f 0000 803f 0000 803f 0000 803f
000001a0: 0000 803f 0000 803f 0000 803f 0000 803f
000001b0: 0000 803f 0000 803f 0000 803f 0000 803f
000001c0: 0000 803f 0000 803f 0000 803f 0000 803f
000001d0: 0000 803f 0000 803f 0000 803f 0000 803f
000001e0: 0000 803f 0000 803f 0000 803f 0000 803f
000001f0: 0000 803f 0000 803f 0000 803f 0000 803f
00000200: 0b9d c6bb 3dfc dabb 0000 0000 0000 0000
00000210: 889b babb 6200 073a 430b c6bb b6b1 46bb
00000220: 7e75 f4bb 0000 0000 c7bc afbb c113 813b
00000230: 1f2a babb 0000 0000 0000 0000 ec92 113b
00000240: 0000 0000 0000 0000 06cb 9e3a 0000 0000
00000250: 4636 283b 8539 c6bb 0000 0000 70d5 c1bb
00000260: 21be 583b 137d 9fbb 8d6f ccbb 1a4a 98bb
00000270: 57d0 d3bb e0f0 c5bb b85c bc3a 0000 0000
00000280: 206e fcbb d3fb bdbb adc4 783b d798 c4bb
00000290: f9c8 c5bb 0446 923b 9da1 873b 177f 0039
000002a0: 0000 0000 6e53 c3bb d0b7 f33a a31e bbbb
000002b0: 0000 0000 10a6 613a 0000 0000 9266 bfbb
000002c0: 18e1 363b 0000 0000 0000 0000 0000 0000
000002d0: e68a a9bb 5711 2ebb 4e0f 1fbb 0000 0000
000002e0: fbe9 7f3a 0000 0000 7a42 c2bb 0000 0000
000002f0: 0000 0000 a3c8 d8ba 8278 dc3b 0000 0000
00000300: f9f0 8fba 807f 94ba 0000 0000 0000 0000
00000310: 6d42 80b8 db1b b2ba 6081 d5bb 6b45 10b9
00000320: 2944 9ebb 0000 0000 248d ebb6 fe5d 83bb
00000330: 73ec 13b6 0000 0000 0000 0000 3b5f ff3b
00000340: 0000 0000 0000 0000 326b f43b 0000 0000
00000350: d511 59ba cfb7 00ba 0000 0000 2942 e0ba
00000360: 7529 91bb 3255 d9b8 5f63 19bb 4034 1cbb
00000370: 663a 34bb 99cc 1bbb 39aa 953b 0000 0000
00000380: d3e5 91bb 57ab 2eb8 3e73 14bb 437f 4dba
00000390: 4059 e2ba 77fe 5fbb e6d4 4ebb 3097 36ba
000003a0: 0000 0000 df87 65b9 74c4 603b 9082 c7ba
000003b0: 0000 0000 d3f3 9dbb 0000 0000 d4e2 d3bb
000003c0: cf16 b4bb 0000 0000 0000 0000 0000 0000
000003d0: 66d5 88bb 31d3 2cb9 24fa 2ebc 0000 0000
000003e0: 2851 663c 0000 0000 e450 ddba 0000 0000
000003f0: 0000 0000 7027 04bc cf2b 4d3b 0000 0000
-0.001098535 -0.0011340525 0.0 0.0 -6.108557e-05 -0.0013590045 -0.0065161996 -0.00013758052
-0.004831369 0.0 -7.0163337e-06 -0.004001924 -2.2031613e-06 0.0 0.0 0.007818848
0.0 0.0 0.007430723 0.0 -0.0008427341 -0.0004910354 0.0 -0.0017115867
-0.0044278493 -0.00010344927 -0.0023417305 -0.0023841714 -0.0027510591 -0.0023776044 0.004571375 0.0
-0.004453126 -4.1550826e-05 -0.0022629076 -0.00078339584 -0.0017266815 -0.0034253122 -0.0031537458 -0.00069347717
0.0 -0.00021898627 0.0034244258 -0.0015240067 0.0 -0.004804124 0.0 -0.006466033
-0.005498488 0.0 0.0 0.0 -0.0041739736 -0.00016480556 -0.010679677 0.0
0.014128591 0.0 -0.0016889134 0.0 0.0 -0.008066057 0.0031249698 0.0
1.0 1.0 1.0 1.0 1.0 1.0 1.0 1.0
1.0 1.0 1.0 1.0 1.0 1.0 1.0 1.0
1.0 1.0 1.0 1.0 1.0 1.0 1.0 1.0
1.0 1.0 1.0 1.0 1.0 1.0 1.0 1.0
1.0 1.0 1.0 1.0 1.0 1.0 1.0 1.0
1.0 1.0 1.0 1.0 1.0 1.0 1.0 1.0
1.0 1.0 1.0 1.0 1.0 1.0 1.0 1.0
1.0 1.0 1.0 1.0 1.0 1.0 1.0 1.0
-0.0060612014 -0.006682901 0.0 0.0 -0.0056948103 0.00051498984 -0.006043823 -0.0030318326
-0.007460295 0.0 -0.00536308 0.0039391224 -0.0056812908 0.0 0.0 0.0022212816
0.0 0.0 0.0012114949 0.0 0.0025667115 -0.0060493373 0.0 -0.0059153363
0.003307231 -0.004867205 -0.006238884 -0.0046475055 -0.006464045 -0.0060406774 0.0014370894 0.0
-0.0077035576 -0.005797842 0.0037959025 -0.0059996652 -0.0060359207 0.004463913 0.004139139 0.00012254376
0.0 -0.0059608733 0.0018594209 -0.0057104393 0.0 0.0008607814 0.0 -0.0058410848
0.0027905162 0.0 0.0 0.0 -0.0051740287 -0.0026560628 -0.0024270597 0.0
0.0009762344 0.0 -0.005928335 0.0 0.0 -0.0016539287 0.006728233 0.0
-0.001098185 -0.0011329502 0.0 0.0 -6.1158884e-05 -0.0013588624 -0.006515667 -0.0001375877
-0.0048299027 0.0 -7.0199767e-06 -0.0040090075 -2.2042339e-06 0.0 0.0 0.007793335
0.0 0.0 0.0074590677 0.0 -0.000828055 -0.0004910202 0.0 -0.0017109561
-0.004429991 -0.00010363235 -0.0023405177 -0.0023834854 -0.0027500628 -0.0023773073 0.0045674113 0.0
-0.004452446 -4.1644405e-05 -0.0022651698 -0.0007839093 -0.001726903 -0.0034178772 -0.0031560003 -0.0006965278
0.0 -0.00021889758 0.0034296783 -0.0015221406 0.0 -0.004820326 0.0 -0.006466249
-0.005495883 0.0 0.0 0.0 -0.0041758297 -0.00016481873 -0.010679755 0.0
0.014057435 0.0 -0.0016885069 0.0 0.0 -0.008066043 0.003130663 0.0

sequential_11/lstm_46/while/lstm_cell_8/MatMul_1 f4 [256, 64]
00000000: 90f6 b0bd c06a 043d 0043 503b 2c38 8e3d
00000010: 7636 4c3d 1543 9b3d 934d a3bd 6f42 82bd
00000020: 2a08 103d 60bb 553b f427 f83d 82ff e9bc
00000030: f3f1 a1bd 7858 523c 824b 09bd 3004 54bd
00000040: 4b24 8e3d 53c0 f0bc fee7 eb3c 9f08 2dbd
00000050: 8ca2 01bb 99d5 0abd b0e5 b83b ce56 0dbd
00000060: 64d8 fbbd ed65 f43d 56fa 98bd 2ce8 ee3c
00000070: cf32 f73c cc4c 743d b6cf c2bd e08b a03d
00000080: 7ec7 fc3c cc52 99bd 48f8 723d 5927 acbd
00000090: 642a 5dbd ac80 833c cccd 27bc fa69 19be
000000a0: 2386 033d 1cd6 6fbd 3339 e0bd 1434 9abc
000000b0: 004f 683d a5ee ec3c f6ca 56bd 0a34 123e
000000c0: 6caa 343c 017c f8bc 92f9 15be 141e 0bbd
000000d0: a8d0 9a3b 9e10 e53b 3acd b4bc e88b c1bc
000000e0: 0328 84bc 0a0a 633c 042d 273c f004 1b3d
000000f0: 6cbf ffbb 7833 4dbd ce49 efbb f8e2 f23c
00000100: b723 43bd 0080 223b 5cd4 e53c 8294 16bd
00000110: 6843 cb3b 82d3 3d3c b312 8f3d cb7f 163d
00000120: 9b84 85bd 91d6 88bd 21db 283d 9c3a 48bd
00000130: f309 ec3b 3a5c b7bd 9a4a 1bbc 58fc 44bd
00000140: 8ea5 763d 4754 f93b d2db 8d3d a565 4d3d
00000150: da3b a4bc 435b a4bd 2c68 dbbd 55d7 453d
00000160: daf8 05be 02fd 10be 50ce 1ebd 37c4 803d
00000170: 3ed3 c6bd 7294 f83d e8eb abba 9c16 263d
00000180: 5ae1 a5bb 5ad3 933b e8ea 343d 8b29 01be
00000190: cdb2 853d bfa4 e1bc 88ce 3fbd 8478 2f3c
000001a0: dac3 10be 7c59 1cbd e678 13bc b650 8dbb
000001b0: 2b49 78bd 1b44 d43d 07cd b63d 7d7f 59bd
000001c0: fcd0 86bd 9b70 0b3d 0047 233d a1d4 ca3d
000001d0: 5c0b b7bd c5ae e8bb 7469 bebc 47c1 2d3d
000001e0: 7253 a03b ad60 f7bd 3c92 dabd 5823 1cbd
000001f0: 2373 343c 3e30 943b 56a8 d73d 0a88 8c3d
00000200: 80e1 b2bc 2aab ba3d 50b2 903d 605e 54b9
00000210: 6ed6 4c3a ac09 433c ab5e 70bd 3185 213e
00000220: 5348 753d 0563 5b3d a1b4 0e3d b0f9 97bb
00000230: 9bc0 03bd 6b72 633d 4659 b23a 3b0a 053e
00000240: d5eb a23c 768e 6fbc 925a 23bc 3cfe f9bc
00000250: 70d8 41bd ddf9 bd3d 50ae 91bb 77ec b9bc
00000260: 5844 b1bd 5e8b dcbd 62aa 26bd 48e7 643b
00000270: 95ba 7fbc d41b cdbb ae10 31bd be0f 083d
00000280: 7cd4 663d 5b5c 3e3d abd7 fc3d f3b1 2c3d
00000290: c402 b33d 4779 3abd 9750 40bc 4643 be3d
000002a0: bb70 72bd e8d2 9e3c 9e63 093e 73bc 92bd
000002b0: 5c17 3b3d b1eb 133d 2e59 ed3d 2ebc dd3d
000002c0: 88d2 933c b4ed 2e3c d2d6 f13c 80c3 25bd
000002d0: 921a 45bc e99d b5bd e576 54bd 65b2 b2bc
000002e0: ecb3 babc 70a6 33bd 6fe4 9a3d 7917 4abd
000002f0: bac9 98bb 0982 c93b 41a4 3b3c 1b7c 2f3d
00000300: 9496 e0b9 641e b53d ad00 853d 0074 d5bb
00000310: eaa3 78bd cdd9 80bd adab cf3d d267 4bbc
00000320: c178 47bd c9bd 7cbd 2433 20be 8f13 f43c
00000330: 54c7 02bd df9c babd 5716 883d b083 493d
00000340: eb04 bb3d b786 043c d419 7a3d c0bf b03d
00000350: b142 4a3d dacc 2a3d 82d5 e1bc 6c06 1abd
00000360: acce 663d bcd7 b93d c0f3 19bd 3cb5 313d
00000370: 27e3 d13d b458 20bd c31f 313d d014 233d
00000380: c49d 00bd 7e5c 12bd 78e5 b8bb fd12 b03d
00000390: f292 7c3d c2f1 6a3d 0aca 8a3d d8a6 063a
000003a0: 2abc b13c 377a 9cbc bf7a b4bb 4026 b6bd
000003b0: f0ee 17bd 9be8 95bd 531f acbd 9826 e9bc
000003c0: 3546 34bc 832e b1bd 4c3d 463c cacb a5bd
000003d0: d1c5 02bd 4cfe e0bd 5b13 7c3c 4e99 153d
000003e0: f9df 1f3c 5d9c 623d 4273 e8bc 4e89 9bbd
000003f0: b3f3 8dbd 1bb9 903d a202 7b3c 9b34 023d
-0.08640778 0.032328367 0.0031778216 0.06944308 0.049856625 0.07581154 -0.079737805 -0.063603275
0.035164036 0.0032612905 0.121169955 -0.028564218 -0.07907476 0.012838475 -0.033519275 -0.051761806
0.06940516 -0.029388582 0.028797146 -0.04224455 -0.0019780723 -0.03389511 0.0056426153 -0.03450661
-0.122971326 0.11933503 -0.07469623 0.029163443 0.030175595 0.05964355 -0.09512274 0.07839179
0.030856844 -0.074864954 0.05931881 -0.084059425 -0.053995505 0.016052566 -0.010241937 -0.14981833
0.032110345 -0.0585538 -0.1094841 -0.01882366 0.056715965 0.028922388 -0.052439652 0.14277664
0.01102696 -0.030332567 -0.14645985 -0.03396423 0.004724581 0.0069905063 -0.022070516 -0.023626283
-0.01613236 0.013857374 0.010203604 0.037846506 -0.0078048017 -0.050097913 -0.0073024994 0.029649243
-0.047641482 0.0024795532 0.028055362 -0.03676272 0.006203104 0.011586072 0.069859885 0.036742967
-0.06519433 -0.0668155 0.041224603 -0.04888402 0.0072033345 -0.08953138 -0.009478236 -0.048092216
0.06021648 0.0076089236 0.06926693 0.050145764 -0.02004807 -0.08025219 -0.107132286 0.04830106
-0.1308321 -0.14159015 -0.038770974 0.06287425 -0.0970826 0.12137689 -0.001311657 0.040548906
-0.0050622644 0.004511279 0.044169337 -0.12613504 0.06528244 -0.027544377 -0.046827823 0.0107098855
-0.14137211 -0.038171276 -0.009000992 -0.0043126 -0.060616653 0.103645526 0.089258246 -0.053100098
-0.06582829 0.034042936 0.039862633 0.09903837 -0.089377135 -0.0071009123 -0.023243643 0.04242065
0.00489276 -0.12078986 -0.10672423 -0.038119644 0.011013779 0.0045223525 0.105301544 0.06861885
-0.021836042 0.09114678 0.070652604 -0.00020253053 0.0007813935 0.011904161 -0.058684032 0.15773465
0.059883427 0.05356123 0.03484023 -0.0046379194 -0.032166105 0.05552904 0.0013606928 0.12992184
0.019887844 -0.014621368 -0.009970324 -0.030516736 -0.04732555 0.09276173 -0.0044458285 -0.022695763
-0.08655614 -0.1076877 -0.040689833 0.0034927893 -0.0156084495 -0.006259421 -0.043228798 0.033218138
0.056354985 0.046474796 0.12345823 0.042161893 0.08740762 -0.045525815 -0.011737964 0.09290175
-0.05918954 0.019387677 0.13416907 -0.0716485 0.045676574 0.036113445 0.11589275 0.10826908
0.018044725 0.01067679 0.02952138 -0.040469646 -0.012030261 -0.088680096 -0.0518712 -0.02181358
-0.022790872 -0.0438599 0.075631015 -0.04933879 -0.0046627196 0.0061495346 0.011452735 0.042842966
-0.000428368 0.08843687 0.064942695 -0.0065140724 -0.060703196 -0.06291542 0.101401664 -0.012414889
-0.048699144 -0.06170443 -0.15644509 0.029794483 -0.031928375 -0.09111952 0.06644886 0.049197853
0.091317974 0.008088759 0.061059788 0.086303234 0.049380008 0.041699268 -0.027567629 -0.03760378
0.05634944 0.09074351 -0.037585974 0.04338573 0.10248404 -0.039147094 0.04324318 0.03981477
-0.031400457 -0.03573274 -0.005642589 0.08597372 0.061663575 0.057359464 0.06776817 0.0005136556
0.021696169 -0.019101245 -0.0055077965 -0.08894014 -0.037093103 -0.073197566 -0.08404412 -0.028460786
-0.011003067 -0.086514495 0.012099575 -0.0809551 -0.031926934 -0.10986003 0.015385474 0.036523156
0.009757989 0.0553249 -0.028375272 -0.07594548 -0.069312476 0.07066556 0.015320452 0.03178845

sequential_11/lstm_46/while/lstm_cell_8/MatMul f4 [256, 3]
00000000: cb79 17be 9699 c63d 0914 c53d 1fac 6ebd
00000010: a23f 153e 13af 44bd 98fa 6abd b451 18be
00000020: 5ad3 113e 6ac3 75bd 8cc0 15bd 104f 90bd
00000030: d18d 553b 907a 663d a887 c93d 4ca0 76bd
00000040: 8a60 743d b222 f73d c797 35bc 5a59 7b3c
00000050: 05dd 113e cd5c 2abd 0710 9fbb 9243 1c3d
00000060: cc67 01be 989e bebd 33e9 bb3d 24f8 ea3d
00000070: 003c 79bc da4a 77bd 0eb3 15bd b0b6 b43d
00000080: ec47 243d c953 48bd b9b9 a73d 6987 ea3d
00000090: ace3 7d3d 7c3f 4e3d 88ba e83d 2a57 8a3d
000000a0: 04cb 1b3d 6870 fabd e2d3 f9bd f8af 6e3d
000000b0: 0403 633d cf0b 15be 6d88 63bd 3bce 893d
000000c0: 70cc cb3c d8b4 33bd e09b 44bc f877 cc3d
000000d0: ae06 a23d 40be 18bc 301f 023e 0b43 9c3d
000000e0: 6dc5 023e 2c31 253d 4886 e6bd 1cc9 c73d
000000f0: 310c 0f3d 672b d83d ffc2 9dbd 0d73 073d
00000100: 13e6 fabc 3834 d23d f812 4ebd 24ba 8e3d
00000110: 00fa 173a 5e6b 7fbc 3980 2c3d 2976 eabd
00000120: e842 e93c fa84 3a3d 39bc 04be 4f2b c03d
00000130: 27c9 0c3e 949e 31bc 9c40 083d 10a5 afbc
00000140: 013f a03c 2229 a33d bc4e 443d 25fe 17be
00000150: e4f0 d0bd 9a41 053e e54d 953c 7465 19be
00000160: a509 f33d ecc8 933d a616 18be 45b1 eebd
00000170: ab26 d83d 00a6 3ebd c80e 743d 0478 e43d
00000180: e189 c0bb 2c07 16bd cb08 4ebc d086 103e
00000190: a777 063e 3141 d73d 0989 983c dbcb 9d3d
000001a0: 9add 10be a746 6b3d ddff 35bd fb4d 033e
000001b0: 510e ec3d 4d9d b8bd c55a 75bd cf87 3a3d
000001c0: 1a6b bb3c 52bc 8cbd 12e9 0bbe 38a4 01bb
000001d0: c5b6 b4bd c494 a93c 0deb e73d d1ca 0abe
000001e0: 9eb2 0e3e e0fc babc e8fd c9bc 4fd3 1abe
000001f0: bfee a8bd f459 2dbd d43d 07bd 8852 633d
00000200: c227 bb3c 332d 08be 7f47 233c 193c 14be
00000210: 68cb a33d ca27 b93d 6221 f0bd e67e c2bd
00000220: c241 aabd 9ad4 92bd 6e59 1b3e 0e68 0f3e
00000230: 5c91 413d da7e cabd 056f f33c b6f9 193e
00000240: 0a92 813d a9d6 e93b 0e9b fdbd 0e47 053e
00000250: be4f c1bd 8b94 14be 44a9 f6bd 9a1b 173e
00000260: bf47 adbd 7e12 c8bd b603 0b3e d462 053e
00000270: 9b93 4a3d f125 babd 7648 9d3d f71f 2abd
00000280: e363 063e f61d ecbd 2261 0a3e 755d 9abb
00000290: 7d1a c2bb a4ec 8cbd 101f 00bd c084 debc
000002a0: 13f0 18be f035 e9bd 138c b7bd eed8 143e
000002b0: c656 38bd 2c6d 623d f804 1abd 30e8 103e
000002c0: 15a8 93bd 7649 16be a036 c6bd 82df dbbd
000002d0: 78ad c0bc 0095 8dba c40d 4fbd 54b7 03be
000002e0: 55f2 0c3e 8a0a dd3c 9c3e fcbd 7a99 06be
000002f0: 1110 183e 9a56 56bd 8a04 0cbe 7303 16be
00000300: 2537 90bd b0ea c2bc c85c c9bc d065 a53d
00000310: 2c5e 003e 202a 25bd 9d24 06be 30da c7bc
00000320: 4653 973d 8881 0fbd 206e cf3d 466d 39bd
00000330: b0f1 b93d 8109 cfbd f02f c43d e48e ccbd
00000340: 7209 0a3e 8a4a 0f3e ac5a 5a3d d074 283c
00000350: caff 8b3d 847d 9dbd f0d3 e03d e2ab b33d
00000360: 1820 803c 880a 4fbd 22e0 c53d 108c 0e3d
00000370: 56c3 1abe 209e e23d 80b8 ea3c 629d e1bd
00000380: 34ae 713d a0cd a4bd 8070 9bbb f411 e33d
00000390: 0837 febc b09e 0f3c fcca 28bd 5ca0 073e
000003a0: 5ea4 e7bd a0a1 173c 9ae9 67bd 1cda 8cbd
000003b0: f838 0b3d 0014 643c 2cb5 9e3d 0aca 063e
000003c0: c2c1 debd ee52 813d 541d 123d aae8 923d
000003d0: ec8d 293d ac19 e0bc 4094 ed3d c67d 193e
000003e0: 226e febd c881 033e bcb2 c7bd 38c9 f53d
000003f0: d489 313d b87a e83d 0a11 02bd 8c81 cd3d
-0.14792554 0.09697263 0.09622962 -0.058269616 0.14575055 -0.048018526 -0.05736789 -0.14874917
0.1424078 -0.060000814 -0.03656058 -0.0704633 0.003258575 0.05626923 0.098403275 -0.060211465
0.05966238 0.120671645 -0.01108355 0.015341127 0.14244469 -0.041592408 -0.0048542055 0.038150378
-0.12637252 -0.09307593 0.091753386 0.1147311 -0.015212059 -0.06037412 -0.036547713 0.088239074
0.040107653 -0.04890803 0.08189721 0.11451609 0.061984703 0.050353512 0.11363703 0.067549065
0.038035408 -0.12228471 -0.121986166 0.058273286 0.055422798 -0.14555286 -0.055550028 0.067287885
0.024877757 -0.043873638 -0.012000054 0.0998382 0.0791143 -0.009322703 0.1270721 0.07629975
0.12770624 0.040330097 -0.11256081 0.097551554 0.034923736 0.10555153 -0.07703208 0.033068705
-0.030627286 0.10263866 -0.05031106 0.06969097 0.0005797446 -0.015589563 0.04211447 -0.114483185
0.028474286 0.045536973 -0.12962426 0.093832605 0.13748609 -0.010841031 0.03326474 -0.021441013
0.019561293 0.0796683 0.04792665 -0.14843042 -0.10202196 0.13013306 0.01822562 -0.14980108
0.11867074 0.07216057 -0.1485239 -0.11654905 0.1055425 -0.04654503 0.05958441 0.11155704
-0.0058758114 -0.036627933 -0.012575339 0.14113927 0.13131581 0.10510481 0.018620031 0.07704898
-0.14147034 0.057440426 -0.044433463 0.12822716 0.11526168 -0.09014378 -0.059901018 0.045539673
0.022878218 -0.06871857 -0.13663128 -0.001978172 -0.08823923 0.02070082 0.11324129 -0.13553931
0.13935325 -0.022825658 -0.024657205 -0.1511967 -0.08248662 -0.042322114 -0.03301795 0.05549863
0.022846106 -0.13298492 0.0099657765 -0.1447605 0.07997781 0.09040792 -0.11725117 -0.0949686
-0.083133236 -0.07169457 0.15170833 0.14004537 0.047257766 -0.09887476 0.029716024 0.15036663
0.06326683 0.007136185 -0.1238309 0.13015386 -0.09439038 -0.1450979 -0.120440036 0.14756623
-0.0846095 -0.09769152 0.13575634 0.13025981 0.049457174 -0.09089268 0.076798365 -0.04153439
0.13124041 -0.11529152 0.13513616 -0.004710848 -0.005923568 -0.06881073 -0.031279624 -0.02716291
-0.14935331 -0.11387241 -0.08962264 0.14535877 -0.04500463 0.055279896 -0.037602395 0.14151073
-0.072097935 -0.1467646 -0.09678388 -0.1073599 -0.023520216 -0.0010801852 -0.050550237 -0.12862903
0.13764317 0.026982564 -0.12316629 -0.13144484 0.14849879 -0.052328683 -0.13673607 -0.14649753
-0.07041768 -0.023793548 -0.024580374 0.0807606 0.12535924 -0.040323377 -0.13099904 -0.024396032
0.0738893 -0.03503564 0.101284266 -0.045270227 0.09079301 -0.101092346 0.09579456 -0.09988192
0.13480166 0.13993278 0.053309128 0.0102817565 0.06835897 -0.07689956 0.10977924 0.087730184
0.015640303 -0.050547153 0.096618906 0.034801543 -0.15113577 0.11065316 0.02865243 -0.110163465
0.059004024 -0.08047032 -0.0047436357 0.11087409 -0.0310321 0.008765861 -0.041209206 0.13244766
-0.113106474 0.009254843 -0.056619264 -0.068775386 0.033989877 0.013920784 0.077493995 0.1316301
-0.108768 0.06314646 0.0356725 0.071732834 0.041395113 -0.027355991 0.11600542 0.14989385
-0.1242335 0.12842476 -0.09750888 0.1200127 0.043344334 0.11351532 -0.03175453 0.10034475

lstm_47/lstm_cell_9/bias1 f4 [256]
00000000: c8f8 49b5 b1f0 9ab6 26ee 0ebc 0000 0000
00000010: f9ac b5b8 492c a5ba 0000 0000 3707 a4ba
00000020: 730a 21bb 0000 0000 a1ea bfb7 5262 7cb9
00000030: 4f30 8eb7 0000 0000 0000 0000 f65c d1ba
00000040: d397 a7ba 5a4d 3fbb ca75 fbb5 cc01 0abc
00000050: b052 d9bb 0168 ffba 9777 d6b6 d747 00bb
00000060: 0000 0000 997e eabb 27b0 6ebb 990b 0dbc
00000070: 554a 25b7 280d c2bb 01fc 3dbb e9dc edbb
00000080: ec1a dbbb 1885 ddbb bc33 75bb e846 12bc
00000090: 0fbd f9bb 0000 0000 0000 0000 f69c dbb8
000000a0: 2b8f 18ba 0d59 babb a1e8 e9bb 3b1a c4ba
000000b0: 2bcf 21bc bf64 82ba d4e6 3cbb af6a e9ba
000000c0: b5e1 1bb9 4011 e2bb bfb8 a8bb 6d1f e6b9
000000d0: 0000 0000 7b05 d4ba a9de 9fba 7628 2fbc
000000e0: 24b5 03bb 59c4 69b8 9124 0dbc 57ae 0ebc
000000f0: 71b3 1db9 2213 03bc 3476 58b5 1e61 2cb8
00000100: 0000 803f 0000 803f 0000 803f 0000 803f
00000110: 0000 803f 0000 803f 0000 803f 0000 803f
00000120: 0000 803f 0000 803f 0000 803f 0000 803f
00000130: 0000 803f 0000 803f 0000 803f 0000 803f
00000140: 0000 803f 0000 803f 0000 803f 0000 803f
00000150: 0000 803f 0000 803f 0000 803f 0000 803f
00000160: 0000 803f 0000 803f 0000 803f 0000 803f
00000170: 0000 803f 0000 803f 0000 803f 0000 803f
00000180: 0000 803f 0000 803f 0000 803f 0000 803f
00000190: 0000 803f 0000 803f 0000 803f 0000 803f
000001a0: 0000 803f 0000 803f 0000 803f 0000 803f
000001b0: 0000 803f 0000 803f 0000 803f 0000 803f
000001c0: 0000 803f 0000 803f 0000 803f 0000 803f
000001d0: 0000 803f 0000 803f 0000 803f 0000 803f
000001e0: 0000 803f 0000 803f 0000 803f 0000 803f
000001f0: 0000 803f 0000 803f 0000 803f 0000 803f
00000200: 057f c8bb 1515 afbb dd7a dc39 0000 0000
00000210: 1a7f c4bb 16bf c4bb 0000 0000 3fb8 c4bb
00000220: 5fc5 c4bb 0000 0000 9299 c4bb c4bb c4bb
00000230: 5793 c4bb 0000 0000 0000 0000 4ac2 c4bb
00000240: 6cc4 c4bb 2cc3 c4bb 16e7 c3bb acd2 e4bb
00000250: fc95 073b 3ac5 c4bb 4923 c4bb 67c4 c4bb
00000260: 0000 0000 a46e 2f3b 8bc5 c4bb ce36 0b3b
00000270: 30a8 a9bb 4b50 483b a3c5 c4bb 1f3e 023b
00000280: beae 263b 63c2 433b a5c5 c4bb de52 bdba
00000290: 44d9 343b 0000 0000 0000 0000 61b2 c4bb
000002a0: 6920 b6bb 8a7b 483b 40d2 483b eac4 c4bb
000002b0: 22ae c93a cebd c4bb a2c5 c4bb c55b f5bb
000002c0: ddb8 c4bb bd2f 313b c10b a6bb aac4 c4bb
000002d0: 0000 0000 b9c4 c4bb 8822 b6bb 67f5 3c3a
000002e0: 9bc5 c4bb 8d0a a8bb 04df 093b e555 ddbb
000002f0: 04b4 c4bb 0ba6 353b e280 c5bb e090 c3bb
00000300: 9eef 49b5 c2ef 9ab6 4fee 0ebc 0000 0000
00000310: 5ca8 b5b8 552f a5ba 0000 0000 7506 a4ba
00000320: 100d 21bb 0000 0000 feeb bfb7 2564 7cb9
00000330: 1d30 8eb7 0000 0000 0000 0000 2956 d1ba
00000340: eb9b a7ba 744c 3fbb c068 fbb5 3e02 0abc
00000350: eb4e d9bb 9e67 ffba cb79 d6b6 6846 00bb
00000360: 0000 0000 db8a eabb 49b0 6ebb 940b 0dbc
00000370: fd4b 25b7 180d c2bb eafa 3dbb 32dd edbb
00000380: 741d dbbb d98a ddbb 7e32 75bb aa46 12bc
00000390: 94b6 f9bb 0000 0000 0000 0000 ce9c dbb8
000003a0: 078d 18ba 7d47 babb 99e6 e9bb 3f19 c4ba
000003b0: c8d0 21bc ea62 82ba 1be5 3cbb f06a e9ba
000003c0: 35e3 1bb9 7107 e2bb d4be a8bb 1c1d e6b9
000003d0: 0000 0000 170b d4ba 3ddc 9fba 8725 2fbc
000003e0: f7b7 03bb d3c6 69b8 ac1e 0dbc 0faf 0ebc
000003f0: 2eb3 1db9 ef13 03bc a37f 58b5 055e 2cb8
-7.524036e-07 -4.617578e-06 -0.008723771 0.0 -8.662971e-05 -0.0012601699 0.0 -0.0012514357
-0.0024572879 0.0 -2.2878232e-05 -0.0002406922 -1.6950215e-05 0.0 0.0 -0.0015973139
-0.0012786336 -0.0029190392 -1.8735238e-06 -0.00842328 -0.0066321716 -0.0019485952 -6.391619e-06 -0.001957407
0.0 -0.007156205 -0.0036420913 -0.008608722 -9.852073e-06 -0.0059219785 -0.0028989317 -0.0072590006
-0.006686559 -0.006760251 -0.003741487 -0.008928038 -0.0076214145 0.0 0.0 -0.0001047197
-0.00058196735 -0.005686885 -0.007138327 -0.001496143 -0.009876053 -0.0009948238 -0.0028824108 -0.0017808283
-0.00014866034 -0.006899029 -0.0051489766 -0.00043892433 0.0 -0.001617595 -0.0012197095 -0.010690799
-0.0020096982 -5.5734392e-05 -0.008614675 -0.008708558 -0.00015039534 -0.008000167 -8.063828e-07 -4.1098443e-05
1.0 1.0 1.0 1.0 1.0 1.0 1.0 1.0
1.0 1.0 1.0 1.0 1.0 1.0 1.0 1.0
1.0 1.0 1.0 1.0 1.0 1.0 1.0 1.0
1.0 1.0 1.0 1.0 1.0 1.0 1.0 1.0
1.0 1.0 1.0 1.0 1.0 1.0 1.0 1.0
1.0 1.0 1.0 1.0 1.0 1.0 1.0 1.0
1.0 1.0 1.0 1.0 1.0 1.0 1.0 1.0
1.0 1.0 1.0 1.0 1.0 1.0 1.0 1.0
-0.0061186575 -0.0053430893 0.0004205321 0.0 -0.005996597 -0.0060042245 0.0 -0.006003409
-0.006004974 0.0 -0.0059997523 -0.0060038287 -0.0059990096 0.0 0.0 -0.0060046064
-0.0060048606 -0.0060047116 -0.0059784753 -0.006983122 0.0020688763 -0.0060049566 -0.0059856516 -0.0060048583
0.0 0.0026768828 -0.0060049943 0.0021242383 -0.00517752 0.0030565436 -0.0060050054 0.0019873453
0.0025433744 0.0029870502 -0.0060050064 -0.0014444252 0.002759532 0.0 0.0 -0.0060027097
-0.005558063 0.0030591213 0.0030642897 -0.0060049193 0.0015386979 -0.006004072 -0.006005005 -0.0074877464
-0.0060034827 0.002703651 -0.005067319 -0.0060048895 0.0 -0.0060048965 -0.0055583157 0.00072081987
-0.0060050017 -0.005128211 0.0021037469 -0.006754624 -0.006002905 0.0027717378 -0.006027327 -0.005968198
-7.5227024e-07 -4.617469e-06 -0.008723809 0.0 -8.662112e-05 -0.0012602607 0.0 -0.0012514131
-0.0024574436 0.0 -2.2878867e-05 -0.000240699 -1.6950124e-05 0.0 0.0 -0.0015971112
-0.0012787556 -0.0029189857 -1.8731444e-06 -0.008423386 -0.006631722 -0.0019485836 -6.3918756e-06 -0.0019573215
0.0 -0.007157666 -0.0036420992 -0.0086087175 -9.852459e-06 -0.005921971 -0.0028988668 -0.0072590346
-0.0066868607 -0.0067609367 -0.003741413 -0.00892798 -0.007620642 0.0 0.0 -0.00010471941
-0.00058193546 -0.0056847916 -0.007138085 -0.0014961137 -0.0098764375 -0.0009947692 -0.002882308 -0.0017808359
-0.00014866593 -0.0068978597 -0.0051497016 -0.00043890707 0.0 -0.0016177621 -0.0012196373 -0.0106901
-0.0020098665 -5.57367e-05 -0.00861327 -0.008708729 -0.00015039436 -0.008000358 -8.0652006e-07 -4.1095558e-05

sequential_11/lstm_47/while/lstm_cell_9/MatMul_1 f4 [256, 64]
00000000: 105d fc3d 8092 78bb d09f 59bc a4ff 62bc
00000010: 07e6 0bbd 80fe a8ba 4ecd f03c 267f b5bd
00000020: 00f9 ffba c05d d8bc 3a0d c2bc 3d4f 043e
00000030: 1f75 073d 2e94 b2bd 0275 653d 7c94 5d3c
00000040: e000 c33a a2fb 293d 1c15 a3bc c601 59bc
00000050: e585 3ebd 4a13 8abd ea82 6dbc b4af 813d
00000060: b2ba 1f3e 02c8 183d 1174 203d bbe3 833d
00000070: 4433 c3bc 7a01 9c3d d763 053d 7283 483d
00000080: 50cd f7bc 720c e5bd 6731 e53d 0ab1 fd3d
00000090: d22c b9bb 398c c3bd 34f1 acbd 1e3b 713d
000000a0: 57d3 98bd fc30 d5bd 00ac 6b3c 9433 a23b
000000b0: 553a cbbc 2c5b 46bd 4c52 aa3c d22d d23d
000000c0: b2cf 8c3d 597e 80bd 606d 89bd 9c44 6c3d
000000d0: a000 be3d 360b 983d 1e68 a03c 9964 94bd
000000e0: 3ffe 223d 8c62 4a3d 9e87 81bd bec4 b7bd
000000f0: ad43 1c3c 439e 87bd 02fd a1bd fa6e 35bc
00000100: fe6c c83c f0b3 b53d a10d 2bbd 5e52 7dbd
00000110: eb64 023c 5963 54bc 502d f2bc aac5 dcbd
00000120: a6be a43c ae73 92bb 6429 cabd aa71 dcbd
00000130: 5e52 0e3d 689b fcbd 6547 e33b cc10 823d
00000140: 8d86 01be 42c6 8c3c d94b bf3c 55aa 943c
00000150: 1e8b 3b3b 4bc8 303d d0cd 403d 3a2d 9dbd
00000160: 5aa9 a03d e0e2 293d c359 a0bd 47af 9f3c
00000170: 5868 0c3d 09d6 51bd d674 4d3d d3dd 8a3c
00000180: f87e 96bc bf79 0fbd dd81 45be 1738 563d
00000190: a45e dd3d 098c d8bc 2714 a4bd af36 46bd
000001a0: 8cff 33bd 0c36 263d 2a90 0cbd d5e2 1a3d
000001b0: 79cb 7fbc ef61 c63d aa1e a9bc b1be d13c
000001c0: 4c53 8bbd de56 60bd ce21 ccbc fb8e 053d
000001d0: 1768 a13c 2307 81bc dd07 b2bc 1341 133d
000001e0: bc06 84bd cef2 a6bc 9a70 103e 935a 9bbd
000001f0: b2e3 063e ccca 91bb 215e f23c 30c1 d83c
00000200: a19e 8c3b eaa2 b33b 5082 b03d 8bdf f03d
00000210: 6669 7fbc 5614 50bc 7d1d 34bc 7be6 a9bc
00000220: 9ff1 6e3d 90cd 3ebd 42d1 05bd 7113 c53c
00000230: b6ab f3bd 76e8 32bc eaa1 283c ffbd 9e3c
00000240: afbc 88bd 7c3c 42bc ffcd 733d af4e 6abd
00000250: e580 433d b9f7 1a3d 74b8 273d a05d 543d
00000260: b822 4e3c 9bfc 923d 4577 8c3d 1bdb 99bd
00000270: e655 6f3d b5c2 08be b1c0 b23d b17d be3d
00000280: bb2d 583c d5fb 913d 06e9 47bc ccf1 55bb
00000290: 5b4b e73d bef4 313d a504 38bd 0eba b03c
000002a0: 3c5f 4c3c c0d0 983c d1c3 833c f50f bebb
000002b0: 7b9a 223d 00be 763c 0118 96bc 9fd2 1a3d
000002c0: 1258 90bd e57e de3c ce8c 413d a0bf 3e3d
000002d0: d093 afbc 3ca8 ba3d 3cb8 123e 52c1 68bc
000002e0: 4767 2ebc 25f0 da3c 1ea0 89bc e672 323c
000002f0: 1ac3 3cbc e61b a9bd 22f4 183d 7a09 4b3c
00000300: 4c96 80bd 25cc b7bc 7eed 82bc 003f 823b
00000310: d6d1 cb3d 7cde 2a3d a674 5e3d 4b50 26bd
00000320: a104 823d 2027 933d f7b0 05bd d544 8fbd
00000330: 4ab2 b23d 6a80 53bd 2c53 84bd 329e 193d
00000340: 6bd8 58bd 858c 92bd f011 2b3d 7013 ca3d
00000350: 9c6d 5f3d e8bf d1bc 00d9 833d 8974 80bc
00000360: 79bc 0f3d a401 393b 3016 80bd ec84 cbbb
00000370: 2d42 86bd cb00 003d 8223 f8bc c524 a33d
00000380: 86e0 c03d c8b8 d63d 22bd 5a3d 8414 c83c
00000390: acc1 7abc 25ed 36bc 9868 f8bc 0098 abbc
000003a0: 51b1 e13b 2008 5cbc c8a1 f73d 5201 47bd
000003b0: 9341 7abc c777 c2bd d33b 273d f174 3fbd
000003c0: 9b3a 1ebd fce1 973c bbf3 7dbd 0fa2 14bd
000003d0: e666 803d 963a e5bc dd37 463c 7c86 40bd
000003e0: aeb9 c83c 1f43 073d 0318 82bd ec05 19be
000003f0: d19f ad3d 25d9 cebc 08a4 eebc 7b3d 17be
0.12322438 -0.0037929118 -0.013282731 -0.013854895 -0.034154918 -0.001289323 0.029394772 -0.08862142
-0.0019529164 -0.026411891 -0.023687948 0.12920852 0.03307068 -0.08719669 0.05601979 0.013524171
0.001487758 0.04149974 -0.019907527 -0.013245052 -0.04651441 -0.0674196 -0.014496544 0.06332341
0.15598562 0.037300117 0.03917319 0.064399205 -0.023828156 0.07617469 0.032565918 0.04895348
-0.030249268 -0.111840144 0.111910634 0.12387283 -0.005651095 -0.0954823 -0.08444443 0.05889427
-0.07462185 -0.10409734 0.01438427 0.0049499962 -0.024808088 -0.048426792 0.020791195 0.10262646
0.06875552 -0.06274099 -0.06710315 0.05768262 0.09277463 0.07424013 0.019580897 -0.0724575
0.03979325 0.049410388 -0.06324695 -0.089730725 0.00953762 -0.06621983 -0.079095855 -0.011073822
0.024466034 0.08872211 -0.041761044 -0.06184613 0.007958631 -0.012963139 -0.029562622 -0.10779889
0.02011044 -0.0044693565 -0.09871176 -0.10763867 0.03474652 -0.12334329 0.006936001 0.0635086
-0.12648983 0.01718438 0.023351597 0.018147627 0.0028616856 0.043159764 0.047071278 -0.07674642
0.07844801 0.04147613 -0.07829621 0.019492758 0.034279197 -0.05122951 0.05016025 0.016951477
-0.01837109 -0.035028215 -0.1928782 0.052299585 0.10809067 -0.026433961 -0.08011656 -0.048391994
-0.04394488 0.040578887 -0.034317173 0.03781398 -0.0156124765 0.09686648 -0.020644505 0.025603624
-0.06802997 -0.054770343 -0.024918463 0.03260706 0.019702954 -0.015750473 -0.021732265 0.03595073
-0.06446597 -0.02037945 0.14105454 -0.07585635 0.13172796 -0.004449224 0.0295859 0.026459306
0.004291371 0.0054820674 0.08618605 0.117613874 -0.015589094 -0.012700161 -0.010993359 -0.020739784
0.058335897 -0.04658276 -0.032670267 0.024057122 -0.11897986 -0.010919681 0.01029251 0.019377707
-0.066766135 -0.011855241 0.059522625 -0.057203945 0.047730345 0.037833903 0.040947393 0.0518471
0.01258152 0.07177087 0.06858686 -0.07512494 0.05843153 -0.13355525 0.08728159 0.093013175
0.013194497 0.07128111 -0.012201553 -0.0032645343 0.1129367 0.043446295 -0.044926304 0.021573093
0.0124738775 0.018654227 0.016084583 -0.005800242 0.039698105 0.015059948 -0.018321993 0.03779852
-0.07048048 0.027160117 0.047253422 0.046569467 -0.021432787 0.091141194 0.14328092 -0.014206247
-0.01064474 0.026725838 -0.016799983 0.010891652 -0.011521125 -0.08257274 0.0373422 0.012392396
-0.06278667 -0.02243621 -0.015982386 0.0039747953 0.099521324 0.041716084 0.054310463 -0.040603917
0.06348539 0.07185197 -0.03263947 -0.069955505 0.08725412 -0.051636137 -0.06461176 0.037504382
-0.052940767 -0.07155708 0.041765153 0.09866989 0.05454789 -0.025604203 0.06437874 -0.015680568
0.03509185 0.0028229738 -0.06254232 -0.006210914 -0.06555591 0.031250756 -0.030290369 0.079659976
0.094178244 0.10484463 0.053403027 0.024423845 -0.015304964 -0.011164938 -0.030323312 -0.020946503
0.006887593 -0.0134296715 0.12091404 -0.048585244 -0.015274423 -0.09495502 0.040828537 -0.046742383
-0.03863011 0.018540375 -0.062000018 -0.036287364 0.06269626 -0.027982038 0.01209828 -0.047003254
0.024502601 0.033022996 -0.06352236 -0.14943665 0.08477748 -0.025250027 -0.02913095 -0.14769547

sequential_11/lstm_47/while/lstm_cell_9/MatMul f4 [256, 64]
00000000: 789d ca3c c283 c43d 3875 013e d00d b43c
00000010: 6244 ac3d 5c52 b9bd 2c68 30bd d04f fa3d
00000020: a0bf fcbb f405 dfbd 86d1 9b3d 8095 d6bb
00000030: be35 023e c095 90bb 2e27 ebbd e0c7 84bc
00000040: 70ce 593d b672 63bd c08f 6e3c 74bd c63d
00000050: 8041 3bbd 04e3 973d ccaf e13d 0035 053a
00000060: 3f67 95bd f0d1 463c 2ca3 b8bd 1898 923c
00000070: 06a4 e5bd 94b4 34bd 7c18 f6bc d6aa 993d
00000080: e062 043d 585e c93c 0a99 99bd b870 793d
00000090: 90da 823c b086 37bc d2b2 a7bd 80b2 dbba
000000a0: a0ba c2bc 827d a43d 48e7 0bbe fd4a aebd
000000b0: bc25 f6bd c4ff 1a3d 5879 e83d 0684 d53d
000000c0: 7036 a6bc f467 b63d 6cf9 783d 4082 03bb
000000d0: b097 573c 5a2f bcbd a800 44bd 4cdb c9bd
000000e0: 68a3 76bd 8804 b93d 6e67 e1bd 00ee 0e3b
000000f0: fcf9 f73d ce64 a1bd e4d9 d63d edf9 c4bd
00000100: 8085 283c fcf4 50bd 5746 03be a8d4 0f3d
00000110: e0c8 43bc d01b 083d 6850 f8bd 6ca3 793d
00000120: e40c ee3d 87b4 00be f05d ba3d bc6d d4bc
00000130: a4c0 3f3d 489f c43c 304b 913d 10b7 4cbc
00000140: 7600 0c3e 405f d0bc b893 1e3d a04a e43c
00000150: 08d8 ab3d 98c4 063d c8b5 72bc 2fd9 07be
00000160: 6882 693d 3c26 b3bd 1ccf e03d 123c 083e
00000170: 9467 063e d076 98bd 9046 1a3d 4ac7 60bd
00000180: cb3d 04be 90e7 383c 5c0a 5cbd 7067 b2bd
00000190: f296 853d 10e4 88bd 3cb9 fd3d 5ee6 c53d
000001a0: b6cf a33d 9073 2cbc 40f5 d13c 40f0 66bd
000001b0: c0cc dc3c 803d aa3d f804 62bd 0090 dbb8
000001c0: 3c19 2b3c 546a b4bd 9018 44bc b485 a73d
000001d0: 36d4 f7bd 30aa b03d 9cec b7bd 3ab6 c93d
000001e0: a072 b33b 502f 0ebc 7094 f63d ecbb 993d
000001f0: 66e1 e13d bd98 ecbd c665 a23d 3016 b23d
00000200: 6eb6 b9bd 296a 48bd 80f8 2abb e60b 58bd
00000210: 4048 05be 5e81 b83d 203b 03be cb96 b8bd
00000220: 8f3f 54bc f066 5ebc 8ded 513b 87c0 ffbd
00000230: c40c fcbd b82c c8bc 622f 813d b2a6 9fbc
00000240: fe27 073e a05e d03c 11cc 08be dee3 933d
00000250: 1638 6fbd 7d16 6dbb e034 de3b d73f d5bd
00000260: dd66 103b 422e efbd 0548 063e b4ec 2bbd
00000270: 4239 723d db12 c6bd 4574 053e 8c31 e13d
00000280: 6902 fdbd 5cec da3d df8b ae3c 86a4 acbd
00000290: d843 013d b729 9dbd 60d3 223d fdf0 8ebd
000002a0: 345e 0fbd 4fd7 743d 4984 6fbd db5c cf3c
000002b0: a87c 333d a84a 7d3d 3c70 e83d cc38 b1bd
000002c0: 9c70 eebc f404 053e 40f5 b93b 206f 40bc
000002d0: 50da e93c 1ddb c3bd 3ee2 87bd 5cdd f63d
000002e0: 08d7 013e 4805 d1bc bc62 09bd 28ad 063e
000002f0: e2e8 0b3e 2567 c53d a5af 193d 6825 adbd
00000300: fc10 cf3d 4413 ec3d 084d 443d 7c93 8d3d
00000310: 685d e0bd 6cd0 26bd 953b 99bd d01f d7bd
00000320: 0386 eabd deaf bbbd e00c afbc c85d c33c
00000330: 00fb 0abd 563f 2bbd cd83 8ebd 4e30 09be
00000340: 66f0 b03d e88a 003d b43f 67bd 8034 fcbb
00000350: ce53 b0bd fced 91bd e859 773d a074 35bc
00000360: f2f9 4cbd 98a1 1d3d 8039 e6bd fbef dbbd
00000370: f89d a5bc be73 c93d 88d5 8f3c 4c40 ef3d
00000380: 006d da3c ec6e b13d 6894 65bc 0094 d43c
00000390: 20b7 ac3c 0013 cf3a be45 01be 1c8e b4bc
000003a0: 125a 3cbd 1cff 063d 7053 69bd f8b9 3fbd
000003b0: 4e6e 063e 84ed 623d 5084 f03c 6c79 02be
000003c0: 7c0a f33d 886a 513d a89f 413d a423 d5bc
000003d0: 20fd 97bb ccb6 813d e65d 053e 0820 f33c
000003e0: b634 00be 7335 f6bd 299c 96bd 84c2 f7bd
000003f0: 4a1f 043e e09d c0bb dc56 fd3d 00e4 4a3b
0.02473329 0.09595443 0.12642372 0.021979243 0.084114805 -0.09048912 -0.043068096 0.12222254
-0.007713273 -0.10889807 0.07608323 -0.0065485835 0.12715814 -0.004412383 -0.11482082 -0.01620859
0.05317539 -0.05552932 0.01456064 0.09704104 -0.045716763 0.07416347 0.11019859 0.0005081445
-0.07295083 0.012135014 -0.090154976 0.01789479 -0.112129256 -0.044117525 -0.030040972 0.075032875
0.032320857 0.02458112 -0.07499893 0.060898513 0.01597336 -0.011201546 -0.08188404 -0.0016761571
-0.02377063 0.08031751 -0.13662446 -0.08510397 -0.12018916 0.037841573 0.113512695 0.10425572
-0.02028963 0.08906546 0.060784742 -0.0020066649 0.013158724 -0.09188719 -0.04785219 -0.09856281
-0.06021443 0.090340674 -0.11006056 0.002180934 0.121082276 -0.07880555 0.10490778 -0.09617982
0.010285735 -0.051014885 -0.12819801 0.035114914 -0.011949748 0.03322965 -0.12124711 0.060946867
0.116235524 -0.12568866 0.090999484 -0.025931232 0.046814576 0.024001732 0.07094419 -0.012494817
0.13672051 -0.025436044 0.038715094 0.027867615 0.08390814 0.03290233 -0.014813848 -0.13266443
0.05700913 -0.08747527 0.10977003 0.13304165 0.1312545 -0.07444537 0.03766495 -0.054877557
-0.12914197 0.011285678 -0.053720817 -0.087111354 0.06522931 -0.066841245 0.12388846 0.0966308
0.07998602 -0.010525599 0.02562964 -0.056381464 0.026953101 0.083125114 -0.05518052 -0.00010469556
0.010443028 -0.08809343 -0.011968747 0.08179799 -0.12101023 0.08626211 -0.089806765 0.0984921
0.005476311 -0.008678272 0.12040031 0.075065464 0.110293195 -0.1155257 0.07929568 0.08695638
-0.09067999 -0.048929367 -0.002608806 -0.052745722 -0.13015842 0.0900905 -0.12815523 -0.090131365
-0.012954607 -0.013574347 0.003203246 -0.124878936 -0.12307122 -0.024435386 0.06307866 -0.019488666
0.1319885 0.025435746 -0.13359095 0.072211966 -0.058403097 -0.0036176734 0.0067812055 -0.10412567
0.0022033968 -0.11678745 0.13113411 -0.041973785 0.059136637 -0.09671565 0.13032635 0.109957784
-0.12353975 0.10689613 0.02130693 -0.08429818 0.03155884 -0.07673972 0.039752364 -0.069795586
-0.03500195 0.059775647 -0.058475766 0.025312832 0.043820053 0.061838776 0.11349532 -0.08653411
-0.02910643 0.1299017 0.005674988 -0.011745244 0.028546482 -0.09563277 -0.06634949 0.1205394
0.12679684 -0.025515214 -0.033541426 0.13151991 0.13663056 0.09638814 0.037521023 -0.084544
0.101106614 0.11527112 0.047925025 0.06912896 -0.10955316 -0.04072611 -0.074820675 -0.10504115
-0.11451342 -0.091644034 -0.021368444 0.02384843 -0.03393078 -0.04180845 -0.06958733 -0.13397333
0.08639602 0.03138247 -0.056457236 -0.007696688 -0.086097345 -0.0712547 0.060388476 -0.011075169
-0.050043054 0.038484186 -0.11241436 -0.10739132 -0.020216927 0.09836529 0.017557874 0.116821855
0.026663303 0.08663735 -0.014012434 0.025949478 0.021083415 0.0015798509 -0.12624261 -0.02204042
-0.045984335 0.032958135 -0.056964338 -0.046808213 0.13128015 0.055402294 0.029359967 -0.12741631
0.11867234 0.051126987 0.0472714 -0.026017971 -0.004638329 0.06333694 0.130241 0.02967836
-0.12520108 -0.120219134 -0.07354004 -0.12097648 0.12902561 -0.005878195 0.12370083 0.0030958652
