lstmmodel.tflite (tflite, 114352 bytes, 18 tensors)

time_distributed/bias f4 [21]
00000000: ff30 7ebf a93d 7ebf b6f0 7dbf e1bc 7ebf
00000010: e6a6 b5be dfd7 4abf 4b78 1abf 2b50 09bf
00000020: 5ced 2cbf ff2c 6dbf db8a 7bbf c8b6 7abf
00000030: 572f 7dbf 6c91 6cbf ad81 7bbf c73d 7abf
00000040: 1c60 7cbf 11d0 7ebf a89b 7c3f cc87 7fbf
00000050: 6b7f 7d3f
-0.9929351 -0.99312836 -0.9919542 -0.99506956 -0.35478896 -0.79235643 -0.603398 -0.5363795
-0.6754968 -0.92646784 -0.9825875 -0.9793515 -0.9890036 -0.92409396 -0.98244745 -0.97750515
-0.9858415 -0.99536234 0.9867501 -0.99816585 0.9902255

lstm_3/lstm_cell_7/bias f4 [128]
00000000: 3e33 0cbc cc2b 2f3f 81a9 32bd 0b90 323d
00000010: ca90 00bd 29d7 63bc ff8a 3c3d e6e9 48bd
00000020: b2b9 023f 7a92 28bd 7dba 01bd f6fc aabc
00000030: b9cd c5bb 6243 d83c 5d76 0a3d e5e6 2e3f
00000040: 9040 08bd d27f 833c 04fd cc3e a744 82bc
00000050: eb54 e03c 9eaf ecbc 2c4e fcbc 1d77 f7bb
00000060: 7ae7 65bd 0e83 5cbd ccd3 4cbc acfc 52bb
00000070: 5bff 64bb abdb 28bc 357d 4c3b fcf1 383d
00000080: 0000 803f 0000 803f 0000 803f 0000 803f
00000090: 0000 803f 0000 803f 0000 803f 0000 803f
000000a0: 0000 803f 0000 803f 0000 803f 0000 803f
000000b0: 0000 803f 0000 803f 0000 803f 0000 803f
000000c0: 0000 803f 0000 803f 0000 803f 0000 803f
000000d0: 0000 803f 0000 803f 0000 803f 0000 803f
000000e0: 0000 803f 0000 803f 0000 803f 0000 803f
000000f0: 0000 803f 0000 803f 0000 803f 0000 803f
00000100: ca36 49bd dd9b fd3e e1d4 dabc 4d97 b1bc
00000110: d357 dab8 ed86 a13a 25c9 7a3c 713f 31bd
00000120: f822 ef3e 6592 47bd 3c67 b3bb 3684 87bc
00000130: eaed 363c b7f5 833c 0471 0d3d 7bdc 023f
00000140: 570c 243b eeec 4d3b 6585 be3e cd37 18bd
00000150: dbef c3ba c1c9 27bd b9e4 05bd 1fc4 c9bc
00000160: 483b 12bd 2a1d 55bd 3137 52b8 3c9c 13bd
00000170: ad96 41bd 8325 82bc 0faa 37bc 03a1 4e3b
00000180: 8895 39bc b8f4 123f 85fc 01bd 7f86 a83c
00000190: 0586 17bd 0961 90bc ffef dd3c c83f 1ebd
000001a0: 1e2a f33e ba1e 19bd df56 c1bc 4c31 cebc
000001b0: c718 053d 3008 9f3c dc46 c63c 3f3c 693f
000001c0: 1e32 273b 4995 273d 4061 d73e 546e 7fbc
000001d0: c95d 0d3d ea82 8ebc cd84 b2ba e93e 273d
000001e0: 4e80 4cbd 1ccd 6dbd 106c a739 ec0b 40bc
000001f0: f044 71bc f12b 16bc 72bf 74bb 1d8c 803c
-0.008557139 0.68426204 -0.043618683 0.0435944 -0.03138808 -0.013906279 0.046030995 -0.049051188
0.510646 -0.041155316 -0.03167199 -0.020872574 -0.006036487 0.026399318 0.033804286 0.6832107
-0.033264697 0.01605216 0.40036786 -0.015901877 0.027384242 -0.028892335 -0.030798994 -0.007552041
-0.056128956 -0.05383592 -0.012501668 -0.0032194061 -0.0034942243 -0.010306279 0.003120256 0.04515265
1.0 1.0 1.0 1.0 1.0 1.0 1.0 1.0
1.0 1.0 1.0 1.0 1.0 1.0 1.0 1.0
1.0 1.0 1.0 1.0 1.0 1.0 1.0 1.0
1.0 1.0 1.0 1.0 1.0 1.0 1.0 1.0
-0.049124517 0.49532977 -0.026712837 -0.021678591 -0.000104114086 0.0012323536 0.015306746 -0.043273393
0.46706367 -0.048723597 -0.005474953 -0.016542535 0.011165122 0.016108377 0.03453161 0.51117676
0.002503177 0.0031421739 0.37211147 -0.03716259 -0.0014948802 -0.040963892 -0.03268883 -0.02462965
-0.035701066 -0.052029766 -5.0119303e-05 -0.03603767 -0.047262836 -0.015887028 -0.011209979 0.0031529076
-0.011327155 0.5740466 -0.031734962 0.020571945 -0.036993045 -0.017624395 0.027091978 -0.038635045
0.4749307 -0.03738282 -0.023600994 -0.025169991 0.032494333 0.019413084 0.02420371 0.91107553
0.002551205 0.040913854 0.42066383 -0.015590269 0.03451327 -0.017396409 -0.00136199 0.04083148
-0.04992705 -0.058056936 0.00031933235 -0.011721592 -0.014725909 -0.00916575 -0.0037345556 0.015691811

lstm_2/lstm_cell_6/bias f4 [256]
00000000: 7d4d c73c 3aca 3c3d 3be2 713d 40c9 163d
00000010: 4fcd bc3d 5428 183d 64ec 7c3e 623c 823d
00000020: 5493 8e3d 2b4f ff3d 2dae 513d 8780 aa3c
00000030: c4df 27bc e644 1e3d bcc1 9e3d 39d6 7b3e
00000040: 4f5e b93a 8caa 303d fa64 3b3d a821 033c
00000050: 804f 343d 5788 4d3d 38e9 893c 540b c93d
00000060: 06e0 913d 640e cb3c 8bfb 843d 773a 853c
00000070: 6370 96bc a08d 9c3d 4c7e bc3d 233c 773d
00000080: 2b4f b43d c7b6 203f 0d8b 753d 519c 8a3d
00000090: 61e6 533e 926a 0e3f 40d8 5e3d dc5a 493d
000000a0: a7a3 003f 04ec de3d 085b 0bbd e9ca 8e3d
000000b0: f529 a13d 49e1 d53d db39 4b3d 0ff4 f43d
000000c0: fb83 2bbd 5390 bf3e 1042 f23d 19c2 963d
000000d0: a11a e2bc 49d4 9e3d 7696 f43d 2a72 debc
000000e0: acd8 e43e b4c9 043d b97b c13a 4ed5 573d
000000f0: 64c1 853d 2899 8a3d 87e9 153d 2f56 cd3d
00000100: 0000 803f 0000 803f 0000 803f 0000 803f
00000110: 0000 803f 0000 803f 0000 803f 0000 803f
00000120: 0000 803f 0000 803f 0000 803f 0000 803f
00000130: 0000 803f 0000 803f 0000 803f 0000 803f
00000140: 0000 803f 0000 803f 0000 803f 0000 803f
00000150: 0000 803f 0000 803f 0000 803f 0000 803f
00000160: 0000 803f 0000 803f 0000 803f 0000 803f
00000170: 0000 803f 0000 803f 0000 803f 0000 803f
00000180: 0000 803f 0000 803f 0000 803f 0000 803f
00000190: 0000 803f 0000 803f 0000 803f 0000 803f
000001a0: 0000 803f 0000 803f 0000 803f 0000 803f
000001b0: 0000 803f 0000 803f 0000 803f 0000 803f
000001c0: 0000 803f 0000 803f 0000 803f 0000 803f
000001d0: 0000 803f 0000 803f 0000 803f 0000 803f
000001e0: 0000 803f 0000 803f 0000 803f 0000 803f
000001f0: 0000 803f 0000 803f 0000 803f 0000 803f
00000200: 6762 603d b3e6 053b 5b36 903c d23b a5bc
00000210: 9edd 713d 3c21 71bb 9959 b23e f6a5 b03c
00000220: 81e5 8e3b 475b 26b9 ec6f 35bd b327 16bd
00000230: 7f1f 62bd 050e 1b3d 692e ecba f677 863e
00000240: 718b a93a 378b 28bc 7ef5 a2bb a473 c83b
00000250: 570d f7bc 85c7 2dbd e902 cd3c c781 2bbd
00000260: a260 69ba d0ae bfbb 4325 afbd e2d9 1b3d
00000270: 4653 debc f197 a0bb 0405 5b3d fd72 0f3d
00000280: 856b 603c 7254 c33e 9e82 073e bfab 1a3c
00000290: 0d68 093e 51e6 c73e fd67 8bbc 879c 583b
000002a0: 4049 e63d 8ddd 3f3e 000e 483c 960f 3bbd
000002b0: 5938 f6bb 7c34 363d 759b 29bd 5f16 9b3d
000002c0: c457 81bd e602 943e dc54 423e fe73 913d
000002d0: 31c7 c33d cde7 2d3e 3280 78bd 62ce 9cbd
000002e0: a05a a83e f45c 0b3e ba2d 87bc 97d9 f2bc
000002f0: 1bc5 583c 826a f1bc ea37 ed3d e270 02bc
00000300: 06c6 223c 890f 6a3d 96c9 633d 1c76 3f3d
00000310: d419 c33d edcb 0c3d c25e 693e 3c0d 773d
00000320: 41bd 373d a35c 013e d4c8 603d b812 8a3c
00000330: 9f23 28bc 0036 4b3d 6e3f 923d 3b19 7a3e
00000340: 8e83 1b3d 837a 2f3d f2aa 633d 6392 6e3c
00000350: 7d0b 883d 713c 613d 88e0 403c fb00 043e
00000360: 9e0a d43d 605b e93c 03e5 843d ba11 b83b
00000370: 2b4f 3abc 2fe4 683d ad16 963d 9bd2 463d
00000380: 60d3 fb3c 7d6e 213f fa9f 413d db02 6a3d
00000390: 7367 2e3e 9378 113f 0894 413d 433b 9a3d
000003a0: 9918 ef3e dc49 f83d 5c6e 5abc 7014 c43d
000003b0: 8f01 863d ec82 c83d b70f 433d 3060 923d
000003c0: 8519 26bd b816 b63e e095 bd3d 163c 7f3d
000003d0: 4c0d 73bc 8d40 e83c 7032 e73d 5040 04bd
000003e0: 2417 f03e 8166 2a3d 5051 b03b 6d7f 5d3d
000003f0: a19d e03c 3967 293d 5d5d 0f3d 4dcc 833d
0.024328941 0.046091296 0.05905364 0.03681302 0.09218847 0.037147835 0.24699551 0.06359173
0.06961694 0.12466272 0.051191498 0.02081324 -0.010246221 0.038639925 0.07751796 0.24593438
0.0014142486 0.043131396 0.045750596 0.00800363 0.04402113 0.050178852 0.01683484 0.09816614
0.07122807 0.024787135 0.064932905 0.01626323 -0.018364137 0.076442 0.09203777 0.060360085
0.088041626 0.62778896 0.059947062 0.06768096 0.20693351 0.55631363 0.05440545 0.049158916
0.50249714 0.1088486 -0.03402236 0.06972296 0.07869331 0.1044336 0.049615722 0.11960613
-0.041873913 0.37414798 0.11829007 0.0736124 -0.027600588 0.07755334 0.11942761 -0.027154047
0.44696558 0.03241892 0.0014761604 0.052693658 0.06531027 0.067674935 0.036599662 0.10026204
1.0 1.0 1.0 1.0 1.0 1.0 1.0 1.0
1.0 1.0 1.0 1.0 1.0 1.0 1.0 1.0
1.0 1.0 1.0 1.0 1.0 1.0 1.0 1.0
1.0 1.0 1.0 1.0 1.0 1.0 1.0 1.0
1.0 1.0 1.0 1.0 1.0 1.0 1.0 1.0
1.0 1.0 1.0 1.0 1.0 1.0 1.0 1.0
1.0 1.0 1.0 1.0 1.0 1.0 1.0 1.0
1.0 1.0 1.0 1.0 1.0 1.0 1.0 1.0
0.054781344 0.0020431697 0.017604044 -0.020170126 0.05904924 -0.003679349 0.34833983 0.021563511
0.004360855 -0.00015864997 -0.04429619 -0.036658954 -0.05520582 0.037855167 -0.0018019202 0.26263398
0.0012935234 -0.010287098 -0.0049731126 0.006117301 -0.030157728 -0.042426605 0.025025802 -0.041871812
-0.0008902644 -0.0058496967 -0.08552029 0.038049586 -0.027139317 -0.0049009253 0.05347158 0.03502177
0.01369751 0.38150364 0.1323342 0.0094403615 0.13418598 0.39042905 -0.017017359 0.0033052282
0.1124444 0.18736859 0.012210369 -0.04566916 -0.0075140414 0.044483647 -0.04140802 0.07572626
-0.06315568 0.2890846 0.18977684 0.07102202 0.09559477 0.16982956 -0.06066913 -0.07656552
0.3288164 0.13609678 -0.016501296 -0.02964477 0.013230587 -0.029469732 0.115829304 -0.007961484
0.009934908 0.05714372 0.05561217 0.046743497 0.09526411 0.034374166 0.22790053 0.060315356
0.04485822 0.12632994 0.054879025 0.016854629 -0.010262399 0.049612045 0.071410045 0.24423687
0.037967257 0.042841446 0.055582948 0.0145612685 0.06642816 0.054989282 0.011772282 0.12890999
0.103535876 0.028485954 0.06488993 0.0056173475 -0.011371414 0.056858238 0.07328544 0.048540693
0.03074044 0.63059217 0.047271706 0.05713163 0.1703165 0.56824607 0.047260314 0.075308345
0.46698454 0.121234626 -0.013331976 0.09574211 0.06543266 0.09790596 0.04762241 0.071472526
-0.04055168 0.35564208 0.09257102 0.06231316 -0.014834713 0.028351093 0.11288917 -0.032287896
0.46892655 0.04160166 0.005380787 0.0540766 0.027418913 0.041358206 0.035001148 0.06435452

lstm_1/lstm_cell_5/bias f4 [128]
00000000: 0fb0 a53d 3709 af3d d463 553d d773 cb3d
00000010: 5d14 983d 72cf 203e 5f04 063d 1167 573e
00000020: 22ea 733d fe22 a73d 6542 cf3d ee5e b23e
00000030: 2f9b ea3d 0f62 d43c 5e58 a63d e1b0 003e
00000040: b53c c03d 94bc c33d 8a01 293e ec33 be3d
00000050: fc03 2f3d cdc1 993d fdf2 cd3d 303f 7b3d
00000060: 34a4 333e 82af de3d e48d d33d b465 953d
00000070: bb1e b53d e96f 9f3d 125b 8f3d e88e 033d
00000080: 0000 803f 0000 803f 0000 803f 0000 803f
00000090: 0000 803f 0000 803f 0000 803f 0000 803f
000000a0: 0000 803f 0000 803f 0000 803f 0000 803f
000000b0: 0000 803f 0000 803f 0000 803f 0000 803f
000000c0: 0000 803f 0000 803f 0000 803f 0000 803f
000000d0: 0000 803f 0000 803f 0000 803f 0000 803f
000000e0: 0000 803f 0000 803f 0000 803f 0000 803f
000000f0: 0000 803f 0000 803f 0000 803f 0000 803f
00000100: a30f 5f3c 5449 213d 4a2c e8ba beaf b43c
00000110: 5a83 bd3c b0b7 7839 f3ce d23c d9f1 3b3e
00000120: e6e6 453d 1bd5 083b 7b52 cd3c 70b9 5a3e
00000130: b171 013d 8d5c 813d be89 933b 3422 3c3d
00000140: 8c83 5a3d 7e97 ac3d a8b6 693d 8430 143d
00000150: 9d7d 083d 2814 a33b 9f6d d239 ef66 173d
00000160: e281 3e3d 7577 ca3c 9dd5 eb3c 816e 643c
00000170: 768c d63c 26fb 143d f66b 223d 8bcb 453d
00000180: fc16 9f3d 6a94 a43d 90ae 9c3d 4cf0 a53d
00000190: 4afe 8c3d 8d24 213e 834d 353d a95c 863e
000001a0: abf9 783d 84c9 853d f203 ff3d 2859 da3e
000001b0: 7127 eb3d 1de4 ec3c 86f5 b53d 1895 013e
000001c0: 057b a93d 7789 bf3d 6317 253e 7c1c be3d
000001d0: 37be 103d 43a1 9d3d 7d64 c33d be4c 853d
000001e0: 3130 2b3e f4f6 ed3d a9c2 c03d cc18 c13d
000001f0: 2046 c23d af68 9c3d c21e 8e3d e08b 0b3d
0.08090221 0.085466795 0.052097157 0.09934204 0.07425759 0.15704134 0.032719012 0.2103541
0.05954946 0.08160971 0.101200856 0.3483805 0.1145538 0.025925664 0.081223235 0.12567474
0.09386579 0.09557453 0.16504493 0.09287247 0.04272841 0.07507668 0.10056112 0.061339557
0.17543107 0.10873319 0.10329798 0.07294789 0.08843752 0.07785017 0.06999792 0.032118708
1.0 1.0 1.0 1.0 1.0 1.0 1.0 1.0
1.0 1.0 1.0 1.0 1.0 1.0 1.0 1.0
1.0 1.0 1.0 1.0 1.0 1.0 1.0 1.0
1.0 1.0 1.0 1.0 1.0 1.0 1.0 1.0
0.013614568 0.03937657 -0.0017713394 0.022056457 0.023133922 0.00023719552 0.025733447 0.18353976
0.048315905 0.0020878974 0.025063744 0.21359801 0.031602565 0.06316481 0.004502504 0.045931056
0.05334811 0.08427332 0.05705896 0.03617908 0.03332292 0.004976768 0.00040135995 0.0369634
0.046510585 0.024715165 0.028788382 0.013942362 0.026190024 0.036372326 0.03965374 0.048289817
0.07768056 0.0803612 0.07650483 0.081024736 0.06884439 0.157366 0.044263374 0.2624257
0.060784977 0.06532577 0.124519244 0.42646146 0.11482132 0.028917367 0.088847205 0.12654531
0.08275417 0.09352391 0.16122203 0.09282777 0.035337653 0.07696774 0.09540651 0.06508778
0.16717602 0.11619368 0.094121285 0.09428558 0.094860315 0.07637154 0.0693946 0.034068942

lstm/lstm_cell_4/bias f4 [256]
00000000: c9c0 1fbb 2d3f 543a 4907 ea3c 9f3e 40bd
00000010: b1e7 ca3c c1c3 84bc b435 1a3d 7855 8bbc
00000020: bd29 c73e 6ec2 343b acf8 71bc accf d63b
00000030: 1481 83bc 1270 b73e 3407 4d3c 1e93 5abc
00000040: 0162 063e d5b6 a0bc 6d5d ef3b 3c09 f23b
00000050: 0fbe 2abc ddcf 083f 3cb4 62bb d6b1 4ebc
00000060: 0446 3b3c 5c97 953e 668a 373f 7b00 ab3c
00000070: ec77 b33a d8fc f93c 2bdd 8a3c 3c1d 813e
00000080: f9bc b03c 1432 d03e 979d 173c 682c 4f3c
00000090: a9b1 363d e811 34bc 2ed5 153c ec30 963e
000000a0: 652b ea3e d40b 0e3f bd50 693c 9c8c ae3e
000000b0: 6556 3c3e c86d f43c 5a98 5d3b 56ed 263f
000000c0: 4e2f 85bb 8d37 843c fff8 f7bb 57a2 683e
000000d0: 9373 b9bc cac3 003d db80 85bb c0f8 943e
000000e0: 3910 3c3f 11b6 1b3f e028 33bc 53d0 02bc
000000f0: 8399 ef3c c34a c73e c851 f43e 4fbb a73e
00000100: 0000 803f 0000 803f 0000 803f 0000 803f
00000110: 0000 803f 0000 803f 0000 803f 0000 803f
00000120: 0000 803f 0000 803f 0000 803f 0000 803f
00000130: 0000 803f 0000 803f 0000 803f 0000 803f
00000140: 0000 803f 0000 803f 0000 803f 0000 803f
00000150: 0000 803f 0000 803f 0000 803f 0000 803f
00000160: 0000 803f 0000 803f 0000 803f 0000 803f
00000170: 0000 803f 0000 803f 0000 803f 0000 803f
00000180: 0000 803f 0000 803f 0000 803f 0000 803f
00000190: 0000 803f 0000 803f 0000 803f 0000 803f
000001a0: 0000 803f 0000 803f 0000 803f 0000 803f
000001b0: 0000 803f 0000 803f 0000 803f 0000 803f
000001c0: 0000 803f 0000 803f 0000 803f 0000 803f
000001d0: 0000 803f 0000 803f 0000 803f 0000 803f
000001e0: 0000 803f 0000 803f 0000 803f 0000 803f
000001f0: 0000 803f 0000 803f 0000 803f 0000 803f
00000200: a7a3 87bd cf63 57bd 6427 3bbd 6928 debd
00000210: bb58 6bbd 6e31 d1bc 293d 5c3d bc97 22bd
00000220: e928 483e 7e60 4fbd 85fd 38bd 3beb 98bd
00000230: 77d1 26bd 8e38 a23e 980e dcbc bfbf 8abd
00000240: 76df b73d ce34 90bd 36f6 83bd 9e61 d2bb
00000250: 9d5c 96bd 02b2 6f3e a4a9 d7bc f321 92bc
00000260: f695 413a c654 973e 8208 8d3e 837c 4bbd
00000270: 17e4 8cbd ea2a fbbc 95cc 6dbd 9a32 803e
00000280: 75ee 65bd 42b0 803e 8712 19bd 0fc9 94bd
00000290: 9909 36bd e982 75bd e57b 9dbd 71e9 9f3e
000002a0: f510 773e 9e18 5a3e d37e a5bd ded6 563e
000002b0: 7cfd 303e 09eb 38bd e2b1 f9bc 301e 923e
000002c0: b832 4bbd e2ed acbd 30d2 58bc 2c44 da3e
000002d0: 8036 ebbd ebbe 9dbd 221d 8abc 0ad5 5c3e
000002e0: 8f34 833e 2116 553e f8c6 8bbd f8e1 3ebc
000002f0: 732f 16bd cd10 7d3e 4afe 403e 40d1 8e3e
00000300: 1c0c 603c 0a67 863c 6c86 be3c f22f 6eba
00000310: 7344 943c 6367 0bbd 6601 1f3d 9dba ccbc
00000320: c671 ec3e cab8 e83b 0e4a 06bd f99e 63bc
00000330: f612 89bc d484 a13e 165b cdbc b997 593c
00000340: f506 063e bcea 133c 5a28 05bc 69e8 d63b
00000350: e01f 3b3b e025 ff3e 9ce4 7abb 812b f9bb
00000360: 2b30 0fbc cce6 ae3e 979b 3d3f 5bc7 353c
00000370: a57b 44bc 00eb 25bb 36d1 c03a 61e6 593e
00000380: 50aa a23c fd8e e03e 1dfb b3bc 6282 013c
00000390: 8f62 023d f337 3fbc a645 9b3c d0dc 973e
000003a0: 6183 da3e c6d0 223f 09d2 103d a35e be3e
000003b0: 9594 2d3e f29e ed3b 0a7b 64bd 399d 253f
000003c0: 9628 85bb fdf3 4fbd c59c 4ebc 49b1 9d3e
000003d0: db39 cfba de91 613c 79dd 8dbb 02e2 cd3e
000003e0: 4bcf 313f 5754 1a3f 6ccc cf3c 22a7 533b
000003f0: f73e 073d 4f83 c13e 1046 da3e 4150 af3e
-0.0024376384 0.0008096572 0.028567927 -0.04693472 0.024768682 -0.016206624 0.03764887 -0.017008528
0.3889903 0.002758171 -0.014768761 0.006555518 -0.01605276 0.3582769 0.012513924 -0.0133407395
0.13123323 -0.019618431 0.0073048384 0.0073863547 -0.01042129 0.53442174 -0.0034592291 -0.012615642
0.011430267 0.2921704 0.71695554 0.020874253 0.0013692356 0.030516073 0.016951164 0.25217617
0.021574484 0.40663207 0.009253881 0.012644865 0.044603024 -0.010990597 0.009145064 0.293342
0.45736232 0.554868 0.014240441 0.3409165 0.18392332 0.029837504 0.0033812732 0.65205896
-0.004064477 0.01613977 -0.0075675244 0.22718178 -0.022638118 0.03143672 -0.0040741987 0.2909603
0.73462254 0.60824686 -0.010935038 -0.007984239 0.029248005 0.38924226 0.47718644 0.32760093
1.0 1.0 1.0 1.0 1.0 1.0 1.0 1.0
1.0 1.0 1.0 1.0 1.0 1.0 1.0 1.0
1.0 1.0 1.0 1.0 1.0 1.0 1.0 1.0
1.0 1.0 1.0 1.0 1.0 1.0 1.0 1.0
1.0 1.0 1.0 1.0 1.0 1.0 1.0 1.0
1.0 1.0 1.0 1.0 1.0 1.0 1.0 1.0
1.0 1.0 1.0 1.0 1.0 1.0 1.0 1.0
1.0 1.0 1.0 1.0 1.0 1.0 1.0 1.0
-0.06623011 -0.05258542 -0.045691863 -0.108475514 -0.057457667 -0.025536265 0.053769264 -0.039695486
0.19546856 -0.05062913 -0.04516365 -0.07466742 -0.040727105 0.31683773 -0.026862428 -0.06774854
0.08978169 -0.07041322 -0.064434454 -0.0064203283 -0.07341883 0.23407748 -0.026326008 -0.017838454
0.00073847116 0.29556865 0.27545553 -0.04967929 -0.06879442 -0.030660111 -0.058056433 0.25038606
-0.056135613 0.25134474 -0.037371185 -0.072649114 -0.044442747 -0.0599393 -0.07689647 0.3123279
0.24127562 0.21298453 -0.080808304 0.20980403 0.17284197 -0.045146022 -0.030480329 0.28538656
-0.049608916 -0.0844381 -0.013233706 0.42630136 -0.114850044 -0.0770243 -0.016859595 0.21565643
0.25626037 0.20809223 -0.0682506 -0.011650555 -0.036666345 0.2471344 0.18847004 0.2789402
0.013674762 0.016406555 0.023257457 -0.0009086124 0.018099045 -0.034034144 0.038819693 -0.024991328
0.46180552 0.0071021067 -0.032785468 -0.0138928825 -0.016732674 0.31546652 -0.025067847 0.013280802
0.13088591 0.009028133 -0.008127296 0.006558467 0.0028552935 0.49833584 -0.0038283234 -0.007604063
-0.0087395115 0.3416046 0.74065536 0.011094893 -0.01199237 -0.0025317073 0.0014710787 0.21279289
0.019856602 0.4385909 -0.021970326 0.007904621 0.031832274 -0.011671054 0.01895411 0.29660654
0.4267836 0.63599813 0.035356555 0.37181577 0.16951211 0.007251614 -0.0557814 0.6469303
-0.004063676 -0.050769795 -0.012610619 0.3079932 -0.0015810089 0.013767688 -0.00432938 0.40211493
0.6945693 0.6028494 0.02536603 0.0032295664 0.033019032 0.37795493 0.42631578 0.34240916

model/time_distributed/dense/MatMul f4 [21, 32]
00000000: faf9 42be 677e e33e e153 2bbe dde5 e7bd
00000010: 1926 51be 2b05 a1bd b2ec 26be 34ea 10be
00000020: 0aa8 ec3e d7bb 15be ef86 11be 4ec8 2bbe
00000030: 6e02 3cbe ffbd edbd 960d 58be 30de 933e
00000040: d2c8 25be fc9e fcbd 6a39 023f c80d 42be
00000050: 07c0 16be 033a 2ebe 83d3 52be 7cd4 e8bd
00000060: de8a 60be 6bf0 1abe a968 36be 6b1c debd
00000070: 9246 6abe 2ad8 19be 7b02 47be 2466 23be
00000080: d193 3abe ded4 bb3e 796a 03be 195d d6bd
00000090: 1bca 74be 6b34 2ebd 58a2 19be 1453 0fbe
000000a0: e55b c93e 38ea 13be a704 06be 3b5e 82be
000000b0: 7e7c 35be 7b0c c7bd 025e 45be b479 713e
000000c0: 5069 2abe 5df2 f2bd e142 0d3f 60f2 cc3d
000000d0: 538e 0cbe 0cac 10be df5b 23be 224c c9bd
000000e0: 39f2 60be 94db dfbd 9205 2bbe 26b3 d8bd
000000f0: 19b7 6cbe eb80 21be 4ada 26be ae98 17be
00000100: d8ed 4dbe c6b6 123f 1e6e 20be d880 efbd
00000110: a684 55be d2b0 d1bd 5648 37be 9f2a 29be
00000120: 70f1 103f dffa 2dbe 52dc 20be 80d6 79be
00000130: c05e 43be c667 efbd 5e7d 5abe 4354 bb3e
00000140: 8786 45be 51bc 09be c512 2a3f 2a8c 0b3c
00000150: 73f1 1fbe 5065 25be 3e50 7cbe b303 f1bd
00000160: fcd8 67be aa88 16be 3015 3fbe 6b1a f7bd
00000170: b186 6bbe 63de 1dbe 13f3 2fbe cedb 24be
00000180: d2ed 46be 5320 c73e d884 36be 09f3 edbd
00000190: c36b 89be 72c6 75bd dc1d 28be 5332 15be
000001a0: ebf9 ed3e 5fbe 24be dac1 10be 7614 8cbe
000001b0: 0f1e 3abe 6f8e d7bd 90dc 59be 7b3f 843e
000001c0: 306e 63be a7e4 10be 756b 103f 0ed0 a83e
000001d0: add8 21be c470 24be 604c 88be 9684 e0bd
000001e0: a85b 80be ff28 13be c219 3dbe 66ec dfbd
000001f0: 5112 54be e4aa 28be 884f 36be 1629 17be
00000200: 90d8 84bd acbc f93d 8d7b 5dbe 2233 63bd
00000210: bed6 6cbe 9700 24be 798b 91bd 1956 643b
00000220: e972 03bd c0b3 50be 105c 91bd c11a 2cbe
00000230: 9bb8 193d 33c0 39be b061 03be e458 f33e
00000240: cef7 9ebc 2085 1ebe 90c2 89be 3e44 0abe
00000250: a8d9 88bd 8ec5 65be 7d59 f6bd 4b3e cebc
00000260: 606e 4cbe dac6 89be c3f2 11be a402 a1bd
00000270: 950b a9bd 34c0 29be 6374 c8bc 971a 5ebd
00000280: 46ad d8bd 2000 013d c4e0 28be 6b51 8fbd
00000290: d228 1bbe ecfe 2ebe 63c9 e0bd f2ca c1bd
000002a0: 5c01 41bc 658c 0bbe d9eb 0bbe 9567 2ebe
000002b0: 8926 f9bd 4aba f4bd 694d 36be 6e1f 133e
000002c0: bee7 01be 0408 e3bd b3ca 90bd 646b 0d3e
000002d0: 8a60 d5bd 8aaa fcbd d7ca 0bbe 1c85 b9bd
000002e0: 3479 edbd d001 2bbe 2474 f4bd c23c b5bd
000002f0: 0c89 d9bd 40db eebd b7a4 05be 8585 cebd
00000300: 5fcd 69be 4275 c53d 2762 bbbe 6b2a 29be
00000310: 2c3c 1cbe 0e46 a1be c78c 01be f567 9abe
00000320: dc98 8a3d 4e87 22be 6d36 62be 1a79 7ebd
00000330: 4d3b 0abe 31cc 8abe cc7c abbe 4607 2c3e
00000340: 90d7 96be cd2e 98be 839a 60bc f0d8 e43d
00000350: 88b1 03be f908 33be 0fa6 2bbd 2433 55be
00000360: 1035 c7bd f194 84be 5384 0dbe 0b8f 80be
00000370: 8c17 79be 0f3a 08be 98f1 94be b665 62be
00000380: 2128 ddbd 6fb6 2b3d 3440 00be 13d9 86bd
00000390: 966b 02be 2421 32be c115 d4bd 41f9 c8bd
000003a0: 239d 32bc ca13 77bd 24bd 04be 34d6 b2bb
000003b0: 23e0 02be 627a 07be 53fc 23be 4ca1 5d3e
000003c0: fdeb b5bd cfcb e9bd d772 b9bd ec8c 7d3e
000003d0: 7962 edbd fe3c e6bd b6f6 90bd 098f 94bd
000003e0: 4f3f 17be 40ff 3ebe 817c 9dbd a353 f1bd
000003f0: 4241 37bd a5fe 20be e3a2 07be c2f4 ffbd
-0.19040671 0.44432375 -0.16731216 -0.1132314 -0.2042469 -0.07862314 -0.1630123 -0.14151841
0.46221954 -0.14622436 -0.1421163 -0.16775629 -0.18360302 -0.116085045 -0.21098933 0.28880453
-0.16189888 -0.12335011 0.50868857 -0.1895057 -0.1472169 -0.17014317 -0.20588498 -0.11368653
-0.21927974 -0.15130775 -0.17813362 -0.10845264 -0.22878483 -0.15023866 -0.1943454 -0.15956932
-0.1822045 0.36685842 -0.12833585 -0.10466976 -0.23905222 -0.04253046 -0.15003335 -0.13996536
0.39327922 -0.14444816 -0.13087712 -0.25462517 -0.17723271 -0.09719177 -0.19274142 0.23581582
-0.16641736 -0.118626334 0.55180174 0.10007167 -0.13726167 -0.1412813 -0.15953015 -0.09828974
-0.219674 -0.10930553 -0.16701344 -0.10581045 -0.23116721 -0.15771835 -0.16294208 -0.14804336
-0.20110261 0.5731014 -0.15667006 -0.11694497 -0.20851383 -0.10238804 -0.17898688 -0.16520165
0.56618404 -0.16990231 -0.15709046 -0.24398232 -0.19079113 -0.11689715 -0.21336886 0.36587724
-0.192896 -0.13450743 0.6643489 0.008517304 -0.1561945 -0.16151929 -0.24639985 -0.11768284
-0.22641367 -0.1470057 -0.18660426 -0.12065586 -0.230006 -0.15416865 -0.17182569 -0.16099474
-0.19426659 0.3889185 -0.17824113 -0.11618621 -0.26840028 -0.060003705 -0.1641764 -0.14569978
0.46479735 -0.16088246 -0.14136449 -0.2735936 -0.18175529 -0.10525214 -0.21275544 0.25829682
-0.22210002 -0.14149724 0.56413966 0.32971233 -0.15805312 -0.16058642 -0.2662077 -0.10962789
-0.25069928 -0.14371108 -0.18466857 -0.10933761 -0.20710112 -0.1647144 -0.17803776 -0.14761767
-0.064866185 0.121941894 -0.21629162 -0.055468686 -0.23128793 -0.1601585 -0.071066804 0.0034841357
-0.03209201 -0.20381069 -0.07097638 -0.16807081 0.03752957 -0.18139724 -0.12830234 0.47528756
-0.019405272 -0.1548047 -0.26906252 -0.13502595 -0.0668214 -0.22438642 -0.12028787 -0.025176188
-0.1996398 -0.26909524 -0.14252762 -0.07861832 -0.08254162 -0.16577226 -0.02446956 -0.054224577
-0.10579924 0.03149426 -0.16491991 -0.06997951 -0.1515229 -0.17089432 -0.109759115 -0.09462537
-0.011780109 -0.13627775 -0.13664187 -0.17031701 -0.12165553 -0.11949594 -0.17802967 0.14367458
-0.12686059 -0.11085513 -0.07069912 0.13810498 -0.10418804 -0.12337215 -0.13651596 -0.09058592
-0.11595383 -0.1669991 -0.119362146 -0.08849479 -0.10621843 -0.11662912 -0.13051115 -0.100840606
-0.22832249 0.09641506 -0.36598322 -0.16520087 -0.15257329 -0.3149876 -0.12651359 -0.30157438
0.06767437 -0.15871927 -0.22091074 -0.06212721 -0.13499184 -0.2710891 -0.3349365 0.1679965
-0.29461336 -0.29723206 -0.013708713 0.1117419 -0.12860692 -0.17483892 -0.041906413 -0.2082029
-0.09726918 -0.25894883 -0.13820009 -0.25109133 -0.24325389 -0.13303398 -0.2909057 -0.22109112
-0.107986696 0.04192203 -0.12524492 -0.06584372 -0.12736353 -0.17395455 -0.10355712 -0.098131664
-0.010901722 -0.060321607 -0.12962776 -0.005457664 -0.12780814 -0.13230279 -0.16014223 0.21643561
-0.08882902 -0.114158265 -0.09055107 0.24760789 -0.11591048 -0.11242102 -0.070783064 -0.07253844
-0.14770244 -0.18652058 -0.07689763 -0.117835306 -0.04473997 -0.15722139 -0.1324573 -0.12497856

lstm/lstm_cell_4/bias1 f4 [256]
00000000: c9c0 1fbb 2d3f 543a 4907 ea3c 9f3e 40bd
00000010: b1e7 ca3c c1c3 84bc b435 1a3d 7855 8bbc
00000020: bd29 c73e 6ec2 343b acf8 71bc accf d63b
00000030: 1481 83bc 1270 b73e 3407 4d3c 1e93 5abc
00000040: 0162 063e d5b6 a0bc 6d5d ef3b 3c09 f23b
00000050: 0fbe 2abc ddcf 083f 3cb4 62bb d6b1 4ebc
00000060: 0446 3b3c 5c97 953e 668a 373f 7b00 ab3c
00000070: ec77 b33a d8fc f93c 2bdd 8a3c 3c1d 813e
00000080: f9bc b03c 1432 d03e 979d 173c 682c 4f3c
00000090: a9b1 363d e811 34bc 2ed5 153c ec30 963e
000000a0: 652b ea3e d40b 0e3f bd50 693c 9c8c ae3e
000000b0: 6556 3c3e c86d f43c 5a98 5d3b 56ed 263f
000000c0: 4e2f 85bb 8d37 843c fff8 f7bb 57a2 683e
000000d0: 9373 b9bc cac3 003d db80 85bb c0f8 943e
000000e0: 3910 3c3f 11b6 1b3f e028 33bc 53d0 02bc
000000f0: 8399 ef3c c34a c73e c851 f43e 4fbb a73e
00000100: 0000 803f 0000 803f 0000 803f 0000 803f
00000110: 0000 803f 0000 803f 0000 803f 0000 803f
00000120: 0000 803f 0000 803f 0000 803f 0000 803f
00000130: 0000 803f 0000 803f 0000 803f 0000 803f
00000140: 0000 803f 0000 803f 0000 803f 0000 803f
00000150: 0000 803f 0000 803f 0000 803f 0000 803f
00000160: 0000 803f 0000 803f 0000 803f 0000 803f
00000170: 0000 803f 0000 803f 0000 803f 0000 803f
00000180: 0000 803f 0000 803f 0000 803f 0000 803f
00000190: 0000 803f 0000 803f 0000 803f 0000 803f
000001a0: 0000 803f 0000 803f 0000 803f 0000 803f
000001b0: 0000 803f 0000 803f 0000 803f 0000 803f
000001c0: 0000 803f 0000 803f 0000 803f 0000 803f
000001d0: 0000 803f 0000 803f 0000 803f 0000 803f
000001e0: 0000 803f 0000 803f 0000 803f 0000 803f
000001f0: 0000 803f 0000 803f 0000 803f 0000 803f
00000200: a7a3 87bd cf63 57bd 6427 3bbd 6928 debd
00000210: bb58 6bbd 6e31 d1bc 293d 5c3d bc97 22bd
00000220: e928 483e 7e60 4fbd 85fd 38bd 3beb 98bd
00000230: 77d1 26bd 8e38 a23e 980e dcbc bfbf 8abd
00000240: 76df b73d ce34 90bd 36f6 83bd 9e61 d2bb
00000250: 9d5c 96bd 02b2 6f3e a4a9 d7bc f321 92bc
00000260: f695 413a c654 973e 8208 8d3e 837c 4bbd
00000270: 17e4 8cbd ea2a fbbc 95cc 6dbd 9a32 803e
00000280: 75ee 65bd 42b0 803e 8712 19bd 0fc9 94bd
00000290: 9909 36bd e982 75bd e57b 9dbd 71e9 9f3e
000002a0: f510 773e 9e18 5a3e d37e a5bd ded6 563e
000002b0: 7cfd 303e 09eb 38bd e2b1 f9bc 301e 923e
000002c0: b832 4bbd e2ed acbd 30d2 58bc 2c44 da3e
000002d0: 8036 ebbd ebbe 9dbd 221d 8abc 0ad5 5c3e
000002e0: 8f34 833e 2116 553e f8c6 8bbd f8e1 3ebc
000002f0: 732f 16bd cd10 7d3e 4afe 403e 40d1 8e3e
00000300: 1c0c 603c 0a67 863c 6c86 be3c f22f 6eba
00000310: 7344 943c 6367 0bbd 6601 1f3d 9dba ccbc
00000320: c671 ec3e cab8 e83b 0e4a 06bd f99e 63bc
00000330: f612 89bc d484 a13e 165b cdbc b997 593c
00000340: f506 063e bcea 133c 5a28 05bc 69e8 d63b
00000350: e01f 3b3b e025 ff3e 9ce4 7abb 812b f9bb
00000360: 2b30 0fbc cce6 ae3e 979b 3d3f 5bc7 353c
00000370: a57b 44bc 00eb 25bb 36d1 c03a 61e6 593e
00000380: 50aa a23c fd8e e03e 1dfb b3bc 6282 013c
00000390: 8f62 023d f337 3fbc a645 9b3c d0dc 973e
000003a0: 6183 da3e c6d0 223f 09d2 103d a35e be3e
000003b0: 9594 2d3e f29e ed3b 0a7b 64bd 399d 253f
000003c0: 9628 85bb fdf3 4fbd c59c 4ebc 49b1 9d3e
000003d0: db39 cfba de91 613c 79dd 8dbb 02e2 cd3e
000003e0: 4bcf 313f 5754 1a3f 6ccc cf3c 22a7 533b
000003f0: f73e 073d 4f83 c13e 1046 da3e 4150 af3e
-0.0024376384 0.0008096572 0.028567927 -0.04693472 0.024768682 -0.016206624 0.03764887 -0.017008528
0.3889903 0.002758171 -0.014768761 0.006555518 -0.01605276 0.3582769 0.012513924 -0.0133407395
0.13123323 -0.019618431 0.0073048384 0.0073863547 -0.01042129 0.53442174 -0.0034592291 -0.012615642
0.011430267 0.2921704 0.71695554 0.020874253 0.0013692356 0.030516073 0.016951164 0.25217617
0.021574484 0.40663207 0.009253881 0.012644865 0.044603024 -0.010990597 0.009145064 0.293342
0.45736232 0.554868 0.014240441 0.3409165 0.18392332 0.029837504 0.0033812732 0.65205896
-0.004064477 0.01613977 -0.0075675244 0.22718178 -0.022638118 0.03143672 -0.0040741987 0.2909603
0.73462254 0.60824686 -0.010935038 -0.007984239 0.029248005 0.38924226 0.47718644 0.32760093
1.0 1.0 1.0 1.0 1.0 1.0 1.0 1.0
1.0 1.0 1.0 1.0 1.0 1.0 1.0 1.0
1.0 1.0 1.0 1.0 1.0 1.0 1.0 1.0
1.0 1.0 1.0 1.0 1.0 1.0 1.0 1.0
1.0 1.0 1.0 1.0 1.0 1.0 1.0 1.0
1.0 1.0 1.0 1.0 1.0 1.0 1.0 1.0
1.0 1.0 1.0 1.0 1.0 1.0 1.0 1.0
1.0 1.0 1.0 1.0 1.0 1.0 1.0 1.0
-0.06623011 -0.05258542 -0.045691863 -0.108475514 -0.057457667 -0.025536265 0.053769264 -0.039695486
0.19546856 -0.05062913 -0.04516365 -0.07466742 -0.040727105 0.31683773 -0.026862428 -0.06774854
0.08978169 -0.07041322 -0.064434454 -0.0064203283 -0.07341883 0.23407748 -0.026326008 -0.017838454
0.00073847116 0.29556865 0.27545553 -0.04967929 -0.06879442 -0.030660111 -0.058056433 0.25038606
-0.056135613 0.25134474 -0.037371185 -0.072649114 -0.044442747 -0.0599393 -0.07689647 0.3123279
0.24127562 0.21298453 -0.080808304 0.20980403 0.17284197 -0.045146022 -0.030480329 0.28538656
-0.049608916 -0.0844381 -0.013233706 0.42630136 -0.114850044 -0.0770243 -0.016859595 0.21565643
0.25626037 0.20809223 -0.0682506 -0.011650555 -0.036666345 0.2471344 0.18847004 0.2789402
0.013674762 0.016406555 0.023257457 -0.0009086124 0.018099045 -0.034034144 0.038819693 -0.024991328
0.46180552 0.0071021067 -0.032785468 -0.0138928825 -0.016732674 0.31546652 -0.025067847 0.013280802
0.13088591 0.009028133 -0.008127296 0.006558467 0.0028552935 0.49833584 -0.0038283234 -0.007604063
-0.0087395115 0.3416046 0.74065536 0.011094893 -0.01199237 -0.0025317073 0.0014710787 0.21279289
0.019856602 0.4385909 -0.021970326 0.007904621 0.031832274 -0.011671054 0.01895411 0.29660654
0.4267836 0.63599813 0.035356555 0.37181577 0.16951211 0.007251614 -0.0557814 0.6469303
-0.004063676 -0.050769795 -0.012610619 0.3079932 -0.0015810089 0.013767688 -0.00432938 0.40211493
0.6945693 0.6028494 0.02536603 0.0032295664 0.033019032 0.37795493 0.42631578 0.34240916

model/lstm/while/lstm_cell_4/MatMul_1 i1 [256, 64] scale=0.0019624943 zero_point=0
00000000: 1509 e726 ecdd ebe3 ecc3 f503 eae3 fc06
00000010: d801 ff03 03dc 3605 4ef2 430b d24c 1e2d
00000020: f527 dd03 10ec fdfe d900 1807 d8ce efd0
00000030: 01ff fcd8 11d4 0c22 12f9 ebe8 eb05 0fed
00000040: e629 04dd 0f2d de17 e1db 1510 0fd8 0af5
00000050: 3cf2 fe05 0b00 0d10 1607 55f1 13f3 dcd5
00000060: e6d8 080f f0f4 34c8 5fd6 eecc 0e24 eae7
00000070: 10fd 0630 e806 cdf1 0d23 f7e6 18eb d5ec
00000080: 0d10 1605 1108 0909 bf3d c8e3 111d 05f6
00000090: 1489 2836 e129 10c3 0dda e0dd db08 0af9
000000a0: 05fa 0113 1209 15cf ece2 24ea cff9 1b04
000000b0: 0ad9 28ff dc04 f337 1de0 c7f2 0eef f6fa
000000c0: df1e f618 f100 ef00 14f3 fce5 ecfa 0fc5
000000d0: f306 0e2b f6f1 1be3 e231 07d1 3009 0f22
000000e0: 5500 3005 15cc fceb 16f2 25d1 da06 f6f4
000000f0: fadd 4b1b ce1a dfd5 ec10 3103 fd0c 270d
0.04121238 0.017662449 -0.04906236 0.07457478 -0.039249886 -0.068687305 -0.04121238 -0.056912336
-0.039249886 -0.11971215 -0.021587437 0.0058874832 -0.043174874 -0.056912336 -0.007849977 0.0117749665
-0.07849977 0.0019624943 -0.0019624943 0.0058874832 0.0058874832 -0.070649795 0.1059747 0.009812471
0.15307456 -0.027474921 0.13148712 0.021587437 -0.09027474 0.14914957 0.05887483 0.088312246
-0.021587437 0.07653728 -0.068687305 0.0058874832 0.03139991 -0.039249886 -0.0058874832 -0.0039249887
-0.07653728 0.0 0.047099866 0.013737461 -0.07849977 -0.09812472 -0.033362404 -0.09419973
0.0019624943 -0.0019624943 -0.007849977 -0.07849977 0.033362404 -0.08634975 0.023549933 0.06672481
0.035324898 -0.013737461 -0.04121238 -0.047099866 -0.04121238 0.009812471 0.029437415 -0.03728739
-0.051024854 0.08046227 0.007849977 -0.068687305 0.029437415 0.088312246 -0.06672481 0.04513737
-0.060837325 -0.07261229 0.04121238 0.03139991 0.029437415 -0.07849977 0.019624943 -0.021587437
0.11774966 -0.027474921 -0.0039249887 0.009812471 0.021587437 0.0 0.025512427 0.03139991
0.043174874 0.013737461 0.16681202 -0.029437415 0.03728739 -0.025512427 -0.070649795 -0.08438726
-0.051024854 -0.07849977 0.015699955 0.029437415 -0.03139991 -0.023549933 0.10204971 -0.109899685
0.18643697 -0.08242476 -0.035324898 -0.10204971 0.027474921 0.070649795 -0.043174874 -0.04906236
0.03139991 -0.0058874832 0.0117749665 0.09419973 -0.047099866 0.0117749665 -0.10008721 -0.029437415
0.025512427 0.068687305 -0.017662449 -0.051024854 0.047099866 -0.04121238 -0.08438726 -0.039249886
0.025512427 0.03139991 0.043174874 0.009812471 0.033362404 0.015699955 0.017662449 0.017662449
-0.12756214 0.11971215 -0.109899685 -0.056912336 0.033362404 0.056912336 0.009812471 -0.019624943
0.039249886 -0.23353682 0.07849977 0.1059747 -0.060837325 0.08046227 0.03139991 -0.11971215
0.025512427 -0.07457478 -0.06279982 -0.068687305 -0.07261229 0.015699955 0.019624943 -0.013737461
0.009812471 -0.0117749665 0.0019624943 0.03728739 0.035324898 0.017662449 0.04121238 -0.09616222
-0.039249886 -0.05887483 0.070649795 -0.043174874 -0.09616222 -0.013737461 0.05298735 0.007849977
0.019624943 -0.07653728 0.07849977 -0.0019624943 -0.070649795 0.007849977 -0.025512427 0.10793719
0.056912336 -0.06279982 -0.111862175 -0.027474921 0.027474921 -0.033362404 -0.019624943 -0.0117749665
-0.06476232 0.05887483 -0.019624943 0.047099866 -0.029437415 0.0 -0.033362404 0.0
0.039249886 -0.025512427 -0.007849977 -0.05298735 -0.039249886 -0.0117749665 0.029437415 -0.11578716
-0.025512427 0.0117749665 0.027474921 0.08438726 -0.019624943 -0.029437415 0.05298735 -0.056912336
-0.05887483 0.09616222 0.013737461 -0.092237234 0.09419973 0.017662449 0.029437415 0.06672481
0.16681202 0.0 0.09419973 0.009812471 0.04121238 -0.10204971 -0.007849977 -0.04121238
0.043174874 -0.027474921 0.07261229 -0.092237234 -0.07457478 0.0117749665 -0.019624943 -0.023549933
-0.0117749665 -0.068687305 0.14718707 0.05298735 -0.09812472 0.051024854 -0.06476232 -0.08438726
-0.039249886 0.03139991 0.09616222 0.0058874832 -0.0058874832 0.023549933 0.07653728 0.025512427

model/lstm/while/lstm_cell_4/MatMul i1 [256, 21] scale=0.0063046045 zero_point=0
00000000: e5e8 f9ee e90d e9f1 04ff e2e5 04f9 f3fd
00000010: fa02 1aed 17f8 0aff e8e8 fef4 e2ed 04f9
00000020: fbed e8e3 06e9 e316 fe11 f607 f5e7 0704
00000030: eafd 0dfa eae6 0c0a 0c07 0507 07ec 1502
00000040: 07e9 e0f8 f1ee f40c 02ec f2e4 0ae4 0411
00000050: e912 e921 ddfd 050a e808 f407 f008 eef1
00000060: 07f6 f200 e801 20ef faef 1106 e7f0 fdee
00000070: 13fa f2f4 fbe1 130c e711 fe04 eaed f810
00000080: fe15 05f6 0f0e e822 f0f9 f70d f5ff 000f
00000090: e71e ea10 fb0d 16f6 eef0 0afc 02fa 1ef5
000000a0: f8fd f201 10ff 12fe f3d2 21d7 f2ce fcdc
000000b0: cafc 10d3 ecf4 fef0 f0fb 0a00 1306 f4f8
000000c0: e3f8 09f2 0af6 fcdf de03 07f7 09f3 f318
000000d0: 061f f2f9 e80b f9fc ed12 02ff e6f6 f7e3
000000e0: 0f04 e3fc f1fb 1203 e3db f1f4 efef 060c
000000f0: f1ff fd01 e309 0dfe f4f5 e713 eef0 0616
-0.17022432 -0.1513105 -0.044132233 -0.11348288 -0.1450059 0.08195986 -0.1450059 -0.094569065
0.025218418 -0.0063046045 -0.18913813 -0.17022432 0.025218418 -0.044132233 -0.08195986 -0.018913813
-0.037827626 0.012609209 0.16391972 -0.119787484 0.1450059 -0.050436836 0.063046046 -0.0063046045
-0.1513105 -0.1513105 -0.012609209 -0.07565525 -0.18913813 -0.119787484 0.025218418 -0.044132233
-0.031523023 -0.119787484 -0.1513105 -0.18283352 0.037827626 -0.1450059 -0.18283352 0.1387013
-0.012609209 0.10717828 -0.063046046 0.044132233 -0.06935065 -0.15761511 0.044132233 0.025218418
-0.1387013 -0.018913813 0.08195986 -0.037827626 -0.1387013 -0.16391972 0.07565525 0.063046046
0.07565525 0.044132233 0.031523023 0.044132233 0.044132233 -0.12609209 0.1323967 0.012609209
0.044132233 -0.1450059 -0.20174734 -0.050436836 -0.094569065 -0.11348288 -0.07565525 0.07565525
0.012609209 -0.12609209 -0.088264465 -0.17652893 0.063046046 -0.17652893 0.025218418 0.10717828
-0.1450059 0.11348288 -0.1450059 0.20805195 -0.22066116 -0.018913813 0.031523023 0.063046046
-0.1513105 0.050436836 -0.07565525 0.044132233 -0.10087367 0.050436836 -0.11348288 -0.094569065
0.044132233 -0.063046046 -0.088264465 0.0 -0.1513105 0.0063046045 0.20174734 -0.10717828
-0.037827626 -0.10717828 0.10717828 0.037827626 -0.15761511 -0.10087367 -0.018913813 -0.11348288
0.119787484 -0.037827626 -0.088264465 -0.07565525 -0.031523023 -0.19544274 0.119787484 0.07565525
-0.15761511 0.10717828 -0.012609209 0.025218418 -0.1387013 -0.119787484 -0.050436836 0.10087367
-0.012609209 0.1323967 0.031523023 -0.063046046 0.094569065 0.088264465 -0.1513105 0.21435656
-0.10087367 -0.044132233 -0.05674144 0.08195986 -0.06935065 -0.0063046045 0.0 0.094569065
-0.15761511 0.18913813 -0.1387013 0.10087367 -0.031523023 0.08195986 0.1387013 -0.063046046
-0.11348288 -0.10087367 0.063046046 -0.025218418 0.012609209 -0.037827626 0.18913813 -0.06935065
-0.050436836 -0.018913813 -0.088264465 0.0063046045 0.10087367 -0.0063046045 0.11348288 -0.012609209
-0.08195986 -0.2900118 0.20805195 -0.25848877 -0.088264465 -0.31523022 -0.025218418 -0.22696576
-0.34044865 -0.025218418 0.10087367 -0.2837072 -0.12609209 -0.07565525 -0.012609209 -0.10087367
-0.10087367 -0.031523023 0.063046046 0.0 0.119787484 0.037827626 -0.07565525 -0.050436836
-0.18283352 -0.050436836 0.05674144 -0.088264465 0.063046046 -0.063046046 -0.025218418 -0.20805195
-0.21435656 0.018913813 0.044132233 -0.05674144 0.05674144 -0.08195986 -0.08195986 0.1513105
0.037827626 0.19544274 -0.088264465 -0.044132233 -0.1513105 0.06935065 -0.044132233 -0.025218418
-0.119787484 0.11348288 0.012609209 -0.0063046045 -0.16391972 -0.063046046 -0.05674144 -0.18283352
0.094569065 0.025218418 -0.18283352 -0.025218418 -0.094569065 -0.031523023 0.11348288 0.018913813
-0.18283352 -0.23327036 -0.094569065 -0.07565525 -0.10717828 -0.10717828 0.037827626 0.07565525
-0.094569065 -0.0063046045 -0.018913813 0.0063046045 -0.18283352 0.05674144 0.08195986 -0.012609209
-0.07565525 -0.06935065 -0.15761511 0.119787484 -0.11348288 -0.10087367 0.037827626 0.1387013

lstm_1/lstm_cell_5/bias1 f4 [128]
00000000: 0fb0 a53d 3709 af3d d463 553d d773 cb3d
00000010: 5d14 983d 72cf 203e 5f04 063d 1167 573e
00000020: 22ea 733d fe22 a73d 6542 cf3d ee5e b23e
00000030: 2f9b ea3d 0f62 d43c 5e58 a63d e1b0 003e
00000040: b53c c03d 94bc c33d 8a01 293e ec33 be3d
00000050: fc03 2f3d cdc1 993d fdf2 cd3d 303f 7b3d
00000060: 34a4 333e 82af de3d e48d d33d b465 953d
00000070: bb1e b53d e96f 9f3d 125b 8f3d e88e 033d
00000080: 0000 803f 0000 803f 0000 803f 0000 803f
00000090: 0000 803f 0000 803f 0000 803f 0000 803f
000000a0: 0000 803f 0000 803f 0000 803f 0000 803f
000000b0: 0000 803f 0000 803f 0000 803f 0000 803f
000000c0: 0000 803f 0000 803f 0000 803f 0000 803f
000000d0: 0000 803f 0000 803f 0000 803f 0000 803f
000000e0: 0000 803f 0000 803f 0000 803f 0000 803f
000000f0: 0000 803f 0000 803f 0000 803f 0000 803f
00000100: a30f 5f3c 5449 213d 4a2c e8ba beaf b43c
00000110: 5a83 bd3c b0b7 7839 f3ce d23c d9f1 3b3e
00000120: e6e6 453d 1bd5 083b 7b52 cd3c 70b9 5a3e
00000130: b171 013d 8d5c 813d be89 933b 3422 3c3d
00000140: 8c83 5a3d 7e97 ac3d a8b6 693d 8430 143d
00000150: 9d7d 083d 2814 a33b 9f6d d239 ef66 173d
00000160: e281 3e3d 7577 ca3c 9dd5 eb3c 816e 643c
00000170: 768c d63c 26fb 143d f66b 223d 8bcb 453d
00000180: fc16 9f3d 6a94 a43d 90ae 9c3d 4cf0 a53d
00000190: 4afe 8c3d 8d24 213e 834d 353d a95c 863e
000001a0: abf9 783d 84c9 853d f203 ff3d 2859 da3e
000001b0: 7127 eb3d 1de4 ec3c 86f5 b53d 1895 013e
000001c0: 057b a93d 7789 bf3d 6317 253e 7c1c be3d
000001d0: 37be 103d 43a1 9d3d 7d64 c33d be4c 853d
000001e0: 3130 2b3e f4f6 ed3d a9c2 c03d cc18 c13d
000001f0: 2046 c23d af68 9c3d c21e 8e3d e08b 0b3d
0.08090221 0.085466795 0.052097157 0.09934204 0.07425759 0.15704134 0.032719012 0.2103541
0.05954946 0.08160971 0.101200856 0.3483805 0.1145538 0.025925664 0.081223235 0.12567474
0.09386579 0.09557453 0.16504493 0.09287247 0.04272841 0.07507668 0.10056112 0.061339557
0.17543107 0.10873319 0.10329798 0.07294789 0.08843752 0.07785017 0.06999792 0.032118708
1.0 1.0 1.0 1.0 1.0 1.0 1.0 1.0
1.0 1.0 1.0 1.0 1.0 1.0 1.0 1.0
1.0 1.0 1.0 1.0 1.0 1.0 1.0 1.0
1.0 1.0 1.0 1.0 1.0 1.0 1.0 1.0
0.013614568 0.03937657 -0.0017713394 0.022056457 0.023133922 0.00023719552 0.025733447 0.18353976
0.048315905 0.0020878974 0.025063744 0.21359801 0.031602565 0.06316481 0.004502504 0.045931056
0.05334811 0.08427332 0.05705896 0.03617908 0.03332292 0.004976768 0.00040135995 0.0369634
0.046510585 0.024715165 0.028788382 0.013942362 0.026190024 0.036372326 0.03965374 0.048289817
0.07768056 0.0803612 0.07650483 0.081024736 0.06884439 0.157366 0.044263374 0.2624257
0.060784977 0.06532577 0.124519244 0.42646146 0.11482132 0.028917367 0.088847205 0.12654531
0.08275417 0.09352391 0.16122203 0.09282777 0.035337653 0.07696774 0.09540651 0.06508778
0.16717602 0.11619368 0.094121285 0.09428558 0.094860315 0.07637154 0.0693946 0.034068942

model/lstm_1/while/lstm_cell_5/MatMul_1 i1 [128, 32] scale=0.0025371457 zero_point=0
00000000: 0957 2123 05cc c41b 1806 fffb 46c2 cdff
00000010: 0af2 0d2b f4e9 89e7 e0d1 0a2c 0ad8 d2f2
00000020: f422 01f2 e606 da3b 2c28 2beb b1d6 0a15
00000030: 1bf6 e117 0e1a 08fd 0bf2 0dee 2206 ff21
00000040: 04f3 f411 c5c7 15f8 f62c 100b d1e0 1119
00000050: 1534 042b ed20 021c 1b1b e634 fe0c e748
00000060: 09cf e22e 1213 07c6 f4ef 1eec ed15 e614
00000070: 353c 2bf5 11f8 15d3 1015 071d e90b eb1f
00000080: 22c2 3aef 3adb 1a18 fdd7 2cfd eced 360f
00000090: 02d4 dc24 12f0 02d2 f1f1 cae0 f13a e005
000000a0: f4e2 12df 131b d3f2 1d3d 340e e310 cc05
000000b0: aff3 0d1d 36f5 eceb 1ffd ce0d 1a0b db35
000000c0: edc4 dad0 e000 fff6 f3ff 0120 ef1e 0e21
000000d0: e2c4 30e1 ddf1 f828 d3cb fbf2 41ac f416
000000e0: b8fa f823 def2 060b d9b5 48f1 05e4 f2cb
000000f0: 30f0 1107 31ca e30b 2d45 320d 1839 301f
0.022834312 0.22073168 0.08372581 0.0888001 0.012685729 -0.13193157 -0.15222874 0.06850293
0.060891498 0.0152228745 -0.0025371457 -0.012685729 0.1776002 -0.15730304 -0.12939443 -0.0025371457
0.025371458 -0.03552004 0.032982893 0.109097265 -0.030445749 -0.05835435 -0.30192035 -0.06342864
-0.081188664 -0.11924585 0.025371458 0.11163441 0.025371458 -0.10148583 -0.1167087 -0.03552004
-0.030445749 0.086262956 0.0025371457 -0.03552004 -0.06596579 0.0152228745 -0.09641154 0.1496916
0.11163441 0.10148583 0.109097265 -0.05328006 -0.20043452 -0.10656012 0.025371458 0.05328006
0.06850293 -0.025371458 -0.07865152 0.05835435 0.03552004 0.06596579 0.020297166 -0.0076114372
0.027908603 -0.03552004 0.032982893 -0.045668624 0.086262956 0.0152228745 -0.0025371457 0.08372581
0.010148583 -0.032982893 -0.030445749 0.043131478 -0.1496916 -0.1446173 0.05328006 -0.020297166
-0.025371458 0.11163441 0.040594332 0.027908603 -0.11924585 -0.081188664 0.043131478 0.06342864
0.05328006 0.13193157 0.010148583 0.109097265 -0.04820577 0.081188664 0.0050742915 0.07104008
0.06850293 0.06850293 -0.06596579 0.13193157 -0.0050742915 0.030445749 -0.06342864 0.1826745
0.022834312 -0.12432014 -0.07611437 0.1167087 0.045668624 0.04820577 0.01776002 -0.14715445
-0.030445749 -0.043131478 0.07611437 -0.050742917 -0.04820577 0.05328006 -0.06596579 0.050742917
0.13446872 0.15222874 0.109097265 -0.027908603 0.043131478 -0.020297166 0.05328006 -0.11417156
0.040594332 0.05328006 0.01776002 0.073577225 -0.05835435 0.027908603 -0.05328006 0.07865152
0.086262956 -0.15730304 0.14715445 -0.043131478 0.14715445 -0.093874395 0.06596579 0.060891498
-0.0076114372 -0.10402297 0.11163441 -0.0076114372 -0.050742917 -0.04820577 0.13700587 0.038057186
0.0050742915 -0.11163441 -0.09133725 0.09133725 0.045668624 -0.040594332 0.0050742915 -0.1167087
-0.038057186 -0.038057186 -0.13700587 -0.081188664 -0.038057186 0.14715445 -0.081188664 0.012685729
-0.030445749 -0.07611437 0.045668624 -0.08372581 0.04820577 0.06850293 -0.11417156 -0.03552004
0.073577225 0.15476589 0.13193157 0.03552004 -0.073577225 0.040594332 -0.13193157 0.012685729
-0.2055088 -0.032982893 0.032982893 0.073577225 0.13700587 -0.027908603 -0.050742917 -0.05328006
0.07865152 -0.0076114372 -0.12685728 0.032982893 0.06596579 0.027908603 -0.093874395 0.13446872
-0.04820577 -0.15222874 -0.09641154 -0.121782996 -0.081188664 0.0 -0.0025371457 -0.025371458
-0.032982893 -0.0025371457 0.0025371457 0.081188664 -0.043131478 0.07611437 0.03552004 0.08372581
-0.07611437 -0.15222874 0.121782996 -0.07865152 -0.0888001 -0.038057186 -0.020297166 0.10148583
-0.11417156 -0.13446872 -0.012685729 -0.03552004 0.16491447 -0.21312024 -0.030445749 0.055817205
-0.1826745 -0.0152228745 -0.020297166 0.0888001 -0.086262956 -0.03552004 0.0152228745 0.027908603
-0.09894869 -0.19028594 0.1826745 -0.038057186 0.012685729 -0.07104008 -0.03552004 -0.13446872
0.121782996 -0.040594332 0.043131478 0.01776002 0.12432014 -0.13700587 -0.073577225 0.027908603
0.11417156 0.17506306 0.12685728 0.032982893 0.060891498 0.1446173 0.121782996 0.07865152

model/lstm_1/while/lstm_cell_5/MatMul i1 [128, 64] scale=0.0068702735 zero_point=0
00000000: 0eec 07ee 08ee 1006 eaea fd07 1412 f6ef
00000010: 1517 1512 1bfc 0003 1df0 c517 0800 1002
00000020: f2d9 1a12 001c 1cf7 e3e0 edee 13ff efaa
00000030: ff07 ef0c 081f fa18 d7d3 1cf7 08e9 ebe2
00000040: 110c f2f8 2814 e603 0f0e f81c e8f1 2302
00000050: fcf4 f3fb 0cdb 16e3 122d dbfa f928 1ef1
00000060: 0cec 0120 180d 11fd bf1f 230a f3f9 0de2
00000070: 1f26 f912 2616 eb0c dff5 1307 08c6 e9f9
00000080: fc13 170e 03ef f105 19e9 0201 12e7 f907
00000090: 011b 0f17 0d0e e8fb f607 0fee 14fd 03e8
000000a0: 03fa 1205 0bff 021c f310 fe14 020c 0f0b
000000b0: 0612 121a 1a0e ef05 0e13 ea0d f3fa 30d5
000000c0: 111b 1f02 fa0e e8eb 221c 0300 f2f8 f4fc
000000d0: 06fc 070d 223a ee14 fe0d 310b fff0 1cf9
000000e0: 0706 0e13 f820 1a03 ec09 fe09 1104 e01c
000000f0: 1804 1017 0016 fae3 fe2e 1c19 070f 41ed
0.09618383 -0.13740547 0.048091915 -0.12366492 0.054962188 -0.12366492 0.109924376 0.04122164
-0.15114602 -0.15114602 -0.02061082 0.048091915 0.13740547 0.12366492 -0.068702735 -0.116794646
0.14427574 0.1580163 0.14427574 0.12366492 0.18549739 -0.027481094 0.0 0.02061082
0.19923793 -0.109924376 -0.40534613 0.1580163 0.054962188 0.0 0.109924376 0.013740547
-0.09618383 -0.26794067 0.1786271 0.12366492 0.0 0.19236766 0.19236766 -0.06183246
-0.19923793 -0.21984875 -0.1305352 -0.12366492 0.1305352 -0.0068702735 -0.116794646 -0.5908435
-0.0068702735 0.048091915 -0.116794646 0.08244328 0.054962188 0.21297848 -0.04122164 0.16488656
-0.2816812 -0.30916232 0.19236766 -0.06183246 0.054962188 -0.1580163 -0.14427574 -0.20610821
0.116794646 0.08244328 -0.09618383 -0.054962188 0.27481094 0.13740547 -0.1786271 0.02061082
0.103054106 0.09618383 -0.054962188 0.19236766 -0.16488656 -0.103054106 0.24045958 0.013740547
-0.027481094 -0.08244328 -0.08931355 -0.034351368 0.08244328 -0.25420013 0.15114602 -0.19923793
0.12366492 0.30916232 -0.25420013 -0.04122164 -0.048091915 0.27481094 0.20610821 -0.103054106
0.08244328 -0.13740547 0.0068702735 0.21984875 0.16488656 0.08931355 0.116794646 -0.02061082
-0.44656777 0.21297848 0.24045958 0.068702735 -0.08931355 -0.048091915 0.08931355 -0.20610821
0.21297848 0.2610704 -0.048091915 0.12366492 0.2610704 0.15114602 -0.14427574 0.08244328
-0.22671902 -0.07557301 0.1305352 0.048091915 0.054962188 -0.39847586 -0.1580163 -0.048091915
-0.027481094 0.1305352 0.1580163 0.09618383 0.02061082 -0.116794646 -0.103054106 0.034351368
0.17175683 -0.1580163 0.013740547 0.0068702735 0.12366492 -0.17175683 -0.048091915 0.048091915
0.0068702735 0.18549739 0.103054106 0.1580163 0.08931355 0.09618383 -0.16488656 -0.034351368
-0.068702735 0.048091915 0.103054106 -0.12366492 0.13740547 -0.02061082 0.02061082 -0.16488656
0.02061082 -0.04122164 0.12366492 0.034351368 0.07557301 -0.0068702735 0.013740547 0.19236766
-0.08931355 0.109924376 -0.013740547 0.13740547 0.013740547 0.08244328 0.103054106 0.07557301
0.04122164 0.12366492 0.12366492 0.1786271 0.1786271 0.09618383 -0.116794646 0.034351368
0.09618383 0.1305352 -0.15114602 0.08931355 -0.08931355 -0.04122164 0.32977313 -0.29542175
0.116794646 0.18549739 0.21297848 0.013740547 -0.04122164 0.09618383 -0.16488656 -0.14427574
0.23358929 0.19236766 0.02061082 0.0 -0.09618383 -0.054962188 -0.08244328 -0.027481094
0.04122164 -0.027481094 0.048091915 0.08931355 0.23358929 0.39847586 -0.12366492 0.13740547
-0.013740547 0.08931355 0.3366434 0.07557301 -0.0068702735 -0.109924376 0.19236766 -0.048091915
0.048091915 0.04122164 0.09618383 0.1305352 -0.054962188 0.21984875 0.1786271 0.02061082
-0.13740547 0.06183246 -0.013740547 0.06183246 0.116794646 0.027481094 -0.21984875 0.19236766
0.16488656 0.027481094 0.109924376 0.1580163 0.0 0.15114602 -0.04122164 -0.19923793
-0.013740547 0.3160326 0.19236766 0.17175683 0.048091915 0.103054106 0.44656777 -0.1305352
